onecap_model_with_structure_ambiguity/output/lower_triangular_four_ambiguous_parameters/Delta_10.0_distorted_0/logadjustment_1_boundary_0/zmax_5.0_zscale_2.0/delta_0.015/q_0.1_gamma_1.0_rho_1.0/model.npz (npz, 126264 bytes, 58 tensors)

clowerlim f8 []
000000 2d 43 1c eb e2 36 1a 3f
       0.0001

zmin f8 []
000000 00 00 00 00 00 00 14 c0
       -5.0

Delta f8 []
000000 00 00 00 00 00 00 24 40
       10.0

s1_F f8 [401]
000000 0d 74 cb ce 1e ac ec bf 0c e6 d5 f0 97 87 ec bf
       -0.8960107840499646 -0.8915519431895418
000010 e2 aa da 18 11 63 ec bf 74 8a 3a 59 8a 3e ec bf
       -0.8870931134636886 -0.8826343291041909
000020 74 fb ea b7 03 1a ec bf dc c7 12 37 7d f5 eb bf
       -0.8781756012102577 -0.8737169337894062
000030 88 fa ad d7 f6 d0 eb bf ec d8 5d 9a 70 ac eb bf
       -0.8692583286754862 -0.8647997870419011
000040 fa 17 a9 7f ea 87 eb bf 2a cc 0f 88 64 63 eb bf
       -0.8603413098687718 -0.8558828980880027
000050 c0 a7 11 b4 de 3e eb bf ad f0 2f 04 59 1a eb bf
       -0.851424552628707 -0.8469662744314711
000060 31 31 ee 78 d3 f5 ea bf c0 76 d2 12 4e d1 ea bf
       -0.8425080644533748 -0.8380499236697787
000070 6c 6f 65 d2 c8 ac ea bf 94 82 32 b8 43 88 ea bf
       -0.8335918530751605 -0.8291338536838162
000080 64 e6 c7 c4 be 63 ea bf 3e ac b6 f8 39 3f ea bf
       -0.8246759265304715 -0.8202180726706343
000090 a3 da 92 54 b5 1a ea bf 16 7e f3 d8 30 f6 e9 bf
       -0.8157602931813311 -0.8113025891615873
0000a0 b2 bc 72 86 ac d1 e9 bf 98 eb ad 5d 28 ad e9 bf
       -0.8068449617329831 -0.8023874120402636
0000b0 38 a3 45 5f a4 88 e9 bf 41 db dd 8b 20 64 e9 bf
       -0.7979299412519145 -0.7934725505609564
0000c0 c3 f9 1d e4 9c 3f e9 bf e6 ef b0 68 19 1b e9 bf
       -0.7890152411853751 -0.7845580143689375
0000d0 b7 52 45 1a 96 f6 e8 bf 62 6f 8d f9 12 d2 e8 bf
       -0.7801008713818963 -0.7756438135215655
0000e0 30 6b 3f 07 90 ad e8 bf f8 5b 15 44 0d 89 e8 bf
       -0.7711868421132291 -0.7667299585108358
0000f0 85 65 cd b0 8a 64 e8 bf f8 d2 29 4e 08 40 e8 bf
       -0.762273164097835 -0.7578164602878976
000100 37 39 f1 1c 86 1b e8 bf f7 91 ee 1d 04 f7 e7 bf
       -0.7533598485258953 -0.7489033302886686
000110 27 5e f1 51 82 d2 e7 bf bc c7 cd b9 00 ae e7 bf
       -0.7444469070860052 -0.7399905804616007
000120 96 bd 5c 56 7f 89 e7 bf 43 23 7c 28 fe 64 e7 bf
       -0.7355343519938511 -0.7310782232972105
000130 9e e8 0e 31 7d 40 e7 bf a3 36 fd 70 fc 1b e7 bf
       -0.7266221960228625 -0.722166271859994
000140 f1 95 34 e9 7b f7 e6 bf 20 18 a8 9a fb d2 e6 bf
       -0.7177104525368901 -0.7132547398221085
000150 93 7f 50 86 7b ae e6 bf db 6c 2c ad fb 89 e6 bf
       -0.7087991355256115 -0.7043436415000558
000160 e5 8b 40 10 7c 65 e6 bf f4 c3 97 b0 fc 40 e6 bf
       -0.6998882596420769 -0.6954329918936524
000170 35 66 43 8f 7d 1c e6 bf bf 62 5b ad fe f7 e5 bf
       -0.6909778402434258 -0.6865228067282131
000180 78 7b fe 0b 80 d3 e5 bf 6f 7a 52 ac 01 af e5 bf
       -0.6820678934344491 -0.6776131024997322
000190 16 6c 84 8f 83 8a e5 bf d6 d8 c8 b6 05 66 e5 bf
       -0.6731584361144793 -0.6687038965235625
0001a0 ad 01 5c 23 88 41 e5 bf 70 20 82 d6 0a 1d e5 bf
       -0.6642494860280316 -0.6597952069869404
0001b0 46 aa 87 d1 8d f8 e4 bf 99 91 c1 15 11 d4 e4 bf
       -0.6553410618192366 -0.6508870530056355
0001c0 93 8f 8d a4 94 af e4 bf a8 6d 52 7f 18 8b e4 bf
       -0.6464331830907092 -0.641979454684976
0001d0 13 52 80 a7 9c 66 e4 bf e8 11 91 1e 21 42 e4 bf
       -0.6375258704670749 -0.633072433186098
0001e0 b0 7f 08 e6 a5 1d e4 bf d0 c7 74 ff 2a f9 e3 bf
       -0.6286191456638246 -0.6241660107973477
0001f0 41 c8 6e 6c b0 d4 e3 bf 6a 6e 9a 2e 36 b0 e3 bf
       -0.6197130315615668 -0.6152602110118555
000200 25 1a a7 47 bc 8b e3 bf c0 03 50 b9 42 67 e3 bf
       -0.6108075522868758 -0.6063550586114772
000210 87 a7 5c 85 c9 42 e3 bf d8 32 a1 ad 50 1e e3 bf
       -0.6019027332997532 -0.5974505797581413
000220 dc fa fe 33 d8 f9 e2 bf fe f3 64 1a 60 d5 e2 bf
       -0.5929986014887976 -0.5885468020929918
000230 80 30 d0 62 e8 b0 e2 bf 06 64 4c 0f 71 8c e2 bf
       -0.5840951852747054 -0.5796437548443698
000240 5b 71 f4 21 fa 67 e2 bf a4 f4 f2 9c 83 43 e2 bf
       -0.5751925147228961 -0.5707414689456027
000250 c4 dd 82 82 0d 1f e2 bf d9 0c f0 d4 97 fa e1 bf
       -0.5662906216666035 -0.5618399771632553
000260 88 f8 97 96 22 d6 e1 bf 78 59 ea c9 ad b1 e1 bf
       -0.5573895398408846 -0.5529393142376611
000270 15 de 69 71 39 8d e1 bf 36 e8 ac 8f c5 68 e1 bf
       -0.5484893050297069 -0.5440395170364869
000280 4e 54 5e 27 52 44 e1 bf 49 47 3e 3b df 1f e1 bf
       -0.5395899552264696 -0.5351406247229785
000290 aa 09 23 ce 6c fb e0 bf c4 eb f9 e2 fa d6 e0 bf
       -0.5306915308104199 -0.5262426789407688
0002a0 33 34 c8 7c 89 b2 e0 bf 92 1c ac 9e 18 8e e0 bf
       -0.5217940747403474 -0.5173457240170072
0002b0 d0 d7 dd 4b a8 69 e0 bf 4a a9 b0 87 38 45 e0 bf
       -0.5128976327675847 -0.5084498071858345
0002c0 d7 08 94 55 c9 20 e0 bf 84 a6 29 72 b5 f8 df bf
       -0.5040022536707295 -0.49955497883511435
0002d0 76 1b bd 6b d9 af df bf 1a 72 79 9f fe 66 df bf
       -0.49510798951489876 -0.4906612927786981
0002e0 39 70 38 15 25 1e df bf 69 8d 19 d5 4c d5 de bf
       -0.4862148959380224 -0.48176880655792914
0002f0 37 0f 85 e7 75 8c de bf 90 49 2f 55 a0 43 de bf
       -0.477323032468337 -0.4728775817758555
000300 ea 15 1c 27 cc fa dd bf 4a 75 a2 66 f9 b1 dd bf
       -0.46843246287639195 -0.46398768446836824
000310 37 65 70 1d 28 69 dd bf 9b f3 8e 55 58 20 dd bf
       -0.4595432555666607 -0.4550991855174346
000320 21 83 66 19 8a d7 dc bf e2 5c c3 73 bd 8e dc bf
       -0.4506554840136677 -0.4462121611117721
000330 d2 75 da 6f f2 45 dc bf 16 8d 4e 19 29 fd db bf
       -0.44176922724895207 -0.43732669326182483
000340 7c 86 35 7c 61 b4 db bf 7d 2a 1e a5 9b 6b db bf
       -0.4328845704058961 -0.4284428703764787
000350 ef 2d 16 a1 d7 22 db bf 31 a5 b0 7d 15 da da bf
       -0.42400160533062964 -0.41956078791061474
000360 0d d6 0c 49 55 91 da bf 97 7b dd 11 97 48 da bf
       -0.41512043126871917 -0.41068054909367774
000370 b7 7f 70 e7 da ff d9 bf 58 30 b7 d9 20 b7 d9 bf
       -0.40624115563877744 -0.40180226575171707
000380 86 00 4f f9 68 6e d9 bf 9b db 8a 57 b3 25 d9 bf
       -0.3973638949064554 -0.39292605923713503
000390 20 17 7d 06 00 dd d8 bf bc 0a 02 19 4f 94 d8 bf
       -0.3884887755742614 -0.3840520614832419
0003a0 9d 6d cb a2 a0 4b d8 bf 21 6a 6c b8 f4 02 d8 bf
       -0.37961593530573073 -0.3751804162035644
0003b0 67 99 66 6f 4b ba d7 bf e8 de 37 de a4 71 d7 bf
       -0.3707455242059922 -0.36631128026009074
0003c0 13 45 69 1c 01 29 d7 bf bb ec 9e 42 60 e0 d6 bf
       -0.36187770628483057 -0.35744482522904847
0003d0 95 25 a9 6a c2 97 d6 bf f9 ce 96 af 27 4f d6 bf
       -0.3530126611336411 -0.3485812391984236
0003e0 eb 15 c9 2d 90 06 d6 bf e3 b8 08 03 fc bd d5 bf
       -0.3441505858539517 -0.33972072883888255
0003f0 83 e9 9c 4e 6b 75 d5 bf bc 00 64 31 de 2c d5 bf
       -0.3352916972832178 -0.330863521798175
000400 f6 1e ee cd 54 e4 d4 bf 69 f9 99 48 cf 9b d4 bf
       -0.32643623457305126 -0.3220098694800045
000410 f2 ff b3 c7 4d 53 d4 bf 26 0f 98 73 d0 0a d4 bf
       -0.3175844621873686 -0.31316005028223726
000420 72 03 d6 76 57 c2 d3 bf e1 5e 59 fe e2 79 d3 bf
       -0.30873667340352207 -0.30431437338618933
000430 7f 67 94 39 73 31 d3 bf 8f 09 af 5a 08 e9 d2 bf
       -0.29989319441812506 -0.29547318321069665
000440 06 ec b9 96 a2 a0 d2 bf 79 27 e6 25 42 58 d2 bf
       -0.2910543891845808 -0.28663686467245203
000450 20 20 c2 43 e7 0f d2 bf a1 0c 7c 2f 92 c7 d1 bf
       -0.2822206651403594 -0.2778058494297487
000460 b0 e1 2a 2c 43 7f d1 bf f2 3c 1e 81 fa 36 d1 bf
       -0.2733924800227454 -0.26898062333289297
000470 2c 3c 36 7a b8 ee d0 bf 42 1d 44 68 7d a6 d0 bf
       -0.26457035002471474 -0.2601617353652338
000480 a8 bc 74 a1 49 5e d0 bf 07 23 c6 81 1d 16 d0 bf
       -0.25575485961139544 -0.25134980843772364
000490 8d 0d 13 d7 f2 9b cf bf 0d 95 e6 8f bb 0b cf bf
       -0.24694667340928014 -0.2425455525055117
0004a0 12 ae 75 0f 96 7b ce bf f1 a9 98 47 83 eb cd bf
       -0.23814655070178553 -0.23374978061595145
0004b0 a5 6e 1d 3c 84 5b cd bf 40 b4 81 04 9a cb cc bf
       -0.2293553632288098 -0.22496342868854136
0004c0 86 d5 e1 cd c5 3b cc bf 37 bc 23 dd 08 ac cb bf
       -0.2205741172107702 -0.21618758008796288
0004d0 43 95 66 91 64 1c cb bf 72 93 c1 66 da 8c ca bf
       -0.21180398082393923 -0.207423496412186
0004e0 cb b1 5d f9 6b fd c9 bf 3a 96 f8 08 1b 6e c9 bf
       -0.20304631877969678 -0.19867265642203497
0004f0 4b 3b e1 7c e9 de c8 bf b0 24 82 68 d9 4f c8 bf
       -0.19430273625990888 -0.1899368057532107
000500 ae 92 90 10 ed c0 c7 bf 2e ba fc f0 26 32 c7 bf
       -0.18557513531518083 -0.1812180210776701
000510 bf 9d c4 c3 89 a3 c6 bf d1 d4 d1 88 18 15 c6 bf
       -0.17686578806863726 -0.17251879387519023
000520 55 14 13 8f d6 86 c5 bf f8 81 0c 7f c7 f8 c4 bf
       -0.16817743288098322 -0.16384214118535545
000530 33 e0 26 67 ef 6a c4 bf 95 8c 15 ca 52 dd c3 bf
       -0.15951340233527986 -0.15519175403014587
000540 d3 8f bf af f6 4f c3 bf 20 46 31 b9 e0 c2 c2 bf
       -0.15087779599627868 -0.14657219927407628
000550 a0 58 3c 38 17 36 c2 bf ac ab 94 4b a1 a9 c1 bf
       -0.14227571721921084 -0.13798919859376946
000560 36 27 6d 00 87 1d c1 bf 22 9d da 7a d1 91 c0 bf
       -0.1337136032182628 -0.12945002077797435
000570 7c fc 99 26 8b 06 c0 bf ef 14 90 e4 7f f7 be bf
       -0.12519969353522586 -0.12096404390475234
000580 82 df 58 2f fb e2 bd bf 18 37 f7 e8 a7 cf bc bf
       -0.11674470811783347 -0.11254357755316524
000590 0d c0 e4 ef aa bd bb bf c0 aa 00 56 2f ad ba bf
       -0.10836284977699524 -0.10420509195015892
0005a0 aa 6c ee b4 67 9e b9 bf 45 3b 17 da 8f 91 b8 bf
       -0.10007332007664851 -0.09597109865647464
0005b0 17 36 21 e4 ee 86 b7 bf 9e 0c f8 f3 d9 7e b6 bf
       -0.09190266675542379 -0.08787309843323718
0005c0 3c 88 79 9e b7 79 b5 bf c4 e7 31 5a 04 78 b4 bf
       -0.08388850802433095 -0.07995631410622567
0005d0 e7 9c fb 36 58 7a b3 bf 3d 7f 16 44 6e 81 b2 bf
       -0.07608558027606059 -0.07228745615293249
0005e0 8a f6 86 23 2e 8e b1 bf d7 3d 92 63 b8 a1 b0 bf
       -0.06857574813235537 -0.06496765547694082
0005f0 25 44 17 8e ec 7a af bf d2 96 a6 28 5b c6 ad bf
       -0.061484711022451934 -0.058153961860893624
000600 a3 1f 99 46 31 2a ac bf fd d5 19 be 03 ac aa bf
       -0.05500940310281457 -0.052093617397002114
000610 0a c2 ee 7e bf 52 a9 bf 88 66 28 6e d4 26 a8 bf
       -0.04945944237204365 -0.04717124790859112
000620 cb a8 7e c7 38 32 a7 bf c9 18 79 cd 1c 80 a6 bf
       -0.04530503688086326 -0.04394617088523629
000630 27 27 6d f8 21 1c a6 bf 04 03 93 66 01 11 a6 bf
       -0.04318338544415062 -0.04309849145056968
000640 4b 84 16 4a d2 66 a6 bf a4 da 0f 1f f7 1e a7 bf
       -0.04375321535486217 -0.04515812162565183
000650 b2 f1 b2 e8 bb 39 a8 bf 0e db 94 4b 28 b1 a9 bf
       -0.04731547561229678 -0.05017972872376762
000660 bf 40 29 00 0e 7c ab bf 6a ce 6b 14 ba 8f ad bf
       -0.05368083717314808 -0.05773717402726393
000670 37 11 88 74 62 e1 af bf d0 ab b6 0f 88 33 b1 bf
       -0.062266422963178795 -0.06719255813247504
000680 a1 08 30 dd 06 8c b2 bf ed e6 62 54 80 f6 b3 bf
       -0.0724491395958773 -0.07798006115163121
000690 06 26 67 82 e9 6f b5 bf f5 75 65 c9 c4 f5 b6 bf
       -0.08373889382996688 -0.08968763272192588
0006a0 f4 b0 d0 a6 0a 86 b8 bf 38 9f f2 0d 14 1f ba bf
       -0.09579531262051316 -0.10203671780129475
0006b0 b1 49 03 c6 87 bf bb bf 5a 2f f9 09 4b 66 bd bf
       -0.10839127144143991 -0.11484211915484135
0006c0 58 29 88 22 75 12 bf bf fd df e5 c2 a2 61 c0 bf
       -0.12137538998664377 -0.12797960773946207
0006d0 15 cc 44 02 0e 3c c1 bf c8 74 0e 4d 39 18 c2 bf
       -0.13464522467401766 -0.14136425268671915
0006e0 2d cd 06 43 ec f5 c2 bf a9 fa ee 33 f7 d4 c3 bf
       -0.14812997124463703 -0.15493669544044522
0006f0 59 50 65 92 31 b5 c4 bf 4c f0 d1 b5 78 96 c5 bf
       -0.16177959106664977 -0.1686545265000653
000700 4b 9e 5f da ae 78 c6 bf e5 ef d5 51 ba 5b c7 bf
       -0.1755579534794712 -0.182486810644945
000710 39 cf 1f db 84 3f c8 bf a0 b4 8f 18 fb 23 c9 bf
       -0.1894384450857787 -0.19641054820332204
000720 b0 4d b2 1e 0c 09 ca bf f2 e8 d7 16 a9 ee ca bf
       -0.20340110300877035 -0.2104083406009703
000730 9c cf 85 f1 c4 d4 cb bf 02 53 cd 25 54 bb cc bf
       -0.21743070405102294 -0.22446681829264753
000740 4f 14 25 7b 4c a2 cd bf 8e c3 dc db a4 89 ce bf
       -0.2315154649060411 -0.23857556090800042
000750 46 4b a4 2e 55 71 cf bf bd c4 f5 1a ab 2c d0 bf
       -0.24564614083700514 -0.25272634156051393
000760 b8 e9 0d ba d0 a0 d0 bf b3 0d ee 89 18 15 d1 bf
       -0.25981538934106707 -0.2669125887843748
000770 1a 5f db e9 7f 89 d1 bf 43 22 4b 7a 04 fe d1 bf
       -0.2740173133620246 -0.2811289972565058
000780 11 83 53 15 a4 72 d2 bf 52 aa 1f c8 5c e7 d2 bf
       -0.28824712832106153 -0.29537124198274
000790 f5 f1 3f cd 2c 5c d3 bf fc 9b b5 87 12 d1 d3 bf
       -0.30250091594623935 -0.30963576557991224
0007a0 38 cc 9e 7e 0c 46 d4 bf 79 e5 6b 59 19 bb d4 bf
       -0.3167754398847964 -0.3239196179634614
0007b0 8b 0a 8b dc 37 30 d5 bf 3a 7e 79 e6 66 a5 d5 bf
       -0.3310680059186459 -0.33822033412249974
0007c0 7e 21 2d 6d a5 1a d6 bf fd 54 ca 7b f2 8f d6 bf
       -0.3453763548063974 -0.35253583992864873
0007d0 af 48 9c 30 4d 05 d7 bf 0b 2e 47 bb b4 7a d7 bf
       -0.359698579283882 -0.36686437882301054
0007e0 60 ff 2c 5b 28 f0 d7 bf 3e 93 fe 5d a7 65 d8 bf
       -0.3740330591572185 -0.38120445422309845
0007f0 95 94 73 1e 31 db d8 bf 26 aa 24 03 c5 50 d9 bf
       -0.38837841008928226 -0.3955547838874359

d f8 [401]
000000 30 d1 df c9 6a 79 b3 3f 30 d1 df c9 6a 79 b3 3f
       0.07607142857142857 0.07607142857142857
000010 30 d1 df c9 6a 79 b3 3f 30 d1 df c9 6a 79 b3 3f
       0.07607142857142857 0.07607142857142857
000020 30 d1 df c9 6a 79 b3 3f 30 d1 df c9 6a 79 b3 3f
       0.07607142857142857 0.07607142857142857
000030 30 d1 df c9 6a 79 b3 3f 30 d1 df c9 6a 79 b3 3f
       0.07607142857142857 0.07607142857142857
000040 30 d1 df c9 6a 79 b3 3f 30 d1 df c9 6a 79 b3 3f
       0.07607142857142857 0.07607142857142857
000050 30 d1 df c9 6a 79 b3 3f 30 d1 df c9 6a 79 b3 3f
       0.07607142857142857 0.07607142857142857
000060 30 d1 df c9 6a 79 b3 3f 30 d1 df c9 6a 79 b3 3f
       0.07607142857142857 0.07607142857142857
000070 30 d1 df c9 6a 79 b3 3f 30 d1 df c9 6a 79 b3 3f
       0.07607142857142857 0.07607142857142857
000080 30 d1 df c9 6a 79 b3 3f 30 d1 df c9 6a 79 b3 3f
       0.07607142857142857 0.07607142857142857
000090 30 d1 df c9 6a 79 b3 3f 30 d1 df c9 6a 79 b3 3f
       0.07607142857142857 0.07607142857142857
0000a0 30 d1 df c9 6a 79 b3 3f 30 d1 df c9 6a 79 b3 3f
       0.07607142857142857 0.07607142857142857
0000b0 30 d1 df c9 6a 79 b3 3f 30 d1 df c9 6a 79 b3 3f
       0.07607142857142857 0.07607142857142857
0000c0 30 d1 df c9 6a 79 b3 3f 30 d1 df c9 6a 79 b3 3f
       0.07607142857142857 0.07607142857142857
0000d0 30 d1 df c9 6a 79 b3 3f 30 d1 df c9 6a 79 b3 3f
       0.07607142857142857 0.07607142857142857
0000e0 30 d1 df c9 6a 79 b3 3f 30 d1 df c9 6a 79 b3 3f
       0.07607142857142857 0.07607142857142857
0000f0 30 d1 df c9 6a 79 b3 3f 30 d1 df c9 6a 79 b3 3f
       0.07607142857142857 0.07607142857142857
000100 30 d1 df c9 6a 79 b3 3f 30 d1 df c9 6a 79 b3 3f
       0.07607142857142857 0.07607142857142857
000110 30 d1 df c9 6a 79 b3 3f 30 d1 df c9 6a 79 b3 3f
       0.07607142857142857 0.07607142857142857
000120 30 d1 df c9 6a 79 b3 3f 30 d1 df c9 6a 79 b3 3f
       0.07607142857142857 0.07607142857142857
000130 30 d1 df c9 6a 79 b3 3f 30 d1 df c9 6a 79 b3 3f
       0.07607142857142857 0.07607142857142857
000140 30 d1 df c9 6a 79 b3 3f 30 d1 df c9 6a 79 b3 3f
       0.07607142857142857 0.07607142857142857
000150 30 d1 df c9 6a 79 b3 3f 30 d1 df c9 6a 79 b3 3f
       0.07607142857142857 0.07607142857142857
000160 30 d1 df c9 6a 79 b3 3f 30 d1 df c9 6a 79 b3 3f
       0.07607142857142857 0.07607142857142857
000170 30 d1 df c9 6a 79 b3 3f 30 d1 df c9 6a 79 b3 3f
       0.07607142857142857 0.07607142857142857
000180 30 d1 df c9 6a 79 b3 3f 30 d1 df c9 6a 79 b3 3f
       0.07607142857142857 0.07607142857142857
000190 30 d1 df c9 6a 79 b3 3f 30 d1 df c9 6a 79 b3 3f
       0.07607142857142857 0.07607142857142857
0001a0 30 d1 df c9 6a 79 b3 3f 30 d1 df c9 6a 79 b3 3f
       0.07607142857142857 0.07607142857142857
0001b0 30 d1 df c9 6a 79 b3 3f 30 d1 df c9 6a 79 b3 3f
       0.07607142857142857 0.07607142857142857
0001c0 30 d1 df c9 6a 79 b3 3f 30 d1 df c9 6a 79 b3 3f
       0.07607142857142857 0.07607142857142857
0001d0 30 d1 df c9 6a 79 b3 3f 30 d1 df c9 6a 79 b3 3f
       0.07607142857142857 0.07607142857142857
0001e0 30 d1 df c9 6a 79 b3 3f 30 d1 df c9 6a 79 b3 3f
       0.07607142857142857 0.07607142857142857
0001f0 30 d1 df c9 6a 79 b3 3f 30 d1 df c9 6a 79 b3 3f
       0.07607142857142857 0.07607142857142857
000200 30 d1 df c9 6a 79 b3 3f 30 d1 df c9 6a 79 b3 3f
       0.07607142857142857 0.07607142857142857
000210 30 d1 df c9 6a 79 b3 3f 30 d1 df c9 6a 79 b3 3f
       0.07607142857142857 0.07607142857142857
000220 30 d1 df c9 6a 79 b3 3f 30 d1 df c9 6a 79 b3 3f
       0.07607142857142857 0.07607142857142857
000230 30 d1 df c9 6a 79 b3 3f 30 d1 df c9 6a 79 b3 3f
       0.07607142857142857 0.07607142857142857
000240 30 d1 df c9 6a 79 b3 3f 30 d1 df c9 6a 79 b3 3f
       0.07607142857142857 0.07607142857142857
000250 30 d1 df c9 6a 79 b3 3f 30 d1 df c9 6a 79 b3 3f
       0.07607142857142857 0.07607142857142857
000260 30 d1 df c9 6a 79 b3 3f 30 d1 df c9 6a 79 b3 3f
       0.07607142857142857 0.07607142857142857
000270 30 d1 df c9 6a 79 b3 3f 30 d1 df c9 6a 79 b3 3f
       0.07607142857142857 0.07607142857142857
000280 30 d1 df c9 6a 79 b3 3f 30 d1 df c9 6a 79 b3 3f
       0.07607142857142857 0.07607142857142857
000290 30 d1 df c9 6a 79 b3 3f 30 d1 df c9 6a 79 b3 3f
       0.07607142857142857 0.07607142857142857
0002a0 30 d1 df c9 6a 79 b3 3f 30 d1 df c9 6a 79 b3 3f
       0.07607142857142857 0.07607142857142857
0002b0 30 d1 df c9 6a 79 b3 3f 30 d1 df c9 6a 79 b3 3f
       0.07607142857142857 0.07607142857142857
0002c0 30 d1 df c9 6a 79 b3 3f 30 d1 df c9 6a 79 b3 3f
       0.07607142857142857 0.07607142857142857
0002d0 30 d1 df c9 6a 79 b3 3f 30 d1 df c9 6a 79 b3 3f
       0.07607142857142857 0.07607142857142857
0002e0 30 d1 df c9 6a 79 b3 3f 30 d1 df c9 6a 79 b3 3f
       0.07607142857142857 0.07607142857142857
0002f0 30 d1 df c9 6a 79 b3 3f 30 d1 df c9 6a 79 b3 3f
       0.07607142857142857 0.07607142857142857
000300 30 d1 df c9 6a 79 b3 3f 30 d1 df c9 6a 79 b3 3f
       0.07607142857142857 0.07607142857142857
000310 30 d1 df c9 6a 79 b3 3f 30 d1 df c9 6a 79 b3 3f
       0.07607142857142857 0.07607142857142857
000320 30 d1 df c9 6a 79 b3 3f 30 d1 df c9 6a 79 b3 3f
       0.07607142857142857 0.07607142857142857
000330 30 d1 df c9 6a 79 b3 3f 30 d1 df c9 6a 79 b3 3f
       0.07607142857142857 0.07607142857142857
000340 30 d1 df c9 6a 79 b3 3f 30 d1 df c9 6a 79 b3 3f
       0.07607142857142857 0.07607142857142857
000350 30 d1 df c9 6a 79 b3 3f 30 d1 df c9 6a 79 b3 3f
       0.07607142857142857 0.07607142857142857
000360 30 d1 df c9 6a 79 b3 3f 30 d1 df c9 6a 79 b3 3f
       0.07607142857142857 0.07607142857142857
000370 30 d1 df c9 6a 79 b3 3f 30 d1 df c9 6a 79 b3 3f
       0.07607142857142857 0.07607142857142857
000380 30 d1 df c9 6a 79 b3 3f 30 d1 df c9 6a 79 b3 3f
       0.07607142857142857 0.07607142857142857
000390 30 d1 df c9 6a 79 b3 3f 30 d1 df c9 6a 79 b3 3f
       0.07607142857142857 0.07607142857142857
0003a0 30 d1 df c9 6a 79 b3 3f 30 d1 df c9 6a 79 b3 3f
       0.07607142857142857 0.07607142857142857
0003b0 30 d1 df c9 6a 79 b3 3f 30 d1 df c9 6a 79 b3 3f
       0.07607142857142857 0.07607142857142857
0003c0 30 d1 df c9 6a 79 b3 3f 30 d1 df c9 6a 79 b3 3f
       0.07607142857142857 0.07607142857142857
0003d0 30 d1 df c9 6a 79 b3 3f 30 d1 df c9 6a 79 b3 3f
       0.07607142857142857 0.07607142857142857
0003e0 30 d1 df c9 6a 79 b3 3f 30 d1 df c9 6a 79 b3 3f
       0.07607142857142857 0.07607142857142857
0003f0 30 d1 df c9 6a 79 b3 3f 30 d1 df c9 6a 79 b3 3f
       0.07607142857142857 0.07607142857142857
000400 30 d1 df c9 6a 79 b3 3f 30 d1 df c9 6a 79 b3 3f
       0.07607142857142857 0.07607142857142857
000410 30 d1 df c9 6a 79 b3 3f 30 d1 df c9 6a 79 b3 3f
       0.07607142857142857 0.07607142857142857
000420 30 d1 df c9 6a 79 b3 3f 30 d1 df c9 6a 79 b3 3f
       0.07607142857142857 0.07607142857142857
000430 30 d1 df c9 6a 79 b3 3f 30 d1 df c9 6a 79 b3 3f
       0.07607142857142857 0.07607142857142857
000440 30 d1 df c9 6a 79 b3 3f 30 d1 df c9 6a 79 b3 3f
       0.07607142857142857 0.07607142857142857
000450 30 d1 df c9 6a 79 b3 3f 30 d1 df c9 6a 79 b3 3f
       0.07607142857142857 0.07607142857142857
000460 30 d1 df c9 6a 79 b3 3f 30 d1 df c9 6a 79 b3 3f
       0.07607142857142857 0.07607142857142857
000470 30 d1 df c9 6a 79 b3 3f 30 d1 df c9 6a 79 b3 3f
       0.07607142857142857 0.07607142857142857
000480 30 d1 df c9 6a 79 b3 3f 30 d1 df c9 6a 79 b3 3f
       0.07607142857142857 0.07607142857142857
000490 30 d1 df c9 6a 79 b3 3f 30 d1 df c9 6a 79 b3 3f
       0.07607142857142857 0.07607142857142857
0004a0 30 d1 df c9 6a 79 b3 3f 30 d1 df c9 6a 79 b3 3f
       0.07607142857142857 0.07607142857142857
0004b0 30 d1 df c9 6a 79 b3 3f 30 d1 df c9 6a 79 b3 3f
       0.07607142857142857 0.07607142857142857
0004c0 30 d1 df c9 6a 79 b3 3f 30 d1 df c9 6a 79 b3 3f
       0.07607142857142857 0.07607142857142857
0004d0 30 d1 df c9 6a 79 b3 3f 30 d1 df c9 6a 79 b3 3f
       0.07607142857142857 0.07607142857142857
0004e0 30 d1 df c9 6a 79 b3 3f 30 d1 df c9 6a 79 b3 3f
       0.07607142857142857 0.07607142857142857
0004f0 30 d1 df c9 6a 79 b3 3f 30 d1 df c9 6a 79 b3 3f
       0.07607142857142857 0.07607142857142857
000500 30 d1 df c9 6a 79 b3 3f 30 d1 df c9 6a 79 b3 3f
       0.07607142857142857 0.07607142857142857
000510 30 d1 df c9 6a 79 b3 3f 30 d1 df c9 6a 79 b3 3f
       0.07607142857142857 0.07607142857142857
000520 30 d1 df c9 6a 79 b3 3f 30 d1 df c9 6a 79 b3 3f
       0.07607142857142857 0.07607142857142857
000530 30 d1 df c9 6a 79 b3 3f 30 d1 df c9 6a 79 b3 3f
       0.07607142857142857 0.07607142857142857
000540 30 d1 df c9 6a 79 b3 3f 30 d1 df c9 6a 79 b3 3f
       0.07607142857142857 0.07607142857142857
000550 30 d1 df c9 6a 79 b3 3f 30 d1 df c9 6a 79 b3 3f
       0.07607142857142857 0.07607142857142857
000560 30 d1 df c9 6a 79 b3 3f 30 d1 df c9 6a 79 b3 3f
       0.07607142857142857 0.07607142857142857
000570 30 d1 df c9 6a 79 b3 3f 30 d1 df c9 6a 79 b3 3f
       0.07607142857142857 0.07607142857142857
000580 30 d1 df c9 6a 79 b3 3f 30 d1 df c9 6a 79 b3 3f
       0.07607142857142857 0.07607142857142857
000590 30 d1 df c9 6a 79 b3 3f 30 d1 df c9 6a 79 b3 3f
       0.07607142857142857 0.07607142857142857
0005a0 30 d1 df c9 6a 79 b3 3f 30 d1 df c9 6a 79 b3 3f
       0.07607142857142857 0.07607142857142857
0005b0 30 d1 df c9 6a 79 b3 3f 30 d1 df c9 6a 79 b3 3f
       0.07607142857142857 0.07607142857142857
0005c0 30 d1 df c9 6a 79 b3 3f 30 d1 df c9 6a 79 b3 3f
       0.07607142857142857 0.07607142857142857
0005d0 30 d1 df c9 6a 79 b3 3f 30 d1 df c9 6a 79 b3 3f
       0.07607142857142857 0.07607142857142857
0005e0 30 d1 df c9 6a 79 b3 3f 30 d1 df c9 6a 79 b3 3f
       0.07607142857142857 0.07607142857142857
0005f0 30 d1 df c9 6a 79 b3 3f 30 d1 df c9 6a 79 b3 3f
       0.07607142857142857 0.07607142857142857
000600 30 d1 df c9 6a 79 b3 3f 30 d1 df c9 6a 79 b3 3f
       0.07607142857142857 0.07607142857142857
000610 30 d1 df c9 6a 79 b3 3f 30 d1 df c9 6a 79 b3 3f
       0.07607142857142857 0.07607142857142857
000620 30 d1 df c9 6a 79 b3 3f 30 d1 df c9 6a 79 b3 3f
       0.07607142857142857 0.07607142857142857
000630 30 d1 df c9 6a 79 b3 3f 30 d1 df c9 6a 79 b3 3f
       0.07607142857142857 0.07607142857142857
000640 30 d1 df c9 6a 79 b3 3f 30 d1 df c9 6a 79 b3 3f
       0.07607142857142857 0.07607142857142857
000650 30 d1 df c9 6a 79 b3 3f 30 d1 df c9 6a 79 b3 3f
       0.07607142857142857 0.07607142857142857
000660 30 d1 df c9 6a 79 b3 3f 30 d1 df c9 6a 79 b3 3f
       0.07607142857142857 0.07607142857142857
000670 30 d1 df c9 6a 79 b3 3f 30 d1 df c9 6a 79 b3 3f
       0.07607142857142857 0.07607142857142857
000680 30 d1 df c9 6a 79 b3 3f 30 d1 df c9 6a 79 b3 3f
       0.07607142857142857 0.07607142857142857
000690 30 d1 df c9 6a 79 b3 3f 30 d1 df c9 6a 79 b3 3f
       0.07607142857142857 0.07607142857142857
0006a0 30 d1 df c9 6a 79 b3 3f 30 d1 df c9 6a 79 b3 3f
       0.07607142857142857 0.07607142857142857
0006b0 30 d1 df c9 6a 79 b3 3f 30 d1 df c9 6a 79 b3 3f
       0.07607142857142857 0.07607142857142857
0006c0 30 d1 df c9 6a 79 b3 3f 30 d1 df c9 6a 79 b3 3f
       0.07607142857142857 0.07607142857142857
0006d0 30 d1 df c9 6a 79 b3 3f 30 d1 df c9 6a 79 b3 3f
       0.07607142857142857 0.07607142857142857
0006e0 30 d1 df c9 6a 79 b3 3f 30 d1 df c9 6a 79 b3 3f
       0.07607142857142857 0.07607142857142857
0006f0 30 d1 df c9 6a 79 b3 3f 30 d1 df c9 6a 79 b3 3f
       0.07607142857142857 0.07607142857142857
000700 30 d1 df c9 6a 79 b3 3f 30 d1 df c9 6a 79 b3 3f
       0.07607142857142857 0.07607142857142857
000710 30 d1 df c9 6a 79 b3 3f 30 d1 df c9 6a 79 b3 3f
       0.07607142857142857 0.07607142857142857
000720 30 d1 df c9 6a 79 b3 3f 30 d1 df c9 6a 79 b3 3f
       0.07607142857142857 0.07607142857142857
000730 30 d1 df c9 6a 79 b3 3f 30 d1 df c9 6a 79 b3 3f
       0.07607142857142857 0.07607142857142857
000740 30 d1 df c9 6a 79 b3 3f 30 d1 df c9 6a 79 b3 3f
       0.07607142857142857 0.07607142857142857
000750 30 d1 df c9 6a 79 b3 3f 30 d1 df c9 6a 79 b3 3f
       0.07607142857142857 0.07607142857142857
000760 30 d1 df c9 6a 79 b3 3f 30 d1 df c9 6a 79 b3 3f
       0.07607142857142857 0.07607142857142857
000770 30 d1 df c9 6a 79 b3 3f 30 d1 df c9 6a 79 b3 3f
       0.07607142857142857 0.07607142857142857
000780 30 d1 df c9 6a 79 b3 3f 30 d1 df c9 6a 79 b3 3f
       0.07607142857142857 0.07607142857142857
000790 30 d1 df c9 6a 79 b3 3f 30 d1 df c9 6a 79 b3 3f
       0.07607142857142857 0.07607142857142857
0007a0 30 d1 df c9 6a 79 b3 3f 30 d1 df c9 6a 79 b3 3f
       0.07607142857142857 0.07607142857142857
0007b0 30 d1 df c9 6a 79 b3 3f 30 d1 df c9 6a 79 b3 3f
       0.07607142857142857 0.07607142857142857
0007c0 30 d1 df c9 6a 79 b3 3f 30 d1 df c9 6a 79 b3 3f
       0.07607142857142857 0.07607142857142857
0007d0 30 d1 df c9 6a 79 b3 3f 30 d1 df c9 6a 79 b3 3f
       0.07607142857142857 0.07607142857142857
0007e0 30 d1 df c9 6a 79 b3 3f 30 d1 df c9 6a 79 b3 3f
       0.07607142857142857 0.07607142857142857
0007f0 30 d1 df c9 6a 79 b3 3f 30 d1 df c9 6a 79 b3 3f
       0.07607142857142857 0.07607142857142857

zmax f8 []
000000 00 00 00 00 00 00 14 40
       5.0

hz_F f8 [401]
000000 82 b7 fe e8 cc 2e a8 3f 25 33 5d d5 76 2e a8 3f
       0.047232058946391056 0.04722949366132515
000010 17 86 f7 10 20 2e a8 3f 19 38 72 62 c8 2d a8 3f
       0.04722690779795984 0.047224294679026176
000020 cd b6 18 b5 6f 2d a8 3f 07 c9 74 ff 15 2d a8 3f
       0.04722165189410319 0.047218978341691246
000030 9c 5d 7a 3b bb 2c a8 3f 6c 8c 1b 64 5f 2c a8 3f
       0.04721627331781095 0.04721353623406163
000040 1d e6 87 74 02 2c a8 3f 5b f7 ef 67 a4 2b a8 3f
       0.04721076652999676 0.04720796364561749
000050 87 e0 71 39 45 2b a8 3f eb d4 12 e4 e4 2a a8 3f
       0.047205127012547136 0.04720225605107394
000060 a6 6d bc 62 83 2a a8 3f 8d 52 3b b0 20 2a a8 3f
       0.047199350168934104 0.04719640876070228
000070 3a 45 3e c7 bc 29 a8 3f 69 34 55 a2 57 29 a8 3f
       0.04719343120735649 0.04719041687585774
000080 10 54 f0 3b f1 28 a8 3f 1e 4d 5f 8e 89 28 a8 3f
       0.04718736511873811 0.0471842752737308
000090 8a 3b d0 93 20 28 a8 3f 11 c4 4e 46 b6 27 a8 3f
       0.047181146663311926 0.047177978594284416
0000a0 85 1a c3 9f 4a 27 a8 3f 56 fc f0 99 dd 26 a8 3f
       0.04717477035733445 0.04717152122656702
0000b0 88 a7 76 2e 6f 26 a8 3f b0 b1 cb 56 ff 25 a8 3f
       0.04716823045903512 0.04716489729421214
0000c0 7c 02 40 0c 8e 25 a8 3f f5 98 fa 47 1b 25 a8 3f
       0.04716152095352741 0.04715810063980711
0000d0 ae 56 f8 02 a7 24 a8 3f 09 d2 0a 36 31 24 a8 3f
       0.047154635536725706 0.04715112480826995
0000e0 00 f8 d6 d9 b9 23 a8 3f a5 bf d3 e6 40 23 a8 3f
       0.04714756759811678 0.0471439630290427
0000f0 72 c2 48 55 c6 22 a8 3f 7f da 4c 1d 4a 22 a8 3f
       0.04714031020228483 0.04713660819691245
000100 24 96 c4 36 cc 21 a8 3f 25 bc 60 99 4c 21 a8 3f
       0.0471328560691229 0.04712905285156691
000110 3a ab 9c 3c cb 20 a8 3f 14 b0 bc 17 48 20 a8 3f
       0.04712519755260876 0.047121289155569596
000120 11 66 cc 21 c3 1f a8 3f e9 c3 9c 51 3c 1f a8 3f
       0.04711732661798974 0.04711330887074167
000130 eb 72 c2 9d b3 1e a8 3f 75 cd 93 fc 28 1e a8 3f
       0.047109234817275546 0.047105103332706934
000140 bb e5 26 64 9c 1d a8 3f e0 74 4f ca 0d 1d a8 3f
       0.047100913262919396 0.04709666342362495
000150 99 c0 9c 24 7d 1c a8 3f 53 5d 57 68 ea 1b a8 3f
       0.04709235259940776 0.04708797954270474
000160 f0 e0 7e 8a 55 1b a8 3f 5a 7a c7 7f be 1a a8 3f
       0.04708354297275885 0.0470790415745241
000170 32 7d 97 3c 25 1a a8 3f f3 c2 04 b5 89 19 a8 3f
       0.047074473997549396 0.047069838854786904
000180 66 01 d2 dc eb 18 a8 3f fb ff 6b a7 4b 18 a8 3f
       0.04706513472138134 0.0470603601334005
000190 9f a9 e6 07 a9 17 a8 3f a7 0b fa f0 03 17 a8 3f
       0.04705551358650272 0.04705059353457069
0001a0 64 32 ff 54 5c 16 a8 3f e5 df ec 25 b2 15 a8 3f
       0.04704559838828429 0.04704052651362626
0001b0 8c 21 54 55 05 15 a8 3f 01 ce 5c d4 55 14 a8 3f
       0.04703537623032891 0.047030145810278874
0001c0 58 ca c1 93 a3 13 a8 3f cc 32 cd 83 ee 12 a8 3f
       0.047024833475820926 0.04701943739801137
0001d0 1b 5a 54 94 36 12 a8 3f 99 93 b3 b4 7b 11 a8 3f
       0.0470139556947979 0.04700838642910483
0001e0 87 eb c9 d3 bd 10 a8 3f 53 84 f4 df fc 0f a8 3f
       0.04700272760688678 0.046996977175020625
0001f0 6e e4 09 c7 38 0f a8 3f 71 05 55 76 71 0e a8 3f
       0.04699113301917 0.046985192961538476
000200 ee 26 90 da a6 0d a8 3f f6 6b df df d8 0c a8 3f
       0.04697915475851554 0.046973016098227946
000210 6c 36 cb 71 07 0c a8 3f 68 4f 3a 7b 32 0b a8 3f
       0.046966774597973465 0.04696042780156412
000220 ea b6 6b e6 59 0a a8 3f 72 3f f0 9c 7d 09 a8 3f
       0.04695397317651191 0.04694740811112198
000230 cb d6 a3 87 9d 08 a8 3f 1b 83 a6 8e b9 07 a8 3f
       0.04694072991143868 0.04693393579805712
000240 05 f9 54 99 d1 06 a8 3f 28 07 41 8e e5 05 a8 3f
       0.04692702290275189 0.04691998826503002
000250 9b 79 29 53 f5 04 a8 3f a6 b1 f1 cc 00 04 a8 3f
       0.04691282882844235 0.04690554143676033
000260 e4 cb 98 df 07 03 a8 3f 64 65 30 6e 0a 02 a8 3f
       0.04689812282995101 0.04689056963997976
000270 fe ed d2 5a 08 01 a8 3f 17 7c 99 86 01 00 a8 3f
       0.04688287838640902 0.046875045471772285
000280 2f 1e 91 d1 f5 fe a7 3f d0 b3 af 1a e5 fd a7 3f
       0.04686706717671673 0.0468589396549316
000290 0f 29 c8 3f cf fc a7 3f ef 22 7e 1d b4 fb a7 3f
       0.04685065892779693 0.04684222087877809
0002a0 e8 11 39 8f 93 fa a7 3f 9a 90 16 6f 6d f9 a7 3f
       0.04683362124754692 0.04682485562378354
0002b0 3a 1f dc 95 41 f8 a7 3f 15 11 e8 da 0f f7 a7 3f
       0.04681591944068804 0.04680680796812645
0002c0 12 b8 21 14 d8 f5 a7 3f 62 c9 e8 15 9a f4 a7 3f
       0.046797516305432066 0.04678803937385358
0002d0 04 d2 03 b3 55 f3 a7 3f 32 c2 8d bc 0a f2 a7 3f
       0.046778371908576616 0.04676850845033122
0002e0 7c 74 e2 01 b9 f0 a7 3f 80 36 8a 50 60 ef a7 3f
       0.046758443336536865 0.04674817069199566
0002f0 ed 23 24 74 00 ee a7 3f 55 64 4f 36 99 ec a7 3f
       0.046737684419049554 0.04672697818723096
000300 2e 0d 93 5e 2a eb a7 3f 38 bd 44 b2 b3 e9 a7 3f
       0.04671604542229556 0.04670487929467487
000310 a8 cc 6d f4 34 e8 a7 3f bf e2 ae e5 ad e6 a7 3f
       0.04669347270728369 0.04668181828259809
000320 d2 0a 22 44 1e e5 a7 3f 6b e5 3a cb 85 e3 a7 3f
       0.046669908349050396 0.04665773492656452
000330 6b 2f a5 33 e4 e1 a7 3f 73 1f 21 33 39 e0 a7 3f
       0.0466452897113346 0.04663256405962004
000340 d1 db 5d 7c 84 de a7 3f 91 78 d1 be c5 dc a7 3f
       0.04661954897067456 0.04660623506855289
000350 33 c1 8e a6 fc da a7 3f 9c 4a 18 dc 28 d9 a7 3f
       0.04659261258291494 0.04657867132859403
000360 56 da 30 04 4a d7 a7 3f e3 cd a8 bf 5f d5 a7 3f
       0.04656440068395244 0.04654978956787283
000370 c5 58 28 ab 69 d3 a7 3f ab 68 f6 5e 67 d1 a7 3f
       0.04653482641531207 0.04651949915133121
000380 c7 db bb 6e 58 cf a7 3f b5 d1 42 69 3c cd a7 3f
       0.046503795163452426 0.04648770127224414
000390 04 ca 31 d8 12 cb a7 3f 7b 50 c2 3f db c8 a7 3f
       0.046471203699997715 0.04645428803738213
0003a0 6a a4 72 1e 95 c6 a7 3f 15 62 b2 ec 3f c4 a7 3f
       0.04643693920781618 0.04641914142957063
0003b0 c1 55 89 1c db c1 a7 3f a6 60 38 19 66 bf a7 3f
       0.04640087817521588 0.046382132128372874
0003c0 d5 c7 d3 46 e0 bc a7 3f 84 75 d6 01 49 ba a7 3f
       0.046362885137469036 0.046343118166286806
0003d0 1e a1 ad 9e 9f b7 a7 3f df 2d 3c 69 e3 b4 a7 3f
       0.046322811241056736 0.04630194339378212
0003e0 8c 2f 55 a4 13 b2 a7 3f 38 b9 2c 89 2f af a7 3f
       0.04628049260153863 0.04625843572135796
0003f0 7c 50 be 46 36 ac a7 3f 30 f0 27 01 27 a9 a7 3f
       0.04623574842040143 0.0462124051009315
000400 49 e6 f8 d0 00 a6 a7 3f f0 3a 73 c2 c2 a2 a7 3f
       0.04618837881976085 0.04616364120157879
000410 ad 9c be d4 6b 9f a7 3f a5 a9 0b f9 fa 9b a7 3f
       0.04613816234569277 0.04611191072565938
000420 86 e1 a5 11 6f 98 a7 3f 8a 17 f3 f0 c6 94 a7 3f
       0.04608485308102943 0.04605695430068042
000430 74 5e 5e 58 01 91 a7 3f 47 d6 2c f7 1c 8d a7 3f
       0.04602817729681599 0.04599848286890711
000440 6b 2b 3a 69 18 89 a7 3f c6 8e 9a 35 f2 84 a7 3f
       0.04596782955657982 0.04593617348043959
000450 09 a9 1f cd a8 80 a7 3f 0a e9 bd 88 3a 7c a7 3f
       0.04590346816969954 0.045869664375418465
000460 16 c4 ce a7 a5 77 a7 3f fb 13 2d 4e e8 72 a7 3f
       0.04583470986779774 0.04579854921625067
000470 cf 58 27 82 00 6e a7 3f 8d 09 44 2a ec 68 a7 3f
       0.04576112355032224 0.0457223702997168
000480 b2 39 d3 0a a9 63 a7 3f 4b 8b 48 c3 34 5e a7 3f
       0.04568222291128467 0.04564061054067866
000490 7a a9 57 cb 8c 58 a7 3f ab 32 cd 6f ae 52 a7 3f
       0.04559745771605868 0.04555268397107189
0004a0 3c bc 1c cf 96 4c a7 3f 54 70 9c d5 42 46 a7 3f
       0.04550620344377207 0.04545792443806876
0004b0 58 5a 65 39 af 3f a7 3f 1c b6 ce 75 d8 38 a7 3f
       0.045407748943649906 0.04535557210997984
0004c0 62 79 79 c6 ba 31 a7 3f d8 d9 df 21 52 2a a7 3f
       0.04530128166946913 0.04524475730424954
0004d0 6a 72 5b 33 9a 22 a7 3f b1 c0 92 54 8e 1a a7 3f
       0.04518586995047687 0.04512448103321399
0004e0 6d 36 3d 86 29 12 a7 3f ea f5 2a 68 66 09 a7 3f
       0.04506044162426979 0.044993591514394485
0004f0 aa 31 7b 30 3f 00 a7 3f bf 9b e9 a1 ad f6 a6 3f
       0.04492375819026802 0.04485075570556018
000500 58 c2 18 01 ab ec a6 3f ba 27 bc 08 30 e2 a6 3f
       0.04477438343417778 0.044694424692422755
000510 fa 7c 81 dc 34 d7 a6 3f cd 3b 95 fa b0 cb a6 3f
       0.04461064521523812 0.044522791470278024
000520 3c 92 9a 2b 9b bf a6 3f 9a 11 eb 70 e9 b2 a6 3f
       0.04443058879158854 0.04433373931309177
000530 eb e5 ed f0 90 a5 a6 3f 9f b7 52 e1 85 97 a6 3f
       0.044231919679940855 0.044124778514159184
000540 94 e8 f7 6e bb 88 a6 3f 16 cf 40 a3 23 79 a6 3f
       0.04401193360895764 0.043892968824733966
000550 a4 e1 9d 46 af 68 a6 3f 1c ea 07 c0 4d 57 a6 3f
       0.04376743065853653 0.04363482445838349
000560 05 79 31 f1 ec 44 a6 3f e9 6c 37 0f 79 31 a6 3f
       0.04349461025479865 0.043346198184474556
000570 95 b3 a5 77 dc 1c a6 3f 43 73 ba 81 ff 06 a6 3f
       0.043188943486575905 0.04302214106176063
000580 9e 2e f4 4b c8 ef a5 3f 44 f9 2c 86 1a d7 a5 3f
       0.04284501959963659 0.04265673530470562
000590 2f d5 d5 38 d7 bc a5 3f 95 5c 5d 8a dc a0 a5 3f
       0.04245636528768625 0.04224290074369567
0005a0 c2 24 7d 84 05 83 a5 3f de ff 27 dc 29 63 a5 3f
       0.042015240118936883 0.041772182583372106
0005b0 10 91 41 c0 1d 41 a5 3f 18 35 51 b5 b1 1c a5 3f
       0.041512422293438545 0.04123454416603972
0005c0 51 4c 43 87 b2 f5 a4 3f 2e 79 53 5e e9 cb a4 3f
       0.040937022220213344 0.04061822201195962
0005d0 d1 75 cb 09 1c 9f a4 3f f8 dc d0 9a 0d 6f a4 3f
       0.0402764093357565 0.03990976824609932
0005e0 c5 17 77 73 7f 3b a4 3f cf 07 e7 fa 32 04 a4 3f
       0.039516432614206155 0.03909453690313535
0005f0 b9 81 2a 36 ec c8 a3 3f d4 8f ca 93 75 89 a3 3f
       0.0386422935600907 0.038158106127667374
000600 1a 48 19 41 a5 45 a3 3f aa f0 0a 56 64 fd a2 3f
       0.0376407281843429 0.037089477065337675
000610 63 07 53 f0 b7 b0 a2 3f b1 16 1d d3 cb 5f a2 3f
       0.03650450523993134 0.03588711692877434
000620 13 8b 1a 24 fd 0a a2 3f bc 63 25 5e e2 b2 a1 3f
       0.03524008813589865 0.03456790351146519
000630 e9 6f 19 f2 4b 58 a1 3f 41 a4 7d 76 38 fc a0 3f
       0.033876775077004435 0.03317429014607188
000640 b4 69 39 4f b9 9f a0 3f 40 53 8e f9 5f 4a a0 3f
       0.03246859638302926 0.03181743546807647
000650 8e 87 a9 fd 37 f1 9f 3f 35 61 02 a3 81 56 9f 3f
       0.031193613869966046 0.03060343320302757
000660 49 d1 6b c8 a8 c5 9e 3f ab 56 84 ac 27 3f 9e 3f
       0.03005088542245574 0.029537792114828914
000670 27 c2 b2 e6 01 c3 9d 3f 43 e6 98 31 e5 50 9d 3f
       0.029064206796365035 0.028628903534104088
000680 03 23 1b ee 47 e8 9c 3f 55 f2 b0 a9 81 88 9c 3f
       0.028229831607663246 0.0278644809552467
000690 4e d5 51 fa dc 30 9c 3f 1a 75 bb 85 a3 e0 9b 3f
       0.027530148294734595 0.027224116361016383
0006a0 87 79 c1 85 25 97 9b 3f 7e 87 16 11 be 53 9b 3f
       0.026943765915683506 0.026686639588326504
0006b0 d7 af 72 33 d5 15 9b 3f 5b 3b b4 9b e0 dc 9a 3f
       0.026450473084579897 0.026233205321712343
0006c0 eb 2a a3 6b 63 a8 9a 3f d0 a9 ad 87 ed 77 9a 3f
       0.026032975620902937 0.02584811344733301
0006d0 6e f0 48 a4 1a 4b 9a 3f 7f 93 07 38 91 21 9a 3f
       0.025677124287753754 0.025518673939490363
0006e0 36 58 43 6a 01 fb 99 3f c6 e6 3b 0c 24 d7 99 3f
       0.02537157260015751 0.0252347595660243
0006f0 3c 60 1e a4 b9 b5 99 3f 1b 0d 5f 8d 89 96 99 3f
       0.02510728897286206 0.024988316777819635
000700 5d 3e 55 2f 61 79 99 3f 75 9b 95 49 13 5e 99 3f
       0.024877089036918643 0.02477293144820743
000710 62 17 ba 54 77 44 99 3f 37 ef e2 f5 68 2c 99 3f
       0.024675240084000356 0.0245834732129275
000720 04 19 18 83 c7 15 99 3f c4 94 b5 96 75 00 99 3f
       0.024497144104338467 0.024415814708295583
000730 09 0a 25 b0 58 ec 98 3f 21 59 4a e0 58 d9 98 3f
       0.02433909010984262 0.024266613664246543
000740 25 68 30 80 60 c7 98 3f ba 97 ab f0 5b b6 98 3f
       0.024198062728921017 0.024133144916866668
000750 51 1f ce 61 39 a6 98 3f ad 0e 2e a1 e8 96 98 3f
       0.0240715948052917 0.024013171041146354
000760 07 1a 1d ee 5a 88 98 3f 6e 88 0f d3 82 7a 98 3f
       0.023957653792672697 0.023904842502709682
000770 c2 a6 88 03 54 6d 98 3f 7f 08 fa 3d c3 60 98 3f
       0.02385455390518732 0.02380662027145108
000780 64 f1 15 31 c6 54 98 3f e4 68 26 64 53 49 98 3f
       0.02376088785739351 0.023717215526269167
000790 ba 16 09 22 62 3e 98 3f 3f ba 7c 66 ea 33 98 3f
       0.023675473525392766 0.023635542397807404
0007a0 b8 f0 77 cd e4 29 98 3f e9 82 4a 84 4a 20 98 3f
       0.023597312012484578 0.02356068069878151
0007b0 d2 94 52 3c 15 17 98 3f 74 29 16 1f 3f 0e 98 3f
       0.02352555447273092 0.02349184634435049
0007c0 50 5f 97 c3 c2 05 98 3f d9 40 bf 24 9b fd 97 3f
       0.02345947569651169 0.023428367727149933
0007d0 67 5c bf 98 c3 f5 97 3f 15 74 4e c9 37 ee 97 3f
       0.023398452947585826 0.023369666730662503
0007e0 d9 e1 a7 ac f3 e6 97 3f 80 50 38 7f f3 df 97 3f
       0.02334194890315353 0.02331524337758184
0007f0 8b f0 e4 bd 33 d9 97 3f 1d b8 dc 20 b1 d2 97 3f
       0.023289497819164267 0.023264663344143444
