onecap_model_with_structure_ambiguity/output/upper_triangular_two_ambiguous_parameters/Delta_10.0_distorted_0/logadjustment_1_boundary_1/zmax_5.0_zscale_2.0/delta_0.02/q_0.1_gamma_7.0_rho_1.0/model.npz (npz, 126264 bytes, 58 tensors)

clowerlim f8 []
00000000: 2d43 1ceb e236 1a3f
0.0001

zmin f8 []
00000000: 0000 0000 0000 14c0
-5.0

Delta f8 []
00000000: 0000 0000 0000 2440
10.0

s1_F f8 [401]
00000000: 137c 3e8f 9f97 e6bf 89bf fd8f cb3d e1bf
00000010: 280e d9ae 4c86 dfbf 39ef d6ac b76c debf
00000020: 3718 3745 39ed ddbf ae16 831c 06a5 ddbf
00000030: 47bf b56e 7871 ddbf 8036 269d c245 ddbf
00000040: 09f2 3f4b 0e1d ddbf 6294 d989 82f5 dcbf
00000050: 2f7d fa94 69ce dcbf e0d6 1c3d 7da7 dcbf
00000060: 2ad1 724c a280 dcbf 5032 332c ce59 dcbf
00000070: ea05 8cb9 fc32 dcbf 12d1 6655 2c0c dcbf
00000080: 6c14 715c 5ce5 dbbf ecad 2b8e 8cbe dbbf
00000090: 7f8b 06d1 bc97 dbbf f6b6 d61a ed70 dbbf
000000a0: 7a4d 8d67 1d4a dbbf ea75 8ab5 4d23 dbbf
000000b0: 4f63 2704 7efc dabf f451 2153 aed5 dabf
000000c0: 78c1 5da2 deae dabf f474 d2f1 0e88 dabf
000000d0: 4be1 7b41 3f61 dabf 6e23 5991 6f3a dabf
000000e0: 1e85 6ae1 9f13 dabf aec1 b031 d0ec d9bf
000000f0: b9d6 2c82 00c6 d9bf 8bcb dfd2 309f d9bf
00000100: 5ecf ca23 6178 d9bf 6206 ef74 9151 d9bf
00000110: 50ab 4dc6 c12a d9bf 8d05 e817 f203 d9bf
00000120: ad5f bf69 22dd d8bf dc0f d5bb 52b6 d8bf
00000130: 806f 2a0e 838f d8bf e2f0 c060 b368 d8bf
00000140: 0809 9ab3 e341 d8bf f139 b706 141b d8bf
00000150: 0609 1a5a 44f4 d7bf 2b13 c4ad 74cd d7bf
00000160: ebfe b601 a5a6 d7bf 0a7f f455 d57f d7bf
00000170: fd50 7eaa 0559 d7bf 2e45 56ff 3532 d7bf
00000180: 4338 7e54 660b d7bf 4115 f8a9 96e4 d6bf
00000190: 7dda c5ff c6bd d6bf bc93 e955 f796 d6bf
000001a0: de5e 65ac 2770 d6bf 5171 3b03 5849 d6bf
000001b0: bb05 6e5a 8822 d6bf d777 ffb1 b8fb d5bf
000001c0: 4e2d f209 e9d4 d5bf 21ad 4862 19ae d5bf
000001d0: a388 05bb 4987 d5bf 8d70 2b14 7a60 d5bf
000001e0: b729 bd6d aa39 d5bf e18c bdc7 da12 d5bf
000001f0: f797 2f22 0bec d4bf d55f 167d 3bc5 d4bf
00000200: 6410 75d8 6b9e d4bf fafc 4e34 9c77 d4bf
00000210: 4795 a790 cc50 d4bf 8060 82ed fc29 d4bf
00000220: b018 e34a 2d03 d4bf a78b cda8 5ddc d3bf
00000230: b9b9 4507 8eb5 d3bf 74c1 4f66 be8e d3bf
00000240: d7f0 efc5 ee67 d3bf 1bbd 2a26 1f41 d3bf
00000250: 32cd 0487 4f1a d3bf 3bf4 82e8 7ff3 d2bf
00000260: b038 aa4a b0cc d2bf cdd3 7fad e0a5 d2bf
00000270: 133a 0911 117f d2bf a319 4c75 4158 d2bf
00000280: b85a 4eda 7131 d2bf 0a2b 1640 a20a d2bf
00000290: 55f5 a9a6 d2e3 d1bf d473 100e 03bd d1bf
000002a0: 14a5 5076 3396 d1bf 87da 71df 636f d1bf
000002b0: 3bba 7b49 9448 d1bf ce44 76b4 c421 d1bf
000002c0: ead1 6920 f5fa d0bf f322 5f8d 25d4 d0bf
000002d0: da5e 5ffb 55ad d0bf 0a1c 746a 8686 d0bf
000002e0: 3c68 a7da b65f d0bf ccc8 034c e738 d0bf
000002f0: aa49 94be 1712 d0bf 5307 c964 90d6 cfbf
00000300: 6741 014f f188 cfbf efd9 ea3b 523b cfbf
00000310: 04ab a02b b3ed cebf e503 3f1e 14a0 cebf
00000320: 6fa0 e313 7552 cebf 13d3 ad0c d604 cebf
00000330: 2da1 be08 37b7 cdbf 78d3 3808 9869 cdbf
00000340: 9b22 410b f91b cdbf bc53 fe11 5ace ccbf
00000350: 104c 991c bb80 ccbf 0258 3d2b 1c33 ccbf
00000360: 573b 183e 7de5 cbbf 9a62 5a55 de97 cbbf
00000370: d824 3771 3f4a cbbf 6be0 e491 a0fc cabf
00000380: da4d 9db7 01af cabf 77ab 9de2 6261 cabf
00000390: f00f 2713 c413 cabf 72ad 7e49 25c6 c9bf
000003a0: 092e ee85 8678 c9bf a3fd c3c8 e72a c9bf
000003b0: 04ba 5312 49dd c8bf 909e f662 aa8f c8bf
000003c0: 42ea 0bbb 0b42 c8bf 8973 f91a 6df4 c7bf
000003d0: e22e 2c83 cea6 c7bf c7c8 18f4 2f59 c7bf
000003e0: 0658 3c6e 910b c7bf 4513 1df2 f2bd c6bf
000003f0: 6d29 4b80 5470 c6bf 6da5 6119 b622 c6bf
00000400: 1970 07be 17d5 c5bf d46b f06e 7987 c5bf
00000410: 90b0 de2c db39 c5bf 47ec a3f8 3cec c4bf
00000420: 64e0 22d3 9e9e c4bf 0b22 51bd 0051 c4bf
00000430: c6f3 38b8 6203 c4bf 506f fbc4 c4b5 c3bf
00000440: a3d9 d2e4 2668 c3bf f45c 1519 891a c3bf
00000450: 00fc 3763 ebcc c2bf 11f4 d1c4 4d7f c2bf
00000460: 428e a03f b031 c2bf 8966 8bd5 12e4 c1bf
00000470: 1a52 a988 7596 c1bf b1d3 455b d848 c1bf
00000480: f16e e74f 3bfb c0bf 09be 5669 9ead c0bf
00000490: 8593 a6aa 0160 c0bf 7e48 3d17 6512 c0bf
000004a0: a7b0 be65 9189 bfbf c731 7703 59ee bebf
000004b0: 3377 f210 2153 bebf 92e9 8f98 e9b7 bdbf
000004c0: 4e47 e5a5 b21c bdbf 1dd8 e945 7c81 bcbf
000004d0: ad73 2887 46e6 bbbf 3cbe f979 114b bbbf
000004e0: 80f0 c730 ddaf babf 220c 5ec0 a914 babf
000004f0: 8691 4440 7779 b9bf 1b3f 2ecb 45de b8bf
00000500: 0cfb 777f 1543 b8bf 249d bf7f e6a7 b7bf
00000510: fc1f 96f3 b80c b7bf 12a9 5208 8d71 b6bf
00000520: 7710 0df2 62d6 b5bf 2aed c7ec 3a3b b5bf
00000530: cd04 d43d 15a0 b4bf a0fd 7835 f204 b4bf
00000540: dcc9 f130 d269 b3bf 1d75 ce9c b5ce b2bf
00000550: 1eb4 d0f7 9c33 b2bf 7308 5dd6 8898 b1bf
00000560: e6ba 9fe6 79fd b0bf 42f2 8af5 7062 b0bf
00000570: 09d4 b4e9 dd8e afbf 2686 a104 ea58 aebf
00000580: ee06 d5e0 0823 adbf 5dd0 93a1 3ded abbf
00000590: 22cf 4601 8cb7 aabf e1a3 e36e f881 a9bf
000005a0: a4d5 5930 884c a8bf b357 398a 4117 a7bf
000005b0: 922a 3dec 2be2 a5bf 4175 5d21 50ad a4bf
000005c0: b07a 2f80 b878 a3bf 7ce6 1415 7144 a2bf
000005d0: 45e0 1aba 8710 a1bf 4b70 aa0d 18ba 9fbf
000005e0: 5519 a3e4 1d54 9dbf 95ca e4cb 43ef 9abf
000005f0: bc89 eaa3 a98b 98bf 6a4c d30c 6529 96bf
00000600: 4817 b51c 74c8 93bf 791b 1ccb a568 91bf
00000610: 83fd cb3d e112 8ebf eb0a 3419 5553 89bf
00000620: dac9 c425 158e 84bf 808c cdb2 2275 7fbf
00000630: 47dc c481 2092 75bf c3e3 3389 fd72 66bf
00000640: 0000 0000 0000 0080 e08b 6464 e2cd 68bf
00000650: 685f fa6a 62c8 79bf 1596 bbfd 3d07 84bf
00000660: e1c3 92b2 e991 8bbf f22a 3949 febc 91bf
00000670: 9985 cc38 f4da 95bf dc78 bb1b 701e 9abf
00000680: 30bf a72d 7083 9ebf 717a e041 2b83 a1bf
00000690: aa34 f061 f2d1 a3bf 3409 79ee 9a2c a6bf
000006a0: 2e3b ce5c db91 a8bf ab31 174c 8f00 abbf
000006b0: 4e87 0bbc b377 adbf d258 3671 63f6 afbf
000006c0: e20a 39cd e93d b1bf c752 8260 a883 b2bf
000006d0: d88b fd02 1ecc b3bf 6b4c 8d55 0417 b5bf
000006e0: 7f1f 99f1 1c64 b6bf 9e29 1e72 30b3 b7bf
000006f0: 98e0 949a 0d04 b9bf 502c 8f98 8856 babf
00000700: d223 0f5d 7aaa bbbf f28d c90a c0ff bcbf
00000710: 1048 c576 3a56 bebf a493 0ab9 cdad bfbf
00000720: fafb aa65 3083 c0bf 7b0d 009a ee2f c1bf
00000730: 1e7a c25d 17dd c1bf 1ec0 a395 a18a c2bf
00000740: 4401 2f0a 8538 c3bf dd26 ad4e bae6 c3bf
00000750: af09 13ab 3a95 c4bf 42eb 9408 0044 c5bf
00000760: 5300 88e0 04f3 c5bf e7d7 462d 44a2 c6bf
00000770: b10a d75c b951 c7bf f5ce 1745 6001 c8bf
00000780: 284b 4819 35b1 c8bf 5d2f bb60 3461 c9bf
00000790: 0bb9 92ee 5a11 cabf 46d8 64da a5c1 cabf
000007a0: dbd7 ab79 1272 cbbf f1ed ea59 9e22 ccbf
000007b0: b1c6 713b 47d3 ccbf 8460 ac0c 0b84 cdbf
000007c0: 2f20 efe5 e734 cebf 34c9 b005 dce5 cebf
000007d0: f054 26cd e596 cfbf beaa 9ade 0124 d0bf
000007e0: 03c7 d939 9a7c d0bf 87aa 7554 3bd5 d0bf
000007f0: 709b ae96 e42d d1bf 6735 dc73 9586 d1bf
-0.7060087011085464 -0.5387933552101326 -0.4925719935892823 -0.47538558844438544 -0.4676039863519494 -0.4631972578466542 -0.4600506859924178 -0.4573828253422576
-0.4548984274731827 -0.452484736079276 -0.4500984148853204 -0.4477227303317317 -0.4453511950080321 -0.4429812842979901 -0.440612012098511 -0.4382429918289442
-0.435874071383586 -0.4335051906952845 -0.4311363259568494 -0.4287674676987615 -0.42639861214157515 -0.42402975777244356 -0.42166090398454953 -0.4192920505350053
-0.416923197327399 -0.41455434432448546 -0.41218549151337375 -0.4098166388908372 -0.4074477864579239 -0.4050789342172959 -0.40271008217255716 -0.40034123032744934
-0.39797237868628155 -0.395603527253206 -0.39323467603269524 -0.39086582502940176 -0.3884969742480234 -0.38612812369342264 -0.38375927337050797 -0.3813904232845414
-0.379021573440824 -0.376652723844841 -0.3742838745021263 -0.37191502541854743 -0.3695461766001091 -0.36717732805298964 -0.36480847978351943 -0.3624396317982982
-0.3600707841040995 -0.3577019367079011 -0.35533308961695537 -0.3529642428387054 -0.3505953963808518 -0.34822655025142973 -0.34585770445854863 -0.343488859010788
-0.3411200139168685 -0.33875116918598464 -0.3363823248274775 -0.3340134808511344 -0.3316446372670287 -0.3292757940855165 -0.3269069513174822 -0.3245381089741362
-0.32216926706701643 -0.3198004256082211 -0.3174315846102513 -0.31506274408594237 -0.3126939040488521 -0.3103250645128192 -0.30795622549240026 -0.30558738700258137
-0.30321854905902285 -0.30084971167794244 -0.2984808748762645 -0.2961120386715412 -0.29374320308205437 -0.29137436812680734 -0.2890055338256456 -0.28663670019923354
-0.2842678672690613 -0.2818990350576064 -0.2795302035882135 -0.277161372885357 -0.2747925429744822 -0.27242371388221226 -0.27005488563637287 -0.2676860582660766
-0.2653172318016731 -0.2629484062750144 -0.26057958171939577 -0.2582107581696965 -0.25584193566249147 -0.25347311423605556 -0.2511042939305762 -0.24873547478824296
-0.24636665685330714 -0.24399784017232615 -0.2416290247941434 -0.23926021077025364 -0.23689139815474244 -0.23452258700458425 -0.2321537773798438 -0.229784969343793
-0.2274161629632275 -0.22504735830866973 -0.22267855545450788 -0.22030975447950146 -0.21794095546689604 -0.21557215850477435 -0.21320336368652337 -0.21083457111103895
-0.20846578088331463 -0.20609699311475158 -0.20372820792374524 -0.20135942543616242 -0.1989906457859976 -0.19662186911589882 -0.19425309557796322 -0.19188432533450284
-0.18951555855876917 -0.1871467954360038 -0.18477803616439475 -0.18240928095617034 -0.18004053003886628 -0.17767178365661543 -0.1753030420716856 -0.17293430556609782
-0.17056557444345868 -0.16819684903097587 -0.16582812968170346 -0.16345941677704642 -0.16109071072947068 -0.15872201198568833 -0.15635332103002336 -0.15398463838834653
-0.1516159646323106 -0.1492473003843099 -0.14687864632284686 -0.1445100031886857 -0.14214137179179615 -0.1397727530191342 -0.1374041478435551 -0.13503555733373454
-0.13266698266567503 -0.13029842513559256 -0.12792988617470882 -0.12556136736617768 -0.12319287046438153 -0.12082439741715865 -0.11845595039127658 -0.11608753180181555
-0.11371914434610383 -0.11135079104300911 -0.10898247527843692 -0.10661420085829659 -0.10424597207014763 -0.10187779375523623 -0.09950967139281461 -0.09714161119904612
-0.0947736202433413 -0.09240570658549935 -0.09003787943777292 -0.0876701493568002 -0.08530252847146068 -0.0829350307539484 -0.08056767234303948 -0.07820047193035018
-0.0758334512227416 -0.07346663549693173 -0.07110005426575625 -0.06873374207956022 -0.06636773949115202 -0.06400209421821848 -0.06163686254368634 -0.05927211100130263
-0.056907918401078436 -0.0545443782556567 -0.052181601672968606 -0.049819720779687555 -0.04745889272900719 -0.045099304316564746 -0.04274117716575633 -0.040384773323902674
-0.03803040089382159 -0.03567841894478094 -0.03332924029149401 -0.030983329614727755 -0.02864119251241822 -0.026303347892460655 -0.023970270757340137 -0.02164228335170685
-0.019319357158813305 -0.017000761529768014 -0.0146844479545496 -0.012365975219386502 -0.010036626067265898 -0.007680068531814688 -0.005266310672872149 -0.0027403785585388986
-0.0 -0.0030278608056888284 -0.006294617123465553 -0.009779438310441294 -0.013461900484203983 -0.017322514743038427 -0.02134305569336945 -0.025506736462255528
-0.02979827192933654 -0.034203864852533246 -0.038711142020568204 -0.04330906067891008 -0.04798779971962684 -0.052738645590213316 -0.05755387945624922 -0.06242666966424938
-0.06735097179720698 -0.07232143741777995 -0.07733333180435353 -0.08238246048613156 -0.08746510408775342 -0.09257796083526279 -0.09771809600795434 -0.10288289761153746
-0.10807003757430714 -0.11327743781435354 -0.1185032405822144 -0.12374578254328 -0.12900357212308206 -0.13427526969472212 -0.13955967023953603 -0.14485568815825983
-0.15016234395262462 -0.15547875253314816 -0.16080411294212868 -0.16613769930867234 -0.17147885287704642 -0.17682697497156072 -0.18218152077868902 -0.18754199384385797
-0.19290794119350463 -0.19827894900515278 -0.2036546387584582 -0.20903466380849717 -0.2144187063310586 -0.2198064745951878 -0.22519770052490665 -0.23059213751617247
-0.23598955847978817 -0.24138975408420438 -0.24679253117634614 -0.2521977113598658 -0.2576051297138379 -0.2630146336365801 -0.26842608180088856 -0.27383934320899644

d f8 [401]
00000000: 1743 3a6f 31a4 b33f 1743 3a6f 31a4 b33f
00000010: 1743 3a6f 31a4 b33f 1743 3a6f 31a4 b33f
00000020: 1743 3a6f 31a4 b33f 1743 3a6f 31a4 b33f
00000030: 1743 3a6f 31a4 b33f 1743 3a6f 31a4 b33f
00000040: 1743 3a6f 31a4 b33f 1743 3a6f 31a4 b33f
00000050: 1743 3a6f 31a4 b33f 1743 3a6f 31a4 b33f
00000060: 1743 3a6f 31a4 b33f 1743 3a6f 31a4 b33f
00000070: 1743 3a6f 31a4 b33f 1743 3a6f 31a4 b33f
00000080: 1743 3a6f 31a4 b33f 1743 3a6f 31a4 b33f
00000090: 1743 3a6f 31a4 b33f 1743 3a6f 31a4 b33f
000000a0: 1743 3a6f 31a4 b33f 1743 3a6f 31a4 b33f
000000b0: 1743 3a6f 31a4 b33f 1743 3a6f 31a4 b33f
000000c0: 1743 3a6f 31a4 b33f 1743 3a6f 31a4 b33f
000000d0: 1743 3a6f 31a4 b33f 1743 3a6f 31a4 b33f
000000e0: 1743 3a6f 31a4 b33f 1743 3a6f 31a4 b33f
000000f0: 1743 3a6f 31a4 b33f 1743 3a6f 31a4 b33f
00000100: 1743 3a6f 31a4 b33f 1743 3a6f 31a4 b33f
00000110: 1743 3a6f 31a4 b33f 1743 3a6f 31a4 b33f
00000120: 1743 3a6f 31a4 b33f 1743 3a6f 31a4 b33f
00000130: 1743 3a6f 31a4 b33f 1743 3a6f 31a4 b33f
00000140: 1743 3a6f 31a4 b33f 1743 3a6f 31a4 b33f
00000150: 1743 3a6f 31a4 b33f 1743 3a6f 31a4 b33f
00000160: 1743 3a6f 31a4 b33f 1743 3a6f 31a4 b33f
00000170: 1743 3a6f 31a4 b33f 1743 3a6f 31a4 b33f
00000180: 1743 3a6f 31a4 b33f 1743 3a6f 31a4 b33f
00000190: 1743 3a6f 31a4 b33f 1743 3a6f 31a4 b33f
000001a0: 1743 3a6f 31a4 b33f 1743 3a6f 31a4 b33f
000001b0: 1743 3a6f 31a4 b33f 1743 3a6f 31a4 b33f
000001c0: 1743 3a6f 31a4 b33f 1743 3a6f 31a4 b33f
000001d0: 1743 3a6f 31a4 b33f 1743 3a6f 31a4 b33f
000001e0: 1743 3a6f 31a4 b33f 1743 3a6f 31a4 b33f
000001f0: 1743 3a6f 31a4 b33f 1743 3a6f 31a4 b33f
00000200: 1743 3a6f 31a4 b33f 1743 3a6f 31a4 b33f
00000210: 1743 3a6f 31a4 b33f 1743 3a6f 31a4 b33f
00000220: 1743 3a6f 31a4 b33f 1743 3a6f 31a4 b33f
00000230: 1743 3a6f 31a4 b33f 1743 3a6f 31a4 b33f
00000240: 1743 3a6f 31a4 b33f 1743 3a6f 31a4 b33f
00000250: 1743 3a6f 31a4 b33f 1743 3a6f 31a4 b33f
00000260: 1743 3a6f 31a4 b33f 1743 3a6f 31a4 b33f
00000270: 1743 3a6f 31a4 b33f 1743 3a6f 31a4 b33f
00000280: 1743 3a6f 31a4 b33f 1743 3a6f 31a4 b33f
00000290: 1743 3a6f 31a4 b33f 1743 3a6f 31a4 b33f
000002a0: 1743 3a6f 31a4 b33f 1743 3a6f 31a4 b33f
000002b0: 1743 3a6f 31a4 b33f 1743 3a6f 31a4 b33f
000002c0: 1743 3a6f 31a4 b33f 1743 3a6f 31a4 b33f
000002d0: 1743 3a6f 31a4 b33f 1743 3a6f 31a4 b33f
000002e0: 1743 3a6f 31a4 b33f 1743 3a6f 31a4 b33f
000002f0: 1743 3a6f 31a4 b33f 1743 3a6f 31a4 b33f
00000300: 1743 3a6f 31a4 b33f 1743 3a6f 31a4 b33f
00000310: 1743 3a6f 31a4 b33f 1743 3a6f 31a4 b33f
00000320: 1743 3a6f 31a4 b33f 1743 3a6f 31a4 b33f
00000330: 1743 3a6f 31a4 b33f 1743 3a6f 31a4 b33f
00000340: 1743 3a6f 31a4 b33f 1743 3a6f 31a4 b33f
00000350: 1743 3a6f 31a4 b33f 1743 3a6f 31a4 b33f
00000360: 1743 3a6f 31a4 b33f 1743 3a6f 31a4 b33f
00000370: 1743 3a6f 31a4 b33f 1743 3a6f 31a4 b33f
00000380: 1743 3a6f 31a4 b33f 1743 3a6f 31a4 b33f
00000390: 1743 3a6f 31a4 b33f 1743 3a6f 31a4 b33f
000003a0: 1743 3a6f 31a4 b33f 1743 3a6f 31a4 b33f
000003b0: 1743 3a6f 31a4 b33f 1743 3a6f 31a4 b33f
000003c0: 1743 3a6f 31a4 b33f 1743 3a6f 31a4 b33f
000003d0: 1743 3a6f 31a4 b33f 1743 3a6f 31a4 b33f
000003e0: 1743 3a6f 31a4 b33f 1743 3a6f 31a4 b33f
000003f0: 1743 3a6f 31a4 b33f 1743 3a6f 31a4 b33f
00000400: 1743 3a6f 31a4 b33f 1743 3a6f 31a4 b33f
00000410: 1743 3a6f 31a4 b33f 1743 3a6f 31a4 b33f
00000420: 1743 3a6f 31a4 b33f 1743 3a6f 31a4 b33f
00000430: 1743 3a6f 31a4 b33f 1743 3a6f 31a4 b33f
00000440: 1743 3a6f 31a4 b33f 1743 3a6f 31a4 b33f
00000450: 1743 3a6f 31a4 b33f 1743 3a6f 31a4 b33f
00000460: 1743 3a6f 31a4 b33f 1743 3a6f 31a4 b33f
00000470: 1743 3a6f 31a4 b33f 1743 3a6f 31a4 b33f
00000480: 1743 3a6f 31a4 b33f 1743 3a6f 31a4 b33f
00000490: 1743 3a6f 31a4 b33f 1743 3a6f 31a4 b33f
000004a0: 1743 3a6f 31a4 b33f 1743 3a6f 31a4 b33f
000004b0: 1743 3a6f 31a4 b33f 1743 3a6f 31a4 b33f
000004c0: 1743 3a6f 31a4 b33f 1743 3a6f 31a4 b33f
000004d0: 1743 3a6f 31a4 b33f 1743 3a6f 31a4 b33f
000004e0: 1743 3a6f 31a4 b33f 1743 3a6f 31a4 b33f
000004f0: 1743 3a6f 31a4 b33f 1743 3a6f 31a4 b33f
00000500: 1743 3a6f 31a4 b33f 1743 3a6f 31a4 b33f
00000510: 1743 3a6f 31a4 b33f 1743 3a6f 31a4 b33f
00000520: 1743 3a6f 31a4 b33f 1743 3a6f 31a4 b33f
00000530: 1743 3a6f 31a4 b33f 1743 3a6f 31a4 b33f
00000540: 1743 3a6f 31a4 b33f 1743 3a6f 31a4 b33f
00000550: 1743 3a6f 31a4 b33f 1743 3a6f 31a4 b33f
00000560: 1743 3a6f 31a4 b33f 1743 3a6f 31a4 b33f
00000570: 1743 3a6f 31a4 b33f 1743 3a6f 31a4 b33f
00000580: 1743 3a6f 31a4 b33f 1743 3a6f 31a4 b33f
00000590: 1743 3a6f 31a4 b33f 1743 3a6f 31a4 b33f
000005a0: 1743 3a6f 31a4 b33f 1743 3a6f 31a4 b33f
000005b0: 1743 3a6f 31a4 b33f 1743 3a6f 31a4 b33f
000005c0: 1743 3a6f 31a4 b33f 1743 3a6f 31a4 b33f
000005d0: 1743 3a6f 31a4 b33f 1743 3a6f 31a4 b33f
000005e0: 1743 3a6f 31a4 b33f 1743 3a6f 31a4 b33f
000005f0: 1743 3a6f 31a4 b33f 1743 3a6f 31a4 b33f
00000600: 1743 3a6f 31a4 b33f 1743 3a6f 31a4 b33f
00000610: 1743 3a6f 31a4 b33f 1743 3a6f 31a4 b33f
00000620: 1743 3a6f 31a4 b33f 1743 3a6f 31a4 b33f
00000630: 1743 3a6f 31a4 b33f 1743 3a6f 31a4 b33f
00000640: 1743 3a6f 31a4 b33f 1743 3a6f 31a4 b33f
00000650: 1743 3a6f 31a4 b33f 1743 3a6f 31a4 b33f
00000660: 1743 3a6f 31a4 b33f 1743 3a6f 31a4 b33f
00000670: 1743 3a6f 31a4 b33f 1743 3a6f 31a4 b33f
00000680: 1743 3a6f 31a4 b33f 1743 3a6f 31a4 b33f
00000690: 1743 3a6f 31a4 b33f 1743 3a6f 31a4 b33f
000006a0: 1743 3a6f 31a4 b33f 1743 3a6f 31a4 b33f
000006b0: 1743 3a6f 31a4 b33f 1743 3a6f 31a4 b33f
000006c0: 1743 3a6f 31a4 b33f 1743 3a6f 31a4 b33f
000006d0: 1743 3a6f 31a4 b33f 1743 3a6f 31a4 b33f
000006e0: 1743 3a6f 31a4 b33f 1743 3a6f 31a4 b33f
000006f0: 1743 3a6f 31a4 b33f 1743 3a6f 31a4 b33f
00000700: 1743 3a6f 31a4 b33f 1743 3a6f 31a4 b33f
00000710: 1743 3a6f 31a4 b33f 1743 3a6f 31a4 b33f
00000720: 1743 3a6f 31a4 b33f 1743 3a6f 31a4 b33f
00000730: 1743 3a6f 31a4 b33f 1743 3a6f 31a4 b33f
00000740: 1743 3a6f 31a4 b33f 1743 3a6f 31a4 b33f
00000750: 1743 3a6f 31a4 b33f 1743 3a6f 31a4 b33f
00000760: 1743 3a6f 31a4 b33f 1743 3a6f 31a4 b33f
00000770: 1743 3a6f 31a4 b33f 1743 3a6f 31a4 b33f
00000780: 1743 3a6f 31a4 b33f 1743 3a6f 31a4 b33f
00000790: 1743 3a6f 31a4 b33f 1743 3a6f 31a4 b33f
000007a0: 1743 3a6f 31a4 b33f 1743 3a6f 31a4 b33f
000007b0: 1743 3a6f 31a4 b33f 1743 3a6f 31a4 b33f
000007c0: 1743 3a6f 31a4 b33f 1743 3a6f 31a4 b33f
000007d0: 1743 3a6f 31a4 b33f 1743 3a6f 31a4 b33f
000007e0: 1743 3a6f 31a4 b33f 1743 3a6f 31a4 b33f
000007f0: 1743 3a6f 31a4 b33f 1743 3a6f 31a4 b33f
0.07672413793103448 0.07672413793103448 0.07672413793103448 0.07672413793103448 0.07672413793103448 0.07672413793103448 0.07672413793103448 0.07672413793103448
0.07672413793103448 0.07672413793103448 0.07672413793103448 0.07672413793103448 0.07672413793103448 0.07672413793103448 0.07672413793103448 0.07672413793103448
0.07672413793103448 0.07672413793103448 0.07672413793103448 0.07672413793103448 0.07672413793103448 0.07672413793103448 0.07672413793103448 0.07672413793103448
0.07672413793103448 0.07672413793103448 0.07672413793103448 0.07672413793103448 0.07672413793103448 0.07672413793103448 0.07672413793103448 0.07672413793103448
0.07672413793103448 0.07672413793103448 0.07672413793103448 0.07672413793103448 0.07672413793103448 0.07672413793103448 0.07672413793103448 0.07672413793103448
0.07672413793103448 0.07672413793103448 0.07672413793103448 0.07672413793103448 0.07672413793103448 0.07672413793103448 0.07672413793103448 0.07672413793103448
0.07672413793103448 0.07672413793103448 0.07672413793103448 0.07672413793103448 0.07672413793103448 0.07672413793103448 0.07672413793103448 0.07672413793103448
0.07672413793103448 0.07672413793103448 0.07672413793103448 0.07672413793103448 0.07672413793103448 0.07672413793103448 0.07672413793103448 0.07672413793103448
0.07672413793103448 0.07672413793103448 0.07672413793103448 0.07672413793103448 0.07672413793103448 0.07672413793103448 0.07672413793103448 0.07672413793103448
0.07672413793103448 0.07672413793103448 0.07672413793103448 0.07672413793103448 0.07672413793103448 0.07672413793103448 0.07672413793103448 0.07672413793103448
0.07672413793103448 0.07672413793103448 0.07672413793103448 0.07672413793103448 0.07672413793103448 0.07672413793103448 0.07672413793103448 0.07672413793103448
0.07672413793103448 0.07672413793103448 0.07672413793103448 0.07672413793103448 0.07672413793103448 0.07672413793103448 0.07672413793103448 0.07672413793103448
0.07672413793103448 0.07672413793103448 0.07672413793103448 0.07672413793103448 0.07672413793103448 0.07672413793103448 0.07672413793103448 0.07672413793103448
0.07672413793103448 0.07672413793103448 0.07672413793103448 0.07672413793103448 0.07672413793103448 0.07672413793103448 0.07672413793103448 0.07672413793103448
0.07672413793103448 0.07672413793103448 0.07672413793103448 0.07672413793103448 0.07672413793103448 0.07672413793103448 0.07672413793103448 0.07672413793103448
0.07672413793103448 0.07672413793103448 0.07672413793103448 0.07672413793103448 0.07672413793103448 0.07672413793103448 0.07672413793103448 0.07672413793103448
0.07672413793103448 0.07672413793103448 0.07672413793103448 0.07672413793103448 0.07672413793103448 0.07672413793103448 0.07672413793103448 0.07672413793103448
0.07672413793103448 0.07672413793103448 0.07672413793103448 0.07672413793103448 0.07672413793103448 0.07672413793103448 0.07672413793103448 0.07672413793103448
0.07672413793103448 0.07672413793103448 0.07672413793103448 0.07672413793103448 0.07672413793103448 0.07672413793103448 0.07672413793103448 0.07672413793103448
0.07672413793103448 0.07672413793103448 0.07672413793103448 0.07672413793103448 0.07672413793103448 0.07672413793103448 0.07672413793103448 0.07672413793103448
0.07672413793103448 0.07672413793103448 0.07672413793103448 0.07672413793103448 0.07672413793103448 0.07672413793103448 0.07672413793103448 0.07672413793103448
0.07672413793103448 0.07672413793103448 0.07672413793103448 0.07672413793103448 0.07672413793103448 0.07672413793103448 0.07672413793103448 0.07672413793103448
0.07672413793103448 0.07672413793103448 0.07672413793103448 0.07672413793103448 0.07672413793103448 0.07672413793103448 0.07672413793103448 0.07672413793103448
0.07672413793103448 0.07672413793103448 0.07672413793103448 0.07672413793103448 0.07672413793103448 0.07672413793103448 0.07672413793103448 0.07672413793103448
0.07672413793103448 0.07672413793103448 0.07672413793103448 0.07672413793103448 0.07672413793103448 0.07672413793103448 0.07672413793103448 0.07672413793103448
0.07672413793103448 0.07672413793103448 0.07672413793103448 0.07672413793103448 0.07672413793103448 0.07672413793103448 0.07672413793103448 0.07672413793103448
0.07672413793103448 0.07672413793103448 0.07672413793103448 0.07672413793103448 0.07672413793103448 0.07672413793103448 0.07672413793103448 0.07672413793103448
0.07672413793103448 0.07672413793103448 0.07672413793103448 0.07672413793103448 0.07672413793103448 0.07672413793103448 0.07672413793103448 0.07672413793103448
0.07672413793103448 0.07672413793103448 0.07672413793103448 0.07672413793103448 0.07672413793103448 0.07672413793103448 0.07672413793103448 0.07672413793103448
0.07672413793103448 0.07672413793103448 0.07672413793103448 0.07672413793103448 0.07672413793103448 0.07672413793103448 0.07672413793103448 0.07672413793103448
0.07672413793103448 0.07672413793103448 0.07672413793103448 0.07672413793103448 0.07672413793103448 0.07672413793103448 0.07672413793103448 0.07672413793103448
0.07672413793103448 0.07672413793103448 0.07672413793103448 0.07672413793103448 0.07672413793103448 0.07672413793103448 0.07672413793103448 0.07672413793103448

zmax f8 []
00000000: 0000 0000 0000 1440
5.0

hz_F f8 [401]
00000000: 8db9 11a1 ce8a a33f aeb3 500e 52dc a93f
00000010: ccec cfc7 993c ac3f 00b4 bcf7 d323 ad3f
00000020: db27 7464 477c ad3f b30c c450 459e ad3f
00000030: f3f1 f7e6 62ab ad3f 2e36 8748 77b0 ad3f
00000040: cf3c 14bf 70b2 ad3f 01ea 0ae8 35b3 ad3f
00000050: ffbe 950d 83b3 ad3f 13a0 554f a1b3 ad3f
00000060: fc1a bb2d adb3 ad3f 99cf 21cf b1b3 ad3f
00000070: 16d9 3e94 b3b3 ad3f 491f b536 b4b3 ad3f
00000080: 53cd 3065 b4b3 ad3f 88fc 0765 b4b3 ad3f
00000090: 099d d951 b4b3 ad3f 74c2 af36 b4b3 ad3f
000000a0: d1f5 f617 b4b3 ad3f 3286 75f7 b3b3 ad3f
000000b0: 382a e1d5 b3b3 ad3f 0777 81b3 b3b3 ad3f
000000c0: dc64 7190 b3b3 ad3f dfc0 b96c b3b3 ad3f
000000d0: 2ec5 5b48 b3b3 ad3f ab98 5523 b3b3 ad3f
000000e0: acf5 a3fd b2b3 ad3f b4fc 42d7 b2b3 ad3f
000000f0: 2568 2eb0 b2b3 ad3f e5cc 6188 b2b3 ad3f
00000100: e174 d85f b2b3 ad3f 829a 8d36 b2b3 ad3f
00000110: 503f 7c0c b2b3 ad3f 4a36 9fe1 b1b3 ad3f
00000120: 3d2e f1b5 b1b3 ad3f 22a6 6c89 b1b3 ad3f
00000130: 29f6 0b5c b1b3 ad3f 4b33 c92d b1b3 ad3f
00000140: 2349 9efe b0b3 ad3f b5eb 84ce b0b3 ad3f
00000150: c8a1 769d b0b3 ad3f bea9 6c6b b0b3 ad3f
00000160: 1a09 6038 b0b3 ad3f 4f87 4904 b0b3 ad3f
00000170: c8ad 21cf afb3 ad3f f2ba e098 afb3 ad3f
00000180: b9a8 7e61 afb3 ad3f 5927 f328 afb3 ad3f
00000190: 5594 35ef aeb3 ad3f 9dff 3cb4 aeb3 ad3f
000001a0: 8722 0078 aeb3 ad3f 7555 753a aeb3 ad3f
000001b0: cfa5 92fb adb3 ad3f a5ac 4dbb adb3 ad3f
000001c0: 21ab 9b79 adb3 ad3f 5466 7136 adb3 ad3f
000001d0: a443 c3f1 acb3 ad3f 3527 85ab acb3 ad3f
000001e0: 877f aa63 acb3 ad3f 9841 261a acb3 ad3f
000001f0: 25cb eace abb3 ad3f 33f2 e981 abb3 ad3f
00000200: deff 1433 abb3 ad3f 9e92 5ce2 aab3 ad3f
00000210: a3a8 b08f aab3 ad3f 1ba1 003b aab3 ad3f
00000220: 600c 3be4 a9b3 ad3f 0ad4 4d8b a9b3 ad3f
00000230: a404 2630 a9b3 ad3f f4e4 afd2 a8b3 ad3f
00000240: 0cd3 d672 a8b3 ad3f 3348 8510 a8b3 ad3f
00000250: 07bf a4ab a7b3 ad3f 32b2 1d44 a7b3 ad3f
00000260: 6f86 d7d9 a6b3 ad3f 3880 b86c a6b3 ad3f
00000270: e2a9 a5fc a5b3 ad3f 50c9 8289 a5b3 ad3f
00000280: b351 3213 a5b3 ad3f f241 9599 a4b3 ad3f
00000290: 5d23 8b1c a4b3 ad3f dbd9 f19b a3b3 ad3f
000002a0: 31a5 a517 a3b3 ad3f 14f5 808f a2b3 ad3f
000002b0: de51 5c03 a2b3 ad3f 433c 0e73 a1b3 ad3f
000002c0: 7d1c 6bde a0b3 ad3f 2508 4545 a0b3 ad3f
000002d0: ceae 6ba7 9fb3 ad3f 782b ac04 9fb3 ad3f
000002e0: 56d7 d05c 9eb3 ad3f 3228 a1af 9db3 ad3f
000002f0: 1071 e1fc 9cb3 ad3f ccaf 5244 9cb3 ad3f
00000300: f15b b285 9bb3 ad3f 3419 bac0 9ab3 ad3f
00000310: 2c8a 1ff5 99b3 ad3f 3aea 9322 99b3 ad3f
00000320: b0dd c348 98b3 ad3f b30b 5767 97b3 ad3f
00000330: ddbf ef7d 96b3 ad3f 5992 2a8c 95b3 ad3f
00000340: 10ed 9d91 94b3 ad3f ea99 d98d 93b3 ad3f
00000350: a153 6680 92b3 ad3f 4117 c568 91b3 ad3f
00000360: bfa6 6e46 90b3 ad3f 5ade d218 8fb3 ad3f
00000370: 3cec 57df 8db3 ad3f 8ea4 5999 8cb3 ad3f
00000380: d98b 2846 8bb3 ad3f dbfd 08e5 89b3 ad3f
00000390: 9d17 3275 88b3 ad3f 35a0 ccf5 86b3 ad3f
000003a0: 27bf f165 85b3 ad3f 77b1 a9c4 83b3 ad3f
000003b0: a037 ea10 82b3 ad3f 03eb 9449 80b3 ad3f
000003c0: ba7a 756d 7eb3 ad3f 678b 3f7b 7cb3 ad3f
000003d0: 667e 8c71 7ab3 ad3f 38f3 d84e 78b3 ad3f
000003e0: 34f6 8111 76b3 ad3f 24f1 c1b7 73b3 ad3f
000003f0: c02c ad3f 71b3 ad3f ecf8 2da7 6eb3 ad3f
00000400: e958 00ec 6bb3 ad3f ec2c ad0b 69b3 ad3f
00000410: 30c3 8403 66b3 ad3f 87ba 98d0 62b3 ad3f
00000420: ea2f b56f 5fb3 ad3f d3ea 58dd 5bb3 ad3f
00000430: 83ac ac15 58b3 ad3f ab35 7914 54b3 ad3f
00000440: b219 1cd5 4fb3 ad3f 5cde 7a52 4bb3 ad3f
00000450: 137f f486 46b3 ad3f 14cc 506c 41b3 ad3f
00000460: e264 adfb 3bb3 ad3f f5f9 672d 36b3 ad3f
00000470: 4239 05f9 2fb3 ad3f df1b 1455 29b3 ad3f
00000480: 688e 0c37 22b3 ad3f e011 2993 1ab3 ad3f
00000490: f623 3a5c 12b3 ad3f 3e5f 7283 09b3 ad3f
000004a0: f517 2af8 ffb2 ad3f 42ae 98a7 f5b2 ad3f
000004b0: b5cb 817c eab2 ad3f fa11 d45e deb2 ad3f
000004c0: c45d 3633 d1b2 ad3f 1c13 80da c2b2 ad3f
000004d0: 623c 1831 b3b2 ad3f 9f04 360e a2b2 ad3f
000004e0: ab26 fc42 8fb2 ad3f c316 6799 7ab2 ad3f
000004f0: 50dd 03d3 63b2 ad3f 2f17 63a7 4ab2 ad3f
00000500: b24e 38c2 2eb2 ad3f 45e3 11c1 0fb2 ad3f
00000510: 8778 9030 edb1 ad3f 0e43 fe88 c6b1 ad3f
00000520: fbcd 1d2a 9bb1 ad3f a7ab fc55 6ab1 ad3f
00000530: 82ae 872a 33b1 ad3f 0e32 8b99 f4b0 ad3f
00000540: 1ba0 b05e adb0 ad3f 8eb8 e8f2 5bb0 ad3f
00000550: e893 857c feaf ad3f 16d0 0bbb 92af ad3f
00000560: 1408 72ed 15af ad3f 61d5 19b1 84ae ad3f
00000570: db63 3ad7 daad ad3f 529d ac2d 13ad ad3f
00000580: df95 f536 27ac ad3f 00b5 f0cb 0eab ad3f
00000590: d5be 6c9f bfa9 ad3f cfd8 3099 2ca8 ad3f
000005a0: f95a d9f9 44a6 ad3f 6781 5133 f3a3 ad3f
000005b0: f51d a759 1ba1 ad3f facf 8604 999d ad3f
000005c0: 8e4c 5669 3c99 ad3f e0e5 6a5e c693 ad3f
000005d0: c9d5 12d6 e28c ad3f 3644 732f 2184 ad3f
000005e0: ff49 0675 e978 ad3f 1f3c 9a3b 6d6a ad3f
000005f0: c09e ad44 9257 ad3f 2f8f 353c d43e ad3f
00000600: 9ead 04d3 191e ad3f e44b 8007 78f2 ac3f
00000610: 5cbb c5ae dcb7 ac3f 0f89 0686 9768 ac3f
00000620: af08 9d13 b8fc ab3f 0b42 166c 3869 ab3f
00000630: 32c8 11ba f59e aa3f 3e10 eeac 8e89 a93f
00000640: cdb9 402f 700e a83f cca4 980c bf00 a73f
00000650: d4e4 5360 3015 a63f 798c 1edd ac46 a53f
00000660: 85fe 7903 eb90 a43f f2f3 179a 50f0 a33f
00000670: 02e5 3728 d761 a33f 50fd aded f3e2 a23f
00000680: 93d4 8157 8371 a23f 67db e4ae b70b a23f
00000690: 1b96 c3a3 0ab0 a13f 30b5 fd4c 315d a13f
000006a0: e471 863c 1212 a13f 8461 4f4f bdcd a03f
000006b0: 1b71 71ec 648f a03f 7988 a372 5856 a03f
000006c0: d029 c39d ff21 a03f 73bc 396f ade3 9f3f
000006d0: 5371 55de d68a 9f3f d883 7270 b438 9f3f
000006e0: 061c e335 98ec 9e3f bef6 aabe e9a5 9e3f
000006f0: cde5 e108 2364 9e3f 4b4b 0cec cd26 9e3f
00000700: ac73 d7eb 81ed 9d3f 9da1 9b60 e2b7 9d3f
00000710: 9acb 38e7 9c85 9d3f 3297 7a0c 6856 9d3f
00000720: b8de 4a2a 022a 9d3f 9353 af6e 3000 9d3f
00000730: bdbb f205 bed8 9c3f 5268 7d62 7bb3 9c3f
00000740: 0d0b cd9d 3d90 9c3f 98dc bfee dd6e 9c3f
00000750: 7716 0632 394f 9c3f 7901 1182 2f31 9c3f
00000760: 22c1 43dc a314 9c3f e9a2 83d1 7bf9 9b3f
00000770: a357 9140 9fdf 9b3f 3c1d d218 f8c6 9b3f
00000780: 4c57 6424 72af 9b3f a15c 86d8 fa98 9b3f
00000790: 6acc 7a2b 8183 9b3f 3dca 346f f56e 9b3f
000007a0: 80cb 2f30 495b 9b3f a243 ed17 6f48 9b3f
000007b0: 1c5e a4d2 5a36 9b3f 823b c0f7 0025 9b3f
000007c0: 494e d6f4 5614 9b3f 5c2c cafa 5204 9b3f
000007d0: f162 ddec ebf4 9a3f 321e 7351 19e6 9a3f
000007e0: 91f8 5544 d3d7 9a3f 87bd 546a 12ca 9a3f
000007f0: 8463 10e6 cfbc 9a3f 08e8 d94d 05b0 9a3f
0.03816838947465149 0.05050903725382426 0.0551498466884027 0.05691397093901429 0.0575887975811182 0.057848135098561036 0.05794819898071415 0.05798695335725444
0.058002017331199356 0.05800789315749811 0.058010192306822354 0.05801109403074647 0.05801144774664199 0.05801158574550342 0.058011638494848736 0.05801165740791576
0.05801166281926364 0.05801166280070286 0.05801166056772373 0.05801165740547712 0.05801165382898044 0.05801165004482946 0.058011646135657846 0.0580116421340176
0.0580116380521731 0.05801163389412677 0.05801162966043659 0.05801162535026213 0.0580116209621154 0.05801161649423517 0.05801161194467878 0.05801160731143699
0.05801160259236738 0.058011597785299976 0.05801159288796376 0.05801158789800505 0.05801158281300587 0.05801157763046329 0.05801157234780547 0.058011566962341186
0.05801156147130573 0.05801155587183563 0.05801155016098708 0.058011544335687656 0.05801153839276392 0.058011532328932185 0.058011526140798575 0.058011519824836
0.05801151337739569 0.05801150679469797 0.058011500072816226 0.05801149320768604 0.05801148619508916 0.05801147903063512 0.05801147170980025 0.05801146422785423
0.05801145657991059 0.05801144876086242 0.05801144076543288 0.05801143258811551 0.05801142422319488 0.05801141566473972 0.05801140690655008 0.05801139794218493
0.05801138876495292 0.05801137936785959 0.05801136974362577 0.05801135988468983 0.05801134978312272 0.05801133943069921 0.05801132881880136 0.058011317938459955
0.0580113067802924 0.05801129533450968 0.058011283590870426 0.05801127153867859 0.058011259166744426 0.05801124646336614 0.058011233416283906 0.05801122001266157
0.05801120623906133 0.05801119208138407 0.05801117752486704 0.05801116255399893 0.0580111471525221 0.058011131303354585 0.058011114988548704 0.05801109818923369
0.0580110808855858 0.05801106305672502 0.05801104468068062 0.05801102573430844 0.058011006193210576 0.05801098603167566 0.058010965222566324 0.058010943737229675
0.058010921545409995 0.05801089861511102 0.058010874912515525 0.05801085040180394 0.05801082504506938 0.05801079880213624 0.05801077163039257 0.05801074348463393
0.058010714316845235 0.0580106840759987 0.05801065270785633 0.05801062015465997 0.058010586354908515 0.058010551243054834 0.05801051474914984 0.05801047679853709
0.05801043731141648 0.05801039620245848 0.058010353380310443 0.05801030874710059 0.058010262197852484 0.05801021361989716 0.05801016289215899 0.05801010988439794
0.058010054456408125 0.05800999645705112 0.05800993572324557 0.05800987207883285 0.05800980533329572 0.05800973528036682 0.05800966169643962 0.058009584338820946
0.05800950294376312 0.05800941722426409 0.05800932686759663 0.05800923153252762 0.05800913084621569 0.05800902440065205 0.05800891174870861 0.058008792399600516
0.0580086658138045 0.05800853139720338 0.058008388494498096 0.05800823638164601 0.0580080742572109 0.05800790123247516 0.058007716320036554 0.05800751842075846
0.058007306308607565 0.05800707861320453 0.05800683379954556 0.05800657014441278 0.05800628570891312 0.05800597830633737 0.05800564546452539 0.05800528438161119
0.05800489187384586 0.05800446431388748 0.058003997557641865 0.05800348685716838 0.0580029267567402 0.05800231096831745 0.05800163222186916 0.058000882084839105
0.05800005074357041 0.057999126737689845 0.0579980966360703 0.05799694463997272 0.05799565209499843 0.05799419688840795 0.05799255270161742 0.057990688079005634
0.05798856526263326 0.05798613872717438 0.05798335332909926 0.05798014195707439 0.05797642253402571 0.05797209417225236 0.057967032216033686 0.0579610818152171
0.057954049548054824 0.05794569243912839 0.05793570347884517 0.0579236924171923 0.05790916013636677 0.05789146424717977 0.05786977261919538 0.05784300022369844
0.057809722765477564 0.057768057847578325 0.0577155004806787 0.05764869407870103 0.057563109908318914 0.057452596212094635 0.057308741458482526 0.057119972562558956
0.05687027645975749 0.056537390628498746 0.056090256056328086 0.055485472784555616 0.05466246833249621 0.053537142938811476 0.05199401756625867 0.04987760411225438
0.04698515488449893 0.04492756870997425 0.043130409010652265 0.04155483435831626 0.04016813676298362 0.0389428318121431 0.03785583845087538 0.03688776279795525
0.03602228587343705 0.03524564752517883 0.03454621552536371 0.03391412796814064 0.033340997589423244 0.03281966775074621 0.03234401117581084 0.03190876387977055
0.031509387977695646 0.031141958154361448 0.03080306751267987 0.030489749301185615 0.030199411667833707 0.02992978311771454 0.029678866784228753 0.029444901973941822
0.029226331729535523 0.029021775385361093 0.028830005276357797 0.028649926911973718 0.028480562049223862 0.028321034198444627 0.02817055617623131 0.028028419386238852
0.027893984562307007 0.027766673752890186 0.027645963361939665 0.027531378091454315 0.02742248565567807 0.027318892157299244 0.027220238033201515 0.027126194491328123
0.02703646037215117 0.026950759378078563 0.026868837622441445 0.02679046145676466 0.026715415540774057 0.02664350112474135 0.026574534517832857 0.02650834571982897
0.02644477719657193 0.026383682782164505 0.02632492669303849 0.02626838264111892 0.026213933034789753 0.02616146825783752 0.026110886017793003 0.026062090756092032

Vz_F f8 [401]
00000000: 8057 494a 6ba5 e03f 00f2 d6d9 84c1 e63f
00000010: 804e cb65 b60d e93f 0047 bbdf 4ded e93f
00000020: 40cc 3991 d542 ea3f c072 aa22 b463 ea3f
00000030: 003e 0fd9 6270 ea3f 006a ac49 4c75 ea3f
00000040: c076 390f 3577 ea3f 402f 78b5 f377 ea3f
00000050: c09d d74e 3e78 ea3f c0c3 cf90 5b78 ea3f
00000060: 00c1 df0a 6778 ea3f 0083 2185 6b78 ea3f
00000070: 0018 483b 6d78 ea3f 40f9 60d8 6d78 ea3f
00000080: c0b3 5305 6e78 ea3f 003c 2c05 6e78 ea3f
00000090: 0003 a0f2 6d78 ea3f c0c9 5bd8 6d78 ea3f
000000a0: 40b3 a6ba 6d78 ea3f 000e 389b 6d78 ea3f
000000b0: 8090 bf7a 6d78 ea3f c072 8259 6d78 ea3f
000000c0: 00c9 9a37 6d78 ea3f 0016 1115 6d78 ea3f
000000d0: 8089 e6f1 6c78 ea3f 005a 19ce 6c78 ea3f
000000e0: 805d a6a9 6c78 ea3f 40d5 8984 6c78 ea3f
000000f0: c09f bf5e 6c78 ea3f 4077 4338 6c78 ea3f
00000100: 80cd 1011 6c78 ea3f 4005 23e9 6b78 ea3f
00000110: 404a 75c0 6b78 ea3f 409b 0297 6b78 ea3f
00000120: 00d4 c56c 6b78 ea3f 00a2 b941 6b78 ea3f
00000130: 408d d815 6b78 ea3f c0dc 1ce9 6a78 ea3f
00000140: 80af 80bb 6a78 ea3f c0ee fd8c 6a78 ea3f
00000150: 0058 8e5d 6a78 ea3f c062 2b2d 6a78 ea3f
00000160: 804f cefb 6978 ea3f c022 70c9 6978 ea3f
00000170: 00a5 0996 6978 ea3f 4056 9361 6978 ea3f
00000180: 4074 052c 6978 ea3f 80f5 57f5 6878 ea3f
00000190: 8080 82bd 6878 ea3f c070 7c84 6878 ea3f
000001a0: 00ce 3c4a 6878 ea3f 4042 ba0e 6878 ea3f
000001b0: 002f ebd1 6778 ea3f 4085 c593 6778 ea3f
000001c0: 00e1 3e54 6778 ea3f 4066 4c13 6778 ea3f
000001d0: 80dc e2d0 6678 ea3f 408e f68c 6678 ea3f
000001e0: 4054 7b47 6678 ea3f c091 6400 6678 ea3f
000001f0: c017 a5b7 6578 ea3f 0034 2f6d 6578 ea3f
00000200: 00ac f420 6578 ea3f 40a0 e6d2 6478 ea3f
00000210: 4096 f582 6478 ea3f c079 1131 6478 ea3f
00000220: 806e 29dd 6378 ea3f 00f7 2b87 6378 ea3f
00000230: 00c0 062f 6378 ea3f 00b7 a6d4 6278 ea3f
00000240: 80e8 f777 6278 ea3f c083 e518 6278 ea3f
00000250: c0c1 59b7 6178 ea3f 00e4 3d53 6178 ea3f
00000260: 401f 7aec 6078 ea3f 8091 f582 6078 ea3f
00000270: 0029 9616 6078 ea3f 409a 40a7 5f78 ea3f
00000280: 4052 d834 5f78 ea3f 0056 3fbf 5e78 ea3f
00000290: 4041 5646 5e78 ea3f 4018 fcc9 5d78 ea3f
000002a0: 0049 0e4a 5d78 ea3f c080 68c6 5c78 ea3f
000002b0: 8095 e43e 5c78 ea3f c066 5ab3 5b78 ea3f
000002c0: 40cd 9f23 5b78 ea3f c062 888f 5a78 ea3f
000002d0: 406f e5f6 5978 ea3f 00bc 8559 5978 ea3f
000002e0: c067 35b7 5878 ea3f 40c6 bd0f 5878 ea3f
000002f0: 0023 e562 5778 ea3f 8090 6eb0 5678 ea3f
00000300: c0b8 19f8 5578 ea3f 4092 a239 5578 ea3f
00000310: 4034 c174 5478 ea3f 0074 29a9 5378 ea3f
00000320: 80b6 8ad6 5278 ea3f c08d 8ffc 5178 ea3f
00000330: 805d dd1a 5178 ea3f 4006 1431 5078 ea3f
00000340: 806e cd3e 4f78 ea3f c014 9d43 4e78 ea3f
00000350: 00a4 0f3f 4d78 ea3f 004b aa30 4c78 ea3f
00000360: 0043 ea17 4b78 ea3f c02a 44f4 4978 ea3f
00000370: c044 23c5 4878 ea3f 00d1 e889 4778 ea3f
00000380: 801f eb41 4678 ea3f 40be 74ec 4478 ea3f
00000390: 806c c388 4378 ea3f c00c 0716 4278 ea3f
000003a0: 0066 6093 4078 ea3f c0e3 dfff 3e78 ea3f
000003b0: 4011 845a 3d78 ea3f 00fd 37a2 3b78 ea3f
000003c0: 8084 d1d5 3978 ea3f 0046 0ff4 3778 ea3f
000003d0: 807a 96fb 3578 ea3f 408c f0ea 3378 ea3f
000003e0: 405d 88c0 3178 ea3f c051 a77a 2f78 ea3f
000003f0: 40ef 7117 2d78 ea3f 4025 e494 2a78 ea3f
00000400: 001e cdf0 2778 ea3f 0091 ca28 2578 ea3f
00000410: 0082 433a 2278 ea3f 4057 6222 1f78 ea3f
00000420: c040 0ede 1b78 ea3f c0a6 e369 1878 ea3f
00000430: 80c2 2bc2 1478 ea3f 40f8 d2e2 1078 ea3f
00000440: 0009 5ec7 0c78 ea3f 009f dd6a 0878 ea3f
00000450: 804b e0c7 0378 ea3f 8072 62d8 fe77 ea3f
00000460: 00e6 bb95 f977 ea3f 80df 8af8 f377 ea3f
00000470: 80c0 9bf8 ed77 ea3f c052 cd8c e777 ea3f
00000480: 808a f0aa e077 ea3f c06b a347 d977 ea3f
00000490: 80eb 2556 d177 ea3f 80c6 27c8 c877 ea3f
000004a0: 801c 8e8d bf77 ea3f 0018 2f94 b577 ea3f
000004b0: 60e7 81c7 aa77 ea3f 40a2 4010 9f77 ea3f
000004c0: 6056 f953 9277 ea3f 20cf 8a74 8477 ea3f
000004d0: 8004 894f 7577 ea3f 80e8 83bd 6477 ea3f
000004e0: 8062 2a91 5277 ea3f c083 4196 3e77 ea3f
000004f0: a040 6690 2877 ea3f 008d 8d39 1077 ea3f
00000500: 8094 3340 f576 ea3f e0eb 2645 d776 ea3f
00000510: e087 d7d8 b576 ea3f 80db 0a78 9076 ea3f
00000520: 400e ce87 6676 ea3f 8070 7450 3776 ea3f
00000530: 40fc 61f7 0176 ea3f c03c 4f77 c575 ea3f
00000540: 0072 9b96 8075 ea3f c03b 21db 3175 ea3f
00000550: 4002 d77a d774 ea3f 80c1 4a48 6f74 ea3f
00000560: c033 bb99 f673 ea3f 6006 2829 6a73 ea3f
00000570: 606a 24eb c572 ea3f 40e9 75d9 0472 ea3f
00000580: a022 7fad 2071 ea3f 406f 0785 1170 ea3f
00000590: 006f f369 cd6e ea3f a0bc bcb2 476d ea3f
000005a0: 20b5 932d 706b ea3f 006b 9b02 3269 ea3f
000005b0: 80ce eb31 7266 ea3f 001e f886 0d63 ea3f
000005c0: c0e8 28cb d55e ea3f 40f2 c7ea 8d59 ea3f
000005d0: 602a b29e e452 ea3f 401f 2bfe 6c4a ea3f
000005e0: a025 4818 943f ea3f a096 d452 9231 ea3f
000005f0: 201a 4cc1 561f ea3f a0d0 6ce2 6907 ea3f
00000600: c0a5 4025 c4e7 e93f 60cc 1733 93bd e93f
00000610: 80df 294b e784 e93f 40dd 5a41 4038 e93f
00000620: 202f d2b9 f0cf e83f 00c7 96f8 4f41 e83f
00000630: 20b9 b41c bb7d e73f 80c3 cf1e 7d71 e63f
00000640: 80d7 4490 e302 e53f 603f 184e 1afe e33f
00000650: 00cf 8bf2 521a e33f 000d ef39 a152 e23f
00000660: 4011 9ce2 dfa2 e13f a023 6927 9307 e13f
00000670: 605d af22 ce7d e03f e023 7891 1b03 e03f
00000680: c081 91eb d32a df3f 802b f8af f565 de3f
00000690: c0c9 1c97 a9b4 dd3f 4040 8aa9 6f14 dd3f
000006a0: 80dd 5ca1 2783 dc3f 8009 8714 01ff db3f
000006b0: c032 5165 6e86 db3f 40ea 7dfb 1918 db3f
000006c0: 00c8 2f5d ddb2 da3f c085 e2d0 b955 da3f
000006d0: c0de 5141 d2ff d93f c01a 2b29 66b0 d93f
000006e0: 4014 2557 cd66 d93f 8004 ea63 7422 d93f
000006f0: 4051 6bba d9e2 d83f 40f6 0a19 8ba7 d83f
00000700: c0c7 be76 2370 d83f 8050 243b 493c d83f
00000710: 802d 94bb ac0b d83f 806c c5f1 06de d73f
00000720: 8068 9a62 18b3 d73f 8074 572d a88a d73f
00000730: 40d0 db3c 8364 d73f 00e5 8e95 7b40 d73f
00000740: c080 98bb 671e d73f 401b b82d 22fe d63f
00000750: 4000 a9f1 88df d63f c01a 812f 7dc2 d63f
00000760: c06b e1d9 e2a6 d63f 00e0 2561 a08c d63f
00000770: 4058 0b70 9e73 d63f 804e 7eb0 c75b d63f
00000780: 803f 7797 0845 d63f 80d9 f336 4f2f d63f
00000790: c048 3f15 8b1a d63f 8000 da08 ad06 d63f
000007a0: 80d4 6918 a7f3 d53f c01a 315e 6ce1 d53f
000007b0: 80d7 9cee f0cf d53f 40b2 89c1 29bf d53f
000007c0: c02a ec9d 0caf d53f 40da 9307 909f d53f
000007d0: c077 ca2e ab90 d53f c04b 98e1 5582 d53f
000007e0: 400b 7e7e 8874 d53f 0053 7ae8 3b67 d53f
000007f0: c045 367c 695a d53f 4012 3906 0b4e d53f
0.5201927615078006 0.7111229185753132 0.7829238880317035 0.8102177972561719 0.8206584774437786 0.8246708561960858 0.8262190093464028 0.8268186034140967
0.8270516679146667 0.8271425766301732 0.8271781482589446 0.8271920994139847 0.8271975719817704 0.8271997070515624 0.827200523170859 0.8272008157871724
0.8272008995096414 0.8272008992224755 0.8272008646746087 0.8272008157494426 0.8272007604151455 0.8272007018680938 0.8272006413867672 0.8272005794747983
0.8272005163219376 0.8272004519901088 0.8272003864879451 0.8272003198024436 0.8272002519105826 0.8272001827851128 0.8272001123959782 0.8272000407120927
0.8271999677003095 0.8271998933270552 0.8271998175571937 0.8271997403543097 0.8271996616809929 0.8271995814985189 0.8271994997670973 0.8271994164450902
0.827199331489723 0.8271992448566934 0.8271991565004555 0.8271990663734741 0.8271989744266506 0.8271988806091812 0.8271987848685569 0.827198687150208
0.8271985873976817 0.8271984855525005 0.827198381553913 0.8271982753390361 0.8271981668426065 0.8271980559966963 0.827197942731317 0.8271978269732827
0.8271977086469917 0.8271975876734317 0.8271974639709612 0.8271973374543862 0.8271972080352796 0.8271970756218749 0.8271969401182488 0.8271968014247477
0.8271966594378455 0.8271965140493265 0.8271963651465697 0.8271962126125842 0.827196056324695 0.8271958961556436 0.8271957319720968 0.8271955636352857
0.8271953910000462 0.8271952139149263 0.827195032221475 0.8271948457542067 0.8271946543399977 0.8271944577978019 0.8271942559379397 0.8271940485618146
0.8271938354615216 0.8271936164189242 0.8271933912056184 0.8271931595816184 0.8271929212953921 0.8271926760826531 0.8271924236657213 0.8271921637526347
0.8271918960366875 0.8271916201948315 0.827191335887143 0.827191042755544 0.8271907404225587 0.8271904284903897 0.8271901065391773 0.827189774125614
0.8271894307815941 0.8271890760120826 0.8271887092938712 0.8271883300727723 0.8271879377623037 0.8271875317408828 0.8271871113492324 0.8271866758879654
0.8271862246142092 0.8271857567384799 0.8271852714216266 0.827184767770035 0.827184244832182 0.8271837015939454 0.8271831369730975 0.8271825498145802
0.8271819388837542 0.8271813028604313 0.8271806403312354 0.8271799497819288 0.8271792295883529 0.8271784780073332 0.8271776931656305 0.8271768730482165
0.8271760154858754 0.8271751181402465 0.8271741784881925 0.8271731938042493 0.8271721611408012 0.8271710773065521 0.8271699388419407 0.8271687419921037
0.8271674826764297 0.8271661564545241 0.8271647584879815 0.827163283497363 0.8271617257141983 0.8271600788259192 0.8271583359147172 0.8271564893873418
0.827154530896479 0.8271524512501571 0.8271502403098197 0.827147886873334 0.8271453785411609 0.8271427015633748 0.8271398406632358 0.827136778835289
0.8271334971107791 0.8271299742876792 0.827126186616951 0.8271221074375745 0.8271177067516788 0.827112950727269 0.8271078011159538 0.8271022145682494
0.8270961418263134 0.8270895267691891 0.8270823052809106 0.827074403903012 0.827065738226409 0.8270562109647628 0.827045709638714 0.8270341037827222
0.8270212415633438 0.8270069456697193 0.8269910083001797 0.8269731850221973 0.8269531872214841 0.8269306727775216 0.8269052344984473 0.826876385713966
0.8268435422465359 0.8268059997443444 0.8267629050461167 0.8267132198289318 0.8266556742252007 0.8265887073359401 0.8265103905317339 0.8264183280255466
0.826309527264204 0.8261802290175879 0.8260256833413848 0.8258398524248101 0.8256150140929641 0.825341229526515 0.8250056242963666 0.8245914112202968
0.824076554104316 0.8234319291655723 0.8226187800913287 0.8215851749637082 0.820261046815336 0.8185512178212839 0.8163255477273346 0.813404981838648
0.8095417716587505 0.8043914792928142 0.7974735706365976 0.7881165768111842 0.7753833417241118 0.7579727034810446 0.7340980110800821 0.7013536073483095
0.6566026513817036 0.6247684026038591 0.5969633805493402 0.5725866443175676 0.5511321474046227 0.5321746606579048 0.5153570821229714 0.5003793564984527
0.48698900227284625 0.47497312721741736 0.4641517615993074 0.4543723254837495 0.44550505407411123 0.43743922238004274 0.4300800313401787 0.42334603843452
0.41716703510530806 0.4114822902575632 0.40623909357917043 0.40139154453610715 0.3968995429061728 0.39272794491996166 0.3888458557605823 0.3852260345991887
0.38184439274038695 0.3786795690114175 0.3757125694107444 0.3729264603659388 0.3703061068459945 0.36783794811146464 0.36550980513789355 0.3633107147721404
0.36123078651327134 0.35926107849848066 0.35739348983407027 0.3556206668767281 0.3539359214534521 0.35233315932373444 0.3508068174536483 0.3493518088882652
0.34796347419341345 0.34663753859003776 0.3453700740329957 0.34415746559535165 0.34299638160820933 0.3418837470857561 0.34081672002809427 0.33979267025168625
0.33880916044351395 0.33786392917628305 0.33695487565443827 0.33608004599335217 0.3352376208569474 0.3344259043017672 0.333643313694747 0.3328883705874297
