onecap_model_with_structure_ambiguity/output/upper_triangular_four_ambiguous_parameters/Delta_10.0_distorted_0/logadjustment_1_boundary_1/zmax_5.0_zscale_2.0/delta_0.01/q_0.3_gamma_1.0_rho_1.0/model.npz (npz, 126264 bytes, 58 tensors)

clowerlim f8 []
000000 2d 43 1c eb e2 36 1a 3f
       0.0001

zmin f8 []
000000 00 00 00 00 00 00 14 c0
       -5.0

Delta f8 []
000000 00 00 00 00 00 00 24 40
       10.0

s1_F f8 [401]
000000 21 ad 3b 4f ad 8c f2 bf 58 d7 98 b8 28 cd e9 bf
       -1.159344968323076 -0.8062938313876016
000010 3e 76 e7 ea 29 60 e6 bf f2 4c 15 22 cd f1 e4 bf
       -0.6992387378665581 -0.6545167604148487
000020 4d 0d b9 f3 e9 3f e4 bf 1d 5e bc 1d f1 de e3 bf
       -0.6328019867145628 -0.6209645825173912
000030 66 4b 62 65 39 a3 e3 bf 76 78 cc 34 43 79 e3 bf
       -0.6136748294978644 -0.6085525542473664
000040 91 a0 43 20 eb 57 e3 bf 5e 51 80 cd cc 3a e3 bf
       -0.6044822340163752 -0.6009277356811642
000050 71 d0 b0 62 c4 1f e3 bf 52 35 19 c3 c4 05 e3 bf
       -0.5976278235962252 -0.5944541750447263
000060 dd 15 66 0a 49 ec e2 bf 2d 8f 6f 57 0f d3 e2 bf
       -0.5913434222317694 -0.5882641513567016
000070 76 77 f0 e6 f6 b9 e2 bf b9 dd 29 62 ef a0 e2 bf
       -0.5852007399114274 -0.5821453969246512
000080 53 74 e3 9d f0 87 e2 bf 75 f7 37 82 f6 6e e2 bf
       -0.5790942271957057 -0.5760452788669982
000090 91 2c 18 01 ff 55 e2 bf 1a 76 25 12 09 3d e2 bf
       -0.5729975720763766 -0.5699506143971036
0000a0 4a 30 95 30 14 24 e2 bf 1d ea f1 19 20 0b e2 bf
       -0.5669041584856214 -0.5638580805528509
0000b0 aa fb 4e ad 2c f2 e1 bf 7a c4 c0 da 39 d9 e1 bf
       -0.5608123192722492 -0.5577668449897282
0000c0 bc 5d 02 9b 47 c0 e1 bf 71 c5 3a eb 55 a7 e1 bf
       -0.5547216441654466 -0.5516767114951745
0000d0 ee bd d6 ca 64 8e e1 bf 9d 02 71 3a 74 75 e1 bf
       -0.5486320459075935 -0.5455876485285277
0000e0 3e 6a 43 3b 84 5c e1 bf bc 0c de ce 94 43 e1 bf
       -0.5425435216414554 -0.5394996681574393
0000f0 53 c4 01 f7 a5 2a e1 bf 66 31 8d b5 b7 11 e1 bf
       -0.5364560913423112 -0.5334127946785372
000100 bc ea 72 0c ca f8 e0 bf e9 96 b4 fd dc df e0 bf
       -0.5303697817938295 -0.5273270564254889
000110 67 74 60 8b f0 c6 e0 bf 19 3a 90 b7 04 ae e0 bf
       -0.5242846224024448 -0.5212424836370843
000120 3a 8f 68 84 19 95 e0 bf 35 fb 18 f4 2e 7c e0 bf
       -0.5182006441213851 -0.5151591079264565
000130 0e d9 db 08 45 63 e0 bf ba a2 f6 c4 5b 4a e0 bf
       -0.512117879202181 -0.5090769621793563
000140 99 00 ba 2a 73 31 e0 bf 2c 2b 82 3c 8b 18 e0 bf
       -0.5060363611701347 -0.5029960805708007
000150 15 32 6e f9 47 ff df bf db ac 99 db 7a cd df bf
       -0.49995612486307667 -0.4969164986166114
000160 08 7d 87 24 af 9b df bf a3 d7 51 d9 e4 69 df bf
       -0.4938772064906094 -0.4908382532370245
000170 44 b2 2c ff 1b 38 df bf 9e c8 66 9b 54 06 df bf
       -0.48779964370149664 -0.4847613828270684
000180 e2 0e 6a b3 8e d4 de bf 83 8d bc 4c ca a2 de bf
       -0.48172347565581053 -0.4786859273319452
000190 99 ff 00 6d 07 71 de bf 63 8a f7 19 46 3f de bf
       -0.4756487431040966 -0.47261192832789883
0001a0 e6 9c 7e 59 86 0d de bf b9 b3 93 31 c8 db dd bf
       -0.46957548846917374 -0.46653942910671337
0001b0 29 10 54 a8 0b aa dd bf cc bc fd c3 50 78 dd bf
       -0.4635037559348825 -0.4604684747673218
0001c0 e5 38 f0 8a 97 46 dd bf 70 9a ad 03 e0 14 dd bf
       -0.45743359153938307 -0.4543991123122515
0001d0 13 45 db 34 2a e3 dc bf 75 f8 42 25 76 b1 dc bf
       -0.4513650432755451 -0.44833139075115663
0001e0 b0 c9 d3 db c3 7f dc bf e4 38 a3 5f 13 4e dc bf
       -0.4452981611967983 -0.44226536120994653
0001f0 ce 14 ee b7 64 1c dc bf fc cc 19 ec b7 ea db bf
       -0.4392329975310759 -0.43620107704846567
000200 22 5b b5 03 0d b9 db bf 46 8b 7a 06 64 87 db bf
       -0.4331696068015153 -0.4301385939854082
000210 3b 2e 4f fc bc 55 db bf 95 53 46 ed 17 24 db bf
       -0.4271080459554672 -0.4240779702316158
000220 c7 7f a1 e1 74 f2 da bf a0 35 d2 e1 d3 c0 da bf
       -0.4210483745027855 -0.4180192666325073
000230 4c 15 7b f6 34 8f da bf 65 74 71 28 98 5d da bf
       -0.4149906546629907 -0.4119625468209221
000240 3f d0 be 80 fd 2b da bf 33 4d a2 08 65 fa d9 bf
       -0.4089349515227276 -0.4059078773800195
000250 48 42 92 c9 ce c8 d9 bf 9d f1 3d cd 3a 97 d9 bf
       -0.40288133320521924 -0.3998553280178159
000260 b9 26 8f 1d a9 65 d9 bf 52 fc ab c4 19 34 d9 bf
       -0.3968298710502541 -0.3938049717543822
000270 58 bb f8 cc 8c 02 d9 bf f0 8c 19 41 02 d1 d8 bf
       -0.3907806398082605 -0.38775688512232787
000280 a4 bf f4 2b 7a 9f d8 bf 24 6e b4 98 f4 6d d8 bf
       -0.3847337178476613 -0.3817111483819835
000290 b5 da c8 92 71 3c d8 bf e1 81 ea 25 f1 0a d8 bf
       -0.37868918737823815 -0.37566784575213147
0002a0 98 4d 1c 5e 73 d9 d7 bf 4f 0e ae 47 f8 a7 d7 bf
       -0.3726471346901348 -0.36962706565848163
0002b0 34 c3 3e ef 7f 76 d7 bf 07 2a bf 61 0a 45 d7 bf
       -0.3666076504114699 -0.36358890100078195
0002c0 a9 53 74 ac 97 13 d7 bf 24 64 fa dc 27 e2 d6 bf
       -0.3605708297848716 -0.35755344943896916
0002d0 55 51 47 01 bb b0 d6 bf 41 db ad 27 51 7f d6 bf
       -0.35453677296506686 -0.35152081370272376
0002e0 6f 84 e0 5e ea 4d d6 bf 6e c0 f4 b5 86 1c d6 bf
       -0.348505585339871 -0.34549110192438703
0002f0 00 31 66 3c 26 eb d5 bf f8 04 1a 02 c9 b9 d5 bf
       -0.3424773778758805 -0.3394644279979526
000300 8d 89 62 17 6f 88 d5 bf 2a c2 02 8d 18 57 d5 bf
       -0.3364522674911761 -0.33344091196616665
000310 0b 42 32 74 c5 25 d5 bf 32 23 a1 de 75 f4 d4 bf
       -0.33043037745758913 -0.3274206804385812
000320 a2 16 7c de 29 c3 d4 bf b7 ad 70 86 e1 91 d4 bf
       -0.32441183783553573 -0.3214038670436951
000330 4c d5 b1 e9 9c 60 d4 bf 1e 62 fc 1b 5c 2f d4 bf
       -0.3183967859434531 -0.31539061291690185
000340 82 fd 9b 31 1f fe d3 bf 08 09 70 3f e6 cc d3 bf
       -0.3123853668657476 -0.30938106722909753
000350 0a e2 f0 5a b1 9b d3 bf 2d 57 35 9a 80 6a d3 bf
       -0.3063777340026098 -0.3033753877583532
000360 77 3a f8 13 54 39 d3 bf 01 4f 9e df 2b 08 d3 bf
       -0.30037404966507303 -0.29737374150975887
000370 3c 6b 3c 15 08 d7 d2 bf 15 cc 9d cd e8 a5 d2 bf
       -0.2943744857199595 -0.2913763053867922
000380 8b c2 4a 22 ce 74 d2 bf e9 9c 8f 2d b8 43 d2 bf
       -0.2883792242892375 -0.28538326691928134
000390 56 db 83 0a a7 12 d2 bf 71 b6 11 d5 9a e1 d1 bf
       -0.2823884585081279 -0.2793948250535783
0003a0 af ef fd a9 93 b0 d1 bf 16 f7 ef a6 91 7f d1 bf
       -0.2764023933484578 -0.27341119101025535
0003b0 7e 78 7a ea 94 4e d1 bf 23 26 24 94 9d 1d d1 bf
       -0.2704212465122352 -0.2674325892154192
0003c0 04 02 71 c4 ab ec d0 bf 02 fe eb 9c bf bb d0 bf
       -0.26444524940237124 -0.2614592583122147
0003d0 72 08 31 40 d9 8a d0 bf ac 7f f7 d1 f8 59 d0 bf
       -0.2584746481771908 -0.2554914522606804
0003e0 e8 22 1d 77 1e 29 d0 bf ec d3 62 ab 94 f0 cf bf
       -0.25250970489700686 -0.2495294415327004
0003f0 c0 ed 02 2a f9 8e cf bf bd c4 48 bb 6a 2d cf bf
       -0.2465506987699495 -0.24357351441134326
000400 c0 5b 10 b3 e9 cb ce bf f8 72 fe 67 76 6a ce bf
       -0.2405979275069665 -0.2376239784033698
000410 02 8b 9c 33 11 09 ce bf 1e 2f 76 72 ba a7 cd bf
       -0.23465170879452307 -0.23168116177509374
000420 c4 80 37 84 72 46 cd bf 63 ef cc cb 39 e5 cc bf
       -0.22871238189600807 -0.2257454152221455
000430 dc 62 84 af 10 84 cc bf 21 e4 2f 99 f7 22 cc bf
       -0.22278030939266713 -0.21981711368405946
000440 08 82 49 f6 ee c1 cb bf f1 fd 18 38 f7 60 cb bf
       -0.21685587907542492 -0.21389665831701124
000450 da de da d3 10 00 cb bf 7f 42 e9 42 3c 9f ca bf
       -0.21093950600128758 -0.20798447863719002
000460 5c 6f e6 02 7a 3e ca bf 76 2e e9 95 ca dd c9 bf
       -0.2050316347275566 -0.20208103484980072
000470 3d 09 ab 82 2e 7d c9 bf ca 8b b8 54 a6 1c c9 bf
       -0.19913274174002452 -0.19618682038080087
000480 75 ab a3 9c 32 bc c8 bf cc 52 38 f0 d3 5b c8 bf
       -0.1932433380928519 -0.19030236463063088
000490 c5 69 b3 ea 8a fb c7 bf 85 46 fc 2c 58 9b c7 bf
       -0.18736397228242488 -0.1844282359748385
0004a0 07 14 e1 5d 3c 3b c7 bf b0 fd 55 2a 38 db c6 bf
       -0.18149523338266269 -0.17856504504378057
0004b0 d1 dd b7 45 4c 7b c6 bf 19 92 12 6a 79 1b c6 bf
       -0.17563775448046084 -0.172713448327287
0004c0 08 70 6b 58 c0 bb c5 bf fd bc 10 d9 21 5c c5 bf
       -0.16979221646658993 -0.1668741521730012
0004d0 48 8d ee bb 9e fc c4 bf 92 62 ea d8 37 9d c4 bf
       -0.1639593522678331 -0.16104791728573226
0004e0 40 dd 46 10 ee 3d c4 bf 86 db 10 4b c2 de c3 bf
       -0.15813995165602002 -0.15523556390118304
0004f0 48 ba 98 7b b5 7f c3 bf 15 4d fa 9d c8 20 c3 bf
       -0.15233486685743203 -0.14943797792202732
000500 7a 53 b7 b8 fc c1 c2 bf 88 bf 69 dd 52 63 c2 bf
       -0.14654501933423686 -0.14365611849961746
000510 33 c9 93 29 cc 04 c2 bf de bb 96 c7 69 a6 c1 bf
       -0.1407714083685022 -0.1378910278849323
000520 c9 c9 db ef 2c 48 c1 bf c1 ae 3d ea 16 ea c0 bf
       -0.13501512252658035 -0.1321438449625614
000530 88 fc c6 0f 29 8c c0 bf 35 be df cc 64 2e c0 bf
       -0.12927735586524514 -0.12641582492459383
000540 ca 1e 1a 48 97 a1 bf bf 38 bf e4 62 be e6 be bf
       -0.12355943212798617 -0.12070836939232954
000550 0c 9c a6 5e 42 2c be bf 1c 74 d7 f7 26 72 bd bf
       -0.11786284266291619 -0.11502307463474931
000560 3b 9f 23 42 70 b8 bc bf 13 6c 7f bc 22 ff bb bf
       -0.11218930830693534 -0.10936181165691065
000570 57 31 b9 6b 43 46 bb bf 51 ed db fd d7 8d ba bf
       -0.10654088382688563 -0.10372686336261451
000580 fc 1c 97 f9 e6 d5 b9 bf 0b 6f 23 fe 77 1e b9 bf
       -0.10092013925087778 -0.09812116579581358
000590 06 fb e4 19 94 67 b8 bf 71 95 9c 40 46 b1 b7 bf
       -0.09533048278988696 -0.09254874303277007
0005a0 bf 68 ae ed 9b fb b6 bf 20 61 66 04 a6 46 b6 bf
       -0.08977675011411444 -0.0870155106298438
0005b0 4c e0 08 08 7a 92 b5 bf 62 38 24 d1 33 df b4 bf
       -0.08426630684050557 -0.08153079849236769
0005c0 b0 20 e6 f6 f7 2c b4 bf 0c f4 11 3d f7 7b b3 bf
       -0.07881116655164777 -0.07611031762094472
0005d0 39 c3 f8 7d 73 cc b2 bf d3 0c 09 c2 c6 1e b2 bf
       -0.07343217683297788 -0.07078211056891641
0005e0 ae 27 ae 8d 6d 73 b1 bf 6d 2a 54 ef 15 cb b0 bf
       -0.06816754063598182 -0.0655988416002999
0005f0 ce 45 7c 92 b5 26 b0 bf fa 49 0f 40 54 0f af bf
       -0.06309065653137866 -0.06066382677058253
000600 c9 a2 05 f7 d0 df ad bf 6f 1b 1f 72 81 c4 ac bf
       -0.05834820762067278 -0.0561867191132056
000610 bb 9b d6 35 7a c5 ab bf 90 c8 33 b5 3f ee aa bf
       -0.05424100787359217 -0.05259894453946956
000620 b5 ec a2 a8 f3 4e aa bf 68 cb 4f 74 7c fd a9 bf
       -0.051383604369641324 -0.05076207084484602
000630 e7 26 8b 88 2d 16 aa bf b4 05 fa 92 58 bb aa bf
       -0.0509504536799577 -0.05221058649204782
000640 4b 1f 17 00 c4 13 ac bf 3a 9f 5b 65 8a e9 ad bf
       -0.054838299761796515 -0.05842239844588311
000650 91 8e 67 5e da 40 b0 bf fc a4 18 13 d8 ee b1 bf
       -0.06348957829282599 -0.07005072084634273
000660 8c a6 c6 3e 76 fa b3 bf d7 a9 f4 e2 3d 5c b6 bf
       -0.07804049522988005 -0.08734499731932686
000670 ce 04 a9 6c 4e 0b b9 bf f5 94 e7 05 9f fe bb bf
       -0.09782877114141117 -0.10935396093516998
000680 8c 19 73 51 b3 2d bf bf 13 6b 46 68 75 48 c1 bf
       -0.12179108370319208 -0.1350237616687414
000690 dc ba 4b 6b ca 10 c3 bf fd fa ec 47 f3 ec c4 bf
       -0.14894991148999892 -0.16348114978787712
0006a0 2e e9 b2 32 72 da c6 bf 2e 8f 0f e3 23 d7 c8 bf
       -0.1785414454987601 -0.1940655573554237
0006b0 a8 04 cc cd 32 e1 ca bf 3f f8 17 98 0b f7 cc bf
       -0.20999751137427336 -0.22628922392317638
0006c0 37 54 93 07 53 17 cf bf 8c cb 49 b5 6e a0 d0 bf
       -0.24289930219552655 -0.2597920198815522
0006d0 27 b7 d9 aa 53 b9 d1 bf 81 12 1f c5 e7 d5 d2 bf
       -0.27693645176519727 -0.29430574655660996
0006e0 93 ca 87 ec c8 f5 d3 bf 11 aa bf 6c a1 18 d5 bf
       -0.3118765172832038 -0.32962833042134415
0006f0 e4 35 99 28 26 3e d6 bf 5b a9 84 17 15 66 d7 bf
       -0.34754327740378543 -0.36560561463070024
000700 c5 ec 1e 00 34 90 d8 bf 45 dc 82 65 4f bc d9 bf
       -0.38380146037861734 -0.4021185389823965
000710 a9 8a d2 9e 39 ea da bf 0a 31 ee 11 ca 19 dc bf
       -0.4205459643364216 -0.4390740561582481
000720 35 4e 8a 8b dc 4a dd bf 77 f6 db af 50 7d de bf
       -0.4576941836068927 -0.4763986317992485
000730 06 a3 e6 7f 09 b1 df bf d1 15 13 78 f6 72 e0 bf
       -0.4951804875404807 -0.5140335412221991
000740 b8 36 ef c6 f1 0d e1 bf 1c bf 67 18 6c a9 e1 bf
       -0.5329522023618756 -0.5519314266839248
000750 1a a8 b6 db 5b 45 e2 bf 0e f5 04 66 b8 e1 e2 bf
       -0.5709666529921862 -0.5900537483754833
000760 c4 54 d0 d8 79 7e e3 bf 2e 96 94 0b 99 1b e4 bf
       -0.6091889605183032 -0.6283688760929118
000770 84 b9 41 78 0f b9 e4 bf be 3c 1a 2a d7 56 e5 bf
       -0.6475903843655009 -0.6668506452860112
000780 74 e4 a4 ae ea f4 e5 bf b3 9b 69 08 45 93 e6 bf
       -0.6861470614450256 -0.705477253370978
000790 86 28 3c a3 e1 31 e7 bf e6 86 e0 49 bc d0 e7 bf
       -0.7248390377219642 -0.7442304079924866
0007a0 db f0 db 1c d1 6f e8 bf b5 49 4c 8a 1c 0f e9 bf
       -0.7636495174079089 -0.7830946637280279
0007b0 93 29 a5 46 9b ae e9 bf d4 97 35 46 4a 4e ea bf
       -0.8025642757213965 -0.8220569010998084
0007c0 c4 b9 5e b7 26 ee ea bf a9 b5 65 fd 2d 8e eb bf
       -0.8415711957402938 -0.8611059140363767
0007d0 04 35 ce ab 5d 2e ec bf fb 85 2e 82 b3 ce ec bf
       -0.8806599002433875 -0.9002320807086898
0007e0 e2 4f 6e 68 2d 6f ed bf 44 52 64 6b c9 0f ee bf
       -0.9198214568773404 -0.9394270989892637
0007f0 6b c3 c8 b9 85 b0 ee bf 72 26 72 a1 60 51 ef bf
       -0.9590481403921393 -0.9786837723961084

d f8 [401]
000000 27 9e 15 8d 04 7c b3 3f 27 9e 15 8d 04 7c b3 3f
       0.07611111111111112 0.07611111111111112
000010 27 9e 15 8d 04 7c b3 3f 27 9e 15 8d 04 7c b3 3f
       0.07611111111111112 0.07611111111111112
000020 27 9e 15 8d 04 7c b3 3f 27 9e 15 8d 04 7c b3 3f
       0.07611111111111112 0.07611111111111112
000030 27 9e 15 8d 04 7c b3 3f 27 9e 15 8d 04 7c b3 3f
       0.07611111111111112 0.07611111111111112
000040 27 9e 15 8d 04 7c b3 3f 27 9e 15 8d 04 7c b3 3f
       0.07611111111111112 0.07611111111111112
000050 27 9e 15 8d 04 7c b3 3f 27 9e 15 8d 04 7c b3 3f
       0.07611111111111112 0.07611111111111112
000060 27 9e 15 8d 04 7c b3 3f 27 9e 15 8d 04 7c b3 3f
       0.07611111111111112 0.07611111111111112
000070 27 9e 15 8d 04 7c b3 3f 27 9e 15 8d 04 7c b3 3f
       0.07611111111111112 0.07611111111111112
000080 27 9e 15 8d 04 7c b3 3f 27 9e 15 8d 04 7c b3 3f
       0.07611111111111112 0.07611111111111112
000090 27 9e 15 8d 04 7c b3 3f 27 9e 15 8d 04 7c b3 3f
       0.07611111111111112 0.07611111111111112
0000a0 27 9e 15 8d 04 7c b3 3f 27 9e 15 8d 04 7c b3 3f
       0.07611111111111112 0.07611111111111112
0000b0 27 9e 15 8d 04 7c b3 3f 27 9e 15 8d 04 7c b3 3f
       0.07611111111111112 0.07611111111111112
0000c0 27 9e 15 8d 04 7c b3 3f 27 9e 15 8d 04 7c b3 3f
       0.07611111111111112 0.07611111111111112
0000d0 27 9e 15 8d 04 7c b3 3f 27 9e 15 8d 04 7c b3 3f
       0.07611111111111112 0.07611111111111112
0000e0 27 9e 15 8d 04 7c b3 3f 27 9e 15 8d 04 7c b3 3f
       0.07611111111111112 0.07611111111111112
0000f0 27 9e 15 8d 04 7c b3 3f 27 9e 15 8d 04 7c b3 3f
       0.07611111111111112 0.07611111111111112
000100 27 9e 15 8d 04 7c b3 3f 27 9e 15 8d 04 7c b3 3f
       0.07611111111111112 0.07611111111111112
000110 27 9e 15 8d 04 7c b3 3f 27 9e 15 8d 04 7c b3 3f
       0.07611111111111112 0.07611111111111112
000120 27 9e 15 8d 04 7c b3 3f 27 9e 15 8d 04 7c b3 3f
       0.07611111111111112 0.07611111111111112
000130 27 9e 15 8d 04 7c b3 3f 27 9e 15 8d 04 7c b3 3f
       0.07611111111111112 0.07611111111111112
000140 27 9e 15 8d 04 7c b3 3f 27 9e 15 8d 04 7c b3 3f
       0.07611111111111112 0.07611111111111112
000150 27 9e 15 8d 04 7c b3 3f 27 9e 15 8d 04 7c b3 3f
       0.07611111111111112 0.07611111111111112
000160 27 9e 15 8d 04 7c b3 3f 27 9e 15 8d 04 7c b3 3f
       0.07611111111111112 0.07611111111111112
000170 27 9e 15 8d 04 7c b3 3f 27 9e 15 8d 04 7c b3 3f
       0.07611111111111112 0.07611111111111112
000180 27 9e 15 8d 04 7c b3 3f 27 9e 15 8d 04 7c b3 3f
       0.07611111111111112 0.07611111111111112
000190 27 9e 15 8d 04 7c b3 3f 27 9e 15 8d 04 7c b3 3f
       0.07611111111111112 0.07611111111111112
0001a0 27 9e 15 8d 04 7c b3 3f 27 9e 15 8d 04 7c b3 3f
       0.07611111111111112 0.07611111111111112
0001b0 27 9e 15 8d 04 7c b3 3f 27 9e 15 8d 04 7c b3 3f
       0.07611111111111112 0.07611111111111112
0001c0 27 9e 15 8d 04 7c b3 3f 27 9e 15 8d 04 7c b3 3f
       0.07611111111111112 0.07611111111111112
0001d0 27 9e 15 8d 04 7c b3 3f 27 9e 15 8d 04 7c b3 3f
       0.07611111111111112 0.07611111111111112
0001e0 27 9e 15 8d 04 7c b3 3f 27 9e 15 8d 04 7c b3 3f
       0.07611111111111112 0.07611111111111112
0001f0 27 9e 15 8d 04 7c b3 3f 27 9e 15 8d 04 7c b3 3f
       0.07611111111111112 0.07611111111111112
000200 27 9e 15 8d 04 7c b3 3f 27 9e 15 8d 04 7c b3 3f
       0.07611111111111112 0.07611111111111112
000210 27 9e 15 8d 04 7c b3 3f 27 9e 15 8d 04 7c b3 3f
       0.07611111111111112 0.07611111111111112
000220 27 9e 15 8d 04 7c b3 3f 27 9e 15 8d 04 7c b3 3f
       0.07611111111111112 0.07611111111111112
000230 27 9e 15 8d 04 7c b3 3f 27 9e 15 8d 04 7c b3 3f
       0.07611111111111112 0.07611111111111112
000240 27 9e 15 8d 04 7c b3 3f 27 9e 15 8d 04 7c b3 3f
       0.07611111111111112 0.07611111111111112
000250 27 9e 15 8d 04 7c b3 3f 27 9e 15 8d 04 7c b3 3f
       0.07611111111111112 0.07611111111111112
000260 27 9e 15 8d 04 7c b3 3f 27 9e 15 8d 04 7c b3 3f
       0.07611111111111112 0.07611111111111112
000270 27 9e 15 8d 04 7c b3 3f 27 9e 15 8d 04 7c b3 3f
       0.07611111111111112 0.07611111111111112
000280 27 9e 15 8d 04 7c b3 3f 27 9e 15 8d 04 7c b3 3f
       0.07611111111111112 0.07611111111111112
000290 27 9e 15 8d 04 7c b3 3f 27 9e 15 8d 04 7c b3 3f
       0.07611111111111112 0.07611111111111112
0002a0 27 9e 15 8d 04 7c b3 3f 27 9e 15 8d 04 7c b3 3f
       0.07611111111111112 0.07611111111111112
0002b0 27 9e 15 8d 04 7c b3 3f 27 9e 15 8d 04 7c b3 3f
       0.07611111111111112 0.07611111111111112
0002c0 27 9e 15 8d 04 7c b3 3f 27 9e 15 8d 04 7c b3 3f
       0.07611111111111112 0.07611111111111112
0002d0 27 9e 15 8d 04 7c b3 3f 27 9e 15 8d 04 7c b3 3f
       0.07611111111111112 0.07611111111111112
0002e0 27 9e 15 8d 04 7c b3 3f 27 9e 15 8d 04 7c b3 3f
       0.07611111111111112 0.07611111111111112
0002f0 27 9e 15 8d 04 7c b3 3f 27 9e 15 8d 04 7c b3 3f
       0.07611111111111112 0.07611111111111112
000300 27 9e 15 8d 04 7c b3 3f 27 9e 15 8d 04 7c b3 3f
       0.07611111111111112 0.07611111111111112
000310 27 9e 15 8d 04 7c b3 3f 27 9e 15 8d 04 7c b3 3f
       0.07611111111111112 0.07611111111111112
000320 27 9e 15 8d 04 7c b3 3f 27 9e 15 8d 04 7c b3 3f
       0.07611111111111112 0.07611111111111112
000330 27 9e 15 8d 04 7c b3 3f 27 9e 15 8d 04 7c b3 3f
       0.07611111111111112 0.07611111111111112
000340 27 9e 15 8d 04 7c b3 3f 27 9e 15 8d 04 7c b3 3f
       0.07611111111111112 0.07611111111111112
000350 27 9e 15 8d 04 7c b3 3f 27 9e 15 8d 04 7c b3 3f
       0.07611111111111112 0.07611111111111112
000360 27 9e 15 8d 04 7c b3 3f 27 9e 15 8d 04 7c b3 3f
       0.07611111111111112 0.07611111111111112
000370 27 9e 15 8d 04 7c b3 3f 27 9e 15 8d 04 7c b3 3f
       0.07611111111111112 0.07611111111111112
000380 27 9e 15 8d 04 7c b3 3f 27 9e 15 8d 04 7c b3 3f
       0.07611111111111112 0.07611111111111112
000390 27 9e 15 8d 04 7c b3 3f 27 9e 15 8d 04 7c b3 3f
       0.07611111111111112 0.07611111111111112
0003a0 27 9e 15 8d 04 7c b3 3f 27 9e 15 8d 04 7c b3 3f
       0.07611111111111112 0.07611111111111112
0003b0 27 9e 15 8d 04 7c b3 3f 27 9e 15 8d 04 7c b3 3f
       0.07611111111111112 0.07611111111111112
0003c0 27 9e 15 8d 04 7c b3 3f 27 9e 15 8d 04 7c b3 3f
       0.07611111111111112 0.07611111111111112
0003d0 27 9e 15 8d 04 7c b3 3f 27 9e 15 8d 04 7c b3 3f
       0.07611111111111112 0.07611111111111112
0003e0 27 9e 15 8d 04 7c b3 3f 27 9e 15 8d 04 7c b3 3f
       0.07611111111111112 0.07611111111111112
0003f0 27 9e 15 8d 04 7c b3 3f 27 9e 15 8d 04 7c b3 3f
       0.07611111111111112 0.07611111111111112
000400 27 9e 15 8d 04 7c b3 3f 27 9e 15 8d 04 7c b3 3f
       0.07611111111111112 0.07611111111111112
000410 27 9e 15 8d 04 7c b3 3f 27 9e 15 8d 04 7c b3 3f
       0.07611111111111112 0.07611111111111112
000420 27 9e 15 8d 04 7c b3 3f 27 9e 15 8d 04 7c b3 3f
       0.07611111111111112 0.07611111111111112
000430 27 9e 15 8d 04 7c b3 3f 27 9e 15 8d 04 7c b3 3f
       0.07611111111111112 0.07611111111111112
000440 27 9e 15 8d 04 7c b3 3f 27 9e 15 8d 04 7c b3 3f
       0.07611111111111112 0.07611111111111112
000450 27 9e 15 8d 04 7c b3 3f 27 9e 15 8d 04 7c b3 3f
       0.07611111111111112 0.07611111111111112
000460 27 9e 15 8d 04 7c b3 3f 27 9e 15 8d 04 7c b3 3f
       0.07611111111111112 0.07611111111111112
000470 27 9e 15 8d 04 7c b3 3f 27 9e 15 8d 04 7c b3 3f
       0.07611111111111112 0.07611111111111112
000480 27 9e 15 8d 04 7c b3 3f 27 9e 15 8d 04 7c b3 3f
       0.07611111111111112 0.07611111111111112
000490 27 9e 15 8d 04 7c b3 3f 27 9e 15 8d 04 7c b3 3f
       0.07611111111111112 0.07611111111111112
0004a0 27 9e 15 8d 04 7c b3 3f 27 9e 15 8d 04 7c b3 3f
       0.07611111111111112 0.07611111111111112
0004b0 27 9e 15 8d 04 7c b3 3f 27 9e 15 8d 04 7c b3 3f
       0.07611111111111112 0.07611111111111112
0004c0 27 9e 15 8d 04 7c b3 3f 27 9e 15 8d 04 7c b3 3f
       0.07611111111111112 0.07611111111111112
0004d0 27 9e 15 8d 04 7c b3 3f 27 9e 15 8d 04 7c b3 3f
       0.07611111111111112 0.07611111111111112
0004e0 27 9e 15 8d 04 7c b3 3f 27 9e 15 8d 04 7c b3 3f
       0.07611111111111112 0.07611111111111112
0004f0 27 9e 15 8d 04 7c b3 3f 27 9e 15 8d 04 7c b3 3f
       0.07611111111111112 0.07611111111111112
000500 27 9e 15 8d 04 7c b3 3f 27 9e 15 8d 04 7c b3 3f
       0.07611111111111112 0.07611111111111112
000510 27 9e 15 8d 04 7c b3 3f 27 9e 15 8d 04 7c b3 3f
       0.07611111111111112 0.07611111111111112
000520 27 9e 15 8d 04 7c b3 3f 27 9e 15 8d 04 7c b3 3f
       0.07611111111111112 0.07611111111111112
000530 27 9e 15 8d 04 7c b3 3f 27 9e 15 8d 04 7c b3 3f
       0.07611111111111112 0.07611111111111112
000540 27 9e 15 8d 04 7c b3 3f 27 9e 15 8d 04 7c b3 3f
       0.07611111111111112 0.07611111111111112
000550 27 9e 15 8d 04 7c b3 3f 27 9e 15 8d 04 7c b3 3f
       0.07611111111111112 0.07611111111111112
000560 27 9e 15 8d 04 7c b3 3f 27 9e 15 8d 04 7c b3 3f
       0.07611111111111112 0.07611111111111112
000570 27 9e 15 8d 04 7c b3 3f 27 9e 15 8d 04 7c b3 3f
       0.07611111111111112 0.07611111111111112
000580 27 9e 15 8d 04 7c b3 3f 27 9e 15 8d 04 7c b3 3f
       0.07611111111111112 0.07611111111111112
000590 27 9e 15 8d 04 7c b3 3f 27 9e 15 8d 04 7c b3 3f
       0.07611111111111112 0.07611111111111112
0005a0 27 9e 15 8d 04 7c b3 3f 27 9e 15 8d 04 7c b3 3f
       0.07611111111111112 0.07611111111111112
0005b0 27 9e 15 8d 04 7c b3 3f 27 9e 15 8d 04 7c b3 3f
       0.07611111111111112 0.07611111111111112
0005c0 27 9e 15 8d 04 7c b3 3f 27 9e 15 8d 04 7c b3 3f
       0.07611111111111112 0.07611111111111112
0005d0 27 9e 15 8d 04 7c b3 3f 27 9e 15 8d 04 7c b3 3f
       0.07611111111111112 0.07611111111111112
0005e0 27 9e 15 8d 04 7c b3 3f 27 9e 15 8d 04 7c b3 3f
       0.07611111111111112 0.07611111111111112
0005f0 27 9e 15 8d 04 7c b3 3f 27 9e 15 8d 04 7c b3 3f
       0.07611111111111112 0.07611111111111112
000600 27 9e 15 8d 04 7c b3 3f 27 9e 15 8d 04 7c b3 3f
       0.07611111111111112 0.07611111111111112
000610 27 9e 15 8d 04 7c b3 3f 27 9e 15 8d 04 7c b3 3f
       0.07611111111111112 0.07611111111111112
000620 27 9e 15 8d 04 7c b3 3f 27 9e 15 8d 04 7c b3 3f
       0.07611111111111112 0.07611111111111112
000630 27 9e 15 8d 04 7c b3 3f 27 9e 15 8d 04 7c b3 3f
       0.07611111111111112 0.07611111111111112
000640 27 9e 15 8d 04 7c b3 3f 27 9e 15 8d 04 7c b3 3f
       0.07611111111111112 0.07611111111111112
000650 27 9e 15 8d 04 7c b3 3f 27 9e 15 8d 04 7c b3 3f
       0.07611111111111112 0.07611111111111112
000660 27 9e 15 8d 04 7c b3 3f 27 9e 15 8d 04 7c b3 3f
       0.07611111111111112 0.07611111111111112
000670 27 9e 15 8d 04 7c b3 3f 27 9e 15 8d 04 7c b3 3f
       0.07611111111111112 0.07611111111111112
000680 27 9e 15 8d 04 7c b3 3f 27 9e 15 8d 04 7c b3 3f
       0.07611111111111112 0.07611111111111112
000690 27 9e 15 8d 04 7c b3 3f 27 9e 15 8d 04 7c b3 3f
       0.07611111111111112 0.07611111111111112
0006a0 27 9e 15 8d 04 7c b3 3f 27 9e 15 8d 04 7c b3 3f
       0.07611111111111112 0.07611111111111112
0006b0 27 9e 15 8d 04 7c b3 3f 27 9e 15 8d 04 7c b3 3f
       0.07611111111111112 0.07611111111111112
0006c0 27 9e 15 8d 04 7c b3 3f 27 9e 15 8d 04 7c b3 3f
       0.07611111111111112 0.07611111111111112
0006d0 27 9e 15 8d 04 7c b3 3f 27 9e 15 8d 04 7c b3 3f
       0.07611111111111112 0.07611111111111112
0006e0 27 9e 15 8d 04 7c b3 3f 27 9e 15 8d 04 7c b3 3f
       0.07611111111111112 0.07611111111111112
0006f0 27 9e 15 8d 04 7c b3 3f 27 9e 15 8d 04 7c b3 3f
       0.07611111111111112 0.07611111111111112
000700 27 9e 15 8d 04 7c b3 3f 27 9e 15 8d 04 7c b3 3f
       0.07611111111111112 0.07611111111111112
000710 27 9e 15 8d 04 7c b3 3f 27 9e 15 8d 04 7c b3 3f
       0.07611111111111112 0.07611111111111112
000720 27 9e 15 8d 04 7c b3 3f 27 9e 15 8d 04 7c b3 3f
       0.07611111111111112 0.07611111111111112
000730 27 9e 15 8d 04 7c b3 3f 27 9e 15 8d 04 7c b3 3f
       0.07611111111111112 0.07611111111111112
000740 27 9e 15 8d 04 7c b3 3f 27 9e 15 8d 04 7c b3 3f
       0.07611111111111112 0.07611111111111112
000750 27 9e 15 8d 04 7c b3 3f 27 9e 15 8d 04 7c b3 3f
       0.07611111111111112 0.07611111111111112
000760 27 9e 15 8d 04 7c b3 3f 27 9e 15 8d 04 7c b3 3f
       0.07611111111111112 0.07611111111111112
000770 27 9e 15 8d 04 7c b3 3f 27 9e 15 8d 04 7c b3 3f
       0.07611111111111112 0.07611111111111112
000780 27 9e 15 8d 04 7c b3 3f 27 9e 15 8d 04 7c b3 3f
       0.07611111111111112 0.07611111111111112
000790 27 9e 15 8d 04 7c b3 3f 27 9e 15 8d 04 7c b3 3f
       0.07611111111111112 0.07611111111111112
0007a0 27 9e 15 8d 04 7c b3 3f 27 9e 15 8d 04 7c b3 3f
       0.07611111111111112 0.07611111111111112
0007b0 27 9e 15 8d 04 7c b3 3f 27 9e 15 8d 04 7c b3 3f
       0.07611111111111112 0.07611111111111112
0007c0 27 9e 15 8d 04 7c b3 3f 27 9e 15 8d 04 7c b3 3f
       0.07611111111111112 0.07611111111111112
0007d0 27 9e 15 8d 04 7c b3 3f 27 9e 15 8d 04 7c b3 3f
       0.07611111111111112 0.07611111111111112
0007e0 27 9e 15 8d 04 7c b3 3f 27 9e 15 8d 04 7c b3 3f
       0.07611111111111112 0.07611111111111112
0007f0 27 9e 15 8d 04 7c b3 3f 27 9e 15 8d 04 7c b3 3f
       0.07611111111111112 0.07611111111111112

zmax f8 []
000000 00 00 00 00 00 00 14 40
       5.0

hz_F f8 [401]
000000 b1 f8 94 a6 aa 35 ad 3f ee f5 b5 aa c7 11 b5 3f
       0.057050068697649954 0.08230255048507448
000010 ee bd 4b 21 11 38 b8 3f a2 bd 71 04 ce c2 b9 3f
       0.09460551321875929 0.10062873466971792
000020 12 45 65 3c 83 84 ba 3f 52 28 88 71 98 e3 ba 3f
       0.10358448242665855 0.10503533145689062
000030 07 a3 1e 20 21 12 bb 3f af 55 67 2f b1 28 bb 3f
       0.10574538263484722 0.10608966262164786
000040 b5 f9 5b 2f 62 33 bb 3f bc 3f 55 50 2d 38 bb 3f
       0.1062528005240669 0.10632594310049986
000050 a8 71 96 7b 07 3a bb 3f 89 a3 2c 4d 68 3a bb 3f
       0.10635420577313559 0.10635997661723996
000060 63 a5 27 a0 0a 3a bb 3f 7d c9 02 a2 4b 39 bb 3f
       0.1063543931010336 0.10634300904601975
000070 5f 15 cd e3 59 38 bb 3f b6 ac 38 b6 4c 37 bb 3f
       0.10632860003996346 0.10631255577816287
000080 bd 08 0c c9 2f 36 bb 3f 5e 04 55 f7 08 35 bb 3f
       0.1062955728375838 0.10627800024396225
000090 17 64 9f 2d db 33 bb 3f 33 89 0e de a7 32 bb 3f
       0.10626001228173752 0.10624169513042574
0000a0 ba 79 61 bb 6f 31 bb 3f d0 91 2e 17 33 30 bb 3f
       0.10622309040761638 0.10620421710934314
0000b0 40 29 7c 11 f2 2e bb 3f 99 20 da b0 ac 2d bb 3f
       0.10618508269195548 0.1061656886832928
0000c0 9e 18 9d ee 62 2c bb 3f 58 42 16 bd 14 2b bb 3f
       0.1061460335305093 0.10612611404781924
0000d0 38 6d be 0a c2 29 bb 3f 8c d5 d2 c3 6a 28 bb 3f
       0.10610592615414738 0.10608546524857426
0000e0 ff 32 27 d3 0e 27 bb 3f 64 82 8f 22 ae 25 bb 3f
       0.10606472640138163 0.10604370445026629
0000f0 14 db 14 9b 48 24 bb 3f be 4e 0e 25 de 22 bb 3f
       0.10602239404839181 0.10600078968701163
000100 fb ce 2b a8 6e 21 bb 3f 2c 78 79 0b fa 1f bb 3f
       0.10597888570537954 0.10595667629374422
000110 ad 00 5f 35 80 1e bb 3f fa ed 9c 0b 01 1d bb 3f
       0.10593415549283476 0.10591131719132099
000120 cb b7 48 73 7c 1b bb 3f 76 02 c8 50 f2 19 bb 3f
       0.10588815512230025 0.10586466285895732
000130 8e a9 cb 87 62 18 bb 3f 1b 0b 4a fb cc 16 bb 3f
       0.10584083381005469 0.1058166612147428
000140 51 85 79 8d 31 15 bb 3f 7d 37 ca 1f 90 13 bb 3f
       0.10579213813754974 0.10576725746270017
000150 4a e3 df 92 e8 11 bb 3f 56 4f 8b c6 3a 10 bb 3f
       0.10574201188854918 0.10571639392156604
000160 03 a2 c3 99 86 0e bb 3f e2 1f 9f ea cb 0c bb 3f
       0.10569039587029043 0.10566400983873295
000170 7f 32 4c 96 0a 0b bb 3f 9a 82 09 79 42 09 bb 3f
       0.1056372277200328 0.105610041189275
000180 4c 4b 1e 6e 73 07 bb 3f a5 07 d2 4f 9d 05 bb 3f
       0.10558244169650982 0.10555442045918413
000190 16 09 64 f7 bf 03 bb 3f b0 a7 02 3d db 01 bb 3f
       0.10552596845449033 0.10549707641135231
0001a0 2e fa c1 f7 ee ff ba 3f a9 4e 92 fd fa fd ba 3f
       0.10546773480198432 0.10543793383322488
0001b0 26 53 36 23 ff fb ba 3f 62 97 38 3c fb f9 ba 3f
       0.10540766343758587 0.10537691326370927
0001c0 38 fb e0 1a ef f7 ba 3f 74 46 29 90 da f5 ba 3f
       0.10534567266675487 0.1053139306980258
0001d0 04 b5 b1 6b bd f3 ba 3f a8 be b4 7b 97 f1 ba 3f
       0.10528167609455258 0.10524889726797915
0001e0 87 78 fa 8c 68 ef ba 3f ec 5c cb 6a 30 ed ba 3f
       0.10521558229308613 0.1051817188957675
0001f0 b5 bd e2 de ee ea ba 3f 25 41 60 b1 a3 e8 ba 3f
       0.10514729444070421 0.10511229591816525
000200 ce 30 b9 a8 4e e6 ba 3f 8a d3 a8 89 ef e3 ba 3f
       0.10507670993064552 0.10504052267863365
000210 8b 3a 20 17 86 e1 ba 3f f4 5d 35 12 12 df ba 3f
       0.10500371994587902 0.10496628708403205
000220 97 8b 11 3a 93 dc ba 3f 8b c7 de 4b 09 da ba 3f
       0.10492820899666665 0.104889470122343
000230 e2 d2 b4 02 74 d7 ba 3f b1 ea 84 17 d3 d4 ba 3f
       0.10485005441735099 0.1048099453372895
000240 6e d3 04 41 26 d2 ba 3f 2d f3 98 33 6d cf ba 3f
       0.10476912581800743 0.10472757825568797
000250 31 6f 3d a1 a7 cc ba 3f 2d 1e 6e 39 d5 c9 ba 3f
       0.10468528448603533 0.10464222576239797
000260 70 8b 0d a9 f5 c6 ba 3f c8 b8 4a 9a 08 c4 ba 3f
       0.10459838273304256 0.10455373541728641
000270 e1 9d 85 b4 0d c1 ba 3f 42 a1 32 9c 04 be ba 3f
       0.10450826318048413 0.10446194470808215
000280 8c 2a bc f2 ec ba ba 3f 3d 86 63 56 c6 b7 ba 3f
       0.10441475797794392 0.10436668023205527
000290 6d 98 1f 62 90 b4 ba 3f 25 5d 7a ad 4a b1 ba 3f
       0.1043176879462366 0.1042677567987665
0002a0 4e af 6c cc f4 ad ba 3f 8d 13 38 4f 8e aa ba 3f
       0.10421686163743724 0.10416497644480512
0002b0 5f f4 3e c2 16 a7 ba 3f 72 ae da ad 8d a3 ba 3f
       0.10411207430202428 0.10405812735069178
0002c0 70 9c 2f 96 f2 9f ba 3f 96 d8 fe fa 44 9c ba 3f
       0.10400310675287172 0.10394698264903676
0002d0 b8 c8 75 57 84 98 ba 3f 96 0e fb 21 b0 94 ba 3f
       0.10388972411400033 0.1038312991104767
0002e0 3d fc f8 cb c7 90 ba 3f db 26 a5 c1 ca 8c ba 3f
       0.10377167444038178 0.10371081569351352
0002f0 fc 1d c5 69 b8 88 ba 3f ca 05 70 25 90 84 ba 3f
       0.10364868719363324 0.10358525194171544
000300 27 d1 cc 4f 51 80 ba 3f 29 20 cd 3d fb 7b ba 3f
       0.10352047155612763 0.10345430620975606
000310 84 45 e4 3d 8d 77 ba 3f b3 66 ba 97 06 73 ba 3f
       0.10338671456363185 0.10331765369701422
000320 77 80 db 8b 66 6e ba 3f 18 e7 61 53 ac 69 ba 3f
       0.1032470790337373 0.10317494426444929
000330 89 05 9c 1f d7 64 ba 3f d3 3b ad 19 e6 5f ba 3f
       0.1031012012645275 0.10302580000755705
000340 83 26 29 62 d8 5a ba 3f 6a 83 a9 10 ad 55 ba 3f
       0.10294868847372567 0.10286981255332042
000350 ee ce 5d 33 63 50 ba 3f 1f 73 94 ce f9 4a ba 3f
       0.10278911594451376 0.10270654004530087
000360 e9 3c 3d dc 6f 45 ba 3f 02 51 64 4b c4 3f ba 3f
       0.10262202383931975 0.10253550377484902
000370 c1 5a a5 ff f5 39 ba 3f 20 78 96 d0 03 34 ba 3f
       0.10244691363673565 0.10235618441080918
000380 cb 1b 2a 89 ec 2d ba 3f 19 78 07 e7 ae 27 ba 3f
       0.10226324414007519 0.10216801777230024
000390 59 b9 d8 99 49 21 ba 3f 51 55 8e 42 bb 1a ba 3f
       0.10207042699832893 0.10197039008047183
0003a0 97 bd 96 72 02 14 ba 3f 08 97 09 ab 1d 0d ba 3f
       0.10186782167033069 0.10176263261527307
0003b0 db 7c c5 5b 0b 06 ba 3f 8e 9f 7f e2 c9 fe b9 3f
       0.10165472975267013 0.101544015691273
0003c0 3c da c3 89 57 f7 b9 3f 94 62 e4 87 b2 ef b9 3f
       0.10143038857845793 0.10131374185255942
0003d0 59 c3 d7 fd d8 e7 b9 3f 2b e2 03 f6 c8 df b9 3f
       0.1011939639790972 0.10107093816976291
0003e0 28 8a f4 62 80 d7 b9 3f b9 1d fc 1d fd ce b9 3f
       0.10094454208277936 0.1008146475033901
0003f0 f8 7b bc e5 3c c6 b9 3f 06 ba 96 5c 3d bd b9 3f
       0.10068112000270435 0.10054381857364811
000400 99 4b ff 06 fc b3 b9 3f e2 b9 b4 49 76 aa b9 3f
       0.10040259524184449 0.10025729464971492
000410 1c 98 d6 67 a9 a0 b9 3f 84 15 da 80 92 96 b9 3f
       0.1001077536116956 0.09995380063818088
000420 a1 81 59 8e 2e 8c b9 3f ae e9 bb 61 7a 81 b9 3f
       0.09979525542576663 0.09963192831120324
000430 74 63 b1 a1 72 76 b9 3f 6d 82 80 c7 13 6b b9 3f
       0.09946361968594691 0.099290119368115
000440 29 6b 21 1c 5a 5f b9 3f a7 e8 21 b5 41 53 b9 3f
       0.09911120592861934 0.09892664596728427
000450 76 5c 4e 71 c6 46 b9 3f 38 52 1a f5 e3 39 b9 3f
       0.09873619333517233 0.09853958829837317
000460 77 58 c3 a6 95 2c b9 3f 55 3f 28 aa d6 1e b9 3f
       0.09833655663837414 0.09812680868367114
000470 af 40 4e dc a1 10 b9 3f 74 f9 8c ce f1 01 b9 3f
       0.09791003826672083 0.09768592159978146
000480 24 77 59 c1 c0 f2 b8 3f 6e 08 a8 9e 08 e3 b8 3f
       0.0974541160626044 0.09721425889441246
000490 64 65 db f3 c2 d2 b8 3f 13 5b 37 eb e8 c1 b8 3f
       0.09696596578159739 0.09670882933219742
0004a0 6e 99 cb 44 73 b0 b8 3f 15 0e cb 4e 5a 9e b8 3f
       0.09644241742680545 0.09616627143537244
0004b0 9b 2f 42 dd 95 8b b8 3f c9 1c 1e 41 1d 78 b8 3f
       0.09587990428752706 0.09558279838357743
0004c0 0b e6 74 3e e7 63 b8 3f b6 99 fd 01 ea 4e b8 3f
       0.09527440333194918 0.09495413349723134
0004d0 2c e6 a5 15 1b 39 b8 3f 26 b3 30 54 6f 22 b8 3f
       0.09462136534229931 0.09427543454576134
0004e0 61 ad c7 db da 0a b8 3f 23 5d 68 ff 50 f2 b7 3f
       0.0939156328747024 0.0935412047914395
0004f0 cc 7b 12 37 c4 d8 b7 3f 2d 37 9c 0e 26 be b7 3f
       0.0931513437703721 0.09274518830008267
000500 93 c3 0e 13 67 a2 b7 3f 1d 37 6b be 76 85 b7 3f
       0.09232181754374684 0.09188024662873003
000510 db 01 b7 61 43 67 b7 3f 06 b7 2c 0d ba 47 b7 3f
       0.09141942153565401 0.09093821355483209
000520 79 34 6d 76 c6 26 b7 3f 7f fa 8c dc 52 04 b7 3f
       0.09043541327737782 0.08990972408808239
000530 6c cf d9 e9 47 e0 b6 3f 5e 50 36 93 8c ba b6 3f
       0.08935975512741628 0.08878401369139641
000540 35 31 ee f4 05 93 b6 3f bb fd ea 2c 97 69 b6 3f
       0.08818089704272299 0.0875486836111951
000550 0b 21 3d 32 21 3e b6 3f 04 18 fc a9 82 10 b6 3f
       0.08688552357228134 0.08618942880647756
000560 04 3a 98 b9 97 e0 b5 3f 75 e0 d9 d6 39 ae b5 3f
       0.08545826226347947 0.08468972678554272
000570 db f6 f8 95 3f 79 b5 3f 76 f4 79 76 7c 41 b5 3f
       0.08388135348738095 0.08303048984994796
000580 79 30 da af c0 06 b5 3f a8 9e 94 ff d8 c8 b4 3f
       0.08213428776997657 0.08118969192275449
000590 6e 07 ba 7a 8e 87 b4 3f 4c 78 4c 66 a6 42 b4 3f
       0.08019342895752654 0.07914199826743235
0005a0 91 89 df 1a e2 f9 b3 3f c1 d2 d2 f9 fe ac b3 3f
       0.07803166538318453 0.07685845946509585
0005b0 9d f9 ff 7c b6 5b b3 3f 07 fa 2f 6d be 05 b3 3f
       0.07561817695384439 0.07430639424999451
0005c0 bc ea 74 50 c9 aa b2 3f 88 f3 18 28 87 4a b2 3f
       0.07291849340701168 0.0714497063535885
0005d0 bf c3 ca 9e a6 e4 b1 3f 7f 54 c4 d3 d6 78 b1 3f
       0.06989518524893777 0.0682501093873089
0005e0 68 9d 90 ff c9 06 b1 3f 8c ef 2d 43 39 8e b0 3f
       0.06650984277131544 0.06467016115305863
0005f0 ab ed b1 09 ea 0e b0 3f 39 b3 30 f6 6a 11 af 3f
       0.06272757279105316 0.06067976241351975
000600 17 20 30 11 25 f7 ad 3f b5 74 7d f6 45 cf ac 3f
       0.05852619013609244 0.0562688697234334
000610 fa ea b6 d0 86 9a ab 3f b1 5c d9 27 39 5a aa 3f
       0.05391331956658081 0.05146959887923098
000620 19 9f 91 d8 63 10 a9 3f 87 67 a8 92 c7 bf a7 3f
       0.04895317095434688 0.046385037090842345
000630 84 64 81 b2 aa 6b a6 3f 19 b7 d6 53 41 17 a5 3f
       0.0437901823904179 0.04119304798528684
000640 3d 4a 74 1b 88 c4 a3 3f 54 1a f1 11 c2 b2 a2 3f
       0.03860879264006598 0.036520065965807064
000650 41 5b 93 27 aa b6 a1 3f 41 7e d3 f1 b8 d1 a0 3f
       0.03459674580670092 0.03285005523661911
000660 22 42 d3 7e e5 03 a0 3f fa 95 07 9c 1d 98 9e 3f
       0.03127972767982025 0.029877150200169546
000670 0c a5 d9 8d dd 50 9d 3f 3d b6 0a 68 ef 2d 9c 3f
       0.028628789694640708 0.027518978810510786
000680 f4 26 85 06 27 2b 9b 3f 65 02 79 2c 91 44 9a 3f
       0.026531801007229697 0.02565218767108703
000690 f0 9a 62 7a 97 76 99 3f 09 60 15 c7 0c be 98 3f
       0.024866453976438885 0.02416248288258774
0006a0 a9 87 82 1f 2c 18 98 3f 72 38 26 0f 91 82 97 3f
       0.023529710219584086 0.022959009694709605
0006b0 56 c6 95 23 2d fb 96 3f 46 94 63 db 3c 80 96 3f
       0.022442536637248565 0.021973563089791058
0006c0 ec 2d 4e 1e 3d 10 96 3f d9 73 5c be e1 a9 95 3f
       0.021546320891088586 0.021155860179636086
0006d0 53 08 97 2a 0d 4c 95 3f 5d ea 2d 4f c9 f5 94 3f
       0.020797925686345597 0.020468850572323272
0006e0 5b 9c d8 89 41 a6 94 3f e2 bb 51 91 bd 5c 94 3f
       0.02016546634527248 0.01988502692659811
0006f0 97 fd b6 2d 9d 18 94 3f 3b cf c6 a1 54 d9 93 3f
       0.019625144877634417 0.01938373792081836
000700 6b 40 88 a8 69 9e 93 3f c7 46 d3 ee 70 67 93 3f
       0.019158984099761172 0.018949284149875092
000710 bc cb f3 f3 0b 34 93 3f 12 58 04 40 e7 03 93 3f
       0.01875322987047999 0.01856957748631067
000720 48 fb 8d e1 b8 d6 92 3f ad 7d 77 26 3f ac 92 3f
       0.018397225157509994 0.018235193941902917
000730 08 0e 64 86 3f 84 92 3f e0 ce 5a b6 85 5e 92 3f
       0.018082611634794105 0.01793869901184919
000740 3d 05 fd de e2 3a 92 3f 97 c5 bb ef 2c 19 92 3f
       0.017802758083466975 0.017674162037058485
000750 6f 90 73 0a 3e f9 91 3f 43 cf 9c 03 f4 da 91 3f
       0.017552346599487508 0.01743680259751491
000760 d8 8d e6 f3 2f be 91 3f 49 ce 96 d8 d5 a2 91 3f
       0.01732706953192839 0.017222730011509566
000770 3f 7e 7c 40 cc 88 91 3f d1 7f 9a 03 fc 6f 91 3f
       0.017123404918605308 0.017028749198857277
000780 99 db fe 03 50 58 91 3f c6 94 78 f6 b4 41 91 3f
       0.016938448184841446 0.01685221437778208
000790 4d 38 12 32 19 2c 91 3f de 8b 62 85 6c 17 91 3f
       0.016769784623243123 0.01669091762654406
0007a0 50 47 e9 10 a0 03 91 3f a7 a2 cb 25 a6 f0 90 3f
       0.01661539176195187 0.016543003136492953
0007b0 5e b9 5d 28 72 de 90 3f 86 be fb 75 f8 cc 90 3f
       0.016473563874961676 0.016406900597699912
0007c0 0b a6 c6 4d 2e bc 90 3f e8 4d e8 bb 09 ac 90 3f
       0.01634285306650977 0.016281272977790723
0007d0 89 9f 0f 87 81 9c 90 3f 78 08 df 1f 8d 8d 90 3f
       0.01622202288481803 0.016164975233330797
0007e0 9c bd 12 92 24 7f 90 3f bc 9b 2a 77 40 71 90 3f
       0.01611001149711698 0.016057021401731694
0007f0 a4 9f 6a ea d9 63 90 3f 08 86 0b 7e ea 56 90 3f
       0.016005902226111993 0.01595655817334854
