onecap_model_with_structure_ambiguity/output/lower_triangular_four_ambiguous_parameters/Delta_10.0_distorted_0/logadjustment_1_boundary_1/zmax_5.0_zscale_2.0/delta_0.015/q_0.1_gamma_12.0_rho_1.0/model.npz (npz, 126264 bytes, 58 tensors)

clowerlim f8 []
0.0001
00000000: 2d43 1ceb e236 1a3f

zmin f8 []
-5.0
00000000: 0000 0000 0000 14c0

Delta f8 []
10.0
00000000: 0000 0000 0000 2440

s1_F f8 [401]
-1.0195243204221325 -0.9254828628057836 -0.8974126099513522 -0.885203480771168 -0.8780132671899477 -0.8725642278879737 -0.8677408060364344 -0.8631456537260398
-0.8586344924298799 -0.8541544268287824 -0.8496859456300543 -0.8452218171885009 -0.8407593497391954 -0.8362975374310543 -0.8318360031389762 -0.8273746051868183
-0.8229132904414347 -0.818452039211439 -0.8139908444954447 -0.8095297041344772 -0.805068617832402 -0.8006075860201693 -0.7961466094210321 -0.7916856888841772
-0.7872248253203143 -0.7827640196774174 -0.77830327293164 -0.773842586083861 -0.7693819601591461 -0.7649213962066503 -0.7604608953001217 -0.7560004585384418
-0.7515400870464869 -0.7470797819757314 -0.7426195445051972 -0.738159375842077 -0.7336992772227828 -0.7292392499137069 -0.7247792952122155 -0.7203194144475423
-0.7158596089817999 -0.7113998802110364 -0.7069402295662254 -0.7024806585144698 -0.6980211685600455 -0.6935617612457252 -0.6891024381538456 -0.6846432009077739
-0.6801840511730775 -0.6757249906590341 -0.6712660211199705 -0.6668071443569523 -0.6623483622190826 -0.6578896766053396 -0.6534310894661826 -0.6489726028053153
-0.644514218681521 -0.6400559392105668 -0.635597766567279 -0.6311397029875208 -0.6266817507703009 -0.6222239122802249 -0.6177661899497124 -0.6133085862814094
-0.6088511038508571 -0.6043937453091758 -0.5999365133857588 -0.595479410891273 -0.5910224407206741 -0.5865656058564257 -0.5821089093717764 -0.5776523544343674
-0.5731959443097894 -0.5687396823653741 -0.5642835720743322 -0.5598276170198019 -0.5553718208994252 -0.5509161875297385 -0.546460720851209 -0.5420054249331716
-0.5375503039791938 -0.5330953623327073 -0.5286406044827971 -0.5241860350705015 -0.5197316588951348 -0.5152774809212413 -0.5108235062857234 -0.5063697403053655
-0.501916188484866 -0.49746285652520084 -0.4930097503323686 -0.4885568760268323 -0.48410423995325985 -0.47965184869098204 -0.47519970906489534 -0.4707478281570052
-0.4662962133187687 -0.46184487218396664 -0.4573938126823574 -0.45294304305431793 -0.4484925718660829 -0.44404240802608197 -0.4395925608022335 -0.435143039840159
-0.4306938551828008 -0.42624501729097714 -0.4217965370654346 -0.4173484258701674 -0.4129006955573106 -0.40845335849370185 -0.4040064275890641 -0.39955991632614607
-0.39511383879292455 -0.3906682097168869 -0.386223044501787 -0.38177835926685905 -0.37733417088891474 -0.3728904970472645 -0.3684473562720679 -0.36400476799609494
-0.3595627526103203 -0.35512133152370357 -0.35068052722746645 -0.3462403633643235 -0.34180086480304805 -0.33736205771898414 -0.33292396968081245 -0.3284866297445388
-0.3240500685548878 -0.3196143184553722 -0.31517941360752333 -0.3107453901201296 -0.30631228618988837 -0.30188014225418436 -0.29744900115759937 -0.2930189083333266
-0.28858991200128553 -0.2841620633846528 -0.27973541694676846 -0.27531003065080006 -0.2708859662447114 -0.26646328957441273 -0.26204207092839893 -0.25762238541765403
-0.2532043133950112 -0.24878794091891915 -0.24437336026705567 -0.23996067050617723 -0.2355499781255237 -0.23114139774204492 -0.2267350528872126 -0.22233107688645048
-0.2179296138441565 -0.21353081974934204 -0.20913486371914605 -0.20474192940086247 -0.2003522165561334 -0.19596594285540808 -0.19158334591565754 -0.18720468562034515
-0.1828302467678539 -0.17846034210343567 -0.17409531580025925 -0.1697355474683243 -0.16538145678575303 -0.16103350886669615 -0.15669222050436277 -0.15235816745757125
-0.14803199298691996 -0.1437144178933725 -0.1394062523712255 -0.13510841006205646 -0.13082192479083157 -0.12654797058655531 -0.12228788574474603 -0.11804320188920121
-0.11381567924937347 -0.10960734970673006 -0.10542056960387797 -0.1012580848878926 -0.09712311191948035 -0.0930194382819435 -0.08895154924597856 -0.0849247872863014
-0.08094555432311076 -0.07702156930515908 -0.07316219747558389 -0.06937887218923063 -0.06568563524977314 -0.06209982657330638 -0.05864295643770034 -0.05534178895103354
-0.05222964427513198 -0.04934787260777881 -0.04674733861863297 -0.04448955128217308 -0.0426467789380644 -0.04130021282568371 -0.04053535050933701 -0.04043498460947529
-0.041073376510019764 -0.042367208010083576 -0.04437403529631801 -0.047049760500827716 -0.05032823459591625 -0.054133251686954424 -0.05838852136404912 -0.06302394756800218
-0.06797849681544682 -0.07320074568187528 -0.07864817566288781 -0.0842859576710745 -0.09008564641611455 -0.09602398271557402 -0.10208187448111108 -0.10824356381770667
-0.11449596091194297 -0.12082811721826402 -0.12723081073112327 -0.13369621964252162 -0.1402176649715526 -0.14678940677627492 -0.15340648196485054 -0.1600645744620305
-0.1667599106288088 -0.1734891744823264 -0.1802494385223845 -0.18703810692945072 -0.19385286862824108 -0.20069165826621474 -0.207552623580877 -0.21443409795498272
-0.22133457720965888 -0.22825269987937155 -0.23518723036358063 -0.24213704446818152 -0.249101116942521 -0.2560785106912211 -0.2630683673985512 -0.2700698993493309
-0.27708238226831583 -0.2841051490297387 -0.2911375841136661 -0.2981791187054439 -0.30522922635120553 -0.31228741909574353 -0.3193532440401975 -0.32642628026639453
-0.33350613608223156 -0.3405924465491025 -0.34768487125776276 -0.35478309232346994 -0.36188681257541044 -0.3689957539184224 -0.37610965584808476 -0.3832282741023152
00000000: f208 dbbb f84f f0bf 264c 983c 8e9d edbf
00000010: 3c4a 58a6 9ab7 ecbf 04f6 0640 9653 ecbf
00000020: 301e 8147 af18 ecbf de06 ced0 0bec ebbf
00000030: e898 ea5d 88c4 ebbf 2003 4ea2 e39e ebbf
00000040: 4c86 060b ef79 ebbf e8d2 1eaa 3b55 ebbf
00000050: e842 8b94 a030 ebbf f416 d69f 0e0c ebbf
00000060: 4af4 dd26 80e7 eabf 1fbc 9f0d f3c2 eabf
00000070: 90c0 a389 669e eabf 7c2f da4e da79 eabf
00000080: 8478 bc40 4e55 eabf 973e b854 c230 eabf
00000090: 503e 0b87 360c eabf 87bd 8cd6 aae7 e9bf
000000a0: ec08 1443 1fc3 e9bf 365b dccc 939e e9bf
000000b0: 981b 4974 087a e9bf 2e00 cf39 7d55 e9bf
000000c0: b733 eb1d f230 e9bf 1100 2021 670c e9bf
000000d0: 978e f343 dce7 e8bf 936e ef86 51c3 e8bf
000000e0: 5082 a0ea c69e e8bf acfb 966f 3c7a e8bf
000000f0: cc6d 6616 b255 e8bf 25e0 a5df 2731 e8bf
00000100: c9ec efcb 9d0c e8bf 9fd5 e2db 13e8 e7bf
00000110: cba5 2010 8ac3 e7bf a047 4f69 009f e7bf
00000120: 7ea9 18e8 767a e7bf 9dd8 2a8d ed55 e7bf
00000130: 0124 3859 6431 e7bf eb3b f74c db0c e7bf
00000140: 6e55 2369 52e8 e6bf 9e4f 7cae c9c3 e6bf
00000150: 63d6 c61d 419f e6bf d68c ccb7 b87a e6bf
00000160: f631 5c7d 3056 e6bf 42cf 496f a831 e6bf
00000170: 3fde 6e8e 200d e6bf 147c aadb 98e8 e5bf
00000180: b492 e157 11c4 e5bf fc0d ff03 8a9f e5bf
00000190: cd0a f4e0 027b e5bf 8612 b8ef 7b56 e5bf
000001a0: ad48 4931 f531 e5bf 9fab aca6 6e0d e5bf
000001b0: 0a4d ee50 e8e8 e4bf fe8f 2131 62c4 e4bf
000001c0: 7969 6148 dc9f e4bf 6ba3 d097 567b e4bf
000001d0: ba25 9a20 d156 e4bf d83b f1e3 4b32 e4bf
000001e0: f2de 11e3 c60d e4bf 320c 411f 42e9 e3bf
000001f0: c012 cd99 bdc4 e3bf a2e8 0d54 39a0 e3bf
00000200: a688 654f b57b e3bf cd50 408d 3157 e3bf
00000210: 1461 150f ae32 e3bf 0705 67d6 2a0e e3bf
00000220: da1d c3e4 a7e9 e2bf a893 c33b 25c5 e2bf
00000230: c4c8 0edd a2a0 e2bf a518 58ca 207c e2bf
00000240: 0e55 6005 9f57 e2bf 724b f68f 1d33 e2bf
00000250: 8e56 f76b 9c0e e2bf d9ec 4f9b 1bea e1bf
00000260: 8a41 fc1f 9bc5 e1bf 11df 08fc 1aa1 e1bf
00000270: 4b58 9331 9b7c e1bf 36f6 cac2 1b58 e1bf
00000280: b474 f1b1 9c33 e1bf b0c8 5b01 1e0f e1bf
00000290: ceeb 72b3 9fea e0bf 11ba b4ca 21c6 e0bf
000002a0: 56d0 b449 a4a1 e0bf fc80 1d33 277d e0bf
000002b0: b4ce b089 aa58 e0bf 3675 4950 2e34 e0bf
000002c0: dc03 dc89 b20f e0bf d407 f072 6ed6 dfbf
000002d0: 7258 92c4 788d dfbf de5a 310f 8444 dfbf
000002e0: 6911 9d59 90fb debf 51ff e5aa 9db2 debf
000002f0: fb27 600a ac69 debf 3c3b a67f bb20 debf
00000300: e0f9 9c12 ccd7 ddbf 7abf 76cb dd8e ddbf
00000310: 2d43 b7b2 f045 ddbf f39d 37d1 04fd dcbf
00000320: f97a 2a30 1ab4 dcbf 4295 20d9 306b dcbf
00000330: 9478 0dd6 4822 dcbf 3483 4c31 62d9 dbbf
00000340: 604a a6f5 7c90 dbbf bd40 562e 9947 dbbf
00000350: 23c6 10e7 b6fe dabf 9490 092c d6b5 dabf
00000360: eb83 fa09 f76c dabf fdfe 2a8e 1924 dabf
00000370: c99a 77c6 3ddb d9bf 6873 5ac1 6392 d9bf
00000380: 1502 f48d 8b49 d9bf 9b89 143c b500 d9bf
00000390: ca30 46dc e0b7 d8bf e7c9 d77f 0e6f d8bf
000003a0: fe64 e838 3e26 d8bf eea8 731a 70dd d7bf
000003b0: c61d 5f38 a494 d7bf 2467 88a7 da4b d7bf
000003c0: 518c d47d 1303 d7bf e766 40d2 4eba d6bf
000003d0: ec4d f2bc 8c71 d6bf 821d 4d57 cd28 d6bf
000003e0: 02b6 04bc 10e0 d5bf 831d 3407 5797 d5bf
000003f0: 7559 7556 a04e d5bf 7c44 fbc8 ec05 d5bf
00000400: 626d ad7f 3cbd d4bf 8558 469d 8f74 d4bf
00000410: f645 7446 e62b d4bf ccb7 fca1 40e3 d3bf
00000420: a81b e3d8 9e9a d3bf 84c9 9216 0152 d3bf
00000430: cbc8 0c89 6709 d3bf 3dae 1961 d2c0 d2bf
00000440: 0711 80d2 4178 d2bf c60f 4014 b62f d2bf
00000450: 536f d460 2fe7 d1bf fcfa 79f6 ad9e d1bf
00000460: 6cd9 7d17 3256 d1bf a7a0 930a bc0d d1bf
00000470: ca11 341b 4cc5 d0bf 7486 059a e27c d0bf
00000480: 9b36 4fdd 7f34 d0bf 6a66 f182 48d8 cfbf
00000490: 1f29 2e53 a047 cfbf d13b 1300 08b7 cebf
000004a0: a8b2 4f6e 8026 cebf 49e3 0694 0a96 cdbf
000004b0: c3f2 807a a705 cdbf 5c4e 0e40 5875 ccbf
000004c0: 1a31 251a 1ee5 cbbf ab78 c157 fa54 cbbf
000004d0: 6d46 1064 eec4 cabf 45c5 72c9 fb34 cabf
000004e0: fa14 e534 24a5 c9bf decd d879 6915 c9bf
000004f0: a13f 9596 cd85 c8bf 2adc 32b9 52f6 c7bf
00000500: 9534 4b45 fb66 c7bf 21ce 7bda c9d7 c6bf
00000510: 23dc df5b c148 c6bf 842c acf8 e4b9 c5bf
00000520: 193c 2136 382b c5bf 4240 12fb be9c c4bf
00000530: 3e4b 4d9d 7d0e c4bf 0c1f 41f1 7880 c3bf
00000540: a5fc 515c b6f2 c2bf 4169 68ea 3b65 c2bf
00000550: 446b 6567 10d8 c1bf 8dc7 507d 3b4b c1bf
00000560: 41c7 49d8 c5be c0bf b8af 8551 b932 c0bf
00000570: c07d f845 424e bfbf 2d16 a14b 1438 bebf
00000580: e4e8 253c 0623 bdbf 9242 642e 3a0f bcbf
00000590: a43b c6aa d7fc babf 3391 0cc3 0cec b9bf
000005a0: 2b42 616d 0fdd b8bf 5a30 5035 1fd0 b7bf
000005b0: 96a4 f05a 87c5 b6bf 1ab1 0380 a1bd b5bf
000005c0: be08 930c d9b8 b4bf d493 4081 afb7 b3bf
000005d0: 640c 76fd c1ba b2bf 450b 1653 d0c2 b1bf
000005e0: 8afa 3617 c6d0 b0bf 6172 7068 8ccb afbf
000005f0: 6fd3 1418 7306 aebf 692c 4b4b c255 acbf
00000600: 3e39 160c d8bd aabf eb85 f4d5 1f44 a9bf
00000610: bb89 1565 44ef a7bf 6892 8a9f 55c7 a6bf
00000620: 5830 a371 ccd5 a5bf ebec ce2e 4d25 a5bf
00000630: d3fb 89a9 0cc1 a4bf 951f 06f1 e4b3 a4bf
00000640: a393 b1d1 9107 a5bf 96fb a699 27b1 a5bf
00000650: e149 c78c 31b8 a6bf d978 45fd e716 a8bf
00000660: eb4b 4f53 9fc4 a9bf 2743 3e83 5ab7 abbf
00000670: bcd6 70ab 19e5 adbf 055d ab61 5622 b0bf
00000680: 4c51 a7ec 0967 b1bf 7f18 bfb8 48bd b2bf
00000690: eeb6 5c6e 4922 b4bf 0895 b5b7 c393 b5bf
000006a0: 3c3c 3259 da0f b7bf a222 6519 0795 b8bf
000006b0: da26 69a8 0922 babf 647b 99a6 d9b5 bbbf
000006c0: 5411 a477 9b4f bdbf 47c3 e36b 97ee bebf
000006d0: 671e 9165 1949 c0bf c352 7b2d f51c c1bf
000006e0: 2be9 af06 a7f2 c1bf 7f6d c0ca fec9 c2bf
000006f0: fd47 84d7 d2a2 c3bf 8d02 48f8 fe7c c4bf
00000700: 84a1 3785 6358 c5bf e149 4ead e434 c6bf
00000710: 80ba c9e1 6912 c7bf 2a12 2f5c ddf0 c7bf
00000720: 023e 7fb9 2bd0 c8bf ddac 6aa6 43b0 c9bf
00000730: 744b 3d99 1591 cabf a594 ee96 9372 cbbf
00000740: d073 4b01 b154 ccbf 3b51 9a6c 6237 cdbf
00000750: 4698 6c7b 9d1a cebf 3c0a 92bf 58fe cebf
00000760: 3f25 559f 8be2 cfbf bc23 281f 9763 d0bf
00000770: 60b0 a5b4 1cd6 d0bf 88b8 5542 d348 d1bf
00000780: d2f8 88be b7bb d1bf ca4e ed5c c72e d2bf
00000790: b4e5 9988 ffa1 d2bf b028 ccde 5d15 d3bf
000007a0: 488e 3d2a e088 d3bf 52fb fd5e 84fc d3bf
000007b0: c28b c196 4870 d4bf 5e24 930d 2be4 d4bf
000007c0: c043 df1e 2a58 d5bf 7e5a cc42 44cc d5bf
000007d0: 8d6d d70b 7840 d6bf cefe ac24 c4b4 d6bf
000007e0: 4c5d 374e 2729 d7bf b951 dc5d a09d d7bf
000007f0: 20f3 e43b 2e12 d8bf 8401 0be2 cf86 d8bf

d f8 [401]
0.07607142857142857 0.07607142857142857 0.07607142857142857 0.07607142857142857 0.07607142857142857 0.07607142857142857 0.07607142857142857 0.07607142857142857
0.07607142857142857 0.07607142857142857 0.07607142857142857 0.07607142857142857 0.07607142857142857 0.07607142857142857 0.07607142857142857 0.07607142857142857
0.07607142857142857 0.07607142857142857 0.07607142857142857 0.07607142857142857 0.07607142857142857 0.07607142857142857 0.07607142857142857 0.07607142857142857
0.07607142857142857 0.07607142857142857 0.07607142857142857 0.07607142857142857 0.07607142857142857 0.07607142857142857 0.07607142857142857 0.07607142857142857
0.07607142857142857 0.07607142857142857 0.07607142857142857 0.07607142857142857 0.07607142857142857 0.07607142857142857 0.07607142857142857 0.07607142857142857
0.07607142857142857 0.07607142857142857 0.07607142857142857 0.07607142857142857 0.07607142857142857 0.07607142857142857 0.07607142857142857 0.07607142857142857
0.07607142857142857 0.07607142857142857 0.07607142857142857 0.07607142857142857 0.07607142857142857 0.07607142857142857 0.07607142857142857 0.07607142857142857
0.07607142857142857 0.07607142857142857 0.07607142857142857 0.07607142857142857 0.07607142857142857 0.07607142857142857 0.07607142857142857 0.07607142857142857
0.07607142857142857 0.07607142857142857 0.07607142857142857 0.07607142857142857 0.07607142857142857 0.07607142857142857 0.07607142857142857 0.07607142857142857
0.07607142857142857 0.07607142857142857 0.07607142857142857 0.07607142857142857 0.07607142857142857 0.07607142857142857 0.07607142857142857 0.07607142857142857
0.07607142857142857 0.07607142857142857 0.07607142857142857 0.07607142857142857 0.07607142857142857 0.07607142857142857 0.07607142857142857 0.07607142857142857
0.07607142857142857 0.07607142857142857 0.07607142857142857 0.07607142857142857 0.07607142857142857 0.07607142857142857 0.07607142857142857 0.07607142857142857
0.07607142857142857 0.07607142857142857 0.07607142857142857 0.07607142857142857 0.07607142857142857 0.07607142857142857 0.07607142857142857 0.07607142857142857
0.07607142857142857 0.07607142857142857 0.07607142857142857 0.07607142857142857 0.07607142857142857 0.07607142857142857 0.07607142857142857 0.07607142857142857
0.07607142857142857 0.07607142857142857 0.07607142857142857 0.07607142857142857 0.07607142857142857 0.07607142857142857 0.07607142857142857 0.07607142857142857
0.07607142857142857 0.07607142857142857 0.07607142857142857 0.07607142857142857 0.07607142857142857 0.07607142857142857 0.07607142857142857 0.07607142857142857
0.07607142857142857 0.07607142857142857 0.07607142857142857 0.07607142857142857 0.07607142857142857 0.07607142857142857 0.07607142857142857 0.07607142857142857
0.07607142857142857 0.07607142857142857 0.07607142857142857 0.07607142857142857 0.07607142857142857 0.07607142857142857 0.07607142857142857 0.07607142857142857
0.07607142857142857 0.07607142857142857 0.07607142857142857 0.07607142857142857 0.07607142857142857 0.07607142857142857 0.07607142857142857 0.07607142857142857
0.07607142857142857 0.07607142857142857 0.07607142857142857 0.07607142857142857 0.07607142857142857 0.07607142857142857 0.07607142857142857 0.07607142857142857
0.07607142857142857 0.07607142857142857 0.07607142857142857 0.07607142857142857 0.07607142857142857 0.07607142857142857 0.07607142857142857 0.07607142857142857
0.07607142857142857 0.07607142857142857 0.07607142857142857 0.07607142857142857 0.07607142857142857 0.07607142857142857 0.07607142857142857 0.07607142857142857
0.07607142857142857 0.07607142857142857 0.07607142857142857 0.07607142857142857 0.07607142857142857 0.07607142857142857 0.07607142857142857 0.07607142857142857
0.07607142857142857 0.07607142857142857 0.07607142857142857 0.07607142857142857 0.07607142857142857 0.07607142857142857 0.07607142857142857 0.07607142857142857
0.07607142857142857 0.07607142857142857 0.07607142857142857 0.07607142857142857 0.07607142857142857 0.07607142857142857 0.07607142857142857 0.07607142857142857
0.07607142857142857 0.07607142857142857 0.07607142857142857 0.07607142857142857 0.07607142857142857 0.07607142857142857 0.07607142857142857 0.07607142857142857
0.07607142857142857 0.07607142857142857 0.07607142857142857 0.07607142857142857 0.07607142857142857 0.07607142857142857 0.07607142857142857 0.07607142857142857
0.07607142857142857 0.07607142857142857 0.07607142857142857 0.07607142857142857 0.07607142857142857 0.07607142857142857 0.07607142857142857 0.07607142857142857
0.07607142857142857 0.07607142857142857 0.07607142857142857 0.07607142857142857 0.07607142857142857 0.07607142857142857 0.07607142857142857 0.07607142857142857
0.07607142857142857 0.07607142857142857 0.07607142857142857 0.07607142857142857 0.07607142857142857 0.07607142857142857 0.07607142857142857 0.07607142857142857
0.07607142857142857 0.07607142857142857 0.07607142857142857 0.07607142857142857 0.07607142857142857 0.07607142857142857 0.07607142857142857 0.07607142857142857
0.07607142857142857 0.07607142857142857 0.07607142857142857 0.07607142857142857 0.07607142857142857 0.07607142857142857 0.07607142857142857 0.07607142857142857
00000000: 30d1 dfc9 6a79 b33f 30d1 dfc9 6a79 b33f
00000010: 30d1 dfc9 6a79 b33f 30d1 dfc9 6a79 b33f
00000020: 30d1 dfc9 6a79 b33f 30d1 dfc9 6a79 b33f
00000030: 30d1 dfc9 6a79 b33f 30d1 dfc9 6a79 b33f
00000040: 30d1 dfc9 6a79 b33f 30d1 dfc9 6a79 b33f
00000050: 30d1 dfc9 6a79 b33f 30d1 dfc9 6a79 b33f
00000060: 30d1 dfc9 6a79 b33f 30d1 dfc9 6a79 b33f
00000070: 30d1 dfc9 6a79 b33f 30d1 dfc9 6a79 b33f
00000080: 30d1 dfc9 6a79 b33f 30d1 dfc9 6a79 b33f
00000090: 30d1 dfc9 6a79 b33f 30d1 dfc9 6a79 b33f
000000a0: 30d1 dfc9 6a79 b33f 30d1 dfc9 6a79 b33f
000000b0: 30d1 dfc9 6a79 b33f 30d1 dfc9 6a79 b33f
000000c0: 30d1 dfc9 6a79 b33f 30d1 dfc9 6a79 b33f
000000d0: 30d1 dfc9 6a79 b33f 30d1 dfc9 6a79 b33f
000000e0: 30d1 dfc9 6a79 b33f 30d1 dfc9 6a79 b33f
000000f0: 30d1 dfc9 6a79 b33f 30d1 dfc9 6a79 b33f
00000100: 30d1 dfc9 6a79 b33f 30d1 dfc9 6a79 b33f
00000110: 30d1 dfc9 6a79 b33f 30d1 dfc9 6a79 b33f
00000120: 30d1 dfc9 6a79 b33f 30d1 dfc9 6a79 b33f
00000130: 30d1 dfc9 6a79 b33f 30d1 dfc9 6a79 b33f
00000140: 30d1 dfc9 6a79 b33f 30d1 dfc9 6a79 b33f
00000150: 30d1 dfc9 6a79 b33f 30d1 dfc9 6a79 b33f
00000160: 30d1 dfc9 6a79 b33f 30d1 dfc9 6a79 b33f
00000170: 30d1 dfc9 6a79 b33f 30d1 dfc9 6a79 b33f
00000180: 30d1 dfc9 6a79 b33f 30d1 dfc9 6a79 b33f
00000190: 30d1 dfc9 6a79 b33f 30d1 dfc9 6a79 b33f
000001a0: 30d1 dfc9 6a79 b33f 30d1 dfc9 6a79 b33f
000001b0: 30d1 dfc9 6a79 b33f 30d1 dfc9 6a79 b33f
000001c0: 30d1 dfc9 6a79 b33f 30d1 dfc9 6a79 b33f
000001d0: 30d1 dfc9 6a79 b33f 30d1 dfc9 6a79 b33f
000001e0: 30d1 dfc9 6a79 b33f 30d1 dfc9 6a79 b33f
000001f0: 30d1 dfc9 6a79 b33f 30d1 dfc9 6a79 b33f
00000200: 30d1 dfc9 6a79 b33f 30d1 dfc9 6a79 b33f
00000210: 30d1 dfc9 6a79 b33f 30d1 dfc9 6a79 b33f
00000220: 30d1 dfc9 6a79 b33f 30d1 dfc9 6a79 b33f
00000230: 30d1 dfc9 6a79 b33f 30d1 dfc9 6a79 b33f
00000240: 30d1 dfc9 6a79 b33f 30d1 dfc9 6a79 b33f
00000250: 30d1 dfc9 6a79 b33f 30d1 dfc9 6a79 b33f
00000260: 30d1 dfc9 6a79 b33f 30d1 dfc9 6a79 b33f
00000270: 30d1 dfc9 6a79 b33f 30d1 dfc9 6a79 b33f
00000280: 30d1 dfc9 6a79 b33f 30d1 dfc9 6a79 b33f
00000290: 30d1 dfc9 6a79 b33f 30d1 dfc9 6a79 b33f
000002a0: 30d1 dfc9 6a79 b33f 30d1 dfc9 6a79 b33f
000002b0: 30d1 dfc9 6a79 b33f 30d1 dfc9 6a79 b33f
000002c0: 30d1 dfc9 6a79 b33f 30d1 dfc9 6a79 b33f
000002d0: 30d1 dfc9 6a79 b33f 30d1 dfc9 6a79 b33f
000002e0: 30d1 dfc9 6a79 b33f 30d1 dfc9 6a79 b33f
000002f0: 30d1 dfc9 6a79 b33f 30d1 dfc9 6a79 b33f
00000300: 30d1 dfc9 6a79 b33f 30d1 dfc9 6a79 b33f
00000310: 30d1 dfc9 6a79 b33f 30d1 dfc9 6a79 b33f
00000320: 30d1 dfc9 6a79 b33f 30d1 dfc9 6a79 b33f
00000330: 30d1 dfc9 6a79 b33f 30d1 dfc9 6a79 b33f
00000340: 30d1 dfc9 6a79 b33f 30d1 dfc9 6a79 b33f
00000350: 30d1 dfc9 6a79 b33f 30d1 dfc9 6a79 b33f
00000360: 30d1 dfc9 6a79 b33f 30d1 dfc9 6a79 b33f
00000370: 30d1 dfc9 6a79 b33f 30d1 dfc9 6a79 b33f
00000380: 30d1 dfc9 6a79 b33f 30d1 dfc9 6a79 b33f
00000390: 30d1 dfc9 6a79 b33f 30d1 dfc9 6a79 b33f
000003a0: 30d1 dfc9 6a79 b33f 30d1 dfc9 6a79 b33f
000003b0: 30d1 dfc9 6a79 b33f 30d1 dfc9 6a79 b33f
000003c0: 30d1 dfc9 6a79 b33f 30d1 dfc9 6a79 b33f
000003d0: 30d1 dfc9 6a79 b33f 30d1 dfc9 6a79 b33f
000003e0: 30d1 dfc9 6a79 b33f 30d1 dfc9 6a79 b33f
000003f0: 30d1 dfc9 6a79 b33f 30d1 dfc9 6a79 b33f
00000400: 30d1 dfc9 6a79 b33f 30d1 dfc9 6a79 b33f
00000410: 30d1 dfc9 6a79 b33f 30d1 dfc9 6a79 b33f
00000420: 30d1 dfc9 6a79 b33f 30d1 dfc9 6a79 b33f
00000430: 30d1 dfc9 6a79 b33f 30d1 dfc9 6a79 b33f
00000440: 30d1 dfc9 6a79 b33f 30d1 dfc9 6a79 b33f
00000450: 30d1 dfc9 6a79 b33f 30d1 dfc9 6a79 b33f
00000460: 30d1 dfc9 6a79 b33f 30d1 dfc9 6a79 b33f
00000470: 30d1 dfc9 6a79 b33f 30d1 dfc9 6a79 b33f
00000480: 30d1 dfc9 6a79 b33f 30d1 dfc9 6a79 b33f
00000490: 30d1 dfc9 6a79 b33f 30d1 dfc9 6a79 b33f
000004a0: 30d1 dfc9 6a79 b33f 30d1 dfc9 6a79 b33f
000004b0: 30d1 dfc9 6a79 b33f 30d1 dfc9 6a79 b33f
000004c0: 30d1 dfc9 6a79 b33f 30d1 dfc9 6a79 b33f
000004d0: 30d1 dfc9 6a79 b33f 30d1 dfc9 6a79 b33f
000004e0: 30d1 dfc9 6a79 b33f 30d1 dfc9 6a79 b33f
000004f0: 30d1 dfc9 6a79 b33f 30d1 dfc9 6a79 b33f
00000500: 30d1 dfc9 6a79 b33f 30d1 dfc9 6a79 b33f
00000510: 30d1 dfc9 6a79 b33f 30d1 dfc9 6a79 b33f
00000520: 30d1 dfc9 6a79 b33f 30d1 dfc9 6a79 b33f
00000530: 30d1 dfc9 6a79 b33f 30d1 dfc9 6a79 b33f
00000540: 30d1 dfc9 6a79 b33f 30d1 dfc9 6a79 b33f
00000550: 30d1 dfc9 6a79 b33f 30d1 dfc9 6a79 b33f
00000560: 30d1 dfc9 6a79 b33f 30d1 dfc9 6a79 b33f
00000570: 30d1 dfc9 6a79 b33f 30d1 dfc9 6a79 b33f
00000580: 30d1 dfc9 6a79 b33f 30d1 dfc9 6a79 b33f
00000590: 30d1 dfc9 6a79 b33f 30d1 dfc9 6a79 b33f
000005a0: 30d1 dfc9 6a79 b33f 30d1 dfc9 6a79 b33f
000005b0: 30d1 dfc9 6a79 b33f 30d1 dfc9 6a79 b33f
000005c0: 30d1 dfc9 6a79 b33f 30d1 dfc9 6a79 b33f
000005d0: 30d1 dfc9 6a79 b33f 30d1 dfc9 6a79 b33f
000005e0: 30d1 dfc9 6a79 b33f 30d1 dfc9 6a79 b33f
000005f0: 30d1 dfc9 6a79 b33f 30d1 dfc9 6a79 b33f
00000600: 30d1 dfc9 6a79 b33f 30d1 dfc9 6a79 b33f
00000610: 30d1 dfc9 6a79 b33f 30d1 dfc9 6a79 b33f
00000620: 30d1 dfc9 6a79 b33f 30d1 dfc9 6a79 b33f
00000630: 30d1 dfc9 6a79 b33f 30d1 dfc9 6a79 b33f
00000640: 30d1 dfc9 6a79 b33f 30d1 dfc9 6a79 b33f
00000650: 30d1 dfc9 6a79 b33f 30d1 dfc9 6a79 b33f
00000660: 30d1 dfc9 6a79 b33f 30d1 dfc9 6a79 b33f
00000670: 30d1 dfc9 6a79 b33f 30d1 dfc9 6a79 b33f
00000680: 30d1 dfc9 6a79 b33f 30d1 dfc9 6a79 b33f
00000690: 30d1 dfc9 6a79 b33f 30d1 dfc9 6a79 b33f
000006a0: 30d1 dfc9 6a79 b33f 30d1 dfc9 6a79 b33f
000006b0: 30d1 dfc9 6a79 b33f 30d1 dfc9 6a79 b33f
000006c0: 30d1 dfc9 6a79 b33f 30d1 dfc9 6a79 b33f
000006d0: 30d1 dfc9 6a79 b33f 30d1 dfc9 6a79 b33f
000006e0: 30d1 dfc9 6a79 b33f 30d1 dfc9 6a79 b33f
000006f0: 30d1 dfc9 6a79 b33f 30d1 dfc9 6a79 b33f
00000700: 30d1 dfc9 6a79 b33f 30d1 dfc9 6a79 b33f
00000710: 30d1 dfc9 6a79 b33f 30d1 dfc9 6a79 b33f
00000720: 30d1 dfc9 6a79 b33f 30d1 dfc9 6a79 b33f
00000730: 30d1 dfc9 6a79 b33f 30d1 dfc9 6a79 b33f
00000740: 30d1 dfc9 6a79 b33f 30d1 dfc9 6a79 b33f
00000750: 30d1 dfc9 6a79 b33f 30d1 dfc9 6a79 b33f
00000760: 30d1 dfc9 6a79 b33f 30d1 dfc9 6a79 b33f
00000770: 30d1 dfc9 6a79 b33f 30d1 dfc9 6a79 b33f
00000780: 30d1 dfc9 6a79 b33f 30d1 dfc9 6a79 b33f
00000790: 30d1 dfc9 6a79 b33f 30d1 dfc9 6a79 b33f
000007a0: 30d1 dfc9 6a79 b33f 30d1 dfc9 6a79 b33f
000007b0: 30d1 dfc9 6a79 b33f 30d1 dfc9 6a79 b33f
000007c0: 30d1 dfc9 6a79 b33f 30d1 dfc9 6a79 b33f
000007d0: 30d1 dfc9 6a79 b33f 30d1 dfc9 6a79 b33f
000007e0: 30d1 dfc9 6a79 b33f 30d1 dfc9 6a79 b33f
000007f0: 30d1 dfc9 6a79 b33f 30d1 dfc9 6a79 b33f

zmax f8 []
5.0
00000000: 0000 0000 0000 1440

hz_F f8 [401]
0.030811975391355315 0.041512920886896024 0.04534860923678026 0.04674238056223567 0.04725253357242768 0.04744010552335041 0.047509224380710306 0.047534639139571545
0.0475438571830023 0.04754704560656383 0.047547978066051745 0.047548060971712866 0.047547820610450174 0.04754745470101037 0.047547037796043155 0.047546598087512736
0.04754614624388526 0.04754568628175202 0.04754521968125652 0.04754474695045339 0.0475442682223622 0.04754378348376045 0.04754329266325163 0.04754279566516327
0.04754229238276948 0.04754178270332267 0.0475412665099767 0.04754074368255406 0.047540214097705605 0.04753967762898413 0.047539134146791784 0.04753858351832337
0.047538025607440214 0.047537460274604995 0.04753688737674094 0.04753630676716668 0.04753571829543858 0.047535121807260404 0.047534517144342446 0.04753390414428807
0.04753328264045497 0.047532652461810154 0.04753201343280383 0.04753136537319706 0.04753070809793146 0.047530041416935793 0.04752936513499991 0.04752867905155613
0.04752798296053843 0.047527276650163854 0.04752655990276226 0.04752583249452411 0.04752509419535335 0.04752434476859205 0.047523583970810246 0.047522811551564216
0.04752202725314427 0.047521230810314126 0.04752042195001454 0.04751960039110271 0.0475187658440685 0.04751791801067084 0.04751705658364768 0.04751618124638811
0.04751529167254769 0.047514387525674405 0.04751346845884707 0.04751253411424659 0.04751158412273985 0.047510618103425634 0.0475096356631849 0.04750863639615742
0.04750761988325623 0.04750658569164013 0.0475055333741104 0.047504462468562256 0.0475033724973102 0.047502262966501556 0.04750113336537035 0.04749998316555845
0.04749881182034626 0.047497618763843535 0.04749640341017811 0.04749516515257317 0.047493903362470793 0.0474926173885126 0.04749130655552453 0.04748997016344079
0.04748860748613305 0.047487217770206175 0.04748580023375182 0.047484354064957025 0.047482878420708634 0.047481372425056845 0.04747983516763886 0.04747826570200164
0.04747666304377753 0.04747502616881364 0.04747335401117932 0.047471645460984487 0.04746989936216223 0.047468114510047475 0.047466289648814906 0.04746442346880757
0.04746251460358799 0.047460561626909495 0.04745856304941214 0.04745651731515473 0.0474544227978883 0.04745227779705845 0.047450080533587034 0.04744782914533011
0.04744552168220597 0.04744315610102464 0.047440730259903384 0.04743824191232067 0.04743568870068462 0.0474330681495042 0.047430377657965664 0.04742761449200024
0.0474247757757403 0.0474218584823008 0.04741885942385031 0.047415775240881246 0.04741260239063518 0.04740933713454454 0.04740597552471578 0.047402513389172604
0.04739894631598935 0.0473952696359258 0.047391478403590745 0.047387567377022835 0.04738353099531259 0.04737936335429703 0.04737505817993387 0.04737060879925028
0.047366008108483584 0.0473612485381491 0.0473563220147241 0.04735121991849381 0.047345933037126565 0.04734045151449043 0.04733476479412912 0.04732886155671835
0.04732272965079423 0.0473163560158332 0.04730972659676286 0.047302826248745586 0.04729563863090244 0.04728814608754179 0.0472803295150703 0.04727216821264231
0.047263639714151325 0.047254719598791455 0.04724538127713269 0.04723559574875235 0.04722533132716023 0.04721455332674604 0.04720322370559716 0.047191300656874546
0.047178738140078814 0.04716548534176269 0.04715148605331842 0.047136677950789255 0.047120991758744755 0.047104350276363394 0.047086667239125926 0.04706784598389466
0.047047777877704616 0.047026340461834744 0.047003395251334956 0.046978785116075845 0.046952331151929864 0.04692382892820144 0.046893043969801464 0.04685970629734672
0.04682350380459069 0.04678407419768825 0.0467409951528306 0.04669377226569157 0.04664182426618931 0.04658446485535376 0.04652088039115394 0.0464501025174749
0.04637097471669955 0.04628211171582423 0.04618185076355103 0.046068194146528636 0.045938743110042805 0.045790624822426455 0.04562041635820453 0.045424072703017467
0.04519686817011626 0.044933357969987424 0.044627347547564804 0.0442717956048518 0.0438584186332018 0.0433764074916786 0.04280892066142315 0.04212452419952977
0.041257787493874515 0.04064953310336674 0.04002914081791849 0.03940605286101904 0.03878845718081298 0.03818289816030901 0.03759423295579641 0.037025802912653664
0.036479698089207126 0.035957033945129994 0.03545819888559467 0.034983057940621426 0.03453111211185938 0.03410161902930915 0.03369368225244804 0.03330631621090811
0.03293849269930684 0.032589173632227915 0.032257333677748794 0.03194197549638386 0.03164213961524468 0.03135691043745235 0.031085419489793896 0.03082684671719369
0.030580420415256725 0.030345416231909218 0.030121155551580927 0.029907003488797986 0.029702366654391 0.029506690810918654 0.029319458499449884 0.029140186694837214
0.028968424528037936 0.028803751100697543 0.02864577340747636 0.02849412437447723 0.028348461017209593 0.028208462717970284 0.028073829620022084 0.027944281134499902
0.027819554554703883 0.027699403772064608 0.02758359808757056 0.02747192111253845 0.02736416975255441 0.02726015326866419 0.0271596924101396 0.02706261861339634
0.026968773262016868 0.02687800700310392 0.026790179115533115 0.026705156926034406 0.026622815269244524 0.026543035988261403 0.026465707472427994 0.026390724229429258
00000000: 2c2c 86aa 2c8d 9f3f ba2c 247b 2e41 a53f
00000010: ba9e 2ed3 ee37 a73f cf37 b407 9eee a73f
00000020: 2585 b1ec 7b31 a83f 3db0 7bcb 114a a83f
00000030: 876b f209 2153 a83f ad30 10d1 7556 a83f
00000040: a810 741f ab57 a83f 1ba0 cd1b 1658 a83f
00000050: 65b9 9165 3558 a83f 7633 b92d 3858 a83f
00000060: d331 091d 3058 a83f bbd3 e5d5 2358 a83f
00000070: db1b b6d8 1558 a83f 23d3 a417 0758 a83f
00000080: 182e 56ee f757 a83f 9dc0 4a7f e857 a83f
00000090: 6869 39d7 d857 a83f cd61 7ffa c857 a83f
000000a0: 2a2d 41ea b857 a83f e3b7 61a6 a857 a83f
000000b0: 4f01 442e 9857 a83f 9ea6 1581 8757 a83f
000000c0: 7af6 eb9d 7657 a83f a201 cf83 6557 a83f
000000d0: 90d5 bd31 5457 a83f 572c b0a6 4257 a83f
000000e0: 92c6 96e1 3057 a83f ce94 5be1 1e57 a83f
000000f0: f099 e1a4 0c57 a83f 4bcb 042b fa56 a83f
00000100: 9bc9 9972 e756 a83f 5abc 6d7a d456 a83f
00000110: 7702 4641 c156 a83f ae0d e0c5 ad56 a83f
00000120: c209 f106 9a56 a83f a3a9 2503 8656 a83f
00000130: 23d8 21b9 7156 a83f 1478 8027 5d56 a83f
00000140: 2f16 d34c 4856 a83f 7097 a127 3356 a83f
00000150: 18f2 69b6 1d56 a83f a6cc 9ff7 0756 a83f
00000160: 7e34 ace9 f155 a83f 0931 ed8a db55 a83f
00000170: bb7c b5d9 c455 a83f 030a 4cd4 ad55 a83f
00000180: 05b4 eb78 9655 a83f 8dc3 c2c5 7e55 a83f
00000190: 358f f2b8 6655 a83f 6ded 8e50 4e55 a83f
000001a0: a2e1 9d8a 3555 a83f 4401 1765 1c55 a83f
000001b0: 70fd e2dd 0255 a83f dd1a dbf2 e854 a83f
000001c0: e3a3 c8a1 ce54 a83f c155 64e8 b354 a83f
000001d0: c7b9 55c4 9854 a83f a192 3233 7d54 a83f
000001e0: 983c 7e32 6154 a83f dfe0 a8bf 4454 a83f
000001f0: 4fd2 0ed8 2754 a83f ced4 f778 0a54 a83f
00000200: c744 969f ec53 a83f 9344 0649 ce53 a83f
00000210: eff0 4c72 af53 a83f 9e6f 5718 9053 a83f
00000220: 2505 fa37 7053 a83f 3415 efcd 4f53 a83f
00000230: 7125 d6d6 2e53 a83f deb6 324f 0d53 a83f
00000240: 7e34 6b33 eb52 a83f 61ca c77f c852 a83f
00000250: 0812 7130 a552 a83f 96dd 6e41 8152 a83f
00000260: 03bc a6ae 5c52 a83f f7ae da73 3752 a83f
00000270: c586 a78c 1152 a83f 3c64 83f4 ea51 a83f
00000280: 9707 bca6 c351 a83f f408 759e 9b51 a83f
00000290: 9d0f a6d6 7251 a83f 96ca 184a 4951 a83f
000002a0: 3a03 67f3 1e51 a83f 5c5f f8cc f350 a83f
000002b0: c925 00d1 c750 a83f 7de0 7af9 9a50 a83f
000002c0: 92c9 2b40 6d50 a83f 4425 9a9e 3e50 a83f
000002d0: 5084 0e0e 0f50 a83f a5b4 8f87 de4f a83f
000002e0: bfaf df03 ad4f a83f b839 787b 7a4f a83f
000002f0: de69 87e6 464f a83f 80fa eb3c 124f a83f
00000300: e345 3176 dc4e a83f 3529 8b89 a54e a83f
00000310: daa2 d16d 6d4e a83f 4106 7c19 344e a83f
00000320: 981b 9c82 f94d a83f bbcc d89e bd4d a83f
00000330: db82 6863 804d a83f a646 0bc5 414d a83f
00000340: 3344 04b8 014d a83f 0222 1330 c04c a83f
00000350: f7bc 6c20 7d4c a83f 0b88 b37b 384c a83f
00000360: 775a ef33 f24b a83f 36a5 843a aa4b a83f
00000370: 532c 2b80 604b a83f f509 e4f4 144b a83f
00000380: b3f7 ee87 c74a a83f dbef be27 784a a83f
00000390: a3e5 edc1 264a a83f dab1 2f43 d349 a83f
000003a0: 43ee 4397 7d49 a83f 4ff1 e6a8 2549 a83f
000003b0: 027b c161 cb48 a83f 7a43 57aa 6e48 a83f
000003c0: 2b31 f469 0f48 a83f 4913 9886 ad47 a83f
000003d0: 46cc e0e4 4847 a83f 7fb9 f267 e146 a83f
000003e0: 433f 5ff1 7646 a83f 202b 0961 0946 a83f
000003f0: 9bfa 0695 9845 a83f d667 8269 2445 a83f
00000400: 7985 95b8 ac44 a83f f48e 245a 3144 a83f
00000410: 867c b423 b243 a83f 4a1c 3ee8 2e43 a83f
00000420: 84dc fc77 a742 a83f ee58 39a0 1b42 a83f
00000430: b8cd 0e2b 8b41 a83f 2335 2bdf f540 a83f
00000440: 5238 897f 5b40 a83f 385e 23cb bb3f a83f
00000450: 96c9 9f7c 163f a83f 6486 f349 6b3e a83f
00000460: f572 fce3 b93d a83f 44b2 10f6 013d a83f
00000470: bf5f 8225 433c a83f 5206 1611 7d3b a83f
00000480: f44b 6a50 af3a a83f 84cb 4e73 d939 a83f
00000490: a816 0801 fb38 a83f be53 7e77 1338 a83f
000004a0: bc89 534a 2237 a83f d971 dee1 2636 a83f
000004b0: 1ccd 059a 2035 a83f 6af7 f7c0 0e34 a83f
000004c0: 2973 b995 f032 a83f cf54 8446 c531 a83f
000004d0: f9d5 f1ee 8b30 a83f 0f5c e595 432f a83f
000004e0: e192 2f2b eb2d a83f bc03 de84 812c a83f
000004f0: b1a1 295c 052b a83f a836 f449 7529 a83f
00000500: a5a1 c1c2 cf27 a83f e1ee 1512 1326 a83f
00000510: 3f15 1d55 3d24 a83f 3240 7b74 4c22 a83f
00000520: 6327 1e1d 3e20 a83f f063 dfb7 0f1e a83f
00000530: c246 bd5f be1b a83f fc52 63d6 4619 a83f
00000540: 0c1e ab76 a516 a83f a114 ab24 d613 a83f
00000550: 8896 cf3a d410 a83f b9d4 5b73 9a0d a83f
00000560: ef78 89cd 220a a83f 9da8 4c6d 6606 a83f
00000570: 4537 8574 5d02 a83f b233 18d4 fefd a73f
00000580: f4b8 0c13 40f9 a73f ce2f 4e09 15f4 a73f
00000590: c2b7 208b 6fee a73f 6bb4 9d01 3fe8 a73f
000005a0: 4bb8 b2eb 6fe1 a73f 255e 1c42 ebd9 a73f
000005b0: 8ae6 b8b7 95d1 a73f aab3 6ace 4ec8 a73f
000005c0: d9a2 c8b7 efbd a73f 3527 6bf8 49b2 a73f
000005d0: 097b 65c5 25a5 a73f 4180 7d16 4096 a73f
000005e0: 37d0 8d6e 4885 a73f bfc5 2668 de71 a73f
000005f0: 1aa8 9328 8f5b a73f f9d1 6bf5 d241 a73f
00000600: 2134 583d 0b24 a73f 8f0b f64d 8101 a73f
00000610: 4fb2 724c 65d9 a63f 2b1d 84f4 caaa a63f
00000620: 5b25 5e53 9c74 a63f 5180 30b7 6e35 a63f
00000630: ce8c 6f04 0deb a53f 37d4 977b 5891 a53f
00000640: 0ca7 fb9f bd1f a53f 63a2 8dfe 03d0 a43f
00000650: 5a5e 6615 b37e a43f 6de4 9ab8 072d a43f
00000660: 3997 1ba6 14dc a33f a8e4 ba75 b58c a33f
00000670: 8b6f 2022 8d3f a33f 0f69 3cc9 0bf5 a23f
00000680: adae 858c 77ad a23f 7703 b6d9 f568 a23f
00000690: 2369 2db9 9327 a23f e4bf 89a3 4ce9 a13f
000006a0: 570d 6eda 0fae a13f ea6c f174 c475 a13f
000006b0: 1c50 b65e 4c40 a13f 368e c085 860d a13f
000006c0: 039b d869 50dd a03f c17d e835 87af a03f
000006d0: 6778 6782 0884 a03f fcd1 40d8 b25a a03f
000006e0: a558 a505 6633 a03f 0d38 aa51 030e a03f
000006f0: d64a 5d30 dbd4 9f3f 3ae4 f4a9 1291 9f3f
00000700: d369 5346 7950 9f3f 3dbf 3269 de12 9f3f
00000710: 270d 0c88 14d8 9e3f af7b 9f07 f19f 9e3f
00000720: 4ae0 9315 4c6a 9e3f 6c2f 2f80 0037 9e3f
00000730: cef6 908d eb05 9e3f e425 6ad3 ecd6 9d3f
00000740: 7fb7 db0f e6a9 9d3f 7e21 eb03 bb7e 9d3f
00000750: 8da0 d04f 5155 9d3f 0e22 4451 902d 9d3f
00000760: 0ae8 d703 6107 9d3f 6060 60e3 ade2 9c3f
00000770: 90aa 5dd0 62bf 9c3f 89e5 54f6 6c9d 9c3f
00000780: 66c8 01b4 ba7c 9c3f c563 4785 3b5d 9c3f
00000790: 13bc c4ee df3e 9c3f f552 f26a 9921 9c3f
000007a0: c27a ad58 5a05 9c3f aa68 17eb 15ea 9b3f
000007b0: 7f12 af1a c0cf 9b3f 67fc 8d97 4db6 9b3f
000007c0: a4c4 b1bc b39d 9b3f 196e 3d84 e885 9b3f
000007d0: f2eb 9e7c e26e 9b3f cb07 87be 9858 9b3f
000007e0: ccaa a2e3 0243 9b3f ee47 06fe 182e 9b3f
000007f0: d102 3d90 d319 9b3f c8bf ee85 2b06 9b3f

Vz_F f8 [401]
0.5208174419718858 0.7016964342753695 0.7665314008497148 0.7900904361662597 0.7987135959087865 0.801884140556588 0.8030524624841817 0.8034820503158713
0.8036378636883867 0.8036917578831648 0.8037075193252363 0.803708920686681 0.8037048578398043 0.8036986728414064 0.8036916258612692 0.8036841934305627
0.803676555879278 0.8036687811001997 0.8036608941123191 0.8036529035033269 0.8036448115216643 0.8036366179438303 0.8036283215630036 0.8036199207620243
0.8036114137368955 0.803602798581835 0.8035940733217828 0.8035852359253681 0.80357628430761 0.8035672163311602 0.8035580298054157 0.8035487224855586
0.8035392920704254 0.8035297362014049 0.8035200524600583 0.8035102383670178 0.8035002913793221 0.8034902088888884 0.8034799882201327 0.8034696266280505
0.803459121295873 0.8034484693326149 0.8034376677709432 0.8034267135642637 0.8034156035845186 0.8034043346189179 0.8033929033678078 0.8033813064409756
0.8033695403552699 0.8033576015309052 0.8033454862885847 0.8033331908452368 0.8033207113115282 0.8033080436872098 0.8032951838575642 0.8032821275893198
0.803268870526388 0.803255408185457 0.8032417359509836 0.8032278490707867 0.803213742651252 0.8031994116511854 0.8031848508769102 0.8031700549767251
0.8031550184344027 0.8031397355628656 0.8031242004980754 0.803108407191786 0.8030923494045084 0.8030760206978371 0.8030594144268477 0.80304252373125
0.8030253415271815 0.8030078604982904 0.8029900730855388 0.8029719714779304 0.8029535476011063 0.8029347931074327 0.802915699363389 0.8028962574380927
0.8028764580902958 0.8028562917547077 0.8028357485282811 0.8028148181546158 0.8027934900091438 0.802771753081899 0.802749595960357 0.8027270068112458
0.8027039733607566 0.8026804828741874 0.8026565221348747 0.8026320774206752 0.8026071344803754 0.8025816785077211 0.8025556941147727 0.8025291653035538
0.8025020754352141 0.8024744071984102 0.8024461425756257 0.8024172628062942 0.802387748349318 0.8023575788421411 0.8023267330574413 0.8022951888579755
0.8022629231467349 0.8022299118157505 0.8021961296902447 0.8021615504700108 0.8021261466664242 0.8020898895348694 0.8020527490034368 0.8020146935961492
0.8019756903506092 0.801935704730603 0.8018947005317045 0.801852639780769 0.8018094826272204 0.8017651872276232 0.8017197096202011 0.8016730035907571
0.801625020528256 0.8015757092690023 0.8015250159288101 0.8014728837216367 0.8014192527639352 0.8013640598623795 0.8013072382853892 0.801248717513694
0.8011884229721389 0.8011262757361592 0.8010621922133865 0.800996083798502 0.8009278564949796 0.8008574105042499 0.8007846397756424 0.8007094315153296
0.8006316656478063 0.800551214225429 0.8004679407807558 0.8003816996140145 0.800292335008379 0.8001996803648126 0.8001035572466364 0.8000037743223487
0.7999001261947214 0.7997923921006134 0.7996803344659398 0.7995636972962217 0.7994422043801919 0.799315557282192 0.7991834330925585 0.7990454819031356
0.7989013239674136 0.7987505464984324 0.7985927000527937 0.7984272944338855 0.7982537940422674 0.798071612584117 0.7978801070337482 0.7976785707266032
0.797466225436203 0.7972422122585243 0.7970055810946874 0.7967552784775478 0.7964901334386099 0.7962088410458179 0.7959099431626626 0.7955918058839018
0.7952525929772847 0.7948902345126285 0.7945023896670378 0.7940864024565641 0.7936392488495159 0.7931574733364499 0.7926371125649823 0.7920736030506248
0.7914616692349341 0.7907951872342167 0.790067018473195 0.7892688059934727 0.7883907245373933 0.7874211735350656 0.7863463999260034 0.7851500355043939
0.7838125315545419 0.7823104726889873 0.7806157532810509 0.7786946058119604 0.77650648392666 0.7740028279070188 0.7711257797524596 0.7678069662410536
0.7639665086875524 0.7595123733514875 0.7543398531414525 0.7483299283982348 0.741342582270299 0.7331951069286013 0.7236028287467455 0.7120344171129389
0.6973838928226606 0.6871025171007616 0.6766159735078148 0.6660838647509415 0.6556445924143794 0.6454087767610162 0.635458518716927 0.625850297327375
0.6166194410261028 0.6077848045228862 0.5993529530634056 0.5913216052386083 0.5836823264369073 0.5764225683150315 0.5695271782625433 0.5629794970996471
0.5567621449832671 0.5508575750672762 0.5452484560789372 0.5399179299040568 0.5348497784907558 0.5300285254270776 0.5254394908364013 0.521068813258001
0.5169034485068202 0.5129311527981173 0.509140455435162 0.5055206248947641 0.5020616310692994 0.4987541056361344 0.4955893019429247 0.4925590553744996
0.4896557448530636 0.4868722558979144 0.48420194550635287 0.48163860899705924 0.47917644887400357 0.4768100457088664 0.47453433099770237 0.4723445619230482
0.47023629793120136 0.46820537902807047 0.4662479056886326 0.46436022027656065 0.4625388898696947 0.46078069039126035 0.4590825919509456 0.4574417453041413
0.4558554693440442 0.45432123954592285 0.4528366772886372 0.4513995399846138 0.45000771195306655 0.4486591959778252 0.44735210549445625 0.4460846573573818
00000000: 8094 0e57 89aa e03f 40d7 9d14 4c74 e63f
00000010: 0036 40dc 6c87 e83f 40ed 06bd 6b48 e93f
00000020: c08f a9d0 0f8f e93f 40e4 dbed 08a9 e93f
00000030: 40f0 ea13 9bb2 e93f 40f3 20fd 1fb6 e93f
00000040: 40ce cbc0 66b7 e93f c088 05c7 d7b7 e93f
00000050: 40a3 e1d4 f8b7 e93f c049 3bc5 fbb7 e93f
00000060: 80dd 0140 f3b7 e93f 8028 7647 e6b7 e93f
00000070: 4095 2480 d7b7 e93f c015 e3e9 c7b7 e93f
00000080: 8007 82e5 b7b7 e93f 8087 7497 a7b7 e93f
00000090: 402b 290d 97b7 e93f 403b 3c4b 86b7 e93f
000000a0: 80bd e252 75b7 e93f 40fa fd23 64b7 e93f
000000b0: 4014 e8bd 52b7 e93f c0c8 c21f 41b7 e93f
000000c0: 4027 9648 2fb7 e93f 0042 5c37 1db7 e93f
000000d0: c0a5 05eb 0ab7 e93f 0022 7b62 f8b6 e93f
000000e0: 0028 9e9c e5b6 e93f 80f6 4898 d2b6 e93f
000000f0: 807a 4e54 bfb6 e93f 802d 7acf abb6 e93f
00000100: 80ca 8f08 98b6 e93f 4027 4bfe 83b6 e93f
00000110: 80e0 5faf 6fb6 e93f 4033 791a 5bb6 e93f
00000120: 009f 393e 46b6 e93f 00b0 3a19 31b6 e93f
00000130: 80ab 0caa 1bb6 e93f 404c 36ef 05b6 e93f
00000140: 0070 34e7 efb5 e93f 40c1 7990 d9b5 e93f
00000150: 406c 6ee9 c2b5 e93f 80b8 6ff0 abb5 e93f
00000160: 40bb cfa3 94b5 e93f 80e4 d401 7db5 e93f
00000170: 00b4 b908 65b5 e93f 4037 acb6 4cb5 e93f
00000180: c0b5 cd09 34b5 e93f 002f 3200 1bb5 e93f
00000190: 40f5 df97 01b5 e93f 8017 cfce e7b4 e93f
000001a0: 000a e9a2 cdb4 e93f 8002 0812 b3b4 e93f
000001b0: 407b f619 98b4 e93f 40a3 6eb8 7cb4 e93f
000001c0: 40c8 19eb 60b4 e93f c0bb 8faf 44b4 e93f
000001d0: c022 5603 28b4 e93f c0da dfe3 0ab4 e93f
000001e0: 0051 8c4e edb3 e93f 40aa a640 cfb3 e93f
000001f0: 4016 65b7 b0b3 e93f c00c e8af 91b3 e93f
00000200: c068 3927 72b3 e93f 008a 4b1a 52b3 e93f
00000210: 007e f885 31b3 e93f 0001 0167 10b3 e93f
00000220: 8086 0bba eeb2 e93f 402b a37b ccb2 e93f
00000230: c0a9 36a8 a9b2 e93f 0023 173c 86b2 e93f
00000240: c0fd 7633 62b2 e93f c0ac 688a 3db2 e93f
00000250: 0048 dd3c 18b2 e93f 8046 a346 f2b1 e93f
00000260: 00ed 64a3 cbb1 e93f 40f1 a64e a4b1 e93f
00000270: 40be c643 7cb1 e93f 80e0 f87d 53b1 e93f
00000280: 803c 47f8 29b1 e93f 802d 8fad ffb0 e93f
00000290: 00a3 7f98 d4b0 e93f 00fc 96b3 a8b0 e93f
000002a0: c0fd 20f9 7bb0 e93f 8075 3463 4eb0 e93f
000002b0: c0dc b0eb 1fb0 e93f 40d9 3b8c f0af e93f
000002c0: c084 3e3e c0af e93f c0a0 e2fa 8eaf e93f
000002d0: 40b1 0fbb 5caf e93f 40c1 6777 29af e93f
000002e0: c024 4428 f5ae e93f 00e7 b1c5 bfae e93f
000002f0: 0021 6e47 89ae e93f 0014 e2a4 51ae e93f
00000300: 80ec 1ed5 18ae e93f c069 d9ce dead e93f
00000310: c03c 6588 a3ad e93f c0f6 aff7 66ad e93f
00000320: 80e2 3b12 29ad e93f 4064 1acd e9ac e93f
00000330: 0006 e61c a9ac e93f c042 bcf5 66ac e93f
00000340: c0ac 364b 23ac e93f 40e4 6310 deab e93f
00000350: 80ea bf37 97ab e93f 4013 2cb3 4eab e93f
00000360: 805c e673 04ab e93f 0025 806a b8aa e93f
00000370: 805f d486 6aaa e93f 8005 fdb7 1aaa e93f
00000380: c0c5 47ec c8a9 e93f 4001 2a11 75a9 e93f
00000390: 00d2 3313 1fa9 e93f c03a 02de c6a8 e93f
000003a0: 0036 305c 6ca8 e93f c0d8 4677 0fa8 e93f
000003b0: 8013 ac17 b0a7 e93f c044 9024 4ea7 e93f
000003c0: c05f da83 e9a6 e93f 0082 121a 82a6 e93f
000003d0: 40e2 4aca 17a6 e93f 40e3 0676 aaa5 e93f
000003e0: 0030 20fd 39a5 e93f 008f a93d c6a4 e93f
000003f0: 807b cf13 4fa4 e93f 40dd b559 d4a3 e93f
00000400: 402c 53e7 55a3 e93f 4019 4892 d3a2 e93f
00000410: 40cb b32d 4da2 e93f c06f 048a c2a1 e93f
00000420: 003e c374 33a1 e93f 0000 5cb8 9fa0 e93f
00000430: 8037 df1b 07a0 e93f 80a0 be62 699f e93f
00000440: c02d 834c c69e e93f c0e1 7b94 1d9e e93f
00000450: 40cb 64f1 6e9d e93f 4017 0515 ba9c e93f
00000460: 0037 c3ab fe9b e93f 00f8 2d5c 3c9b e93f
00000470: c033 79c6 729a e93f 8083 ec83 a199 e93f
00000480: c052 4226 c898 e93f 002d f536 e697 e93f
00000490: 4023 7936 fb96 e93f 8098 5e9b 0696 e93f
000004a0: c05c 5bd1 0795 e93f c0c0 3638 fe93 e93f
000004b0: c066 9422 e992 e93f 004c 99d4 c791 e93f
000004c0: 007a 6582 9990 e93f c0ee 5b4e 5d8f e93f
000004d0: 80a2 3147 128e e93f 4079 ba65 b78c e93f
000004e0: 0039 6a8a 4b8b e93f c045 7d7a cd89 e93f
000004f0: 80d8 badc 3b88 e93f 80b4 bf35 9586 e93f
00000500: c037 bde3 d784 e93f 8083 9419 0283 e93f
00000510: 40ff 30d9 1181 e93f 003f ffec 047f e93f
00000520: 8093 56e0 d87c e93f c07d a2f6 8a7a e93f
00000530: 403c 0e21 1878 e93f 0095 67f2 7c75 e93f
00000540: 40b1 dc90 b572 e93f 4087 24a5 bd6f e93f
00000550: 40d7 8646 906c e93f c0f9 17e3 2769 e93f
00000560: 802e 5423 7e65 e93f 80db 11c8 8b61 e93f
00000570: c0ff 8181 485d e93f 0013 a4bd aa58 e93f
00000580: 00da 2c6c a753 e93f 402a 60b5 314e e93f
00000590: 00b3 bfa0 3a48 e93f 80d6 afa7 b041 e93f
000005a0: 8073 4b2f 7f3a e93f 805a 90e3 8d32 e93f
000005b0: 004e e0ec bf29 e93f 403a 9ef7 f21f e93f
000005c0: 6018 a704 fe14 e93f 608f f0f8 af08 e93f
000005d0: 60b4 62e3 cdfa e83f 6016 31f3 10eb e83f
000005e0: 401a 3320 24d9 e83f c0e8 1b94 a1c4 e83f
000005f0: 4075 a4f8 0fad e83f 80ae 34ea df91 e83f
00000600: c0ac 41e4 6972 e83f a076 8ee4 ec4d e83f
00000610: c0fb e954 8d23 e83f 80d4 229b 51f2 e73f
00000620: c075 3f14 14b9 e73f e00e bb95 5576 e73f
00000630: e054 981e c127 e73f 400c e466 fcc8 e63f
00000640: a0c6 8d06 f850 e63f 404e fe6a befc e53f
00000650: 405a c58a d6a6 e53f 60f4 ef1b 8f50 e53f
00000660: 2002 475e 0afb e43f 80ad 974e 30a7 e43f
00000670: 6052 7b1a ad55 e43f 80d0 e633 f706 e43f
00000680: 001e a9b1 58bb e33f 40cf 4d1e f972 e33f
00000690: 2063 853e e62d e33f a060 7d49 1bec e23f
000006a0: 4097 e98e 86ad e23f 40dc f2bd 0d72 e23f
000006b0: e043 9a0f 9139 e23f 8091 0b94 ed03 e23f
000006c0: 8053 8bd8 fed0 e13f c05e b510 a0a0 e13f
000006d0: 80b6 e1e3 ac72 e13f 40c8 6ef7 0147 e13f
000006e0: 2080 5c48 7d1d e13f 4001 d561 fef5 e03f
000006f0: 606a a57a 66d0 e03f a013 fd80 98ac e03f
00000700: 60d8 d019 798a e03f 80c2 cb97 ee69 e03f
00000710: 2044 a5ec e04a e03f 400c ec96 392d e03f
00000720: 209c c08d e310 e03f c0fc 1c57 96eb df3f
00000730: c0e8 0531 bcb7 df3f 00a8 8b6a 1686 df3f
00000740: c050 9c0c 8556 df3f 8052 1a40 ea28 df3f
00000750: c0ff 2628 2afd de3f 0088 88be 2ad3 de3f
00000760: 4058 3bb2 d3aa de3f 8053 2e48 0e84 de3f
00000770: 40b8 1d3e c55e de3f c0c9 79af e43a de3f
00000780: 806c 40fc 5918 de3f 8028 afb1 13f7 dd3f
00000790: 00b7 b074 01d7 dd3f 00ad e9ed 13b8 dd3f
000007a0: 4095 47b7 3c9a dd3f 00f6 f64a 6e7d dd3f
000007b0: 00e7 a5f3 9b61 dd3f 4003 fabd b946 dd3f
000007c0: 0044 226b bc2c dd3f 4096 6e64 9913 dd3f
000007d0: 8093 d8af 46fb dc3f 8074 6ae5 bae3 dc3f
000007e0: 4051 7225 edcc dc3f 0090 710f d5b6 dc3f
000007f0: c04e b9b9 6aa1 dc3f 803a a6a9 a68c dc3f
