onecap_model_with_structure_ambiguity/output/upper_triangular_two_ambiguous_parameters/Delta_10.0_distorted_0/logadjustment_1_boundary_0/zmax_5.0_zscale_2.0/delta_0.02/q_0.05_gamma_9.0_rho_1.0/model.npz (npz, 126264 bytes, 58 tensors)

clowerlim f8 []
000000 2d 43 1c eb e2 36 1a 3f
       0.0001

zmin f8 []
000000 00 00 00 00 00 00 14 c0
       -5.0

Delta f8 []
000000 00 00 00 00 00 00 24 40
       10.0

s1_F f8 [401]
000000 de bf d2 05 ba a9 d1 bf 16 18 bf 40 1e 93 d1 bf
       -0.2759842926852779 -0.27460438082596406
000010 7a 7e aa 7b 82 7c d1 bf ed f1 9c b6 e6 65 d1 bf
       -0.2732244689632136 -0.2718445571261146
000020 2a 0d 99 f1 4a 4f d1 bf 06 b5 9f 2c af 38 d1 bf
       -0.27046464532414183 -0.2690847335605472
000030 ec 53 b1 67 13 22 d1 bf 3c 2f ce a2 77 0b d1 bf
       -0.26770482183684297 -0.26632491015401505
000040 06 7a f6 dd db f4 d0 bf 08 63 2a 19 40 de d0 bf
       -0.2649449985127891 -0.2635650869138293
000050 ec 28 6a 54 a4 c7 d0 bf f3 f3 b5 8f 08 b1 d0 bf
       -0.2621851753580262 -0.2608052638459519
000060 b9 fd 0d cb 6c 9a d0 bf a3 7c 72 06 d1 83 d0 bf
       -0.25942535237842496 -0.25804544095621845
000070 58 a6 e3 41 35 6d d0 bf 62 b5 61 7d 99 56 d0 bf
       -0.2566655295800948 -0.2552856182508859
000080 ee df ec b8 fd 3f d0 bf c5 64 85 f4 61 29 d0 bf
       -0.25390570696936166 -0.25252579573641426
000090 6a 80 2b 30 c6 12 d0 bf a1 db be d7 54 f8 cf bf
       -0.25114588455290365 -0.24976597341966758
0000a0 ed e2 42 4f 1d cb cf bf 45 95 e3 c6 e5 9d cf bf
       -0.24838606233767938 -0.24700615130783823
0000b0 25 78 a1 3e ae 70 cf bf 8a 0f 7d b6 76 43 cf bf
       -0.24562624033109262 -0.24424632940838037
0000c0 a6 f3 76 2e 3f 16 cf bf ac b0 8f a6 07 e9 ce bf
       -0.2428664185407829 -0.24148650772929636
0000d0 74 d9 c7 1e d0 bb ce bf c2 03 20 97 98 8e ce bf
       -0.24010659697496417 -0.23872668627885046
0000e0 5b c9 98 0f 61 61 ce bf 1b d2 32 88 29 34 ce bf
       -0.23734677564204784 -0.23596686506574902
0000f0 7b c2 ee 00 f2 06 ce bf b8 36 cd 79 ba d9 cd bf
       -0.23458695455112263 -0.23320704409927884
000100 72 ec ce f2 82 ac cd bf 43 84 f4 6b 4b 7f cd bf
       -0.231827133711565 -0.23044722338912224
000110 1d c3 3e e5 13 52 cd bf d7 5b ae 5e dc 24 cd bf
       -0.22906731313334996 -0.2276874029455189
000120 17 15 44 d8 a4 f7 cc bf 8c af 00 52 6d ca cc bf
       -0.22630749282704052 -0.22492758277928393
000130 34 f8 e4 cb 35 9d cc bf 6f bd f1 45 fe 6f cc bf
       -0.2235476728037057 -0.22216776290177218
000140 f2 dd 27 c0 c6 42 cc bf 60 32 88 3a 8f 15 cc bf
       -0.22078785307506582 -0.21940794332512592
000150 22 9f 13 b5 57 e8 cb bf 81 09 cb 2f 20 bb cb bf
       -0.21802803365357543 -0.2166481240620435
000160 99 67 af aa e8 8d cb bf d7 af c1 25 b1 60 cb bf
       -0.21526821455227887 -0.2138883051260325
000170 cf e1 02 a1 79 33 cb bf b3 03 74 1c 42 06 cb bf
       -0.21250839578512035 -0.21112848653140545
000180 c0 26 16 98 0a d9 ca bf d0 59 ea 13 d3 ab ca bf
       -0.20974857736682928 -0.20836866829331635
000190 f8 c5 f1 8f 9b 7e ca bf 6e 8f 2d 0c 64 51 ca bf
       -0.20698875931297755 -0.20560885042788918
0001a0 38 e7 9e 88 2c 24 ca bf 0c 07 47 05 f5 f6 c9 bf
       -0.20422894164021854 -0.2028490329521947
0001b0 06 39 27 82 bd c9 c9 bf 37 c5 40 ff 85 9c c9 bf
       -0.2014691243661632 -0.20008921588445513
0001c0 b8 03 95 7c 4e 6f c9 bf 90 62 25 fa 16 42 c9 bf
       -0.19870930750951543 -0.19732939924394488
0001d0 21 4e f3 77 df 14 c9 bf 7a 41 00 f6 a7 e7 c8 bf
       -0.19594949109033258 -0.1945695830513719
0001e0 25 c8 4d 74 70 ba c8 bf a6 74 dd f2 38 8d c8 bf
       -0.1931896751298733 -0.19180976732869687
0001f0 0d eb b0 71 01 60 c8 bf 21 e1 c9 f0 c9 32 c8 bf
       -0.1904298596508273 -0.18904995209937517
000200 2b 11 2a 70 92 05 c8 bf b2 53 d3 ef 5a d8 c7 bf
       -0.18767004467748313 -0.1862901373885087
000210 b2 84 c7 6f 23 ab c7 bf 4c 93 08 f0 eb 7d c7 bf
       -0.18491023023583392 -0.1835303232229769
000220 7a 88 98 70 b4 50 c7 bf a9 73 79 f1 7c 23 c7 bf
       -0.18215041635363943 -0.18077050963156907
000230 19 7d ad 72 45 f6 c6 bf e8 e4 36 f4 0d c9 c6 bf
       -0.1793906030606898 -0.17801069664509517
000240 c5 f7 17 76 d6 9b c6 bf 3f 20 53 f8 9e 6e c6 bf
       -0.17663079038896803 -0.17525088429670352
000250 7a de ea 7a 67 41 c6 bf 81 c4 e1 fd 2f 14 c6 bf
       -0.1738709783728501 -0.17249107262208344
000260 4e 84 3a 81 f8 e6 c5 bf d8 e4 f7 04 c1 b9 c5 bf
       -0.17111116704930612 -0.16973126165956987
000270 32 cd 1c 89 89 8c c5 bf fe 41 ac 0d 52 5f c5 bf
       -0.16835135645815452 -0.16697145145054998
000280 a2 61 a9 92 1a 32 c5 bf 80 71 17 18 e3 04 c5 bf
       -0.1655915466424292 -0.16421164203974215
000290 c4 cc f9 9d ab d7 c4 bf ab 02 54 24 74 aa c4 bf
       -0.1628317376485936 -0.1614518334754583
0002a0 1e b6 29 ab 3c 7d c4 bf e1 b8 7e 32 05 50 c4 bf
       -0.16007192952695076 -0.15869202581001843
0002b0 b6 09 57 ba cd 22 c4 bf 44 d1 b6 42 96 f5 c3 bf
       -0.15731212233192843 -0.15593221910024557
0002c0 b2 5d a2 cb 5e c8 c3 bf e0 33 1e 55 27 9b c3 bf
       -0.15455231612280113 -0.15317241340781518
0002d0 a8 0e 2f df ef 6d c3 bf fc d3 d9 69 b8 40 c3 bf
       -0.15179251096389135 -0.15041260879993945
0002e0 a4 ae 23 f5 80 13 c3 bf 5c f8 11 81 49 e6 c2 bf
       -0.14903270692535842 -0.1476528053498808
0002f0 cf 52 aa 0d 12 b9 c2 bf f1 9c f2 9a da 8b c2 bf
       -0.14627290408375024 -0.1448930031376459
000300 79 ff f0 28 a3 5e c2 bf 12 eb ab b7 6b 31 c2 bf
       -0.14351310252277097 -0.14213320225083997
000310 b3 22 2a 47 34 04 c2 bf cd b8 72 d7 fc d6 c1 bf
       -0.14075330233415215 -0.13937340278557145
000320 a3 1d 8d 68 c5 a9 c1 bf 3f 1a 81 fa 8d 7c c1 bf
       -0.13799350361862847 -0.1366136048474846
000330 db dd 56 8d 56 4f c1 bf 91 02 17 21 1f 22 c1 bf
       -0.13523370648702734 -0.13385380855290355
000340 fd 93 ca b5 e7 f4 c0 bf 34 14 7b 4b b0 c7 c0 bf
       -0.1324739110615666 -0.13109401403031173
000350 d1 85 32 e2 78 9a c0 bf 57 76 fb 79 41 6d c0 bf
       -0.12971411747734732 -0.12833422142186876
000360 c5 04 e1 12 0a 40 c0 bf f5 e5 ee ac d2 12 c0 bf
       -0.12695432588410518 -0.1255744308853505
000370 e3 fd 62 90 36 cb bf bf 96 b7 6b c9 c7 70 bf bf
       -0.12419453644815052 -0.12281464259623784
000380 84 a1 13 05 59 16 bf bf 5e e6 77 43 ea bb be bf
       -0.12143474935476745 -0.12005485675026636
000390 68 79 b7 84 7b 61 be bf d6 15 f3 c8 0c 07 be bf
       -0.11867496481088369 -0.11729507356638832
0003a0 c4 70 4d 10 9e ac bd bf f4 60 eb 5a 2f 52 bd bf
       -0.11591518304834653 -0.11453529329026307
0003b0 ee fa f3 a8 c0 f7 bc bf ff cd 90 fa 51 9d bc bf
       -0.1131554043276812 -0.1117755161983993
0003c0 08 03 ee 4f e3 42 bc bf 47 a0 3a a9 74 e8 bb bf
       -0.11039562894258037 -0.10901574260299284
0003d0 96 c1 a8 06 06 8e bb bf ec d0 6d 68 97 33 bb bf
       -0.10763585722521038 -0.10625597285781269
0003e0 21 da c2 ce 28 d9 ba bf 73 c8 e4 39 ba 7e ba bf
       -0.10487608955268303 -0.10349620736522684
0003f0 eb bb 14 aa 4b 24 ba bf 4e 7e 98 1f dd c9 b9 bf
       -0.10211632635467509 -0.10073644658449973
000400 a8 c7 ba 9a 6e 6f b9 bf 4d cb cb 1b 00 15 b9 bf
       -0.09935656812265725 -0.09797669104208957
000410 31 ac 21 a3 91 ba b8 bf d9 04 19 31 23 60 b8 bf
       -0.09659681542113742 -0.09521694134402327
000420 0a 7c 15 c6 b4 05 b8 bf 58 8a 82 62 46 ab b7 bf
       -0.09383706890137958 -0.09245719819095066
000430 fe 18 d4 06 d8 50 b7 bf 74 6b 87 b3 69 f6 b6 bf
       -0.09107732931815701 -0.08969746239692516
000440 b6 fc 23 69 fb 9b b6 bf 58 a0 3c 28 8d 41 b6 bf
       -0.08831759755047383 -0.08693773491234091
000450 03 90 70 f1 1e e7 b5 bf 8c c8 6c c5 b0 8c b5 bf
       -0.08555787462734092 -0.08417801685280518
000460 43 7b ed a4 42 32 b5 bf ac ae bf 90 d4 d7 b4 bf
       -0.08279816175989389 -0.08141830953507662
000470 22 28 c3 89 66 7d b4 bf 53 6d ec 90 f8 22 b4 bf
       -0.08003846038187182 -0.07865861452267113
000480 ee 3b 47 a7 8a c8 b3 bf 67 25 f9 cd 1c 6e b3 bf
       -0.07727877220098353 -0.07589893368380772
000490 83 ac 44 06 af 13 b3 bf 5c b6 8c 51 41 b9 b2 bf
       -0.07451909926446558 -0.07313926926573217
0004a0 a7 8b 58 b1 d3 5e b2 bf 7f 66 58 27 66 04 b2 bf
       -0.07175944404347821 -0.07037962399081187
0004b0 84 a6 6a b5 f8 a9 b1 bf d0 d2 a1 5d 8b 4f b1 bf
       -0.06899980954281132 -0.06762000118198874
0004c0 4d 7e 4b 22 1e f5 b0 bf 6b 4a f8 05 b1 9a b0 bf
       -0.06624019944455846 -0.06486040492772253
0004d0 cc 24 85 0b 44 40 b0 bf c2 f6 4b 6c ae cb af bf
       -0.06348061829807533 -0.06210084030133835
0004e0 06 7d e4 12 d5 16 af bf 94 e2 e6 12 fc 61 ae bf
       -0.060721071773736354 -0.059341313655243116
0004f0 56 6d 6c 75 23 ad ad bf c4 a6 bc 44 4b f8 ac bf
       -0.05796156700508941 -0.0565818330199597
000500 6c 67 7c 8c 73 43 ac bf 11 60 e5 59 9c 8e ab bf
       -0.055202113055385776 -0.053822408651001415
000510 ee d7 07 bc c5 d9 aa bf 3d a3 18 c4 ef 24 aa bf
       -0.05244272156043893 -0.05106305378678264
000520 04 f3 cd 85 1a 70 a9 bf 58 1d ce 17 46 bb a8 bf
       -0.04968340762477477 -0.04830378571119337
000530 86 44 34 94 72 06 a8 bf f8 8a 2f 19 a0 51 a7 bf
       -0.04692419108517591 -0.04554462726061631
000540 01 e3 c2 c9 ce 9c a6 bf c4 85 ac ce fe e7 a5 bf
       -0.04416509831339078 -0.04278560898661568
000550 ba 54 7e 57 30 33 a5 bf 1a 1d f2 9b 63 7e a4 bf
       -0.04140616481815003 -0.04002677229532932
000560 60 b7 87 dd 98 c9 a3 bf 64 e5 7d 69 d0 14 a3 bf
       -0.038647439043286935 -0.03726817405454133
000570 9c 34 3b 9b 0a 60 a2 bf 9d 82 40 df 47 ab a1 bf
       -0.03588898796952231 -0.03450989341968589
000580 97 aa c4 b6 88 f6 a0 bf 4c 3f 1f bc cd 41 a0 bf
       -0.03313090544755431 -0.03175204202091084
000590 46 16 5e 50 2f 1a 9f bf ca fa df b1 ce b0 9d bf
       -0.030373324661488142 -0.02899477921163899
0005a0 21 b8 f2 b2 7b 47 9c bf 4f df 3b d7 38 de 9a bf
       -0.02761643676483783 -0.026238334786256087
0005b0 e2 60 be 26 09 75 99 bf 94 6a 91 48 f0 0b 98 bf
       -0.024860518445707032 -0.023483042172623828
0005c0 bc 6c 12 a1 f2 a2 96 bf 5d fe 37 72 15 3a 95 bf
       -0.02210597141366287 -0.020729384514196137
0005d0 11 cc b5 fa 5e d1 93 bf 9d 4f fd 8c d6 68 92 bf
       -0.019353374530918958 -0.017978050570789262
0005e0 27 1a 83 90 84 00 91 bf 48 03 6e a7 e4 30 8f bf
       -0.01660353786498994 -0.015229975089597794
0005f0 95 0d 45 ff 52 61 8c bf 34 f8 4b af 65 92 89 bf
       -0.01385750619431895 -0.012486261760837981
000600 e1 3e 6f 55 27 c4 86 bf 65 15 c6 bd 91 f6 83 bf
       -0.011116320891147282 -0.00974763737100188
000610 2a d5 2e 3a 7b 29 81 bf 2e 18 84 09 e8 b8 7c bf
       -0.008379900658705159 -0.0070122779800439305
000620 5d 28 70 c3 0c 1d 77 bf 00 aa fa 33 81 7b 71 bf
       -0.005642938477658258 -0.004268173884762749
000630 2a ad dc 71 64 99 67 bf 7c 60 fd bc 73 08 58 bf
       -0.0028807603656752128 -0.0014668588882696112
000640 00 00 00 00 00 00 00 80 ed 0c 9f d8 0c 30 59 bf
       -0.0 -0.0015373349619814361
000650 dc 67 f1 96 41 a5 69 bf 99 cc ae ee f9 8d 73 bf
       -0.0031305581137930204 -0.004774071024189607
000660 f9 11 a1 bd b0 78 7a bf b5 48 4d 2a f3 c6 80 bf
       -0.006462755578529039 -0.008191966751528982
000670 24 4a 6d b8 9a 64 84 bf 05 b6 8b 7a 55 13 88 bf
       -0.00995751262022277 -0.011755626489924795
000680 a7 55 f6 a3 5e d1 8b bf 07 9a 9a 9e 21 9d 8f bf
       -0.013582934740763287 -0.015436422970492648
000690 93 8f f3 c0 9a ba 91 bf f9 b8 cd 59 2c ac 93 bf
       -0.01731340220148032 -0.019211476308037743
0006a0 8c b0 65 65 b6 a2 95 bf dd 3f 27 61 b9 9d 97 bf
       -0.02112851137046383 -0.02306260734059139
0006b0 8b 90 14 c0 c3 9c 99 bf 8e 90 2b 59 70 9f 9b bf
       -0.02501207218041705 -0.026975398485675366
0006c0 28 93 09 ff 64 a5 9d bf 2d 5c 5c 3e 51 ae 9f bf
       -0.028951242510078107 -0.030938405448150675
0006d0 5e 86 13 a0 f6 dc a0 bf e5 17 54 66 fc e3 a1 bf
       -0.03293581680351275 -0.0349425196564395
0006e0 67 23 d5 35 1d ec a2 bf 53 86 92 4f 3f f5 a3 bf
       -0.03695765764366037 -0.03898046346990882
0006f0 a2 ff a2 9a 4b ff a4 bf e3 1b 99 57 2d 0a a6 bf
       -0.041010248781730554 -0.04304639524757883
000700 81 20 09 dd d1 15 a7 bf f7 ec 1b 5c 28 22 a8 bf
       -0.04508834670247187 -0.04713560222986673
000710 0d 0b 35 ac 21 2f a9 bf f1 9d ce 1c b0 3c aa bf
       -0.04918771006716414 -0.05124426223420276
000720 ae c0 c7 4c c7 4a ab bf ab 6f 79 06 5c 59 ac bf
       -0.0533048897958691 -0.05536925868065564
000730 56 69 fb 1f 64 68 ad bf 04 b4 14 5f d6 77 ae bf
       -0.057437065986692445 -0.05950803671508001
000740 4c b0 64 60 aa 87 af bf 59 c3 af 40 ec 4b b0 bf
       -0.061581920878183455 -0.06365849093687127
000750 26 06 63 e6 2c d4 b0 bf fc 08 a6 f4 93 5c b1 bf
       -0.06573753952672998 -0.06781887743821707
000760 59 f5 14 85 1e e5 b1 bf d0 4b af f0 c9 6d b2 bf
       -0.06990233182019291 -0.07198774458019774
000770 cc 9c b7 c9 93 f6 b2 bf be 75 3b d6 79 7f b3 bf
       -0.07407497095811094 -0.07616387825279156
000780 74 e6 2f 0b 7a 08 b4 bf cc 7c 11 88 92 91 b4 bf
       -0.07825434468386466 -0.08034625837307202
000790 0b 95 f8 92 c1 1a b5 bf 1b d4 14 95 05 a4 b5 bf
       -0.08243951643142482 -0.08453402414018323
0007a0 b9 31 84 17 5d 2d b6 bf 85 52 7b c0 c6 b6 b6 bf
       -0.08662969421511137 -0.08872644614468513
0007b0 7f 57 b6 50 41 40 b7 bf fc 0c 2a a1 cb c9 b7 bf
       -0.09082420559420078 -0.09292290386843044
0007c0 b0 b5 ee a0 64 53 b8 bf ae 10 5e 53 0b dd b8 bf
       -0.09502247742667325 -0.09712286744440021
0007d0 3b 58 5f ce be 66 b9 bf f1 52 dc 38 7e f0 b9 bf
       -0.09922401941671037 -0.10132588279914125
0007e0 00 2d 5b c9 48 7a ba bf 59 5e b9 c4 1d 04 bb bf
       -0.10342841068193209 -0.10553155949434635
0007f0 8a 3b 04 7d fc 8d bb bf 6b 22 6c 50 e4 17 bc bf
       -0.10763528873597586 -0.10973956073224549

d f8 [401]
000000 17 43 3a 6f 31 a4 b3 3f 17 43 3a 6f 31 a4 b3 3f
       0.07672413793103448 0.07672413793103448
000010 17 43 3a 6f 31 a4 b3 3f 17 43 3a 6f 31 a4 b3 3f
       0.07672413793103448 0.07672413793103448
000020 17 43 3a 6f 31 a4 b3 3f 17 43 3a 6f 31 a4 b3 3f
       0.07672413793103448 0.07672413793103448
000030 17 43 3a 6f 31 a4 b3 3f 17 43 3a 6f 31 a4 b3 3f
       0.07672413793103448 0.07672413793103448
000040 17 43 3a 6f 31 a4 b3 3f 17 43 3a 6f 31 a4 b3 3f
       0.07672413793103448 0.07672413793103448
000050 17 43 3a 6f 31 a4 b3 3f 17 43 3a 6f 31 a4 b3 3f
       0.07672413793103448 0.07672413793103448
000060 17 43 3a 6f 31 a4 b3 3f 17 43 3a 6f 31 a4 b3 3f
       0.07672413793103448 0.07672413793103448
000070 17 43 3a 6f 31 a4 b3 3f 17 43 3a 6f 31 a4 b3 3f
       0.07672413793103448 0.07672413793103448
000080 17 43 3a 6f 31 a4 b3 3f 17 43 3a 6f 31 a4 b3 3f
       0.07672413793103448 0.07672413793103448
000090 17 43 3a 6f 31 a4 b3 3f 17 43 3a 6f 31 a4 b3 3f
       0.07672413793103448 0.07672413793103448
0000a0 17 43 3a 6f 31 a4 b3 3f 17 43 3a 6f 31 a4 b3 3f
       0.07672413793103448 0.07672413793103448
0000b0 17 43 3a 6f 31 a4 b3 3f 17 43 3a 6f 31 a4 b3 3f
       0.07672413793103448 0.07672413793103448
0000c0 17 43 3a 6f 31 a4 b3 3f 17 43 3a 6f 31 a4 b3 3f
       0.07672413793103448 0.07672413793103448
0000d0 17 43 3a 6f 31 a4 b3 3f 17 43 3a 6f 31 a4 b3 3f
       0.07672413793103448 0.07672413793103448
0000e0 17 43 3a 6f 31 a4 b3 3f 17 43 3a 6f 31 a4 b3 3f
       0.07672413793103448 0.07672413793103448
0000f0 17 43 3a 6f 31 a4 b3 3f 17 43 3a 6f 31 a4 b3 3f
       0.07672413793103448 0.07672413793103448
000100 17 43 3a 6f 31 a4 b3 3f 17 43 3a 6f 31 a4 b3 3f
       0.07672413793103448 0.07672413793103448
000110 17 43 3a 6f 31 a4 b3 3f 17 43 3a 6f 31 a4 b3 3f
       0.07672413793103448 0.07672413793103448
000120 17 43 3a 6f 31 a4 b3 3f 17 43 3a 6f 31 a4 b3 3f
       0.07672413793103448 0.07672413793103448
000130 17 43 3a 6f 31 a4 b3 3f 17 43 3a 6f 31 a4 b3 3f
       0.07672413793103448 0.07672413793103448
000140 17 43 3a 6f 31 a4 b3 3f 17 43 3a 6f 31 a4 b3 3f
       0.07672413793103448 0.07672413793103448
000150 17 43 3a 6f 31 a4 b3 3f 17 43 3a 6f 31 a4 b3 3f
       0.07672413793103448 0.07672413793103448
000160 17 43 3a 6f 31 a4 b3 3f 17 43 3a 6f 31 a4 b3 3f
       0.07672413793103448 0.07672413793103448
000170 17 43 3a 6f 31 a4 b3 3f 17 43 3a 6f 31 a4 b3 3f
       0.07672413793103448 0.07672413793103448
000180 17 43 3a 6f 31 a4 b3 3f 17 43 3a 6f 31 a4 b3 3f
       0.07672413793103448 0.07672413793103448
000190 17 43 3a 6f 31 a4 b3 3f 17 43 3a 6f 31 a4 b3 3f
       0.07672413793103448 0.07672413793103448
0001a0 17 43 3a 6f 31 a4 b3 3f 17 43 3a 6f 31 a4 b3 3f
       0.07672413793103448 0.07672413793103448
0001b0 17 43 3a 6f 31 a4 b3 3f 17 43 3a 6f 31 a4 b3 3f
       0.07672413793103448 0.07672413793103448
0001c0 17 43 3a 6f 31 a4 b3 3f 17 43 3a 6f 31 a4 b3 3f
       0.07672413793103448 0.07672413793103448
0001d0 17 43 3a 6f 31 a4 b3 3f 17 43 3a 6f 31 a4 b3 3f
       0.07672413793103448 0.07672413793103448
0001e0 17 43 3a 6f 31 a4 b3 3f 17 43 3a 6f 31 a4 b3 3f
       0.07672413793103448 0.07672413793103448
0001f0 17 43 3a 6f 31 a4 b3 3f 17 43 3a 6f 31 a4 b3 3f
       0.07672413793103448 0.07672413793103448
000200 17 43 3a 6f 31 a4 b3 3f 17 43 3a 6f 31 a4 b3 3f
       0.07672413793103448 0.07672413793103448
000210 17 43 3a 6f 31 a4 b3 3f 17 43 3a 6f 31 a4 b3 3f
       0.07672413793103448 0.07672413793103448
000220 17 43 3a 6f 31 a4 b3 3f 17 43 3a 6f 31 a4 b3 3f
       0.07672413793103448 0.07672413793103448
000230 17 43 3a 6f 31 a4 b3 3f 17 43 3a 6f 31 a4 b3 3f
       0.07672413793103448 0.07672413793103448
000240 17 43 3a 6f 31 a4 b3 3f 17 43 3a 6f 31 a4 b3 3f
       0.07672413793103448 0.07672413793103448
000250 17 43 3a 6f 31 a4 b3 3f 17 43 3a 6f 31 a4 b3 3f
       0.07672413793103448 0.07672413793103448
000260 17 43 3a 6f 31 a4 b3 3f 17 43 3a 6f 31 a4 b3 3f
       0.07672413793103448 0.07672413793103448
000270 17 43 3a 6f 31 a4 b3 3f 17 43 3a 6f 31 a4 b3 3f
       0.07672413793103448 0.07672413793103448
000280 17 43 3a 6f 31 a4 b3 3f 17 43 3a 6f 31 a4 b3 3f
       0.07672413793103448 0.07672413793103448
000290 17 43 3a 6f 31 a4 b3 3f 17 43 3a 6f 31 a4 b3 3f
       0.07672413793103448 0.07672413793103448
0002a0 17 43 3a 6f 31 a4 b3 3f 17 43 3a 6f 31 a4 b3 3f
       0.07672413793103448 0.07672413793103448
0002b0 17 43 3a 6f 31 a4 b3 3f 17 43 3a 6f 31 a4 b3 3f
       0.07672413793103448 0.07672413793103448
0002c0 17 43 3a 6f 31 a4 b3 3f 17 43 3a 6f 31 a4 b3 3f
       0.07672413793103448 0.07672413793103448
0002d0 17 43 3a 6f 31 a4 b3 3f 17 43 3a 6f 31 a4 b3 3f
       0.07672413793103448 0.07672413793103448
0002e0 17 43 3a 6f 31 a4 b3 3f 17 43 3a 6f 31 a4 b3 3f
       0.07672413793103448 0.07672413793103448
0002f0 17 43 3a 6f 31 a4 b3 3f 17 43 3a 6f 31 a4 b3 3f
       0.07672413793103448 0.07672413793103448
000300 17 43 3a 6f 31 a4 b3 3f 17 43 3a 6f 31 a4 b3 3f
       0.07672413793103448 0.07672413793103448
000310 17 43 3a 6f 31 a4 b3 3f 17 43 3a 6f 31 a4 b3 3f
       0.07672413793103448 0.07672413793103448
000320 17 43 3a 6f 31 a4 b3 3f 17 43 3a 6f 31 a4 b3 3f
       0.07672413793103448 0.07672413793103448
000330 17 43 3a 6f 31 a4 b3 3f 17 43 3a 6f 31 a4 b3 3f
       0.07672413793103448 0.07672413793103448
000340 17 43 3a 6f 31 a4 b3 3f 17 43 3a 6f 31 a4 b3 3f
       0.07672413793103448 0.07672413793103448
000350 17 43 3a 6f 31 a4 b3 3f 17 43 3a 6f 31 a4 b3 3f
       0.07672413793103448 0.07672413793103448
000360 17 43 3a 6f 31 a4 b3 3f 17 43 3a 6f 31 a4 b3 3f
       0.07672413793103448 0.07672413793103448
000370 17 43 3a 6f 31 a4 b3 3f 17 43 3a 6f 31 a4 b3 3f
       0.07672413793103448 0.07672413793103448
000380 17 43 3a 6f 31 a4 b3 3f 17 43 3a 6f 31 a4 b3 3f
       0.07672413793103448 0.07672413793103448
000390 17 43 3a 6f 31 a4 b3 3f 17 43 3a 6f 31 a4 b3 3f
       0.07672413793103448 0.07672413793103448
0003a0 17 43 3a 6f 31 a4 b3 3f 17 43 3a 6f 31 a4 b3 3f
       0.07672413793103448 0.07672413793103448
0003b0 17 43 3a 6f 31 a4 b3 3f 17 43 3a 6f 31 a4 b3 3f
       0.07672413793103448 0.07672413793103448
0003c0 17 43 3a 6f 31 a4 b3 3f 17 43 3a 6f 31 a4 b3 3f
       0.07672413793103448 0.07672413793103448
0003d0 17 43 3a 6f 31 a4 b3 3f 17 43 3a 6f 31 a4 b3 3f
       0.07672413793103448 0.07672413793103448
0003e0 17 43 3a 6f 31 a4 b3 3f 17 43 3a 6f 31 a4 b3 3f
       0.07672413793103448 0.07672413793103448
0003f0 17 43 3a 6f 31 a4 b3 3f 17 43 3a 6f 31 a4 b3 3f
       0.07672413793103448 0.07672413793103448
000400 17 43 3a 6f 31 a4 b3 3f 17 43 3a 6f 31 a4 b3 3f
       0.07672413793103448 0.07672413793103448
000410 17 43 3a 6f 31 a4 b3 3f 17 43 3a 6f 31 a4 b3 3f
       0.07672413793103448 0.07672413793103448
000420 17 43 3a 6f 31 a4 b3 3f 17 43 3a 6f 31 a4 b3 3f
       0.07672413793103448 0.07672413793103448
000430 17 43 3a 6f 31 a4 b3 3f 17 43 3a 6f 31 a4 b3 3f
       0.07672413793103448 0.07672413793103448
000440 17 43 3a 6f 31 a4 b3 3f 17 43 3a 6f 31 a4 b3 3f
       0.07672413793103448 0.07672413793103448
000450 17 43 3a 6f 31 a4 b3 3f 17 43 3a 6f 31 a4 b3 3f
       0.07672413793103448 0.07672413793103448
000460 17 43 3a 6f 31 a4 b3 3f 17 43 3a 6f 31 a4 b3 3f
       0.07672413793103448 0.07672413793103448
000470 17 43 3a 6f 31 a4 b3 3f 17 43 3a 6f 31 a4 b3 3f
       0.07672413793103448 0.07672413793103448
000480 17 43 3a 6f 31 a4 b3 3f 17 43 3a 6f 31 a4 b3 3f
       0.07672413793103448 0.07672413793103448
000490 17 43 3a 6f 31 a4 b3 3f 17 43 3a 6f 31 a4 b3 3f
       0.07672413793103448 0.07672413793103448
0004a0 17 43 3a 6f 31 a4 b3 3f 17 43 3a 6f 31 a4 b3 3f
       0.07672413793103448 0.07672413793103448
0004b0 17 43 3a 6f 31 a4 b3 3f 17 43 3a 6f 31 a4 b3 3f
       0.07672413793103448 0.07672413793103448
0004c0 17 43 3a 6f 31 a4 b3 3f 17 43 3a 6f 31 a4 b3 3f
       0.07672413793103448 0.07672413793103448
0004d0 17 43 3a 6f 31 a4 b3 3f 17 43 3a 6f 31 a4 b3 3f
       0.07672413793103448 0.07672413793103448
0004e0 17 43 3a 6f 31 a4 b3 3f 17 43 3a 6f 31 a4 b3 3f
       0.07672413793103448 0.07672413793103448
0004f0 17 43 3a 6f 31 a4 b3 3f 17 43 3a 6f 31 a4 b3 3f
       0.07672413793103448 0.07672413793103448
000500 17 43 3a 6f 31 a4 b3 3f 17 43 3a 6f 31 a4 b3 3f
       0.07672413793103448 0.07672413793103448
000510 17 43 3a 6f 31 a4 b3 3f 17 43 3a 6f 31 a4 b3 3f
       0.07672413793103448 0.07672413793103448
000520 17 43 3a 6f 31 a4 b3 3f 17 43 3a 6f 31 a4 b3 3f
       0.07672413793103448 0.07672413793103448
000530 17 43 3a 6f 31 a4 b3 3f 17 43 3a 6f 31 a4 b3 3f
       0.07672413793103448 0.07672413793103448
000540 17 43 3a 6f 31 a4 b3 3f 17 43 3a 6f 31 a4 b3 3f
       0.07672413793103448 0.07672413793103448
000550 17 43 3a 6f 31 a4 b3 3f 17 43 3a 6f 31 a4 b3 3f
       0.07672413793103448 0.07672413793103448
000560 17 43 3a 6f 31 a4 b3 3f 17 43 3a 6f 31 a4 b3 3f
       0.07672413793103448 0.07672413793103448
000570 17 43 3a 6f 31 a4 b3 3f 17 43 3a 6f 31 a4 b3 3f
       0.07672413793103448 0.07672413793103448
000580 17 43 3a 6f 31 a4 b3 3f 17 43 3a 6f 31 a4 b3 3f
       0.07672413793103448 0.07672413793103448
000590 17 43 3a 6f 31 a4 b3 3f 17 43 3a 6f 31 a4 b3 3f
       0.07672413793103448 0.07672413793103448
0005a0 17 43 3a 6f 31 a4 b3 3f 17 43 3a 6f 31 a4 b3 3f
       0.07672413793103448 0.07672413793103448
0005b0 17 43 3a 6f 31 a4 b3 3f 17 43 3a 6f 31 a4 b3 3f
       0.07672413793103448 0.07672413793103448
0005c0 17 43 3a 6f 31 a4 b3 3f 17 43 3a 6f 31 a4 b3 3f
       0.07672413793103448 0.07672413793103448
0005d0 17 43 3a 6f 31 a4 b3 3f 17 43 3a 6f 31 a4 b3 3f
       0.07672413793103448 0.07672413793103448
0005e0 17 43 3a 6f 31 a4 b3 3f 17 43 3a 6f 31 a4 b3 3f
       0.07672413793103448 0.07672413793103448
0005f0 17 43 3a 6f 31 a4 b3 3f 17 43 3a 6f 31 a4 b3 3f
       0.07672413793103448 0.07672413793103448
000600 17 43 3a 6f 31 a4 b3 3f 17 43 3a 6f 31 a4 b3 3f
       0.07672413793103448 0.07672413793103448
000610 17 43 3a 6f 31 a4 b3 3f 17 43 3a 6f 31 a4 b3 3f
       0.07672413793103448 0.07672413793103448
000620 17 43 3a 6f 31 a4 b3 3f 17 43 3a 6f 31 a4 b3 3f
       0.07672413793103448 0.07672413793103448
000630 17 43 3a 6f 31 a4 b3 3f 17 43 3a 6f 31 a4 b3 3f
       0.07672413793103448 0.07672413793103448
000640 17 43 3a 6f 31 a4 b3 3f 17 43 3a 6f 31 a4 b3 3f
       0.07672413793103448 0.07672413793103448
000650 17 43 3a 6f 31 a4 b3 3f 17 43 3a 6f 31 a4 b3 3f
       0.07672413793103448 0.07672413793103448
000660 17 43 3a 6f 31 a4 b3 3f 17 43 3a 6f 31 a4 b3 3f
       0.07672413793103448 0.07672413793103448
000670 17 43 3a 6f 31 a4 b3 3f 17 43 3a 6f 31 a4 b3 3f
       0.07672413793103448 0.07672413793103448
000680 17 43 3a 6f 31 a4 b3 3f 17 43 3a 6f 31 a4 b3 3f
       0.07672413793103448 0.07672413793103448
000690 17 43 3a 6f 31 a4 b3 3f 17 43 3a 6f 31 a4 b3 3f
       0.07672413793103448 0.07672413793103448
0006a0 17 43 3a 6f 31 a4 b3 3f 17 43 3a 6f 31 a4 b3 3f
       0.07672413793103448 0.07672413793103448
0006b0 17 43 3a 6f 31 a4 b3 3f 17 43 3a 6f 31 a4 b3 3f
       0.07672413793103448 0.07672413793103448
0006c0 17 43 3a 6f 31 a4 b3 3f 17 43 3a 6f 31 a4 b3 3f
       0.07672413793103448 0.07672413793103448
0006d0 17 43 3a 6f 31 a4 b3 3f 17 43 3a 6f 31 a4 b3 3f
       0.07672413793103448 0.07672413793103448
0006e0 17 43 3a 6f 31 a4 b3 3f 17 43 3a 6f 31 a4 b3 3f
       0.07672413793103448 0.07672413793103448
0006f0 17 43 3a 6f 31 a4 b3 3f 17 43 3a 6f 31 a4 b3 3f
       0.07672413793103448 0.07672413793103448
000700 17 43 3a 6f 31 a4 b3 3f 17 43 3a 6f 31 a4 b3 3f
       0.07672413793103448 0.07672413793103448
000710 17 43 3a 6f 31 a4 b3 3f 17 43 3a 6f 31 a4 b3 3f
       0.07672413793103448 0.07672413793103448
000720 17 43 3a 6f 31 a4 b3 3f 17 43 3a 6f 31 a4 b3 3f
       0.07672413793103448 0.07672413793103448
000730 17 43 3a 6f 31 a4 b3 3f 17 43 3a 6f 31 a4 b3 3f
       0.07672413793103448 0.07672413793103448
000740 17 43 3a 6f 31 a4 b3 3f 17 43 3a 6f 31 a4 b3 3f
       0.07672413793103448 0.07672413793103448
000750 17 43 3a 6f 31 a4 b3 3f 17 43 3a 6f 31 a4 b3 3f
       0.07672413793103448 0.07672413793103448
000760 17 43 3a 6f 31 a4 b3 3f 17 43 3a 6f 31 a4 b3 3f
       0.07672413793103448 0.07672413793103448
000770 17 43 3a 6f 31 a4 b3 3f 17 43 3a 6f 31 a4 b3 3f
       0.07672413793103448 0.07672413793103448
000780 17 43 3a 6f 31 a4 b3 3f 17 43 3a 6f 31 a4 b3 3f
       0.07672413793103448 0.07672413793103448
000790 17 43 3a 6f 31 a4 b3 3f 17 43 3a 6f 31 a4 b3 3f
       0.07672413793103448 0.07672413793103448
0007a0 17 43 3a 6f 31 a4 b3 3f 17 43 3a 6f 31 a4 b3 3f
       0.07672413793103448 0.07672413793103448
0007b0 17 43 3a 6f 31 a4 b3 3f 17 43 3a 6f 31 a4 b3 3f
       0.07672413793103448 0.07672413793103448
0007c0 17 43 3a 6f 31 a4 b3 3f 17 43 3a 6f 31 a4 b3 3f
       0.07672413793103448 0.07672413793103448
0007d0 17 43 3a 6f 31 a4 b3 3f 17 43 3a 6f 31 a4 b3 3f
       0.07672413793103448 0.07672413793103448
0007e0 17 43 3a 6f 31 a4 b3 3f 17 43 3a 6f 31 a4 b3 3f
       0.07672413793103448 0.07672413793103448
0007f0 17 43 3a 6f 31 a4 b3 3f 17 43 3a 6f 31 a4 b3 3f
       0.07672413793103448 0.07672413793103448

zmax f8 []
000000 00 00 00 00 00 00 14 40
       5.0

hz_F f8 [401]
000000 56 ab 42 30 db 85 a8 3f 5a 95 33 21 db 85 a8 3f
       0.04789624179951228 0.04789624004642219
000010 a7 f1 fe 11 db 85 a8 3f 73 62 98 02 db 85 a8 3f
       0.047896238276254714 0.04789623648338628
000020 a3 47 fb f2 da 85 a8 3f 5e 75 25 e3 da 85 a8 3f
       0.04789623466571349 0.04789623282224896
000030 b4 6b 15 d3 da 85 a8 3f 8e da c9 c2 da 85 a8 3f
       0.04789623095231069 0.04789622905530165
000040 80 86 41 b2 da 85 a8 3f 20 34 7b a1 da 85 a8 3f
       0.04789622713066155 0.0478962251778301
000050 fe 88 75 90 da 85 a8 3f ce 45 2f 7f da 85 a8 3f
       0.0478962231961919 0.04789622118517976
000060 a9 09 a7 6d da 85 a8 3f 11 71 db 5b da 85 a8 3f
       0.047896219144166814 0.04789621707252157
000070 14 12 cb 49 da 85 a8 3f 3a 73 74 37 da 85 a8 3f
       0.047896214969601086 0.047896212834734844
000080 c0 19 d6 24 da 85 a8 3f ec 74 ee 11 da 85 a8 3f
       0.04789621066725003 0.0478962084664348
000090 d7 ee bb fe d9 85 a8 3f 21 eb 3c eb d9 85 a8 3f
       0.04789620623156814 0.04789620396191752
0000a0 de b4 6f d7 d9 85 a8 3f d5 95 52 c3 d9 85 a8 3f
       0.04789620165670681 0.047896199315157574
0000b0 4a c8 e3 ae d9 85 a8 3f 75 7d 21 9a d9 85 a8 3f
       0.04789619693646381 0.04789619451980346
0000c0 69 cb 09 85 d9 85 a8 3f ec c6 9a 6f d9 85 a8 3f
       0.04789619206430624 0.04789618956909955
0000d0 f8 73 d2 59 d9 85 a8 3f 4f c8 ae 43 d9 85 a8 3f
       0.04789618703328097 0.0478961844559228
0000e0 2d aa 2d 2d d9 85 a8 3f 43 e7 4c 16 d9 85 a8 3f
       0.047896181836069786 0.04789617917272306
0000f0 e6 42 0a ff d8 85 a8 3f f6 79 63 e7 d8 85 a8 3f
       0.04789617646486537 0.04789617371146797
000100 ac 1e 56 cf d8 85 a8 3f 97 cd df b6 d8 85 a8 3f
       0.04789617091142637 0.047896168063654425
000110 bc f4 fd 9d d8 85 a8 3f 21 02 ae 84 d8 85 a8 3f
       0.047896165166983334 0.047896162220244294
000120 30 42 ed 6a d8 85 a8 3f af f5 b8 50 d8 85 a8 3f
       0.0478961592222088 0.04789615617162767
000130 f6 40 0e 36 d8 85 a8 3f f8 34 ea 1a d8 85 a8 3f
       0.04789615306720123 0.04789614990759533
000140 0a c1 49 ff d7 85 a8 3f 4d c6 29 e3 d7 85 a8 3f
       0.04789614669141613 0.047896143417244554
000150 d7 06 87 c6 d7 85 a8 3f c8 2e 5e a9 d7 85 a8 3f
       0.04789614008360637 0.047896136688988344
000160 c2 c4 ab 8b d7 85 a8 3f 20 38 6c 6d d7 85 a8 3f
       0.04789613323181065 0.047896129710452096
000170 ef d7 9b 4e d7 85 a8 3f 35 d4 36 2f d7 85 a8 3f
       0.04789612612323412 0.04789612246842304
000180 c4 38 39 0f d7 85 a8 3f e1 f8 9e ee d6 85 a8 3f
       0.04789611874422087 0.04789611494878599
000190 ce d2 63 cd d6 85 a8 3f 42 6c 83 ab d6 85 a8 3f
       0.04789611108018264 0.04789610713643146
0001a0 46 40 f9 88 d6 85 a8 3f d4 a1 c0 65 d6 85 a8 3f
       0.04789610311547725 0.04789609901519368
0001b0 c5 b2 d4 41 d6 85 a8 3f a2 74 30 1d d6 85 a8 3f
       0.04789609483336713 0.047896090567726604
0001c0 3d b5 ce f7 d5 85 a8 3f f4 06 aa d1 d5 85 a8 3f
       0.04789608621590922 0.04789608177544649
0001d0 a5 d6 bc aa d5 85 a8 3f 9b 59 01 83 d5 85 a8 3f
       0.04789607724380333 0.04789607261834591
0001e0 a9 89 71 5a d5 85 a8 3f eb 2c 07 31 d5 85 a8 3f
       0.04789606789633478 0.04789606307493862
0001f0 df c8 bb 06 d5 85 a8 3f c7 9f 88 db d4 85 a8 3f
       0.04789605815121133 0.04789605312208738
000200 50 bc 66 af d4 85 a8 3f d7 d3 4e 82 d4 85 a8 3f
       0.0478960479844025 0.047896042734840875
000210 41 60 39 54 d4 85 a8 3f 99 8c 1e 25 d4 85 a8 3f
       0.047896037369981055 0.04789603188626152
000220 b8 2a f6 f4 d3 85 a8 3f 5d c5 b7 c3 d3 85 a8 3f
       0.04789602627996231 0.04789602054723716
000230 ea 88 5a 91 d3 85 a8 3f ce 40 d5 5d d3 85 a8 3f
       0.04789601468407219 0.047896008686281286
000240 90 60 1e 29 d3 85 a8 3f 8d ec 2b f3 d2 85 a8 3f
       0.0478960025495222 0.047895996269255205
000250 1e 7f f3 bb d2 85 a8 3f a0 48 6a 83 d2 85 a8 3f
       0.04789598984075226 0.04789598325909705
000260 be fa 84 49 d2 85 a8 3f 39 d0 37 0e d2 85 a8 3f
       0.04789597651914822 0.047895969615553154
000270 c9 7a 76 d1 d1 85 a8 3f 89 20 34 93 d1 85 a8 3f
       0.04789596254271584 0.04789595529479224
000280 b1 5a 63 53 d1 85 a8 3f 93 1f f6 11 d1 85 a8 3f
       0.04789594786568808 0.047895940249019685
000290 dc d0 dd ce d0 85 a8 3f 9b 0f 0b 8a d0 85 a8 3f
       0.04789593243813936 0.047895924426057244
0002a0 95 dc 6d 43 d0 85 a8 3f e4 6e f5 fa cf 85 a8 3f
       0.04789591620549875 0.04789590776883104
0002b0 87 2d 90 b0 cf 85 a8 3f 2d aa 2b 64 cf 85 a8 3f
       0.047895899108051636 0.047895890214779115
0002c0 5b 9d b4 15 cf 85 a8 3f 1b c6 16 c5 ce 85 a8 3f
       0.047895881080246304 0.04789587169524286
0002d0 a0 df 3c 72 ce 85 a8 3f de a3 10 1d ce 85 a8 3f
       0.04789586205009688 0.04789585213467949
0002e0 03 9d 7a c5 cd 85 a8 3f f7 34 62 6b cd 85 a8 3f
       0.04789584193832221 0.04789583144984449
0002f0 88 85 ad 0e cd 85 a8 3f 21 57 41 af cc 85 a8 3f
       0.047895820657468724 0.04789580954881801
000300 2d ff 00 4d cc 85 a8 3f 92 50 ce e7 cb 85 a8 3f
       0.047895798110856404 0.04789578632986137
000310 17 7a 89 7f cb 85 a8 3f 97 f5 10 14 cb 85 a8 3f
       0.047895774191364086 0.0478957616801196
000320 54 5d 41 a5 ca 85 a8 3f 2e 5b f5 32 ca 85 a8 3f
       0.04789574878003103 0.047895735474119724
000330 61 7b 05 bd c9 85 a8 3f 9f 09 48 43 c9 85 a8 3f
       0.047895721744444904 0.04789570757204164
000340 ff e8 90 c5 c8 85 a8 3f e6 6b b1 43 c8 85 a8 3f
       0.04789569293684969 0.0478956778176423
000350 a1 21 78 bd c7 85 a8 3f 1a a0 b0 32 c7 85 a8 3f
       0.047895662191936646 0.047895646035897424
000360 1e 50 23 a3 c6 85 a8 3f ae 39 95 0e c6 85 a8 3f
       0.047895629324244945 0.047895612030163334
000370 7e a9 c7 74 c5 85 a8 3f 2e 0a 78 d5 c4 85 a8 3f
       0.04789559412513976 0.04789557557889555
000380 20 75 5f 30 c4 85 a8 3f c0 7e 32 85 c3 85 a8 3f
       0.04789555635918874 0.047895536431722174
000390 d9 b7 a0 d3 c2 85 a8 3f 96 62 54 1b c2 85 a8 3f
       0.047895515759918524 0.047895494304787053
0003a0 6c f6 f1 5b c1 85 a8 3f 04 a4 17 95 c0 85 a8 3f
       0.047895472024703206 0.04789544887518818
0003b0 65 da 5c c6 bf 85 a8 3f 65 a5 51 ef be 85 a8 3f
       0.047895424808690724 0.047895399774300164
0003c0 93 1b 7e 0f be 85 a8 3f e7 9e 61 26 bd 85 a8 3f
       0.04789537371748689 0.047895346579762514
0003d0 8d 19 72 33 bc 85 a8 3f 35 2b 1b 36 bb 85 a8 3f
       0.047895318298333135 0.04789528880572506
0003e0 b0 2b bd 2d ba 85 a8 3f e0 2e ac 19 b9 85 a8 3f
       0.0478952580293347 0.04789522589098083
0003f0 b0 dc 2e f9 b7 85 a8 3f 78 11 7d cb b6 85 a8 3f
       0.04789519230637873 0.04789515718451559
000400 c6 91 be 8f b5 85 a8 3f 05 58 09 45 b4 85 a8 3f
       0.047895120427060386 0.04789508192759232
000410 80 d6 5f ea b2 85 a8 3f f8 fd ae 7e b1 85 a8 3f
       0.047895041570808594 0.0478949992316266
000420 02 0a cc 00 b0 85 a8 3f 00 e6 71 6f ae 85 a8 3f
       0.04789495477418272 0.047894908050647444
000430 05 80 3e c9 ac 85 a8 3f fa 88 af 0c ab 85 a8 3f
       0.047894858900008365 0.047894807146592513
000440 ca f4 1e 38 a9 85 a8 3f 07 d7 be 49 a7 85 a8 3f
       0.047894752598475046 0.04789469504559745
000450 0c f0 94 3f a5 85 a8 3f 50 6b 75 17 a3 85 a8 3f
       0.04789463425774451 0.04789456998215391
000460 b5 fe fc ce a0 85 a8 3f 7d 36 8a 63 9e 85 a8 3f
       0.04789450194084336 0.04789442982756229
000470 5e b4 35 d2 9b 85 a8 3f 72 7f c9 17 99 85 a8 3f
       0.04789435330426593 0.047894271997164575
000480 72 cc b6 30 96 85 a8 3f 1f 79 0a 19 93 85 a8 3f
       0.04789418549207704 0.047894093329192915
000490 65 91 5f cc 8f 85 a8 3f c5 db cf 45 8c 85 a8 3f
       0.047893994996942614 0.047893889924970824
0004a0 b2 d3 e1 7f 88 85 a8 3f 58 bd 73 74 84 85 a8 3f
       0.04789377747594105 0.047893656936021045
0004b0 28 45 a3 1c 80 85 a8 3f 55 f2 b0 70 7b 85 a8 3f
       0.04789352750379755 0.04789338827729198
0004c0 82 b1 de 67 76 85 a8 3f ab 5f 48 f8 70 85 a8 3f
       0.047893238238745375 0.047893076236675235
0004d0 d5 3e b5 16 6b 85 a8 3f 4b da 60 b6 64 85 a8 3f
       0.047892900964709696 0.047892710936527104
0004e0 54 6d b9 c8 5d 85 a8 3f d5 aa 11 3d 56 85 a8 3f
       0.04789250445602514 0.04789227958175039
0004f0 ca 0c 43 00 4e 85 a8 3f e5 32 3d fc 44 85 a8 3f
       0.04789203408429328 0.04789176539506971
000500 1d fd 7d 17 3b 85 a8 3f 63 d9 6c 34 30 85 a8 3f
       0.047891470544522564 0.047891146087226465
000510 ba 53 92 30 24 85 a8 3f 95 2d a3 e3 16 85 a8 3f
       0.047890788010739496 0.04789039162423162
000520 16 b2 53 1e 08 85 a8 3f 38 e6 e4 a8 f7 84 a8 3f
       0.04788995142175538 0.047889460913620174
000530 e0 fd 58 41 e5 84 a8 3f ed 23 37 99 d0 84 a8 3f
       0.04788891241741644 0.0478882967978008
000540 07 18 bf 52 b9 84 a8 3f 9f e1 63 fd 9e 84 a8 3f
       0.04788760314072254 0.04788681834355945
000550 08 4f 57 11 81 84 a8 3f 14 e5 de e9 5e 84 a8 3f
       0.04788592659647689 0.047884908722560265
000560 63 a5 12 be 37 84 a8 3f 2a e9 85 97 0a 84 a8 3f
       0.04788374133324671 0.04788239574095805
000570 83 3d 2d 46 d6 83 a8 3f 50 ac 96 50 99 83 a8 3f
       0.04788083655023014 0.047879019820663005
000580 14 08 33 df 51 83 a8 3f 54 74 f5 a0 fd 82 a8 3f
       0.047876890655530385 0.04787438001469782
000590 73 e0 e2 a6 99 82 a8 3f fa 70 36 33 22 82 a8 3f
       0.047871400472502844 0.04786784052996214
0005a0 c6 e4 60 77 92 81 a8 3f 2a 66 2d 3a e4 80 a8 3f
       0.04786355693108528 0.04785836420223817
0005b0 6c 42 72 5c 0f 80 a8 3f 68 e3 74 2e 09 7f a8 3f
       0.04785202029700461 0.04784420673462969
0005c0 41 60 de 81 c3 7d a8 3f 1c 61 ba 5a 2b 7c a8 3f
       0.04783450088797326 0.047822336983872143
0005d0 89 0b d9 13 27 7a a8 3f 61 20 7f b5 93 77 a8 3f
       0.0478069507339774 0.04778730001959342
0005e0 f1 74 91 1c 41 74 a8 3f c0 e1 07 5e ec 6f a8 3f
       0.04776195024235531 0.04772890708767674
0005f0 11 85 77 84 37 6a a8 3f 14 35 39 4c 9d 62 a8 3f
       0.04768537036921761 0.04762736850225671
000600 8e 8f 92 c5 5e 58 a8 3f 41 d8 a9 9d 67 4a a8 3f
       0.04754921113752096 0.047442663188960406
000610 d0 ba ff 06 24 37 a8 3f a7 c2 1a 83 40 1c a8 3f
       0.04729569039760906 0.047090545658084175
000620 d7 ea dd cc 47 f6 a7 3f 11 7e 86 95 0d c0 a7 3f
       0.046800845869219 0.046387123587234076
000630 87 b9 e0 16 ce 71 a7 3f 94 1c f5 3e e5 ff a6 3f
       0.045790138523773165 0.04492107766650935
000640 9e 82 8c a4 04 59 a6 3f 3a 59 87 e0 55 e3 a5 3f
       0.04364790447858023 0.042750056894578184
000650 e5 a5 ef 1d 67 79 a5 3f bb b9 20 e5 cc 19 a5 3f
       0.04194185486251082 0.04121246621103888
000660 9f 98 cb cc 4b c3 a4 3f 01 24 2e 23 d2 74 a4 3f
       0.0405524909490833 0.039953772348845014
000670 0f e9 8a 4a 72 2d a4 3f 45 2c 13 c5 5d ec a3 3f
       0.03940922889656139 0.038912706667894294
000680 11 56 fd e4 e0 b0 a3 3f f5 06 c5 11 5f 7a a3 3f
       0.038458850815612185 0.03804299442209739
000690 c2 9c 38 92 4f 48 a3 3f 01 e6 13 cb 3a 1a a3 3f
       0.037661062812099924 0.037309491433870086
0006a0 96 60 d8 e2 b7 ef a2 3f 58 fc ef bc 6a c8 a2 3f
       0.03698515552622543 0.03668530994763647
0006b0 ce a8 ad 3f 02 a4 a2 3f 7e 06 47 da 36 82 a2 3f
       0.0364075377209062 0.03614970602531019
0006c0 49 e9 55 41 c9 62 a2 3f 54 f6 c2 59 81 45 a2 3f
       0.03590992853692627 0.03568653317186646
0006d0 dd 4b 28 4b 2d 2a a2 3f d8 80 c3 b3 a0 10 a2 3f
       0.03547803442429374 0.035283109611329244
0006e0 4b 92 f2 f8 b3 f8 a1 3f 7d 7c fb af 43 e2 a1 3f
       0.03510057844076594 0.034929385406706516
0006f0 5e 76 85 1b 30 cd a1 3f 8b 4a b8 ba 5c b9 a1 3f
       0.03476858459428621 0.034617326538996705
000700 6c 73 6e e7 af a6 a1 3f 1d ca 4b 81 12 95 a1 3f
       0.03447484684077193 0.03434045627900082
000710 eb fd df a3 6f 84 a1 3f 02 da 43 66 b4 74 a1 3f
       0.0342135322134672 0.034093511088872944
000720 d2 0d dd a2 cf 65 a1 3f 71 2f 27 c6 b1 57 a1 3f
       0.03397988188819635 0.03387218040333451
000730 81 8b 8b a3 4c 4a a1 3f 61 f7 75 4f 93 3d a1 3f
       0.03376998421096911 0.03367290825825254
000740 5a 0b f3 fd 79 31 a1 3f 3a 88 3e e5 f5 25 a1 3f
       0.033580600976640354 0.033492740854186256
000750 be 42 be 23 fd 1a a1 3f b3 bf f8 a8 86 10 a1 3f
       0.033409033406433405 0.03332920849459189
000760 c2 65 26 21 8a 06 a1 3f 08 87 09 e3 ff fc a0 3f
       0.03325301794684378 0.03318023344469451
000770 c0 14 c5 df e0 f3 a0 3f 21 87 73 94 26 eb a0 3f
       0.03311064464154745 0.033044057485098095
000780 d7 d7 47 fd ca e2 a0 3f de 8a 09 8a c8 da a0 3f
       0.03298029271893171 0.032919184541943855
000790 99 00 c3 13 1a d3 a0 3f 28 73 7e d3 ba cb a0 3f
       0.03286057940704374 0.03280433494294349
0007a0 84 95 f2 59 a6 c4 a0 3f c0 bd 03 88 d8 bd a0 3f
       0.03275031898491945 0.032698408702227066
0007b0 c3 bf 01 88 4d b7 a0 3f 02 c9 8d c7 01 b1 a0 3f
       0.032648489811321756 0.03260045586547912
0007c0 92 c4 15 f2 f1 aa a0 3f 6f 5a d5 eb 1a a5 a0 3f
       0.03255420761241469 0.03250965241266079
0007d0 63 33 4e cd 79 9f a0 3f da 0b 2b df 0b 9a a0 3f
       0.03246670371218021 0.03242528056355072
0007e0 f8 85 82 96 ce 94 a0 3f 48 e2 6f 91 bf 8f a0 3f
       0.03238530719069027 0.03234671259264538
0007f0 6c f1 f8 93 dc 8a a0 3f 64 91 39 85 23 86 a0 3f
       0.032309430182496296 0.03227339745788774
