onecap_model_with_structure_ambiguity/output/upper_triangular_four_ambiguous_parameters/Delta_10.0_distorted_0/logadjustment_1_boundary_0/zmax_5.0_zscale_2.0/delta_0.02/q_0.05_gamma_2.0_rho_1.0/model.npz (npz, 126264 bytes, 58 tensors)

clowerlim f8 []
0.0001
00000000: 2d43 1ceb e236 1a3f

zmin f8 []
-5.0
00000000: 0000 0000 0000 14c0

Delta f8 []
10.0
00000000: 0000 0000 0000 2440

s1_F f8 [401]
-0.20636813502707818 -0.20534136623527735 -0.204314600265184 -0.20328784547061246 -0.20226110423460872 -0.20123437734202876 -0.2002076651504276 -0.199180967904755
-0.19815428582215205 -0.19712761911515 -0.1961009679980387 -0.19507433268844998 -0.19404771340815902 -0.19302111038323178 -0.19199452384407492 -0.19096795402575087
-0.18994140116793146 -0.18891486551508055 -0.18788834731657267 -0.1868618468268519 -0.18583536430547265 -0.18480890001737865 -0.18378245423283826 -0.18275602722777612
-0.18172961928388673 -0.18070323068866737 -0.17967686173568906 -0.17865051272473828 -0.1776241839619726 -0.17659787576009772 -0.17557158843853854 -0.17454532232362047
-0.17351907774886977 -0.17249285505491607 -0.17146665459012012 -0.17044047671043064 -0.169414321779769 -0.1683881901702065 -0.16736208226225163 -0.1663359984450389
-0.1653099391166161 -0.16428390468417148 -0.16325789556430742 -0.16223191218335553 -0.16120595497766857 -0.16018002439385715 -0.15915412088916647 -0.15812824493176925
-0.15710239700111517 -0.156076577588257 -0.1550507871962502 -0.15402502634047208 -0.15299929554908476 -0.15197359536333868 -0.15094792633812507 -0.14992228904223953
-0.14889668405903395 -0.14787111198674585 -0.14684557343898302 -0.14582006904535955 -0.14479459945190862 -0.14376916532164297 -0.1427437673351698 -0.14171840619132792
-0.1406930826076843 -0.1396677973213092 -0.13864255108936782 -0.1376173446898607 -0.13659217892237113 -0.1355670546088135 -0.13454197259419245 -0.13351693374754373
-0.13249193896268754 -0.13146698915921667 -0.1304420852834406 -0.1294172283093404 -0.12839241923963476 -0.12736765910685194 -0.1263429489745192 -0.1253182899382734
-0.12429368312716337 -0.12326912970492801 -0.12224463087139392 -0.1212201878638715 -0.1201958019586879 -0.11917147447273063 -0.1181472067651539 -0.11712300023910249
-0.11609885634345471 -0.11507477657486957 -0.11405076247974272 -0.11302681565625236 -0.11200293775676153 -0.11097913048996928 -0.109955395623568 -0.10893173498668719
-0.10790815047275384 -0.10688464404234119 -0.10586121772622771 -0.10483787362863577 -0.10381461393061889 -0.10279144089368954 -0.10176835686358145 -0.10074536427434139
-0.09972246565256451 -0.09869966362187418 -0.09767696090775402 -0.09665436034262884 -0.09563186487123505 -0.09460947755628786 -0.09358720158466603 -0.09256504027375696
-0.09154299707842443 -0.09052107559821324 -0.08949927958526496 -0.08847761295249344 -0.08745607978254888 -0.08643468433721448 -0.08541343106751785 -0.08439232462454702
-0.08337136987099868 -0.08235057189355255 -0.0813299360161687 -0.0803094678142684 -0.07928917313007114 -0.07826905808897167 -0.07724912911721833 -0.07622939296095382
-0.07520985670667879 -0.07419052780337923 -0.07317141408642 -0.07215252380334514 -0.07113386564179558 -0.0701154487598393 -0.06909728281875033 -0.0680793780186955
-0.06706174513749198 -0.06604439557287277 -0.06502734138844489 -0.06401059536396997 -0.06299417105026542 -0.06197808282933199 -0.060962345980283605 -0.05994697675169971
-0.058931992441239416 -0.05791741148333144 -0.0569032535459259 -0.055889539637470766 -0.05487629222537853 -0.05386353536745761 -0.052851294858065875 -0.05183959839090729
-0.05082847574080288 -0.04981795896708025 -0.04880808264166914 -0.0477988841055527 -0.046790403757757074 -0.0457826853819547 -0.04477577651650066 -0.043769728874904955
-0.04276459882502637 -0.0417604479368949 -0.04075734361100197 -0.03975535980130816 -0.038754577850211996 -0.03775508745633577 -0.03675698780064516 -0.03576038886200516
-0.03476541296060035 -0.03377219657656498 -0.03278089250280589 -0.031791672405593434 -0.030804729885379387 -0.029820284154560273 -0.028838584480429544 -0.027859915582561443
-0.026884604227652924 -0.02591302733565301 -0.02494562200454995 -0.023982897985550145 -0.023025453305976808 -0.022073993958273364 -0.02112935886888567 -0.020192551754517507
-0.019264781995087757 -0.01834751733655544 -0.017442552114141037 -0.01655209577053104 -0.015678887691567785 -0.014826345614455495 -0.013998755605566966 -0.013201510788015158
-0.012441401463614464 -0.01172694708391843 -0.011068734459301498 -0.010479679171986774 -0.00997505550818874 -0.009572061657490452 -0.009288663138817878 -0.009141599610813058
-0.00914382970524432 -0.009296179187726267 -0.009601678685896363 -0.01005215205504252 -0.010634362834763786 -0.01133248179444614 -0.012130241764056091 -0.013012379271218484
-0.013965368492695127 -0.01497764400664281 -0.01603952680650551 -0.01714301274895421 -0.018281519550434677 -0.019449641690948677 -0.02064293410234059 -0.02185773032694976
-0.023090993694035947 -0.024340197280896394 -0.025603227790607107 -0.026878308787116563 -0.028163939375122734 -0.02945884511424303 -0.030761938596949936 -0.03207228765975379
-0.0333890896346955 -0.034711650394932785 -0.03603936721963653 -0.037371714714451915 -0.038708233187548825 -0.04004851900814747 -0.04139221657315677 -0.0427390115841854
-0.04408862539732673 -0.045440810255055954 -0.04679534524665613 -0.048152032872887884 -0.04951069611384829 -0.05087117591758731 -0.052233329041808864 -0.053597026193062836
-0.05496215041737807 -0.05632859570423556 -0.05769626577213518 -0.05906507300912553 -0.060434937546146476 -0.06180578644439733 -0.06317755298096454 -0.06455017601930241
-0.06592359945322432 -0.06729777171473227 -0.06867264533739116 -0.07004817656822986 -0.0714243250219932 -0.07280105337263737 -0.07417832707743502 -0.07555611412984663
00000000: 2c5c 7063 456a cabf 7d8c 3f3a a048 cabf
00000010: d4fc 1d17 fb26 cabf 0a3c fc0b 5605 cabf
00000020: 0762 f81d b1e3 c9bf 74e9 c14e 0cc2 c9bf
00000030: b663 1d9f 67a0 c9bf 6b7a 910f c37e c9bf
00000040: 768d 95a0 1e5d c9bf f573 9e52 7a3b c9bf
00000050: 85fc 2126 d619 c9bf 1ccc 971b 32f8 c8bf
00000060: cece 7933 8ed6 c8bf 904c 446e eab4 c8bf
00000070: 3df0 75cc 4693 c8bf edf3 8f4e a371 c8bf
00000080: 701a 16f5 ff4f c8bf 01c9 8ec0 5c2e c8bf
00000090: f817 83b1 b90c c8bf 27e9 7ec8 16eb c7bf
000000a0: 98ed 1006 74c9 c7bf cecc ca6a d1a7 c7bf
000000b0: ad1b 41f7 2e86 c7bf 268b 0bac 8c64 c7bf
000000c0: 33f8 c489 ea42 c7bf 7970 0b91 4821 c7bf
000000d0: 6b58 80c2 a6ff c6bf 3b7f c81e 05de c6bf
000000e0: c234 8ca6 63bc c6bf 6a62 775a c29a c6bf
000000f0: 42a3 393b 2179 c6bf 825d 8649 8057 c6bf
00000100: d0ec 1486 df35 c6bf 8894 a0f1 3e14 c6bf
00000110: 14d8 e88c 9ef2 c5bf c966 b158 fed0 c5bf
00000120: 0852 c255 5eaf c5bf 3226 e884 be8d c5bf
00000130: 1613 f4e6 1e6c c5bf 8506 bc7c 7f4a c5bf
00000140: bdd4 1a47 e028 c5bf 6658 f046 4107 c5bf
00000150: 1299 217d a2e5 c4bf 98f7 98ea 03c4 c4bf
00000160: 2957 4690 65a2 c4bf a03e 1f6f c780 c4bf
00000170: 880d 1f88 295f c4bf 5425 47dc 8b3d c4bf
00000180: 901a 9f6c ee1b c4bf c4e2 343a 51fa c3bf
00000190: b40c 1d46 b4d8 c3bf 47ed 7291 17b7 c3bf
000001a0: b4e0 581d 7b95 c3bf 3575 f8ea de73 c3bf
000001b0: c9b8 82fb 4252 c3bf 4e5e 3050 a730 c3bf
000001c0: 3e19 42ea 0b0f c3bf 0ccc 00cb 70ed c2bf
000001d0: 56cc bdf3 d5cb c2bf 6a3c d365 3baa c2bf
000001e0: 5f45 a422 a188 c2bf f465 9d2b 0767 c2bf
000001f0: 1cc9 3482 6d45 c2bf a89f ea27 d423 c2bf
00000200: 2b66 491e 3b02 c2bf 1152 e666 a2e0 c1bf
00000210: dfa4 6103 0abf c1bf 6e14 67f5 719d c1bf
00000220: 1634 ae3e da7b c1bf 01de fae0 425a c1bf
00000230: 059e 1dde ab38 c1bf 0936 f437 1517 c1bf
00000240: 1108 6af0 7ef5 c0bf 4aa1 7809 e9d3 c0bf
00000250: ec3e 2885 53b2 c0bf 9f54 9065 be90 c0bf
00000260: 7d22 d8ac 296f c0bf f64b 375d 954d c0bf
00000270: 327f f678 012c c0bf 5f11 7002 6e0a c0bf
00000280: f76b 21f8 b5d1 bfbf 7265 b0d0 908e bfbf
00000290: 5848 b493 6c4b bfbf 9384 7d46 4908 bfbf
000002a0: 4c70 87ee 26c5 bebf 64fa 7991 0582 bebf
000002b0: c18a 2b35 e53e bebf 88e7 a2df c5fb bdbf
000002c0: b61f 1997 a7b8 bdbf 5bcb fb61 8a75 bdbf
000002d0: 2432 ef46 6e32 bdbf 3e8b d04c 53ef bcbf
000002e0: 81a1 b87a 39ac bcbf f530 fed7 2069 bcbf
000002f0: c5d2 386c 0926 bcbf 21ad 433f f3e2 bbbf
00000300: 5a98 4059 de9f bbbf be40 9bc2 ca5c bbbf
00000310: a183 0c84 b819 bbbf f3fe 9da6 a7d6 babf
00000320: b2ca ad33 9893 babf 0976 f234 8a50 babf
00000330: 512a 7fb4 7d0d babf cc2a c8bc 72ca b9bf
00000340: ca7c a758 6987 b9bf 9ed4 6193 6144 b9bf
00000350: b8e5 ab78 5b01 b9bf cef8 af14 57be b8bf
00000360: 7dd3 1374 547b b8bf 75f3 fea3 5338 b8bf
00000370: 575b 21b2 54f5 b7bf ad8c baac 57b2 b7bf
00000380: 2b31 a1a2 5c6f b7bf 9a06 4ba3 632c b7bf
00000390: f292 d5be 6ce9 b6bf 8721 0f06 78a6 b6bf
000003a0: 389e 808a 8563 b6bf 59ea 775e 9520 b6bf
000003b0: cffa 1295 a7dd b5bf 7ebc 4b42 bc9a b5bf
000003c0: d7c6 047b d357 b5bf e8f6 1655 ed14 b5bf
000003d0: 3a0e 60e7 09d2 b4bf 604a d249 298f b4bf
000003e0: f241 8595 4b4c b4bf 48e6 c7e4 7009 b4bf
000003f0: 7df3 3353 99c6 b3bf ecdf c2fd c483 b3bf
00000400: 305c e402 f440 b3bf 72a7 9682 26fe b2bf
00000410: d6d4 809e 5cbb b2bf a029 0f7a 9678 b2bf
00000420: 58cf 913a d435 b2bf f62c 5e07 16f3 b1bf
00000430: 5cf1 f209 5cb0 b1bf 4350 1f6e a66d b1bf
00000440: 819f 2d62 f52a b1bf b7cf 1117 49e8 b0bf
00000450: 67f4 9bc0 a1a5 b0bf ac8c af95 ff62 b0bf
00000460: 8ae0 7fd0 6220 b0bf a93a a45d 97bb afbf
00000470: 90a6 8be4 7436 afbf d305 49c1 5eb1 aebf
00000480: d74c 7288 552c aebf 6538 61d8 59a7 adbf
00000490: 1810 085a 6c22 adbf bde4 dcc1 8d9d acbf
000004a0: 2613 ded0 be18 acbf 7449 b355 0094 abbf
000004b0: 36ec ee2d 530f abbf c814 7447 b88a aabf
000004c0: 4549 06a2 3006 aabf a9be 0851 bd81 a9bf
000004d0: 30ef 737d 5ffd a8bf 958b 0968 1879 a8bf
000004e0: baf9 cf6b e9f4 a7bf fb89 e000 d470 a7bf
000004f0: 1f2f 95bf d9ec a6bf 331f 2564 fc68 a6bf
00000500: b095 c2d2 3de5 a5bf 1c80 4f1c a061 a5bf
00000510: f81d c383 25de a4bf eee9 5f84 d05a a4bf
00000520: 74b7 dfd8 a3d7 a3bf c8e1 c383 a254 a3bf
00000530: eda8 01d9 cfd1 a2bf cf21 4f89 2f4f a2bf
00000540: a53a 65af c5cc a1bf a6f0 9edf 964a a1bf
00000550: 9d6b 773a a8c8 a0bf 6fca 8882 ff46 a0bf
00000560: d9e4 ad6d 468b 9fbf fd17 ce64 3589 9ebf
00000570: c454 d3a4 dc87 9dbf 4c89 2f49 4f87 9cbf
00000580: 3ed7 b13f a387 9bbf 18b6 c9d3 f188 9abf
00000590: 1a6e c05a 588b 99bf 1083 0b0a f98e 98bf
000005a0: 7af0 b203 fc93 97bf a050 92a8 909a 96bf
000005b0: bf2a 4f45 efa2 95bf 203e a235 5bad 94bf
000005c0: c4ac 88a2 25ba 93bf 3375 b10b b1c9 92bf
000005d0: 0259 8edb 75dc 91bf 170b 0f58 08f3 90bf
000005e0: 22e4 7d57 200e 90bf fa27 446c 465d 8ebf
000005f0: 04b9 152c 61ab 8cbf 5310 bdc8 6409 8bbf
00000600: 6c96 38a3 e07a 89bf 48a8 a831 4c04 88bf
00000610: 9922 1664 34ab 86bf feb0 87ba 5e76 85bf
00000620: 69b7 7749 cd6d 84bf b598 315e 849a 83bf
00000630: 21ff 3c43 ef05 83bf fb7d e4ba d4b8 82bf
00000640: cc8e 5a0c 00ba 82bf b05a b60c e009 83bf
00000650: 0c7f 8a7f 0baa 83bf 8888 a502 3996 84bf
00000660: 6b7e b604 78c7 85bf 486d 84f5 7b35 87bf
00000670: 8582 5a7d bdd7 88bf 91e3 4dfb 3ba6 8abf
00000680: b828 9f07 e099 8cbf 40f2 6f59 99ac 8ebf
00000690: 531c 4f6c aa6c 90bf 7659 721c f08d 91bf
000006a0: 0378 5c02 64b8 92bf 8819 ed5b 9bea 93bf
000006b0: b2bf 73db 6b23 95bf ef17 ad73 df61 96bf
000006c0: b1fa fd5a 2aa5 97bf 57d4 32fd a2ec 98bf
000006d0: 067b 2188 bb37 9abf d28d d9c4 fc85 9bbf
000006e0: ffb3 2bfa 01d7 9cbf 84d9 5fa1 752a 9ebf
000006f0: 741c f1c0 0e80 9fbf 518d 3665 c76b a0bf
00000700: d867 0cf0 5f18 a1bf 470c 79b6 b9c5 a1bf
00000710: f15b 277f c073 a2bf 44ef fca8 6222 a3bf
00000720: e5bf 40c7 90d1 a3bf 2655 c94e 3d81 a4bf
00000730: 7637 fb50 5c31 a5bf 16ee 0842 e3e1 a5bf
00000740: c20a 6ac8 c892 a6bf 6dfe e593 0444 a7bf
00000750: 48fb e03a 8ff5 a7bf b895 d91c 62a7 a8bf
00000760: a1eb 3849 7759 a9bf 250d c069 c90b aabf
00000770: 5dd6 fdaf 53be aabf 90f9 52c5 1171 abbf
00000780: 21f6 1ebd ff23 acbf 5333 c208 1ad7 acbf
00000790: 236f 2f6d 5d8a adbf 9cf1 d1f9 c63d aebf
000007a0: 0fcf 9700 54f1 aebf 09e9 f60e 02a5 afbf
000007b0: 3b01 e573 672c b0bf e435 f43e 5c86 b0bf
000007c0: eeaa af77 5ee0 b0bf 4fc3 9b40 6d3a b1bf
000007d0: 5199 dacd 8794 b1bf 6b46 8163 adee b1bf
000007e0: dcbb 1b54 dd48 b2bf 548e 59ff 16a3 b2bf
000007f0: 729c ded0 59fd b2bf 3f56 333f a557 b3bf

d f8 [401]
0.07672413793103448 0.07672413793103448 0.07672413793103448 0.07672413793103448 0.07672413793103448 0.07672413793103448 0.07672413793103448 0.07672413793103448
0.07672413793103448 0.07672413793103448 0.07672413793103448 0.07672413793103448 0.07672413793103448 0.07672413793103448 0.07672413793103448 0.07672413793103448
0.07672413793103448 0.07672413793103448 0.07672413793103448 0.07672413793103448 0.07672413793103448 0.07672413793103448 0.07672413793103448 0.07672413793103448
0.07672413793103448 0.07672413793103448 0.07672413793103448 0.07672413793103448 0.07672413793103448 0.07672413793103448 0.07672413793103448 0.07672413793103448
0.07672413793103448 0.07672413793103448 0.07672413793103448 0.07672413793103448 0.07672413793103448 0.07672413793103448 0.07672413793103448 0.07672413793103448
0.07672413793103448 0.07672413793103448 0.07672413793103448 0.07672413793103448 0.07672413793103448 0.07672413793103448 0.07672413793103448 0.07672413793103448
0.07672413793103448 0.07672413793103448 0.07672413793103448 0.07672413793103448 0.07672413793103448 0.07672413793103448 0.07672413793103448 0.07672413793103448
0.07672413793103448 0.07672413793103448 0.07672413793103448 0.07672413793103448 0.07672413793103448 0.07672413793103448 0.07672413793103448 0.07672413793103448
0.07672413793103448 0.07672413793103448 0.07672413793103448 0.07672413793103448 0.07672413793103448 0.07672413793103448 0.07672413793103448 0.07672413793103448
0.07672413793103448 0.07672413793103448 0.07672413793103448 0.07672413793103448 0.07672413793103448 0.07672413793103448 0.07672413793103448 0.07672413793103448
0.07672413793103448 0.07672413793103448 0.07672413793103448 0.07672413793103448 0.07672413793103448 0.07672413793103448 0.07672413793103448 0.07672413793103448
0.07672413793103448 0.07672413793103448 0.07672413793103448 0.07672413793103448 0.07672413793103448 0.07672413793103448 0.07672413793103448 0.07672413793103448
0.07672413793103448 0.07672413793103448 0.07672413793103448 0.07672413793103448 0.07672413793103448 0.07672413793103448 0.07672413793103448 0.07672413793103448
0.07672413793103448 0.07672413793103448 0.07672413793103448 0.07672413793103448 0.07672413793103448 0.07672413793103448 0.07672413793103448 0.07672413793103448
0.07672413793103448 0.07672413793103448 0.07672413793103448 0.07672413793103448 0.07672413793103448 0.07672413793103448 0.07672413793103448 0.07672413793103448
0.07672413793103448 0.07672413793103448 0.07672413793103448 0.07672413793103448 0.07672413793103448 0.07672413793103448 0.07672413793103448 0.07672413793103448
0.07672413793103448 0.07672413793103448 0.07672413793103448 0.07672413793103448 0.07672413793103448 0.07672413793103448 0.07672413793103448 0.07672413793103448
0.07672413793103448 0.07672413793103448 0.07672413793103448 0.07672413793103448 0.07672413793103448 0.07672413793103448 0.07672413793103448 0.07672413793103448
0.07672413793103448 0.07672413793103448 0.07672413793103448 0.07672413793103448 0.07672413793103448 0.07672413793103448 0.07672413793103448 0.07672413793103448
0.07672413793103448 0.07672413793103448 0.07672413793103448 0.07672413793103448 0.07672413793103448 0.07672413793103448 0.07672413793103448 0.07672413793103448
0.07672413793103448 0.07672413793103448 0.07672413793103448 0.07672413793103448 0.07672413793103448 0.07672413793103448 0.07672413793103448 0.07672413793103448
0.07672413793103448 0.07672413793103448 0.07672413793103448 0.07672413793103448 0.07672413793103448 0.07672413793103448 0.07672413793103448 0.07672413793103448
0.07672413793103448 0.07672413793103448 0.07672413793103448 0.07672413793103448 0.07672413793103448 0.07672413793103448 0.07672413793103448 0.07672413793103448
0.07672413793103448 0.07672413793103448 0.07672413793103448 0.07672413793103448 0.07672413793103448 0.07672413793103448 0.07672413793103448 0.07672413793103448
0.07672413793103448 0.07672413793103448 0.07672413793103448 0.07672413793103448 0.07672413793103448 0.07672413793103448 0.07672413793103448 0.07672413793103448
0.07672413793103448 0.07672413793103448 0.07672413793103448 0.07672413793103448 0.07672413793103448 0.07672413793103448 0.07672413793103448 0.07672413793103448
0.07672413793103448 0.07672413793103448 0.07672413793103448 0.07672413793103448 0.07672413793103448 0.07672413793103448 0.07672413793103448 0.07672413793103448
0.07672413793103448 0.07672413793103448 0.07672413793103448 0.07672413793103448 0.07672413793103448 0.07672413793103448 0.07672413793103448 0.07672413793103448
0.07672413793103448 0.07672413793103448 0.07672413793103448 0.07672413793103448 0.07672413793103448 0.07672413793103448 0.07672413793103448 0.07672413793103448
0.07672413793103448 0.07672413793103448 0.07672413793103448 0.07672413793103448 0.07672413793103448 0.07672413793103448 0.07672413793103448 0.07672413793103448
0.07672413793103448 0.07672413793103448 0.07672413793103448 0.07672413793103448 0.07672413793103448 0.07672413793103448 0.07672413793103448 0.07672413793103448
0.07672413793103448 0.07672413793103448 0.07672413793103448 0.07672413793103448 0.07672413793103448 0.07672413793103448 0.07672413793103448 0.07672413793103448
00000000: 1743 3a6f 31a4 b33f 1743 3a6f 31a4 b33f
00000010: 1743 3a6f 31a4 b33f 1743 3a6f 31a4 b33f
00000020: 1743 3a6f 31a4 b33f 1743 3a6f 31a4 b33f
00000030: 1743 3a6f 31a4 b33f 1743 3a6f 31a4 b33f
00000040: 1743 3a6f 31a4 b33f 1743 3a6f 31a4 b33f
00000050: 1743 3a6f 31a4 b33f 1743 3a6f 31a4 b33f
00000060: 1743 3a6f 31a4 b33f 1743 3a6f 31a4 b33f
00000070: 1743 3a6f 31a4 b33f 1743 3a6f 31a4 b33f
00000080: 1743 3a6f 31a4 b33f 1743 3a6f 31a4 b33f
00000090: 1743 3a6f 31a4 b33f 1743 3a6f 31a4 b33f
000000a0: 1743 3a6f 31a4 b33f 1743 3a6f 31a4 b33f
000000b0: 1743 3a6f 31a4 b33f 1743 3a6f 31a4 b33f
000000c0: 1743 3a6f 31a4 b33f 1743 3a6f 31a4 b33f
000000d0: 1743 3a6f 31a4 b33f 1743 3a6f 31a4 b33f
000000e0: 1743 3a6f 31a4 b33f 1743 3a6f 31a4 b33f
000000f0: 1743 3a6f 31a4 b33f 1743 3a6f 31a4 b33f
00000100: 1743 3a6f 31a4 b33f 1743 3a6f 31a4 b33f
00000110: 1743 3a6f 31a4 b33f 1743 3a6f 31a4 b33f
00000120: 1743 3a6f 31a4 b33f 1743 3a6f 31a4 b33f
00000130: 1743 3a6f 31a4 b33f 1743 3a6f 31a4 b33f
00000140: 1743 3a6f 31a4 b33f 1743 3a6f 31a4 b33f
00000150: 1743 3a6f 31a4 b33f 1743 3a6f 31a4 b33f
00000160: 1743 3a6f 31a4 b33f 1743 3a6f 31a4 b33f
00000170: 1743 3a6f 31a4 b33f 1743 3a6f 31a4 b33f
00000180: 1743 3a6f 31a4 b33f 1743 3a6f 31a4 b33f
00000190: 1743 3a6f 31a4 b33f 1743 3a6f 31a4 b33f
000001a0: 1743 3a6f 31a4 b33f 1743 3a6f 31a4 b33f
000001b0: 1743 3a6f 31a4 b33f 1743 3a6f 31a4 b33f
000001c0: 1743 3a6f 31a4 b33f 1743 3a6f 31a4 b33f
000001d0: 1743 3a6f 31a4 b33f 1743 3a6f 31a4 b33f
000001e0: 1743 3a6f 31a4 b33f 1743 3a6f 31a4 b33f
000001f0: 1743 3a6f 31a4 b33f 1743 3a6f 31a4 b33f
00000200: 1743 3a6f 31a4 b33f 1743 3a6f 31a4 b33f
00000210: 1743 3a6f 31a4 b33f 1743 3a6f 31a4 b33f
00000220: 1743 3a6f 31a4 b33f 1743 3a6f 31a4 b33f
00000230: 1743 3a6f 31a4 b33f 1743 3a6f 31a4 b33f
00000240: 1743 3a6f 31a4 b33f 1743 3a6f 31a4 b33f
00000250: 1743 3a6f 31a4 b33f 1743 3a6f 31a4 b33f
00000260: 1743 3a6f 31a4 b33f 1743 3a6f 31a4 b33f
00000270: 1743 3a6f 31a4 b33f 1743 3a6f 31a4 b33f
00000280: 1743 3a6f 31a4 b33f 1743 3a6f 31a4 b33f
00000290: 1743 3a6f 31a4 b33f 1743 3a6f 31a4 b33f
000002a0: 1743 3a6f 31a4 b33f 1743 3a6f 31a4 b33f
000002b0: 1743 3a6f 31a4 b33f 1743 3a6f 31a4 b33f
000002c0: 1743 3a6f 31a4 b33f 1743 3a6f 31a4 b33f
000002d0: 1743 3a6f 31a4 b33f 1743 3a6f 31a4 b33f
000002e0: 1743 3a6f 31a4 b33f 1743 3a6f 31a4 b33f
000002f0: 1743 3a6f 31a4 b33f 1743 3a6f 31a4 b33f
00000300: 1743 3a6f 31a4 b33f 1743 3a6f 31a4 b33f
00000310: 1743 3a6f 31a4 b33f 1743 3a6f 31a4 b33f
00000320: 1743 3a6f 31a4 b33f 1743 3a6f 31a4 b33f
00000330: 1743 3a6f 31a4 b33f 1743 3a6f 31a4 b33f
00000340: 1743 3a6f 31a4 b33f 1743 3a6f 31a4 b33f
00000350: 1743 3a6f 31a4 b33f 1743 3a6f 31a4 b33f
00000360: 1743 3a6f 31a4 b33f 1743 3a6f 31a4 b33f
00000370: 1743 3a6f 31a4 b33f 1743 3a6f 31a4 b33f
00000380: 1743 3a6f 31a4 b33f 1743 3a6f 31a4 b33f
00000390: 1743 3a6f 31a4 b33f 1743 3a6f 31a4 b33f
000003a0: 1743 3a6f 31a4 b33f 1743 3a6f 31a4 b33f
000003b0: 1743 3a6f 31a4 b33f 1743 3a6f 31a4 b33f
000003c0: 1743 3a6f 31a4 b33f 1743 3a6f 31a4 b33f
000003d0: 1743 3a6f 31a4 b33f 1743 3a6f 31a4 b33f
000003e0: 1743 3a6f 31a4 b33f 1743 3a6f 31a4 b33f
000003f0: 1743 3a6f 31a4 b33f 1743 3a6f 31a4 b33f
00000400: 1743 3a6f 31a4 b33f 1743 3a6f 31a4 b33f
00000410: 1743 3a6f 31a4 b33f 1743 3a6f 31a4 b33f
00000420: 1743 3a6f 31a4 b33f 1743 3a6f 31a4 b33f
00000430: 1743 3a6f 31a4 b33f 1743 3a6f 31a4 b33f
00000440: 1743 3a6f 31a4 b33f 1743 3a6f 31a4 b33f
00000450: 1743 3a6f 31a4 b33f 1743 3a6f 31a4 b33f
00000460: 1743 3a6f 31a4 b33f 1743 3a6f 31a4 b33f
00000470: 1743 3a6f 31a4 b33f 1743 3a6f 31a4 b33f
00000480: 1743 3a6f 31a4 b33f 1743 3a6f 31a4 b33f
00000490: 1743 3a6f 31a4 b33f 1743 3a6f 31a4 b33f
000004a0: 1743 3a6f 31a4 b33f 1743 3a6f 31a4 b33f
000004b0: 1743 3a6f 31a4 b33f 1743 3a6f 31a4 b33f
000004c0: 1743 3a6f 31a4 b33f 1743 3a6f 31a4 b33f
000004d0: 1743 3a6f 31a4 b33f 1743 3a6f 31a4 b33f
000004e0: 1743 3a6f 31a4 b33f 1743 3a6f 31a4 b33f
000004f0: 1743 3a6f 31a4 b33f 1743 3a6f 31a4 b33f
00000500: 1743 3a6f 31a4 b33f 1743 3a6f 31a4 b33f
00000510: 1743 3a6f 31a4 b33f 1743 3a6f 31a4 b33f
00000520: 1743 3a6f 31a4 b33f 1743 3a6f 31a4 b33f
00000530: 1743 3a6f 31a4 b33f 1743 3a6f 31a4 b33f
00000540: 1743 3a6f 31a4 b33f 1743 3a6f 31a4 b33f
00000550: 1743 3a6f 31a4 b33f 1743 3a6f 31a4 b33f
00000560: 1743 3a6f 31a4 b33f 1743 3a6f 31a4 b33f
00000570: 1743 3a6f 31a4 b33f 1743 3a6f 31a4 b33f
00000580: 1743 3a6f 31a4 b33f 1743 3a6f 31a4 b33f
00000590: 1743 3a6f 31a4 b33f 1743 3a6f 31a4 b33f
000005a0: 1743 3a6f 31a4 b33f 1743 3a6f 31a4 b33f
000005b0: 1743 3a6f 31a4 b33f 1743 3a6f 31a4 b33f
000005c0: 1743 3a6f 31a4 b33f 1743 3a6f 31a4 b33f
000005d0: 1743 3a6f 31a4 b33f 1743 3a6f 31a4 b33f
000005e0: 1743 3a6f 31a4 b33f 1743 3a6f 31a4 b33f
000005f0: 1743 3a6f 31a4 b33f 1743 3a6f 31a4 b33f
00000600: 1743 3a6f 31a4 b33f 1743 3a6f 31a4 b33f
00000610: 1743 3a6f 31a4 b33f 1743 3a6f 31a4 b33f
00000620: 1743 3a6f 31a4 b33f 1743 3a6f 31a4 b33f
00000630: 1743 3a6f 31a4 b33f 1743 3a6f 31a4 b33f
00000640: 1743 3a6f 31a4 b33f 1743 3a6f 31a4 b33f
00000650: 1743 3a6f 31a4 b33f 1743 3a6f 31a4 b33f
00000660: 1743 3a6f 31a4 b33f 1743 3a6f 31a4 b33f
00000670: 1743 3a6f 31a4 b33f 1743 3a6f 31a4 b33f
00000680: 1743 3a6f 31a4 b33f 1743 3a6f 31a4 b33f
00000690: 1743 3a6f 31a4 b33f 1743 3a6f 31a4 b33f
000006a0: 1743 3a6f 31a4 b33f 1743 3a6f 31a4 b33f
000006b0: 1743 3a6f 31a4 b33f 1743 3a6f 31a4 b33f
000006c0: 1743 3a6f 31a4 b33f 1743 3a6f 31a4 b33f
000006d0: 1743 3a6f 31a4 b33f 1743 3a6f 31a4 b33f
000006e0: 1743 3a6f 31a4 b33f 1743 3a6f 31a4 b33f
000006f0: 1743 3a6f 31a4 b33f 1743 3a6f 31a4 b33f
00000700: 1743 3a6f 31a4 b33f 1743 3a6f 31a4 b33f
00000710: 1743 3a6f 31a4 b33f 1743 3a6f 31a4 b33f
00000720: 1743 3a6f 31a4 b33f 1743 3a6f 31a4 b33f
00000730: 1743 3a6f 31a4 b33f 1743 3a6f 31a4 b33f
00000740: 1743 3a6f 31a4 b33f 1743 3a6f 31a4 b33f
00000750: 1743 3a6f 31a4 b33f 1743 3a6f 31a4 b33f
00000760: 1743 3a6f 31a4 b33f 1743 3a6f 31a4 b33f
00000770: 1743 3a6f 31a4 b33f 1743 3a6f 31a4 b33f
00000780: 1743 3a6f 31a4 b33f 1743 3a6f 31a4 b33f
00000790: 1743 3a6f 31a4 b33f 1743 3a6f 31a4 b33f
000007a0: 1743 3a6f 31a4 b33f 1743 3a6f 31a4 b33f
000007b0: 1743 3a6f 31a4 b33f 1743 3a6f 31a4 b33f
000007c0: 1743 3a6f 31a4 b33f 1743 3a6f 31a4 b33f
000007d0: 1743 3a6f 31a4 b33f 1743 3a6f 31a4 b33f
000007e0: 1743 3a6f 31a4 b33f 1743 3a6f 31a4 b33f
000007f0: 1743 3a6f 31a4 b33f 1743 3a6f 31a4 b33f

zmax f8 []
5.0
00000000: 0000 0000 0000 1440

hz_F f8 [401]
0.044942561760563625 0.04494174422380761 0.04494091960034708 0.04494008586573899 0.044939242351857284 0.04493838875332052 0.04493752486007249 0.044936650485095486
0.044935765444774865 0.04493486955343625 0.04493396262177254 0.04493304445638239 0.04493211485948546 0.04493117362878923 0.04493022055737648 0.04492925543352389
0.04492827804060561 0.044927288156937084 0.044926285555630406 0.04492527000443587 0.044924241265608796 0.04492319909571202 0.04492214324550111 0.04492107345970394
0.04491998947685071 0.044918891029120146 0.04491777784211903 0.044916649634689325 0.044915506118706094 0.044914346998863965 0.044913171972458955 0.04491198072916118
0.04491077295074844 0.04490954831094093 0.0449083064750315 0.04490704709971807 0.044905769832784416 0.044904474312829214 0.04490316016895605 0.0449018270204818
0.04490047447660825 0.04489910213610063 0.04489770958694314 0.044896296405971606 0.04489486215850143 0.0448934063979602 0.0448919286654675 0.04489042848942613
0.044888905385083534 0.04488735885408635 0.04488578838399816 0.04488419344782646 0.044882573503489946 0.044880927993317894 0.04487925634345546 0.04487755796334011
0.04487583224503799 0.044874078562660694 0.0448722962717131 0.04487048470837008 0.044868643188801335 0.04486677100842516 0.04486486744111852 0.04486293173839264
0.044860963128587075 0.04485896081594199 0.0448569239797003 0.04485485177312719 0.04485274332249284 0.04485059772601845 0.044848414052780936 0.04484619134151422
0.044843928599433605 0.044841624800933726 0.04483927888625447 0.044836889760093986 0.0448344562901299 0.04483197730548312 0.04482945159508057 0.0448268779059858
0.04482425494159415 0.04482158135976813 0.04481885577085577 0.044816076735633134 0.044813242763113686 0.0448103523082681 0.0448074037695902 0.044804395486559574
0.04480132573699626 0.044798192734185845 0.044794994623926415 0.04479172948141943 0.044788395307885004 0.04478499002714506 0.04478151148185053 0.0447779574296443
0.044774325538984305 0.04477061338479664 0.04476681844385319 0.04476293808987368 0.044758969588352154 0.04475491009105283 0.04475075663020738 0.04474650611230816
0.04474215531156375 0.044737700862952826 0.04473313925480364 0.044728466820924795 0.04472367973224445 0.044718773987929485 0.04471374540584681 0.04470858961251255
0.044703302032267425 0.04469787787583556 0.04469231212798775 0.04468659953449864 0.044680734588079744 0.04467471151342381 0.044668524251160774 0.04466216644067127
0.0446556314016809 0.0446489121145168 0.04464200119889817 0.0446348908912043 0.044627573019977905 0.044620038979636255 0.04461227970213629 0.04460428562644453
0.04459604666565557 0.044587552171481394 0.04457879089590353 0.04456975094974492 0.04456041975785922 0.04455078401056119 0.04454082961107306 0.04453054161846666
0.04451990418575136 0.0445089004925507 0.04449751267195926 0.04448572173083321 0.04447350746296822 0.04446084835436899 0.04444772147979754 0.04443410238971959
0.044419964986563025 0.04440528138917684 0.04439002178420487 0.04437415426290224 0.04435764464179409 0.044340456265363704 0.04432254978868032 0.04430388293770263
0.04428441024461833 0.04426408275529195 0.044242847705510964 0.04422064816224928 0.04419742262576091 0.0441731045876185 0.04414762203932224 0.044120896925289615
0.044092844533248715 0.0440633728141084 0.04403238162235673 0.04399976186685306 0.04396539456051978 0.04392914975603216 0.043890885352863986 0.04385044575941312
0.04380766039182987 0.04376234198932483 0.043714284723497546 0.04366326207732947 0.04360902446763485 0.04355129658350282 0.043489774412790685 0.04342412192984226
0.04335396742098736 0.04327889943140417 0.04319846232966243 0.04311215150712572 0.04301940826269434 0.04291961447484314 0.04281208724051611 0.04269607377599824
0.04257074704449248 0.04243520282039944 0.042288459249987385 0.04212946045727549 0.04195708641016857 0.04177017213451052 0.04156754043416921 0.041348053436359444
0.0411106892083965 0.040854649641332126 0.0405795033323573 0.040285360008823975 0.03997305835498328 0.03964432579901613 0.03930184209760628 0.03894912511567636
0.038590181621190114 0.03825548092086137 0.03793045328093583 0.0376188559344879 0.037323384808451 0.03704566539053608 0.03678639154506585 0.03654553163812033
0.03632253996190562 0.03611653952270769 0.03592646447151942 0.03575116325065007 0.035589468980942326 0.0354402448078407 0.03530241116425941 0.035174960513111364
0.03505696372713695 0.03494757108220774 0.034846009930368876 0.03475158045241264 0.03466365041711381 0.03458164954650605 0.03450506386324501 0.03443343024607703
0.034366331320229634 0.03430339074507116 0.0342442689202961 0.0341886591065878 0.03413628394173055 0.034086892325147236 0.03404025663998344 0.03399617028107481
0.033954445457720875 0.033914911241997144 0.033877411835510574 0.03384180502991686 0.03380796083898551 0.033775760282299255 0.03374509430296063 0.033715862803609414
0.033687973786974454 0.03366134258874498 0.03363589119203411 0.03361154761406836 0.03358824535674899 0.033565922913846497 0.03354452332840418 0.033523993794737646
0.033504285300064614 0.03348535230140023 0.03346715243388901 0.03344964624714844 0.03343279696668208 0.03341657027764758 0.033400934128699725 0.033385858553798546
00000000: bb8f eb21 b602 a73f 0339 55b3 9a02 a73f
00000010: 510e df07 7f02 a73f 8743 250e 6302 a73f
00000020: 1c9f 6ac0 4602 a73f 9996 0f1c 2a02 a73f
00000030: dc3e 461f 0d02 a73f 4856 73c8 ef01 a73f
00000040: 0317 0316 d201 a73f ab33 5d06 b401 a73f
00000050: d361 e197 9501 a73f 3556 e6c8 7601 a73f
00000060: 6124 b997 5701 a73f c7f3 9c02 3801 a73f
00000070: 5dc0 ca07 1801 a73f 81f4 70a5 f700 a73f
00000080: af32 b3d9 d600 a73f 98fd a9a2 b500 a73f
00000090: b366 62fe 9300 a73f 0ab5 ddea 7100 a73f
000000a0: 411a 1166 4f00 a73f 6843 e56d 2c00 a73f
000000b0: 5b18 3600 0900 a73f ab3f d21a e5ff a63f
000000c0: efbe 7abb c0ff a63f 2da4 e2df 9bff a63f
000000d0: c089 ae85 76ff a63f bf29 74aa 50ff a63f
000000e0: 40ec b94b 2aff a63f 1d6f f666 03ff a63f
000000f0: 250b 90f9 dbfe a63f 2654 dc00 b4fe a63f
00000100: f482 1f7a 8bfe a63f 5c18 8c62 62fe a63f
00000110: fd0c 42b7 38fe a63f f472 4e75 0efe a63f
00000120: 25c2 aa99 e3fd a63f b53f 3c21 b8fd a63f
00000130: 854f d308 8cfd a63f 0ad0 2a4d 5ffd a63f
00000140: 6c61 e7ea 31fd a63f 94b0 96de 03fd a63f
00000150: 3cb5 ae24 d5fc a63f 22e3 8cb9 a5fc a63f
00000160: 9a58 7599 75fc a63f ba0f 92c0 44fc a63f
00000170: caf1 f12a 13fc a63f 2df1 87d4 e0fb a63f
00000180: 7512 2ab9 adfb a63f a171 90d4 79fb a63f
00000190: a232 5422 45fb a63f 1077 ee9d 0ffb a63f
000001a0: 4732 b742 d9fa a63f 910f e40b a2fa a63f
000001b0: 5f23 87f4 69fa a63f 8bc4 8df7 30fa a63f
000001c0: bf16 bf0f f7f9 a63f 22c2 ba37 bcf9 a63f
000001d0: 3484 f769 80f9 a63f a198 c1a0 43f9 a63f
000001e0: 2e3d 39d6 05f9 a63f 9e0d 5104 c7f8 a63f
000001f0: 0247 cc24 87f8 a63f a3f7 3c31 46f8 a63f
00000200: 4a39 0223 04f8 a63f 0127 46f3 c0f7 a63f
00000210: 9ee3 fb9a 7cf7 a63f ce71 dd12 37f7 a63f
00000220: 6877 6953 f0f6 a63f 17ec e054 a8f6 a63f
00000230: beb0 440f 5ff6 a63f adec 527a 14f6 a63f
00000240: ca77 848d c8f5 a63f 97fd 0940 7bf5 a63f
00000250: 2c0e c988 2cf5 a63f 6911 595e dcf4 a63f
00000260: 7a06 00b7 8af4 a63f 0a23 af88 37f4 a63f
00000270: 9139 ffc8 e2f3 a63f 8c0d 2d6d 8cf3 a63f
00000280: 715b 156a 34f3 a63f 04bf 30b4 daf2 a63f
00000290: c257 8f3f 7ff2 a63f 9e42 d4ff 21f2 a63f
000002a0: ccc8 30e8 c2f1 a63f 1c5c 5feb 61f1 a63f
000002b0: b93c 9efb fef0 a63f c1e4 a90a 9af0 a63f
000002c0: 1237 b709 33f0 a63f e12c 6de9 c9ef a63f
000002d0: 4c57 de99 5eef a63f 1309 820a f1ee a63f
000002e0: 2ce5 2c2a 81ee a63f 3c5b 09e7 0eee a63f
000002f0: b45b 8f2e 9aed a63f c0e7 7bed 22ed a63f
00000300: e0e1 c70f a9ec a63f d67e 9e80 2cec a63f
00000310: 7c1b 532a adeb a63f 7677 56f6 2aeb a63f
00000320: c454 2bcd a5ea a63f 325d 5a96 1dea a63f
00000330: b75f 6538 92e9 a63f 55aa b998 03e9 a63f
00000340: eca5 a19b 71e8 a63f e28f 3524 dce7 a63f
00000350: c628 4b14 43e7 a63f 5066 644c a6e6 a63f
00000360: b010 9dab 05e6 a63f 153b 970f 61e5 a63f
00000370: dd49 6654 b8e4 a63f 7ed8 7854 0be4 a63f
00000380: caeb 80e8 59e3 a63f 1fc9 5ae7 a3e2 a63f
00000390: 71d5 f125 e9e1 a63f d5e6 2377 29e1 a63f
000003a0: 7f55 a2ab 64e0 a63f 7c18 d191 9adf a63f
000003b0: b47d a3f5 cade a63f c75e 76a0 f5dd a63f
000003c0: 8aa7 e758 1add a63f 7ceb aae2 38dc a63f
000003d0: e1c1 5afe 50db a63f cec8 4669 62da a63f
000003e0: c3c6 3ddd 6cd9 a63f 5bdb 5310 70d8 a63f
000003f0: 2b30 a4b4 6bd7 a63f d8d5 0d78 5fd6 a63f
00000400: 7675 eb03 4bd5 a63f c539 c5fc 2dd4 a63f
00000410: 4d7b fc01 08d3 a63f 61a6 70ad d8d1 a63f
00000420: f5b0 1c93 9fd0 a63f 5a4c ac40 5ccf a63f
00000430: 2c54 083d 0ece a63f 9a55 d907 b5cc a63f
00000440: 006a ff18 50cb a63f 3a2b fedf dec9 a63f
00000450: b5db 5bc3 60c8 a63f 011e f21f d5c6 a63f
00000460: 5508 2f48 3bc5 a63f 0ad4 4483 92c3 a63f
00000470: 795f 460c dac1 a63f 7492 2e11 11c0 a63f
00000480: f741 d0b1 36be a63f 5b21 acfe 49bc a63f
00000490: 28ed a9f7 49ba a63f ee92 b18a 35b8 a63f
000004a0: 18d1 2092 0bb6 a63f 3852 19d3 cab3 a63f
000004b0: 5eab a2fb 71b1 a63f f442 9ba0 ffae a63f
000004c0: 2952 723b 72ac a63f b490 a427 c8a9 a63f
000004d0: 9943 f49f ffa6 a63f 755e 54bb 16a4 a63f
000004e0: 2582 7d69 0ba1 a63f 941a 226f db9d a63f
000004f0: 24ca b561 849a a63f 4c86 baa2 0397 a63f
00000500: 840d 845a 5693 a63f 3b48 6072 798f a63f
00000510: 28e7 108e 698b a63f c0f5 7f04 2387 a63f
00000520: 371a 96d7 a182 a63f 2524 16ab e17d a63f
00000530: edb6 5dba dd78 a63f 6245 e7cc 9073 a63f
00000540: 48f5 6429 f56d a63f f0f1 4787 0468 a63f
00000550: eaca 82fe b761 a63f 2a4f 51f5 075b a63f
00000560: e543 cc0b ec53 a63f a890 0c05 5b4c a63f
00000570: e26f a0ad 4a44 a63f 13a6 17bf af3b a63f
00000580: ea31 73c0 7d32 a63f a05a 54e3 a628 a63f
00000590: c403 e3dd 1b1e a63f f80c 91c1 cb12 a63f
000005a0: 2fc0 29cf a306 a63f 9d81 0d49 8ff9 a53f
000005b0: b19d 2445 77eb a53f 1c2f 1281 42dc a53f
000005c0: 7f0f a53c d5cb a53f cb1f a020 11ba a53f
000005d0: 732f f43a d5a6 a53f 3e68 b91d fe91 a53f
000005e0: 5c2a ef33 667b a53f e232 8866 e662 a53f
000005f0: 0fd6 7a35 5748 a53f 785c 8672 922b a53f
00000600: d808 55d3 750c a53f f1b7 3290 e6ea a43f
00000610: 849a 662f d6c6 a43f 3eb0 7d5f 48a0 a43f
00000620: 3925 b644 5977 a43f 73b7 8ed5 424c a43f
00000630: 37ab f6fc 5e1f a43f dcc6 28c5 23f1 a33f
00000640: f2f8 04a0 17c2 a33f cc4c e5ee 3896 a33f
00000650: 1468 bad0 9e6b a33f 0333 e757 c742 a33f
00000660: 32b3 41fa 0c1c a33f cc2f 9f42 a6f7 a23f
00000670: f770 3f79 aad5 a23f ecbc 668e 18b6 a23f
00000680: 83f2 7c32 de98 a23f 457f 30f8 dd7d a23f
00000690: 47a2 ee1b f464 a23f 2e37 e9f9 f94d a23f
000006a0: b6d6 b56a c838 a23f d1e5 d248 3925 a23f
000006b0: d743 d75a 2813 a23f 8874 15d2 7302 a23f
000006c0: 5f04 6981 fcf2 a13f d6d4 bee5 a5e4 a13f
000006d0: bc13 1812 56d7 a13f ac0a 0e8b f5ca a13f
000006e0: dd8e cd19 6fbf a13f b71d b09b afb4 a13f
000006f0: 2d95 add1 a5aa a13f 0f8d 9731 42a1 a13f
00000700: a630 35ba 7698 a13f e0b2 c8ca 3690 a13f
00000710: 921b 2dfe 7688 a13f b786 8309 2d81 a13f
00000720: e5fd 459e 4f7a a13f ea7e 844f d673 a13f
00000730: 2f48 087a b96d a13f 0eca 172f f267 a13f
00000740: 72e6 9621 7a62 a13f 3922 4395 4b5d a13f
00000750: 4833 d04f 6158 a13f d2a4 ae8b b653 a13f
00000760: 6fb8 4bec 464f a13f c4b9 9e73 0e4b a13f
00000770: 7801 dd78 0947 a13f 4423 32a0 3443 a13f
00000780: a6fb 5dd3 8c3f a13f d0c0 1d3b 0f3c a13f
00000790: ec7f 4839 b938 a13f fe6d 8a63 8835 a13f
000007a0: 71ad ac7e 7a32 a13f 3c9d 597a 8d2f a13f
000007b0: 3f91 4f6d bf2c a13f e99b f591 0e2a a13f
000007c0: b97d 4743 7927 a13f 7b21 0ffa fd24 a13f
000007d0: c439 634a 9b22 a13f 9477 63e1 4f20 a13f
000007e0: dce1 2b83 1a1e a13f b455 f908 fa1b a13f
000007f0: d22b 7a5f ed19 a13f 675f 4685 f317 a13f

Vz_F f8 [401]
0.6250003698032458 0.6249877211624266 0.6249749628786105 0.6249620636303277 0.6249490130805668 0.624935806504574 0.6249224406524334 0.6249089126306728
0.6248952195984714 0.6248813586831403 0.624867326955787 0.6248531214241737 0.6248387390283128 0.6248241766384055 0.6248094310531016 0.6247944989966925
0.6247793771176191 0.6247640619860562 0.6247485500916738 0.6247328378411865 0.624716921556292 0.6247007974706165 0.6246844617279379 0.6246679103787756
0.624651139377761 0.6246341445812575 0.6246169217439501 0.6245994665158605 0.6245817744392212 0.6245638409451715 0.6245456613503819 0.6245272308535377
0.6245085445312171 0.6244895973353337 0.6244703840874166 0.6244508994760167 0.6244311380517686 0.6244110942231984 0.6243907622519274 0.6243701362481602
0.6243492101656045 0.6243279777964972 0.6243064327662751 0.6242845685278908 0.6242623783560575 0.624239855341564 0.624216992384774 0.6241937821893018
0.6241702172552266 0.6241462898722006 0.6241219921119878 0.624097315821146 0.624072252612784 0.6240467938588168 0.6240209306807643 0.6239946539416508
0.6239679542357379 0.6239408218795006 0.6239132469015374 0.6238852190313793 0.623856727689045 0.6238277619734944 0.6237983106504075 0.6237683621394297
0.6237379045017022 0.623706925425509 0.6236754122123855 0.6236433517619488 0.6236107305561589 0.6235775346430117 0.6235437496195928 0.6235093606135322
0.6234743522648145 0.6234387087056348 0.6234024135397576 0.6233654498210583 0.6233278000306441 0.6232894460530858 0.6232503691510871 0.6232105499396567
0.6231699683581837 0.6231286036415895 0.623086434289668 0.6230434380352534 0.622999591810327 0.6229548717107392 0.62290925295855 0.6228627098627726
0.622815215778445 0.6227667430621509 0.6227172630263311 0.6226667458911805 0.6226151607322805 0.6225624754277348 0.6225086565997984 0.6224536695555116
0.6223974782220765 0.6223400450796035 0.6222813310895958 0.6222212956191697 0.622159896361012 0.6220970892482214 0.6220328283645316 0.6219670658482812
0.6218997517911617 0.6218308341307477 0.6217602585356907 0.6216879682839682 0.6216139041335289 0.6215380041848917 0.6214602037335659 0.6213804351145491
0.621298627534852 0.6212147068964846 0.6211285956055868 0.6210402123706338 0.6209494719847974 0.6208562850945576 0.6207605579514741 0.620662192146284
0.6205610843241338 0.6204571258791169 0.6203502026261276 0.6202401944491598 0.6201269749223037 0.6200104109030136 0.6198903620937202 0.6197666805694801
0.619639210269245 0.6195077864464515 0.6193722350757191 0.6192323722118864 0.6190880032967172 0.6189389224074482 0.6187849114436972 0.6186257392446848
0.6184611606313517 0.6182909153647564 0.6181147270144294 0.617932301725137 0.617743326873601 0.6175474696028616 0.6173443752217089 0.6171336654555581
0.6169149365319626 0.6166877570835716 0.6164516658486363 0.6162061691462917 0.6159507381018514 0.6156848055940678 0.6154077628920263 0.6151189559466452
0.6148176812959427 0.6145031815387725 0.6141746403258175 0.6138311768093452 0.613471839486941 0.6130955993636356 0.6127013423492755 0.612287860795373
0.6118538440634858 0.6113978680024879 0.6109183831962817 0.6104137018251521 0.6098819829629321 0.60932121611037 0.6087292027381608 0.6081035355878228
0.6074415754460993 0.6067404250799946 0.605996899984973 0.6052074955694842 0.6043683503703612 0.6034752048741332 0.6025233555119769 0.6015076034132605
0.6004221975549662 0.5992607720529719 0.5980162775382247 0.5966809068835843 0.5952460160623652 0.5937020417159822 0.5920384182088156 0.5902434987362959
0.5883044876763144 0.5862073951687918 0.5839370303185198 0.5814770569841166 0.5788101464233897 0.5759182745664049 0.5727832282491185 0.5693874027044643
0.5657149869497857 0.5617536329244643 0.557496666116144 0.5529457841877772 0.5481139629667808 0.5430279286137107 0.5377291413803853 0.532272028434182
0.5267185810781783 0.5215402096970401 0.5165114965003959 0.5116905720753806 0.5071191468542224 0.5028223698104206 0.4988109761684534 0.49508447649945
0.491634427804577 0.4884472615458968 0.48550648728287626 0.4827942885204095 0.4802926117150541 0.4779838678534354 0.4758513542537379 0.4738794826569226
0.47205387793319176 0.4703613934500339 0.4687900750703555 0.467329095437794 0.4659686728934531 0.4646999842974431 0.46351507757327326 0.4624067874719806
0.4613686565180508 0.4603948621017473 0.4594801500467227 0.4586197745902787 0.4578094444818781 0.4570452747818088 0.4563237438822476 0.4556416552608411
0.4549961034859962 0.45438444402105205 0.453804266408131 0.4532533704498043 0.45272974504488417 0.45223154937025 0.45175709613598514 0.4513048366709782
0.4508733476258442 0.4504613191041784 0.45006754405617855 0.4496909087897194 0.4493303844696328 0.44898501949319325 0.44865393264242215 0.4483363069263646
0.4480313840365113 0.4477384593478373 0.447456877406216 0.4471860278492201 0.44692534171479004 0.4466742880957675 0.44643237110502554 0.44619912711854504
00000000: 005f 89c6 0000 e43f 006a d93f e6ff e33f
00000010: 003d 4c7e cbff e33f c00d 1171 b0ff e33f
00000020: 0027 9b12 95ff e33f 402b 6160 79ff e33f
00000030: 4070 a458 5dff e33f 0049 d7f9 40ff e33f
00000040: 0045 7342 24ff e33f 8092 ed30 07ff e33f
00000050: 40a6 b3c3 e9fe e33f 4040 2af9 cbfe e33f
00000060: c0d0 accf adfe e33f c02f 8d45 8ffe e33f
00000070: c05f 1359 70fe e33f 002b 7d08 51fe e33f
00000080: 00ef fd51 31fe e33f 8047 be33 11fe e33f
00000090: c0bf dbab f0fd e33f 407c 68b8 cffd e33f
000000a0: 40f2 6a57 aefd e33f 407c dd86 8cfd e33f
000000b0: 801b ae44 6afd e33f 0000 be8e 47fd e33f
000000c0: 002c e162 24fd e33f 4020 debe 00fd e33f
000000d0: 0064 6da0 dcfc e33f 001c 3905 b8fc e33f
000000e0: 809c dcea 92fc e33f 00f5 e34e 6dfc e33f
000000f0: 8079 cb2e 47fc e33f c046 ff87 20fc e33f
00000100: 40b1 da57 f9fb e33f 40eb a79b d1fb e33f
00000110: 803b 9f50 a9fb e33f 00a2 e673 80fb e33f
00000120: 402a 9102 57fb e33f c057 9ef9 2cfb e33f
00000130: 407d f955 02fb e33f 001e 7914 d7fa e33f
00000140: 003b de31 abfa e33f 00a4 d3aa 7efa e33f
00000150: 003c ed7b 51fa e33f 4031 a7a1 23fa e33f
00000160: c032 6518 f5f9 e33f 40a8 71dc c5f9 e33f
00000170: 80cd fce9 95f9 e33f c0d3 1b3d 65f9 e33f
00000180: 00f3 c7d1 33f9 e33f 8077 dda3 01f9 e33f
00000190: 40bb 1aaf cef8 e33f 8024 1fef 9af8 e33f
000001a0: c003 6a5f 66f8 e33f 4083 59fb 30f8 e33f
000001b0: 4063 29be faf7 e33f 00dd f1a2 c3f7 e33f
000001c0: 8039 a6a4 8bf7 e33f 0094 13be 52f7 e33f
000001d0: 0077 dfe9 18f7 e33f 8052 8622 def6 e33f
000001e0: 800c 5a62 a2f6 e33f c06a 80a3 65f6 e33f
000001f0: c064 f1df 27f6 e33f 0063 7511 e9f5 e33f
00000200: 4088 a331 a9f5 e33f 80b8 df39 68f5 e33f
00000210: 40b0 5823 26f5 e33f c0ee 05e7 e2f4 e33f
00000220: 408c a57d 9ef4 e33f 40fc b9df 58f4 e33f
00000230: 40b9 8705 12f4 e33f 40b8 12e7 c9f3 e33f
00000240: c0e8 1b7c 80f3 e33f 0070 1ebc 35f3 e33f
00000250: c0d2 4c9e e9f2 e33f 4002 8e19 9cf2 e33f
00000260: 4037 7a24 4df2 e33f c0ad 57b5 fcf1 e33f
00000270: c029 17c2 aaf1 e33f 806a 5040 57f1 e33f
00000280: 0054 3e25 02f1 e33f 00f8 ba65 abf0 e33f
00000290: 405f 3bf6 52f0 e33f 8029 cbca f8ef e33f
000002a0: 00e5 07d7 9cef e33f 4035 1c0e 3fef e33f
000002b0: 00a6 ba62 dfee e33f 0046 18c7 7dee e33f
000002c0: 0007 e72c 1aee e33f c0a0 4f85 b4ed e33f
000002d0: 8049 ebc0 4ced e33f 8019 bdcf e2ec e33f
000002e0: 80d8 2aa1 76ec e33f c0b9 f523 08ec e33f
000002f0: 4056 3246 97eb e33f 0084 40f5 23eb e33f
00000300: 4074 c21d aeea e33f 4075 93ab 35ea e33f
00000310: 001e be89 bae9 e33f 00e4 71a2 3ce9 e33f
00000320: 001b f8de bbe8 e33f c040 a827 38e8 e33f
00000330: 40a6 db63 b1e7 e33f 003d e079 27e7 e33f
00000340: 80ac ea4e 9ae6 e33f 008d 07c7 09e6 e33f
00000350: 20a0 0bc5 75e5 e33f 2015 832a dee4 e33f
00000360: a0c1 9fd7 42e4 e33f 403f 26ab a3e3 e33f
00000370: 20a3 5982 00e3 e33f a01e e638 59e2 e33f
00000380: e0fa c9a8 ade1 e33f a044 3daa fde0 e33f
00000390: a090 9713 49e0 e33f a03f 34b9 8fdf e33f
000003a0: e094 546d d1de e33f e0e8 ffff 0dde e33f
000003b0: a08b e13e 45dd e33f 0039 24f5 76dc e33f
000003c0: 60f5 4aeb a2db e33f 2012 07e7 c8da e33f
000003d0: 0014 0bab e8d9 e33f c05c daf6 01d9 e33f
000003e0: 2014 9586 14d8 e33f 4041 c012 20d7 e33f
000003f0: 408a 0950 24d6 e33f e048 06ef 20d5 e33f
00000400: 209f ed9b 15d4 e33f a0f4 4cfe 01d3 e33f
00000410: a06b b6b8 e5d1 e33f 20c9 6868 c0d0 e33f
00000420: c02b f0a4 91cf e33f 60c4 beff 58ce e33f
00000430: 0016 bd03 16cd e33f c0a1 d034 c8cb e33f
00000440: 6040 580f 6fca e33f 20fa 9c07 0ac9 e33f
00000450: 807e 3689 98c7 e33f a0a5 61f6 19c6 e33f
00000460: c0d1 47a7 8dc4 e33f c07f 35e9 f2c2 e33f
00000470: 204c befd 48c1 e33f 208d cc19 8fbf e33f
00000480: c032 9a64 c4bd e33f a08f 90f6 e7bb e33f
00000490: c04e 0cd8 f8b9 e33f e074 0200 f6b7 e33f
000004a0: 4006 8352 deb5 e33f e075 159f b0b3 e33f
000004b0: c06c ea9e 6bb1 e33f a018 def2 0daf e33f
000004c0: 6065 4521 96ac e33f 40e7 7f93 02aa e33f
000004d0: 206c 4793 51a7 e33f a029 b547 81a4 e33f
000004e0: c0a0 f3b1 8fa1 e33f a0d3 92a9 7a9e e33f
000004f0: c05f 73d8 3f9b e33f 6053 3bb6 dc97 e33f
00000500: e0e7 4583 4e94 e33f 2046 fd42 9290 e33f
00000510: a04d 8bb5 a48c e33f 80d1 cb50 8288 e33f
00000520: 80da 6738 2784 e33f e07e fe34 8f7f e33f
00000530: 802d 3caa b57a e33f 40d0 bd8b 9575 e33f
00000540: e0b1 9850 2970 e33f a026 5ce5 6a6a e33f
00000550: 0036 5d9c 5364 e33f e07a 181c dc5d e33f
00000560: 6080 724b fc56 e33f a033 9c3b ab4f e33f
00000570: 0001 600f df47 e33f c091 9edf 8c3f e33f
00000580: 2050 c99c a836 e33f 80c8 37ed 242d e33f
00000590: 2013 5008 f322 e33f c0cd a68e 0218 e33f
000005a0: 20fd 815f 410c e33f 60a2 976c 9bff e23f
000005b0: 80d6 858d faf1 e23f e0f7 7755 46e3 e23f
000005c0: 201d d5ee 63d3 e23f c08b dd02 36c2 e23f
000005d0: 6086 04b6 9caf e23f 20e0 e3c5 759b e23f
000005e0: e067 2fdb 9c85 e23f 80ce 4d29 ec6d e23f
000005f0: 60df 207e 3d54 e23f 80d7 2bee 6b38 e23f
00000600: 00ce f950 561a e23f 803b 3ac1 e2f9 e13f
00000610: c021 933f 03d7 e13f c085 715b bbb1 e13f
00000620: 808b 2d4b 268a e13f 80bc 461b 7c60 e13f
00000630: a0b7 8abe 1335 e13f a069 5659 5f08 e13f
00000640: 40a4 fdec e0da e03f 2054 0618 75b0 e03f
00000650: 6045 2f1e 4387 e03f 8087 17e8 c45f e03f
00000660: 0042 ddee 513a e03f 200e 41f0 1e17 e03f
00000670: c0e0 61df 84ec df3f 80a2 d4cc 76af df3f
00000680: 8088 403f f076 df3f c043 8a4d b842 df3f
00000690: 000d 38cd 8912 df3f 0002 f903 1ae6 de3f
000006a0: c0e6 f438 1dbd de3f c08c 1ca6 4997 de3f
000006b0: 40bc 113d 5974 de3f c070 109c 0a54 de3f
000006c0: 0013 eb77 2136 de3f 00cf 8aac 661a de3f
000006d0: c075 4716 a800 de3f 40f9 574b b8e8 dd3f
000006e0: 006d c244 6ed2 dd3f 4097 c000 a5bd dd3f
000006f0: c053 d824 3baa dd3f 40ff 68a3 1298 dd3f
00000700: 403f c966 1087 dd3f c04c fe02 1c77 dd3f
00000710: 8028 676e 1f68 dd3f 4081 4ac1 065a dd3f
00000720: c05f f6fb bf4c dd3f 40ab fed2 3a40 dd3f
00000730: c033 1781 6834 dd3f 8099 029e 3b29 dd3f
00000740: 00e8 11fa a71e dd3f 806b b87d a214 dd3f
00000750: 4086 c00c 210b dd3f 408e b86c 1a02 dd3f
00000760: 803a 392e 86f9 dc3f c0ef b098 5cf1 dc3f
00000770: 80f5 6898 96e9 dc3f 80d2 81ae 2de2 dc3f
00000780: 003a ace2 1bdb dc3f 0097 6ab6 5bd4 dc3f
00000790: c096 ad19 e8cd dc3f 00dd a360 bcc7 dc3f
000007a0: 005b 993a d4c1 dc3f 0080 c7a9 2bbc dc3f
000007b0: 80f1 fafb beb6 dc3f 00ec f6c3 8ab1 dc3f
000007c0: 002e 81d3 8bac dc3f 60dd 0336 bfa7 dc3f
000007d0: 601e b52b 22a3 dc3f 80cb 3525 b29e dc3f
000007e0: 20cb 9abf 6c9a dc3f 4077 d5c0 4f96 dc3f
000007f0: 8065 7114 5992 dc3f e095 9ec8 868e dc3f
