onecap_model_with_structure_ambiguity/output/lower_triangular_four_ambiguous_parameters/Delta_10.0_distorted_0/logadjustment_1_boundary_1/zmax_5.0_zscale_2.0/delta_0.02/q_0.2_gamma_7.0_rho_1.0/model.npz (npz, 126264 bytes, 58 tensors)

clowerlim f8 []
0	0x3f1a36e2eb1c432d	0.0001

zmin f8 []
0	0xc014000000000000	-5.0

Delta f8 []
0	0x4024000000000000	10.0

s1_F f8 [401]
0	0xbffd9010fc5db2cc	-1.8476724489257093
1	0xbff9f1867e919d51	-1.6214661544889462
2	0xbff8c630e7de2f7b	-1.5483864838924706
3	0xbff83f9ecff6aa5c	-1.515532314641539
4	0xbff7f4b4d1c340fa	-1.4972427553039425
5	0xbff7c24df0579880	-1.4849376095167202
6	0xbff79a8e4e06081a	-1.475233368663345
7	0xbff777903f55ef30	-1.4666902994203603
8	0xbff756b978a06231	-1.458672972867259
9	0xbff736de64ddd185	-1.450895685205155
10	0xbff71776ea14c588	-1.4432286399645324
11	0xbff6f844caae71d6	-1.43561247990066
12	0xbff6d92b6c8ca2fc	-1.4280199279984904
13	0xbff6ba1d9d34c6fa	-1.4204383984437627
14	0xbff69b15401725ca	-1.4128620627910657
15	0xbff67c0f7e31004f	-1.405288212714385
16	0xbff65d0b04a095e2	-1.397715585780468
17	0xbff63e0735035dc2	-1.390143591959586
18	0xbff61f03c5326a26	-1.3825719550137676
19	0xbff6000092795abc	-1.375000545658323
20	0xbff5e0fd8cae38c2	-1.3674293036779521
21	0xbff5c1faac66583d	-1.359858201443344
22	0xbff5a2f7ee5bf267	-1.3522872267632466
23	0xbff583f551426e64	-1.344716374797735
24	0xbff564f2d4bf5ef6	-1.3371456442309273
25	0xbff545f078edacc9	-1.329575035454399
26	0xbff526ee3e221f90	-1.3220045497018624
27	0xbff507ec24ceff20	-1.3144341886363193
28	0xbff4e8ea2d767f96	-1.306863954152481
29	0xbff4c9e858a440db	-1.2992938482821532
30	0xbff4aae6a6ea3a45	-1.2917238731494234
31	0xbff48be518df4e99	-1.284154030949969
32	0xbff46ce3af1e9996	-1.2765843239409143
33	0xbff44de26a4736fc	-1.269014754437591
34	0xbff42ee14afc30a8	-1.261445324812522
35	0xbff40fe051e47b1c	-1.2538760374952238
36	0xbff3f0df7fab0cf9	-1.2463068949735414
37	0xbff3d1ded4feff90	-1.238737899795499
38	0xbff3b2de52939a88	-1.2311690545699623
39	0xbff393ddf92087e9	-1.223600361969597
40	0xbff374ddc961e443	-1.2160318247317867
41	0xbff355ddc41869e1	-1.2084634456610888
42	0xbff336ddea099742	-1.2008952276314209
43	0xbff317de3bffcd7b	-1.1933271735877884
44	0xbff2f8debaca7e4c	-1.1857592865489037
45	0xbff2d9df673e5563	-1.1781915696095318
46	0xbff2bae042355af0	-1.1706240259424554
47	0xbff29be14c8f2d41	-1.1630566588017504
48	0xbff27ce2873121a0	-1.1554894715246533
49	0xbff25de3f3067750	-1.1479224675344604
50	0xbff23ee5910093e4	-1.140355650343957
51	0xbff21fe76217262e	-1.1327890235574034
52	0xbff200e967486955	-1.1252225908743487
53	0xbff1e1eba1995957	-1.117656356092615
54	0xbff1c2ee1215e37a	-1.1100903231110508
55	0xbff1a3f0b9d134ae	-1.1025244959339875
56	0xbff184f399e5e8b0	-1.0949588786739177
57	0xbff165f6b3765508	-1.0873934755557588
58	0xbff146fa07acc80a	-1.079828290920434
59	0xbff127fd97bbd4bf	-1.0722633292291872
60	0xbff1090164de99e6	-1.0646985950676195
61	0xbff0ea05705910e3	-1.0571340931501758
62	0xbff0cb09bb785bae	-1.0495698283245747
63	0xbff0ac0e47931f9d	-1.0420058055769694
64	0xbff08d131609d7c5	-1.0344420300366306
65	0xbff06e182847302a	-1.0268785069811295
66	0xbff04f1d7fc068ea	-1.019315241841975
67	0xbff030231df5bd98	-1.0117522402104893
68	0xbff011290472c34a	-1.004189507843153
69	0xbfefe45e699dbf76	-0.9966270506683788
70	0xbfefa66b615b6c46	-0.9890648747926967
71	0xbfef6878f37f48e4	-0.9815029865078739
72	0xbfef2a872384775d	-0.9739413922977566
73	0xbfeeec95f501818c	-0.9663800988455917
74	0xbfeeaea56ba97f7e	-0.9588191130423949
75	0xbfee70b58b4d25db	-0.9512584419946352
76	0xbfee32c657dbf01a	-0.943698093032711
77	0xbfedf4d7d5656bb0	-0.9361380737203628
78	0xbfedb6ea081a7d31	-0.9285783918639138
79	0xbfed78fcf44eae9c	-0.921019055521771
80	0xbfed3b109e79b148	-0.9134600730153943
81	0xbfecfd250b38ce2a	-0.9059014529397633
82	0xbfecbf3a3f507837	-0.8983432041748135
83	0xbfec81503fae00c4	-0.890785335897839
84	0xbfec436711693c70	-0.8832278575954557
85	0xbfec057eb9c6677b	-0.8756707790773669
86	0xbfebc7973e380878	-0.8681141104900822
87	0xbfeb89b0a460fd36	-0.8605578623318368
88	0xbfeb4bcaf2169459	-0.8530020454678705
89	0xbfeb0de62d62c4ec	-0.8454466711465591
90	0xbfead0025c8697b4	-0.8378917510169601
91	0xbfea921f85fc9e36	-0.8303372971467471
92	0xbfea543db07b8bb2	-0.8227833220411098
93	0xbfea165ce2f90990	-0.8152298386633436
94	0xbfe9d87d24ac947a	-0.8076768604556854
95	0xbfe99a9e7d129a52	-0.800124401361993
96	0xbfe95cc0f3efc53a	-0.7925724758517056
97	0xbfe91ee49154645a	-0.7850210989446496
98	0xbfe8e1095da017ce	-0.7774702862377525
99	0xbfe8a32f6185b49a	-0.7699200539333504
100	0xbfe86556a60f5182	-0.7623704188686562
101	0xbfe8277f34a2afd9	-0.7548213985478426
102	0xbfe7e9a91705cba4	-0.7472730111752424
103	0xbfe7abd45763c00c	-0.7397252756909451
104	0xbfe76e010051fe75	-0.7321782118087429
105	0xbfe7302f1cd5cbe2	-0.7246318400560734
106	0xbfe6f25eb86a1e8e	-0.7170861818166985
107	0xbfe6b48fdf05df62	-0.70954125937622
108	0xbfe676c29d22874c	-0.7019970959702078
109	0xbfe638f6ffc333b5	-0.6944537158357124
110	0xbfe5fb2d147c3100	-0.6869111442661335
111	0xbfe5bd64e97aff5b	-0.6793694076695646
112	0xbfe57f9e8d8ee95e	-0.6718285336312808
113	0xbfe541da1032318e	-0.664288550980517
114	0xbfe504178193d2ed	-0.6567494898614236
115	0xbfe4c656f2a20404	-0.6492113818095508
116	0xbfe4889875156628	-0.6416742598332279
117	0xbfe44adc1b7d0baa	-0.6341381585010499
118	0xbfe40d21f94b5a0c	-0.626603114035619
119	0xbfe3cf6a22e3d33e	-0.6190691644138508
120	0xbfe391b4ada9f754	-0.6115363494752537
121	0xbfe35401b0113293	-0.6040047110378332
122	0xbfe3165141ae0019	-0.5964742930227686
123	0xbfe2d8a37b486ec3	-0.5889451415891575
124	0xbfe29af876f005db	-0.5814173052787582
125	0xbfe25d5050113b14	-0.5738908351721386
126	0xbfe21fab238cabca	-0.5663657850576496
127	0xbfe1e2090fd02c47	-0.5588422116137587
128	0xbfe1a46a34f1e384	-0.5513201746062895
129	0xbfe166ceb4cdb077	-0.5437997371023034
130	0xbfe12936b3250307	-0.5362809657018212
131	0xbfe0eba255c16f78	-0.5287639307893945
132	0xbfe0ae11c49a3cf0	-0.5212487068073681
133	0xbfe0708529fd49f2	-0.5137353725534111
134	0xbfe032fcb2bb8885	-0.5062240115041879
135	0xbfdfeaf11cb325c2	-0.49871471216883034
136	0xbfdf6ff1de894519	-0.4912075684743101
137	0xbfdef4fc16191b3e	-0.48370268018736684
138	0xbfde7a1035465f12	-0.4762001533758716
139	0xbfddff2eb543e269	-0.46870010091473674
140	0xbfdd8458172c51c8	-0.4612026430416134
141	0xbfdd098ce4a9f27f	-0.4537079079671357
142	0xbfdc8ecdb0af7992	-0.44621603254736286
143	0xbfdc141b1843c3fc	-0.4387271630249072
144	0xbfdb9975c362d237	-0.4312414558474162
145	0xbfdb1ede65f6b0a8	-0.4237590785730938
146	0xbfdaa455c0eb3510	-0.41628021087383704
147	0xbfda29dca3601092	-0.40880504564871345
148	0xbfd9af73ebfd20e4	-0.40133379026202776
149	0xbfd9351c8a6d7c20	-0.39386666792228375
150	0xbfd8bad78106868c	-0.38640391922135886
151	0xbfd840a5e6a0f748	-0.3789458038553346
152	0xbfd7c688e8aaf155	-0.37149260255298105
153	0xbfd74c81cd7b1ff0	-0.36404461924075715
154	0xbfd6d291f6ee6872	-0.3566021834791463
155	0xbfd658bae55b24ca	-0.34916565321016135
156	0xbfd5defe3ae6d1e0	-0.34173541786301875
157	0xbfd5655dbf4d5ebe	-0.33431190187318893
158	0xbfd4ebdb642bddb4	-0.3268955686794144
159	0xbfd4727949e3c833	-0.3194869252757854
160	0xbfd3f939c52fafad	-0.3120865274092875
161	0xbfd3801f65871ba3	-0.30469498553105206
162	0xbfd3072cfc74f9ad	-0.2973129716300729
163	0xbfd28e65a60b0d76	-0.2899412271037457
164	0xbfd215ccd2a54176	-0.28258057185032415
165	0xbfd19d66523a5b05	-0.2752319148070657
166	0xbfd1253661847cb3	-0.2678962662047965
167	0xbfd0ad41b95beebf	-0.26057475186801676
168	0xbfd0358da0b2b266	-0.2532686299626107
169	0xbfcf7c400370e762	-0.245979310684386
170	0xbfce8dff059bc62e	-0.2387083794961184
171	0xbfcda067482cd26c	-0.2314576246659671
172	0xbfccb389c5534e4b	-0.22422907004384948
173	0xbfcbc779c54e1c90	-0.21702501424826837
174	0xbfcadc4d4381ef28	-0.2098480777384506
175	0xbfc9f21d6880a992	-0.20270125963845637
176	0xbfc909071e1c7007	-0.19558800668971818
177	0xbfc8212bc4101dc0	-0.1885122973765032
178	0xbfc73ab20dab2374	-0.18147874514968587
179	0xbfc655c71371e009	-0.17449272584394773
180	0xbfc5729fa6fe3acd	-0.16756053594550338
181	0xbfc49179fbee7509	-0.16068959046689482
182	0xbfc3b29fbec6ac74	-0.15388867202031842
183	0xbfc2d668baeac09c	-0.1471682465248748
184	0xbfc1fd3e3c0b3b46	-0.14054086620168443
185	0xbfc1279f6690a9b2	-0.1340216875845051
186	0xbfc05626d70075a2	-0.12762914178976553
187	0xbfbf1323e6c16c3c	-0.12138580688171968
188	0xbfbd8594f87f7983	-0.11531954829067641
189	0xbfbc05e62918f8ec	-0.10946501258237945
190	0xbfba96ef452e8a59	-0.103865579977119
191	0xbfb93c4512350bbe	-0.09857589430343602
192	0xbfb7fa6f3a74f592	-0.09366507699174623
193	0xbfb6d72a319c4e68	-0.08922065459437933
194	0xbfb5d9b1ef40ac38	-0.08535301295403108
195	0xbfb50b0a7ebd316e	-0.08219972223486646
196	0xbfb4762d892f6e37	-0.07992825125932589
197	0xbfb427f1e8c62c0f	-0.07873451168977418
198	0xbfb42e78e69b12d4	-0.07883411054633466
199	0xbfb4980c1eb73a56	-0.0804450583448014
200	0xbfb571c9567d9634	-0.08376749383531817
201	0xbfb6aa18045f5a78	-0.08853292567014559
202	0xbfb8504fa820c86a	-0.09497545103730123
203	0xbfba5e34eea02bc4	-0.10299998117277115
204	0xbfbcc9c918fde3f2	-0.11245400295400979
205	0xbfbf875a258ef49a	-0.12315905968621835
206	0xbfc14597d1230f9d	-0.13493631088033178
207	0xbfc2e546879305b4	-0.1476219331725993
208	0xbfc49e0fd621748d	-0.16107366519546354
209	0xbfc66c06af509918	-0.17517169533056953
210	0xbfc84bea06d83416	-0.1898167165203694
211	0xbfca3b0be92e7af4	-0.20492695699518715
212	0xbfcc3737e9ab1460	-0.2204351321180722
213	0xbfce3e9c4ad36237	-0.2362857213363598
214	0xbfd027db7035f413	-0.252432689266983
215	0xbfd134a2ca6d134a	-0.26883764045878833
216	0xbfd2451d0a12cc43	-0.28546834930165604
217	0xbfd358d804a489bd	-0.30229759648696214
218	0xbfd46f72b31cb71c	-0.319302248872974
219	0xbfd5889a2299f40e	-0.33646252993622816
220	0xbfd6a4070460a613	-0.35376143863195003
221	0xbfd7c17bb9e5cdf7	-0.3711842837721799
222	0xbfd8e0c2c1a86164	-0.38871830856216705
223	0xbfda01ad6ff1d774	-0.406352385827055
224	0xbfdb2412e3713476	-0.4240767689814854
225	0xbfdc47cf29552eb8	-0.4418828872337417
226	0xbfdd6cc287569b9d	-0.45976317612297085
227	0xbfde92d0e4442afe	-0.47771093646649365
228	0xbfdfb9e1493e2fc2	-0.49572021629932916
229	0xbfe070eebb86bd90	-0.5137857115386613
230	0xbfe10558c5f9ab00	-0.5319026819900898
231	0xbfe19a25db865493	-0.5500668799965233
232	0xbfe22f4dfb7a3ffd	-0.5682744895620996
233	0xbfe2c4c9f0e243c0	-0.5865220741999266
234	0xbfe35a933a7640c5	-0.6048065320810784
235	0xbfe3f0a3f5d088f8	-0.6231250573221407
236	0xbfe486f6cd6d9ac4	-0.6414751064556516
237	0xbfe51d86e907efe7	-0.6598543692957691
238	0xbfe5b44fdff5e04f	-0.6782607435443512
239	0xbfe64b4dad3eb300	-0.6966923125924893
240	0xbfe6e27ca52831d8	-0.7151473260615218
241	0xbfe779d96c08058e	-0.7336241826998717
242	0xbfe81160ee2c791f	-0.7521214153128176
243	0xbfe8a91058b6eef2	-0.7706376774508199
244	0xbfe940e513482b9e	-0.789171731624595
245	0xbfe9d8dcba631f85	-0.8077224388480181
246	0xbfea70f51a6ef7af	-0.8262887493399286
247	0xbfeb092c2b44737a	-0.8448696942392495
248	0xbfeba1800c35521c	-0.8634643782084512
249	0xbfec39ef007f04ca	-0.8820719728174933
250	0xbfecd2776c1bd708	-0.9006917106150647
251	0xbfed6b17d0e77cb6	-0.9193228798066204
252	0xbfee03cecc0d4ae7	-0.9379648194684166
253	0xbfee9c9b13b7c576	-0.9566169152368917
254	0xbfef357b74fa2644	-0.9752785954198733
255	0xbfefce6ed1ed6c5b	-0.9939493274827201

d f8 [401]
0	0x3fb3a4316f3a4317	0.07672413793103448
1	0x3fb3a4316f3a4317	0.07672413793103448
2	0x3fb3a4316f3a4317	0.07672413793103448
3	0x3fb3a4316f3a4317	0.07672413793103448
4	0x3fb3a4316f3a4317	0.07672413793103448
5	0x3fb3a4316f3a4317	0.07672413793103448
6	0x3fb3a4316f3a4317	0.07672413793103448
7	0x3fb3a4316f3a4317	0.07672413793103448
8	0x3fb3a4316f3a4317	0.07672413793103448
9	0x3fb3a4316f3a4317	0.07672413793103448
10	0x3fb3a4316f3a4317	0.07672413793103448
11	0x3fb3a4316f3a4317	0.07672413793103448
12	0x3fb3a4316f3a4317	0.07672413793103448
13	0x3fb3a4316f3a4317	0.07672413793103448
14	0x3fb3a4316f3a4317	0.07672413793103448
15	0x3fb3a4316f3a4317	0.07672413793103448
16	0x3fb3a4316f3a4317	0.07672413793103448
17	0x3fb3a4316f3a4317	0.07672413793103448
18	0x3fb3a4316f3a4317	0.07672413793103448
19	0x3fb3a4316f3a4317	0.07672413793103448
20	0x3fb3a4316f3a4317	0.07672413793103448
21	0x3fb3a4316f3a4317	0.07672413793103448
22	0x3fb3a4316f3a4317	0.07672413793103448
23	0x3fb3a4316f3a4317	0.07672413793103448
24	0x3fb3a4316f3a4317	0.07672413793103448
25	0x3fb3a4316f3a4317	0.07672413793103448
26	0x3fb3a4316f3a4317	0.07672413793103448
27	0x3fb3a4316f3a4317	0.07672413793103448
28	0x3fb3a4316f3a4317	0.07672413793103448
29	0x3fb3a4316f3a4317	0.07672413793103448
30	0x3fb3a4316f3a4317	0.07672413793103448
31	0x3fb3a4316f3a4317	0.07672413793103448
32	0x3fb3a4316f3a4317	0.07672413793103448
33	0x3fb3a4316f3a4317	0.07672413793103448
34	0x3fb3a4316f3a4317	0.07672413793103448
35	0x3fb3a4316f3a4317	0.07672413793103448
36	0x3fb3a4316f3a4317	0.07672413793103448
37	0x3fb3a4316f3a4317	0.07672413793103448
38	0x3fb3a4316f3a4317	0.07672413793103448
39	0x3fb3a4316f3a4317	0.07672413793103448
40	0x3fb3a4316f3a4317	0.07672413793103448
41	0x3fb3a4316f3a4317	0.07672413793103448
42	0x3fb3a4316f3a4317	0.07672413793103448
43	0x3fb3a4316f3a4317	0.07672413793103448
44	0x3fb3a4316f3a4317	0.07672413793103448
45	0x3fb3a4316f3a4317	0.07672413793103448
46	0x3fb3a4316f3a4317	0.07672413793103448
47	0x3fb3a4316f3a4317	0.07672413793103448
48	0x3fb3a4316f3a4317	0.07672413793103448
49	0x3fb3a4316f3a4317	0.07672413793103448
50	0x3fb3a4316f3a4317	0.07672413793103448
51	0x3fb3a4316f3a4317	0.07672413793103448
52	0x3fb3a4316f3a4317	0.07672413793103448
53	0x3fb3a4316f3a4317	0.07672413793103448
54	0x3fb3a4316f3a4317	0.07672413793103448
55	0x3fb3a4316f3a4317	0.07672413793103448
56	0x3fb3a4316f3a4317	0.07672413793103448
57	0x3fb3a4316f3a4317	0.07672413793103448
58	0x3fb3a4316f3a4317	0.07672413793103448
59	0x3fb3a4316f3a4317	0.07672413793103448
60	0x3fb3a4316f3a4317	0.07672413793103448
61	0x3fb3a4316f3a4317	0.07672413793103448
62	0x3fb3a4316f3a4317	0.07672413793103448
63	0x3fb3a4316f3a4317	0.07672413793103448
64	0x3fb3a4316f3a4317	0.07672413793103448
65	0x3fb3a4316f3a4317	0.07672413793103448
66	0x3fb3a4316f3a4317	0.07672413793103448
67	0x3fb3a4316f3a4317	0.07672413793103448
68	0x3fb3a4316f3a4317	0.07672413793103448
69	0x3fb3a4316f3a4317	0.07672413793103448
70	0x3fb3a4316f3a4317	0.07672413793103448
71	0x3fb3a4316f3a4317	0.07672413793103448
72	0x3fb3a4316f3a4317	0.07672413793103448
73	0x3fb3a4316f3a4317	0.07672413793103448
74	0x3fb3a4316f3a4317	0.07672413793103448
75	0x3fb3a4316f3a4317	0.07672413793103448
76	0x3fb3a4316f3a4317	0.07672413793103448
77	0x3fb3a4316f3a4317	0.07672413793103448
78	0x3fb3a4316f3a4317	0.07672413793103448
79	0x3fb3a4316f3a4317	0.07672413793103448
80	0x3fb3a4316f3a4317	0.07672413793103448
81	0x3fb3a4316f3a4317	0.07672413793103448
82	0x3fb3a4316f3a4317	0.07672413793103448
83	0x3fb3a4316f3a4317	0.07672413793103448
84	0x3fb3a4316f3a4317	0.07672413793103448
85	0x3fb3a4316f3a4317	0.07672413793103448
86	0x3fb3a4316f3a4317	0.07672413793103448
87	0x3fb3a4316f3a4317	0.07672413793103448
88	0x3fb3a4316f3a4317	0.07672413793103448
89	0x3fb3a4316f3a4317	0.07672413793103448
90	0x3fb3a4316f3a4317	0.07672413793103448
91	0x3fb3a4316f3a4317	0.07672413793103448
92	0x3fb3a4316f3a4317	0.07672413793103448
93	0x3fb3a4316f3a4317	0.07672413793103448
94	0x3fb3a4316f3a4317	0.07672413793103448
95	0x3fb3a4316f3a4317	0.07672413793103448
96	0x3fb3a4316f3a4317	0.07672413793103448
97	0x3fb3a4316f3a4317	0.07672413793103448
98	0x3fb3a4316f3a4317	0.07672413793103448
99	0x3fb3a4316f3a4317	0.07672413793103448
100	0x3fb3a4316f3a4317	0.07672413793103448
101	0x3fb3a4316f3a4317	0.07672413793103448
102	0x3fb3a4316f3a4317	0.07672413793103448
103	0x3fb3a4316f3a4317	0.07672413793103448
104	0x3fb3a4316f3a4317	0.07672413793103448
105	0x3fb3a4316f3a4317	0.07672413793103448
106	0x3fb3a4316f3a4317	0.07672413793103448
107	0x3fb3a4316f3a4317	0.07672413793103448
108	0x3fb3a4316f3a4317	0.07672413793103448
109	0x3fb3a4316f3a4317	0.07672413793103448
110	0x3fb3a4316f3a4317	0.07672413793103448
111	0x3fb3a4316f3a4317	0.07672413793103448
112	0x3fb3a4316f3a4317	0.07672413793103448
113	0x3fb3a4316f3a4317	0.07672413793103448
114	0x3fb3a4316f3a4317	0.07672413793103448
115	0x3fb3a4316f3a4317	0.07672413793103448
116	0x3fb3a4316f3a4317	0.07672413793103448
117	0x3fb3a4316f3a4317	0.07672413793103448
118	0x3fb3a4316f3a4317	0.07672413793103448
119	0x3fb3a4316f3a4317	0.07672413793103448
120	0x3fb3a4316f3a4317	0.07672413793103448
121	0x3fb3a4316f3a4317	0.07672413793103448
122	0x3fb3a4316f3a4317	0.07672413793103448
123	0x3fb3a4316f3a4317	0.07672413793103448
124	0x3fb3a4316f3a4317	0.07672413793103448
125	0x3fb3a4316f3a4317	0.07672413793103448
126	0x3fb3a4316f3a4317	0.07672413793103448
127	0x3fb3a4316f3a4317	0.07672413793103448
128	0x3fb3a4316f3a4317	0.07672413793103448
129	0x3fb3a4316f3a4317	0.07672413793103448
130	0x3fb3a4316f3a4317	0.07672413793103448
131	0x3fb3a4316f3a4317	0.07672413793103448
132	0x3fb3a4316f3a4317	0.07672413793103448
133	0x3fb3a4316f3a4317	0.07672413793103448
134	0x3fb3a4316f3a4317	0.07672413793103448
135	0x3fb3a4316f3a4317	0.07672413793103448
136	0x3fb3a4316f3a4317	0.07672413793103448
137	0x3fb3a4316f3a4317	0.07672413793103448
138	0x3fb3a4316f3a4317	0.07672413793103448
139	0x3fb3a4316f3a4317	0.07672413793103448
140	0x3fb3a4316f3a4317	0.07672413793103448
141	0x3fb3a4316f3a4317	0.07672413793103448
142	0x3fb3a4316f3a4317	0.07672413793103448
143	0x3fb3a4316f3a4317	0.07672413793103448
144	0x3fb3a4316f3a4317	0.07672413793103448
145	0x3fb3a4316f3a4317	0.07672413793103448
146	0x3fb3a4316f3a4317	0.07672413793103448
147	0x3fb3a4316f3a4317	0.07672413793103448
148	0x3fb3a4316f3a4317	0.07672413793103448
149	0x3fb3a4316f3a4317	0.07672413793103448
150	0x3fb3a4316f3a4317	0.07672413793103448
151	0x3fb3a4316f3a4317	0.07672413793103448
152	0x3fb3a4316f3a4317	0.07672413793103448
153	0x3fb3a4316f3a4317	0.07672413793103448
154	0x3fb3a4316f3a4317	0.07672413793103448
155	0x3fb3a4316f3a4317	0.07672413793103448
156	0x3fb3a4316f3a4317	0.07672413793103448
157	0x3fb3a4316f3a4317	0.07672413793103448
158	0x3fb3a4316f3a4317	0.07672413793103448
159	0x3fb3a4316f3a4317	0.07672413793103448
160	0x3fb3a4316f3a4317	0.07672413793103448
161	0x3fb3a4316f3a4317	0.07672413793103448
162	0x3fb3a4316f3a4317	0.07672413793103448
163	0x3fb3a4316f3a4317	0.07672413793103448
164	0x3fb3a4316f3a4317	0.07672413793103448
165	0x3fb3a4316f3a4317	0.07672413793103448
166	0x3fb3a4316f3a4317	0.07672413793103448
167	0x3fb3a4316f3a4317	0.07672413793103448
168	0x3fb3a4316f3a4317	0.07672413793103448
169	0x3fb3a4316f3a4317	0.07672413793103448
170	0x3fb3a4316f3a4317	0.07672413793103448
171	0x3fb3a4316f3a4317	0.07672413793103448
172	0x3fb3a4316f3a4317	0.07672413793103448
173	0x3fb3a4316f3a4317	0.07672413793103448
174	0x3fb3a4316f3a4317	0.07672413793103448
175	0x3fb3a4316f3a4317	0.07672413793103448
176	0x3fb3a4316f3a4317	0.07672413793103448
177	0x3fb3a4316f3a4317	0.07672413793103448
178	0x3fb3a4316f3a4317	0.07672413793103448
179	0x3fb3a4316f3a4317	0.07672413793103448
180	0x3fb3a4316f3a4317	0.07672413793103448
181	0x3fb3a4316f3a4317	0.07672413793103448
182	0x3fb3a4316f3a4317	0.07672413793103448
183	0x3fb3a4316f3a4317	0.07672413793103448
184	0x3fb3a4316f3a4317	0.07672413793103448
185	0x3fb3a4316f3a4317	0.07672413793103448
186	0x3fb3a4316f3a4317	0.07672413793103448
187	0x3fb3a4316f3a4317	0.07672413793103448
188	0x3fb3a4316f3a4317	0.07672413793103448
189	0x3fb3a4316f3a4317	0.07672413793103448
190	0x3fb3a4316f3a4317	0.07672413793103448
191	0x3fb3a4316f3a4317	0.07672413793103448
192	0x3fb3a4316f3a4317	0.07672413793103448
193	0x3fb3a4316f3a4317	0.07672413793103448
194	0x3fb3a4316f3a4317	0.07672413793103448
195	0x3fb3a4316f3a4317	0.07672413793103448
196	0x3fb3a4316f3a4317	0.07672413793103448
197	0x3fb3a4316f3a4317	0.07672413793103448
198	0x3fb3a4316f3a4317	0.07672413793103448
199	0x3fb3a4316f3a4317	0.07672413793103448
200	0x3fb3a4316f3a4317	0.07672413793103448
201	0x3fb3a4316f3a4317	0.07672413793103448
202	0x3fb3a4316f3a4317	0.07672413793103448
203	0x3fb3a4316f3a4317	0.07672413793103448
204	0x3fb3a4316f3a4317	0.07672413793103448
205	0x3fb3a4316f3a4317	0.07672413793103448
206	0x3fb3a4316f3a4317	0.07672413793103448
207	0x3fb3a4316f3a4317	0.07672413793103448
208	0x3fb3a4316f3a4317	0.07672413793103448
209	0x3fb3a4316f3a4317	0.07672413793103448
210	0x3fb3a4316f3a4317	0.07672413793103448
211	0x3fb3a4316f3a4317	0.07672413793103448
212	0x3fb3a4316f3a4317	0.07672413793103448
213	0x3fb3a4316f3a4317	0.07672413793103448
214	0x3fb3a4316f3a4317	0.07672413793103448
215	0x3fb3a4316f3a4317	0.07672413793103448
216	0x3fb3a4316f3a4317	0.07672413793103448
217	0x3fb3a4316f3a4317	0.07672413793103448
218	0x3fb3a4316f3a4317	0.07672413793103448
219	0x3fb3a4316f3a4317	0.07672413793103448
220	0x3fb3a4316f3a4317	0.07672413793103448
221	0x3fb3a4316f3a4317	0.07672413793103448
222	0x3fb3a4316f3a4317	0.07672413793103448
223	0x3fb3a4316f3a4317	0.07672413793103448
224	0x3fb3a4316f3a4317	0.07672413793103448
225	0x3fb3a4316f3a4317	0.07672413793103448
226	0x3fb3a4316f3a4317	0.07672413793103448
227	0x3fb3a4316f3a4317	0.07672413793103448
228	0x3fb3a4316f3a4317	0.07672413793103448
229	0x3fb3a4316f3a4317	0.07672413793103448
230	0x3fb3a4316f3a4317	0.07672413793103448
231	0x3fb3a4316f3a4317	0.07672413793103448
232	0x3fb3a4316f3a4317	0.07672413793103448
233	0x3fb3a4316f3a4317	0.07672413793103448
234	0x3fb3a4316f3a4317	0.07672413793103448
235	0x3fb3a4316f3a4317	0.07672413793103448
236	0x3fb3a4316f3a4317	0.07672413793103448
237	0x3fb3a4316f3a4317	0.07672413793103448
238	0x3fb3a4316f3a4317	0.07672413793103448
239	0x3fb3a4316f3a4317	0.07672413793103448
240	0x3fb3a4316f3a4317	0.07672413793103448
241	0x3fb3a4316f3a4317	0.07672413793103448
242	0x3fb3a4316f3a4317	0.07672413793103448
243	0x3fb3a4316f3a4317	0.07672413793103448
244	0x3fb3a4316f3a4317	0.07672413793103448
245	0x3fb3a4316f3a4317	0.07672413793103448
246	0x3fb3a4316f3a4317	0.07672413793103448
247	0x3fb3a4316f3a4317	0.07672413793103448
248	0x3fb3a4316f3a4317	0.07672413793103448
249	0x3fb3a4316f3a4317	0.07672413793103448
250	0x3fb3a4316f3a4317	0.07672413793103448
251	0x3fb3a4316f3a4317	0.07672413793103448
252	0x3fb3a4316f3a4317	0.07672413793103448
253	0x3fb3a4316f3a4317	0.07672413793103448
254	0x3fb3a4316f3a4317	0.07672413793103448
255	0x3fb3a4316f3a4317	0.07672413793103448

zmax f8 []
0	0x4014000000000000	5.0

hz_F f8 [401]
0	0x3fa062367a3a6188	0.031999304218689295
1	0x3fa75f9704c76bb1	0.0456511681874966
2	0x3faa76d54560fbe8	0.051687874526116506
3	0x3fabda70571e69a6	0.05440093100988301
4	0x3fac7bad2a0fd97c	0.05563107622576788
5	0x3facc52ef7d81a46	0.056191890482342674
6	0x3face6cf6b1258b7	0.05644844228770423
7	0x3facf6372463c2a1	0.05656597441873613
8	0x3facfd4274749272	0.056619717326872
9	0x3fad0073cb25253a	0.056644075916276695
10	0x3fad01dd2e0c89da	0.056654846068585576
11	0x3fad0272d78ccd0d	0.05665930634713776
12	0x3fad02a5b6649c15	0.056660822405597035
13	0x3fad02aa31060d38	0.05666095589097114
14	0x3fad0298ac9df751	0.05666043383733544
15	0x3fad027c8e13faf1	0.056659595817100235
16	0x3fad025b2bdcb970	0.05665860090663244
17	0x3fad023707a8c324	0.05665752380844527
18	0x3fad02114f2dd6b6	0.05665639964619855
19	0x3fad01ea901579fe	0.05665524491154271
20	0x3fad01c30c69de0f	0.05665406729252364
21	0x3fad019ae255da4a	0.05665287030108297
22	0x3fad01721eec5467	0.056651655459213406
23	0x3fad0148c70ef6c7	0.056650423335197035
24	0x3fad011edbaa288b	0.05664917403653743
25	0x3fad00f45bba20ae	0.05664790744509794
26	0x3fad00c94542660e	0.056646623329651744
27	0x3fad009d95c4678d	0.056645321399812244
28	0x3fad00714a7870d7	0.05664400133193375
29	0x3fad00446068fa02	0.056642662781531086
30	0x3fad0016d47f8b8d	0.05664130538914156
31	0x3facffe8a38a9aad	0.05663992878299005
32	0x3facffb9ca40519d	0.05663853258025429
33	0x3facff8a453f4960	0.05663711638739488
34	0x3facff5a110e9a52	0.056635679800184704
35	0x3facff292a1dae02	0.056634222403626935
36	0x3facfef78cc3972d	0.05663274377165659
37	0x3facfec5353e3cc7	0.05663124346676223
38	0x3facfe921fb1e4d5	0.05662972103977785
39	0x3facfe5e482800c9	0.056628176029336404
40	0x3facfe29aa8e9e5a	0.05662660796161552
41	0x3facfdf442b7575c	0.056625016349854035
42	0x3facfdbe0c565361	0.05662340069390016
43	0x3facfd8703016dfd	0.05662176047982468
44	0x3facfd4f222f0dce	0.05662009517939347
45	0x3facfd1665350e6d	0.05661840424957352
46	0x3facfcdcc747c91f	0.05661668713209366
47	0x3facfca24378a73f	0.05661494325279514
48	0x3facfc66d4b52aeb	0.05661317202119228
49	0x3facfc2a75c59b77	0.056611372829869326
50	0x3facfbed214b7c93	0.056609545053782594
51	0x3facfbaed1c081b7	0.05660768804978338
52	0x3facfb6f8174dab4	0.05660580115584449
53	0x3facfb2f2a8dc4eb	0.05660388369040866
54	0x3facfaedc7042d12	0.05660193495176648
55	0x3facfaab50a2b137	0.05659995421715041
56	0x3facfa67c1043eff	0.05659794074210644
57	0x3facfa2311921b96	0.056595893759598656
58	0x3facf9dd3b82246b	0.056593812479214765
59	0x3facf99637d4c56a	0.05659169608623922
60	0x3facf94dff530347	0.05658954374076202
61	0x3facf9048a8c5420	0.05658735457669928
62	0x3facf8b9d1d4781b	0.056585127700813774
63	0x3facf86dcd4102bf	0.05658286219159469
64	0x3facf82074a70c89	0.05658055709820881
65	0x3facf7d1bf98abaf	0.056578211439350816
66	0x3facf781a56238df	0.05657582420200113
67	0x3facf7301d0772cf	0.056573394340124865
68	0x3facf6dd1d40cecf	0.05657092077345071
69	0x3facf6889c7831e2	0.05656840238598072
70	0x3facf63290c5da57	0.056565838024586305
71	0x3facf5daefece14a	0.05656322649741925
72	0x3facf581af57cddf	0.0565605665723543
73	0x3facf526c414ed58	0.056557856975326615
74	0x3facf4ca22d23273	0.056555096388454816
75	0x3facf46bbfd94ffb	0.0565522834482692
76	0x3facf40b8f0b75da	0.05654941674377385
77	0x3facf3a983dc9c97	0.056546494814307006
78	0x3facf345914ed589	0.056543516147409774
79	0x3facf2dfa9ed72da	0.056540479176623484
80	0x3facf277bfc78066	0.05653738227897591
81	0x3facf20dc46a64d0	0.056534223772538916
82	0x3facf1a1a8dc08c4	0.056531001913769724
83	0x3facf1335d9480c3	0.05652771489462929
84	0x3facf0c2d277d943	0.056524360839761666
85	0x3facf04ff6cf045f	0.056520937803278264
86	0x3facefdab940ba7f	0.05651744376551892
87	0x3facef6307c9bda4	0.05651387662953347
88	0x3faceee8cfb4df2e	0.05651023421745403
89	0x3facee6bfd928e1e	0.05650651426665497
90	0x3facedec7d2fa80c	0.05650271442557661
91	0x3faced6a398c0577	0.056498832249427026
92	0x3facece51cd07ba9	0.05649486519563791
93	0x3facec5d1043f910	0.0564908106189127
94	0x3facebd1fc406b27	0.05648666576617805
95	0x3faceb43c826a72b	0.05648242777108544
96	0x3faceab25a5197de	0.05647809364818078
97	0x3facea1d9808e595	0.05647366028683646
98	0x3face9856572907f	0.05646912444470419
99	0x3face8e9a583a0aa	0.056464482740751734
100	0x3face84a39f02225	0.05645973164798005
101	0x3face7a70319ac79	0.05645486748547852
102	0x3face6ffdffd363b	0.05644988641016054
103	0x3face654ae1f8a6c	0.05644478440787712
104	0x3face5a549785f9c	0.05643955728390823
105	0x3face4f18c5c3dc2	0.05643420065291195
106	0x3face4394f64cbe5	0.05642870992814845
107	0x3face37c69577044	0.05642308030994106
108	0x3face2baaf0a6089	0.056417306773426885
109	0x3face1f3f347b07e	0.05641138405539524
110	0x3face12806ae5e11	0.05640530664021182
111	0x3face056b7914550	0.056399068744790726
112	0x3facdf7fd1d396ae	0.0563926643024336
113	0x3facdea31ec2b31a	0.056386086945485484
114	0x3facddc064ed7c2a	0.05637932998683255
115	0x3facdcd767f845aa	0.056372386399867594
116	0x3facdbe7e86dc4f2	0.05636524879708728
117	0x3facdaf1a38c3d10	0.05635790940697849
118	0x3facd9f4530ecb6c	0.05635036004914337
119	0x3facd8efacf29fa2	0.05634259210756844
120	0x3facd7e3633737e1	0.05633459650162798
121	0x3facd6cf2399d371	0.05632636365490996
122	0x3facd5b2974b5f4d	0.056317883461530195
123	0x3facd48d629ffe5c	0.056309145249539866
124	0x3facd35f24b83587	0.05630013774144076
125	0x3facd2277722ccb9	0.05629084901138399
126	0x3facd0e5ed766d77	0.05628126643861269
127	0x3faccf9a14e2a05e	0.05627137665698066
128	0x3facce4373b71d08	0.05626116550006982
129	0x3faccce188e0389a	0.05625061794135995
130	0x3faccb73cb579f43	0.05623971802907459
131	0x3facc9f9a987f220	0.05622844881506617
132	0x3facc87288a202f1	0.05621679227716026
133	0x3facc6ddc3e1d6c0	0.056204729234122563
134	0x3facc53aabc22679	0.056192239252664096
135	0x3facc388851bb658	0.056179300545278366
136	0x3facc1c6882f11ca	0.05616588985825251
137	0x3facbff3df954166	0.056151982348299254
138	0x3facbe0fa71575de	0.05613755144689113
139	0x3facbc18ea5be732	0.056122568710590306
140	0x3facba0ea38e0767	0.05610700365561066
141	0x3facb7efb9b89f84	0.056090823575060816
142	0x3facb5baff120d81	0.05607399333623687
143	0x3facb36f2f0be064	0.05605647515579973
144	0x3facb10aec2d4986	0.05603822834986531
145	0x3facae8cbdaf0e5f	0.05601920905567392
146	0x3facabf30cd0f860	0.055999369921196473
147	0x3faca93c21df0373	0.05597865975824492
148	0x3faca66620db5352	0.05595702315409902
149	0x3faca36f05c05b0d	0.05593440003592862
150	0x3faca054a04c1bf2	0.0559107251811425
151	0x3fac9d148f43cb43	0.05588592766607416
152	0x3fac99ac3b1b4659	0.05585993024363906
153	0x3fac9618cfe9a005	0.05583264863963681
154	0x3fac9257368efa26	0.055803990755056085
155	0x3fac8e640cebe285	0.05577385575992814
156	0x3fac8a3b9d0474be	0.055742133061565266
157	0x3fac85d9d2e2ba32	0.055708701126935614
158	0x3fac813a31042679	0.055673426135467836
159	0x3fac7c57c3138afc	0.05563616043379757
160	0x3fac772d0ea6352e	0.05559674075912323
161	0x3fac71b401a42524	0.0555549861911209
162	0x3fac6be5ddf2b9b8	0.05551069578483542
163	0x3fac65bb21e47bd7	0.05546364582755075
164	0x3fac5f2b6cd86511	0.055413586651591136
165	0x3fac582d5f545a2f	0.055360238921071996
166	0x3fac50b675c2655f	0.05530328929416827
167	0x3fac48badccc17e7	0.05524238534239583
168	0x3fac402d3e19a78f	0.05517712958392373
169	0x3fac36fe83f9338d	0.0551070724583048
170	0x3fac2d1d922417ae	0.05503170403430545
171	0x3fac2276f178b446	0.05495044419908672
172	0x3fac16f46c0dad9c	0.05486263102542496
173	0x3fac0a7c967ad6e3	0.05476750695144774
174	0x3fabfcf24293ecee	0.054664202334572795
175	0x3fabee33d7161a68	0.054551715856224814
176	0x3fabde1a86f46133	0.05442889115710372
177	0x3fabcc7962041b9a	0.05429438897595347
178	0x3fabb91c37d4f7d6	0.05414665395299749
179	0x3faba3c6449474ac	0.05398387515217826
180	0x3fab8c309f26f7a9	0.05380393927360611
181	0x3fab72085f65be67	0.05360437550086488
182	0x3fab54ec742a1d91	0.05338229101203774
183	0x3fab346b23381dc8	0.0531342964641755
184	0x3fab0fff32600858	0.05285642137461427
185	0x3faae70cc309233f	0.052544020469730494
186	0x3faab8ddfa48366d	0.052191674043666626
187	0x3faa849fab085f15	0.051793088558211554
188	0x3faa495e61bcf40b	0.05134100859729792
189	0x3faa06046d92201b	0.050827158332197274
190	0x3fa9b959d398aa85	0.05024224002803116
191	0x3fa96207762c1699	0.049576028037376214
192	0x3fa8fe9f0ac2d3db	0.04881760603294768
193	0x3fa88da974c9ebc3	0.04795579481739012
194	0x3fa80dbc30d306a5	0.04697979064941408
195	0x3fa77d939906c6b9	0.04587994807242297
196	0x3fa6dc2954b196df	0.04464844855173821
197	0x3fa628b26475957d	0.04327924228963818
198	0x3fa5625e0ad6348c	0.04176610834392944
199	0x3fa487979e22f593	0.04009698682191778
200	0x3fa394729b87fa1e	0.03824194096158727
201	0x3fa2dddc51738de0	0.03684891218452058
202	0x3fa22b7a8168489d	0.035487964913174276
203	0x3fa18001c8f735da	0.03417974069780501
204	0x3fa0dd5a674d5e4a	0.03293879042638233
205	0x3fa044a51c7bda52	0.03177371952726972
206	0x3f9f6cb7e582e472	0.0306881650765018
207	0x3f9e64f979c3c137	0.029682062203336215
208	0x3f9d71629ac5bcaa	0.028752842613752584
209	0x3f9c90e028808ecf	0.02789640662389453
210	0x3f9bc228542fce5a	0.02710783971629236
211	0x3f9b03dbb9977892	0.02638190574895611
212	0x3f9a549adcfad2f7	0.025713367211852547
213	0x3f99b3134b084558	0.025097180800064706
214	0x3f991e06f9a2336d	0.02452860735552369
215	0x3f98944fdbf5f47c	0.02400326519044825
216	0x3f9814e109e6b80b	0.023517147282909472
217	0x3f979ec66b22dafb	0.02306661633403005
218	0x3f97312385d4a0e9	0.022648386996622447
219	0x3f96cb31d8fe9a42	0.022259501332565053
220	0x3f966c3f04a66bdf	0.021897301348513195
221	0x3f9613aae8a28486	0.0215594009865794
222	0x3f95c0e5d23e5c71	0.021243658978701455
223	0x3f95736ec622807a	0.020948153346239874
224	0x3f952ad1ed11fecd	0.02067115792715306
225	0x3f94e6a725c83e98	0.020411121064226906
226	0x3f94a690bbae2dae	0.020166646437741846
227	0x3f946a3a40a1e8a8	0.019936475939609594
228	0x3f94315787449a80	0.019719474440672347
229	0x3f93fba3baebcd3a	0.019514616283186494
230	0x3f93c8e092425850	0.019320973326636015
231	0x3f9398d599bc8f96	0.01913770438035519
232	0x3f936b4f9331ef9e	0.018964045867036476
233	0x3f93401fe827cb1f	0.018799303574222322
234	0x3f93171c2c953391	0.01864284536468436
235	0x3f92f01db025046b	0.018494094730389692
236	0x3f92cb011c3498e3	0.018352525087856796
237	0x3f92a7a61d01cf78	0.018217654724551363
238	0x3f9285ef14abf812	0.018089042317107902
239	0x3f9265c0d6d5c91d	0.017966282951825997
240	0x3f9247026bdca09d	0.017849004586566342
241	0x3f92299cdabb4578	0.017736864900887522
242	0x3f920d7af8cb7efe	0.01762954848788833
243	0x3f91f2893eb43356	0.01752676434721264
244	0x3f91d8b5a1e79dbd	0.017428243643647912
245	0x3f91bfef72297b51	0.017333737700364896
246	0x3f91a8273aa58f95	0.017243016199600076
247	0x3f91914ea62e1b63	0.01715586556704397
248	0x3f917b586646ac27	0.017072087519107406
249	0x3f9166381caaf29d	0.01699149775480412
250	0x3f9151e2470b0d69	0.01691392477620238
251	0x3f913e4c2cbf21f5	0.016839208823315095
252	0x3f912b6bce3bdf8d	0.016767200911061365
253	0x3f911937d61797c6	0.01669776195731012
254	0x3f9107a78b757f87	0.0166307619923596
255	0x3f90f6b2c5b19cbc	0.016566079441329803

Vz_F f8 [401]
0	0x3fe14ef22cac0e80	0.5408869621755485
1	0x3fe8b1521290af00	0.771645580539797
2	0x3febf5394894a240	0.8736845414724215
3	0x3fed6ce6a0f27b80	0.9195435660839024
4	0x3fee173d3ba47100	0.9403368153466829
5	0x3fee64e52aacd400	0.9498163064478149
6	0x3fee886b8082a2c0	0.954152823445007
7	0x3fee98b1d21ee200	0.9561394790571853
8	0x3feea022eae77cc0	0.9570479000066356
9	0x3feea382639d8800	0.9574596353161269
10	0x3feea5002c523740	0.9576416841170854
11	0x3feea59e48581b00	0.9577170765849985
12	0x3feea5d4063bae40	0.9577427026501439
13	0x3feea5d8c1953400	0.9577449589647813
14	0x3feea5c640104e40	0.9577361346477531
15	0x3feea5a88b380700	0.9577219695204064
16	0x3feea58546a168c0	0.9577051524641078
17	0x3feea55f18350580	0.957686946181795
18	0x3feea5373eb02000	0.9576679443716785
19	0x3feea50e4fbb2bc0	0.9576484257935292
20	0x3feea4e4911a9580	0.9576285203990409
21	0x3feea4ba22ad1ac0	0.9576082875508618
22	0x3feea48f124289c0	0.957587752975364
23	0x3feea463650315c0	0.9575669262782682
24	0x3feea4371be87dc0	0.9575458092767164
25	0x3feea40a35e04f00	0.9575243999738348
26	0x3feea3dcb0d15d40	0.9575026944611764
27	0x3feea3ae8a190c80	0.9574806878303121
28	0x3feea37fbec77cc0	0.9574583746106313
29	0x3feea3504bbc6440	0.9574357489792718
30	0x3feea3202db4adc0	0.9574128048602049
31	0x3feea2ef6150a980	0.9573895359692841
32	0x3feea2bde316fdc0	0.9573659358356323
33	0x3feea28baf756b00	0.9573419978072195
34	0x3feea258c2c0dd80	0.9573177150513601
35	0x3feea22519353c80	0.9572930805533275
36	0x3feea1f0aef4b8c0	0.9572680871113093
37	0x3feea1bb8006eb80	0.9572427273300121
38	0x3feea18588585ac0	0.9572169936171449
39	0x3feea14ec3b93440	0.9571908781741811
40	0x3feea1172ddcb640	0.9571643729920609
41	0x3feea0dec2581000	0.9571374698430191
42	0x3feea0a57ca15500	0.957110160272947
43	0x3feea06b580e9700	0.957082435594856
44	0x3feea0304fd4ac40	0.9570542868799592
45	0x3fee9ff45f0609c0	0.9570257049493236
46	0x3fee9fb78091be00	0.9569966803664443
47	0x3fee9f79af41eec0	0.9569672034262666
48	0x3fee9f3ae5bad3c0	0.9569372641477614
49	0x3fee9efb1e795000	0.9569068522637281
50	0x3fee9eba53d152c0	0.9568759572090002
51	0x3fee9e787fecbbc0	0.9568445681123805
52	0x3fee9e359cc98f40	0.9568126737835669
53	0x3fee9df1a4387280	0.9567802627021393
54	0x3fee9dac8fdb39c0	0.9567473230070433
55	0x3fee9d665922cd80	0.9567138424812782
56	0x3fee9d1ef94db4c0	0.9566798085412742
57	0x3fee9cd669660080	0.956645208221758
58	0x3fee9c8ca23f7340	0.9566100281623235
59	0x3fee9c419c7559c0	0.9565742545917644
60	0x3fee9bf550687900	0.9565378733130103
61	0x3fee9ba7b63cc7c0	0.9565008696865718
62	0x3fee9b58c5d72800	0.956463228613984
63	0x3fee9b0876daccc0	0.9564249345188713
64	0x3fee9ab6c0a6ca40	0.9563859713292189
65	0x3fee9a639a536a40	0.9563463224579394
66	0x3fee9a0efaaf4940	0.9563059707818766
67	0x3fee99b8d83c50c0	0.9562648986198141
68	0x3fee9961292ce100	0.9562230877118338
69	0x3fee9907e3605ac0	0.9561805191941275
70	0x3fee98acfc5fdc40	0.9561371735752644
71	0x3fee9850695a9040	0.9560930307093329
72	0x3fee97f21f220fc0	0.956048069769615
73	0x3fee979212268540	0.9560022692204839
74	0x3fee973036725080	0.9559556067856789
75	0x3fee96cc7fa5e8c0	0.9559080594183555
76	0x3fee9666e0f35c40	0.9558596032683297
77	0x3fee95ff4d1957c0	0.9558102136459112
78	0x3fee9595b65e3300	0.955759864985879
79	0x3fee952a0e8ad2c0	0.9557085308102486
80	0x3fee94bc46e4d1c0	0.9556561836857824
81	0x3fee944c5028d440	0.9556027951827062
82	0x3fee93da1a845ac0	0.9555483358297678
83	0x3fee9365958f1040	0.9554927750655295
84	0x3fee92eeb0443cc0	0.9554360811906903
85	0x3fee927558fb4cc0	0.9553782213137296
86	0x3fee91f97d604b00	0.9553191612961598
87	0x3fee917b0a6bb400	0.9552588656930538
88	0x3fee90f9ec5a0880	0.9551972976917256
89	0x3fee90760ea2e1c0	0.9551344190468214
90	0x3fee8fef5bef3dc0	0.955070190009728
91	0x3fee8f65be0f8300	0.9550045692559195
92	0x3fee8ed91df0f200	0.9549375138081473
93	0x3fee8e4963922440	0.9548689789527387
94	0x3fee8db675f751c0	0.9547989181542604
95	0x3fee8d203b1d8b00	0.9547272829625797
96	0x3fee8c8697ed2d80	0.9546540229143119
97	0x3fee8be9702bcb00	0.9545790854302538
98	0x3fee8b48a66cf3c0	0.9545024157047166
99	0x3fee8aa41c020940	0.9544239565878243
100	0x3fee89fbb0e95300	0.9543436484624124
101	0x3fee894f43bb8980	0.9542614291097351
102	0x3fee889eb198a340	0.9541772335697729
103	0x3fee87e9d6132fc0	0.9540909939910236
104	0x3fee87308b1a4080	0.9540026394697776
105	0x3fee8672a8e20f80	0.9539120958802272
106	0x3fee85b005caf680	0.9538192856923189
107	0x3fee84e87646a080	0.9537241277767095
108	0x3fee841bccbb94c0	0.9536265371977137
109	0x3fee8349d966a340	0.9535264249908337
110	0x3fee82726a3a3180	0.9534236979248334
111	0x3fee81954abb5100	0.9533182582477195
112	0x3fee80b243dc3400	0.9532100034135738
113	0x3fee7fc91bd3e280	0.9530988257893824
114	0x3fee7ed995f33e80	0.9529846123422914
115	0x3fee7de372767900	0.9528672443009611
116	0x3fee7ce66e535940	0.9527465967937943
117	0x3fee7be243038a80	0.9526225384582432
118	0x3fee7ad6a64ad240	0.9524949310203468
119	0x3fee79c349f8f6c0	0.952363628842896
120	0x3fee78a7dba66200	0.9522284784353019
121	0x3fee7784046bb5c0	0.9520893179266565
122	0x3fee7657689389c0	0.95194597649634
123	0x3fee7521a7456940	0.9517982737554931
124	0x3fee73e25a2a1880	0.9516460190796039
125	0x3fee7299150825c0	0.9514890108850338
126	0x3fee71456557c080	0.9513270358420556
127	0x3fee6fe6d1cd7300	0.9511598680215627
128	0x3fee6e7cd9daa240	0.9509872679673848
129	0x3fee6d06f5228f80	0.9508089816849719
130	0x3fee6b8492e2fb80	0.9506247395400891
131	0x3fee69f5194ef0c0	0.9504342550567557
132	0x3fee6857e4da5bc0	0.9502372236046241
133	0x3fee66ac47747fc0	0.9500333209616585
134	0x3fee64f187afec80	0.9498222017422364
135	0x3fee6326dfd52780	0.9496034976702816
136	0x3fee614b7cde8180	0.9493768156863069
137	0x3fee5f5e7d597c80	0.9491417358621135
138	0x3fee5d5ef02ba000	0.9488978091076206
139	0x3fee5b4bd336c480	0.9486445546409783
140	0x3fee592411d8bd80	0.9483814571921556
141	0x3fee56e68342c780	0.9481079639137846
142	0x3fee5491e8a29d00	0.9478234809547814
143	0x3fee5224eb182b00	0.9475273696601505
144	0x3fee4f9e1970fd80	0.947218942346737
145	0x3fee4cfbe5a1a580	0.9468974575985811
146	0x3fee4a3ca1f4a240	0.9465621150203063
147	0x3fee475e7de48180	0.9462120493736137
148	0x3fee445f8295a080	0.9458463240125781
149	0x3fee413d8ee24340	0.9454639235210394
150	0x3fee3df652e90d00	0.9450637454359878
151	0x3fee3a874b0c3840	0.9446445909286538
152	0x3fee36edba4bcc40	0.9442051542849939
153	0x3fee3326a3e2d2c0	0.9437440110110273
154	0x3fee2f2ec40a2f40	0.9432596043493291
155	0x3fee2b0287bf8380	0.9427502299623569
156	0x3fee269e036841c0	0.9422140184924999
157	0x3fee21fce821e240	0.9416489156565788
158	0x3fee1d1a77882940	0.9410526594740887
159	0x3fee17f175af4f00	0.9404227541476473
160	0x3fee127c19049a00	0.9397564400322267
161	0x3fee0cb3f7b860c0	0.9390506590161962
162	0x3fee0691f242e840	0.9383020145098797
163	0x3fee000e1a7fb5c0	0.937506725078201
164	0x3fedf91f96c13dc0	0.9366605705671915
165	0x3fedf1bc801e7c00	0.9357588293386243
166	0x3fede9d9bb15c880	0.9347962049489666
167	0x3fede16ac9719c00	0.9337667402695615
168	0x3fedd86194231900	0.9326637166311968
169	0x3fedceae2b815860	0.9314795350753791
170	0x3fedc43e7c098520	0.9302055761910744
171	0x3fedb8fdf556eea0	0.9288320342816014
172	0x3fedacd520926e80	0.9273477207347725
173	0x3fed9fa92307f7e0	0.9257398304177933
174	0x3fed915b28e80d00	0.9239936636880941
175	0x3fed81c7b3751d80	0.9220922951725896
176	0x3fed70c5c4fbed80	0.9200161788316308
177	0x3fed5e25e3fdfaa0	0.9177426770182429
178	0x3fed49b0edf123e0	0.9152454993537695
179	0x3fed3326b0ff34e0	0.91249403543193
180	0x3fed1a3c436fc1e0	0.9094525639648587
181	0x3fecfe9a0f2898c0	0.9060793205324202
182	0x3fecdfd98874b040	0.9023254075195908
183	0x3fecbd8289cdf880	0.898133534574086
184	0x3fec970853f81ce0	0.8934365882895712
185	0x3fec6bc63c235840	0.8881560492106999
186	0x3fec3afc23b39860	0.8822003075881746
187	0x3fec03caf237dde0	0.8754629832100669
188	0x3febc531766c0060	0.8678214371611936
189	0x3feb7e0a5307ffc0	0.85913578240433
190	0x3feb2d0bf1326dc0	0.8492488585356384
191	0x3fead0cbd578f3c0	0.8379878205665747
192	0x3fea67c708a59c80	0.8251681488881246
193	0x3fe9f0714205dc60	0.8106008805761
194	0x3fe9694b881508a0	0.7941033990721458
195	0x3fe8d0fff07aa880	0.7755126664026335
196	0x3fe8267953c5e580	0.7546965252105764
197	0x3fe768e13d699940	0.731552715250281
198	0x3fe6975b27bfa600	0.7059760834064832
199	0x3fe5b03b91f8e200	0.6777627802867414
200	0x3fe4af5d46b65d20	0.6464067822552444
201	0x3fe3ee78b8653d20	0.6228602982973008
202	0x3fe332056683ee00	0.599856090760511
203	0x3fe27cdf067d8240	0.5777430655253468
204	0x3fe1d1096659b260	0.556767177489359
205	0x3fe12fb5926b5b60	0.537073884940451
206	0x3fe099647857c480	0.5187246656843314
207	0x3fe00e13cb6ef620	0.5017184232053218
208	0x3fdf1ad10200ca00	0.48601174541104797
209	0x3fde2da28aadf480	0.47153533499642464
210	0x3fdd533fc49e54c0	0.45820612145446304
211	0x3fdc8a357633c140	0.44593559783153935
212	0x3fdbd1104cfbbf00	0.43463523404987825
213	0x3fdb266abb401340	0.4242197826973104
214	0x3fda88f4c36b5840	0.41460913738172067
215	0x3fd9f777bfd4de40	0.4057292340616847
216	0x3fd970d79ad82880	0.3975123417045623
217	0x3fd8f412751f4480	0.38989697873791584
218	0x3fd8803f6317fbc0	0.3828276126586694
219	0x3fd8148caf83cf80	0.37625424518704875
220	0x3fd7b03de9011140	0.3701319480353682
221	0x3fd752a9e5af9d00	0.36442038946411515
222	0x3fd6fb38d6828400	0.35908337543702373
223	0x3fd6a962786debc0	0.3540884185856008
224	0x3fd65cac6a61a100	0.34940634144597027
225	0x3fd614a8aa7c8a80	0.3450109162242043
226	0x3fd5d0f43a2bc680	0.34087854080926405
227	0x3fd59135e7570800	0.33698794929307496
228	0x3fd5551d37e92000	0.33331995449088936
229	0x3fd51c6174a83980	0.32985721962258907
230	0x3fd4e6c0d03f4bc0	0.32658405625005216
231	0x3fd4b3ffa7730f40	0.32348624565587514
232	0x3fd483e7d7adfdc0	0.32055088102785234
233	0x3fd45648294b6780	0.3177662280337401
234	0x3fd42af3cb49cc00	0.3151216016041758
235	0x3fd401c1de4cbe80	0.3126072569748217
236	0x3fd3da8d0d137f80	0.31021429326028027
237	0x3fd3b53330c08100	0.3079345680325929
238	0x3fd39194ff81c840	0.30576062156535855
239	0x3fd36f95c4570580	0.3036856095678431
240	0x3fd34f1b1eda8a40	0.301703243380107
241	0x3fd3300cca162000	0.29980773673059957
242	0x3fd31254698b8840	0.29799375826963015
243	0x3fd2f5dd5bb44600	0.2962563891934167
244	0x3fd2da9491536d40	0.2945910853574851
245	0x3fd2c0686909a840	0.2929936433562297
246	0x3fd2a7488ead1340	0.2914601701088948
247	0x3fd28f25ddf6a500	0.2899870555507533
248	0x3fd277f248245e40	0.28857094807742456
249	0x3fd261a0bc3b6700	0.28720873243365475
250	0x3fd24c25119f8a00	0.28589750977531025
251	0x3fd23773f4be6700	0.2846345796657346
252	0x3fd22382d594e5c0	0.2834174237974274
253	0x3fd21047d7dbda80	0.2822436912532922
254	0x3fd1fdb9c4af0a40	0.28111118514440037
255	0x3fd1ebcffd86f540	0.2800178504802098
