onecap_model_with_structure_ambiguity/output/upper_triangular_four_ambiguous_parameters/Delta_10.0_distorted_0/logadjustment_1_boundary_0/zmax_5.0_zscale_2.0/delta_0.01/q_0.2_gamma_8.0_rho_1.0/model.npz (npz, 126264 bytes, 58 tensors)

clowerlim f8 []
000000 2d 43 1c eb e2 36 1a 3f
       0.0001

zmin f8 []
000000 00 00 00 00 00 00 14 c0
       -5.0

Delta f8 []
000000 00 00 00 00 00 00 24 40
       10.0

s1_F f8 [401]
000000 c6 c5 a4 04 2a 0c df bf dd 14 4e a9 98 e4 de bf
       -0.4851174397800516 -0.4827024129265974
000010 6e 72 48 3c 07 bd de bf 1e 9b 0f d4 75 95 de bf
       -0.4802873696042188 -0.47787233075216473
000020 49 da b0 7b e4 6d de bf aa 63 b8 38 53 46 de bf
       -0.4754573066633481 -0.473042302504434
000030 10 3d 0a 0e c2 1e de bf 42 36 41 fd 30 f7 dd bf
       -0.4706273209676093 -0.4682123635473979
000040 86 00 59 07 a0 cf dd bf 6c 6e 00 2d 0f a8 dd bf
       -0.4657974311594518 -0.46338252443977157
000050 0c c4 c1 6e 7e 80 dd bf bc 14 16 cd ed 58 dd bf
       -0.4609676438913659 -0.45855278995470505
000060 9e 62 6f 48 5d 31 dd bf 4d f1 3c e1 cc 09 dd bf
       -0.4561379630445489 -0.4537231635656738
000070 c1 f1 ed 97 3c e2 dc bf 75 b6 f2 6c ac ba dc bf
       -0.45130839192259137 -0.44889364852392727
000080 09 1c bd 60 1c 93 dc bf 32 2d c1 73 8c 6b dc bf
       -0.4464789337839084 -0.4440642481246925
000090 ec 2c 75 a6 fc 43 dc bf 8c a0 51 f9 6c 1c dc bf
       -0.4416495919765129 -0.43923496577782184
0000a0 49 c0 d1 6c dd f4 db bf 0f 3e 73 01 4e cd db bf
       -0.4368203699768896 -0.43440580503099196
0000b0 ad 57 b6 b7 be a5 db bf e5 3e 1e 90 2f 7e db bf
       -0.43199127140666854 -0.42957676958120167
0000c0 cd be 30 8b a0 56 db bf ad ab 76 a9 11 2f db bf
       -0.42716230004132855 -0.424747863284831
0000d0 4a c5 7b eb 82 07 db bf ea d7 ce 51 f4 df da bf
       -0.4223334598201133 -0.4199190901666713
0000e0 96 c2 01 dd 65 b8 da bf d0 c9 a9 8d d7 90 da bf
       -0.41750475485518146 -0.4150904544286762
0000f0 4d 52 5f 64 49 69 da bf 18 47 be 61 bb 41 da bf
       -0.4126761894415594 -0.410261960461058
000100 44 23 66 86 2d 1a da bf cd d8 f9 d2 9f f2 d9 bf
       -0.40784776806735956 -0.40543361285325547
000110 42 33 20 48 12 cb d9 bf 0c be 83 e6 84 a3 d9 bf
       -0.40301949542554294 -0.4006054164046595
000120 2e ff d2 ae f7 7b d9 bf c9 96 c0 a1 6a 54 d9 bf
       -0.39819137642551794 -0.395777376137954
000130 03 34 03 c0 dd 2c d9 bf 3e fb 55 0a 51 05 d9 bf
       -0.39336341620656884 -0.39094949731218154
000140 3a 55 78 81 c4 dd d8 bf 0c 64 2e 26 38 b6 d8 bf
       -0.38853562015113463 -0.3861217854369563
000150 1e ef 40 f9 ab 8e d8 bf fe 97 7d fb 1f 67 d8 bf
       -0.38370799390007615 -0.38129424628857567
000160 12 04 b7 2d 94 3f d8 bf 17 11 c5 90 08 18 d8 bf
       -0.37888054336878085 -0.37646688592600824
000170 0c d1 84 25 7d f0 d7 bf b7 f4 d8 ec f1 c8 d7 bf
       -0.3740532747645069 -0.3716397107089721
000180 4a c5 a9 e7 66 a1 d7 bf d2 74 e5 16 dc 79 d7 bf
       -0.36922619460445516 -0.36681272731750625
000190 cc 39 80 7b 51 52 d7 bf 41 82 74 16 c7 2a d7 bf
       -0.36439930973656653 -0.3619859427726944
0001a0 c4 37 c3 e8 3c 03 d7 bf 40 f1 73 f3 b2 db d6 bf
       -0.35957262736053175 -0.35715936445901164
0001b0 d3 10 95 37 29 b4 d6 bf 2a 32 3c b6 9f 8c d6 bf
       -0.3547461550517827 -0.35233300014877733
0001c0 cc 32 86 70 16 65 d6 bf 0e 96 97 67 8d 3d d6 bf
       -0.3499199007863296 -0.3475068580285957
0001d0 37 c0 9c 9c 04 16 d6 bf fa 26 ca 10 7c ee d5 bf
       -0.3450938729683943 -0.3426809467278954
0001e0 57 b5 5c c5 f3 c6 d5 bf 55 13 9a bb 6b 9f d5 bf
       -0.3402680804600399 -0.3378552753495588
0001f0 85 db d0 f4 e3 77 d5 bf d0 0b 59 72 5c 50 d5 bf
       -0.3354425326137334 -0.33302985350399883
000200 19 4f 94 35 d5 28 d5 bf 93 46 ee 3f 4e 01 d5 bf
       -0.33061723930699 -0.328204691345584
000210 c2 08 dd 92 c7 d9 d4 bf f6 65 e1 2f 41 b2 d4 bf
       -0.3257922109807049 -0.3233797996122968
000220 fd 4f 87 18 bb 8a d4 bf 87 60 66 4e 35 63 d4 bf
       -0.3209674586807976 -0.3185551896690488
000230 22 22 22 d3 af 3b d4 bf 43 9a 6a a8 2a 14 d4 bf
       -0.31614299410333235 -0.31373087355533275
000240 5f c7 fc cf a5 ec d3 bf 53 15 a3 4b 21 c5 d3 bf
       -0.3113188296439286 -0.30890686403684703
000250 50 d7 35 1d 9d 9d d3 bf eb f7 9b 46 19 76 d3 bf
       -0.30649497845239626 -0.3040831746619676
000260 f3 5d cb c9 95 4e d3 bf 66 a8 c9 a8 12 27 d3 bf
       -0.3016714544914684 -0.2992598198239932
000270 34 c9 ac e5 8f ff d2 bf 98 86 9b 82 0d d8 d2 bf
       -0.29684827260202273 -0.2944368148292624
000280 a4 7c ce 81 8b b0 d2 bf 25 78 90 e5 09 89 d2 bf
       -0.2920254485743021 -0.2896141759719078
000290 ce 7e 3f b0 88 61 d2 bf 62 82 4d e4 07 3a d2 bf
       -0.2872029992267756 -0.28479192061607794
0002a0 ed 2c 41 84 87 12 d2 bf 67 e1 b6 92 07 eb d1 bf
       -0.2823809424923656 -0.2799700672872149
0002b0 d0 8e 61 12 88 c3 d1 bf 19 ad 0b 06 09 9c d1 bf
       -0.2775592975142276 -0.275148635772625
0002c0 a1 50 98 70 8a 74 d1 bf 30 38 04 55 0c 4d d1 bf
       -0.27273808475116296 -0.27032764723196845
0002d0 84 e4 66 b6 8e 25 d1 bf 4e ed f3 97 11 fe d0 bf
       -0.26791732609451224 -0.26550712432045465
0002e0 32 25 fc fc 94 d6 d0 bf 56 02 ef e8 18 af d0 bf
       -0.26309704499779507 -0.2606870913259959
0002f0 e4 04 5c 5f 9d 87 d0 bf 98 35 f4 63 22 60 d0 bf
       -0.2582772666210771 -0.2558675743210528
000300 da b2 8b fa a7 38 d0 bf 49 64 1b 27 2e 11 d0 bf
       -0.2534580179915743 -0.25104860133211965
000310 f1 77 85 db 69 d3 cf bf 99 33 93 a5 78 84 cf bf
       -0.24863932818237758 -0.24623020252911657
000320 e7 8b 44 b5 88 35 cf bf 8a e4 d6 13 9a e6 ce bf
       -0.24382122851338225 -0.24141241043779288
000330 4f 47 e5 ca ac 97 ce bf d2 b4 6c e4 c0 48 ce bf
       -0.23900375277531302 -0.23659526017710292
000340 cf 7c d1 6a d6 f9 cd bf 01 5b e4 68 ed aa cd bf
       -0.23418693748224093 -0.23177878972702362
000350 6e 33 e8 e9 05 5c cd bf 21 1c 98 f9 1f 0d cd bf
       -0.22937082215539867 -0.22696304022994787
000360 6c b8 2d a4 3b be cc bf 00 1b 68 f6 58 6f cc bf
       -0.22455544964344953 -0.2221480563313989
000370 01 05 93 fd 77 20 cc bf f4 a7 8e c7 98 d1 cb bf
       -0.21974086648518923 -0.21733388656622277
000380 97 de d7 62 bb 82 cb bf a9 25 91 de df 33 cb bf
       -0.21492712332086647 -0.21252058379677166
000390 e4 de 8b 4a 06 e5 ca bf d0 a7 52 b7 2e 96 ca bf
       -0.21011427535972083 -0.20770820571243442
0003a0 f0 f9 33 36 59 47 ca bf c1 d0 4d d9 85 f8 c9 bf
       -0.2053023829138989 -0.20289681540055507
0003b0 1a 35 9a b3 b4 a9 c9 bf 4a 54 fc d8 e5 5a c9 bf
       -0.20049151200911625 -0.19808648200037943
0003c0 3f 08 4f 5e 19 0c c9 bf 2a 22 74 59 4f bd c8 bf
       -0.19568173508565853 -0.1932772814545996
0003d0 2b 06 65 e1 87 6e c8 bf 5b 7b 44 0e c3 1f c8 bf
       -0.19087313180539076 -0.1884692973771632
0003e0 91 db 71 f9 00 d1 c7 bf 33 d6 9d bd 41 82 c7 bf
       -0.18606578998489146 -0.18366262205715742
0003f0 06 da e0 76 85 33 c7 bf a2 45 d3 42 cc e4 c6 bf
       -0.18125980667691993 -0.17885735762551486
000400 0c 89 a7 40 16 96 c6 bf 2b 9f 46 91 63 47 c6 bf
       -0.1764552894301875 -0.1740536174158874
000410 f0 b2 6e 57 b4 f8 c5 bf db 9c d4 b7 08 aa c5 bf
       -0.1716523577610114 -0.16925152755832226
000420 ea 2e 48 d9 60 5b c5 bf 2c 9e db e4 bc 0c c5 bf
       -0.1668511448809718 -0.1644512288541916
000430 f1 8e 0e 06 1d be c4 bf 22 23 fd 6a 81 6f c4 bf
       -0.1620517997335962 -0.15965287899077746
000440 df 05 93 44 ea 20 c4 bf 48 ac c3 c6 57 d2 c3 bf
       -0.15725448940615558 -0.15485665517130287
000450 27 9a c7 28 ca 83 c3 bf 8e ba 5f a5 41 35 c3 bf
       -0.15245940200038996 -0.15006275725268775
000460 3a 4b 1f 7b be e6 c2 bf bb 22 bd ec 40 98 c2 bf
       -0.14766675006702618 -0.14527141150963083
000470 dc 41 6d 41 c9 49 c2 bf 54 96 43 c5 57 fb c1 bf
       -0.14287677473704619 -0.14048287517577995
000480 e0 1c a1 c9 ec ac c1 bf 66 af ac a5 88 5e c1 bf
       -0.1380897507208152 -0.13569744195535377
000490 b9 02 d9 b6 2b 10 c1 bf af 36 79 61 d6 c1 c0 bf
       -0.13330599239454502 -0.13091544875572
0004a0 91 90 66 11 89 73 c0 bf aa d6 b8 3a 44 25 c0 bf
       -0.12852586125984947 -0.12613728396688845
0004b0 d9 da 28 b5 10 ae bf bf 7f 25 22 f0 ab 11 bf bf
       -0.1237497751506952 -0.1213633977187296
0004c0 e4 d7 78 4a 5b 75 be bf 78 1d 7a 00 20 d9 bd bf
       -0.11897821968236105 -0.11659431468625836
0004d0 18 d5 33 69 fb 3c bd bf 89 7d 58 f9 ee a0 bc bf
       -0.1142117626039475 -0.11183065021076834
0004e0 56 e9 84 46 fc 04 bc bf 5b 48 f6 0a 25 69 bb bf
       -0.10945107194576073 -0.10707313077571838
0004f0 ed 86 c3 29 6b cd ba bf e6 b5 ae b3 d0 31 ba bf
       -0.10469693917869068 -0.1023226202657593
000500 c8 e2 a7 ec 57 96 b9 bf 28 31 20 52 03 fb b8 bf
       -0.09995030906419367 -0.09758015399001307
000510 9e d6 50 a2 d5 5f b8 bf 89 7b a1 e4 d1 c4 b7 bf
       -0.09521231854236098 -0.09284698325926234
000520 ef 58 63 73 fb 29 b7 bf 84 a3 1f 07 56 8f b6 bf
       -0.09048434798328107 -0.08812463449397795
000530 9f 0f c7 c3 e5 f4 b5 bf 1e 3b 21 48 af 5a b5 bf
       -0.08576808957792402 -0.08341498862249039
000540 f0 8c ee bf b7 c0 b4 bf 92 31 4c f9 04 27 b4 bf
       -0.08106563983760728 -0.07872038923614458
000550 cd af 09 7e 9d 8d b3 bf e7 09 cb b1 88 f4 b2 bf
       -0.07637962653251336 -0.07404379215862598
000560 20 0e 09 f6 ce 5b b2 bf 2f 2d 46 d5 79 c3 b1 bf
       -0.0717133856460852 -0.06938897568595757
000570 e3 26 28 37 94 2b b1 bf 60 e2 99 9f 2a 94 b0 bf
       -0.0670712122593176 -0.06476084133635984
000580 2c 2c 5c f7 96 fa af bf 93 3a 7e ff 0e ce ae bf
       -0.06245872277767037 -0.06016585224926021
000590 c4 35 8f 36 e4 a2 ad bf 0f 0c 81 10 44 79 ac bf
       -0.05788338819511865 -0.05561268521753259
0005a0 73 9f 21 fb 63 51 ab bf b8 14 da 1c 83 2b aa bf
       -0.05335533562248331 -0.051113221427877276
0005b0 4b 44 49 87 ec 07 a9 bf 10 96 1a 00 fa e6 a7 bf
       -0.04888857985918856 -0.04668408633487442
0005c0 c9 85 df 8d 17 c9 a6 bf dd 6a 36 06 c8 ae a5 bf
       -0.044502960270402854 -0.042349100836153154
0005d0 02 59 bd ef aa 98 a4 bf 72 18 4b 27 84 87 a3 bf
       -0.040227262272923184 -0.03814328174262095
0005e0 16 a2 4b df 45 7c a2 bf 01 ba bd c4 1d 78 a1 bf
       -0.03610437727713049 -0.03411953951477998
0005f0 f4 a6 08 59 86 7c a0 bf 23 36 7a c0 bb 16 9f bf
       -0.03220004879797314 -0.030360158560645566
000600 d2 b3 24 24 09 4e 9d bf 5c 01 38 c2 07 a5 9b bf
       -0.028617995100990452 -0.026996728161976832
000610 f9 49 22 aa 80 23 9a bf d3 d6 03 68 6c d3 98 bf
       -0.02552605665602845 -0.02424401650292547
000620 d2 c8 7c 5d 7e c1 97 bf 1a 9e 17 cc bf fd 96 bf
       -0.023199057060261215 -0.022452351409723993
000630 92 7a e5 77 5b 9c 96 bf 02 80 31 f5 52 b7 96 bf
       -0.022080830757995225 -0.022183700766959198
000640 d0 cd b2 99 ad 73 97 bf 12 2d b1 4a 74 68 98 bf
       -0.022902214532860843 -0.023835961397975565
000650 56 cd b3 4b f4 e5 99 bf 6a 56 17 0c 6a eb 9b bf
       -0.025291268463616255 -0.0272652215843067
000660 2d 4a 58 ed 3e 73 9e bf 87 3e 41 3c 71 ba a0 bf
       -0.029736502872831295 -0.03267244205983127
000670 70 68 50 e8 41 73 a2 bf 8e 60 51 7c 22 5f a4 bf
       -0.03603559456696892 -0.03978832023193589
000680 4e 72 56 a3 71 79 a6 bf af 63 83 1a fe bd a8 bf
       -0.043895293415719835 -0.04832452844284007
000690 a8 3d e6 6c 0c 29 ab bf 57 d5 e4 12 4f b7 ad bf
       -0.053047550481206074 -0.058039160782224535
0006a0 4c a5 c8 d5 ec 32 b0 bf d0 d2 e7 d0 09 99 b1 bf
       -0.06327705592470528 -0.06874142980798159
0006b0 d2 f0 00 06 d6 0c b3 bf ba de a1 a8 47 8d b4 bf
       -0.07441461226057136 -0.08028076045035962
0006c0 b5 64 a5 47 6f 19 b6 bf 1c 53 68 43 74 b0 b7 bf
       -0.08632560252353268 -0.09253622670832978
0006d0 9b a4 7a e4 91 51 b9 bf ba bb b6 f2 14 fc ba bf
       -0.09890090778448483 -0.10540896344785625
0006e0 bc 2c 04 b2 59 af bc bf f0 e0 90 2f ca 6a be bf
       -0.11205063434697399 -0.11881698285367626
0006f0 6d 49 89 67 ee 16 c0 bf 80 64 bd 85 09 fc c0 bf
       -0.12569980674249895 -0.13269156484856026
000700 77 92 bd 30 7c e4 c1 bf 61 4b 3a ae 10 d0 c2 bf
       -0.13978531246097578 -0.1469746447297338
000710 0f 43 0b 60 95 be c3 bf 66 c6 18 65 dc af c4 bf
       -0.154253646751862 -0.16161684929243164
000720 c8 89 97 44 bb a3 c5 bf ff d7 28 a2 0a 9a c6 bf
       -0.16905918931213493 -0.17657597463556837
000730 a9 5d b4 f9 a5 92 c7 bf b3 07 05 62 6b 8d c8 bf
       -0.18416285221677 -0.19181577955356274
000740 a2 81 5a 55 3b 8a c9 bf 8d 54 40 7f f8 88 ca bf
       -0.19953099887517306 -0.20730501378480817
000750 30 ff 14 8f 87 89 cb bf f6 6c c0 0e cf 8b cc bf
       -0.21513456808497144 -0.2230166265515902
000760 13 aa 28 3d b7 8f cd bf 5a 86 03 ec 29 95 ce bf
       -0.23094835745116934 -0.23892711662397198
000770 44 cb ad 60 12 9c cf bf 17 f8 dd 9b 2e 52 d0 bf
       -0.24695043297432495 -0.2550159952296566
000780 cb 38 80 25 fc d6 d0 bf 8e 83 e5 4c 69 5c d1 bf
       -0.2631216398448372 -0.271265339941288
000790 2d 6b 95 19 6e e2 d1 bf 20 d7 01 11 03 69 d2 bf
       -0.27944519518284744 -0.28765942250116616
0007a0 3e 2d 65 2d 21 f0 d2 bf 4d c6 60 d5 c1 77 d3 bf
       -0.295906347590705 -0.304184397103289
0007b0 ef 57 4a d4 de ff d3 bf 6e f6 17 53 72 88 d4 bf
       -0.3124920914791564 -0.32082803835496676
0007c0 99 4c dd d1 76 11 d5 bf f4 a7 cc 21 e7 9a d5 bf
       -0.3291909265000839 -0.33757952023245186
0007d0 06 30 b0 5f be 24 d6 bf d3 76 d1 ee f7 ae d6 bf
       -0.3459926542716406 -0.354429228993337
0007e0 d6 0d 45 74 8f 39 d7 bf e5 25 92 d2 80 c4 d7 bf
       -0.36288820604769734 -0.3713686043125491
0007f0 59 38 ae 25 c8 4f d8 bf 50 73 45 bf 61 db d8 bf
       -0.37986949615231463 -0.38839000395619383

d f8 [401]
000000 27 9e 15 8d 04 7c b3 3f 27 9e 15 8d 04 7c b3 3f
       0.07611111111111112 0.07611111111111112
000010 27 9e 15 8d 04 7c b3 3f 27 9e 15 8d 04 7c b3 3f
       0.07611111111111112 0.07611111111111112
000020 27 9e 15 8d 04 7c b3 3f 27 9e 15 8d 04 7c b3 3f
       0.07611111111111112 0.07611111111111112
000030 27 9e 15 8d 04 7c b3 3f 27 9e 15 8d 04 7c b3 3f
       0.07611111111111112 0.07611111111111112
000040 27 9e 15 8d 04 7c b3 3f 27 9e 15 8d 04 7c b3 3f
       0.07611111111111112 0.07611111111111112
000050 27 9e 15 8d 04 7c b3 3f 27 9e 15 8d 04 7c b3 3f
       0.07611111111111112 0.07611111111111112
000060 27 9e 15 8d 04 7c b3 3f 27 9e 15 8d 04 7c b3 3f
       0.07611111111111112 0.07611111111111112
000070 27 9e 15 8d 04 7c b3 3f 27 9e 15 8d 04 7c b3 3f
       0.07611111111111112 0.07611111111111112
000080 27 9e 15 8d 04 7c b3 3f 27 9e 15 8d 04 7c b3 3f
       0.07611111111111112 0.07611111111111112
000090 27 9e 15 8d 04 7c b3 3f 27 9e 15 8d 04 7c b3 3f
       0.07611111111111112 0.07611111111111112
0000a0 27 9e 15 8d 04 7c b3 3f 27 9e 15 8d 04 7c b3 3f
       0.07611111111111112 0.07611111111111112
0000b0 27 9e 15 8d 04 7c b3 3f 27 9e 15 8d 04 7c b3 3f
       0.07611111111111112 0.07611111111111112
0000c0 27 9e 15 8d 04 7c b3 3f 27 9e 15 8d 04 7c b3 3f
       0.07611111111111112 0.07611111111111112
0000d0 27 9e 15 8d 04 7c b3 3f 27 9e 15 8d 04 7c b3 3f
       0.07611111111111112 0.07611111111111112
0000e0 27 9e 15 8d 04 7c b3 3f 27 9e 15 8d 04 7c b3 3f
       0.07611111111111112 0.07611111111111112
0000f0 27 9e 15 8d 04 7c b3 3f 27 9e 15 8d 04 7c b3 3f
       0.07611111111111112 0.07611111111111112
000100 27 9e 15 8d 04 7c b3 3f 27 9e 15 8d 04 7c b3 3f
       0.07611111111111112 0.07611111111111112
000110 27 9e 15 8d 04 7c b3 3f 27 9e 15 8d 04 7c b3 3f
       0.07611111111111112 0.07611111111111112
000120 27 9e 15 8d 04 7c b3 3f 27 9e 15 8d 04 7c b3 3f
       0.07611111111111112 0.07611111111111112
000130 27 9e 15 8d 04 7c b3 3f 27 9e 15 8d 04 7c b3 3f
       0.07611111111111112 0.07611111111111112
000140 27 9e 15 8d 04 7c b3 3f 27 9e 15 8d 04 7c b3 3f
       0.07611111111111112 0.07611111111111112
000150 27 9e 15 8d 04 7c b3 3f 27 9e 15 8d 04 7c b3 3f
       0.07611111111111112 0.07611111111111112
000160 27 9e 15 8d 04 7c b3 3f 27 9e 15 8d 04 7c b3 3f
       0.07611111111111112 0.07611111111111112
000170 27 9e 15 8d 04 7c b3 3f 27 9e 15 8d 04 7c b3 3f
       0.07611111111111112 0.07611111111111112
000180 27 9e 15 8d 04 7c b3 3f 27 9e 15 8d 04 7c b3 3f
       0.07611111111111112 0.07611111111111112
000190 27 9e 15 8d 04 7c b3 3f 27 9e 15 8d 04 7c b3 3f
       0.07611111111111112 0.07611111111111112
0001a0 27 9e 15 8d 04 7c b3 3f 27 9e 15 8d 04 7c b3 3f
       0.07611111111111112 0.07611111111111112
0001b0 27 9e 15 8d 04 7c b3 3f 27 9e 15 8d 04 7c b3 3f
       0.07611111111111112 0.07611111111111112
0001c0 27 9e 15 8d 04 7c b3 3f 27 9e 15 8d 04 7c b3 3f
       0.07611111111111112 0.07611111111111112
0001d0 27 9e 15 8d 04 7c b3 3f 27 9e 15 8d 04 7c b3 3f
       0.07611111111111112 0.07611111111111112
0001e0 27 9e 15 8d 04 7c b3 3f 27 9e 15 8d 04 7c b3 3f
       0.07611111111111112 0.07611111111111112
0001f0 27 9e 15 8d 04 7c b3 3f 27 9e 15 8d 04 7c b3 3f
       0.07611111111111112 0.07611111111111112
000200 27 9e 15 8d 04 7c b3 3f 27 9e 15 8d 04 7c b3 3f
       0.07611111111111112 0.07611111111111112
000210 27 9e 15 8d 04 7c b3 3f 27 9e 15 8d 04 7c b3 3f
       0.07611111111111112 0.07611111111111112
000220 27 9e 15 8d 04 7c b3 3f 27 9e 15 8d 04 7c b3 3f
       0.07611111111111112 0.07611111111111112
000230 27 9e 15 8d 04 7c b3 3f 27 9e 15 8d 04 7c b3 3f
       0.07611111111111112 0.07611111111111112
000240 27 9e 15 8d 04 7c b3 3f 27 9e 15 8d 04 7c b3 3f
       0.07611111111111112 0.07611111111111112
000250 27 9e 15 8d 04 7c b3 3f 27 9e 15 8d 04 7c b3 3f
       0.07611111111111112 0.07611111111111112
000260 27 9e 15 8d 04 7c b3 3f 27 9e 15 8d 04 7c b3 3f
       0.07611111111111112 0.07611111111111112
000270 27 9e 15 8d 04 7c b3 3f 27 9e 15 8d 04 7c b3 3f
       0.07611111111111112 0.07611111111111112
000280 27 9e 15 8d 04 7c b3 3f 27 9e 15 8d 04 7c b3 3f
       0.07611111111111112 0.07611111111111112
000290 27 9e 15 8d 04 7c b3 3f 27 9e 15 8d 04 7c b3 3f
       0.07611111111111112 0.07611111111111112
0002a0 27 9e 15 8d 04 7c b3 3f 27 9e 15 8d 04 7c b3 3f
       0.07611111111111112 0.07611111111111112
0002b0 27 9e 15 8d 04 7c b3 3f 27 9e 15 8d 04 7c b3 3f
       0.07611111111111112 0.07611111111111112
0002c0 27 9e 15 8d 04 7c b3 3f 27 9e 15 8d 04 7c b3 3f
       0.07611111111111112 0.07611111111111112
0002d0 27 9e 15 8d 04 7c b3 3f 27 9e 15 8d 04 7c b3 3f
       0.07611111111111112 0.07611111111111112
0002e0 27 9e 15 8d 04 7c b3 3f 27 9e 15 8d 04 7c b3 3f
       0.07611111111111112 0.07611111111111112
0002f0 27 9e 15 8d 04 7c b3 3f 27 9e 15 8d 04 7c b3 3f
       0.07611111111111112 0.07611111111111112
000300 27 9e 15 8d 04 7c b3 3f 27 9e 15 8d 04 7c b3 3f
       0.07611111111111112 0.07611111111111112
000310 27 9e 15 8d 04 7c b3 3f 27 9e 15 8d 04 7c b3 3f
       0.07611111111111112 0.07611111111111112
000320 27 9e 15 8d 04 7c b3 3f 27 9e 15 8d 04 7c b3 3f
       0.07611111111111112 0.07611111111111112
000330 27 9e 15 8d 04 7c b3 3f 27 9e 15 8d 04 7c b3 3f
       0.07611111111111112 0.07611111111111112
000340 27 9e 15 8d 04 7c b3 3f 27 9e 15 8d 04 7c b3 3f
       0.07611111111111112 0.07611111111111112
000350 27 9e 15 8d 04 7c b3 3f 27 9e 15 8d 04 7c b3 3f
       0.07611111111111112 0.07611111111111112
000360 27 9e 15 8d 04 7c b3 3f 27 9e 15 8d 04 7c b3 3f
       0.07611111111111112 0.07611111111111112
000370 27 9e 15 8d 04 7c b3 3f 27 9e 15 8d 04 7c b3 3f
       0.07611111111111112 0.07611111111111112
000380 27 9e 15 8d 04 7c b3 3f 27 9e 15 8d 04 7c b3 3f
       0.07611111111111112 0.07611111111111112
000390 27 9e 15 8d 04 7c b3 3f 27 9e 15 8d 04 7c b3 3f
       0.07611111111111112 0.07611111111111112
0003a0 27 9e 15 8d 04 7c b3 3f 27 9e 15 8d 04 7c b3 3f
       0.07611111111111112 0.07611111111111112
0003b0 27 9e 15 8d 04 7c b3 3f 27 9e 15 8d 04 7c b3 3f
       0.07611111111111112 0.07611111111111112
0003c0 27 9e 15 8d 04 7c b3 3f 27 9e 15 8d 04 7c b3 3f
       0.07611111111111112 0.07611111111111112
0003d0 27 9e 15 8d 04 7c b3 3f 27 9e 15 8d 04 7c b3 3f
       0.07611111111111112 0.07611111111111112
0003e0 27 9e 15 8d 04 7c b3 3f 27 9e 15 8d 04 7c b3 3f
       0.07611111111111112 0.07611111111111112
0003f0 27 9e 15 8d 04 7c b3 3f 27 9e 15 8d 04 7c b3 3f
       0.07611111111111112 0.07611111111111112
000400 27 9e 15 8d 04 7c b3 3f 27 9e 15 8d 04 7c b3 3f
       0.07611111111111112 0.07611111111111112
000410 27 9e 15 8d 04 7c b3 3f 27 9e 15 8d 04 7c b3 3f
       0.07611111111111112 0.07611111111111112
000420 27 9e 15 8d 04 7c b3 3f 27 9e 15 8d 04 7c b3 3f
       0.07611111111111112 0.07611111111111112
000430 27 9e 15 8d 04 7c b3 3f 27 9e 15 8d 04 7c b3 3f
       0.07611111111111112 0.07611111111111112
000440 27 9e 15 8d 04 7c b3 3f 27 9e 15 8d 04 7c b3 3f
       0.07611111111111112 0.07611111111111112
000450 27 9e 15 8d 04 7c b3 3f 27 9e 15 8d 04 7c b3 3f
       0.07611111111111112 0.07611111111111112
000460 27 9e 15 8d 04 7c b3 3f 27 9e 15 8d 04 7c b3 3f
       0.07611111111111112 0.07611111111111112
000470 27 9e 15 8d 04 7c b3 3f 27 9e 15 8d 04 7c b3 3f
       0.07611111111111112 0.07611111111111112
000480 27 9e 15 8d 04 7c b3 3f 27 9e 15 8d 04 7c b3 3f
       0.07611111111111112 0.07611111111111112
000490 27 9e 15 8d 04 7c b3 3f 27 9e 15 8d 04 7c b3 3f
       0.07611111111111112 0.07611111111111112
0004a0 27 9e 15 8d 04 7c b3 3f 27 9e 15 8d 04 7c b3 3f
       0.07611111111111112 0.07611111111111112
0004b0 27 9e 15 8d 04 7c b3 3f 27 9e 15 8d 04 7c b3 3f
       0.07611111111111112 0.07611111111111112
0004c0 27 9e 15 8d 04 7c b3 3f 27 9e 15 8d 04 7c b3 3f
       0.07611111111111112 0.07611111111111112
0004d0 27 9e 15 8d 04 7c b3 3f 27 9e 15 8d 04 7c b3 3f
       0.07611111111111112 0.07611111111111112
0004e0 27 9e 15 8d 04 7c b3 3f 27 9e 15 8d 04 7c b3 3f
       0.07611111111111112 0.07611111111111112
0004f0 27 9e 15 8d 04 7c b3 3f 27 9e 15 8d 04 7c b3 3f
       0.07611111111111112 0.07611111111111112
000500 27 9e 15 8d 04 7c b3 3f 27 9e 15 8d 04 7c b3 3f
       0.07611111111111112 0.07611111111111112
000510 27 9e 15 8d 04 7c b3 3f 27 9e 15 8d 04 7c b3 3f
       0.07611111111111112 0.07611111111111112
000520 27 9e 15 8d 04 7c b3 3f 27 9e 15 8d 04 7c b3 3f
       0.07611111111111112 0.07611111111111112
000530 27 9e 15 8d 04 7c b3 3f 27 9e 15 8d 04 7c b3 3f
       0.07611111111111112 0.07611111111111112
000540 27 9e 15 8d 04 7c b3 3f 27 9e 15 8d 04 7c b3 3f
       0.07611111111111112 0.07611111111111112
000550 27 9e 15 8d 04 7c b3 3f 27 9e 15 8d 04 7c b3 3f
       0.07611111111111112 0.07611111111111112
000560 27 9e 15 8d 04 7c b3 3f 27 9e 15 8d 04 7c b3 3f
       0.07611111111111112 0.07611111111111112
000570 27 9e 15 8d 04 7c b3 3f 27 9e 15 8d 04 7c b3 3f
       0.07611111111111112 0.07611111111111112
000580 27 9e 15 8d 04 7c b3 3f 27 9e 15 8d 04 7c b3 3f
       0.07611111111111112 0.07611111111111112
000590 27 9e 15 8d 04 7c b3 3f 27 9e 15 8d 04 7c b3 3f
       0.07611111111111112 0.07611111111111112
0005a0 27 9e 15 8d 04 7c b3 3f 27 9e 15 8d 04 7c b3 3f
       0.07611111111111112 0.07611111111111112
0005b0 27 9e 15 8d 04 7c b3 3f 27 9e 15 8d 04 7c b3 3f
       0.07611111111111112 0.07611111111111112
0005c0 27 9e 15 8d 04 7c b3 3f 27 9e 15 8d 04 7c b3 3f
       0.07611111111111112 0.07611111111111112
0005d0 27 9e 15 8d 04 7c b3 3f 27 9e 15 8d 04 7c b3 3f
       0.07611111111111112 0.07611111111111112
0005e0 27 9e 15 8d 04 7c b3 3f 27 9e 15 8d 04 7c b3 3f
       0.07611111111111112 0.07611111111111112
0005f0 27 9e 15 8d 04 7c b3 3f 27 9e 15 8d 04 7c b3 3f
       0.07611111111111112 0.07611111111111112
000600 27 9e 15 8d 04 7c b3 3f 27 9e 15 8d 04 7c b3 3f
       0.07611111111111112 0.07611111111111112
000610 27 9e 15 8d 04 7c b3 3f 27 9e 15 8d 04 7c b3 3f
       0.07611111111111112 0.07611111111111112
000620 27 9e 15 8d 04 7c b3 3f 27 9e 15 8d 04 7c b3 3f
       0.07611111111111112 0.07611111111111112
000630 27 9e 15 8d 04 7c b3 3f 27 9e 15 8d 04 7c b3 3f
       0.07611111111111112 0.07611111111111112
000640 27 9e 15 8d 04 7c b3 3f 27 9e 15 8d 04 7c b3 3f
       0.07611111111111112 0.07611111111111112
000650 27 9e 15 8d 04 7c b3 3f 27 9e 15 8d 04 7c b3 3f
       0.07611111111111112 0.07611111111111112
000660 27 9e 15 8d 04 7c b3 3f 27 9e 15 8d 04 7c b3 3f
       0.07611111111111112 0.07611111111111112
000670 27 9e 15 8d 04 7c b3 3f 27 9e 15 8d 04 7c b3 3f
       0.07611111111111112 0.07611111111111112
000680 27 9e 15 8d 04 7c b3 3f 27 9e 15 8d 04 7c b3 3f
       0.07611111111111112 0.07611111111111112
000690 27 9e 15 8d 04 7c b3 3f 27 9e 15 8d 04 7c b3 3f
       0.07611111111111112 0.07611111111111112
0006a0 27 9e 15 8d 04 7c b3 3f 27 9e 15 8d 04 7c b3 3f
       0.07611111111111112 0.07611111111111112
0006b0 27 9e 15 8d 04 7c b3 3f 27 9e 15 8d 04 7c b3 3f
       0.07611111111111112 0.07611111111111112
0006c0 27 9e 15 8d 04 7c b3 3f 27 9e 15 8d 04 7c b3 3f
       0.07611111111111112 0.07611111111111112
0006d0 27 9e 15 8d 04 7c b3 3f 27 9e 15 8d 04 7c b3 3f
       0.07611111111111112 0.07611111111111112
0006e0 27 9e 15 8d 04 7c b3 3f 27 9e 15 8d 04 7c b3 3f
       0.07611111111111112 0.07611111111111112
0006f0 27 9e 15 8d 04 7c b3 3f 27 9e 15 8d 04 7c b3 3f
       0.07611111111111112 0.07611111111111112
000700 27 9e 15 8d 04 7c b3 3f 27 9e 15 8d 04 7c b3 3f
       0.07611111111111112 0.07611111111111112
000710 27 9e 15 8d 04 7c b3 3f 27 9e 15 8d 04 7c b3 3f
       0.07611111111111112 0.07611111111111112
000720 27 9e 15 8d 04 7c b3 3f 27 9e 15 8d 04 7c b3 3f
       0.07611111111111112 0.07611111111111112
000730 27 9e 15 8d 04 7c b3 3f 27 9e 15 8d 04 7c b3 3f
       0.07611111111111112 0.07611111111111112
000740 27 9e 15 8d 04 7c b3 3f 27 9e 15 8d 04 7c b3 3f
       0.07611111111111112 0.07611111111111112
000750 27 9e 15 8d 04 7c b3 3f 27 9e 15 8d 04 7c b3 3f
       0.07611111111111112 0.07611111111111112
000760 27 9e 15 8d 04 7c b3 3f 27 9e 15 8d 04 7c b3 3f
       0.07611111111111112 0.07611111111111112
000770 27 9e 15 8d 04 7c b3 3f 27 9e 15 8d 04 7c b3 3f
       0.07611111111111112 0.07611111111111112
000780 27 9e 15 8d 04 7c b3 3f 27 9e 15 8d 04 7c b3 3f
       0.07611111111111112 0.07611111111111112
000790 27 9e 15 8d 04 7c b3 3f 27 9e 15 8d 04 7c b3 3f
       0.07611111111111112 0.07611111111111112
0007a0 27 9e 15 8d 04 7c b3 3f 27 9e 15 8d 04 7c b3 3f
       0.07611111111111112 0.07611111111111112
0007b0 27 9e 15 8d 04 7c b3 3f 27 9e 15 8d 04 7c b3 3f
       0.07611111111111112 0.07611111111111112
0007c0 27 9e 15 8d 04 7c b3 3f 27 9e 15 8d 04 7c b3 3f
       0.07611111111111112 0.07611111111111112
0007d0 27 9e 15 8d 04 7c b3 3f 27 9e 15 8d 04 7c b3 3f
       0.07611111111111112 0.07611111111111112
0007e0 27 9e 15 8d 04 7c b3 3f 27 9e 15 8d 04 7c b3 3f
       0.07611111111111112 0.07611111111111112
0007f0 27 9e 15 8d 04 7c b3 3f 27 9e 15 8d 04 7c b3 3f
       0.07611111111111112 0.07611111111111112

zmax f8 []
000000 00 00 00 00 00 00 14 40
       5.0

hz_F f8 [401]
000000 9c 78 0d b9 e8 85 b5 3f 00 bf 7a 84 d2 85 b5 3f
       0.08407454030882139 0.08407321676599722
000010 4d cc 2b 2f bc 85 b5 3f 4d 52 c0 a8 a5 85 b5 3f
       0.08407188560140462 0.08407054300216395
000020 69 16 b9 e8 8e 85 b5 3f e6 5d 64 ea 77 85 b5 3f
       0.08406918698991607 0.08406781647169445
000030 d6 2c e6 aa 60 85 b5 3f ed 82 44 28 49 85 b5 3f
       0.08406643078176343 0.08406502945991763
000040 ea 94 f0 60 31 85 b5 3f f2 06 8d 53 19 85 b5 3f
       0.08406361214345606 0.08406217851463874
000050 e5 64 d1 fe 00 85 b5 3f 65 4c 7c 61 e8 84 b5 3f
       0.08406072827473883 0.08405926113145908
000060 67 11 4c 7a cf 84 b5 3f 28 84 fb 47 b6 84 b5 3f
       0.08405777679224045 0.0840562749613275
000070 99 dc 3f c9 9c 84 b5 3f ad b2 c7 fc 82 84 b5 3f
       0.08405475533787622 0.08405321761501723
000080 f8 89 3a e1 68 84 b5 3f 45 2c 38 75 4e 84 b5 3f
       0.08405166147944232 0.08405008661081677
000090 d5 75 58 b7 33 84 b5 3f 67 20 2b a6 18 84 b5 3f
       0.08404849268159549 0.08404687935683484
0000a0 c4 3c 37 40 fd 83 b5 3f 92 2d fb 83 e1 83 b5 3f
       0.08404524629371496 0.08404359314152135
0000b0 b8 66 ec 6f c5 83 b5 3f e3 e6 76 02 a9 83 b5 3f
       0.08404191954141538 0.08404022512595648
0000c0 61 48 fd 39 8c 83 b5 3f 4b 30 d8 14 6f 83 b5 3f
       0.08403850951916204 0.08403677233599287
0000d0 ac 2b 56 91 51 83 b5 3f d8 58 bb ad 33 83 b5 3f
       0.08403501318222933 0.08403323165416354
0000e0 3d 24 41 68 15 83 b5 3f 85 c4 15 bf f6 82 b5 3f
       0.08403142733836062 0.08402959981119025
0000f0 3e 30 5c b0 d7 82 b5 3f 51 85 2b 3a b8 82 b5 3f
       0.0840277486387899 0.08402587337652291
000100 dc b8 8e 5a 98 82 b5 3f 35 62 84 0f 78 82 b5 3f
       0.08402397356869379 0.0840220487483599
000110 e4 1b fe 56 57 82 b5 3f 7d 49 e0 2e 36 82 b5 3f
       0.08402009843676655 0.08401812214314038
000120 c3 93 01 95 14 82 b5 3f 30 78 2a 87 f2 81 b5 3f
       0.08401611936422086 0.08401408958386081
000130 1d fa 14 03 d0 81 b5 3f 10 ef 6b 06 ad 81 b5 3f
       0.08401203227274619 0.08400994688775776
000140 c1 c9 ca 8e 89 81 b5 3f b5 d1 bc 99 65 81 b5 3f
       0.08400783287178283 0.08400568965300333
000150 f4 cd bc 24 41 81 b5 3f 78 6c 34 2d 1c 81 b5 3f
       0.08400351664459277 0.08400131324417426
000160 d7 ae 7b b0 f6 80 b5 3f a9 48 d8 ab d0 80 b5 3f
       0.08399907883329703 0.08399681277686234
000170 7a 2c 7d 1c aa 80 b5 3f 0b b0 89 ff 82 80 b5 3f
       0.08399451442271469 0.08399218310086114
000180 83 11 09 52 5b 80 b5 3f 99 a8 f1 10 33 80 b5 3f
       0.083989818123035 0.08398741878196105
000190 6d 42 24 39 0a 80 b5 3f 2f 62 6b c7 e0 7f b5 3f
       0.08398498435077224 0.08398251408233003
0001a0 db 6b 7a b8 b6 7f b5 3f 42 d9 ec 08 8c 7f b5 3f
       0.08398000720846659 0.08397746293926381
0001b0 02 7c 45 b5 60 7f b5 3f 7f 6b ed b9 34 7f b5 3f
       0.08397488046237814 0.08397225894206704
0001c0 4c 4d 33 13 08 7f b5 3f f8 3d 4a bd da 7e b5 3f
       0.08396959751853678 0.08396689530695045
0001d0 da d8 48 b4 ac 7e b5 3f 74 42 28 f4 7d 7e b5 3f
       0.08396415139654625 0.08396136484976485
0001e0 61 f7 c2 78 4e 7e b5 3f 5b ad d3 3d 1e 7e b5 3f
       0.08395853470116556 0.08395565995640679
0001f0 4d 3d f4 3e ed 7d b5 3f 97 47 9c 77 bb 7d b5 3f
       0.08395273959125867 0.0839497725503676
000200 c4 f4 1f e3 88 7d b5 3f e7 ab ae 7c 55 7d b5 3f
       0.08394675774612198 0.08394369405748102
000210 c0 85 51 3f 21 7d b5 3f b4 ef e9 25 ec 7c b5 3f
       0.08394058032856488 0.08393741536741467
000220 aa 1d 30 2b b6 7c b5 3f 5b 4d b1 49 7f 7c b5 3f
       0.08393419794457793 0.08393092679152885
000230 0a 3c ce 7b 47 7c b5 3f 3d 48 b9 bb 0e 7c b5 3f
       0.08392760059926743 0.08392421801662038
000240 8f 8f 74 03 d5 7b b5 3f 0b 06 d0 4c 9a 7b b5 3f
       0.083920777648528 0.0839172780543082
000250 4b 76 67 91 5e 7b b5 3f ac 32 a0 ca 21 7b b5 3f
       0.08391371774583793 0.08391009518545428
000260 ee 05 a7 f1 e3 7a b5 3f 20 ae 6d ff a4 7a b5 3f
       0.08390640878408082 0.08390265689893583
000270 ce 65 a8 ec 64 7a b5 3f a1 73 cb b1 23 7a b5 3f
       0.08389883783129123 0.08389494982425429
000280 15 0e 08 47 e1 79 b5 3f a5 e4 49 a4 9d 79 b5 3f
       0.08389099105993865 0.08388695965722322
000290 6f c5 33 c1 58 79 b5 3f 63 87 1c 95 12 79 b5 3f
       0.08388285366870261 0.0838786710778812
0002a0 f8 b8 0b 17 cb 78 b5 3f 32 ef b5 3d 82 78 b5 3f
       0.08387440979615579 0.0838700676594584
0002b0 17 28 79 ff 37 78 b5 3f 82 d6 58 52 ec 77 b5 3f
       0.08386564242496806 0.08386113176751489
0002c0 bb aa f9 2b 9f 77 b5 3f 2d 38 9d 81 50 77 b5 3f
       0.0838565332757452 0.08385184444816281
0002d0 87 63 1d 48 00 77 b5 3f bb 54 e7 73 ae 76 b5 3f
       0.08384706268897278 0.08384218530348424
0002e0 ac 74 f6 f8 5a 76 b5 3f 35 df ce ca 05 76 b5 3f
       0.08383720949355461 0.0838321323525378
0002f0 ea 9e 77 dc ae 75 b5 3f b7 8d 74 20 56 75 b5 3f
       0.08382695086003947 0.08382166187634864
000300 c5 e2 bf 88 fb 74 b5 3f 67 49 c3 06 9f 74 b5 3f
       0.0838162621365753 0.0838107482443654
000310 f7 9c 50 8b 40 74 b5 3f 2d 29 9a 06 e0 73 b5 3f
       0.08380511666529232 0.08379936371980952
000320 1a 78 2a 68 7d 73 b5 3f 31 bf db 9e 18 73 b5 3f
       0.08379348557579683 0.0837874782407624
000330 1b 5d ce 98 b1 72 b5 3f 49 4d 5f 43 48 72 b5 3f
       0.08378133755319477 0.08377505917387852
000340 06 76 1d 8b dc 71 b5 3f 39 ac be 5b 6e 71 b5 3f
       0.0837686385761672 0.08376207103599222
000350 4c c9 13 a0 fd 70 b5 3f 11 03 fc 41 8a 70 b5 3f
       0.08375535162102671 0.0837484751791744
000360 51 79 57 2a 14 70 b5 3f 03 c6 f8 40 9b 6f b5 3f
       0.08374143632633958 0.08373422943329704
000370 e3 a2 95 6c 1f 6f b5 3f 05 7b b6 92 a0 6e b5 3f
       0.08372684861172845 0.08371928769927812
000380 4d e3 a4 97 1e 6e b5 3f a7 b0 58 5e 99 6d b5 3f
       0.08371154024361012 0.08370359948520677
000390 b1 f7 63 c8 10 6d b5 3f 73 43 dd b5 84 6c b5 3f
       0.08369545833917759 0.08368710937544481
0003a0 ff 8f 48 05 f5 6b b5 3f 72 5c 7e 93 61 6b b5 3f
       0.08367854479780588 0.0836697564212601
0003b0 b0 d3 90 3b ca 6a b5 3f 96 3d af d6 2e 6a b5 3f
       0.0836607356475969 0.08365147343942278
0003c0 9f db 06 3c 8f 69 b5 3f be a2 a1 40 eb 68 b5 3f
       0.08364196029184122 0.08363218620219023
0003d0 43 37 42 b7 42 68 b5 3f f8 1b 3d 70 95 67 b5 3f
       0.08362214063728594 0.08361181249811966
0003e0 f9 c4 4e 39 e3 66 b5 3f c2 31 6e dd 2b 66 b5 3f
       0.08360119008172608 0.08359026103989378
0003f0 26 c8 9b 24 6f 65 b5 3f 5b 1b ac d3 ac 64 b5 3f
       0.08357901233446849 0.08356743018894745
000400 c1 39 0e ac e4 63 b5 3f 31 db 8c 6b 16 63 b5 3f
       0.0835555000360051 0.08354320646035941
000410 ff 4c 0a cc 41 62 b5 3f 7c 21 36 83 66 61 b5 3f
       0.0835305331368552 0.08351746276287558
000420 6d 4c 3c 42 84 60 b5 3f 6a f7 6c b5 9a 5f b5 3f
       0.08350397698477403 0.08349005631768383
000430 13 14 dc 83 a9 5e b5 3f a2 c6 f7 4e b0 5d b5 3f
       0.08347568005781651 0.08346082618643405
000440 7f 1e 15 b2 ae 5c b5 3f ea 34 f1 41 a4 5b b5 3f
       0.08344547126500322 0.08342959031979871
000450 d3 2d 26 8c 90 5a b5 3f 19 2d 92 16 73 59 b5 3f
       0.08341315671548637 0.08339614201593228
000460 18 cf ae 5e 4b 58 b5 3f 45 46 d7 d8 18 57 b5 3f
       0.08337851583092648 0.08336024564712215
000470 cb ec 7a ef da 55 b5 3f 09 fc 39 02 91 54 b5 3f
       0.08334129664119698 0.08332163147314033
000480 f7 99 e9 64 3a 53 b5 3f 38 11 7c 5e d6 51 b5 3f
       0.0833012100571081 0.08327998930696345
000490 d3 86 c9 27 64 50 b5 3f 52 65 35 ea e2 4e b5 3f
       0.08325792285316007 0.08323496072752803
0004a0 e7 dd 2a be 51 4d b5 3f c5 e9 6b a9 af 4b b5 3f
       0.08321104901084873 0.08318612943904842
0004b0 b9 ad 2b 9d fb 49 b5 3f 94 eb ec 73 34 48 b5 3f
       0.08316013896153764 0.08313300924503003
0004c0 53 29 1c ef 58 46 b5 3f 10 86 5a b4 67 44 b5 3f
       0.08310466611525173 0.08307502892650853
0004d0 b0 71 6e 4a 5f 42 b5 3f 4f 5d cb 15 3e 40 b5 3f
       0.08304400984929461 0.08301151306237851
0004e0 f9 0b a0 54 02 3e b5 3f fb 85 58 1a aa 3b b5 3f
       0.0829774338345003 0.08294165747840758
0004f0 2e ce 7b 4a 33 39 b5 3f e1 49 ca 92 9b 36 b5 3f
       0.08290405815551402 0.08286449750656956
000500 27 fd 7b 64 e0 33 b5 3f cd ca 76 ec fe 30 b5 3f
       0.08282282307844878 0.08277886651084572
000510 85 e3 4d 0a f4 2d b5 3f 33 61 d1 45 bc 2a b5 3f
       0.08273244144028354 0.0826833410695869
000520 10 3d e8 c2 53 27 b5 3f e1 8f 61 33 b6 23 b5 3f
       0.08263133533931843 0.0825761676256316
000530 6e 50 56 c6 de 1f b5 3f a2 c8 9d 14 c8 1b b5 3f
       0.08251755087104737 0.08245516303375891
000540 74 d0 bb 09 6c 17 b5 3f 22 b6 89 c8 c3 12 b5 3f
       0.08238864171636512 0.08231757780023277
000550 76 65 af 8a c7 0d b5 3f 4c d4 c8 79 6e 08 b5 3f
       0.08224150787227366 0.08215990517858635
000560 aa 96 cb 80 ae 02 b5 3f a3 ab e6 13 7c fc b4 3f
       0.082072168773801 0.08197761045327794
000570 79 42 a3 ec c9 f5 b4 3f 69 cd 7c b7 88 ee b4 3f
       0.08187543895042805 0.08176474075007935
000580 15 f3 70 af a6 e6 b4 3f d8 15 23 23 0f de b4 3f
       0.08164445670349736 0.08151335342252908
000590 57 a2 14 de a9 d4 b4 3f b9 fa 18 6f 5a ca b4 3f
       0.08136998817338657 0.08121266567557485
0005a0 12 8a 8b 43 ff be b4 3f c6 e7 ef 8c 70 b2 b4 3f
       0.08103938483285614 0.08084777298782261
0005b0 64 78 96 e4 7e a4 b4 3f b7 71 e1 9e f1 94 b4 3f
       0.08063500481373037 0.08039770249292287
0005c0 c1 0a 49 be 84 83 b4 3f e2 26 24 76 e6 6f b4 3f
       0.08013181348455146 0.07983246216113174
0005d0 c0 3f 10 30 b4 59 b4 3f a9 c1 21 0f 77 40 b4 3f
       0.07949377225327137 0.07910865897588927
0005e0 13 5f a4 fd 9f 23 b4 3f 66 33 44 72 83 02 b4 3f
       0.07866859381135453 0.0781633523913122
0005f0 cb bf 28 4d 55 dc b3 3f c9 d6 a6 75 25 b0 b3 3f
       0.07758076795357664 0.07690652963978119
000600 a2 77 26 2e de 7c b3 3f 3d b2 63 2a 45 41 b3 3f
       0.07612408282008556 0.07521469387911224
000610 3d e1 6f b6 ff fb b2 3f a5 63 93 4b 97 ab b2 3f
       0.07415769771603649 0.07293077082739659
000620 1c 9c cc 25 74 4e b2 3f 42 bf 64 56 b2 e2 b1 3f
       0.07150960848649429 0.06986536606995933
000630 f9 db b2 d3 94 65 b1 3f 1f fa 52 b8 1f d2 b0 3f
       0.06795625847267663 0.06570623636341864
000640 55 df ef f6 00 1e b0 3f 65 f9 4f 5a f0 3f af 3f
       0.06295782116637601 0.061034689926588816
000650 9d b8 77 cf 69 44 ae 3f 7c c1 90 dd ae 4d ad 3f
       0.0591157022243902 0.05723329977661515
000660 d4 1c 3b fa 11 5f ac 3f 7e d2 2a ee e3 7a ab 3f
       0.0554128282506611 0.0536719539863144
000670 0e 7b 1a 8c 8c a2 aa 3f a8 1b db 1f b8 d6 a9 3f
       0.05202140054938385 0.05046630276552061
000680 e0 07 8a 2e 88 17 a9 3f cd f5 72 66 be 64 a8 3f
       0.049007659607937404 0.047643613821019316
000690 1f 52 3e a3 de bd a7 3f 8b 47 35 26 48 22 a7 3f
       0.04637046568601399 0.04518342462928534
0006a0 de 35 db 6d 47 91 a6 3f 80 5c 45 5c 22 0a a6 3f
       0.04407714096087621 0.04304606796602517
0006b0 31 d6 9e 2f 20 8c a5 3f 3a 59 c4 82 8e 16 a5 3f
       0.042084699452442094 0.04118771883274737
0006c0 31 af 37 3f c4 a8 a4 3f e3 04 be 29 23 42 a4 3f
       0.04035008689592557 0.03956708797978494
0006d0 47 97 bb 81 18 e2 a3 3f 16 46 0f 07 1d 88 a3 3f
       0.0388343485226828 0.038147837745452204
0006e0 7b 49 15 a0 b4 33 a3 3f 2b b5 04 c7 6d e4 a2 3f
       0.03750385717525525 0.03689902357505511
0006f0 42 9d f6 d8 e0 99 a2 3f c5 d7 f3 57 af 53 a2 3f
       0.0363302483413528 0.035794715391531486
000700 fd 16 41 2b 83 11 a2 3f 69 fd ec e4 0d d3 a1 3f
       0.03528985884672229 0.03481334132674869
000710 03 fc cb 10 08 98 a1 3f c9 9b 25 8f 30 60 a1 3f
       0.034363033342735626 0.03393699405096801
000720 67 7f 14 fc 4b 2b a1 3f 94 d3 c9 23 24 f9 a0 3f
       0.03353345348500519 0.03315079628820353
000730 95 41 62 83 87 c9 a0 3f 8d cc ab d5 48 9c a0 3f
       0.032787546909392486 0.032442356188675615
000740 09 38 11 ab 3e 71 a0 3f 2e 2d cc 0b 43 48 a0 3f
       0.03211398924086956 0.03180131453526723
000750 62 de 7a 23 33 21 a0 3f 3f 75 75 ea dd f7 9f 3f
       0.031503294068383494 0.031218974528532725
000760 f0 36 eb 2e b2 b0 9f 3f af 77 37 ed ac 6c 9f 3f
       0.030947479356476515 0.03068800161224033
000770 77 24 2b 3c 9c 2b 9f 3f 3d 94 8f 0d 52 ed 9e 3f
       0.030439797565837225 0.03020218093651671
000780 85 f8 26 d5 a3 b1 9e 3f 07 9c 97 38 6a 78 9e 3f
       0.029974517712382926 0.029756221489062564
000790 cf 7e 4f c7 80 41 9e 3f 4b 2e 87 b9 c5 0c 9e 3f
       0.02954674927229811 0.02934559769509652
0007a0 c0 e7 a2 b5 19 da 9d 3f da 0a 45 9b 5f a9 9d 3f
       0.029152299605563092 0.028966420986089904
0007b0 6d eb 77 53 7c 7a 9d 3f 72 44 67 a5 56 4d 9d 3f
       0.02878755816889671 0.028615335317060127
0007c0 9a 23 2e 0f d7 21 9d 3f d4 ff 4d a2 e7 f7 9c 3f
       0.028449402143028026 0.028289431840221216
0007d0 1b aa 6e e3 73 cf 9c 3f cf 4d 10 ad 68 a8 9c 3f
       0.028135119205822883 0.027986178935021585
0007e0 5c 6a e4 14 b4 82 9c 3f 1e bf 88 53 45 5e 9c 3f
       0.027842344069635025 0.027703364585419547
0007f0 60 cf 67 ae 0c 3b 9c 3f 41 18 89 63 fb 18 9c 3f
       0.027569006104342875 0.02743904871956482
