onecap_model_with_structure_ambiguity/output/upper_triangular_two_ambiguous_parameters/Delta_10.0_distorted_0/logadjustment_1_boundary_0/zmax_5.0_zscale_2.0/delta_0.015/q_0.05_gamma_5.0_rho_1.0/model.npz (npz, 126264 bytes, 58 tensors)

clowerlim f8 []
000000 2d 43 1c eb e2 36 1a 3f
       0.0001

zmin f8 []
000000 00 00 00 00 00 00 14 c0
       -5.0

Delta f8 []
000000 00 00 00 00 00 00 24 40
       10.0

s1_F f8 [401]
000000 34 07 1c 2d 18 6b d0 bf 6e a7 a5 2e 16 56 d0 bf
       -0.25653652577613006 -0.2552543120897245
000010 fb 72 95 2f 14 41 d0 bf 94 92 3f 31 12 2c d0 bf
       -0.25397209784368585 -0.25268988427550565
000020 db 17 0c 34 10 17 d0 bf 0e 50 1d 38 0e 02 d0 bf
       -0.25140767176378426 -0.25012546043331063
000030 51 b7 01 7b 18 da cf bf e6 89 7c 88 14 b0 cf bf
       -0.2488432503336591 -0.2475610414922606
000040 c5 b4 b6 98 10 86 cf bf 6e de ba ab 0c 5c cf bf
       -0.246278833930239 -0.24499662766696723
000050 b2 a1 93 c1 08 32 cf bf d9 97 4b da 04 08 cf bf
       -0.2437144227217352 -0.24243221911382198
000060 30 a6 ed f5 00 de ce bf 6d d8 84 14 fd b3 ce bf
       -0.2411500168630467 -0.2398678159895015
000070 71 7c 1c 36 f9 89 ce bf ad 17 c0 5a f5 5f ce bf
       -0.23858561651374857 -0.237303418456745
000080 96 74 7b 82 f1 35 ce bf 22 93 5a ad ed 0b ce bf
       -0.23602122183993818 -0.23473902668515573
000090 ba bd 69 db e9 e1 cd bf 71 7e b5 0c e6 b7 cd bf
       -0.23345683301475423 -0.23217464085154263
0000a0 e9 a8 4a 41 e2 8d cd bf cb 4e 36 79 de 63 cd bf
       -0.23089245021885255 -0.22961026114045632
0000b0 8d cf 85 b4 da 39 cd bf 84 d9 46 f3 d6 0f cd bf
       -0.2283280736406791 -0.22704588774440648
0000c0 20 65 87 35 d3 e5 cc bf 04 b9 55 7b cf bb cc bf
       -0.22576370347705055 -0.22448152086457906
0000d0 06 73 c0 c4 cb 91 cc bf 1d 78 d6 11 c8 67 cc bf
       -0.22319933993357938 -0.22191716071114423
0000e0 15 14 a7 62 c4 3d cc bf ce e6 41 b7 c0 13 cc bf
       -0.22063498322509703 -0.2193528075038586
0000f0 c1 df b6 0f bd e9 cb bf 50 60 16 6c b9 bf cb bf
       -0.21807063357641535 -0.21678846147256303
000100 91 1c 71 cc b5 95 cb bf ac 2e d8 30 b2 6b cb bf
       -0.21550629122268508 -0.21422412285789016
000110 8b 22 5d 99 ae 41 cb bf 48 db 11 06 ab 17 cb bf
       -0.21294195641009525 -0.21165979191183681
000120 81 b5 08 77 a7 ed ca bf 73 84 54 ec a3 c3 ca bf
       -0.21037762939651475 -0.2090954688983718
000130 70 80 08 66 a0 99 ca bf dc 66 38 e4 9c 6f ca bf
       -0.20781331045236895 -0.2065311540944127
000140 8e 66 f8 66 99 45 ca bf 01 32 5d ee 95 1b ca bf
       -0.20524899986121564 -0.20396684779042576
000150 98 03 7c 7a 92 f1 c9 bf 1f 92 6a 0b 8f c7 c9 bf
       -0.2026846979206567 -0.20140255029140605
000160 78 27 3f a1 8b 9d c9 bf 8c 9e 10 3c 88 73 c9 bf
       -0.2001204049432166 -0.19883826191766152
000170 dc 64 f6 db 84 49 c9 bf 20 84 08 81 81 1f c9 bf
       -0.19755612125735567 -0.19627398300602383
000180 a1 9f 5f 2b 7e f5 c8 bf cf 08 15 db 7a cb c8 bf
       -0.19499184720848198 -0.19370971391078348
000190 7a ac 42 90 77 a1 c8 bf 01 33 03 4b 74 77 c8 bf
       -0.19242758316008574 -0.1911454550048788
0001a0 da f6 71 0b 71 4d c8 bf 71 08 ab d1 6d 23 c8 bf
       -0.1898633294949182 -0.18858120668125225
0001b0 18 40 cb 9d 6a f9 c7 bf c5 3f f0 6f 67 cf c7 bf
       -0.18729908661634975 -0.1860169693541122
0001c0 af 6f 38 48 64 a5 c7 bf 98 15 c3 26 61 7b c7 bf
       -0.18473485494984973 -0.1834527434604467
0001d0 c3 58 b0 0b 5e 51 c7 bf 45 41 21 f7 5a 27 c7 bf
       -0.18217063494438976 -0.18088852946176295
0001e0 1b c3 37 e9 57 fd c6 bf 0b cf 16 e2 54 d3 c6 bf
       -0.17960642707432659 -0.1783243278456371
0001f0 ab 56 e2 e1 51 a9 c6 bf 85 4d bf e8 4e 7f c6 bf
       -0.17704223184107568 -0.1757601391278564
000200 64 ba d3 f6 4b 55 c6 bf 46 cd 46 0c 49 2b c6 bf
       -0.17447804977514914 -0.17319596385423547
000210 2a d0 40 29 46 01 c6 bf b8 49 eb 4d 43 d7 c5 bf
       -0.17191388143840075 -0.17063180260318034
000220 53 f8 70 7a 40 ad c5 bf 35 e7 fd ae 3d 83 c5 bf
       -0.16934972742632456 -0.16806765598794873
000230 c8 7b bf eb 3a 59 c5 bf 99 7b e4 30 38 2f c5 bf
       -0.16678558837062796 -0.16550352465943943
000240 6e 28 9d 7e 35 05 c5 bf 67 3b 1b d5 32 db c4 bf
       -0.164221464942162 -0.16293940930924153
000250 99 02 92 34 30 b1 c4 bf e6 6b 36 9d 2d 87 c4 bf
       -0.1616573578540013 -0.16037531067271898
000260 b0 18 3f 0f 2b 5d c4 bf e9 6f e4 8a 28 33 c4 bf
       -0.15909326786476674 -0.15781122953273943
000270 6a ad 60 10 26 09 c4 bf 28 f1 ef 9f 23 df c3 bf
       -0.1565291957825637 -0.15524716672360594
000280 4f 60 d0 39 21 b5 c3 bf 4f 31 42 de 1e 8b c3 bf
       -0.15396514246890766 -0.15268312313527097
000290 73 c2 87 8d 1c 61 c3 bf 09 b9 e5 47 1a 37 c3 bf
       -0.15140110884341915 -0.15011909971821805
0002a0 16 10 a3 0d 18 0d c3 bf 7f 3f 09 df 15 e3 c2 bf
       -0.14883709588878052 -0.1475550974887447
0002b0 0e 46 64 bc 13 b9 c2 bf f1 d6 02 a6 11 8f c2 bf
       -0.1462731046563452 -0.14499111753473629
0002c0 b9 75 36 9c 0f 65 c2 bf 45 8d 53 9f 0d 3b c2 bf
       -0.14370913627219098 -0.14242716102226374
0002d0 48 9c b1 af 0b 11 c2 bf 46 50 ab cd 09 e7 c1 bf
       -0.1411451919441069 -0.13986322920266242
0002e0 ab b4 9e f9 07 bd c1 bf 81 59 ed 33 06 93 c1 bf
       -0.13858127296899644 -0.1372993234205744
0002f0 30 75 fc 7c 04 69 c1 bf da 1d 35 d5 02 3f c1 bf
       -0.13601738074150083 -0.13473544512292684
000300 6f 6b 04 3d 01 15 c1 bf 1c bb db b4 ff ea c0 bf
       -0.1334535167632924 -0.13217159586880534
000310 54 cf 30 3d fe c0 c0 bf 70 21 7e d6 fc 96 c0 bf
       -0.13088968265366907 -0.12960777734066253
000320 29 04 43 81 fb 6c c0 bf 1d f1 03 3e fa 42 c0 bf
       -0.12832588016138516 -0.1270439913568077
000330 fe cf 4a 0d f9 18 c0 bf 2a 61 4e df ef dd bf bf
       -0.12576211117777797 -0.12448023988543314
000340 d4 3c 5d cb ed 89 bf bf 09 eb f9 df eb 35 bf bf
       -0.12319837775179404 -0.12191652506036744
000350 1d 5e 69 1e ea e1 be bf 6d 82 fe 87 e8 8d be bf
       -0.12063468210669055 -0.1193528491990123
000360 33 08 1b 1e e7 39 be bf c2 20 30 e2 e5 e5 bd bf
       -0.11807102665901041 -0.11678921482246366
000370 c3 67 bf d5 e4 91 bd bf f7 c9 5b fa e3 3d bd bf
       -0.11550741404008051 -0.11422562467831897
000380 91 87 aa 51 e3 e9 bc bf b3 35 64 dd e2 95 bc bf
       -0.11294384712030438 -0.11166208176674423
000390 97 e6 55 9f e2 41 bc bf 1c 53 62 99 e2 ed bb bf
       -0.11038032903698035 -0.10909858937004596
0003a0 c8 2c 83 cd e2 99 bb bf 8a 72 ca 3d e3 45 bb bf
       -0.10781686322586659 -0.10653515108647063
0003b0 40 f3 63 ec e3 f1 ba bf 0b dc 96 db e4 9d ba bf
       -0.10525345345736259 -0.1039717708689382
0003c0 2f 6c c7 0d e6 49 ba bf 25 c4 78 85 e7 f5 b9 bf
       -0.102690103878033 -0.10140845306956743
0003d0 b2 d7 4e 45 e9 a1 b9 bf 8d 8d 10 50 eb 4d b9 bf
       -0.10012681905831647 -0.09884520249084101
0003e0 37 fc a9 a8 ed f9 b8 bf 52 e5 2e 52 f0 a5 b8 bf
       -0.09756360404752305 -0.09628202444482284
0003f0 3e 45 dd 4f f3 51 b8 bf 38 3a 20 a5 f6 fd b7 bf
       -0.0950004644376081 -0.09371892482179411
000400 78 00 93 55 fa a9 b7 bf b4 4f 04 65 fe 55 b7 bf
       -0.09243740643705844 -0.0911559101699016
000410 3c ee 79 d7 02 02 b7 bf 24 88 34 b1 07 ae b6 bf
       -0.08987443695689817 -0.08859298778818975
000420 6a e5 b3 f6 0c 5a b6 bf 2e 73 bb ac 12 06 b6 bf
       -0.08731156371131524 -0.08603016583533638
000430 c5 3a 57 d8 18 b2 b5 bf 55 37 e1 7e 1f 5e b5 bf
       -0.08474879533535347 -0.08346745345735702
000440 83 26 07 a6 26 0a b5 bf 1a ef d0 53 2e b6 b4 bf
       -0.0821861415235166 -0.08090486093800245
000450 13 7e a7 8e 36 62 b4 bf 7e 43 5c 5d 3f 0e b4 bf
       -0.07962361319322779 -0.078342399876659
000460 2c 84 31 c7 48 ba b3 bf 58 3b e3 d3 52 66 b3 bf
       -0.07706122267838172 -0.07578008339917852
000470 2f ee b0 8b 5d 12 b3 bf f4 69 68 f7 68 be b2 bf
       -0.07449898395946584 -0.0732179264090645
000480 00 7e 71 20 75 6a b2 bf fe d5 da 10 82 16 b2 bf
       -0.07193691293786486 -0.0706559458875162
000490 cb 1f 68 d3 8f c2 b1 bf 80 7b a1 73 9e 6e b1 bf
       -0.06937502776429409 -0.06809416125314094
0004a0 03 89 e4 fd ad 1a b1 bf 41 15 77 7f be c6 b0 bf
       -0.06681334923317554 -0.06553259479467945
0004b0 67 ab 9b 06 d0 72 b0 bf 8f 3e a8 a2 e2 1e b0 bf
       -0.06425190125780277 -0.06297127219317587
0004c0 c2 28 3e c8 ec 95 af bf 0f 8b 94 b9 16 ee ae bf
       -0.06169071144457085 -0.06041022315391419
0004d0 89 04 b4 3f 43 46 ae bf 82 ef 0b 84 72 9e ad bf
       -0.05912981178881533 -0.05784948217293985
0004e0 b8 52 64 b3 a4 f6 ac bf db 0e 2f fe d9 4e ac bf
       -0.05656923951952336 -0.05528908946828689
0004f0 b4 5d e1 98 12 a7 ab bf c8 77 56 bc 4e ff aa bf
       -0.05400903812613525 -0.05272909211201654
000500 52 18 3c a6 8e 57 aa bf ba b6 89 99 d2 af a9 bf
       -0.05144925860626927 -0.05016954540483938
000510 14 6a 03 df 1a 08 a9 bf 41 01 c9 c5 67 60 a8 bf
       -0.04888996097880152 -0.04761051453943078
000520 b1 23 f2 a3 b9 b8 a7 bf 2a 97 37 d7 10 11 a7 bf
       -0.04633121610920144 -0.04505207659876327
000530 62 fa a9 c5 6d 69 a6 bf 3e 23 75 de d0 c1 a5 bf
       -0.04377310789003698 -0.04249432292505738
000540 98 cc ae 9a 3a 1a a5 bf d9 c6 2d 7e ab 72 a4 bf
       -0.04121573579996002 -0.0399373618628382
000550 7f 19 65 18 24 cb a3 bf d1 eb 3b 05 a5 23 a3 bf
       -0.038659217813392203 -0.03738132180111332
000560 0e 09 d7 ed 2e 7c a2 bf bc 9f 43 89 c2 d4 a1 bf
       -0.03610369351692287 -0.03482635427081912
000570 ac 1a eb 9c 60 2d a1 bf f6 1e ad fc 09 86 a0 bf
       -0.03354932704455868 -0.03227263650347638
000580 bb bd da 14 7f bd 9f bf 68 39 9a 69 04 6f 9e bf
       -0.030996308944563938 -0.02972037214800008
000590 fc de 52 e9 a5 20 9d bf f2 85 96 91 65 d2 9b bf
       -0.02844485508532467 -0.02716978741739768
0005a0 10 a1 ee 5d 45 84 9a bf 53 f7 64 32 47 36 99 bf
       -0.025895198686755327 -0.024621117068128594
0005b0 49 5a 1b bb 6c e8 97 bf a0 d6 22 3c b7 9a 96 bf
       -0.023347567482085805 -0.02207456879178571
0005c0 03 5f a4 4a 27 4d 95 bf d4 e5 52 65 bc ff 93 bf
       -0.020802129679480263 -0.01953024261886134
0005d0 a7 bd 8f 5d 74 b2 92 bf f1 fb e5 7b 4a 65 91 bf
       -0.018258875093975082 -0.016987956821591103
0005e0 2a 8b 64 40 36 18 90 bf af cc 32 20 53 96 8d bf
       -0.015717361145230736 -0.014446877880209234
0005f0 95 62 46 13 1c fc 8a bf b8 9e 9e 2d 82 61 88 bf
       -0.0131761735327001 -0.011904732720565789
000600 c4 aa ab 31 1c c6 85 bf 0a f4 ee 65 4b 29 83 bf
       -0.010631771341157566 -0.0093561068041428
000610 b1 2c 07 4b 21 8a 80 bf f5 06 ae e5 6e ce 7b bf
       -0.008075962164090763 -0.006788666908393405
000620 00 91 76 81 e2 7c 76 bf e6 4b c6 62 33 19 71 bf
       -0.005490193164778612 -0.00417442391007492
000630 2d d8 9c cf 13 33 67 bf 78 c6 39 47 4f ba 57 bf
       -0.002831972783407208 -0.0014482282830638165
000640 00 00 00 00 00 00 00 80 c3 61 7f be a0 00 59 bf
       -0.0 -0.0015260286108881172
000650 c6 2c 89 e6 b1 84 69 bf dd a7 12 51 a3 7d 73 bf
       -0.0031150316829432227 -0.004758489566635019
000660 a4 ca 25 bf 41 6a 7a bf 0a 39 a0 47 be c0 80 bf
       -0.006448990652972473 -0.008180128632400602
000670 43 50 8f e8 c5 5e 84 bf e8 07 7a b7 bc 0c 88 bf
       -0.009946390304243496 -0.01174304423262025
000680 db c1 6a 8c 82 c8 8b bf cc fa 01 65 45 90 8f bf
       -0.013566036138713258 -0.015411893982898127
000690 3f 14 bd 0c 3b b1 91 bf 5a 0e 80 41 df 9e 93 bf
       -0.0172776438260096 -0.019160736439529515
0006a0 c2 76 76 7e 7c 90 95 bf 4a ea fb 8f 94 85 97 bf
       -0.021058984011338884 -0.022970505989159208
0006b0 da b8 5e c9 ba 7d 99 bf ae ee 98 65 91 78 9b bf
       -0.02489368299546233 -0.02682711775399465
0006c0 45 6b 77 4f c7 75 9d bf 09 2a d7 41 16 75 9f bf
       -0.028769602036713655 -0.030720088738045024
0006d0 89 70 3d 99 20 bb a0 bf 8d f5 e6 7d 89 bc a1 bf
       -0.03267766829114389 -0.03464154874698542
0006e0 39 bf cd 9d ae be a2 bf 80 a4 22 af 7b c1 a3 bf
       -0.03661103893580137 -0.03858553421861988
0006f0 0c 4d ac e7 de c4 a4 bf ab d9 c2 a4 c8 c8 a5 bf
       -0.04056450441398782 -0.04254748355144796
000700 00 c9 7a 20 2b cd a6 bf 2e 77 e6 31 fa d1 a7 bf
       -0.044534061159895444 -0.04652387484678254
000710 55 ab ad 16 2b d7 a8 bf 14 5c 84 44 b4 dc a9 bf
       -0.04851660396419414 -0.05051196419133688
000720 47 87 47 41 8d e2 aa bf b0 fd b9 80 ae e8 ab bf
       -0.05250970289104245 -0.05450959512108555
000730 8b ae 05 47 11 ef ac bf b1 90 49 8f af f5 ad bf
       -0.05651144020052098 -0.0585150587474187
000740 79 8e 99 f5 83 fc ae bf 79 53 f7 d1 c4 01 b0 bf
       -0.06052029011769106 -0.06252699018598475
000750 8d da cc 20 5e 85 b0 bf 49 3d 6e f2 0b 09 b1 bf
       -0.06453502941881535 -0.06654429119793294
000760 89 70 2d 83 cc 8c b1 bf f2 0f 11 3b 9e 10 b2 bf
       -0.06855467035842557 -0.07056607191140055
000770 e3 e5 06 a9 7f 94 b2 bf 3e 55 ad 7e 6f 18 b3 bf
       -0.07257840992578894 -0.0745916065473766
000780 b6 78 9f 8c 6c 9c b3 bf 64 6f 32 bf 75 20 b4 bf
       -0.07660559113671436 -0.07862029950996213
000790 3d 02 95 1b 8a a4 b4 bf fa db 44 bd a8 28 b5 bf
       -0.08063567326917905 -0.08265165921044107
0007a0 8b 5b ce d3 d0 ac b5 bf 19 96 cd a0 01 31 b6 bf
       -0.08466820879981023 -0.08668527770858993
0007b0 31 62 28 76 3a b5 b6 bf 07 5a 7a b4 7a 39 b7 bf
       -0.08870282540045406 -0.09072081476401915
0007c0 f9 d5 ac c9 c1 bd b7 bf 18 7e b5 2f 0f 42 b8 bf
       -0.0927392117854068 -0.0947579852559034
0007d0 92 ef 76 6b 62 c6 b8 bf ba 67 bf 0b bb 4a b9 bf
       -0.09677710651061336 -0.09879654919441708
0007e0 38 0b 62 a8 18 cf b9 bf 3c ad 67 e1 7a 53 ba bf
       -0.10081628905213058 -0.10283630374003833
0007f0 37 81 54 5e e1 d7 ba bf 64 4a 80 cd 4b 5c bb bf
       -0.10485657265644908 -0.10687707678906971

d f8 [401]
000000 30 d1 df c9 6a 79 b3 3f 30 d1 df c9 6a 79 b3 3f
       0.07607142857142857 0.07607142857142857
000010 30 d1 df c9 6a 79 b3 3f 30 d1 df c9 6a 79 b3 3f
       0.07607142857142857 0.07607142857142857
000020 30 d1 df c9 6a 79 b3 3f 30 d1 df c9 6a 79 b3 3f
       0.07607142857142857 0.07607142857142857
000030 30 d1 df c9 6a 79 b3 3f 30 d1 df c9 6a 79 b3 3f
       0.07607142857142857 0.07607142857142857
000040 30 d1 df c9 6a 79 b3 3f 30 d1 df c9 6a 79 b3 3f
       0.07607142857142857 0.07607142857142857
000050 30 d1 df c9 6a 79 b3 3f 30 d1 df c9 6a 79 b3 3f
       0.07607142857142857 0.07607142857142857
000060 30 d1 df c9 6a 79 b3 3f 30 d1 df c9 6a 79 b3 3f
       0.07607142857142857 0.07607142857142857
000070 30 d1 df c9 6a 79 b3 3f 30 d1 df c9 6a 79 b3 3f
       0.07607142857142857 0.07607142857142857
000080 30 d1 df c9 6a 79 b3 3f 30 d1 df c9 6a 79 b3 3f
       0.07607142857142857 0.07607142857142857
000090 30 d1 df c9 6a 79 b3 3f 30 d1 df c9 6a 79 b3 3f
       0.07607142857142857 0.07607142857142857
0000a0 30 d1 df c9 6a 79 b3 3f 30 d1 df c9 6a 79 b3 3f
       0.07607142857142857 0.07607142857142857
0000b0 30 d1 df c9 6a 79 b3 3f 30 d1 df c9 6a 79 b3 3f
       0.07607142857142857 0.07607142857142857
0000c0 30 d1 df c9 6a 79 b3 3f 30 d1 df c9 6a 79 b3 3f
       0.07607142857142857 0.07607142857142857
0000d0 30 d1 df c9 6a 79 b3 3f 30 d1 df c9 6a 79 b3 3f
       0.07607142857142857 0.07607142857142857
0000e0 30 d1 df c9 6a 79 b3 3f 30 d1 df c9 6a 79 b3 3f
       0.07607142857142857 0.07607142857142857
0000f0 30 d1 df c9 6a 79 b3 3f 30 d1 df c9 6a 79 b3 3f
       0.07607142857142857 0.07607142857142857
000100 30 d1 df c9 6a 79 b3 3f 30 d1 df c9 6a 79 b3 3f
       0.07607142857142857 0.07607142857142857
000110 30 d1 df c9 6a 79 b3 3f 30 d1 df c9 6a 79 b3 3f
       0.07607142857142857 0.07607142857142857
000120 30 d1 df c9 6a 79 b3 3f 30 d1 df c9 6a 79 b3 3f
       0.07607142857142857 0.07607142857142857
000130 30 d1 df c9 6a 79 b3 3f 30 d1 df c9 6a 79 b3 3f
       0.07607142857142857 0.07607142857142857
000140 30 d1 df c9 6a 79 b3 3f 30 d1 df c9 6a 79 b3 3f
       0.07607142857142857 0.07607142857142857
000150 30 d1 df c9 6a 79 b3 3f 30 d1 df c9 6a 79 b3 3f
       0.07607142857142857 0.07607142857142857
000160 30 d1 df c9 6a 79 b3 3f 30 d1 df c9 6a 79 b3 3f
       0.07607142857142857 0.07607142857142857
000170 30 d1 df c9 6a 79 b3 3f 30 d1 df c9 6a 79 b3 3f
       0.07607142857142857 0.07607142857142857
000180 30 d1 df c9 6a 79 b3 3f 30 d1 df c9 6a 79 b3 3f
       0.07607142857142857 0.07607142857142857
000190 30 d1 df c9 6a 79 b3 3f 30 d1 df c9 6a 79 b3 3f
       0.07607142857142857 0.07607142857142857
0001a0 30 d1 df c9 6a 79 b3 3f 30 d1 df c9 6a 79 b3 3f
       0.07607142857142857 0.07607142857142857
0001b0 30 d1 df c9 6a 79 b3 3f 30 d1 df c9 6a 79 b3 3f
       0.07607142857142857 0.07607142857142857
0001c0 30 d1 df c9 6a 79 b3 3f 30 d1 df c9 6a 79 b3 3f
       0.07607142857142857 0.07607142857142857
0001d0 30 d1 df c9 6a 79 b3 3f 30 d1 df c9 6a 79 b3 3f
       0.07607142857142857 0.07607142857142857
0001e0 30 d1 df c9 6a 79 b3 3f 30 d1 df c9 6a 79 b3 3f
       0.07607142857142857 0.07607142857142857
0001f0 30 d1 df c9 6a 79 b3 3f 30 d1 df c9 6a 79 b3 3f
       0.07607142857142857 0.07607142857142857
000200 30 d1 df c9 6a 79 b3 3f 30 d1 df c9 6a 79 b3 3f
       0.07607142857142857 0.07607142857142857
000210 30 d1 df c9 6a 79 b3 3f 30 d1 df c9 6a 79 b3 3f
       0.07607142857142857 0.07607142857142857
000220 30 d1 df c9 6a 79 b3 3f 30 d1 df c9 6a 79 b3 3f
       0.07607142857142857 0.07607142857142857
000230 30 d1 df c9 6a 79 b3 3f 30 d1 df c9 6a 79 b3 3f
       0.07607142857142857 0.07607142857142857
000240 30 d1 df c9 6a 79 b3 3f 30 d1 df c9 6a 79 b3 3f
       0.07607142857142857 0.07607142857142857
000250 30 d1 df c9 6a 79 b3 3f 30 d1 df c9 6a 79 b3 3f
       0.07607142857142857 0.07607142857142857
000260 30 d1 df c9 6a 79 b3 3f 30 d1 df c9 6a 79 b3 3f
       0.07607142857142857 0.07607142857142857
000270 30 d1 df c9 6a 79 b3 3f 30 d1 df c9 6a 79 b3 3f
       0.07607142857142857 0.07607142857142857
000280 30 d1 df c9 6a 79 b3 3f 30 d1 df c9 6a 79 b3 3f
       0.07607142857142857 0.07607142857142857
000290 30 d1 df c9 6a 79 b3 3f 30 d1 df c9 6a 79 b3 3f
       0.07607142857142857 0.07607142857142857
0002a0 30 d1 df c9 6a 79 b3 3f 30 d1 df c9 6a 79 b3 3f
       0.07607142857142857 0.07607142857142857
0002b0 30 d1 df c9 6a 79 b3 3f 30 d1 df c9 6a 79 b3 3f
       0.07607142857142857 0.07607142857142857
0002c0 30 d1 df c9 6a 79 b3 3f 30 d1 df c9 6a 79 b3 3f
       0.07607142857142857 0.07607142857142857
0002d0 30 d1 df c9 6a 79 b3 3f 30 d1 df c9 6a 79 b3 3f
       0.07607142857142857 0.07607142857142857
0002e0 30 d1 df c9 6a 79 b3 3f 30 d1 df c9 6a 79 b3 3f
       0.07607142857142857 0.07607142857142857
0002f0 30 d1 df c9 6a 79 b3 3f 30 d1 df c9 6a 79 b3 3f
       0.07607142857142857 0.07607142857142857
000300 30 d1 df c9 6a 79 b3 3f 30 d1 df c9 6a 79 b3 3f
       0.07607142857142857 0.07607142857142857
000310 30 d1 df c9 6a 79 b3 3f 30 d1 df c9 6a 79 b3 3f
       0.07607142857142857 0.07607142857142857
000320 30 d1 df c9 6a 79 b3 3f 30 d1 df c9 6a 79 b3 3f
       0.07607142857142857 0.07607142857142857
000330 30 d1 df c9 6a 79 b3 3f 30 d1 df c9 6a 79 b3 3f
       0.07607142857142857 0.07607142857142857
000340 30 d1 df c9 6a 79 b3 3f 30 d1 df c9 6a 79 b3 3f
       0.07607142857142857 0.07607142857142857
000350 30 d1 df c9 6a 79 b3 3f 30 d1 df c9 6a 79 b3 3f
       0.07607142857142857 0.07607142857142857
000360 30 d1 df c9 6a 79 b3 3f 30 d1 df c9 6a 79 b3 3f
       0.07607142857142857 0.07607142857142857
000370 30 d1 df c9 6a 79 b3 3f 30 d1 df c9 6a 79 b3 3f
       0.07607142857142857 0.07607142857142857
000380 30 d1 df c9 6a 79 b3 3f 30 d1 df c9 6a 79 b3 3f
       0.07607142857142857 0.07607142857142857
000390 30 d1 df c9 6a 79 b3 3f 30 d1 df c9 6a 79 b3 3f
       0.07607142857142857 0.07607142857142857
0003a0 30 d1 df c9 6a 79 b3 3f 30 d1 df c9 6a 79 b3 3f
       0.07607142857142857 0.07607142857142857
0003b0 30 d1 df c9 6a 79 b3 3f 30 d1 df c9 6a 79 b3 3f
       0.07607142857142857 0.07607142857142857
0003c0 30 d1 df c9 6a 79 b3 3f 30 d1 df c9 6a 79 b3 3f
       0.07607142857142857 0.07607142857142857
0003d0 30 d1 df c9 6a 79 b3 3f 30 d1 df c9 6a 79 b3 3f
       0.07607142857142857 0.07607142857142857
0003e0 30 d1 df c9 6a 79 b3 3f 30 d1 df c9 6a 79 b3 3f
       0.07607142857142857 0.07607142857142857
0003f0 30 d1 df c9 6a 79 b3 3f 30 d1 df c9 6a 79 b3 3f
       0.07607142857142857 0.07607142857142857
000400 30 d1 df c9 6a 79 b3 3f 30 d1 df c9 6a 79 b3 3f
       0.07607142857142857 0.07607142857142857
000410 30 d1 df c9 6a 79 b3 3f 30 d1 df c9 6a 79 b3 3f
       0.07607142857142857 0.07607142857142857
000420 30 d1 df c9 6a 79 b3 3f 30 d1 df c9 6a 79 b3 3f
       0.07607142857142857 0.07607142857142857
000430 30 d1 df c9 6a 79 b3 3f 30 d1 df c9 6a 79 b3 3f
       0.07607142857142857 0.07607142857142857
000440 30 d1 df c9 6a 79 b3 3f 30 d1 df c9 6a 79 b3 3f
       0.07607142857142857 0.07607142857142857
000450 30 d1 df c9 6a 79 b3 3f 30 d1 df c9 6a 79 b3 3f
       0.07607142857142857 0.07607142857142857
000460 30 d1 df c9 6a 79 b3 3f 30 d1 df c9 6a 79 b3 3f
       0.07607142857142857 0.07607142857142857
000470 30 d1 df c9 6a 79 b3 3f 30 d1 df c9 6a 79 b3 3f
       0.07607142857142857 0.07607142857142857
000480 30 d1 df c9 6a 79 b3 3f 30 d1 df c9 6a 79 b3 3f
       0.07607142857142857 0.07607142857142857
000490 30 d1 df c9 6a 79 b3 3f 30 d1 df c9 6a 79 b3 3f
       0.07607142857142857 0.07607142857142857
0004a0 30 d1 df c9 6a 79 b3 3f 30 d1 df c9 6a 79 b3 3f
       0.07607142857142857 0.07607142857142857
0004b0 30 d1 df c9 6a 79 b3 3f 30 d1 df c9 6a 79 b3 3f
       0.07607142857142857 0.07607142857142857
0004c0 30 d1 df c9 6a 79 b3 3f 30 d1 df c9 6a 79 b3 3f
       0.07607142857142857 0.07607142857142857
0004d0 30 d1 df c9 6a 79 b3 3f 30 d1 df c9 6a 79 b3 3f
       0.07607142857142857 0.07607142857142857
0004e0 30 d1 df c9 6a 79 b3 3f 30 d1 df c9 6a 79 b3 3f
       0.07607142857142857 0.07607142857142857
0004f0 30 d1 df c9 6a 79 b3 3f 30 d1 df c9 6a 79 b3 3f
       0.07607142857142857 0.07607142857142857
000500 30 d1 df c9 6a 79 b3 3f 30 d1 df c9 6a 79 b3 3f
       0.07607142857142857 0.07607142857142857
000510 30 d1 df c9 6a 79 b3 3f 30 d1 df c9 6a 79 b3 3f
       0.07607142857142857 0.07607142857142857
000520 30 d1 df c9 6a 79 b3 3f 30 d1 df c9 6a 79 b3 3f
       0.07607142857142857 0.07607142857142857
000530 30 d1 df c9 6a 79 b3 3f 30 d1 df c9 6a 79 b3 3f
       0.07607142857142857 0.07607142857142857
000540 30 d1 df c9 6a 79 b3 3f 30 d1 df c9 6a 79 b3 3f
       0.07607142857142857 0.07607142857142857
000550 30 d1 df c9 6a 79 b3 3f 30 d1 df c9 6a 79 b3 3f
       0.07607142857142857 0.07607142857142857
000560 30 d1 df c9 6a 79 b3 3f 30 d1 df c9 6a 79 b3 3f
       0.07607142857142857 0.07607142857142857
000570 30 d1 df c9 6a 79 b3 3f 30 d1 df c9 6a 79 b3 3f
       0.07607142857142857 0.07607142857142857
000580 30 d1 df c9 6a 79 b3 3f 30 d1 df c9 6a 79 b3 3f
       0.07607142857142857 0.07607142857142857
000590 30 d1 df c9 6a 79 b3 3f 30 d1 df c9 6a 79 b3 3f
       0.07607142857142857 0.07607142857142857
0005a0 30 d1 df c9 6a 79 b3 3f 30 d1 df c9 6a 79 b3 3f
       0.07607142857142857 0.07607142857142857
0005b0 30 d1 df c9 6a 79 b3 3f 30 d1 df c9 6a 79 b3 3f
       0.07607142857142857 0.07607142857142857
0005c0 30 d1 df c9 6a 79 b3 3f 30 d1 df c9 6a 79 b3 3f
       0.07607142857142857 0.07607142857142857
0005d0 30 d1 df c9 6a 79 b3 3f 30 d1 df c9 6a 79 b3 3f
       0.07607142857142857 0.07607142857142857
0005e0 30 d1 df c9 6a 79 b3 3f 30 d1 df c9 6a 79 b3 3f
       0.07607142857142857 0.07607142857142857
0005f0 30 d1 df c9 6a 79 b3 3f 30 d1 df c9 6a 79 b3 3f
       0.07607142857142857 0.07607142857142857
000600 30 d1 df c9 6a 79 b3 3f 30 d1 df c9 6a 79 b3 3f
       0.07607142857142857 0.07607142857142857
000610 30 d1 df c9 6a 79 b3 3f 30 d1 df c9 6a 79 b3 3f
       0.07607142857142857 0.07607142857142857
000620 30 d1 df c9 6a 79 b3 3f 30 d1 df c9 6a 79 b3 3f
       0.07607142857142857 0.07607142857142857
000630 30 d1 df c9 6a 79 b3 3f 30 d1 df c9 6a 79 b3 3f
       0.07607142857142857 0.07607142857142857
000640 30 d1 df c9 6a 79 b3 3f 30 d1 df c9 6a 79 b3 3f
       0.07607142857142857 0.07607142857142857
000650 30 d1 df c9 6a 79 b3 3f 30 d1 df c9 6a 79 b3 3f
       0.07607142857142857 0.07607142857142857
000660 30 d1 df c9 6a 79 b3 3f 30 d1 df c9 6a 79 b3 3f
       0.07607142857142857 0.07607142857142857
000670 30 d1 df c9 6a 79 b3 3f 30 d1 df c9 6a 79 b3 3f
       0.07607142857142857 0.07607142857142857
000680 30 d1 df c9 6a 79 b3 3f 30 d1 df c9 6a 79 b3 3f
       0.07607142857142857 0.07607142857142857
000690 30 d1 df c9 6a 79 b3 3f 30 d1 df c9 6a 79 b3 3f
       0.07607142857142857 0.07607142857142857
0006a0 30 d1 df c9 6a 79 b3 3f 30 d1 df c9 6a 79 b3 3f
       0.07607142857142857 0.07607142857142857
0006b0 30 d1 df c9 6a 79 b3 3f 30 d1 df c9 6a 79 b3 3f
       0.07607142857142857 0.07607142857142857
0006c0 30 d1 df c9 6a 79 b3 3f 30 d1 df c9 6a 79 b3 3f
       0.07607142857142857 0.07607142857142857
0006d0 30 d1 df c9 6a 79 b3 3f 30 d1 df c9 6a 79 b3 3f
       0.07607142857142857 0.07607142857142857
0006e0 30 d1 df c9 6a 79 b3 3f 30 d1 df c9 6a 79 b3 3f
       0.07607142857142857 0.07607142857142857
0006f0 30 d1 df c9 6a 79 b3 3f 30 d1 df c9 6a 79 b3 3f
       0.07607142857142857 0.07607142857142857
000700 30 d1 df c9 6a 79 b3 3f 30 d1 df c9 6a 79 b3 3f
       0.07607142857142857 0.07607142857142857
000710 30 d1 df c9 6a 79 b3 3f 30 d1 df c9 6a 79 b3 3f
       0.07607142857142857 0.07607142857142857
000720 30 d1 df c9 6a 79 b3 3f 30 d1 df c9 6a 79 b3 3f
       0.07607142857142857 0.07607142857142857
000730 30 d1 df c9 6a 79 b3 3f 30 d1 df c9 6a 79 b3 3f
       0.07607142857142857 0.07607142857142857
000740 30 d1 df c9 6a 79 b3 3f 30 d1 df c9 6a 79 b3 3f
       0.07607142857142857 0.07607142857142857
000750 30 d1 df c9 6a 79 b3 3f 30 d1 df c9 6a 79 b3 3f
       0.07607142857142857 0.07607142857142857
000760 30 d1 df c9 6a 79 b3 3f 30 d1 df c9 6a 79 b3 3f
       0.07607142857142857 0.07607142857142857
000770 30 d1 df c9 6a 79 b3 3f 30 d1 df c9 6a 79 b3 3f
       0.07607142857142857 0.07607142857142857
000780 30 d1 df c9 6a 79 b3 3f 30 d1 df c9 6a 79 b3 3f
       0.07607142857142857 0.07607142857142857
000790 30 d1 df c9 6a 79 b3 3f 30 d1 df c9 6a 79 b3 3f
       0.07607142857142857 0.07607142857142857
0007a0 30 d1 df c9 6a 79 b3 3f 30 d1 df c9 6a 79 b3 3f
       0.07607142857142857 0.07607142857142857
0007b0 30 d1 df c9 6a 79 b3 3f 30 d1 df c9 6a 79 b3 3f
       0.07607142857142857 0.07607142857142857
0007c0 30 d1 df c9 6a 79 b3 3f 30 d1 df c9 6a 79 b3 3f
       0.07607142857142857 0.07607142857142857
0007d0 30 d1 df c9 6a 79 b3 3f 30 d1 df c9 6a 79 b3 3f
       0.07607142857142857 0.07607142857142857
0007e0 30 d1 df c9 6a 79 b3 3f 30 d1 df c9 6a 79 b3 3f
       0.07607142857142857 0.07607142857142857
0007f0 30 d1 df c9 6a 79 b3 3f 30 d1 df c9 6a 79 b3 3f
       0.07607142857142857 0.07607142857142857

zmax f8 []
000000 00 00 00 00 00 00 14 40
       5.0

hz_F f8 [401]
000000 87 ae 6a 20 1b 77 aa 3f 84 6a 1a d0 17 77 aa 3f
       0.05168995638572676 0.05168985762903325
000010 df cc 3d 78 14 77 aa 3f e0 84 74 16 11 77 aa 3f
       0.051689757993608636 0.05168965720282315
000020 51 b0 e5 a9 0d 77 aa 3f eb ed 2b 32 0a 77 aa 3f
       0.05168955515804952 0.05168945181318548
000030 48 80 03 af 06 77 aa 3f 88 d5 31 20 03 77 aa 3f
       0.05168934713742651 0.05168924110413814
000040 92 2a 7e 85 ff 76 aa 3f 66 64 af de fb 76 aa 3f
       0.05168913368750795 0.05168902486156739
000050 b3 3e 8b 2b f8 76 aa 3f 08 3b d6 6b f4 76 aa 3f
       0.051688914599819745 0.05168880287521033
000060 47 53 53 9f f0 76 aa 3f e4 10 c4 c5 ec 76 aa 3f
       0.05168868965998868 0.05168857492574988
000070 05 6a e8 de e8 76 aa 3f 30 c0 7e ea e4 76 aa 3f
       0.051688458643372605 0.05168834078301676
000080 0d c9 43 e8 e0 76 aa 3f f7 90 f2 d7 dc 76 aa 3f
       0.05168822131408222 0.051688100205213354
000090 f8 5b 44 b9 d8 76 aa 3f 33 a3 f0 8b d4 76 aa 3f
       0.05168797742424397 0.05168785293819269
0000a0 e9 fe ac 4f d0 76 aa 3f e4 23 2d 04 cc 76 aa 3f
       0.05168772671322392 0.05168759871464326
0000b0 07 c7 22 a9 c7 76 aa 3f cb 8d 3d 3e c3 76 aa 3f
       0.051687468906846994 0.05168733725329452
0000c0 e5 03 2b c3 be 76 aa 3f e6 87 96 37 ba 76 aa 3f
       0.05168720371648997 0.05168706825794782
0000d0 a9 32 29 9b b5 76 aa 3f 08 d6 89 ed b0 76 aa 3f
       0.05168693083814919 0.05168679141653959
0000e0 08 cd 5c 2e ac 76 aa 3f db fb 43 5d a7 76 aa 3f
       0.05168664995144395 0.05168650640006663
0000f0 a3 c1 de 79 a2 76 aa 3f 78 c3 c9 83 9d 76 aa 3f
       0.05168636071846613 0.05168621286146097
000100 ba f6 9e 7a 98 76 aa 3f 02 79 f5 5d 93 76 aa 3f
       0.05168606278264805 0.051685910434331475
000110 84 6e 61 2d 8e 76 aa 3f f0 05 74 e8 88 76 aa 3f
       0.05168575576746284 0.05168559873164813
000120 46 3e bb 8e 83 76 aa 3f df d0 c1 1f 7e 76 aa 3f
       0.05168543927504436 0.051685277344320595
000130 a6 29 0f 9b 78 76 aa 3f a7 2b 27 00 73 76 aa 3f
       0.0516851128846441 0.051684945839574774
000140 4a 29 8a 4e 6d 76 aa 3f 80 b4 b4 85 67 76 aa 3f
       0.05168477615105134 0.05168460375930639
000150 d9 7b 1f a5 61 76 aa 3f 27 37 3f ac 5b 76 aa 3f
       0.05168442860280437 0.05168425061820719
000160 95 6e 84 9a 55 76 aa 3f 5b 5a 5b 6f 4f 76 aa 3f
       0.0516840697402731 0.05168388590179936
000170 40 bd 2b 2a 49 76 aa 3f c5 b4 58 ca 42 76 aa 3f
       0.05168369903355563 0.051683509064198975
000180 f3 94 40 4f 3c 76 aa 3f 05 a9 3c b8 35 76 aa 3f
       0.0516833159202096 0.051683119525778344
000190 6c 1d a1 04 2f 76 aa 3f aa af bc 33 28 76 aa 3f
       0.051682919802767596 0.051682716670568965
0001a0 22 8a d8 44 21 76 aa 3f 16 0f 38 37 1a 76 aa 3f
       0.05168251004603898 0.05168229984340493
0001b0 8f 91 18 0a 13 76 aa 3f c5 1d b1 bc 0b 76 aa 3f
       0.051682085974138585 0.05168186834685743
0001c0 6e 45 32 4e 04 76 aa 3f 68 ca c5 bd fc 75 aa 3f
       0.05168164686723285 0.05168142143783855
0001d0 d0 5c 8e 0a f5 75 aa 3f a5 5b a7 33 ed 75 aa 3f
       0.051681191958033446 0.05168095832384915
0001e0 ab 84 24 38 e5 75 aa 3f e4 99 11 17 dd 75 aa 3f
       0.051680720427847625 0.0516804781589604
0001f0 be 12 72 cf d4 75 aa 3f 32 cd 40 60 cc 75 aa 3f
       0.05168023140234855 0.051679980039262566
000200 ab a7 6f c8 c3 75 aa 3f 87 10 e7 06 bb 75 aa 3f
       0.05167972394686101 0.051679462998010676
000210 08 bf 85 1a b2 75 aa 3f 44 2a 20 02 a9 75 aa 3f
       0.051679197061160365 0.05167892600009741
000220 18 2c 80 bc 9f 75 aa 3f 98 7e 64 48 96 75 aa 3f
       0.051678649673782384 0.05167836793611719
000230 5e 3d 80 a4 8c 75 aa 3f bc 6a 7a cf 82 75 aa 3f
       0.05167808063571998 0.051677787615707044
000240 08 52 ed c7 78 75 aa 3f 1a 0e 66 8c 6e 75 aa 3f
       0.051677488713412656 0.05167718376017323
000250 0f dc 63 1b 64 75 aa 3f e4 7e 57 73 59 75 aa 3f
       0.0516768725810196 0.05167655499439919
000260 a4 8f a2 92 4e 75 aa 3f 26 c7 96 77 43 75 aa 3f
       0.051676230811863705 0.051675899837745384
000270 9b 42 75 20 38 75 aa 3f 10 bf 6d 8b 2c 75 aa 3f
       0.051675561868824015 0.0516752166939779
000280 0c b2 9d b6 20 75 aa 3f 43 74 0f a0 14 75 aa 3f
       0.05167486409377284 0.05167450384008323
000290 71 52 b9 45 08 75 aa 3f a8 85 7c a5 fb 74 aa 3f
       0.05167413569566726 0.051673759413698506
0002a0 ea 35 24 bd ee 74 aa 3f b5 4b 64 8a e1 74 aa 3f
       0.05167337473731577 0.05167298139908586
0002b0 a6 5c d8 0a d4 74 aa 3f ea 54 02 3c c6 74 aa 3f
       0.051672579120514414 0.051672167611437406
0002c0 70 28 49 1b b8 74 aa 3f c4 79 f7 a5 a9 74 aa 3f
       0.05167174656942641 0.05167131567917552
0002d0 34 0d 3a d9 9a 74 aa 3f 1e 41 1e b2 8b 74 aa 3f
       0.05167087461179634 0.05167042302412227
0002e0 45 51 90 2d 7c 74 aa 3f 7e 8e 59 48 6c 74 aa 3f
       0.05166996055791854 0.051669486839071674
0002f0 43 84 1e ff 5b 74 aa 3f a9 dd 5c 4e 4b 74 aa 3f
       0.05166900147674671 0.05166850406242968
000300 ca 50 69 32 3a 74 aa 3f da 34 6d a7 28 74 aa 3f
       0.05166799416898156 0.0516674713495406
000310 3e 2e 64 a9 16 74 aa 3f f7 64 19 34 04 74 aa 3f
       0.051666935136463796 0.05166638504005932
000320 47 df 24 43 f1 73 aa 3f 8f 6a e8 d1 dd 73 aa 3f
       0.05166582054738327 0.051665241120834364
000330 b7 5e 8c db c9 73 aa 3f 19 45 fc 5a b5 73 aa 3f
       0.05166464619668203 0.05166403518354396
000340 3b 1d e3 4a a0 73 aa 3f 77 63 a7 a5 8a 73 aa 3f
       0.05166340746068917 0.051662762376230846
000350 33 e5 66 65 74 73 aa 3f bb 2d f2 83 5d 73 aa 3f
       0.0516620992452296 0.05166141734761306
000360 c0 9d c7 fa 45 73 aa 3f c0 3b 0e c3 2d 73 aa 3f
       0.0516607159259439 0.05165999418306155
000370 2b 03 90 d5 14 73 aa 3f e2 d3 b3 2a fb 72 aa 3f
       0.0516592512794943 0.051658486330701484
000380 d2 dd 76 ba e0 72 aa 3f 8c 99 65 7c c5 72 aa 3f
       0.05165769840408142 0.05165688651577502
000390 f8 1d 94 67 a9 72 aa 3f 6c ea 95 72 8c 72 aa 3f
       0.05165604962718001 0.05165518664121724
0003a0 be f2 74 93 6e 72 aa 3f 45 03 a8 bf 4f 72 aa 3f
       0.051654296398259344 0.05165337767176096
0003b0 a9 42 08 ec 2f 72 aa 3f f4 e0 c5 0c 0f 72 aa 3f
       0.051652429163487064 0.051651449498367
0003c0 bd c6 5b 15 ed 71 aa 3f ac 38 82 f8 c9 71 aa 3f
       0.05165043721889393 0.051649390779048815
0003d0 25 4f 20 a8 a5 71 aa 3f 3d 1b 3c 15 80 71 aa 3f
       0.05164830853769179 0.05164718875135186
0003e0 14 6c e9 2f 59 71 aa 3f c5 ee 36 e7 30 71 aa 3f
       0.051646029566392 0.0516448290104257
0003f0 aa b0 19 29 07 71 aa 3f a6 8f 56 e2 db 70 aa 3f
       0.05164358498299866 0.05164229524532908
000400 41 b2 69 fe ae 70 aa 3f 0d 7c 6b 67 80 70 aa 3f
       0.05164095740915232 0.0516395689244221
000410 95 f2 f2 05 50 70 aa 3f f7 3e f5 c0 1d 70 aa 3f
       0.051638127065847396 0.05163662891811598
000420 6c df a1 7d e9 6f aa 3f 27 3f 3b 1f b3 6f aa 3f
       0.05163507135961151 0.0516334510444934
000430 50 31 eb 86 7a 6f aa 3f 08 f2 92 93 3f 6f aa 3f
       0.0516317643829064 0.05163000751915453
000440 34 0b 96 21 02 6f aa 3f c8 68 9f 0a c2 6e aa 3f
       0.05162817630755115 0.05162626628562489
000450 c8 1f 60 25 7f 6e aa 3f ef f6 46 45 39 6e aa 3f
       0.051624272644459845 0.05162219019574176
000460 09 90 2f 3a f0 6d aa 3f 4e 96 08 d0 a3 6d aa 3f
       0.051620013334996946 0.05161773600074736
000470 c2 50 6f ce 53 6d aa 3f 6e 57 3f f8 ff 6c aa 3f
       0.051615351628841136 0.051612853101388065
000480 20 d8 14 0b a8 6c aa 3f 14 80 bf be 4b 6c aa 3f
       0.051610232689583535 0.05160748198954948
000490 a0 cc a3 c4 ea 6b aa 3f 07 76 08 c7 84 6b aa 3f
       0.051604591850172854 0.05160155229189561
0004a0 c7 c4 4c 68 19 6b aa 3f 2b a8 04 42 a8 6a aa 3f
       0.05159835241500726 0.05159498029600259
0004b0 bf 75 f6 e3 30 6a aa 3f ce a9 f5 d2 b2 69 aa 3f
       0.05159142287014217 0.05158766579809858
0004c0 e1 51 95 87 2d 69 aa 3f 5f 93 ab 6c a0 68 aa 3f
       0.051583693314259944 0.05157948805371037
0004d0 e0 e5 9e dd 0a 68 aa 3f 22 f4 73 24 6c 67 aa 3f
       0.05157503085451842 0.05157030053121782
0004e0 fc 86 91 77 c3 66 aa 3f 91 fb 2d f7 0f 66 aa 3f
       0.051565273614654544 0.05155992405251831
0004f0 c7 27 57 aa 50 65 aa 3f 6e a5 82 7b 84 64 aa 3f
       0.051554222863685654 0.05154813773817578
000500 51 0a 91 34 aa 63 aa 3f e5 14 2a 7a c0 62 aa 3f
       0.051541632572953085 0.051534666931766705
000510 d0 4d 52 c6 c5 61 aa 3f 98 59 14 62 b8 60 aa 3f
       0.05152719541470285 0.05151916692027497
000520 f8 95 0f 5e 96 5f aa 3f ae ff b3 89 5d 5e aa 3f
       0.051510523778954764 0.0515012007326726
000530 ad 1b e6 68 0b 5d aa 3f 43 79 b6 27 9d 5b aa 3f
       0.05149112372878704 0.05148020849013559
000540 c4 3c c4 8b 0f 5a aa 3f 1e 82 c9 e2 5e 58 aa 3f
       0.05146835881361647 0.05145546453855253
000550 42 e9 b0 ed 86 56 aa 3f ed af 6b c7 82 54 aa 3f
       0.05144139911176861 0.05142601665815492
000560 44 43 8d c6 4c 52 aa 3f 4c 04 70 58 de 4f aa 3f
       0.05140914844253655 0.051390598579026475
000570 8d a6 53 d4 2f 4d aa 3f 03 d0 79 44 38 4a aa 3f
       0.05137013880614658 0.05134750209700203
000580 76 ed b9 22 ed 46 aa 3f f5 4c 4f 05 42 43 aa 3f
       0.0513223748102644 0.05129438700500969
000590 70 30 b6 37 28 3f aa 3f b8 89 33 3a 8e 3a aa 3f
       0.05126310043405702 0.05122799358811697
0005a0 19 48 05 21 5f 35 aa 3f c3 ce 13 ca 81 2f aa 3f
       0.05118844297489051 0.051143699567459254
0005b0 23 db 20 dd d7 28 aa 3f 64 2b 9b 86 3c 21 aa 3f
       0.05109285902329066 0.05103482382909055
0005c0 e9 bc 15 d8 82 18 aa 3f 55 74 6a b2 73 0e aa 3f
       0.05096825492625518 0.05089150956084924
0005d0 b0 f6 1b 14 cb 02 aa 3f d6 6d ae 99 34 f5 a9 3f
       0.05080256100153002 0.0506988942717858
0005e0 ac cf 20 ec 46 e5 a9 3f 55 e2 af c1 7d d2 a9 3f
       0.050577369999160154 0.05043404569000091
0005f0 60 69 35 f4 31 bc a9 3f 6a 61 94 03 8f a1 a9 3f
       0.050263939915299316 0.050060719668354306
000600 d3 0e 84 1d 85 81 a9 3f 6b 01 67 71 b6 5a a9 3f
       0.04981628403950613 0.04952020773225992
000610 9b c3 7f 28 5e 2b a9 3f b8 0b 86 ca 2e f1 a8 3f
       0.049158995097861445 0.048715078565713055
000620 4f cd 6c 20 25 a9 a8 3f 4c 91 dc ce 4b 4f a8 3f
       0.04816547413647731 0.04747998142400664
000630 3b 10 58 fe 6a de a7 3f a4 96 18 b8 9e 4f a7 3f
       0.04661878924164894 0.04552932736650675
000640 e9 b1 a4 b4 ce 99 a6 3f c8 a7 0a 1e 44 0f a6 3f
       0.04414220767134564 0.04308522097319628
000650 33 c9 3a 55 76 96 a5 3f a9 7d 64 1c 99 2c a5 3f
       0.04216356077576435 0.04135588142002728
000660 6c bd 5d 78 60 cf a4 3f 5e 4b 28 e8 e7 7c a4 3f
       0.04064465970338457 0.040015456285024995
000670 75 86 d8 8e 9e 33 a4 3f ef da b8 58 37 f2 a3 3f
       0.03945632451747098 0.03895733793290456
000680 1c bf a1 4e 9c b7 a3 3f f0 e3 eb 70 e4 82 a3 3f
       0.038510212515460135 0.038108004364353465
000690 4e e4 65 94 4b 53 a3 3f f0 14 14 d7 2b 28 a3 3f
       0.03774486719607549 0.037415857319539
0006a0 c1 fa b0 58 f8 00 a3 3f d9 bb 9f f4 38 dd a2 3f
       0.03711677630098143 0.036844043599437
0006b0 6d 58 0c c9 86 bc a2 3f e7 33 04 62 89 9e a2 3f
       0.03659459308816868 0.03636578866471734
0006c0 7c 53 ff 67 f4 82 a2 3f cf 4c 20 b8 85 69 a2 3f
       0.03615535516261212 0.035961321569766384
0006d0 cf ef c5 d1 03 52 a2 3f a5 85 38 89 3c 3c a2 3f
       0.03578197417934314 0.035615817785820604
0006e0 a2 65 85 f2 03 28 a2 3f c2 09 32 7a 33 15 a2 3f
       0.03546154342138698 0.035318001429021986
0006f0 34 2e 7a 23 a9 03 a2 3f 5e 14 6a e5 46 f3 a1 3f
       0.035184178906174784 0.035059180741008986
000700 13 4a 6e 21 f2 e3 a1 3f 7d 7f f7 2e 93 d5 a1 3f
       0.03494221361247098 0.034832572444201106
000710 5c ce a1 f8 14 c8 a1 3f d7 1e f6 a7 64 bb a1 3f
       0.03472962889727846 0.034632821562863896
000720 82 b0 62 5d 71 af a1 3f 0d 7e 74 f2 2b a4 a1 3f
       0.03454164757690227 0.03445565542847016
000730 c8 fc b2 c4 86 99 a1 3f 15 fe c6 87 75 8f a1 3f
       0.03437443877327834 0.03429763109624787
000740 f4 c4 cf 1d ed 85 a1 3f f3 bf f8 74 e3 7c a1 3f
       0.03422490109358903 0.03415594866635265
000750 f5 7b 89 69 4f 74 a1 3f b2 66 c9 ab 28 6c a1 3f
       0.034090501435223 0.03402831170087718
000760 9c 69 2b a9 67 64 a1 3f f8 70 4b 78 05 5d a1 3f
       0.03396915378626206 0.03391282170716353
000770 25 f6 59 c7 fb 55 a1 3f 54 1d a1 cc 44 4f a1 3f
       0.03385912712563436 0.03380789754788319
000780 5b 3a db 38 db 48 a1 3f fc 87 1d 2b ba 42 a1 3f
       0.03375897473380426 0.03371221329031468
000790 d8 90 22 26 dd 3c a1 3f 1d 5d c7 06 40 37 a1 3f
       0.033667479424623614 0.03362464983700362
0007a0 8e cb 94 fb de 31 a1 3f 4f d4 33 7d b6 2c a1 3f
       0.03358361073551129 0.03354425695753404
0007b0 e0 08 b0 47 c3 27 a1 3f db 88 6f 54 02 23 a1 3f
       0.0335064911851235 0.03347022324284562
0007c0 21 d5 ca d4 70 1e a1 3f 45 e7 31 2d 0c 1a a1 3f
       0.03343536946833071 0.03340185214706407
0007d0 99 38 ce f0 d1 15 a1 3f c6 94 93 dd bf 11 a1 3f
       0.03336959900399101 0.03333854274550556
0007e0 c4 42 b3 d8 d3 0d a1 3f ad b4 66 eb 0b 0a a1 3f
       0.033308620646157944 0.03327977417516457
0007f0 23 28 08 40 66 06 a1 3f 97 e7 70 1f e1 02 a1 3f
       0.03325194865836092 0.0332250929718178
