onecap_model_with_structure_ambiguity/output/lower_triangular_four_ambiguous_parameters/Delta_10.0_distorted_0/logadjustment_1_boundary_1/zmax_5.0_zscale_2.0/delta_0.02/q_0.3_gamma_5.0_rho_1.0/model.npz (npz, 126264 bytes, 58 tensors)

clowerlim f8 []
0	0x3f1a36e2eb1c432d	0.0001

zmin f8 []
0	0xc014000000000000	-5.0

Delta f8 []
0	0x4024000000000000	10.0

s1_F f8 [401]
0	0xc004c61b72cde64e	-2.596732041271742
1	0xc00187e94942e9b2	-2.19136292682125
2	0xc00068f90c848e82	-2.0512562730744444
3	0xbfffc0d96919797a	-1.9845823388528445
4	0xbfff268717679192	-1.9469061769715137
5	0xbffec32fcde129ea	-1.9226530115289457
6	0xbffe7b72bd671fab	-1.905138721327584
7	0xbffe4231a899627b	-1.891160639372315
8	0xbffe10bc25ea81cb	-1.8790856820197515
9	0xbffde3890e3ca5b6	-1.8680506282929463
10	0xbffdb8af9c2a49b6	-1.857589349766028
11	0xbffd8f2460564219	-1.8474468005334812
12	0xbffd6653c17375b3	-1.83748221937945
13	0xbffd3debca21436d	-1.8276174445820417
14	0xbffd15bec15b7016	-1.8178088715567404
15	0xbffcedb30be76c92	-1.808032080173494
16	0xbffcc5ba4617cd25	-1.7982733476645276
17	0xbffc9dcc536abf1d	-1.7885249384380082
18	0xbffc75e49de47c62	-1.7787824790646245
19	0xbffc4e008bf1f466	-1.7690434900862555
20	0xbffc261ea3431e1d	-1.759306562178501
21	0xbffbfe3e0c51e39d	-1.7495708924527442
22	0xbffbd65e4c1ddb2e	-1.7398360226922693
23	0xbffbae7f1c645180	-1.7301016911561362
24	0xbffb86a05509ec0e	-1.7203677484346858
25	0xbffb5ec1df3e56b7	-1.7106341095399509
26	0xbffb36e3ae24405b	-1.7009007265478633
27	0xbffb0f05ba9ccd2d	-1.6911675729323392
28	0xbffae72800dd6c02	-1.681434634569769
29	0xbffabf4a7f0bce60	-1.671701904558084
30	0xbffa976d34707302	-1.6619693802269357
31	0xbffa6f9020ff94dc	-1.652237061405052
32	0xbffa47b3451432df	-1.6425049494165973
33	0xbffa1fd6a147ce13	-1.632773046495349
34	0xbff9f7fa365b1124	-1.6230413554449763
35	0xbff9d01e05281ca8	-1.6133098794396492
36	0xbff9a8420e9ab2ef	-1.6035786219101131
37	0xbff9806653ab80a7	-1.5938475864750588
38	0xbff9588ad55d835e	-1.5841167769032931
39	0xbff930af94bc9452	-1.5743861970925264
40	0xbff908d492dc8a15	-1.564655851056732
41	0xbff8e0f9d0d8dbda	-1.554925742920878
42	0xbff8b91f4fd481dc	-1.5451958769191299
43	0xbff8914510f9f6d6	-1.5354662573949347
44	0xbff8696b157b3db5	-1.525736888801345
45	0xbff841915e921d5b	-1.5160077757044153
46	0xbff819b7ed804c36	-1.5062789227856803
47	0xbff7f1dec38fa6f4	-1.4965503348452645
48	0xbff7ca05e21272a0	-1.4868220168056396
49	0xbff7a22d4a639f2a	-1.4770939737154074
50	0xbff77a54fde707ed	-1.4673662107529666
51	0xbff7527cfe09c029	-1.4576387332308605
52	0xbff72aa54c4269a1	-1.4479115466007004
53	0xbff702cdea117136	-1.438184656456611
54	0xbff6daf6d9017e3c	-1.4284580685415582
55	0xbff6b3201aa7b550	-1.418731788751149
56	0xbff68b49b0a410a2	-1.4090058231386497
57	0xbff663739ca1cfdd	-1.3992801779213473
58	0xbff63b9de057d816	-1.3895548594860023
59	0xbff613c87d890a37	-1.3798298743937616
60	0xbff5ebf37604c6e6	-1.3701052293876557
61	0xbff5c41ecba74a36	-1.360380931397811
62	0xbff59c4a805a28ec	-1.3506569875485708
63	0xbff574769614d354	-1.3409334051659316
64	0xbff54ca30edcffd8	-1.3312101917836028
65	0xbff524cfecc748fb	-1.3214873551519861
66	0xbff4fcfd31f7a000	-1.3117649032446934
67	0xbff4d52ae0a1f2a4	-1.3020428442679668
68	0xbff4ad58fb0aaf36	-1.2923211866681874
69	0xbff4858783877636	-1.282599939141972
70	0xbff45db67c7fb037	-1.2728791106446928
71	0xbff435e5e86d491c	-1.2631587104011208
72	0xbff40e15c9dd59ce	-1.2534387479150726
73	0xbff3e6462370e6fe	-1.2437192329802538
74	0xbff3be76f7ddb008	-1.2340001756920191
75	0xbff396a849eef77c	-1.2242815864587717
76	0xbff36eda1c866215	-1.2145634760146369
77	0xbff3470c729cd491	-1.2048458554320727
78	0xbff31f3f4f436cec	-1.195128736136037
79	0xbff2f772b5a46f28	-1.185412129917447
80	0xbff2cfa6a9045cfa	-1.1756960489490766
81	0xbff2a7db2cc303a6	-1.165980505800897
82	0xbff28010445c9cc8	-1.156265513456491
83	0xbff25845f36b02b4	-1.1465510853305831
84	0xbff2307c3da6ed2a	-1.1368372352870417
85	0xbff208b326e94bb0	-1.1271239776585666
86	0xbff1e0eab32ca095	-1.1174113272664148
87	0xbff1b922e68e8148	-1.1076992994422472
88	0xbff1915bc5510e18	-1.097987910049488
89	0xbff1699553dca26e	-1.0882771755078937
90	0xbff141cf96c18291	-1.0785671128179823
91	0xbff11a0a92b9a784	-1.0688577395871741
92	0xbff0f2464caaaf63	-1.0591490740580063
93	0xbff0ca82c9a7d0be	-1.0494411351365183
94	0xbff0a2c00ef3fd2e	-1.0397339424233212
95	0xbff07afe220422ef	-1.0300275162464307
96	0xbff0533d088188e8	-1.0203218776956025
97	0xbff02b7cc84c4a6a	-1.0106170486584696
98	0xbff003bd677e033c	-1.0009130518594267
99	0xbfefb7fdd8d93328	-0.9912099109002144
100	0xbfef6882bb5a6a0b	-0.9815076503030594
101	0xbfef1909842eceff	-0.9718062955566608
102	0xbfeec992419105ae	-0.9621058731647076
103	0xbfee7a1d024e4bdb	-0.9524064106975588
104	0xbfee2aa9d5cdf807	-0.9427079368467738
105	0xbfeddb38cc1981a6	-0.9330104814835536
106	0xbfed8bc9f5e4f709	-0.9233140757202999
107	0xbfed3c5d64981334	-0.9136187519767192
108	0xbfececf32a57d8c1	-0.9039245440497085
109	0xbfec9d8b5a10ddc2	-0.8942314871882717
110	0xbfec4e260782330b	-0.884539618172853
111	0xbfebfec3474906b6	-0.8748489753999908
112	0xbfebaf632eed3082	-0.8651595989736196
113	0xbfeb6005d4ee7183	-0.8554715308014668
114	0xbfeb10ab50d2b5e6	-0.8457848146987856
115	0xbfeac153bb35438a	-0.8360994964988191
116	0xbfea71ff2dd71571	-0.8264156241718138
117	0xbfea22adc3b0435a	-0.816733247951656
118	0xbfe9d35f9902ca3f	-0.8070524204725372
119	0xbfe98414cb6eb258	-0.7973731969155535
120	0xbfe934cd7a0791a1	-0.7876956351652106
121	0xbfe8e589c56bdae2	-0.7780197959790167
122	0xbfe89649cfddd195	-0.768345743169038
123	0xbfe8470dbd5e8896	-0.7586735437983119
124	0xbfe7f7d5b3cadc9e	-0.7490032683916927
125	0xbfe7a8a1dafad279	-0.7393349911640846
126	0xbfe759725ce370a7	-0.729668790266733
127	0xbfe70a4765bb59d0	-0.7200047480535492
128	0xbfe6bb21242268c4	-0.7103429513693063
129	0xbfe66bffc94cb07a	-0.7006834918625053
130	0xbfe61ce38930fffa	-0.6910264663238188
131	0xbfe5cdcc9abb7fd2	-0.6813719770543634
132	0xbfe57ebb3804a952	-0.6717201322656285
133	0xbfe52faf9e8d276c	-0.6620710465151496
134	0xbfe4e0aa0f7f0f04	-0.6524248411810452
135	0xbfe491aacff50d61	-0.6427816449799303
136	0xbfe442b2294823de	-0.6331415945324996
137	0xbfe3f3c06964b45a	-0.6235048349823373
138	0xbfe3a4d5e3279e59	-0.613871520673409
139	0xbfe355f2eec4771c	-0.6042418158938037
140	0xbfe30717ea35b0b2	-0.5946158956917513
141	0xbfe2b84539b806ce	-0.5849939467736591
142	0xbfe2697b48526efc	-0.5753761684931926
143	0xbfe21aba886c02c7	-0.5657627739420484
144	0xbfe1cc037471b69c	-0.5561539911556852
145	0xbfe17d568f8da61f	-0.5465500644469933
146	0xbfe12eb466724f85	-0.536951255885001
147	0xbfe0e01d903c344e	-0.5273578469365334
148	0xbfe09192af6cc8d8	-0.5177701402920105
149	0xbfe0431473020ad4	-0.5081884618997159
150	0xbfdfe9472f5d4d0f	-0.4986131632369543
151	0xbfdf4c81d26de9d4	-0.48904462384930736
152	0xbfdeafda87f053b9	-0.4794832541968464
153	0xbfde13532d3ecd65	-0.4699294988488048
154	0xbfdd76edc82fb451	-0.46038384007880945
155	0xbfdcdaac8b6f8839	-0.45084680191769483
156	0xbfdc3e91db6bee8e	-0.44131895473376737
157	0xbfdba2a053e55c12	-0.4318009204193355
158	0xbfdb06dace41a993	-0.42229337827907293
159	0xbfda6b4468bdb855	-0.4127970717298742
160	0xbfd9cfe08ea2678d	-0.40331281594409846
161	0xbfd934b301a776d9	-0.39384150659121314
162	0xbfd899bfe4b712fe	-0.3843841298624254
163	0xbfd7ff0bc84ea331	-0.3749417739987165
164	0xbfd7649bb8c54da4	-0.36551564258589964
165	0xbfd6ca754ecf5e7e	-0.35610706993382013
166	0xbfd6309ec2a794e6	-0.34671753892173596
167	0xbfd5971f025df1fe	-0.33734870177411824
168	0xbfd4fdfdcbe6cc50	-0.3280024043298839
169	0xbfd46543cba7ef37	-0.31868071449547436
170	0xbfd3ccfac06cbf44	-0.3093859557293295
171	0xbfd3352da5e17fd0	-0.30012074660589594
172	0xbfd29de8e6fbc396	-0.29088804776170585
173	0xbfd2073a9a10059e	-0.28169121785330187
174	0xbfd17132c8c8c308	-0.2725340805800873
175	0xbfd0dbe3c6cacf02	-0.2634210053758893
176	0xbfd047629a9a5f18	-0.25435700509977854
177	0xbfcf678efab9723f	-0.24534785501863784
178	0xbfce425ceeeaa2b8	-0.23640023866507476
179	0xbfcd1f7043b99163	-0.227521927899157
180	0xbfcbff152d3f8fd7	-0.21872200688733187
181	0xbfcae1a53cf5e5c4	-0.2100111529978631
182	0xbfc9c78a5ce4ebfc	-0.2014019921860778
183	0xbfc8b1429e4d2ede	-0.19290955285611394
184	0xbfc79f6522c0a1c4	-0.18455185124299878
185	0xbfc692a8823a3808	-0.1763506542087614
186	0xbfc58beb37f4ebec	-0.16833248359929998
187	0xbfc48c3ed73e3a90	-0.16052995214382237
188	0xbfc394f7171580e6	-0.1529835570063433
189	0xbfc2a7be2d1b0c19	-0.14574410631584625
190	0xbfc1c6b078e1b832	-0.13887601759364682
191	0xbfc0f4821e35c975	-0.1324618003378181
192	0xbfc034b1b1fdeb26	-0.1266080969906735
193	0xbfbf1796101b06ea	-0.12145364659502503
194	0xbfbdff769e4bf12c	-0.11717931141533161
195	0xbfbd3063439efa2c	-0.11401958847907484
196	0xbfbcbdf30d4a6f96	-0.11227339815599033
197	0xbfbcc04b276d357d	-0.11230916702807821
198	0xbfbd53922a3b82b2	-0.11455644160333625
199	0xbfbe9620906f9f61	-0.11947825933714064
200	0xbfc0530dd483d349	-0.12753460766512095
201	0xbfc1adfa4357a440	-0.1381218746967381
202	0xbfc36e4795d1c9b3	-0.15180296721844186
203	0xbfc58e3ff3a43227	-0.16840361973335513
204	0xbfc80442b1969361	-0.1876300208215538
205	0xbfcac5115d038fb0	-0.209139032761525
206	0xbfcdc5916252c17c	-0.23259179402294794
207	0xbfd07de0ec58ad6d	-0.257683020407703
208	0xbfd22f892cca9ad3	-0.2841513574043521
209	0xbfd3f42fbf08e2c6	-0.311778961713156
210	0xbfd5c8e42dfb4e1e	-0.3403864335097938
211	0xbfd7ab3ce0273ea3	-0.3698265255925241
212	0xbfd9993e17d09a1d	-0.3999781830374632
213	0xbfdb914499c2325e	-0.43074145331846647
214	0xbfdd91f44bc16fcc	-0.4620333423424625
215	0xbfdf9a2a5caf320b	-0.4937845139618566
216	0xbfe0d4792b06dfe9	-0.5259366836899037
217	0xbfe1debebe5fa332	-0.5584405630334912
218	0xbfe2eb8dff7fb8b2	-0.5912542333806157
219	0xbfe3fa9bc40f7b18	-0.6243418530756086
220	0xbfe50ba774e84034	-0.6576726229996042
221	0xbfe61e794ecd4b7e	-0.6912199534511811
222	0xbfe732e0f7c3ad73	-0.7249607886455308
223	0xbfe848b45719c58e	-0.7588750554261183
224	0xbfe95fcea25841fd	-0.7929452105327638
225	0xbfea780f94785825	-0.8271558666044753
226	0xbfeb915ac71899e6	-0.86149348150212
227	0xbfecab972735c87e	-0.8959460988828736
228	0xbfedc6ae804b95fe	-0.9305031305090663
229	0xbfeee28d19cf07b6	-0.9651551727367778
230	0xbfefff2163c541ef	-0.9998938511508281
231	0xbff08e2dd7edc544	-1.0347116884916696
232	0xbff11d16fa72c68e	-1.0696019919527404
233	0xbff1ac45cd85ab5e	-1.104558756657489
234	0xbff23bb4a7a0489c	-1.1395765827078668
235	0xbff2cb5e6e6f6baf	-1.1746506036640587
236	0xbff35b3e8637fe6c	-1.2097764246863347
237	0xbff3eb50c36fac10	-1.244950068876964
238	0xbff47b915e35107f	-1.2801679306003562
239	0xbff50bfce7619fdf	-1.3154267347654167
240	0xbff59c903efa8412	-1.3507235012150471
241	0xbff62d488bcf12a8	-1.3860555135044397
242	0xbff6be23341b23b8	-1.4214202914611018
243	0xbff74f1dd709ffc4	-1.4568155670130958
244	0xbff7e03646fbe829	-1.4922392628491343
245	0xbff8716a84747f0c	-1.5276894735361024
246	0xbff902b8b99c6da4	-1.563164448779255
247	0xbff9941f364358ce	-1.598662578549511
248	0xbffa259c6c52359b	-1.6341823798460158
249	0xbffab72eec9ffc30	-1.6697224848901548
250	0xbffb48d5641cea11	-1.7052816305791831
251	0xbffbda8e9949bc8c	-1.7408586490453528
252	0xbffc6c5969f24229	-1.7764524591949657
253	0xbffcfe34c922fe4e	-1.8120620591070238
254	0xbffd901fbd538084	-1.8476865191987892
255	0xbffe22195ebf415e	-1.8833249760683297

d f8 [401]
0	0x3fb3a4316f3a4317	0.07672413793103448
1	0x3fb3a4316f3a4317	0.07672413793103448
2	0x3fb3a4316f3a4317	0.07672413793103448
3	0x3fb3a4316f3a4317	0.07672413793103448
4	0x3fb3a4316f3a4317	0.07672413793103448
5	0x3fb3a4316f3a4317	0.07672413793103448
6	0x3fb3a4316f3a4317	0.07672413793103448
7	0x3fb3a4316f3a4317	0.07672413793103448
8	0x3fb3a4316f3a4317	0.07672413793103448
9	0x3fb3a4316f3a4317	0.07672413793103448
10	0x3fb3a4316f3a4317	0.07672413793103448
11	0x3fb3a4316f3a4317	0.07672413793103448
12	0x3fb3a4316f3a4317	0.07672413793103448
13	0x3fb3a4316f3a4317	0.07672413793103448
14	0x3fb3a4316f3a4317	0.07672413793103448
15	0x3fb3a4316f3a4317	0.07672413793103448
16	0x3fb3a4316f3a4317	0.07672413793103448
17	0x3fb3a4316f3a4317	0.07672413793103448
18	0x3fb3a4316f3a4317	0.07672413793103448
19	0x3fb3a4316f3a4317	0.07672413793103448
20	0x3fb3a4316f3a4317	0.07672413793103448
21	0x3fb3a4316f3a4317	0.07672413793103448
22	0x3fb3a4316f3a4317	0.07672413793103448
23	0x3fb3a4316f3a4317	0.07672413793103448
24	0x3fb3a4316f3a4317	0.07672413793103448
25	0x3fb3a4316f3a4317	0.07672413793103448
26	0x3fb3a4316f3a4317	0.07672413793103448
27	0x3fb3a4316f3a4317	0.07672413793103448
28	0x3fb3a4316f3a4317	0.07672413793103448
29	0x3fb3a4316f3a4317	0.07672413793103448
30	0x3fb3a4316f3a4317	0.07672413793103448
31	0x3fb3a4316f3a4317	0.07672413793103448
32	0x3fb3a4316f3a4317	0.07672413793103448
33	0x3fb3a4316f3a4317	0.07672413793103448
34	0x3fb3a4316f3a4317	0.07672413793103448
35	0x3fb3a4316f3a4317	0.07672413793103448
36	0x3fb3a4316f3a4317	0.07672413793103448
37	0x3fb3a4316f3a4317	0.07672413793103448
38	0x3fb3a4316f3a4317	0.07672413793103448
39	0x3fb3a4316f3a4317	0.07672413793103448
40	0x3fb3a4316f3a4317	0.07672413793103448
41	0x3fb3a4316f3a4317	0.07672413793103448
42	0x3fb3a4316f3a4317	0.07672413793103448
43	0x3fb3a4316f3a4317	0.07672413793103448
44	0x3fb3a4316f3a4317	0.07672413793103448
45	0x3fb3a4316f3a4317	0.07672413793103448
46	0x3fb3a4316f3a4317	0.07672413793103448
47	0x3fb3a4316f3a4317	0.07672413793103448
48	0x3fb3a4316f3a4317	0.07672413793103448
49	0x3fb3a4316f3a4317	0.07672413793103448
50	0x3fb3a4316f3a4317	0.07672413793103448
51	0x3fb3a4316f3a4317	0.07672413793103448
52	0x3fb3a4316f3a4317	0.07672413793103448
53	0x3fb3a4316f3a4317	0.07672413793103448
54	0x3fb3a4316f3a4317	0.07672413793103448
55	0x3fb3a4316f3a4317	0.07672413793103448
56	0x3fb3a4316f3a4317	0.07672413793103448
57	0x3fb3a4316f3a4317	0.07672413793103448
58	0x3fb3a4316f3a4317	0.07672413793103448
59	0x3fb3a4316f3a4317	0.07672413793103448
60	0x3fb3a4316f3a4317	0.07672413793103448
61	0x3fb3a4316f3a4317	0.07672413793103448
62	0x3fb3a4316f3a4317	0.07672413793103448
63	0x3fb3a4316f3a4317	0.07672413793103448
64	0x3fb3a4316f3a4317	0.07672413793103448
65	0x3fb3a4316f3a4317	0.07672413793103448
66	0x3fb3a4316f3a4317	0.07672413793103448
67	0x3fb3a4316f3a4317	0.07672413793103448
68	0x3fb3a4316f3a4317	0.07672413793103448
69	0x3fb3a4316f3a4317	0.07672413793103448
70	0x3fb3a4316f3a4317	0.07672413793103448
71	0x3fb3a4316f3a4317	0.07672413793103448
72	0x3fb3a4316f3a4317	0.07672413793103448
73	0x3fb3a4316f3a4317	0.07672413793103448
74	0x3fb3a4316f3a4317	0.07672413793103448
75	0x3fb3a4316f3a4317	0.07672413793103448
76	0x3fb3a4316f3a4317	0.07672413793103448
77	0x3fb3a4316f3a4317	0.07672413793103448
78	0x3fb3a4316f3a4317	0.07672413793103448
79	0x3fb3a4316f3a4317	0.07672413793103448
80	0x3fb3a4316f3a4317	0.07672413793103448
81	0x3fb3a4316f3a4317	0.07672413793103448
82	0x3fb3a4316f3a4317	0.07672413793103448
83	0x3fb3a4316f3a4317	0.07672413793103448
84	0x3fb3a4316f3a4317	0.07672413793103448
85	0x3fb3a4316f3a4317	0.07672413793103448
86	0x3fb3a4316f3a4317	0.07672413793103448
87	0x3fb3a4316f3a4317	0.07672413793103448
88	0x3fb3a4316f3a4317	0.07672413793103448
89	0x3fb3a4316f3a4317	0.07672413793103448
90	0x3fb3a4316f3a4317	0.07672413793103448
91	0x3fb3a4316f3a4317	0.07672413793103448
92	0x3fb3a4316f3a4317	0.07672413793103448
93	0x3fb3a4316f3a4317	0.07672413793103448
94	0x3fb3a4316f3a4317	0.07672413793103448
95	0x3fb3a4316f3a4317	0.07672413793103448
96	0x3fb3a4316f3a4317	0.07672413793103448
97	0x3fb3a4316f3a4317	0.07672413793103448
98	0x3fb3a4316f3a4317	0.07672413793103448
99	0x3fb3a4316f3a4317	0.07672413793103448
100	0x3fb3a4316f3a4317	0.07672413793103448
101	0x3fb3a4316f3a4317	0.07672413793103448
102	0x3fb3a4316f3a4317	0.07672413793103448
103	0x3fb3a4316f3a4317	0.07672413793103448
104	0x3fb3a4316f3a4317	0.07672413793103448
105	0x3fb3a4316f3a4317	0.07672413793103448
106	0x3fb3a4316f3a4317	0.07672413793103448
107	0x3fb3a4316f3a4317	0.07672413793103448
108	0x3fb3a4316f3a4317	0.07672413793103448
109	0x3fb3a4316f3a4317	0.07672413793103448
110	0x3fb3a4316f3a4317	0.07672413793103448
111	0x3fb3a4316f3a4317	0.07672413793103448
112	0x3fb3a4316f3a4317	0.07672413793103448
113	0x3fb3a4316f3a4317	0.07672413793103448
114	0x3fb3a4316f3a4317	0.07672413793103448
115	0x3fb3a4316f3a4317	0.07672413793103448
116	0x3fb3a4316f3a4317	0.07672413793103448
117	0x3fb3a4316f3a4317	0.07672413793103448
118	0x3fb3a4316f3a4317	0.07672413793103448
119	0x3fb3a4316f3a4317	0.07672413793103448
120	0x3fb3a4316f3a4317	0.07672413793103448
121	0x3fb3a4316f3a4317	0.07672413793103448
122	0x3fb3a4316f3a4317	0.07672413793103448
123	0x3fb3a4316f3a4317	0.07672413793103448
124	0x3fb3a4316f3a4317	0.07672413793103448
125	0x3fb3a4316f3a4317	0.07672413793103448
126	0x3fb3a4316f3a4317	0.07672413793103448
127	0x3fb3a4316f3a4317	0.07672413793103448
128	0x3fb3a4316f3a4317	0.07672413793103448
129	0x3fb3a4316f3a4317	0.07672413793103448
130	0x3fb3a4316f3a4317	0.07672413793103448
131	0x3fb3a4316f3a4317	0.07672413793103448
132	0x3fb3a4316f3a4317	0.07672413793103448
133	0x3fb3a4316f3a4317	0.07672413793103448
134	0x3fb3a4316f3a4317	0.07672413793103448
135	0x3fb3a4316f3a4317	0.07672413793103448
136	0x3fb3a4316f3a4317	0.07672413793103448
137	0x3fb3a4316f3a4317	0.07672413793103448
138	0x3fb3a4316f3a4317	0.07672413793103448
139	0x3fb3a4316f3a4317	0.07672413793103448
140	0x3fb3a4316f3a4317	0.07672413793103448
141	0x3fb3a4316f3a4317	0.07672413793103448
142	0x3fb3a4316f3a4317	0.07672413793103448
143	0x3fb3a4316f3a4317	0.07672413793103448
144	0x3fb3a4316f3a4317	0.07672413793103448
145	0x3fb3a4316f3a4317	0.07672413793103448
146	0x3fb3a4316f3a4317	0.07672413793103448
147	0x3fb3a4316f3a4317	0.07672413793103448
148	0x3fb3a4316f3a4317	0.07672413793103448
149	0x3fb3a4316f3a4317	0.07672413793103448
150	0x3fb3a4316f3a4317	0.07672413793103448
151	0x3fb3a4316f3a4317	0.07672413793103448
152	0x3fb3a4316f3a4317	0.07672413793103448
153	0x3fb3a4316f3a4317	0.07672413793103448
154	0x3fb3a4316f3a4317	0.07672413793103448
155	0x3fb3a4316f3a4317	0.07672413793103448
156	0x3fb3a4316f3a4317	0.07672413793103448
157	0x3fb3a4316f3a4317	0.07672413793103448
158	0x3fb3a4316f3a4317	0.07672413793103448
159	0x3fb3a4316f3a4317	0.07672413793103448
160	0x3fb3a4316f3a4317	0.07672413793103448
161	0x3fb3a4316f3a4317	0.07672413793103448
162	0x3fb3a4316f3a4317	0.07672413793103448
163	0x3fb3a4316f3a4317	0.07672413793103448
164	0x3fb3a4316f3a4317	0.07672413793103448
165	0x3fb3a4316f3a4317	0.07672413793103448
166	0x3fb3a4316f3a4317	0.07672413793103448
167	0x3fb3a4316f3a4317	0.07672413793103448
168	0x3fb3a4316f3a4317	0.07672413793103448
169	0x3fb3a4316f3a4317	0.07672413793103448
170	0x3fb3a4316f3a4317	0.07672413793103448
171	0x3fb3a4316f3a4317	0.07672413793103448
172	0x3fb3a4316f3a4317	0.07672413793103448
173	0x3fb3a4316f3a4317	0.07672413793103448
174	0x3fb3a4316f3a4317	0.07672413793103448
175	0x3fb3a4316f3a4317	0.07672413793103448
176	0x3fb3a4316f3a4317	0.07672413793103448
177	0x3fb3a4316f3a4317	0.07672413793103448
178	0x3fb3a4316f3a4317	0.07672413793103448
179	0x3fb3a4316f3a4317	0.07672413793103448
180	0x3fb3a4316f3a4317	0.07672413793103448
181	0x3fb3a4316f3a4317	0.07672413793103448
182	0x3fb3a4316f3a4317	0.07672413793103448
183	0x3fb3a4316f3a4317	0.07672413793103448
184	0x3fb3a4316f3a4317	0.07672413793103448
185	0x3fb3a4316f3a4317	0.07672413793103448
186	0x3fb3a4316f3a4317	0.07672413793103448
187	0x3fb3a4316f3a4317	0.07672413793103448
188	0x3fb3a4316f3a4317	0.07672413793103448
189	0x3fb3a4316f3a4317	0.07672413793103448
190	0x3fb3a4316f3a4317	0.07672413793103448
191	0x3fb3a4316f3a4317	0.07672413793103448
192	0x3fb3a4316f3a4317	0.07672413793103448
193	0x3fb3a4316f3a4317	0.07672413793103448
194	0x3fb3a4316f3a4317	0.07672413793103448
195	0x3fb3a4316f3a4317	0.07672413793103448
196	0x3fb3a4316f3a4317	0.07672413793103448
197	0x3fb3a4316f3a4317	0.07672413793103448
198	0x3fb3a4316f3a4317	0.07672413793103448
199	0x3fb3a4316f3a4317	0.07672413793103448
200	0x3fb3a4316f3a4317	0.07672413793103448
201	0x3fb3a4316f3a4317	0.07672413793103448
202	0x3fb3a4316f3a4317	0.07672413793103448
203	0x3fb3a4316f3a4317	0.07672413793103448
204	0x3fb3a4316f3a4317	0.07672413793103448
205	0x3fb3a4316f3a4317	0.07672413793103448
206	0x3fb3a4316f3a4317	0.07672413793103448
207	0x3fb3a4316f3a4317	0.07672413793103448
208	0x3fb3a4316f3a4317	0.07672413793103448
209	0x3fb3a4316f3a4317	0.07672413793103448
210	0x3fb3a4316f3a4317	0.07672413793103448
211	0x3fb3a4316f3a4317	0.07672413793103448
212	0x3fb3a4316f3a4317	0.07672413793103448
213	0x3fb3a4316f3a4317	0.07672413793103448
214	0x3fb3a4316f3a4317	0.07672413793103448
215	0x3fb3a4316f3a4317	0.07672413793103448
216	0x3fb3a4316f3a4317	0.07672413793103448
217	0x3fb3a4316f3a4317	0.07672413793103448
218	0x3fb3a4316f3a4317	0.07672413793103448
219	0x3fb3a4316f3a4317	0.07672413793103448
220	0x3fb3a4316f3a4317	0.07672413793103448
221	0x3fb3a4316f3a4317	0.07672413793103448
222	0x3fb3a4316f3a4317	0.07672413793103448
223	0x3fb3a4316f3a4317	0.07672413793103448
224	0x3fb3a4316f3a4317	0.07672413793103448
225	0x3fb3a4316f3a4317	0.07672413793103448
226	0x3fb3a4316f3a4317	0.07672413793103448
227	0x3fb3a4316f3a4317	0.07672413793103448
228	0x3fb3a4316f3a4317	0.07672413793103448
229	0x3fb3a4316f3a4317	0.07672413793103448
230	0x3fb3a4316f3a4317	0.07672413793103448
231	0x3fb3a4316f3a4317	0.07672413793103448
232	0x3fb3a4316f3a4317	0.07672413793103448
233	0x3fb3a4316f3a4317	0.07672413793103448
234	0x3fb3a4316f3a4317	0.07672413793103448
235	0x3fb3a4316f3a4317	0.07672413793103448
236	0x3fb3a4316f3a4317	0.07672413793103448
237	0x3fb3a4316f3a4317	0.07672413793103448
238	0x3fb3a4316f3a4317	0.07672413793103448
239	0x3fb3a4316f3a4317	0.07672413793103448
240	0x3fb3a4316f3a4317	0.07672413793103448
241	0x3fb3a4316f3a4317	0.07672413793103448
242	0x3fb3a4316f3a4317	0.07672413793103448
243	0x3fb3a4316f3a4317	0.07672413793103448
244	0x3fb3a4316f3a4317	0.07672413793103448
245	0x3fb3a4316f3a4317	0.07672413793103448
246	0x3fb3a4316f3a4317	0.07672413793103448
247	0x3fb3a4316f3a4317	0.07672413793103448
248	0x3fb3a4316f3a4317	0.07672413793103448
249	0x3fb3a4316f3a4317	0.07672413793103448
250	0x3fb3a4316f3a4317	0.07672413793103448
251	0x3fb3a4316f3a4317	0.07672413793103448
252	0x3fb3a4316f3a4317	0.07672413793103448
253	0x3fb3a4316f3a4317	0.07672413793103448
254	0x3fb3a4316f3a4317	0.07672413793103448
255	0x3fb3a4316f3a4317	0.07672413793103448

zmax f8 []
0	0x4014000000000000	5.0

hz_F f8 [401]
0	0x3fa109930ceb3835	0.033276171996121574
1	0x3fa9a11067ffb281	0.05005694646374526
2	0x3fae2b9050a1ae45	0.05892611488601721
3	0x3fb04fc12dfee39d	0.06371695874157841
4	0x3fb0fb760c625148	0.06633699228615797
5	0x3fb15a18c74d300b	0.06778101793059947
6	0x3fb18e87968f7cd7	0.06858107972901749
7	0x3fb1abafc109b65f	0.06902597868767078
8	0x3fb1bbf03aeb8845	0.06927396238782631
9	0x3fb1c5013f9fa1f9	0.06941230586347293
10	0x3fb1ca0e4a519963	0.0694893771593335
11	0x3fb1ccdadfb5015a	0.06953208886716791
12	0x3fb1ce631b3e0e4d	0.06955546774957462
13	0x3fb1cf34347d28a9	0.06956793099849058
14	0x3fb1cf9d8362a6a7	0.0695742078557041
15	0x3fb1cfcbbdfb2f25	0.06957696331226922
16	0x3fb1cfd828da3d3e	0.06957770345092215
17	0x3fb1cfd115e37484	0.06957728180300832
18	0x3fb1cfbea8422043	0.06957618339413423
19	0x3fb1cfa582c0f65a	0.06957468454580731
20	0x3fb1cf884b06b975	0.06957294303604107
21	0x3fb1cf6884b1a828	0.06957104911421708
22	0x3fb1cf470dab73ab	0.06956905444844945
23	0x3fb1cf2464e883a3	0.06956698859768422
24	0x3fb1cf00d2c7a742	0.06956486841195633
25	0x3fb1cedc802cc456	0.06956270341176327
26	0x3fb1ceb783c3652b	0.0695604988753941
27	0x3fb1ce91e9a05a8d	0.06955825761574826
28	0x3fb1ce6bb7a924e5	0.06955598100570944
29	0x3fb1ce44f0207e39	0.06955366957162647
30	0x3fb1ce1d9320b694	0.06955132333743058
31	0x3fb1cdf59f77f891	0.06954894202496777
32	0x3fb1cdcd13285fcd	0.06954652517049383
33	0x3fb1cda3ebb2fc81	0.06954407219289928
34	0x3fb1cd7a2643618e	0.06954158243332229
35	0x3fb1cd4fbfc92eec	0.06953905517837783
36	0x3fb1cd24b5068a51	0.06953648967331928
37	0x3fb1ccf90298bb8a	0.06953388512986983
38	0x3fb1cccca4fcbb1b	0.06953124073036714
39	0x3fb1cc9f98918e4e	0.06952855562990942
40	0x3fb1cc71d9998153	0.06952582895747143
41	0x3fb1cc43643a5ede	0.06952305981610205
42	0x3fb1cc14347d2b86	0.06952024728268044
43	0x3fb1cbe4464d9bef	0.06951739040742642
44	0x3fb1cbb395798049	0.06951448821337282
45	0x3fb1cb821dafb8e9	0.06951153969541547
46	0x3fb1cb4fda7f4875	0.06950854381946832
47	0x3fb1cb1cc756487c	0.06950549952151336
48	0x3fb1cae8df80bf4c	0.06950240570654137
49	0x3fb1cab41e276e13	0.06949926124746524
50	0x3fb1ca7e7e4e9c0d	0.06949606498402279
51	0x3fb1ca47fad4c094	0.06949281572156202
52	0x3fb1ca108e710dd0	0.06948951222971478
53	0x3fb1c9d833b22db3	0.06948615324124922
54	0x3fb1c99ee4fc83e5	0.06948273745048501
55	0x3fb1c9649c88cace	0.06947926351203224
56	0x3fb1c9295462773d	0.06947573003932646
57	0x3fb1c8ed0665dafb	0.06947213560293257
58	0x3fb1c8afac3e6161	0.06946847872894103
59	0x3fb1c8713f64d738	0.06946475789740425
60	0x3fb1c831b91d3ccc	0.06946097154035441
61	0x3fb1c7f11274e9b6	0.06945711804011165
62	0x3fb1c7af444054e8	0.06945319572726627
63	0x3fb1c76c4718c0e9	0.06944920287856217
64	0x3fb1c728135a1511	0.06944513771494011
65	0x3fb1c6e2a1202a88	0.0694409983990828
66	0x3fb1c69be84473c9	0.0694367830332815
67	0x3fb1c653e05b1593	0.0694324896567962
68	0x3fb1c60a80b0421f	0.06942811624345112
69	0x3fb1c5bfc0451062	0.06942366069876152
70	0x3fb1c57395cc8505	0.06941912085723707
71	0x3fb1c525f7a82934	0.06941449447927966
72	0x3fb1c4d6dbe4b7d8	0.06940977924816083
73	0x3fb1c48638367f2e	0.0694049727667305
74	0x3fb1c43401f58004	0.06940007255388997
75	0x3fb1c3e02e19842a	0.0693950760410337
76	0x3fb1c38ab135dfa2	0.06938998056818815
77	0x3fb1c3337f751905	0.06938478338006256
78	0x3fb1c2da8c942a55	0.06937948162173176
79	0x3fb1c27fcbddc4ca	0.0693740723343296
80	0x3fb1c2233024fef1	0.06936855245021058
81	0x3fb1c1c4abbff9e9	0.06936291878807989
82	0x3fb1c16430822de5	0.0693571680478083
83	0x3fb1c101afb65933	0.06935129680491485
84	0x3fb1c09d1a182e2f	0.06934530150481842
85	0x3fb1c0365fcd816f	0.06933917845663527
86	0x3fb1bfcd705f46d2	0.06933292382680215
87	0x3fb1bf623ab1f25e	0.06932653363214444
88	0x3fb1bef4acfdbd58	0.06932000373284575
89	0x3fb1be84b4c60f3a	0.06931332982463526
90	0x3fb1be123ed0b17d	0.06930650743078633
91	0x3fb1bd9d371c6bda	0.06929953189357665
92	0x3fb1bd2588d6efba	0.06929239836512027
93	0x3fb1bcab1e527325	0.06928510179791354
94	0x3fb1bc2de0fa7168	0.06927763693460565
95	0x3fb1bbadb947ba3d	0.0692699982971385
96	0x3fb1bb2a8eb3d8f3	0.06926218017528978
97	0x3fb1baa447abbd0f	0.06925417661453913
98	0x3fb1ba1ac981681f	0.06924598140304326
99	0x3fb1b98df85cd425	0.06923758805790266
100	0x3fb1b8fdb72bd948	0.06922898981051617
101	0x3fb1b869e790fa79	0.0692201795909372
102	0x3fb1b7d269d12037	0.06921115001125676
103	0x3fb1b7371cc012a2	0.06920189334784735
104	0x3fb1b697ddabbaa3	0.06919240152249499
105	0x3fb1b5f48845de5d	0.06918266608215036
106	0x3fb1b54cf68c7b3c	0.06917267817742084
107	0x3fb1b4a100b059b7	0.06916242853944864
108	0x3fb1b3f07cf9f837	0.06915190745527942
109	0x3fb1b33b3fac706b	0.06914110474139228
110	0x3fb1b2811ae66a69	0.06913000971545959
111	0x3fb1b1c1de80d1fd	0.06911861116606839
112	0x3fb1b0fd57eae1d2	0.0691068973200182
113	0x3fb1b0335203d0d4	0.06909485580746672
114	0x3fb1af6394f177ef	0.06908247362431984
115	0x3fb1ae8de5f3fa4d	0.06906973709190219
116	0x3fb1adb20735d928	0.06905663181337174
117	0x3fb1accfb7988f03	0.06904314262697757
118	0x3fb1abe6b27ceaf1	0.06902925355545243
119	0x3fb1aaf6af87072f	0.06901494775140969
120	0x3fb1a9ff625db413	0.06900020743860606
121	0x3fb1a9007a6445f4	0.06898501384809902
122	0x3fb1a7f9a26edf7e	0.06896934714938927
123	0x3fb1a6ea80702d0b	0.06895318637559826
124	0x3fb1a5d2b5207077	0.06893650934256522
125	0x3fb1a4b1db9cbb8a	0.06891929256083365
126	0x3fb1a38788fdd769	0.06890151114006716
127	0x3fb1a2534be5ed9b	0.06888313868505806
128	0x3fb1a114ac040561	0.0688641471824858
129	0x3fb19fcb298c1096	0.06884450687727148
130	0x3fb19e763ca2cb66	0.06882418613785787
131	0x3fb19d1554bb9add	0.06880315130875254
132	0x3fb19ba7d7e7431a	0.06878136654928504
133	0x3fb19a2d22118727	0.06875879365682334
134	0x3fb198a4842bf929	0.0687353918728816
135	0x3fb1970d4343b8d3	0.06871111767006548
136	0x3fb19566977fd12f	0.06868592451775578
137	0x3fb193afab055c37	0.06865976262393834
138	0x3fb191e798be75d9	0.06863257865048612
139	0x3fb1900d6b002263	0.06860431539838312
140	0x3fb18e201a0ba9d4	0.06857491145971234
141	0x3fb18c1e8a6661f2	0.06854430083183852
142	0x3fb18a078b02e352	0.06851241248922449
143	0x3fb187d9d335cbd1	0.06847916990754689
144	0x3fb18594006ee48d	0.06844449053359565
145	0x3fb1833493af4468	0.06840828519422504
146	0x3fb180b9eeb30c93	0.06837045743582086
147	0x3fb17e2250c49246	0.06833090278502948
148	0x3fb17b6bd32cf997	0.06828950791984877
149	0x3fb1789465346586	0.06824614973847618
150	0x3fb17599c7a1839c	0.06820069431115744
151	0x3fb1727987a64a38	0.06815299569851951
152	0x3fb16f30f9239db5	0.06810289461610959
153	0x3fb16bbd302b6d64	0.06805021692291785
154	0x3fb1681af9a30e0e	0.067994771906392
155	0x3fb16446d2e41fc6	0.06793635033329712
156	0x3fb1603ce033083c	0.06787472222916419
157	0x3fb15bf8e1dc5730	0.0678096343438852
158	0x3fb1577627c0cc6b	0.06774080725226532
159	0x3fb152af830f2169	0.06766793203053613
160	0x3fb14d9f35ddf72a	0.06759066643823233
161	0x3fb1483ee04adef8	0.067508630522635
162	0x3fb142876ab2c0c3	0.06742140154779279
163	0x3fb13c70ec840316	0.06732850813206101
164	0x3fb135f28f138034	0.06722942345686606
165	0x3fb12f026bc147a0	0.06712355738389286
166	0x3fb1279564997638	0.06701024728814609
167	0x3fb11f9ef675a98c	0.06688874737816358
168	0x3fb117110376c6c3	0.06675821623391713
169	0x3fb10ddb94782b17	0.06661770224324602
170	0x3fb103ec8fdfbd7a	0.06646612656162701
171	0x3fb0f92f63e6b7de	0.06630226315493767
172	0x3fb0ed8ca226ea62	0.06612471541203882
173	0x3fb0e0e989df8be0	0.0659318887333451
174	0x3fb0d3277e062c80	0.0657219584156099
175	0x3fb0c42363da22c7	0.06549283206744426
176	0x3fb0b3b4e6599250	0.06524210571075995
177	0x3fb0a1ad9ab9add9	0.06496701266740192
178	0x3fb08dd801f61be0	0.06466436431774936
179	0x3fb077f663d75d77	0.06433048188715938
180	0x3fb05fc180b00d6a	0.06396111861982026
181	0x3fb044e718e2a238	0.06355137212325068
182	0x3fb027084c8779a8	0.06309558742893862
183	0x3fb005b7db08da02	0.06258725259326783
184	0x3fafc0f0a6973401	0.0620188907010757
185	0x3faf6d74a4d38138	0.06138195526159723
186	0x3faf0fb605e64c7c	0.060666740627447674
187	0x3faea64656691863	0.05986232571426411
188	0x3fae2f8e808cf721	0.058956578438012615
189	0x3fada9d24d636840	0.05793626017266762
190	0x3fad13390c790118	0.05678728368048008
191	0x3fac69dda67f9a7b	0.05549519212199968
192	0x3fababe8a500888f	0.054045934812408374
193	0x3faad7b6543cfbed	0.052427003653512695
194	0x3fa9ec0928fcb788	0.05062893510181171
195	0x3fa8e843578ec21e	0.04864702647990192
196	0x3fa7cc9777db2e8a	0.04648278558815118
197	0x3fa69a0c3350b5f0	0.04414404035956554
198	0x3fa552110bbb98b8	0.04164174335692067
199	0x3fa3f53d9ab83539	0.038980412613549516
200	0x3fa280ac1d6861c8	0.036137941922962435
201	0x3fa16c881e32ee73	0.03403115624084032
202	0x3fa067db9a838661	0.032042372333091824
203	0x3f9eebd58696bf01	0.030196510638858424
204	0x3f9d307cdddebf3c	0.028505278627277905
205	0x3f9b9defb6c3eec6	0.02696966698657268
206	0x3f9a3283967c0fce	0.025583320674755154
207	0x3f98eb6fd6a987f4	0.02433562038130073
208	0x3f97c568f909fd82	0.023213997078071376
209	0x3f96bd07021d27f1	0.022205457214376115
210	0x3f95cf01e4ef2a05	0.021297483060871886
211	0x3f94f850f2aa8640	0.02047850113979721
212	0x3f943637f595b067	0.01973807751112169
213	0x3f93864985636d22	0.019066952482586726
214	0x3f92e663810d03b6	0.018456988097799353
215	0x3f9254a8b54bcae2	0.017901073518212914
216	0x3f91cf7975aa94e2	0.017393014723570917
217	0x3f91556c245e85f0	0.01692742320995494
218	0x3f90e5462afbd3d9	0.016499611257092404
219	0x3f907df59ea1abb2	0.0161054971762657
220	0x3f901e8ba1ec0e73	0.015741521604481123
221	0x3f8f8c6f02b4d7c3	0.015404574651807118
222	0x3f8ee884f8661c6f	0.015091933088809932
223	0x3f8e50184f0869f1	0.014801206504718474
224	0x3f8dc20eafdad8b4	0.014530291310944278
225	0x3f8d3d6eff62b098	0.014277331513163724
226	0x3f8cc15ce0770713	0.014040685272337627
227	0x3f8c4d14e07b1b3e	0.013818896389592102
228	0x3f8bdfe9330941b9	0.013610669965743992
229	0x3f8b793ee705fa0d	0.013414851594231636
230	0x3f8b188b826480c1	0.013230409542814294
231	0x3f8abd52f4d0ae8a	0.013056419464269515
232	0x3f8a6725d3ed5a6b	0.012892051248553934
233	0x3f8a159fd5f69d56	0.012736557690756694
234	0x3f89c8668160bdb3	0.012589264701175695
235	0x3f897f28098b769b	0.01244956282738068
236	0x3f89399a51e4b427	0.012316899894893108
237	0x3f88f77a11e06353	0.01219077460341259
238	0x3f88b88a150e5ead	0.012070730941373975
239	0x3f887c9293508a2e	0.01195635330265529
240	0x3f8843609dd1d2a0	0.01184726220729121
241	0x3f880cc59de16a19	0.011743110542899381
242	0x3f87d896e343ebaf	0.011643580256068235
243	0x3f87a6ad3fe82751	0.011548379433424268
244	0x3f8776e4af3b1d7c	0.01145723972093892
245	0x3f87491c07992262	0.011369914037588195
246	0x3f871d34b48f3d5e	0.011286174545516555
247	0x3f86f31278d1071f	0.011205810844447548
248	0x3f86ca9b36ecded1	0.011128628362356537
249	0x3f86a3b6bfeb973a	0.01105444691843226
250	0x3f867e4ea723d004	0.010983099437432038
251	0x3f865a4e1aa38ede	0.010914430797533677
252	0x3f8637a1bfa4b9c8	0.010848296795839554
253	0x3f8616379296d1a8	0.010784563218160084
254	0x3f85f5feca537700	0.010723105000973288
255	0x3f85d6e7be23a181	0.010663805475318313

Vz_F f8 [401]
0	0x3fe1ffc104165180	0.5624699668720012
1	0x3feb136397d88780	0.8461168256510376
2	0x3fefdf80e1255d80	0.9960331342107764
3	0x3ff13b722ae75e80	1.077013175576127
4	0x3ff1f0d815faa4c0	1.1212998255307838
5	0x3ff254d23dadbf80	1.1457083138775204
6	0x3ff28c36abf758c0	1.159231826537095
7	0x3ff2ab0422e02200	1.1667519914936975
8	0x3ff2bc2f70fb1bc0	1.1709436810794926
9	0x3ff2c5c376eaff80	1.173282112620626
10	0x3ff2cb197d3dc240	1.1745848552929061
11	0x3ff2ce0e84cde600	1.1753068149249657
12	0x3ff2cface3d98600	1.1757019901637022
13	0x3ff2d089ca700f80	1.1759126575206835
14	0x3ff2d0f90af864c0	1.17601875577229
15	0x3ff2d129e18b47c0	1.1760653314890845
16	0x3ff2d136ffd6ff00	1.176077842115717
17	0x3ff2d12f86a8f040	1.1760707149651495
18	0x3ff2d11c0ec0dd80	1.176052148466482
19	0x3ff2d1017de5df00	1.1760268133056684
20	0x3ff2d0e29ffe58c0	1.1759973764178966
21	0x3ff2d0c10e895f00	1.175965363296143
22	0x3ff2d09db3f722c0	1.1759316472909376
23	0x3ff2d079166675c0	1.1758967280396604
24	0x3ff2d053824bdbc0	1.1758608903598855
25	0x3ff2d02d22da1100	1.1758242951773923
26	0x3ff2d00610043140	1.1757870317115504
27	0x3ff2cfde568d9e80	1.1757491475090376
28	0x3ff2cfb5fcb10c80	1.1757106657758243
29	0x3ff2cf8d04d1df80	1.1756715954088293
30	0x3ff2cf636f0be3c0	1.1756319368125645
31	0x3ff2cf393a1c00c0	1.1755916852853687
32	0x3ff2cf0e63e78a80	1.1755508329885345
33	0x3ff2cee2e9cb8100	1.175509370099519
34	0x3ff2ceb6c8ca93a0	1.175467285481524
35	0x3ff2ce89fda81ca0	1.175424567076142
36	0x3ff2ce5c84f76ae0	1.175381202125827
37	0x3ff2ce2e5b24daa0	1.1753371773062682
38	0x3ff2cdff7c7aa600	1.1752924787964503
39	0x3ff2cdcfe5236320	1.175247092314926
40	0x3ff2cd9f912b5000	1.1752010031386817
41	0x3ff2cd6e7c808d40	1.175154196106476
42	0x3ff2cd3ca2f2d5a0	1.1751066556147194
43	0x3ff2cd0a0032ec60	1.1750583656091962
44	0x3ff2ccd68fd20060	1.1750093095761471
45	0x3ff2cca24d4091a0	1.1749594705262112
46	0x3ff2cc6d33cd7600	1.1749088309801436
47	0x3ff2cc373ea4bec0	1.1748573729527578
48	0x3ff2cc0068ce7d80	1.1748050779350194
49	0x3ff2cbc8ad2d8120	1.174751926875679
50	0x3ff2cb90067e0f80	1.1746979001627267
51	0x3ff2cb566f547c40	1.1746429776028577
52	0x3ff2cb1be21b9e60	1.1745871383990547
53	0x3ff2cae059137b00	1.1745303611311897
54	0x3ff2caa3ce4f6e20	1.1744726237292369
55	0x3ff2ca663bb4b3a0	1.1744139034519563
56	0x3ff2ca279af8b3a0	1.1743541768621313
57	0x3ff2c9e7e59f0a20	1.1742934197978983
58	0x3ff2c9a714f7aa20	1.1742316073456394
59	0x3ff2c965221d0ca0	1.1741687138135504
60	0x3ff2c92205f1e340	1.1741047126981385
61	0x3ff2c8ddb91f2120	1.1740395766556233
62	0x3ff2c8983411a2e0	1.1739732774678302
63	0x3ff2c8516ef7b940	1.173905786006415
64	0x3ff2c80961bee340	1.1738370721997882
65	0x3ff2c7c00410f420	1.1737671049916187
66	0x3ff2c7754d519900	1.1736958523047747
67	0x3ff2c729349b47e0	1.1736232809967007
68	0x3ff2c6dbb0bc74a0	1.173549356818775
69	0x3ff2c68cb8343aa0	1.1734740443677438
70	0x3ff2c63c412f3ae0	1.1733973070401404
71	0x3ff2c5ea41840180	1.1733191069798465
72	0x3ff2c596aeaf8300	1.1732394050270045
73	0x3ff2c5417dd14980	1.173158160662382
74	0x3ff2c4eaa3a75c00	1.1730753319477571
75	0x3ff2c492148a1c40	1.1729908754657714
76	0x3ff2c437c467caa0	1.172904746254666
77	0x3ff2c3dba6bfefc0	1.1728168977415265
78	0x3ff2c37dae9e58c0	1.1727272816693102
79	0x3ff2c31dce9616a0	1.1726358480240506
80	0x3ff2c2bbf8bbdf80	1.1725425449530746
81	0x3ff2c2581ea06680	1.1724473186826856
82	0x3ff2c1f2314a55e0	1.172350113430518
83	0x3ff2c18a212fe660	1.1722508713122792
84	0x3ff2c11fde3031e0	1.1721495322445818
85	0x3ff2c0b3578bff00	1.172046033840104
86	0x3ff2c0447bde58e0	1.1719403112997995
87	0x3ff2bfd3391481e0	1.1718322972957296
88	0x3ff2bf5f7c65c900	1.1717219218522246
89	0x3ff2bee9324a76c0	1.1716091122138295
90	0x3ff2be70467281c0	1.1714937927100522
91	0x3ff2bdf4a3bba360	1.1713758846110167
92	0x3ff2bd763426b180	1.171255305972494
93	0x3ff2bcf4e0cca340	1.1711319714761004
94	0x3ff2bc7091d2af20	1.1710057922563877
95	0x3ff2bbe92e5dada0	1.170876675717274
96	0x3ff2bb5e9c84ca60	1.1707445253383852
97	0x3ff2bad0c1436c00	1.1706092404699575
98	0x3ff2ba3f806a1300	1.1704707161126748
99	0x3ff2b9aabc8e6600	1.1703288426855352
100	0x3ff2b91256fa2ec0	1.1701835057782972
101	0x3ff2b8762f992e40	1.170034585887052
102	0x3ff2b7d624e5cf80	1.1698819581333453
103	0x3ff2b73213d48780	1.1697254919640443
104	0x3ff2b689d7bdeaa0	1.1695650508324107
105	0x3ff2b5dd4a472760	1.169400491855832
106	0x3ff2b52c43490ac0	1.1692316654522728
107	0x3ff2b47698b524a0	1.1690584149494399
108	0x3ff2b3bc1e792b60	1.1688805761684407
109	0x3ff2b2fca6603ca0	1.168697976976354
110	0x3ff2b237fff20fc0	1.1685104368088872
111	0x3ff2b16df84fca20	1.168317766158573
112	0x3ff2b09e5a0e02c0	1.1681197660220022
113	0x3ff2afc8ed0c45e0	1.167916227310677
114	0x3ff2aeed76496540	1.1677069302152887
115	0x3ff2ae0bb7b49fa0	1.1674916435240235
116	0x3ff2ad236ffb0020	1.1672701238858352
117	0x3ff2ac345a5112e0	1.167042115020358
118	0x3ff2ab3e2e381c40	1.166807346862484
119	0x3ff2aa409f3eac00	1.1665655346394033
120	0x3ff2a93b5cbc6300	1.166316377877763
121	0x3ff2a82e1187cae0	1.1660595593245304
122	0x3ff2a71863a65a60	1.1657947437830884
123	0x3ff2a5f9f3f58c00	1.165521576848505
124	0x3ff2a4d25dcce480	1.1652396835400225
125	0x3ff2a3a13697b700	1.164948666813359
126	0x3ff2a2660d661de0	1.1646481059450409
127	0x3ff2a1206a742fa0	1.164337554774626
128	0x3ff29fcfcea67520	1.1640165397905733
129	0x3ff29e73b2fa4a20	1.1636845580402522
130	0x3ff29d0b87e960a0	1.1633410748527595
131	0x3ff29b96b4be78c0	1.1629855213464424
132	0x3ff29a1496da1540	1.1626172917033983
133	0x3ff2988480e522c0	1.1622357401812877
134	0x3ff296e5b9efbf80	1.1618401778359555
135	0x3ff295377c79c100	1.1614298689201519
136	0x3ff29378f5628720	1.1610040269228605
137	0x3ff291a942bd1a20	1.1605618102054294
138	0x3ff28fc772857240	1.160102317188958
139	0x3ff28dd28132d540	1.1596245810336114
140	0x3ff28bc9582398c0	1.1591275637561438
141	0x3ff289aacbdcfac0	1.1586101497083945
142	0x3ff287759a19c400	1.1580711383396647
143	0x3ff2852867a18200	1.157509236152805
144	0x3ff282c1bde0c720	1.1569230477438808
145	0x3ff28040083a9f00	1.1563110658116216
146	0x3ff27da191094d00	1.1556716599923789
147	0x3ff27ae47e439500	1.1550030643641662
148	0x3ff27806cdb9e520	1.1543033634355382
149	0x3ff2750650dcbc60	1.1535704764062515
150	0x3ff271e0a7fb2a00	1.152802139450273
151	0x3ff26e933ce63660	1.151995885741961
152	0x3ff26b1b3ce1a760	1.151149022882656
153	0x3ff2677591c85020	1.1502586073520504
154	0x3ff2639eda43fd20	1.149321415519644
155	0x3ff25f9360f563a0	1.1483339106982626
156	0x3ff25b4f1260cd80	1.1472922056098867
157	0x3ff256cd716e3500	1.1461920195463904
158	0x3ff252098a415a80	1.1450286293599277
159	0x3ff24cfde3254d20	1.1437968132857534
160	0x3ff247a46b396520	1.14249078640416
161	0x3ff241f6667f8360	1.1411041263420074
162	0x3ff23bec56d9c3e0	1.1396296875575374
163	0x3ff2357de170d360	1.1380595022466977
164	0x3ff22ea1afe36e80	1.1363846655503096
165	0x3ff2274d4c81ef20	1.1345952023102157
166	0x3ff21f74f8b63f20	1.132679912119734
167	0x3ff2170b7c8e8360	1.1306261888023172
168	0x3ff20e01ee317e40	1.1284198097636278
169	0x3ff204476fc9f140	1.1260446898223364
170	0x3ff1f9c8e2352c60	1.1234825931776626
171	0x3ff1ee708a754e00	1.1207127960705066
172	0x3ff1e225a7931c80	1.1177116914639385
173	0x3ff1d4cbf63db2d0	1.114452325705475
174	0x3ff1c6431f1264e0	1.110903855680867
175	0x3ff1b6660c13b2f0	1.1070309135204148
176	0x3ff1a50a2179fd60	1.1027928645779284
177	0x3ff191fe55c7b450	1.0981429434571233
178	0x3ff17d0a24fc3de0	1.0930272526492146
179	0x3ff165ec5b110fd0	1.0873836095133704
180	0x3ff14c59b2d913e0	1.0811402307747286
181	0x3ff12ffb48468dc0	1.074214250876011
182	0x3ff1106ce09123a0	1.0665100834032515
183	0x3ff0ed3b1082ea30	1.0579176564193737
184	0x3ff0c5e15272d710	1.048310586991139
185	0x3ff099c82ba3b2c0	1.037544413057887
186	0x3ff0684395cd5ea0	1.0254550792359751
187	0x3ff03091ffbf30c0	1.011857985507092
188	0x3fefe3b8c30466c0	0.9965480622224376
189	0x3fef56702ca05840	0.9793015357597668
190	0x3feeb756ddcff120	0.9598802883406599
191	0x3fee046c5e039160	0.9380399547776896
192	0x3fed3bbe9a6e9d60	0.9135430351497398
193	0x3fec5b922ee4c0e0	0.8861781040086747
194	0x3feb6297a3df8640	0.8557851982734022
195	0x3fea502845a201c0	0.8222848281875983
196	0x3fe92479871f0de0	0.7857024802291868
197	0x3fe7e0a0e5112820	0.7461704706158834
198	0x3fe686229f8279a0	0.7038739314482889
199	0x3fe5159ede957980	0.6588892314282901
200	0x3fe38c0601723200	0.6108427074664746
201	0x3fe2684bf4049240	0.5752315298055422
202	0x3fe154e8de1b8500	0.5416149461781572
203	0x3fe055502315fd00	0.5104141888877223
204	0x3fded6418b321ec0	0.4818271502813154
205	0x3fdd2cfbc7d4f3c0	0.45587057604626224
206	0x3fdbad0c6eee6cc0	0.4324370463670668
207	0x3fda5382a0cb0940	0.4113470621342863
208	0x3fd91ce343384300	0.3923881679957475
209	0x3fd80595231ef480	0.37534073285844016
210	0x3fd70a20c9596540	0.3599931684780877
211	0x3fd62751b07f7e40	0.3461498473752478
212	0x3fd55a441d41d400	0.3336344037737149
213	0x3fd4a06794626140	0.32229032030729243
214	0x3fd3f77b21a34380	0.31198004040657423
215	0x3fd35d86a2807ac0	0.30258336896251237
216	0x3fd2d0d2f44cc700	0.2939956079236339
217	0x3fd24fe2101d1b00	0.2861256749496732
218	0x3fd1d9679deeb5c0	0.27889433310596345
219	0x3fd16c423cf1f300	0.2722325892607813
220	0x3fd1077594512d00	0.2660802791985617
221	0x3fd0aa2528f28840	0.26038483618515684
222	0x3fd0538fe972e5c0	0.25510022924171594
223	0x3fd0030c5cf16500	0.25018605305156427
224	0x3fcf700ac07d4d80	0.24560675047778702
225	0x3fcee3eebbc97500	0.24133094949039702
226	0x3fce60dbde803200	0.23733089794440332
227	0x3fcde603adec9000	0.23358198158632604
228	0x3fcd72ae8e622880	0.23006231262508336
229	0x3fcd0638cff60100	0.22675237802832982
230	0x3fcca01027b4c000	0.22363473833820535
231	0x3fcc3fb184a5c580	0.220693769234952
232	0x3fcbe4a73289f600	0.21791543929786883
233	0x3fcb8e873e83e680	0.21528711845876458
234	0x3fcb3cf213ba5100	0.21279741252204332
235	0x3fcaef91479a4380	0.21043601986141525
236	0x3fcaa6168eb42200	0.2081936070246826
237	0x3fca603ad4482400	0.2060617004902099
238	0x3fca1dbd6f873700	0.20403259225570736
239	0x3fc9de637250aa00	0.20209925729552936
240	0x3fc9a1f70ddc9c80	0.20025528122753045
241	0x3fc968470a4d3000	0.19849479678157422
242	0x3fc931264e950600	0.1968124278737804
243	0x3fc8fc6b7682dd80	0.1952032402675563
244	0x3fc8c9f075144e00	0.19366269795192181
245	0x3fc899924177cd80	0.192186624495303
246	0x3fc86b308d5e4c00	0.19077116873503996
247	0x3fc83ead8370a300	0.18941277425735592
248	0x3fc813ed8ce4cc80	0.1881081521947614
249	0x3fc7ead71d541b80	0.18685425693567126
250	0x3fc7c35284104a80	0.18564826439304127
251	0x3fc79d49c2511100	0.18448755252951088
252	0x3fc778a865a70380	0.18336968387123065
253	0x3fc7555b66377980	0.18229238978433315
254	0x3fc7335108510100	0.18125355630946416
255	0x3fc71278c0f93280	0.18025121138125044
