onecap_model_with_structure_ambiguity/output/upper_triangular_two_ambiguous_parameters/Delta_10.0_distorted_0/logadjustment_1_boundary_0/zmax_5.0_zscale_2.0/delta_0.02/q_0.1_gamma_6.0_rho_1.0/model.npz (npz, 126264 bytes, 58 tensors)

clowerlim f8 []
000000 2d 43 1c eb e2 36 1a 3f
       0.0001

zmin f8 []
000000 00 00 00 00 00 00 14 c0
       -5.0

Delta f8 []
000000 00 00 00 00 00 00 24 40
       10.0

s1_F f8 [401]
000000 61 88 d1 4b 7e 52 de bf fd 04 b4 c1 ae 2b de bf
       -0.4737849941649355 -0.47141617695167765
000010 a7 e6 81 37 df 04 de bf e4 12 a3 ad 0f de dd bf
       -0.4690473596634583 -0.46667854267825093
000020 bb 8f 3f 24 40 b7 dd bf 39 d6 67 9b 70 90 dd bf
       -0.4643097261416604 -0.46194091011361454
000030 6a 9a 23 13 a1 69 dd bf 48 67 77 8b d1 42 dd bf
       -0.4595720946221379 -0.4572032796837573
000040 e1 9c 66 04 02 1c dd bf 41 30 f4 7d 32 f5 dc bf
       -0.4548344653107517 -0.45246565151387946
000050 28 04 23 f8 62 ce dc bf 29 ee f5 72 93 a7 dc bf
       -0.4500968383036388 -0.4477280256903407
000060 f9 d5 6f ee c3 80 dc bf 8f b4 93 6a f4 59 dc bf
       -0.44535921368455395 -0.44299040229709247
000070 f2 96 64 e7 24 33 dc bf c0 8d e5 64 55 0c dc bf
       -0.44062159153905534 -0.43825278142159263
000080 12 ca 19 e3 85 e5 db bf 1b 8f 04 62 b6 be db bf
       -0.435883971956316 -0.43351516315509436
000090 31 32 a9 e1 e6 97 db bf 42 1e 0b 62 17 71 db bf
       -0.43114635503005433 -0.4287775475936294
0000a0 15 d0 2d e3 47 4a db bf 7a e8 14 65 78 23 db bf
       -0.4264087408585067 -0.4240399348378855
0000b0 6a 12 c4 e7 a8 fc da bf 2a 0e 3f 6b d9 d5 da bf
       -0.4216711295451093 -0.41930232499382447
0000c0 0c c5 89 ef 09 af da bf 09 2b a8 74 3a 88 da bf
       -0.41693352119826055 -0.41456471817279855
0000d0 19 59 9e fa 6a 61 da bf 3e 7b 70 81 9b 3a da bf
       -0.4121959159323452 -0.40982711449207787
0000e0 fc d3 22 09 cc 13 da bf e1 d8 b9 91 fc ec d9 bf
       -0.40745831386749365 -0.405089514074815
0000f0 4a 0a 3a 1b 2d c6 d9 bf a8 0f a8 a5 5d 9f d9 bf
       -0.40272071513041807 -0.4003519170512342
000100 15 af 08 31 8e 78 d9 bf 5a c9 60 bd be 51 d9 bf
       -0.3979831198546305 -0.39561432355835324
000110 47 6c b5 4a ef 2a d9 bf a2 c5 0b d9 1f 04 d9 bf
       -0.3932455281807887 -0.39087673374077714
000120 28 28 69 68 50 dd d8 bf 07 08 d3 f8 80 b6 d8 bf
       -0.3885079402576843 -0.3861391477513511
000130 a0 06 4f 8a b1 8f d8 bf 61 ec e2 1c e2 68 d8 bf
       -0.38377035624226075 -0.3814015657514514
000140 af a9 94 b0 12 42 d8 bf c8 5f 6a 45 43 1b d8 bf
       -0.3790327763005292 -0.37666398791179434
000150 dd 56 6a db 73 f4 d7 bf 88 0a 9b 72 a4 cd d7 bf
       -0.3742952006081007 -0.37192641441303254
000160 74 26 03 0b d5 a6 d7 bf f0 88 a9 a4 05 80 d7 bf
       -0.36955762935085734 -0.36718884544656216
000170 1d 48 95 3f 36 59 d7 bf 0c a4 cd db 66 32 d7 bf
       -0.3648200627259273 -0.3624512812153291
000180 de 24 5a 79 97 0b d7 bf 46 84 42 18 c8 e4 d6 bf
       -0.36008250094216787 -0.3577137219345484
000190 0a bb 8e b8 f8 bd d6 bf 5a 02 47 5a 29 97 d6 bf
       -0.3553449442214719 -0.3529761678328548
0001a0 c1 d3 73 fd 59 70 d6 bf 5c ee 1d a2 8a 49 d6 bf
       -0.3506073927995282 -0.3482386191533118
0001b0 25 53 4e 48 bb 22 d6 bf 87 53 0e f0 eb fb d5 bf
       -0.34586984692696127 -0.3435010761543755
0001c0 86 8c 67 99 1c d5 d5 bf ee e9 63 44 4d ae d5 bf
       -0.34113230687052754 -0.33876353911151014
0001d0 31 a6 0d f1 7d 87 d5 bf 1d 59 6f 9f ae 60 d5 bf
       -0.3363947729145336 -0.33402600831813506
0001e0 68 f5 93 4f df 39 d5 bf 16 c3 86 01 10 13 d5 bf
       -0.33165724536214336 -0.3292884840875997
0001f0 0e 74 53 b5 40 ec d4 bf 55 1a 06 6b 71 c5 d4 bf
       -0.32691972453705 -0.32455096675440603
000200 6f 36 ab 22 a2 9e d4 bf fe ba 4f dc d2 77 d4 bf
       -0.3221822107851499 -0.3198134566763854
000210 85 03 01 98 03 51 d4 bf 9d ee cc 55 34 2a d4 bf
       -0.31744470447670664 -0.3150759542365707
000220 49 d5 c1 15 65 03 d4 bf 00 91 ee d7 95 dc d3 bf
       -0.3127072060081742 -0.3103384598455392
000230 0a 8d 62 9c c6 b5 d3 bf c1 bb 2d 63 f7 8e d3 bf
       -0.30796971580475996 -0.30560097394385016
000240 fa ac 60 2c 28 68 d3 bf 5c 88 0c f8 58 41 d3 bf
       -0.30323223432306146 -0.30086349700480297
000250 51 1e 43 c6 89 1a d3 bf 04 eb 16 97 ba f3 d2 bf
       -0.2984947620538821 -0.29612602953754696
000260 08 1c 9b 6a eb cc d2 bf 61 a3 e3 40 1c a6 d2 bf
       -0.29375729952556684 -0.29138857209050256
000270 75 32 05 1a 4d 7f d2 bf 8c 4c 15 f6 7d 58 d2 bf
       -0.2890198473076347 -0.2866511252552264
000280 54 52 2a d5 ae 31 d2 bf d1 85 5b b7 df 0a d2 bf
       -0.28428240601468713 -0.2819136896706285
000290 0e 1d c1 9c 10 e4 d1 bf 07 46 74 85 41 bd d1 bf
       -0.27954497631113007 -0.2771762660277947
0002a0 35 3d 8f 71 72 96 d1 bf 6f 51 2d 61 a3 6f d1 bf
       -0.2748075589160693 -0.2724388550752996
0002b0 bb fc 6a 54 d4 48 d1 bf 41 ea 65 4b 05 22 d1 bf
       -0.27007015460908307 -0.2677014576253534
0002c0 14 0c 3d 46 36 fb d0 bf 42 aa 10 45 67 d4 d0 bf
       -0.26533276423669006 -0.2629640745605323
0002d0 69 77 02 48 98 ad d0 bf d3 a3 35 4f c9 86 d0 bf
       -0.2605953887194717 -0.25822670684152377
0002e0 19 ef ce 5a fa 5f d0 bf 91 c3 f4 6a 2b 39 d0 bf
       -0.2558580290603785 -0.25348935551579027
0002f0 1c 49 cf 7f 5c 12 d0 bf 45 0f 11 33 1b d7 cf bf
       -0.2511206863538449 -0.24875202172744984
000300 06 e8 98 70 7d 89 cf bf ab 2f 92 b8 df 3b cf bf
       -0.24638336179651804 -0.24401470672853284
000310 9f 5e 5d 0b 42 ee ce bf 29 92 5f 69 a4 a0 ce bf
       -0.24164605669897285 -0.23927741189176402
000320 cf cf 02 d3 06 53 ce bf df 52 b6 48 69 05 ce bf
       -0.23690877249975847 -0.23454013872528542
000330 7c e3 ee ca cb b7 cd bf 38 26 27 5a 2e 6a cd bf
       -0.2321715107807697 -0.22980288888929734
000340 cb 05 e0 f6 90 1c cd bf 06 09 a1 a1 f3 ce cc bf
       -0.22743427328536678 -0.2250656642154995
000350 ed cb f8 5a 56 81 cc bf 70 6a 7d 23 b9 33 cc bf
       -0.22269706193910058 -0.2203284667292169
000360 a1 0f cd fb 1b e6 cb bf fd 61 8e e4 7e 98 cb bf
       -0.21795987887355486 -0.21559129867524965
000370 16 30 71 de e1 4a cb bf d4 01 2f ea 44 fd ca bf
       -0.21322272645409218 -0.21085416254756117
000380 1b c1 8b 08 a8 af ca bf da 7d 56 3a 0b 62 ca bf
       -0.20848560731202145 -0.20611706112411704
000390 bd 26 6a 80 6e 14 ca bf d1 6a ae db d1 c6 c9 bf
       -0.2037485243820835 -0.20137999750735117
0003a0 24 a6 18 4d 35 79 c9 bf cc d9 ac d5 98 2b c9 bf
       -0.19901148094622656 -0.19664297517165463
0003b0 85 c4 7e 76 fc dd c8 bf 27 11 b3 30 60 90 c8 bf
       -0.19427448068521272 -0.19190599801925964
0003c0 a6 97 80 05 c4 42 c8 bf 07 bf 31 f6 27 f5 c7 bf
       -0.18953752773921656 -0.18716907044608197
0003d0 5e 18 26 04 8c a7 c7 bf 73 eb d3 30 f0 59 c7 bf
       -0.184800626779352 -0.1824321974198387
0003e0 4d 1b ca 7d 54 0c c7 bf 03 11 b2 ec b8 be c6 bf
       -0.18006378309311302 -0.17769538457299214
0003f0 ab f8 51 7f 1d 71 c6 bf 16 19 8f 37 82 23 c6 bf
       -0.1753270026856105 -0.17295863831368113
000400 16 6e 70 17 e7 d5 c5 bf 25 93 21 21 4c 88 c5 bf
       -0.17059029240122986 -0.16822196595890052
000410 41 e8 f5 56 b1 3a c5 bf a4 07 6c bb 16 ed c4 bf
       -0.16585366006967386 -0.163485375895161
000420 b8 a1 31 51 7c 9f c4 bf f7 c2 27 1b e2 51 c4 bf
       -0.16111711468262313 -0.15874887777274413
000430 e8 78 67 1c 48 04 c4 bf 69 09 47 58 ae b6 c3 bf
       -0.1563806666080787 -0.15401248274254023
000440 aa b7 5f d2 14 69 c3 bf fc 27 94 8e 7b 1b c3 bf
       -0.15164432785189536 -0.14927620374538708
000450 9a 7c 17 91 e2 cd c2 bf a2 3e 75 de 49 80 c2 bf
       -0.14690811237867224 -0.14454005586820978
000460 ad 33 9a 7b b1 32 c2 bf 18 38 de 6d 19 e5 c1 bf
       -0.14217203650733037 -0.1398040567841583
000470 4b 46 0f bb 81 97 c1 bf ee ca 7d 69 ea 49 c1 bf
       -0.13743611940167208 -0.13506822730013063
000480 4f 81 0a 80 53 fc c0 bf f1 f7 35 06 bd ae c0 bf
       -0.13270038368228618 -0.130332592041611
000490 1d 1c 32 04 27 61 c0 bf ee de f5 82 91 13 c0 bf
       -0.12796485619421186 -0.12559718031456363
0004a0 80 0d a7 18 f9 8b bf bf 7e 9c 23 56 d0 f0 be bf
       -0.1232295689761056 -0.12086202719693692
0004b0 e4 be 10 d6 a8 55 be bf 39 47 80 b2 82 ba bd bf
       -0.1184945604916226 -0.11612717492996873
0004c0 e5 f6 2f 08 5e 1f bd bf df 01 dd f6 3a 84 bc bf
       -0.11375987720381493 -0.11139267470299029
0004d0 e9 4b a3 a1 19 e9 bb bf 1c 2e 6a 2f fa 4d bb bf
       -0.10902557560193284 -0.10665858895861685
0004e0 04 d7 60 cb dc b2 ba bf df c8 8c a5 c1 17 ba bf
       -0.10429172482767163 -0.10192499438997825
0004f0 7b 64 6d f3 a8 7c b9 bf 44 d7 b7 f0 92 e1 b8 bf
       -0.09955841010141057 -0.09719198586375649
000500 49 7e 2f e0 7f 46 b8 bf dd 51 9f 0c 70 ab b7 bf
       -0.09482573722152056 -0.09245968158877056
000510 9c e2 f9 c9 63 10 b7 bf 7f 48 a6 76 5b 75 b6 bf
       -0.0900938385110614 -0.08772822996823669
000520 9e 73 01 7d 57 da b5 bf 69 a3 1c 55 58 3f b5 bf
       -0.08536288072487117 -0.08299781873632885
000530 49 1a c3 86 5e a4 b4 bf 3f dd d2 ab 6a 09 b4 bf
       -0.08063307561960999 -0.07826868719972867
000540 35 e7 f5 72 7d 6e b3 bf 1b 59 cb a2 97 d3 b2 bf
       -0.07590469414381291 -0.07354114269705685
000550 6c fa 91 1d ba 38 b2 bf 46 89 67 e5 e5 9d b1 bf
       -0.0711780855362833 -0.06881558275884911
000560 64 b1 31 21 1c 03 b1 bf a5 e6 46 22 5e 68 b0 bf
       -0.06645370302584791 -0.06409252487983481
000570 03 79 d9 d5 5a 9b af bf 01 20 7e 6b 17 66 ae bf
       -0.06173213825671733 -0.05937264620939687
000580 6f e7 19 fc f5 30 ad bf e5 90 57 12 fb fb ab bf
       -0.05701416685492588 -0.05465683554555926
000590 30 25 55 e1 2b c7 aa bf d8 bb 52 5a 8e 92 a9 bf
       -0.052300807243748415 -0.04994625904634348
0005a0 75 96 b3 42 29 5e a8 bf cc d6 90 48 04 2a a7 bf
       -0.04759339274623368 -0.0452424372273704
0005b0 3c a4 da 12 28 f6 a5 bf ab 37 07 48 9e c2 a4 bf
       -0.04289365034248546 -0.040547319691185045
0005c0 d8 76 2f 83 71 8f a3 bf ea a2 93 2a ad 5c a2 bf
       -0.03820376135238995 -0.03586331505522884
0005d0 af d9 d6 12 5d 2a a1 bf ce 75 6b 9c 19 f1 9f bf
       -0.033526333379472965 -0.03119316117487419
0005e0 8d 1b 05 e8 8c 8e 9d bf 29 92 3a 1d 21 2d 9b bf
       -0.02886409917962456 -0.026539342316612178
0005f0 11 7b 1b 5c d5 cc 98 bf 00 a8 8e 9f 8f 6d 96 bf
       -0.024218877550874988 -0.021902317155458206
000600 65 d8 07 9a 0a 0f 94 bf 2f ee 90 5a b8 b0 91 bf
       -0.019588628436359907 -0.01727569630405251
000610 e1 f9 a1 45 25 a3 8e bf e0 ad 6d c5 99 df 89 bf
       -0.014959613025209375 -0.012633515679872198
000620 0d 86 d2 94 a5 10 85 bf e7 d6 49 6e da 2b 80 bf
       -0.010285657505224166 -0.007896143427596992
000630 c1 40 db ab 12 3f 76 bf 94 73 b1 f9 6f 35 67 bf
       -0.005431244787999557 -0.0028330981272532505
000640 00 00 00 00 00 00 00 80 19 7b c6 77 96 b5 69 bf
       -0.0 -0.0031383456063872714
000650 a2 1a 59 7d 80 c0 7a bf fe ed ed a6 06 cb 84 bf
       -0.006531240379962585 -0.010152866334229845
000660 b3 1f 01 ff cb a0 8c bf 78 ab 2d 28 c4 6a 92 bf
       -0.013978570670715706 -0.01798540587644079
000670 79 b8 6a eb 1e af 96 bf 6d 2a be a8 82 18 9b bf
       -0.02215240775938596 -0.026460687207455914
000680 d3 e0 c4 d5 84 a2 9f bf c3 20 67 57 9e 24 a2 bf
       -0.030893397853305537 -0.03543562714509243
000690 0a 73 7d 88 9c 84 a4 bf b5 56 77 89 ba ef a6 bf
       -0.04007424512994902 -0.04479773452810091
0006a0 43 3f 68 32 a6 64 a9 bf b3 d2 4a 0d 38 e2 ab bf
       -0.04959601750681355 -0.054460288641540976
0006b0 ed 30 65 1e 6e 67 ae bf 9a 74 26 93 b3 79 b0 bf
       -0.05938285943065744 -0.06435701696905696
0006c0 a8 25 54 32 af c2 b1 bf f9 ab b7 ec 53 0e b3 bf
       -0.06937689760902421 -0.07443737534747176
0006d0 6c c2 8a 7e 56 5c b4 bf e3 5d a7 f2 74 ac b5 bf
       -0.07953396405606278 -0.08466273235477888
0006e0 a5 c6 8c 65 75 fe b6 bf 80 ca 5a f3 24 52 b8 bf
       -0.08982022980924372 -0.09500342313075727
0006f0 fe 20 61 cb 56 a7 b9 bf c9 28 52 64 e3 fd ba bf
       -0.10020964112584704 -0.10543652724496434
000700 8a 43 aa cc a7 55 bc bf 01 4d 61 13 85 ae bd bf
       -0.11068199869829534 -0.11594421122690692
000710 eb d3 79 c5 5f 08 bf bf 0a 7b bb be 8f 31 c0 bf
       -0.1212215287321922 -0.1265124970732006
000720 48 14 15 41 57 df c0 bf 6c 81 53 b9 7c 8d c1 bf
       -0.13181582143639248 -0.13713034676676317
000730 ae 24 be 7e f7 3b c2 bf 4f 81 cb d0 bf ea c2 bf
       -0.14245504082308486 -0.1477889794832756
000740 54 92 b8 bb ce 99 c3 bf e4 53 b0 00 1e 49 c4 bf
       -0.15313133398116696 -0.15848135980254974
000750 b3 d7 03 01 a8 f8 c4 bf ad 32 06 ac 67 a8 c5 bf
       -0.16383838700829542 -0.16920181178683916
000760 82 40 2f 6f 58 58 c6 bf f8 e9 35 28 76 08 c7 bf
       -0.17457108906683422 -0.17994572604568737
000770 cb 17 de 18 bd b8 c7 bf 86 04 40 dc 29 69 c8 bf
       -0.1853252765105807 -0.19070933584592725
000780 94 5f 57 5d b9 19 c9 bf 5f 3a af ce 68 ca c9 bf
       -0.19609753663712282 -0.20148954479232636
000790 01 20 06 a3 35 7b ca bf 66 a9 ca 86 1d 2c cb bf
       -0.20688505611565236 -0.21228379327414898
0007a0 30 1b 55 5a 1e dd cb bf 19 bb c6 2c 36 8e cc bf
       -0.21768550310863466 -0.2230899542459717
0007b0 f7 2c 7a 37 63 3f cd bf da 61 f3 d9 a3 f0 cd bf
       -0.22849693497514753 -0.23390625135540583
0007c0 cc 95 3f 96 f6 a1 ce bf 95 3b b8 0d 5a 53 cf bf
       -0.2393177255282083 -0.2447311942091487
0007d0 d8 77 0e 7f 66 02 d0 bf 93 4c 7d 1f 27 5b d0 bf
       -0.2501465073381701 -0.2555635268701703
0007e0 dd 56 ab 5f ee b3 d0 bf 93 84 cb c1 bb 0c d1 bf
       -0.26098212568954954 -0.2664021866349426
0007f0 d6 a9 cf d1 8e 65 d1 bf da 1b 8f 24 67 be d1 bf
       -0.27182360162137564 -0.2772462708493869

d f8 [401]
000000 17 43 3a 6f 31 a4 b3 3f 17 43 3a 6f 31 a4 b3 3f
       0.07672413793103448 0.07672413793103448
000010 17 43 3a 6f 31 a4 b3 3f 17 43 3a 6f 31 a4 b3 3f
       0.07672413793103448 0.07672413793103448
000020 17 43 3a 6f 31 a4 b3 3f 17 43 3a 6f 31 a4 b3 3f
       0.07672413793103448 0.07672413793103448
000030 17 43 3a 6f 31 a4 b3 3f 17 43 3a 6f 31 a4 b3 3f
       0.07672413793103448 0.07672413793103448
000040 17 43 3a 6f 31 a4 b3 3f 17 43 3a 6f 31 a4 b3 3f
       0.07672413793103448 0.07672413793103448
000050 17 43 3a 6f 31 a4 b3 3f 17 43 3a 6f 31 a4 b3 3f
       0.07672413793103448 0.07672413793103448
000060 17 43 3a 6f 31 a4 b3 3f 17 43 3a 6f 31 a4 b3 3f
       0.07672413793103448 0.07672413793103448
000070 17 43 3a 6f 31 a4 b3 3f 17 43 3a 6f 31 a4 b3 3f
       0.07672413793103448 0.07672413793103448
000080 17 43 3a 6f 31 a4 b3 3f 17 43 3a 6f 31 a4 b3 3f
       0.07672413793103448 0.07672413793103448
000090 17 43 3a 6f 31 a4 b3 3f 17 43 3a 6f 31 a4 b3 3f
       0.07672413793103448 0.07672413793103448
0000a0 17 43 3a 6f 31 a4 b3 3f 17 43 3a 6f 31 a4 b3 3f
       0.07672413793103448 0.07672413793103448
0000b0 17 43 3a 6f 31 a4 b3 3f 17 43 3a 6f 31 a4 b3 3f
       0.07672413793103448 0.07672413793103448
0000c0 17 43 3a 6f 31 a4 b3 3f 17 43 3a 6f 31 a4 b3 3f
       0.07672413793103448 0.07672413793103448
0000d0 17 43 3a 6f 31 a4 b3 3f 17 43 3a 6f 31 a4 b3 3f
       0.07672413793103448 0.07672413793103448
0000e0 17 43 3a 6f 31 a4 b3 3f 17 43 3a 6f 31 a4 b3 3f
       0.07672413793103448 0.07672413793103448
0000f0 17 43 3a 6f 31 a4 b3 3f 17 43 3a 6f 31 a4 b3 3f
       0.07672413793103448 0.07672413793103448
000100 17 43 3a 6f 31 a4 b3 3f 17 43 3a 6f 31 a4 b3 3f
       0.07672413793103448 0.07672413793103448
000110 17 43 3a 6f 31 a4 b3 3f 17 43 3a 6f 31 a4 b3 3f
       0.07672413793103448 0.07672413793103448
000120 17 43 3a 6f 31 a4 b3 3f 17 43 3a 6f 31 a4 b3 3f
       0.07672413793103448 0.07672413793103448
000130 17 43 3a 6f 31 a4 b3 3f 17 43 3a 6f 31 a4 b3 3f
       0.07672413793103448 0.07672413793103448
000140 17 43 3a 6f 31 a4 b3 3f 17 43 3a 6f 31 a4 b3 3f
       0.07672413793103448 0.07672413793103448
000150 17 43 3a 6f 31 a4 b3 3f 17 43 3a 6f 31 a4 b3 3f
       0.07672413793103448 0.07672413793103448
000160 17 43 3a 6f 31 a4 b3 3f 17 43 3a 6f 31 a4 b3 3f
       0.07672413793103448 0.07672413793103448
000170 17 43 3a 6f 31 a4 b3 3f 17 43 3a 6f 31 a4 b3 3f
       0.07672413793103448 0.07672413793103448
000180 17 43 3a 6f 31 a4 b3 3f 17 43 3a 6f 31 a4 b3 3f
       0.07672413793103448 0.07672413793103448
000190 17 43 3a 6f 31 a4 b3 3f 17 43 3a 6f 31 a4 b3 3f
       0.07672413793103448 0.07672413793103448
0001a0 17 43 3a 6f 31 a4 b3 3f 17 43 3a 6f 31 a4 b3 3f
       0.07672413793103448 0.07672413793103448
0001b0 17 43 3a 6f 31 a4 b3 3f 17 43 3a 6f 31 a4 b3 3f
       0.07672413793103448 0.07672413793103448
0001c0 17 43 3a 6f 31 a4 b3 3f 17 43 3a 6f 31 a4 b3 3f
       0.07672413793103448 0.07672413793103448
0001d0 17 43 3a 6f 31 a4 b3 3f 17 43 3a 6f 31 a4 b3 3f
       0.07672413793103448 0.07672413793103448
0001e0 17 43 3a 6f 31 a4 b3 3f 17 43 3a 6f 31 a4 b3 3f
       0.07672413793103448 0.07672413793103448
0001f0 17 43 3a 6f 31 a4 b3 3f 17 43 3a 6f 31 a4 b3 3f
       0.07672413793103448 0.07672413793103448
000200 17 43 3a 6f 31 a4 b3 3f 17 43 3a 6f 31 a4 b3 3f
       0.07672413793103448 0.07672413793103448
000210 17 43 3a 6f 31 a4 b3 3f 17 43 3a 6f 31 a4 b3 3f
       0.07672413793103448 0.07672413793103448
000220 17 43 3a 6f 31 a4 b3 3f 17 43 3a 6f 31 a4 b3 3f
       0.07672413793103448 0.07672413793103448
000230 17 43 3a 6f 31 a4 b3 3f 17 43 3a 6f 31 a4 b3 3f
       0.07672413793103448 0.07672413793103448
000240 17 43 3a 6f 31 a4 b3 3f 17 43 3a 6f 31 a4 b3 3f
       0.07672413793103448 0.07672413793103448
000250 17 43 3a 6f 31 a4 b3 3f 17 43 3a 6f 31 a4 b3 3f
       0.07672413793103448 0.07672413793103448
000260 17 43 3a 6f 31 a4 b3 3f 17 43 3a 6f 31 a4 b3 3f
       0.07672413793103448 0.07672413793103448
000270 17 43 3a 6f 31 a4 b3 3f 17 43 3a 6f 31 a4 b3 3f
       0.07672413793103448 0.07672413793103448
000280 17 43 3a 6f 31 a4 b3 3f 17 43 3a 6f 31 a4 b3 3f
       0.07672413793103448 0.07672413793103448
000290 17 43 3a 6f 31 a4 b3 3f 17 43 3a 6f 31 a4 b3 3f
       0.07672413793103448 0.07672413793103448
0002a0 17 43 3a 6f 31 a4 b3 3f 17 43 3a 6f 31 a4 b3 3f
       0.07672413793103448 0.07672413793103448
0002b0 17 43 3a 6f 31 a4 b3 3f 17 43 3a 6f 31 a4 b3 3f
       0.07672413793103448 0.07672413793103448
0002c0 17 43 3a 6f 31 a4 b3 3f 17 43 3a 6f 31 a4 b3 3f
       0.07672413793103448 0.07672413793103448
0002d0 17 43 3a 6f 31 a4 b3 3f 17 43 3a 6f 31 a4 b3 3f
       0.07672413793103448 0.07672413793103448
0002e0 17 43 3a 6f 31 a4 b3 3f 17 43 3a 6f 31 a4 b3 3f
       0.07672413793103448 0.07672413793103448
0002f0 17 43 3a 6f 31 a4 b3 3f 17 43 3a 6f 31 a4 b3 3f
       0.07672413793103448 0.07672413793103448
000300 17 43 3a 6f 31 a4 b3 3f 17 43 3a 6f 31 a4 b3 3f
       0.07672413793103448 0.07672413793103448
000310 17 43 3a 6f 31 a4 b3 3f 17 43 3a 6f 31 a4 b3 3f
       0.07672413793103448 0.07672413793103448
000320 17 43 3a 6f 31 a4 b3 3f 17 43 3a 6f 31 a4 b3 3f
       0.07672413793103448 0.07672413793103448
000330 17 43 3a 6f 31 a4 b3 3f 17 43 3a 6f 31 a4 b3 3f
       0.07672413793103448 0.07672413793103448
000340 17 43 3a 6f 31 a4 b3 3f 17 43 3a 6f 31 a4 b3 3f
       0.07672413793103448 0.07672413793103448
000350 17 43 3a 6f 31 a4 b3 3f 17 43 3a 6f 31 a4 b3 3f
       0.07672413793103448 0.07672413793103448
000360 17 43 3a 6f 31 a4 b3 3f 17 43 3a 6f 31 a4 b3 3f
       0.07672413793103448 0.07672413793103448
000370 17 43 3a 6f 31 a4 b3 3f 17 43 3a 6f 31 a4 b3 3f
       0.07672413793103448 0.07672413793103448
000380 17 43 3a 6f 31 a4 b3 3f 17 43 3a 6f 31 a4 b3 3f
       0.07672413793103448 0.07672413793103448
000390 17 43 3a 6f 31 a4 b3 3f 17 43 3a 6f 31 a4 b3 3f
       0.07672413793103448 0.07672413793103448
0003a0 17 43 3a 6f 31 a4 b3 3f 17 43 3a 6f 31 a4 b3 3f
       0.07672413793103448 0.07672413793103448
0003b0 17 43 3a 6f 31 a4 b3 3f 17 43 3a 6f 31 a4 b3 3f
       0.07672413793103448 0.07672413793103448
0003c0 17 43 3a 6f 31 a4 b3 3f 17 43 3a 6f 31 a4 b3 3f
       0.07672413793103448 0.07672413793103448
0003d0 17 43 3a 6f 31 a4 b3 3f 17 43 3a 6f 31 a4 b3 3f
       0.07672413793103448 0.07672413793103448
0003e0 17 43 3a 6f 31 a4 b3 3f 17 43 3a 6f 31 a4 b3 3f
       0.07672413793103448 0.07672413793103448
0003f0 17 43 3a 6f 31 a4 b3 3f 17 43 3a 6f 31 a4 b3 3f
       0.07672413793103448 0.07672413793103448
000400 17 43 3a 6f 31 a4 b3 3f 17 43 3a 6f 31 a4 b3 3f
       0.07672413793103448 0.07672413793103448
000410 17 43 3a 6f 31 a4 b3 3f 17 43 3a 6f 31 a4 b3 3f
       0.07672413793103448 0.07672413793103448
000420 17 43 3a 6f 31 a4 b3 3f 17 43 3a 6f 31 a4 b3 3f
       0.07672413793103448 0.07672413793103448
000430 17 43 3a 6f 31 a4 b3 3f 17 43 3a 6f 31 a4 b3 3f
       0.07672413793103448 0.07672413793103448
000440 17 43 3a 6f 31 a4 b3 3f 17 43 3a 6f 31 a4 b3 3f
       0.07672413793103448 0.07672413793103448
000450 17 43 3a 6f 31 a4 b3 3f 17 43 3a 6f 31 a4 b3 3f
       0.07672413793103448 0.07672413793103448
000460 17 43 3a 6f 31 a4 b3 3f 17 43 3a 6f 31 a4 b3 3f
       0.07672413793103448 0.07672413793103448
000470 17 43 3a 6f 31 a4 b3 3f 17 43 3a 6f 31 a4 b3 3f
       0.07672413793103448 0.07672413793103448
000480 17 43 3a 6f 31 a4 b3 3f 17 43 3a 6f 31 a4 b3 3f
       0.07672413793103448 0.07672413793103448
000490 17 43 3a 6f 31 a4 b3 3f 17 43 3a 6f 31 a4 b3 3f
       0.07672413793103448 0.07672413793103448
0004a0 17 43 3a 6f 31 a4 b3 3f 17 43 3a 6f 31 a4 b3 3f
       0.07672413793103448 0.07672413793103448
0004b0 17 43 3a 6f 31 a4 b3 3f 17 43 3a 6f 31 a4 b3 3f
       0.07672413793103448 0.07672413793103448
0004c0 17 43 3a 6f 31 a4 b3 3f 17 43 3a 6f 31 a4 b3 3f
       0.07672413793103448 0.07672413793103448
0004d0 17 43 3a 6f 31 a4 b3 3f 17 43 3a 6f 31 a4 b3 3f
       0.07672413793103448 0.07672413793103448
0004e0 17 43 3a 6f 31 a4 b3 3f 17 43 3a 6f 31 a4 b3 3f
       0.07672413793103448 0.07672413793103448
0004f0 17 43 3a 6f 31 a4 b3 3f 17 43 3a 6f 31 a4 b3 3f
       0.07672413793103448 0.07672413793103448
000500 17 43 3a 6f 31 a4 b3 3f 17 43 3a 6f 31 a4 b3 3f
       0.07672413793103448 0.07672413793103448
000510 17 43 3a 6f 31 a4 b3 3f 17 43 3a 6f 31 a4 b3 3f
       0.07672413793103448 0.07672413793103448
000520 17 43 3a 6f 31 a4 b3 3f 17 43 3a 6f 31 a4 b3 3f
       0.07672413793103448 0.07672413793103448
000530 17 43 3a 6f 31 a4 b3 3f 17 43 3a 6f 31 a4 b3 3f
       0.07672413793103448 0.07672413793103448
000540 17 43 3a 6f 31 a4 b3 3f 17 43 3a 6f 31 a4 b3 3f
       0.07672413793103448 0.07672413793103448
000550 17 43 3a 6f 31 a4 b3 3f 17 43 3a 6f 31 a4 b3 3f
       0.07672413793103448 0.07672413793103448
000560 17 43 3a 6f 31 a4 b3 3f 17 43 3a 6f 31 a4 b3 3f
       0.07672413793103448 0.07672413793103448
000570 17 43 3a 6f 31 a4 b3 3f 17 43 3a 6f 31 a4 b3 3f
       0.07672413793103448 0.07672413793103448
000580 17 43 3a 6f 31 a4 b3 3f 17 43 3a 6f 31 a4 b3 3f
       0.07672413793103448 0.07672413793103448
000590 17 43 3a 6f 31 a4 b3 3f 17 43 3a 6f 31 a4 b3 3f
       0.07672413793103448 0.07672413793103448
0005a0 17 43 3a 6f 31 a4 b3 3f 17 43 3a 6f 31 a4 b3 3f
       0.07672413793103448 0.07672413793103448
0005b0 17 43 3a 6f 31 a4 b3 3f 17 43 3a 6f 31 a4 b3 3f
       0.07672413793103448 0.07672413793103448
0005c0 17 43 3a 6f 31 a4 b3 3f 17 43 3a 6f 31 a4 b3 3f
       0.07672413793103448 0.07672413793103448
0005d0 17 43 3a 6f 31 a4 b3 3f 17 43 3a 6f 31 a4 b3 3f
       0.07672413793103448 0.07672413793103448
0005e0 17 43 3a 6f 31 a4 b3 3f 17 43 3a 6f 31 a4 b3 3f
       0.07672413793103448 0.07672413793103448
0005f0 17 43 3a 6f 31 a4 b3 3f 17 43 3a 6f 31 a4 b3 3f
       0.07672413793103448 0.07672413793103448
000600 17 43 3a 6f 31 a4 b3 3f 17 43 3a 6f 31 a4 b3 3f
       0.07672413793103448 0.07672413793103448
000610 17 43 3a 6f 31 a4 b3 3f 17 43 3a 6f 31 a4 b3 3f
       0.07672413793103448 0.07672413793103448
000620 17 43 3a 6f 31 a4 b3 3f 17 43 3a 6f 31 a4 b3 3f
       0.07672413793103448 0.07672413793103448
000630 17 43 3a 6f 31 a4 b3 3f 17 43 3a 6f 31 a4 b3 3f
       0.07672413793103448 0.07672413793103448
000640 17 43 3a 6f 31 a4 b3 3f 17 43 3a 6f 31 a4 b3 3f
       0.07672413793103448 0.07672413793103448
000650 17 43 3a 6f 31 a4 b3 3f 17 43 3a 6f 31 a4 b3 3f
       0.07672413793103448 0.07672413793103448
000660 17 43 3a 6f 31 a4 b3 3f 17 43 3a 6f 31 a4 b3 3f
       0.07672413793103448 0.07672413793103448
000670 17 43 3a 6f 31 a4 b3 3f 17 43 3a 6f 31 a4 b3 3f
       0.07672413793103448 0.07672413793103448
000680 17 43 3a 6f 31 a4 b3 3f 17 43 3a 6f 31 a4 b3 3f
       0.07672413793103448 0.07672413793103448
000690 17 43 3a 6f 31 a4 b3 3f 17 43 3a 6f 31 a4 b3 3f
       0.07672413793103448 0.07672413793103448
0006a0 17 43 3a 6f 31 a4 b3 3f 17 43 3a 6f 31 a4 b3 3f
       0.07672413793103448 0.07672413793103448
0006b0 17 43 3a 6f 31 a4 b3 3f 17 43 3a 6f 31 a4 b3 3f
       0.07672413793103448 0.07672413793103448
0006c0 17 43 3a 6f 31 a4 b3 3f 17 43 3a 6f 31 a4 b3 3f
       0.07672413793103448 0.07672413793103448
0006d0 17 43 3a 6f 31 a4 b3 3f 17 43 3a 6f 31 a4 b3 3f
       0.07672413793103448 0.07672413793103448
0006e0 17 43 3a 6f 31 a4 b3 3f 17 43 3a 6f 31 a4 b3 3f
       0.07672413793103448 0.07672413793103448
0006f0 17 43 3a 6f 31 a4 b3 3f 17 43 3a 6f 31 a4 b3 3f
       0.07672413793103448 0.07672413793103448
000700 17 43 3a 6f 31 a4 b3 3f 17 43 3a 6f 31 a4 b3 3f
       0.07672413793103448 0.07672413793103448
000710 17 43 3a 6f 31 a4 b3 3f 17 43 3a 6f 31 a4 b3 3f
       0.07672413793103448 0.07672413793103448
000720 17 43 3a 6f 31 a4 b3 3f 17 43 3a 6f 31 a4 b3 3f
       0.07672413793103448 0.07672413793103448
000730 17 43 3a 6f 31 a4 b3 3f 17 43 3a 6f 31 a4 b3 3f
       0.07672413793103448 0.07672413793103448
000740 17 43 3a 6f 31 a4 b3 3f 17 43 3a 6f 31 a4 b3 3f
       0.07672413793103448 0.07672413793103448
000750 17 43 3a 6f 31 a4 b3 3f 17 43 3a 6f 31 a4 b3 3f
       0.07672413793103448 0.07672413793103448
000760 17 43 3a 6f 31 a4 b3 3f 17 43 3a 6f 31 a4 b3 3f
       0.07672413793103448 0.07672413793103448
000770 17 43 3a 6f 31 a4 b3 3f 17 43 3a 6f 31 a4 b3 3f
       0.07672413793103448 0.07672413793103448
000780 17 43 3a 6f 31 a4 b3 3f 17 43 3a 6f 31 a4 b3 3f
       0.07672413793103448 0.07672413793103448
000790 17 43 3a 6f 31 a4 b3 3f 17 43 3a 6f 31 a4 b3 3f
       0.07672413793103448 0.07672413793103448
0007a0 17 43 3a 6f 31 a4 b3 3f 17 43 3a 6f 31 a4 b3 3f
       0.07672413793103448 0.07672413793103448
0007b0 17 43 3a 6f 31 a4 b3 3f 17 43 3a 6f 31 a4 b3 3f
       0.07672413793103448 0.07672413793103448
0007c0 17 43 3a 6f 31 a4 b3 3f 17 43 3a 6f 31 a4 b3 3f
       0.07672413793103448 0.07672413793103448
0007d0 17 43 3a 6f 31 a4 b3 3f 17 43 3a 6f 31 a4 b3 3f
       0.07672413793103448 0.07672413793103448
0007e0 17 43 3a 6f 31 a4 b3 3f 17 43 3a 6f 31 a4 b3 3f
       0.07672413793103448 0.07672413793103448
0007f0 17 43 3a 6f 31 a4 b3 3f 17 43 3a 6f 31 a4 b3 3f
       0.07672413793103448 0.07672413793103448

zmax f8 []
000000 00 00 00 00 00 00 14 40
       5.0

hz_F f8 [401]
000000 0f fa d0 f7 8e b3 ad 3f 21 7f 4c 82 8e b3 ad 3f
       0.058010547400488936 0.058010533719651265
000010 34 2e ad 0b 8e b3 ad 3f 01 20 84 93 8d b3 ad 3f
       0.05801051991019471 0.058010505921686224
000020 ec 07 a2 19 8d b3 ad 3f 05 0a ef 9d 8c b3 ad 3f
       0.058010491732616604 0.05801047733213597
000030 6c ef 5b 20 8c b3 ad 3f d4 7f dc a0 8b b3 ad 3f
       0.05801046271332563 0.05801044787062862
000040 6e 7c 65 1f 8b b3 ad 3f 68 db eb 9b 8a b3 ad 3f
       0.05801043279893113 0.058010417493213506
000050 df 6a 64 16 8a b3 ad 3f 67 ca c3 8e 89 b3 ad 3f
       0.05801040194838491 0.058010386159271836
000060 23 48 fe 04 89 b3 ad 3f 7b df 07 79 88 b3 ad 3f
       0.05801037012055612 0.05801035382677263
000070 ee 33 d4 ea 87 b3 ad 3f 9a a0 56 5a 87 b3 ad 3f
       0.05801033727230008 0.05801032045138861
000080 9a 16 82 c7 86 b3 ad 3f f9 29 49 32 86 b3 ad 3f
       0.05801030335810005 0.05801028598633091
000090 18 0f 9e 9a 85 b3 ad 3f 37 94 72 00 85 b3 ad 3f
       0.05801026832980777 0.058010250382075794
0000a0 c5 22 b8 63 84 b3 ad 3f 16 a8 5f c4 83 b3 ad 3f
       0.05801023213650106 0.058010213586229195
0000b0 3f af 59 22 83 b3 ad 3f 94 51 96 7d 82 b3 ad 3f
       0.058010194724231294 0.05801017554327639
0000c0 cd 1c 05 d6 81 b3 ad 3f 0c 32 95 2b 81 b3 ad 3f
       0.05801015603588553 0.05801013619438686
0000d0 42 24 35 7e 80 b3 ad 3f f8 08 d3 cd 7f b3 ad 3f
       0.05801011601085594 0.058010095477145585
0000e0 97 70 5c 1a 7f b3 ad 3f e1 40 be 63 7e b3 ad 3f
       0.05801007458487211 0.058010053325348705
0000f0 a1 df e4 a9 7d b3 ad 3f 29 0d bc ec 7c b3 ad 3f
       0.05801003168966124 0.058010009668601654
000100 82 e9 2e 2c 7c b3 ad 3f 68 f4 27 68 7b b3 ad 3f
       0.058009987252677156 0.058009964432110206
000110 29 f2 90 a0 7a b3 ad 3f f6 f5 52 d5 79 b3 ad 3f
       0.05800994119679032 0.05800991753629241
000120 49 56 56 06 79 b3 ad 3f 93 ab 82 33 78 b3 ad 3f
       0.05800989343985614 0.05800986889638362
000130 90 bb be 5c 77 b3 ad 3f 91 7a f0 81 76 b3 ad 3f
       0.05800984389440267 0.0580098184220691
000140 bd 03 fd a2 75 b3 ad 3f f4 86 c8 bf 74 b3 ad 3f
       0.05800979246715297 0.05800976601700639
000150 00 4e 36 d8 73 b3 ad 3f 49 a5 28 ec 72 b3 ad 3f
       0.05800973905857276 0.0580097115783454
000160 fb d7 80 fb 71 b3 ad 3f 61 24 1f 06 71 b3 ad 3f
       0.05800968356236066 0.05800965499617728
000170 61 ac e2 0b 70 b3 ad 3f 8a 7e a9 0c 6f b3 ad 3f
       0.05800962586484882 0.05800959615293973
000180 f3 64 50 08 6e b3 ad 3f a0 f8 b2 fe 6c b3 ad 3f
       0.05800956584443808 0.05800953492279004
000190 14 85 ab ef 6b b3 ad 3f 60 fb 12 db 6a b3 ad 3f
       0.05800950337084934 0.05800947117085431
0001a0 7f e6 c0 c0 69 b3 ad 3f fb 57 8b a0 68 b3 ad 3f
       0.05800943830440718 0.05800940475243973
0001b0 1f e0 46 7a 67 b3 ad 3f 67 6c c6 4d 66 b3 ad 3f
       0.05800937049519938 0.05800933551218961
0001c0 b5 3f db 1a 65 b3 ad 3f f3 de 54 e1 63 b3 ad 3f
       0.05800929978215611 0.05800926328305236
0001d0 8c 01 01 a1 62 b3 ad 3f f2 6b ab 59 61 b3 ad 3f
       0.05800922599201205 0.058009187885282545
0001e0 66 e1 1d 0b 60 b3 ad 3f 9b 19 20 b5 5e b3 ad 3f
       0.05800914893819957 0.058009109125168844
0001f0 9f 8f 77 57 5d b3 ad 3f 5f 7b e7 f1 5b b3 ad 3f
       0.05800906841957886 0.05800902679378938
000200 fe a6 30 84 5a b3 ad 3f 6a 52 11 0e 59 b3 ad 3f
       0.058008984219055634 0.05800894066547786
000210 fd 28 45 8f 57 b3 ad 3f e1 00 85 07 56 b3 ad 3f
       0.05800889610198288 0.058008850496209304
000220 d3 cc 86 76 54 b3 ad 3f ab 76 fd db 52 b3 ad 3f
       0.05800880381448228 0.0580087560217469
000230 76 a6 98 37 51 b3 ad 3f f8 b2 04 89 4f b3 ad 3f
       0.058008707081467145 0.05800865695559837
000240 23 5d ea cf 4d b3 ad 3f f7 b4 ee 0b 4c b3 ad 3f
       0.058008605604465545 0.05800855298671508
000250 dd d8 b2 3c 4a b3 ad 3f 69 c8 d3 61 48 b3 ad 3f
       0.058008499059200004 0.05800844377689957
000260 a3 30 ea 7a 46 b3 ad 3f c6 1f 8a 87 44 b3 ad 3f
       0.05800838709282743 0.058008328957896135
000270 29 dd 42 87 42 b3 ad 3f d5 97 9e 79 40 b3 ad 3f
       0.05800826932084597 0.05800820812810029
000280 cc 1c 22 5e 3e b3 ad 3f 71 96 4c 34 3c b3 ad 3f
       0.0580081453236346 0.05800808084886178
000290 70 2f 97 fb 39 b3 ad 3f 57 ca 74 b3 37 b3 ad 3f
       0.05800801464246674 0.0580079466402778
0002a0 0a 95 51 5b 35 b3 ad 3f 46 b7 92 f2 32 b3 ad 3f
       0.058007876775073866 0.05800780497643969
0002b0 dd d7 95 78 30 b3 ad 3f 09 bd b0 ec 2d b3 ad 3f
       0.058007731170547784 0.058007655279988475
0002c0 26 cb 30 4e 2b b3 ad 3f 9d 88 5a 9c 28 b3 ad 3f
       0.05800757722354026 0.0580074969159494
0002d0 f8 10 69 d6 25 b3 ad 3f d4 82 8d fb 22 b3 ad 3f
       0.05800741426767958 0.058007329184652484
0002e0 9d 68 ee 0a 20 b3 ad 3f 31 06 a7 03 1d b3 ad 3f
       0.058007241567979075 0.058007151313642764
0002f0 eb ac c6 e4 19 b3 ad 3f a8 e7 4f ad 16 b3 ad 3f
       0.05800705831219396 0.0580069624483735
000300 81 c4 37 5c 13 b3 ad 3f 2c df 64 f0 0f b3 ad 3f
       0.05800686360078889 0.05800676164147797
000310 91 70 ae 68 0c b3 ad 3f 3c 4c db c3 08 b3 ad 3f
       0.05800665643548187 0.0580065478403857
000320 6e ca a0 00 05 b3 ad 3f 0f 97 a1 1d 01 b3 ad 3f
       0.05800643570582485 0.05800631987294313
000330 29 64 6c 19 fd b2 ad 3f 74 8f 7a f2 f8 b2 ad 3f
       0.05800620017380027 0.05800607643075653
000340 cc 96 2e a7 f4 b2 ad 3f b9 88 d2 35 f0 b2 ad 3f
       0.05800594845577009 0.058005816049687416
000350 ac 35 96 9c eb b2 ad 3f 00 53 8d d9 e6 b2 ad 3f
       0.058005679001421256 0.05800553708710332
000360 da 56 ad ea e1 b2 ad 3f ac 56 cb cd dc b2 ad 3f
       0.05800539006911061 0.05800523769509644
000370 17 79 99 80 d7 b2 ad 3f e7 5a a4 00 d2 b2 ad 3f
       0.05800507969682849 0.05800491578900396
000380 a7 2b 50 4b cc b2 ad 3f 7a 77 d5 5d c6 b2 ad 3f
       0.05800474566793606 0.05800456901009361
000390 04 c5 3d 35 c0 b2 ad 3f 6e c5 5f ce b9 b2 ad 3f
       0.05800438547056255 0.058004194681312224
0003a0 ad 31 db 25 b3 b2 ad 3f 55 4d 14 38 ac b2 ad 3f
       0.05800399624931472 0.05800378975450352
0003b0 49 ed 2e 01 a5 b2 ad 3f ed 04 09 7d 9d b2 ad 3f
       0.05800357474751167 0.05800335074719407
0003c0 5a b3 34 a7 95 b2 ad 3f e7 b2 f1 7a 8d b2 ad 3f
       0.058003117237922466 0.058002873666600334
0003d0 af fd 25 f3 84 b2 ad 3f 2a f2 55 0a 7c b2 ad 3f
       0.058002619439317164 0.05800235391777549
0003e0 68 64 9b ba 72 b2 ad 3f fc ef 9b fd 68 b2 ad 3f
       0.058002076415228754 0.05800178619207938
0003f0 12 11 7e cc 5e b2 ad 3f 3f 33 dd 1f 54 b2 ad 3f
       0.058001482450921085 0.05800116433110824
000400 8a 64 bc ef 48 b2 ad 3f 79 76 77 33 3d b2 ad 3f
       0.058000830902707426 0.05800048115973495
000410 55 85 b2 e1 30 b2 ad 3f a3 9a 47 f0 23 b2 ad 3f
       0.058000114012666394 0.05799972828008506
000420 75 19 32 54 16 b2 ad 3f e1 b3 77 01 08 b2 ad 3f
       0.05799932267932465 0.05799889581599139
000430 39 b7 0e eb f8 b1 ad 3f 7f 16 c1 02 e9 b1 ad 3f
       0.05799844617227596 0.057997972093784426
000440 00 df 0b 39 d8 b1 ad 3f ea 95 fa 7c c6 b1 ad 3f
       0.057997471774738685 0.05799694324131706
000450 75 de fd bb b3 b1 ad 3f 14 be bc e1 9f b1 ad 3f
       0.05799638433285007 0.05799579268056845
000460 0d a8 df d7 8a b1 ad 3f 5e 6a d4 85 74 b1 ad 3f
       0.05799516568352212 0.05799450048126141
000470 63 da 89 d0 5c b1 ad 3f d5 05 22 9a 43 b1 ad 3f
       0.05799379392276618 0.05799304253106256
000480 4f 4e 99 c1 28 b1 ad 3f 93 cc 60 22 0c b1 ad 3f
       0.05799224246279932 0.05799138946203999
000490 00 a5 e9 93 ed b0 ad 3f 50 2e 1f e9 cc b0 ad 3f
       0.057990478807207424 0.05798950525021651
0004a0 d2 7e cc ef a9 b0 ad 3f dc 4c ea 6f 84 b0 ad 3f
       0.057988462946239175 0.05798734537270331
0004b0 d7 b4 d0 2a 5c b0 ad 3f 7a eb 47 da 30 b0 ad 3f
       0.05798614523551187 0.05798485436022012
0004c0 70 d7 71 2f 02 b0 ad 3f 9d 6a 85 d1 cf af ad 3f
       0.057983463565434046 0.057981962515176046
0004d0 b0 e8 52 5c 99 af ad 3f 02 8c 86 5e 5e af ad 3f
       0.057980339546206294 0.057978581465498294
0004e0 eb c2 9c 57 1e af ad 3f 2d 5e 78 b5 d8 ae ad 3f
       0.05797667331206021 0.057974598075983465
0004f0 20 91 87 d1 8c ae ad 3f 52 6f 60 ed 39 ae ad 3f
       0.057972336366022725 0.05796986601509836
000500 38 04 b8 2e df ad ad 3f 64 97 90 9a 7b ad ad 3f
       0.05796716161058452 0.05796419393327204
000510 f4 02 73 0f 0e ad ad 3f 96 66 7c 3e 95 ac ad 3f
       0.057960929284950696 0.05795732867973162
000520 d8 f7 fb a2 0f ac ad 3f 93 51 4b 78 7b ab ad 3f
       0.057953346868074795 0.05794893115458701
000530 ed bd 75 ad d6 aa ad 3f 70 8c 26 d6 1e aa ad 3f
       0.05794401996069696 0.05793854107039287
000540 56 6c 32 18 51 a9 ad 3f 68 78 e0 14 6a a8 ad 3f
       0.05793240948079219 0.05792552475780682
000550 7a f0 da cc 65 a7 ad 3f ed bf 5f 7d 3f a6 ad 3f
       0.057917767769567655 0.05790899663395508
000560 8a 5c e1 74 f1 a4 ad 3f b5 07 bf dc 74 a3 ad 3f
       0.0578990416694803 0.05788769907623196
000570 2b 56 07 75 c1 a1 ad 3f 4a af 47 3e cd 9f ad 3f
       0.057874722991681025 0.05785981545690662
000580 b5 1c 2c 0c 8c 9d ad 3f 2f 3f 07 fa ee 9a ad 3f
       0.05784261368358427 0.057822673817666696
000590 13 6b 1b b8 e3 97 ad 3f 82 7d 76 a5 53 94 ad 3f
       0.057799450134288353 0.057772268245794414
0005a0 62 a1 16 a6 22 90 ad 3f 5a a9 78 9f 2d 8b ad 3f
       0.05774029042669572 0.05770247050925788
0005b0 a2 b0 10 7e 48 85 ad 3f 4a cd bd 9b 3b 7e ad 3f
       0.057657494915788435 0.05760370517864517
0005c0 b0 1c f7 50 c0 75 ad 3f 48 3c c2 66 7c 6b ad 3f
       0.05753899563165399 0.05746067766551072
0005d0 d0 1d 78 04 fc 5e ad 3f b3 fd 42 8f a9 4f ad 3f
       0.057365298791463126 0.05724840043830728
0005e0 7e da 91 be c2 3c ad 3f 38 53 0e e4 49 25 ad 3f
       0.057104192507655846 0.05692511471639822
0005f0 a3 7b ce 09 f2 07 ad 3f 1b 1c 71 11 04 e3 ac 3f
       0.056701244065372046 0.05641949379838015
000600 d8 7f aa 67 3a b4 ac 3f 2b b4 9d 2d 90 78 ac 3f
       0.05606253161863578 0.05560732418857869
000610 78 31 5e 01 00 2c ac 3f 70 29 d7 0a 2e c9 ab 3f
       0.05502319351862445 0.05426925546960859
000620 cb f1 2d 23 f9 48 ab 3f 1a 35 d1 d2 f0 a1 aa 3f
       0.05329111627995394 0.052016759619258404
000630 10 7b ba 46 b3 c7 a9 3f 81 3c 86 06 42 aa a8 3f
       0.050351717361300286 0.04817396478312564
000640 cd ad 03 86 71 35 a7 3f fb 43 cc 60 42 26 a6 3f
       0.04532961617391216 0.0432606452142252
000650 4e 39 90 c9 63 3c a5 3f cf 4f d3 20 b5 71 a4 3f
       0.04147636256685648 0.03993001962376718
000660 93 c9 04 e4 2d c1 a3 3f a6 63 91 77 ab 26 a3 3f
       0.03858321579390913 0.03740440210885447
000670 81 23 ec d5 c6 9e a2 3f fb d0 7d 91 b1 26 a2 3f
       0.036367620099617255 0.03545145894068643
000680 09 61 8a 3e 19 bc a1 3f 33 16 b4 45 10 5d a1 3f
       0.03463820351061215 0.033913143643115616
000690 69 ac c1 2d fb 07 a1 3f fc 21 04 88 81 bb a0 3f
       0.033264016471400044 0.03268055711129489
0006a0 76 b7 7e cb 81 76 a0 3f 54 3b 77 8a 07 38 a0 3f
       0.0321541367442099 0.03167747082954145
0006b0 89 83 0b 14 87 fe 9f 3f f0 5f cf b5 0a 97 9f 3f
       0.031244383429001075 0.0308496163814595
0006c0 b0 50 b8 4c 6c 38 9f 3f 87 8e 37 e3 a8 e1 9e 3f
       0.030488674337974586 0.03015769850561736
0006d0 3e 23 45 4e e1 91 9e 3f dc 81 20 7e 54 48 9e 3f
       0.029853363420701877 0.029572792242221854
0006e0 f1 19 af cf 5a 04 9e 3f 36 92 7b 2d 62 c5 9d 3f
       0.02931348698236919 0.029073270822566687
0006f0 a3 9d 42 d9 ea 8a 9d 3f ca 81 cf be 84 54 9d 3f
       0.0288502402405847 0.028642725130227288
000700 7d 60 1a 37 cd 21 9d 3f d3 1b 81 27 6d f2 9c 3f
       0.02844925545522913 0.028268533264306072
000710 d2 f2 d7 6c 17 c6 9c 3f cf a1 26 85 87 9c 9c 3f
       0.028099409120829595 0.027940862180601485
000720 9d b0 5f 6d 80 75 9c 3f 3b 7b 59 aa cb 50 9c 3f
       0.02779198329510334 0.027651960632620414
000730 e5 98 e6 75 38 2e 9c 3f be fc 32 0a 9b 0d 9c 3f
       0.027520067401973675 0.027395651338107944
000740 4c 18 93 06 cc ee 9b 3f e9 fc c8 e9 a7 d1 9b 3f
       0.02727812566879377 0.027166961330519355
000750 46 e9 71 9e 0e b6 9b 3f 9c 9d dc 16 e3 9b 9b 3f
       0.027061680241311302 0.026961849470493612
000760 34 b8 fd f5 0a 83 9b 3f 84 c6 96 43 6e 6b 9b 3f
       0.026867076171974882 0.026777003169348848
000770 b6 91 f3 29 f7 54 9b 3f 47 a1 e2 bb 91 3f 9b 3f
       0.0266913050990227 0.026609685032469767
000780 6e 4f c3 c1 2b 2b 9b 3f 99 6b b1 8c b4 17 9b 3f
       0.02653187151084018 0.026457615935537502
000790 d3 4b fb ce 1c 05 9b 3f cd bb 2e 79 56 f3 9a 3f
       0.02638669026675784 0.026318884989162506
0007a0 70 9e 23 9b 54 e2 9a 3f a4 b3 80 48 0b d2 9a 3f
       0.026254007309857774 0.02619187955876935
0007b0 c2 38 4a 80 6f c2 9a 3f e5 42 19 17 77 b3 9a 3f
       0.026132337765880427 0.0260752303932489
0007c0 97 7c a8 a3 18 a5 9a 3f fd de 6d 6d 4b 97 9a 3f
       0.02602041720285494 0.025967768243815737
0007d0 bd 2c 03 5d 07 8a 9a 3f 22 9f 26 ee 44 7d 9a 3f
       0.02591716294481893 0.025868489299369142
0007e0 4c c1 24 23 fd 70 9a 3f 09 26 82 79 29 65 9a 3f
       0.02582164313315731 0.025776527444156403
0007f0 51 3d c1 df c3 59 9a 3f 86 a1 24 ac c6 4e 9a 3f
       0.02573305180731939 0.025691131836681723
