onecap_model_with_structure_ambiguity/output/lower_triangular_two_ambiguous_parameters/Delta_10.0_distorted_0/logadjustment_1_boundary_1/zmax_5.0_zscale_2.0/delta_0.02/q_0.1_gamma_8.0_rho_1.0/model.npz (npz, 126264 bytes, 58 tensors)

clowerlim f8 []
000000 2d 43 1c eb e2 36 1a 3f
       0.0001

zmin f8 []
000000 00 00 00 00 00 00 14 c0
       -5.0

Delta f8 []
000000 00 00 00 00 00 00 24 40
       10.0

s1_F f8 [401]
000000 fe 67 ca 2e a2 38 f6 bf 66 11 cc a6 0f ef f3 bf
       -1.3888265445480097 -1.2458645358575153
000010 62 d9 d9 0e 97 3c f3 bf bc 27 d0 d8 1a ef f2 bf
       -1.202292497645964 -1.183375212598988
000020 8e 5d 41 d6 f3 c2 f2 bf ff 52 c1 7c f6 a2 f2 bf
       -1.172595822272203 -1.1647858498810704
000030 7d dd 7b 41 97 87 f2 bf b4 ba ab bc 00 6e f2 bf
       -1.1581032331431225 -1.1518561716035665
000040 d6 27 75 45 1c 55 f2 bf b2 ca 78 9f 7d 3c f2 bf
       -1.1457789147557285 -1.13976824086846
000050 81 da 7e 79 fa 23 f2 bf 48 87 a3 33 82 0b f2 bf
       -1.1337837930601895 -1.12780971690559
000060 a0 66 0c 3f 0e f3 f1 bf 3e 05 e5 02 9c da f1 bf
       -1.121839758189175 -1.1158714402266265
000070 84 2d e9 76 2a c2 f1 bf a2 f7 a8 31 b9 a9 f1 bf
       -1.1099037785487278 -1.1039363803715578
000080 b0 f0 ea 08 48 91 f1 bf 19 11 b6 eb d6 78 f1 bf
       -1.0979690883969333 -1.0920018393963515
000090 88 3f 31 d3 65 60 f1 bf ec 81 96 bc f4 47 f1 bf
       -1.0860346078588652 -1.0800673834529517
0000a0 63 3f c5 a6 83 2f f1 bf c0 b9 47 91 12 17 f1 bf
       -1.0741001619789692 -1.0681329417235332
0000b0 e2 b8 ed 7b a1 fe f0 bf a4 6f a3 66 30 e6 f0 bf
       -1.0621657219849614 -1.0561985024751062
0000c0 43 b9 60 51 bf cd f0 bf dc 38 22 3c 4e b5 f0 bf
       -1.0502312830754625 -1.0442640637370948
0000d0 5c 8f e6 26 dd 9c f0 bf 48 30 ad 11 6c 84 f0 bf
       -1.0382968444400467 -1.0323296251763328
0000e0 4e e5 75 fc fa 6b f0 bf 3e a0 40 e7 89 53 f0 bf
       -1.0263624059428653 -1.020395186738838
0000f0 b3 60 0d d2 18 3b f0 bf 4d 2a dc bc a7 22 f0 bf
       -1.014427967564228 -1.0084607484192418
000100 dc 0a ad a7 36 0a f0 bf ea 12 00 25 8b e3 ef bf
       -1.0024935293046644 -0.9965263102208983
000110 88 67 aa fa a8 b2 ef bf 9f 2c 59 d0 c6 81 ef bf
       -0.9905590911687208 -0.9845918721488437
000120 5e 7c 0c a6 e4 50 ef bf f6 6f c4 7b 02 20 ef bf
       -0.9786246531620113 -0.9726574342089396
000130 ca 23 81 51 20 ef ee bf 96 b2 42 27 3e be ee bf
       -0.9666902152904353 -0.9607229964072583
000140 6f 3e 09 fd 5b 8d ee bf 5b e2 d4 d2 79 5c ee bf
       -0.9547557775603773 -0.9487885587505603
000150 a1 bc a5 a8 97 2b ee bf ba ee 7b 7e b5 fa ed bf
       -0.9428213399786679 -0.9368541212456514
000160 a8 99 57 54 d3 c9 ed bf 02 e0 38 2a f1 98 ed bf
       -0.9308869025524489 -0.9249196839000435
000170 b1 e6 1f 00 0f 68 ed bf a7 d0 0c d6 2c 37 ed bf
       -0.9189524652894844 -0.9129852467217646
000180 1b c4 ff ab 4a 06 ed bf 92 e9 f8 81 68 d5 ec bf
       -0.9070180281979704 -0.9010508097192533
000190 a8 67 f8 57 86 a4 ec bf a8 6a fe 2d a4 73 ec bf
       -0.8950835912867108 -0.8891163729016016
0001a0 66 1b 0b 04 c2 42 ec bf dd a8 1e da df 11 ec bf
       -0.8831491545650862 -0.8771819362784999
0001b0 4d 42 39 b0 fd e0 eb bf f2 13 5b 86 1b b0 eb bf
       -0.8712147180431856 -0.8652474998604005
0001c0 4e 52 84 5c 39 7f eb bf 1c 33 b5 32 57 4e eb bf
       -0.859280281731637 -0.8533130636584221
0001d0 12 e7 ed 08 75 1d eb bf 03 ab 2e df 92 ec ea bf
       -0.8473458456421403 -0.8413786276845204
0001e0 d7 b5 77 b5 b0 bb ea bf f7 43 c9 8b ce 8a ea bf
       -0.8354114097871229 -0.8294441919516647
0001f0 76 90 23 62 ec 59 ea bf 42 e1 86 38 0a 29 ea bf
       -0.8234769741798249 -0.8175097564735909
000200 1e 74 f3 0e 28 f8 e9 bf a8 90 69 e5 45 c7 e9 bf
       -0.8115425388347182 -0.8055753212652421
000210 d8 80 e9 bb 63 96 e9 bf c3 8c 73 92 81 65 e9 bf
       -0.7996081037672651 -0.7936408863428358
000220 17 04 08 69 9f 34 e9 bf 9f 38 a7 3f bd 03 e9 bf
       -0.7876736689942189 -0.781706451723739
000230 78 7c 51 16 db d2 e8 bf d9 29 07 ed f8 a1 e8 bf
       -0.77573923453373 -0.7697720174267558
000240 32 9a c8 c3 16 71 e8 bf bf 2e 96 9a 34 40 e8 bf
       -0.7638048004053586 -0.7578375834723018
000250 8f 4a 70 71 52 0f e8 bf 68 55 57 48 70 de e7 bf
       -0.7518703666304009 -0.7459031498826052
000260 4b ba 4b 1f 8e ad e7 bf e0 eb 4d f6 ab 7c e7 bf
       -0.7399359332319561 -0.7339687166817122
000270 3a 5e 5e cd c9 4b e7 bf 28 8d 7d a4 e7 1a e7 bf
       -0.7280015002351725 -0.722034283895856
000280 e7 f9 ab 7b 05 ea e6 bf 68 2a ea 52 23 b9 e6 bf
       -0.7160670676674358 -0.7100998515537187
000290 84 aa 38 2a 41 88 e6 bf 06 0f 98 01 5f 57 e6 bf
       -0.7041326355586794 -0.698165419686547
0002a0 67 f0 08 d9 7c 26 e6 bf 42 ef 8b b0 9a f5 e5 bf
       -0.6921982039416549 -0.6862309883285678
0002b0 3a b5 21 88 b8 c4 e5 bf e3 f4 ca 5f d6 93 e5 bf
       -0.680263772852107 -0.6742965575173482
0002c0 94 65 88 37 f4 62 e5 bf c7 cb 5a 0f 12 32 e5 bf
       -0.668329342329502 -0.6623621272941528
0002d0 22 f4 42 e7 2f 01 e5 bf e1 b4 41 bf 4d d0 e4 bf
       -0.6563949124171169 -0.6504276977044833
0002e0 88 f1 57 97 6b 9f e4 bf 9d 96 86 6f 89 6e e4 bf
       -0.6444604831627183 -0.6384932687985444
0002f0 9f 9e ce 47 a7 3d e4 bf 05 11 31 20 c5 0c e4 bf
       -0.6325260546190811 -0.6265588406318164
000300 15 03 af f8 e2 db e3 bf fc 98 49 d1 00 ab e3 bf
       -0.6205916268446311 -0.6146244132658292
000310 2c 08 02 aa 1e 7a e3 bf c5 96 d9 82 3c 49 e3 bf
       -0.6086571999042056 -0.6026899867690295
000320 6c 9c d1 5b 5a 18 e3 bf e4 85 eb 34 78 e7 e2 bf
       -0.5967227738700678 -0.5907555612176876
000330 92 d1 28 0e 96 b6 e2 bf 9f 18 8b e7 b3 85 e2 bf
       -0.5847883488227572 -0.5788211366969057
000340 56 0a 14 c1 d1 54 e2 bf b6 6e c5 9a ef 23 e2 bf
       -0.5728539248523912 -0.5668867133021738
000350 9f 2b a1 74 0d f3 e1 bf 05 43 a9 4e 2b c2 e1 bf
       -0.5609195020600629 -0.554952291140666
000360 9f d9 df 28 49 91 e1 bf 42 33 47 03 67 60 e1 bf
       -0.5489850805595785 -0.5430178703332802
000370 de bb e1 dd 84 2f e1 bf a4 05 b2 b8 a2 fe e0 bf
       -0.5370506604793908 -0.5310834510166171
000380 70 d0 ba 93 c0 cd e0 bf 1c 08 ff 6e de 9c e0 bf
       -0.5251162419649642 -0.5191490333456872
000390 78 ce 81 4a fc 6b e0 bf a2 79 46 26 1a 3b e0 bf
       -0.513181825181575 -0.507214617496903
0003a0 59 9d 50 02 38 0a e0 bf 22 1c 48 bd ab b2 df bf
       -0.5012474103176984 -0.49528020367182723
0003b0 7c ca 89 76 e7 50 df bf 56 15 6f 30 23 ef de bf
       -0.48931299758911684 -0.483345792101621
0003c0 2d 70 01 eb 5e 8d de bf df 06 4b a6 9a 2b de bf
       -0.4773785872437227 -0.4714113830524251
0003d0 50 cb 56 62 d6 c9 dd bf 7b 8a 30 1f 12 68 dd bf
       -0.46544417956754547 -0.45947697683201455
0003e0 63 fd e4 dc 4d 06 dd bf 80 e4 81 9b 89 a4 dc bf
       -0.45350977489211725 -0.4475425737978824
0003f0 3a 1c 16 5b c5 42 dc bf 71 bf b1 1b 01 e1 db bf
       -0.44157537360337396 -0.4356081743671814
000400 40 40 66 dd 3c 7f db bf de 90 46 a0 78 1d db bf
       -0.42964097615277197 -0.42367377902907133
000410 33 4c 67 64 b4 bb da bf 76 de de 29 f0 59 da bf
       -0.4177065830710404 -0.4117393883602526
000420 72 b6 c5 f0 2b f8 d9 bf 12 86 36 b9 67 96 d9 bf
       -0.4057721949855938 -0.3998050030441799
000430 89 79 4e 83 a3 34 d9 bf 04 85 2d 4f df d2 d8 bf
       -0.3938378126421403 -0.38787062389572236
000440 68 b1 f6 1c 1b 71 d8 bf 91 80 d0 ec 56 0f d8 bf
       -0.3819034369323817 -0.375936251892207
000450 53 4e e5 be 92 ad d7 bf 80 cd 63 93 ce 4b d7 bf
       -0.3699690689292982 -0.3640018882135436
000460 a1 8f 7f 6a 0a ea d6 bf 48 9f 71 44 46 88 d6 bf
       -0.3580347099325483 -0.3520675342938273
000470 24 3a 79 21 82 26 d6 bf 00 95 dc 01 be c4 d5 bf
       -0.34610036152744983 -0.3401331918888246
000480 14 d4 e9 e5 f9 62 d5 bf fe 12 f8 cd 35 01 d5 bf
       -0.33416602566222875 -0.3281988631645588
000490 b9 a7 68 ba 71 9f d4 bf cc 8c a8 ab ad 3d d4 bf
       -0.32223170474992063 -0.3162645508147761
0004a0 bd 11 32 a2 e9 db d3 bf 69 c7 8e 9e 25 7a d3 bf
       -0.31029740180408877 -0.3043302582183203
0004b0 09 c4 59 a1 61 18 d3 bf 7a 4e 42 ab 9d b6 d2 bf
       -0.2983631206216733 -0.292395989651801
0004c0 fe f8 0e bd d9 54 d2 bf 35 4e a1 d7 15 f3 d1 bf
       -0.28642886603110174 -0.28046175058009065
0004d0 78 27 fa fb 51 91 d1 bf c5 cc 3e 2b 8e 2f d1 bf
       -0.27449464423317904 -0.26852754805731777
0004e0 47 10 bf 66 ca cd d0 bf 98 8a fc af 06 6c d0 bf
       -0.2625604632742164 -0.25659339128666536
0004f0 bb 4c b3 08 43 0a d0 bf 96 7e c8 e5 fe 50 cf bf
       -0.250626333710169 -0.24465929241067802
000500 45 40 c3 e1 77 8d ce bf 98 1d bc 0a f1 c9 cd bf
       -0.23869226955003078 -0.2327252676406999
000510 5b 80 fd 66 6a 06 cd bf ae 2d e3 fd e3 42 cc bf
       -0.22675828961201003 -0.22079133889051888
000520 d0 ff 0f d8 5d 7f cb bf 7f 8b af ff d7 bb ca bf
       -0.21482441949774378 -0.208857536169571
000530 16 84 c6 80 52 f8 c9 bf 09 82 95 69 cd 34 c9 bf
       -0.20289069450248637 -0.19692390113324645
000540 42 c7 12 cb 48 71 c8 bf 91 c1 80 b9 c4 ad c7 bf
       -0.1909571639603716 -0.18499049241792112
000550 4b bc 28 4d 41 ea c6 bf 96 03 43 a3 be 26 c6 bf
       -0.1790238978150874 -0.17305739375845225
000560 82 63 18 df 3c 63 c5 bf 6f 06 6c 2b bc 9f c4 bf
       -0.1670909966785779 -0.16112472648824247
000570 52 da 40 bc 3c dc c3 bf dc 9a 12 d1 be 18 c3 bf
       -0.15515860740716164 -0.14919266899706585
000580 86 04 a1 b7 42 55 c2 bf 10 53 73 cf c8 91 c1 bf
       -0.14322694746264036 -0.1372614872876956
000590 c8 72 43 8e 51 ce c0 bf 6b b9 8a 85 dd 0a c0 bf
       -0.13129634329279427 -0.12533158321952995
0005a0 c7 cf ea d2 da 8e be bf 73 5d 19 33 04 08 bd bf
       -0.11936729096743114 -0.1134035706285113
0005b0 28 36 db 56 39 81 bb bf 34 2c bf ef 7c fa b9 bf
       -0.10744055147662179 -0.10147839406197151
0005c0 de f8 05 55 d2 73 b8 bf 8e 67 12 a8 3d ed b6 bf
       -0.09551729751362667 -0.08955750802343074
0005d0 e4 4e 95 fc c3 66 b5 bf 45 d1 a3 80 6b e0 b3 bf
       -0.08359932819922339 -0.07764312639830447
0005e0 be 65 21 9c 3b 5a b2 bf b9 4a f8 f5 3c d4 b0 bf
       -0.07168934404162194 -0.06573849682926437
0005f0 9f db 49 7a f2 9c ae bf c4 42 0f eb f4 91 ab bf
       -0.05979116194514877 -0.05384793633823429
000600 38 b3 67 a3 92 87 a8 bf d2 71 62 7e d3 7d a5 bf
       -0.047909338423642145 -0.04197560231952803
000610 3a 99 7b 27 a8 74 a2 bf ab a4 25 dc 9f d7 9e bf
       -0.03604627115218979 -0.03011941701098368
000620 dc e5 29 90 4e c5 98 bf c8 8e 9d 03 95 af 92 bf
       -0.024190166043330893 -0.018247917504949723
000630 12 0e 7e 87 91 21 89 bf 38 1f 73 80 af 76 79 bf
       -0.012271058032417268 -0.006216702989327243
000640 00 00 00 00 00 00 00 80 08 4e 7d bd 5a 92 83 bf
       -0.0 -0.009556492717513812
000650 58 9a 13 9c 8a c2 93 bf 30 e1 0a 5e 2e e8 9d bf
       -0.019296804214628288 -0.029206013193033786
000660 db cd 35 77 1d 1b a4 bf e7 54 26 9c 7b 54 a9 bf
       -0.03926937179758357 -0.04947267800450011
000670 02 f3 fe a2 6f 9e ae bf d3 94 b6 7d ab fb b1 bf
       -0.059802521368942166 -0.07024642771883131
000680 07 b5 2b 64 d8 ae b4 bf 4e be 81 26 0f 68 b7 bf
       -0.08079292722296226 -0.091431567097737
000690 87 b7 f8 09 b1 26 ba bf 73 41 d0 21 2f ea bc bf
       -0.10215288632818274 -0.1129483659317481
0006a0 40 90 11 3c 09 b2 bf bf b0 42 07 58 e6 3e c1 bf
       -0.12381036488074049 -0.13473204897174673
0006b0 1a 99 26 92 89 a6 c2 bf 8e 7f 26 ad c0 0f c4 bf
       -0.14570731769817585 -0.15673073248489938
0006c0 6a bf 99 04 63 7a c5 bf 84 4f 4b 66 4c e6 c6 bf
       -0.16779744839322613 -0.17890315050919636
0006d0 2a 94 f6 94 5c 53 c8 bf b6 6c b0 d6 76 c1 c9 bf
       -0.19004399560540836 -0.20121655924672205
0006e0 e5 7d c9 8e 81 30 cb bf 33 55 96 e2 65 a0 cc bf
       -0.21241778823876625 -0.22364495815114935
0006f0 fe cc 56 68 0f 11 ce bf d7 e1 5d df 6b 82 cf bf
       -0.2348956355541318 -0.2461676445634697
000700 48 a2 4a 78 35 7a d0 bf d9 90 3e fb 7e 33 d1 bf
       -0.2574590372774179 -0.2687680676992961
000710 18 78 ea e5 0b ed d1 bf d9 f5 14 50 d6 a6 d2 bf
       -0.2800931687614834 -0.291432932095487
000720 11 bd cc e8 d8 60 d3 bf 7f bd 93 e5 0e 1b d4 bf
       -0.3027860902247577 -0.3141515008892028
000730 f4 f7 8c f3 73 d5 d4 bf 4a ac 6d 2a 04 90 d5 bf
       -0.32552813324207297 -0.3369150556888526
000740 7a 39 fa 00 bc 4a d6 bf ca 93 dd 42 98 05 d7 bf
       -0.3483114251656826 -0.3597164776786569
000750 95 6a b0 07 96 c0 d7 bf fc 61 0a ab b2 7b d8 bf
       -0.37112951994792215 -0.38254992201976257
000760 a9 8a 7c c5 eb 36 d9 bf 67 77 58 26 3f f2 d9 bf
       -0.3939771107272159 -0.4054105638950802
000770 71 e1 2a ce aa ad da bf 3d 16 d4 e9 2c 69 db bf
       -0.41684980519814646 -0.4282943995934579
000780 ec 1b 2b ce c3 24 dc bf 46 f6 1a f4 6d e0 dc bf
       -0.43974394925720506 -0.4511980899659175
000790 3d 91 2b f5 29 9c dd bf 1a 8c 69 88 f6 57 de bf
       -0.462656487869271 -0.47411883660805787
0007a0 75 ef a1 7f d2 13 df bf cb fe e7 c4 bc cf df bf
       -0.4855848547374458 -0.49705428341983965
0007b0 63 5c 2e 2c da 45 e0 bf 1e 44 18 27 dc a3 e0 bf
       -0.5085268843566947 -0.5200024379320245
0007c0 74 52 6c e6 e3 01 e1 bf c8 29 b9 05 f1 5f e1 bf
       -0.5314807415439433 -0.5429616081030924
0007d0 68 84 27 28 03 be e1 bf 99 79 d2 f7 19 1c e2 bf
       -0.5544448646798061 -0.565930351283714
0007e0 7d fb 2f 25 35 7a e2 bf e6 d9 87 66 54 d8 e2 bf
       -0.577417919761373 -0.5889074327995416
0007f0 21 b8 77 77 77 36 e3 bf e5 a0 82 18 9e 94 e3 bf
       -0.6003987630226711 -0.6118917921749271

d f8 [401]
000000 17 43 3a 6f 31 a4 b3 3f 17 43 3a 6f 31 a4 b3 3f
       0.07672413793103448 0.07672413793103448
000010 17 43 3a 6f 31 a4 b3 3f 17 43 3a 6f 31 a4 b3 3f
       0.07672413793103448 0.07672413793103448
000020 17 43 3a 6f 31 a4 b3 3f 17 43 3a 6f 31 a4 b3 3f
       0.07672413793103448 0.07672413793103448
000030 17 43 3a 6f 31 a4 b3 3f 17 43 3a 6f 31 a4 b3 3f
       0.07672413793103448 0.07672413793103448
000040 17 43 3a 6f 31 a4 b3 3f 17 43 3a 6f 31 a4 b3 3f
       0.07672413793103448 0.07672413793103448
000050 17 43 3a 6f 31 a4 b3 3f 17 43 3a 6f 31 a4 b3 3f
       0.07672413793103448 0.07672413793103448
000060 17 43 3a 6f 31 a4 b3 3f 17 43 3a 6f 31 a4 b3 3f
       0.07672413793103448 0.07672413793103448
000070 17 43 3a 6f 31 a4 b3 3f 17 43 3a 6f 31 a4 b3 3f
       0.07672413793103448 0.07672413793103448
000080 17 43 3a 6f 31 a4 b3 3f 17 43 3a 6f 31 a4 b3 3f
       0.07672413793103448 0.07672413793103448
000090 17 43 3a 6f 31 a4 b3 3f 17 43 3a 6f 31 a4 b3 3f
       0.07672413793103448 0.07672413793103448
0000a0 17 43 3a 6f 31 a4 b3 3f 17 43 3a 6f 31 a4 b3 3f
       0.07672413793103448 0.07672413793103448
0000b0 17 43 3a 6f 31 a4 b3 3f 17 43 3a 6f 31 a4 b3 3f
       0.07672413793103448 0.07672413793103448
0000c0 17 43 3a 6f 31 a4 b3 3f 17 43 3a 6f 31 a4 b3 3f
       0.07672413793103448 0.07672413793103448
0000d0 17 43 3a 6f 31 a4 b3 3f 17 43 3a 6f 31 a4 b3 3f
       0.07672413793103448 0.07672413793103448
0000e0 17 43 3a 6f 31 a4 b3 3f 17 43 3a 6f 31 a4 b3 3f
       0.07672413793103448 0.07672413793103448
0000f0 17 43 3a 6f 31 a4 b3 3f 17 43 3a 6f 31 a4 b3 3f
       0.07672413793103448 0.07672413793103448
000100 17 43 3a 6f 31 a4 b3 3f 17 43 3a 6f 31 a4 b3 3f
       0.07672413793103448 0.07672413793103448
000110 17 43 3a 6f 31 a4 b3 3f 17 43 3a 6f 31 a4 b3 3f
       0.07672413793103448 0.07672413793103448
000120 17 43 3a 6f 31 a4 b3 3f 17 43 3a 6f 31 a4 b3 3f
       0.07672413793103448 0.07672413793103448
000130 17 43 3a 6f 31 a4 b3 3f 17 43 3a 6f 31 a4 b3 3f
       0.07672413793103448 0.07672413793103448
000140 17 43 3a 6f 31 a4 b3 3f 17 43 3a 6f 31 a4 b3 3f
       0.07672413793103448 0.07672413793103448
000150 17 43 3a 6f 31 a4 b3 3f 17 43 3a 6f 31 a4 b3 3f
       0.07672413793103448 0.07672413793103448
000160 17 43 3a 6f 31 a4 b3 3f 17 43 3a 6f 31 a4 b3 3f
       0.07672413793103448 0.07672413793103448
000170 17 43 3a 6f 31 a4 b3 3f 17 43 3a 6f 31 a4 b3 3f
       0.07672413793103448 0.07672413793103448
000180 17 43 3a 6f 31 a4 b3 3f 17 43 3a 6f 31 a4 b3 3f
       0.07672413793103448 0.07672413793103448
000190 17 43 3a 6f 31 a4 b3 3f 17 43 3a 6f 31 a4 b3 3f
       0.07672413793103448 0.07672413793103448
0001a0 17 43 3a 6f 31 a4 b3 3f 17 43 3a 6f 31 a4 b3 3f
       0.07672413793103448 0.07672413793103448
0001b0 17 43 3a 6f 31 a4 b3 3f 17 43 3a 6f 31 a4 b3 3f
       0.07672413793103448 0.07672413793103448
0001c0 17 43 3a 6f 31 a4 b3 3f 17 43 3a 6f 31 a4 b3 3f
       0.07672413793103448 0.07672413793103448
0001d0 17 43 3a 6f 31 a4 b3 3f 17 43 3a 6f 31 a4 b3 3f
       0.07672413793103448 0.07672413793103448
0001e0 17 43 3a 6f 31 a4 b3 3f 17 43 3a 6f 31 a4 b3 3f
       0.07672413793103448 0.07672413793103448
0001f0 17 43 3a 6f 31 a4 b3 3f 17 43 3a 6f 31 a4 b3 3f
       0.07672413793103448 0.07672413793103448
000200 17 43 3a 6f 31 a4 b3 3f 17 43 3a 6f 31 a4 b3 3f
       0.07672413793103448 0.07672413793103448
000210 17 43 3a 6f 31 a4 b3 3f 17 43 3a 6f 31 a4 b3 3f
       0.07672413793103448 0.07672413793103448
000220 17 43 3a 6f 31 a4 b3 3f 17 43 3a 6f 31 a4 b3 3f
       0.07672413793103448 0.07672413793103448
000230 17 43 3a 6f 31 a4 b3 3f 17 43 3a 6f 31 a4 b3 3f
       0.07672413793103448 0.07672413793103448
000240 17 43 3a 6f 31 a4 b3 3f 17 43 3a 6f 31 a4 b3 3f
       0.07672413793103448 0.07672413793103448
000250 17 43 3a 6f 31 a4 b3 3f 17 43 3a 6f 31 a4 b3 3f
       0.07672413793103448 0.07672413793103448
000260 17 43 3a 6f 31 a4 b3 3f 17 43 3a 6f 31 a4 b3 3f
       0.07672413793103448 0.07672413793103448
000270 17 43 3a 6f 31 a4 b3 3f 17 43 3a 6f 31 a4 b3 3f
       0.07672413793103448 0.07672413793103448
000280 17 43 3a 6f 31 a4 b3 3f 17 43 3a 6f 31 a4 b3 3f
       0.07672413793103448 0.07672413793103448
000290 17 43 3a 6f 31 a4 b3 3f 17 43 3a 6f 31 a4 b3 3f
       0.07672413793103448 0.07672413793103448
0002a0 17 43 3a 6f 31 a4 b3 3f 17 43 3a 6f 31 a4 b3 3f
       0.07672413793103448 0.07672413793103448
0002b0 17 43 3a 6f 31 a4 b3 3f 17 43 3a 6f 31 a4 b3 3f
       0.07672413793103448 0.07672413793103448
0002c0 17 43 3a 6f 31 a4 b3 3f 17 43 3a 6f 31 a4 b3 3f
       0.07672413793103448 0.07672413793103448
0002d0 17 43 3a 6f 31 a4 b3 3f 17 43 3a 6f 31 a4 b3 3f
       0.07672413793103448 0.07672413793103448
0002e0 17 43 3a 6f 31 a4 b3 3f 17 43 3a 6f 31 a4 b3 3f
       0.07672413793103448 0.07672413793103448
0002f0 17 43 3a 6f 31 a4 b3 3f 17 43 3a 6f 31 a4 b3 3f
       0.07672413793103448 0.07672413793103448
000300 17 43 3a 6f 31 a4 b3 3f 17 43 3a 6f 31 a4 b3 3f
       0.07672413793103448 0.07672413793103448
000310 17 43 3a 6f 31 a4 b3 3f 17 43 3a 6f 31 a4 b3 3f
       0.07672413793103448 0.07672413793103448
000320 17 43 3a 6f 31 a4 b3 3f 17 43 3a 6f 31 a4 b3 3f
       0.07672413793103448 0.07672413793103448
000330 17 43 3a 6f 31 a4 b3 3f 17 43 3a 6f 31 a4 b3 3f
       0.07672413793103448 0.07672413793103448
000340 17 43 3a 6f 31 a4 b3 3f 17 43 3a 6f 31 a4 b3 3f
       0.07672413793103448 0.07672413793103448
000350 17 43 3a 6f 31 a4 b3 3f 17 43 3a 6f 31 a4 b3 3f
       0.07672413793103448 0.07672413793103448
000360 17 43 3a 6f 31 a4 b3 3f 17 43 3a 6f 31 a4 b3 3f
       0.07672413793103448 0.07672413793103448
000370 17 43 3a 6f 31 a4 b3 3f 17 43 3a 6f 31 a4 b3 3f
       0.07672413793103448 0.07672413793103448
000380 17 43 3a 6f 31 a4 b3 3f 17 43 3a 6f 31 a4 b3 3f
       0.07672413793103448 0.07672413793103448
000390 17 43 3a 6f 31 a4 b3 3f 17 43 3a 6f 31 a4 b3 3f
       0.07672413793103448 0.07672413793103448
0003a0 17 43 3a 6f 31 a4 b3 3f 17 43 3a 6f 31 a4 b3 3f
       0.07672413793103448 0.07672413793103448
0003b0 17 43 3a 6f 31 a4 b3 3f 17 43 3a 6f 31 a4 b3 3f
       0.07672413793103448 0.07672413793103448
0003c0 17 43 3a 6f 31 a4 b3 3f 17 43 3a 6f 31 a4 b3 3f
       0.07672413793103448 0.07672413793103448
0003d0 17 43 3a 6f 31 a4 b3 3f 17 43 3a 6f 31 a4 b3 3f
       0.07672413793103448 0.07672413793103448
0003e0 17 43 3a 6f 31 a4 b3 3f 17 43 3a 6f 31 a4 b3 3f
       0.07672413793103448 0.07672413793103448
0003f0 17 43 3a 6f 31 a4 b3 3f 17 43 3a 6f 31 a4 b3 3f
       0.07672413793103448 0.07672413793103448
000400 17 43 3a 6f 31 a4 b3 3f 17 43 3a 6f 31 a4 b3 3f
       0.07672413793103448 0.07672413793103448
000410 17 43 3a 6f 31 a4 b3 3f 17 43 3a 6f 31 a4 b3 3f
       0.07672413793103448 0.07672413793103448
000420 17 43 3a 6f 31 a4 b3 3f 17 43 3a 6f 31 a4 b3 3f
       0.07672413793103448 0.07672413793103448
000430 17 43 3a 6f 31 a4 b3 3f 17 43 3a 6f 31 a4 b3 3f
       0.07672413793103448 0.07672413793103448
000440 17 43 3a 6f 31 a4 b3 3f 17 43 3a 6f 31 a4 b3 3f
       0.07672413793103448 0.07672413793103448
000450 17 43 3a 6f 31 a4 b3 3f 17 43 3a 6f 31 a4 b3 3f
       0.07672413793103448 0.07672413793103448
000460 17 43 3a 6f 31 a4 b3 3f 17 43 3a 6f 31 a4 b3 3f
       0.07672413793103448 0.07672413793103448
000470 17 43 3a 6f 31 a4 b3 3f 17 43 3a 6f 31 a4 b3 3f
       0.07672413793103448 0.07672413793103448
000480 17 43 3a 6f 31 a4 b3 3f 17 43 3a 6f 31 a4 b3 3f
       0.07672413793103448 0.07672413793103448
000490 17 43 3a 6f 31 a4 b3 3f 17 43 3a 6f 31 a4 b3 3f
       0.07672413793103448 0.07672413793103448
0004a0 17 43 3a 6f 31 a4 b3 3f 17 43 3a 6f 31 a4 b3 3f
       0.07672413793103448 0.07672413793103448
0004b0 17 43 3a 6f 31 a4 b3 3f 17 43 3a 6f 31 a4 b3 3f
       0.07672413793103448 0.07672413793103448
0004c0 17 43 3a 6f 31 a4 b3 3f 17 43 3a 6f 31 a4 b3 3f
       0.07672413793103448 0.07672413793103448
0004d0 17 43 3a 6f 31 a4 b3 3f 17 43 3a 6f 31 a4 b3 3f
       0.07672413793103448 0.07672413793103448
0004e0 17 43 3a 6f 31 a4 b3 3f 17 43 3a 6f 31 a4 b3 3f
       0.07672413793103448 0.07672413793103448
0004f0 17 43 3a 6f 31 a4 b3 3f 17 43 3a 6f 31 a4 b3 3f
       0.07672413793103448 0.07672413793103448
000500 17 43 3a 6f 31 a4 b3 3f 17 43 3a 6f 31 a4 b3 3f
       0.07672413793103448 0.07672413793103448
000510 17 43 3a 6f 31 a4 b3 3f 17 43 3a 6f 31 a4 b3 3f
       0.07672413793103448 0.07672413793103448
000520 17 43 3a 6f 31 a4 b3 3f 17 43 3a 6f 31 a4 b3 3f
       0.07672413793103448 0.07672413793103448
000530 17 43 3a 6f 31 a4 b3 3f 17 43 3a 6f 31 a4 b3 3f
       0.07672413793103448 0.07672413793103448
000540 17 43 3a 6f 31 a4 b3 3f 17 43 3a 6f 31 a4 b3 3f
       0.07672413793103448 0.07672413793103448
000550 17 43 3a 6f 31 a4 b3 3f 17 43 3a 6f 31 a4 b3 3f
       0.07672413793103448 0.07672413793103448
000560 17 43 3a 6f 31 a4 b3 3f 17 43 3a 6f 31 a4 b3 3f
       0.07672413793103448 0.07672413793103448
000570 17 43 3a 6f 31 a4 b3 3f 17 43 3a 6f 31 a4 b3 3f
       0.07672413793103448 0.07672413793103448
000580 17 43 3a 6f 31 a4 b3 3f 17 43 3a 6f 31 a4 b3 3f
       0.07672413793103448 0.07672413793103448
000590 17 43 3a 6f 31 a4 b3 3f 17 43 3a 6f 31 a4 b3 3f
       0.07672413793103448 0.07672413793103448
0005a0 17 43 3a 6f 31 a4 b3 3f 17 43 3a 6f 31 a4 b3 3f
       0.07672413793103448 0.07672413793103448
0005b0 17 43 3a 6f 31 a4 b3 3f 17 43 3a 6f 31 a4 b3 3f
       0.07672413793103448 0.07672413793103448
0005c0 17 43 3a 6f 31 a4 b3 3f 17 43 3a 6f 31 a4 b3 3f
       0.07672413793103448 0.07672413793103448
0005d0 17 43 3a 6f 31 a4 b3 3f 17 43 3a 6f 31 a4 b3 3f
       0.07672413793103448 0.07672413793103448
0005e0 17 43 3a 6f 31 a4 b3 3f 17 43 3a 6f 31 a4 b3 3f
       0.07672413793103448 0.07672413793103448
0005f0 17 43 3a 6f 31 a4 b3 3f 17 43 3a 6f 31 a4 b3 3f
       0.07672413793103448 0.07672413793103448
000600 17 43 3a 6f 31 a4 b3 3f 17 43 3a 6f 31 a4 b3 3f
       0.07672413793103448 0.07672413793103448
000610 17 43 3a 6f 31 a4 b3 3f 17 43 3a 6f 31 a4 b3 3f
       0.07672413793103448 0.07672413793103448
000620 17 43 3a 6f 31 a4 b3 3f 17 43 3a 6f 31 a4 b3 3f
       0.07672413793103448 0.07672413793103448
000630 17 43 3a 6f 31 a4 b3 3f 17 43 3a 6f 31 a4 b3 3f
       0.07672413793103448 0.07672413793103448
000640 17 43 3a 6f 31 a4 b3 3f 17 43 3a 6f 31 a4 b3 3f
       0.07672413793103448 0.07672413793103448
000650 17 43 3a 6f 31 a4 b3 3f 17 43 3a 6f 31 a4 b3 3f
       0.07672413793103448 0.07672413793103448
000660 17 43 3a 6f 31 a4 b3 3f 17 43 3a 6f 31 a4 b3 3f
       0.07672413793103448 0.07672413793103448
000670 17 43 3a 6f 31 a4 b3 3f 17 43 3a 6f 31 a4 b3 3f
       0.07672413793103448 0.07672413793103448
000680 17 43 3a 6f 31 a4 b3 3f 17 43 3a 6f 31 a4 b3 3f
       0.07672413793103448 0.07672413793103448
000690 17 43 3a 6f 31 a4 b3 3f 17 43 3a 6f 31 a4 b3 3f
       0.07672413793103448 0.07672413793103448
0006a0 17 43 3a 6f 31 a4 b3 3f 17 43 3a 6f 31 a4 b3 3f
       0.07672413793103448 0.07672413793103448
0006b0 17 43 3a 6f 31 a4 b3 3f 17 43 3a 6f 31 a4 b3 3f
       0.07672413793103448 0.07672413793103448
0006c0 17 43 3a 6f 31 a4 b3 3f 17 43 3a 6f 31 a4 b3 3f
       0.07672413793103448 0.07672413793103448
0006d0 17 43 3a 6f 31 a4 b3 3f 17 43 3a 6f 31 a4 b3 3f
       0.07672413793103448 0.07672413793103448
0006e0 17 43 3a 6f 31 a4 b3 3f 17 43 3a 6f 31 a4 b3 3f
       0.07672413793103448 0.07672413793103448
0006f0 17 43 3a 6f 31 a4 b3 3f 17 43 3a 6f 31 a4 b3 3f
       0.07672413793103448 0.07672413793103448
000700 17 43 3a 6f 31 a4 b3 3f 17 43 3a 6f 31 a4 b3 3f
       0.07672413793103448 0.07672413793103448
000710 17 43 3a 6f 31 a4 b3 3f 17 43 3a 6f 31 a4 b3 3f
       0.07672413793103448 0.07672413793103448
000720 17 43 3a 6f 31 a4 b3 3f 17 43 3a 6f 31 a4 b3 3f
       0.07672413793103448 0.07672413793103448
000730 17 43 3a 6f 31 a4 b3 3f 17 43 3a 6f 31 a4 b3 3f
       0.07672413793103448 0.07672413793103448
000740 17 43 3a 6f 31 a4 b3 3f 17 43 3a 6f 31 a4 b3 3f
       0.07672413793103448 0.07672413793103448
000750 17 43 3a 6f 31 a4 b3 3f 17 43 3a 6f 31 a4 b3 3f
       0.07672413793103448 0.07672413793103448
000760 17 43 3a 6f 31 a4 b3 3f 17 43 3a 6f 31 a4 b3 3f
       0.07672413793103448 0.07672413793103448
000770 17 43 3a 6f 31 a4 b3 3f 17 43 3a 6f 31 a4 b3 3f
       0.07672413793103448 0.07672413793103448
000780 17 43 3a 6f 31 a4 b3 3f 17 43 3a 6f 31 a4 b3 3f
       0.07672413793103448 0.07672413793103448
000790 17 43 3a 6f 31 a4 b3 3f 17 43 3a 6f 31 a4 b3 3f
       0.07672413793103448 0.07672413793103448
0007a0 17 43 3a 6f 31 a4 b3 3f 17 43 3a 6f 31 a4 b3 3f
       0.07672413793103448 0.07672413793103448
0007b0 17 43 3a 6f 31 a4 b3 3f 17 43 3a 6f 31 a4 b3 3f
       0.07672413793103448 0.07672413793103448
0007c0 17 43 3a 6f 31 a4 b3 3f 17 43 3a 6f 31 a4 b3 3f
       0.07672413793103448 0.07672413793103448
0007d0 17 43 3a 6f 31 a4 b3 3f 17 43 3a 6f 31 a4 b3 3f
       0.07672413793103448 0.07672413793103448
0007e0 17 43 3a 6f 31 a4 b3 3f 17 43 3a 6f 31 a4 b3 3f
       0.07672413793103448 0.07672413793103448
0007f0 17 43 3a 6f 31 a4 b3 3f 17 43 3a 6f 31 a4 b3 3f
       0.07672413793103448 0.07672413793103448

zmax f8 []
000000 00 00 00 00 00 00 14 40
       5.0

hz_F f8 [401]
000000 9f cf 18 88 f5 42 9f 3f f4 aa bf 11 b1 6f a5 3f
       0.030528866225907 0.04186776487025226
000010 10 49 b1 72 ff a6 a7 3f c5 1c cf a4 2e 82 a8 3f
       0.04619596743636312 0.04786821138218892
000020 cb 37 15 65 73 d7 a8 3f 01 f2 5f 3f c9 f8 a8 3f
       0.04851875885888964 0.048773087488346085
000030 68 6e 4c 77 df 05 a9 3f df 5f 7d d0 07 0b a9 3f
       0.04887293177872892 0.048912281227501124
000040 42 09 95 24 12 0d a9 3f 16 fd 03 8c e1 0d a9 3f
       0.048927847829434615 0.04893402895140235
000050 2c 84 a3 34 34 0e a9 3f 65 5e 35 44 55 0e a9 3f
       0.048936492372157 0.048937477661351626
000060 0b 5a 9d 88 62 0e a9 3f 6d 2e 33 df 67 0e a9 3f
       0.048937873055070545 0.048938032146534784
000070 1f 98 96 05 6a 0e a9 3f 0c 03 84 e2 6a 0e a9 3f
       0.04893809622016953 0.04893812193950539
000080 bc 81 ec 39 6b 0e a9 3f 9d cc fc 5a 6b 0e a9 3f
       0.04893813211515716 0.048938135964271746
000090 ed b3 d1 65 6b 0e a9 3f 5a f6 7d 67 6b 0e a9 3f
       0.0489381372252423 0.04893813741999216
0000a0 57 07 59 65 6b 0e a9 3f 18 92 93 61 6b 0e a9 3f
       0.04893813717036604 0.048938136731326576
0000b0 b7 36 14 5d 6b 0e a9 3f aa f2 39 58 6b 0e a9 3f
       0.04893813620775005 0.04893813564283296
0000c0 90 d0 2b 53 6b 0e a9 3f 6c c8 f9 4d 6b 0e a9 3f
       0.04893813505432931 0.048938134449500875
0000d0 c9 25 aa 48 6b 0e a9 3f 9b 2d 3f 43 6b 0e a9 3f
       0.048938133831210325 0.04893813320048964
0000e0 e4 7a b9 3d 6b 0e a9 3f 50 de 18 38 6b 0e a9 3f
       0.04893813255761417 0.04893813190249985
0000f0 5c e0 5c 32 6b 0e a9 3f dd f1 84 2c 6b 0e a9 3f
       0.04893813123493437 0.04893813055466343
000100 de 4a 90 26 6b 0e a9 3f 2b 42 7e 20 6b 0e a9 3f
       0.04893812986133182 0.048938129154638986
000110 84 07 4e 1a 6b 0e a9 3f da cb fe 13 6b 0e a9 3f
       0.048938128434214995 0.04893812769969204
000120 d5 b7 8f 0d 6b 0e a9 3f bd f1 ff 06 6b 0e a9 3f
       0.04893812695068759 0.0489381261868149
000130 ab 91 4e 00 6b 0e a9 3f 86 ae 7a f9 6a 0e a9 3f
       0.048938125407662035 0.04893812461281492
000140 2e 45 83 f2 6a 0e a9 3f 88 5f 67 eb 6a 0e a9 3f
       0.04893812380181327 0.0489381229742199
000150 16 f8 25 e4 6a 0e a9 3f f8 f9 bd dc 6a 0e a9 3f
       0.04893812212957031 0.04893812126737268
000160 64 4a 2e d5 6a 0e a9 3f bd c2 75 cd 6a 0e a9 3f
       0.04893812038712467 0.048938119488302935
000170 2f 2e 93 c5 6a 0e a9 3f 8c 55 85 bd 6a 0e a9 3f
       0.048938118570358895 0.04893811763273978
000180 e3 ef 4a b5 6a 0e a9 3f e6 a4 e2 ac 6a 0e a9 3f
       0.048938116674861275 0.04893811569611177
000190 b5 18 4b a4 6a 0e a9 3f 6b d5 82 9b 6a 0e a9 3f
       0.048938114695873315 0.04893811367348174
0001a0 23 65 88 92 6a 0e a9 3f 93 35 5a 89 6a 0e a9 3f
       0.04893811262827288 0.048938111559532115
0001b0 98 a8 f6 7f 6a 0e a9 3f b7 1d 5c 76 6a 0e a9 3f
       0.0489381104665238 0.04893810934850811
0001c0 c2 cf 88 6c 6a 0e a9 3f fe e8 7a 62 6a 0e a9 3f
       0.048938108204680045 0.04893810703420519
0001d0 0b 96 30 58 6a 0e a9 3f a9 d0 a7 4d 6a 0e a9 3f
       0.04893810583625332 0.04893810460990384
0001e0 27 96 de 42 6a 0e a9 3f dd c3 d2 37 6a 0e a9 3f
       0.04893810335424247 0.04893810206829816
0001f0 53 2b 82 2c 6a 0e a9 3f 2d 6b ea 20 6a 0e a9 3f
       0.04893810075107887 0.04893809940150216
000200 58 2a 09 15 6a 0e a9 3f 0f de db 08 6a 0e a9 3f
       0.0489380980185003 0.048938096600917295
000210 57 e0 5f fc 69 0e a9 3f 01 7d 92 ef 69 0e a9 3f
       0.048938095147548814 0.04893809365716529
000220 ba d1 70 e2 69 0e a9 3f 99 de f7 d4 69 0e a9 3f
       0.04893809212845519 0.048938090560054444
000230 dd 8a 24 c7 69 0e a9 3f b6 89 f3 b8 69 0e a9 3f
       0.04893808895055483 0.048938087298455654
000240 a7 76 61 aa 69 0e a9 3f ca b6 6a 9b 69 0e a9 3f
       0.04893808560221418 0.04893808386019101
000250 b5 8b 0b 8c 69 0e a9 3f ae 07 40 7c 69 0e a9 3f
       0.048938082070683654 0.04893808023190559
000260 30 11 04 6c 69 0e a9 3f 32 51 53 5b 69 0e a9 3f
       0.048938078341992486 0.048938076398970756
000270 41 47 29 4a 69 0e a9 3f a4 30 81 38 69 0e a9 3f
       0.04893807440079324 0.04893807234529504
000280 4f 0e 56 26 69 0e a9 3f db a4 a2 13 69 0e a9 3f
       0.04893807023020413 0.048938068053141236
000290 70 75 61 00 69 0e a9 3f 90 af 8c ec 68 0e a9 3f
       0.04893806581160731 0.04893806350295826
0002a0 ad 41 1e d8 68 0e a9 3f 05 c5 0f c3 68 0e a9 3f
       0.04893806112443442 0.048938058673124764
0002b0 8d 76 5a ad 68 0e a9 3f 62 33 f7 96 68 0e a9 3f
       0.048938056145954346 0.048938053539677964
0002c0 9f 84 de 7f 68 0e a9 3f b0 7a 08 68 68 0e a9 3f
       0.04893805085090119 0.048938048076015206
0002d0 82 bb 6c 4f 68 0e a9 3f df 77 02 36 68 0e a9 3f
       0.04893804521122204 0.04893804225251563
0002e0 51 57 c0 1b 68 0e a9 3f c7 82 9c 00 68 0e a9 3f
       0.048938039195646106 0.048938036036138714
0002f0 8d 8a 8c e4 67 0e a9 3f c1 62 85 c7 67 0e a9 3f
       0.048938032769247554 0.048938029389949296
000300 a9 58 7b a9 67 0e a9 3f b6 05 62 8a 67 0e a9 3f
       0.04893802589292424 0.04893802227253323
000310 8d 3c 2c 6a 67 0e a9 3f f4 01 cc 48 67 0e a9 3f
       0.04893801852278399 0.04893801463731853
000320 9c 7e 32 26 67 0e a9 3f ed e3 4f 02 67 0e a9 3f
       0.04893801060938793 0.048938006431803995
000330 8f 6f 13 dd 66 0e a9 3f ff 34 6b b6 66 0e a9 3f
       0.048938002096945536 0.048937997596661724
000340 79 23 44 8e 66 0e a9 3f c1 ea 89 64 66 0e a9 3f
       0.048937992922282576 0.04893798806457062
000350 b9 d1 26 39 66 0e a9 3f be ab 03 0c 66 0e a9 3f
       0.04893798301364733 0.048937977758974224
000360 91 a4 07 dd 65 0e a9 3f 75 3a 18 ac 65 0e a9 3f
       0.04893797228926034 0.04893796659245179
000370 b8 fa 18 79 65 0e a9 3f c7 6e eb 43 65 0e a9 3f
       0.0489379606556119 0.04893795446488763
000380 e9 d9 6e 0c 65 0e a9 3f 69 20 80 d2 64 0e a9 3f
       0.048937948005391814 0.048937941261159086
000390 35 71 f9 95 64 0e a9 3f ea 25 b2 56 64 0e a9 3f
       0.04893793421499241 0.048937926848406324
0003a0 8b 66 7e 14 64 0e a9 3f 6f e8 2e cf 63 0e a9 3f
       0.048937919141463025 0.04893791107265676
0003b0 54 a1 90 86 63 0e a9 3f 58 59 6c 3a 63 0e a9 3f
       0.0489379026187772 0.04893789375471397
0003c0 9a 54 86 ea 62 0e a9 3f 10 d1 9d 96 62 0e a9 3f
       0.04893788445330323 0.04893787468509647
0003d0 d8 8d 6c 3e 62 0e a9 3f c3 33 a6 e1 61 0e a9 3f
       0.048937864418146126 0.048937853617736525
0003e0 e6 bd f7 7f 61 0e a9 3f 88 b7 06 19 61 0e a9 3f
       0.0489378422461149 0.04893783026214665
0003f0 d5 7e 70 ac 60 0e a9 3f 93 4d c9 39 60 0e a9 3f
       0.048937817620979075 0.04893780427360208
000400 4c 4b 9b c0 5f 0e a9 3f ad 59 65 40 5f 0e a9 3f
       0.048937790166425715 0.04893777524073371
000410 de c6 99 b8 5e 0e a9 3f 6c e3 9c 28 5e 0e a9 3f
       0.04893775943209076 0.048937742669699386
000420 e3 5b c3 8f 5d 0e a9 3f d9 3a 50 ed 5c 0e a9 3f
       0.048937724875649534 0.04893770596401276
000430 92 db 72 40 5c 0e a9 3f 6b 60 44 88 5b 0e a9 3f
       0.048937685839909 0.04893766439835264
000440 49 ef c4 c3 5a 0e a9 3f f6 58 d8 f1 59 0e a9 3f
       0.048937641522995685 0.04893761708460602
000450 77 79 42 11 59 0e a9 3f 93 d7 a2 20 58 0e a9 3f
       0.048937590939419566 0.04893756292714992
000460 04 ae 6f 1e 57 0e a9 3f f0 2d f0 08 56 0e a9 3f
       0.048937532868730954 0.04893750056370638
000470 33 b1 35 de 54 0e a9 3f 6d 0f 14 9c 53 0e a9 3f
       0.04893746578713589 0.04893742828610823
000480 be 53 18 40 52 0e a9 3f aa 30 7e c7 50 0e a9 3f
       0.04893738777551658 0.04893734393326217
000490 79 58 23 2f 4f 0e a9 3f a6 c4 78 73 4d 0e a9 3f
       0.04893729639449957 0.04893724474494236
0004a0 1f 22 71 90 4b 0e a9 3f a5 2a 6c 81 49 0e a9 3f
       0.04893718851286998 0.04893712715973678
0004b0 75 03 1e 41 47 0e a9 3f d0 c9 71 c9 44 0e a9 3f
       0.04893706006897151 0.04893698653258449
0004c0 bb 73 66 13 42 0e a9 3f 7a 8b e4 16 3f 0e a9 3f
       0.04893690573519601 0.04893681673481516
0004d0 f5 3f 8b ca 3b 0e a9 3f d5 d4 72 23 38 0e a9 3f
       0.048936718439676875 0.04893660958024674
0004e0 61 c8 e1 14 34 0e a9 3f 49 c7 f1 8f 2f 0e a9 3f
       0.048936488675182195 0.048936353989928856
0004f0 95 01 20 83 2a 0e a9 3f d6 30 c4 d9 24 0e a9 3f
       0.04893620348593967 0.048936034758385524
000500 58 77 67 7b 1e 0e a9 3f c0 db f2 4a 17 0e a9 3f
       0.04893584495924469 0.048935630702025446
000510 0d 81 aa 25 0f 0e a9 3f a7 88 e7 e1 05 0e a9 3f
       0.04893538794317651 0.04893511183378623
000520 f1 97 7e 4d fb 0d a9 3f 68 e0 ba 2b ef 0d a9 3f
       0.04893479653337341 0.04893443497479738
000530 04 74 ce 32 e1 0d a9 3f 5c 69 8e 08 d1 0d a9 3f
       0.04893401856609361 0.04893353681036913
000540 f5 a9 43 3e be 0d a9 3f 5b 02 47 4b a8 0d a9 3f
       0.04893297681867984 0.048932322682507766
000550 15 57 05 86 8e 0d a9 3f 4d b7 e6 1a 70 0d a9 3f
       0.04893155466076685 0.04893064812072954
000560 4e a9 62 00 4c 0d a9 3f 4a cc 49 e7 20 0d a9 3f
       0.0489295721502737 0.048928287728721445
000570 3a 73 ef 25 ed 0c a9 3f 81 4c 5b 9c ae 0c a9 3f
       0.04892674530103709 0.04892488154077857
000580 bc 58 f1 8e 62 0c a9 3f 2f 95 f6 73 05 0c a9 3f
       0.04892261500269643 0.0489198402458818
000590 48 82 dd ae 92 0b a9 3f 88 47 23 32 04 0b a9 3f
       0.04891641983590894 0.048912173385942614
0005a0 3b f8 6a fd 51 0a a9 3f a6 7b fa 68 71 09 a9 3f
       0.04890686243514649 0.04890016943431101
0005b0 d7 bc 0c 29 54 08 a9 3f e7 3d 84 e9 e6 06 a9 3f
       0.048891668330151176 0.04888078308624327
0005c0 08 d1 c1 53 0f 05 a9 3f 85 35 37 3a a9 02 a9 3f
       0.04886672875810133 0.04884842715874086
0005d0 28 e5 d9 83 82 ff a8 3f bb d9 e7 3e 55 fb a8 3f
       0.04882438525687355 0.04879251854793006
0005e0 6b 85 53 f5 be f5 a8 3f 14 d0 b2 e7 33 ee a8 3f
       0.04874989266114479 0.048692342790133264
0005f0 91 2b ca 20 ec e3 a8 3f 09 d2 46 45 c7 d5 a8 3f
       0.0486139097239039 0.04850599976217402
000600 ee 45 f6 6e 22 c2 a8 3f 7d cd 47 15 99 a6 a8 3f
       0.04835612873570115 0.04814604172488666
000610 7e a4 58 d0 a6 7f a8 3f 1a 34 30 b3 1b 48 a8 3f
       0.04784890454568201 0.0474251419292175
000620 ac 90 ef da 50 f8 a7 3f 2d e0 84 78 09 85 a7 3f
       0.04681637451702278 0.045936866723821225
000630 8b 57 bf 74 f5 dd a6 3f e9 8e 14 dc ed eb a5 3f
       0.04466216135158082 0.04281562148596924
000640 d2 79 01 8c 5b 8f a4 3f 74 de 41 af 1f 9d a3 3f
       0.04015623172812223 0.03830813421603532
000650 59 3e 24 ec 13 c7 a2 3f 90 76 e0 37 69 09 a2 3f
       0.036675093246341724 0.035228050299548674
000660 99 be 4c 5f d7 60 a1 3f 44 de 21 44 8d ca a0 3f
       0.033941965468668296 0.032795347754412535
000670 8e 54 b3 6f 21 44 a0 3f 0b a5 6a 77 07 97 9f 3f
       0.03176979530841449 0.030849568046197578
000680 06 26 4a da e0 bd 9e 3f f9 1e d6 bb c9 f9 9d 3f
       0.03002120334944005 0.029273178186058655
000690 f2 49 a1 58 2b 48 9d 3f 02 5a 74 a6 cc a6 9c 3f
       0.028595616612003334 0.027980039271904296
0006a0 f7 c1 e7 09 c4 13 9c 3f cd f9 cf 3f 6b 8d 9b 3f
       0.027419150452205412 0.026906657953071723
0006b0 f7 a0 c9 2b 55 12 9b 3f 59 46 b5 43 45 a1 9a 3f
       0.02643712119825722 0.026005823381018398
0006c0 cc 8a 18 58 28 39 9a 3f ff eb d0 81 0e d9 99 3f
       0.025608663918442784 0.025242067979188928
0006d0 17 10 95 05 26 80 99 3f 58 4c 12 05 b7 2d 99 3f
       0.02490291031905664 0.024588451084650437
0006e0 68 31 e1 db 1f e1 98 3f 05 d1 16 0c d2 99 98 3f
       0.024296281619443333 0.02402427862917113
0006f0 2b dc eb a2 4f 57 98 3f 27 37 e8 01 29 19 98 3f
       0.02377056533711312 0.02353347849025691
000700 fc 3a 4f fc fa de 97 3f 21 46 49 3b 6d a8 97 3f
       0.02331154026961267 0.02310343431810769
000710 13 40 8e dd 30 75 97 3f 29 fd 37 49 ff 44 97 3f
       0.022907985232052463 0.02272414097205658
000720 ec a5 f2 27 99 17 97 3f 19 b6 0b 87 c5 ec 96 3f
       0.022550957740042607 0.022387586944139757
000730 c9 d6 f0 15 51 c4 96 3f af b0 92 7e 0d 9e 96 3f
       0.02223326393524053 0.02208729825058303
000740 1d 25 da d3 d0 79 96 3f ad de fa 12 75 57 96 3f
       0.021949065142085823 0.021817998202748146
000750 75 a6 ee b4 d7 36 96 3f 70 ed d0 4d d9 17 96 3f
       0.02169358293364217 0.02157535111858294
000760 49 9f 2b 38 5d fa 95 3f 63 3d 91 4a 49 de 95 3f
       0.02146287589394483 0.021355767418126514
000770 3e 6e 1f 96 85 c3 95 3f 8b 93 b9 2c fc a9 95 3f
       0.021253669059531292 0.02115625403384373
000780 37 a6 f7 ed 98 91 95 3f ff c8 ea 59 49 7a 95 3f
       0.021063222431541653 0.020974298585039183
000790 5e 9f f8 68 fc 63 95 3f 1f 98 29 68 a2 4e 95 3f
       0.020889228732044678 0.02080777893788632
0007a0 d3 60 5c d9 2c 3a 95 3f 6c be e4 56 8e 26 95 3f
       0.020729733244565573 0.02065489201885244
0007b0 2c ec 2b 7a ba 13 95 3f 90 05 f7 c4 a5 01 95 3f
       0.020583070475350393 0.020514097353730387
0007c0 58 cb 03 8d 45 f0 94 3f 75 a9 b6 e9 8f df 94 3f
       0.02044781373201529 0.020384071960202605
0007d0 53 62 9d a3 7b cf 94 3f 8a a6 91 25 00 c0 94 3f
       0.020322734700444944 0.020263674061800553
0007e0 cb 73 4d 6f 15 b1 94 3f ea 89 48 09 b4 a2 94 3f
       0.020206770819061675 0.020151913706408488
0007f0 5e 86 bb f9 d4 94 94 3f b4 2d a9 ba 71 87 94 3f
       0.020098998777831383 0.020047928827165953
