onecap_model_with_structure_ambiguity/output/lower_triangular_two_ambiguous_parameters/Delta_10.0_distorted_0/logadjustment_1_boundary_1/zmax_5.0_zscale_2.0/delta_0.02/q_0.05_gamma_10.0_rho_1.0/model.npz (npz, 126264 bytes, 58 tensors)

clowerlim f8 []
00000000: 2d43 1ceb e236 1a3f
0.0001

zmin f8 []
00000000: 0000 0000 0000 14c0
-5.0

Delta f8 []
00000000: 0000 0000 0000 2440
10.0

s1_F f8 [401]
00000000: 0bc0 f285 94a8 e8bf d677 8019 eaa0 e6bf
00000010: d60e 9ec1 030e e6bf f6e8 da99 25cf e5bf
00000020: a2da 6569 37a8 e5bf e554 ccc4 9988 e5bf
00000030: 9de0 b06c 466b e5bf 52ad 9090 ac4e e5bf
00000040: 48f5 14bd 4d32 e5bf d17b c6c9 0116 e5bf
00000050: f828 08e6 bbf9 e4bf aef0 83f6 77dd e4bf
00000060: d0d9 eda8 34c1 e4bf fa18 fa8f f1a4 e4bf
00000070: e194 3488 ae88 e4bf 234b 1186 6b6c e4bf
00000080: 8e99 c985 2850 e4bf d81f 2086 e533 e4bf
00000090: d740 ac86 a217 e4bf 8b5f 4b87 5ffb e3bf
000000a0: af01 f287 1cdf e3bf a456 9c88 d9c2 e3bf
000000b0: 8c1c 4989 96a6 e3bf eeed f789 538a e3bf
000000c0: 0cae a88a 106e e3bf fc58 5b8b cd51 e3bf
000000d0: f4f3 0f8c 8a35 e3bf ea86 c68c 4719 e3bf
000000e0: 391b 7f8d 04fd e2bf 37bc 398e c1e0 e2bf
000000f0: b971 f68e 7ec4 e2bf 5c48 b58f 3ba8 e2bf
00000100: c14a 7690 f88b e2bf 7a83 3991 b56f e2bf
00000110: 25ff fe91 7253 e2bf f8c8 c692 2f37 e2bf
00000120: cced 9093 ec1a e2bf a679 5d94 a9fe e1bf
00000130: 547a 2c95 66e2 e1bf 76fc fd95 23c6 e1bf
00000140: f10e d296 e0a9 e1bf 11bf a897 9d8d e1bf
00000150: 241b 8298 5a71 e1bf 0233 5e99 1755 e1bf
00000160: 5815 3d9a d438 e1bf 14d3 1e9b 911c e1bf
00000170: 537b 039c 4e00 e1bf 7020 eb9c 0be4 e0bf
00000180: 1bd3 d59d c8c7 e0bf b4a5 c39e 85ab e0bf
00000190: aaa9 b49f 428f e0bf dff3 a8a0 ff72 e0bf
000001a0: 9097 a0a1 bc56 e0bf efa7 9ba2 793a e0bf
000001b0: a23b 9aa3 361e e0bf a667 9ca4 f301 e0bf
000001c0: bc85 444b 61cb dfbf fcc6 574d db92 dfbf
000001d0: 5ec6 724f 555a dfbf 58b3 9551 cf21 dfbf
000001e0: c8c2 c053 49e9 debf d827 f455 c3b0 debf
000001f0: 931a 3058 3d78 debf f1d3 745a b73f debf
00000200: 1b8f c25c 3107 debf 9f87 195f abce ddbf
00000210: a9ff 7961 2596 ddbf ad35 e463 9f5d ddbf
00000220: 886f 5866 1925 ddbf 30f2 d668 93ec dcbf
00000230: b608 606b 0db4 dcbf 16fc f36d 877b dcbf
00000240: f91c 9370 0143 dcbf 64bd 3d73 7b0a dcbf
00000250: 7130 f475 f5d1 dbbf 2fd1 b678 6f99 dbbf
00000260: e6f8 857b e960 dbbf 7106 627e 6328 dbbf
00000270: ec5e 4b81 ddef dabf 0a6a 4284 57b7 dabf
00000280: ec90 4787 d17e dabf b444 5b8a 4b46 dabf
00000290: a4fa 7d8d c50d dabf f32a b090 3fd5 d9bf
000002a0: 5155 f293 b99c d9bf cdfd 4497 3364 d9bf
000002b0: 00af a89a ad2b d9bf b8f8 1d9e 27f3 d8bf
000002c0: a570 a5a1 a1ba d8bf abb4 3fa5 1b82 d8bf
000002d0: 596b eda8 9549 d8bf 453e afac 0f11 d8bf
000002e0: cae3 85b0 89d8 d7bf cf16 72b4 03a0 d7bf
000002f0: 959e 74b8 7d67 d7bf 3149 8ebc f72e d7bf
00000300: 0df1 bfc0 71f6 d6bf b77a 0ac5 ebbd d6bf
00000310: 43d4 6ec9 6585 d6bf 00fb edcd df4c d6bf
00000320: fdf6 88d2 5914 d6bf d8de 40d7 d3db d5bf
00000330: eed7 16dc 4da3 d5bf a715 0ce1 c76a d5bf
00000340: 5bdf 21e6 4132 d5bf da8a 59eb bbf9 d4bf
00000350: 8081 b4f0 35c1 d4bf bb42 34f6 af88 d4bf
00000360: ba61 dafb 2950 d4bf 2a8a a801 a417 d4bf
00000370: fc7f a007 1edf d3bf f120 c40d 98a6 d3bf
00000380: 9069 1514 126e d3bf ce73 961a 8c35 d3bf
00000390: ae7a 4921 06fd d2bf c1dc 3028 80c4 d2bf
000003a0: 731f 4f2f fa8b d2bf cef1 a636 7453 d2bf
000003b0: 4e2f 3b3e ee1a d2bf 10e4 0e46 68e2 d1bf
000003c0: b250 254e e2a9 d1bf 9dec 8156 5c71 d1bf
000003d0: 256f 285f d638 d1bf 50d2 1c68 5000 d1bf
000003e0: 4557 6371 cac7 d0bf 728f 007b 448f d0bf
000003f0: a061 f984 be56 d0bf ec14 538f 381e d0bf
00000400: 0ca5 2634 65cb cfbf b472 804a 595a cfbf
00000410: 58c1 c061 4de9 cebf 65cf f579 4178 cebf
00000420: 7703 2f93 3507 cebf cd0c 7dad 2996 cdbf
00000430: 8402 f2c8 1d25 cdbf 128c a1e5 11b4 ccbf
00000440: ee04 a103 0643 ccbf 08b5 0723 fad1 cbbf
00000450: 50ff ee43 ee60 cbbf 22a1 7266 e2ef cabf
00000460: 94f7 b08a d67e cabf 5648 cbb0 ca0d cabf
00000470: d720 e6d8 be9c c9bf 84b5 2903 b32b c9bf
00000480: aa57 c22f a7ba c8bf 32f7 e05e 9b49 c8bf
00000490: 21b9 bb90 8fd8 c7bf 80a5 8ec5 8367 c7bf
000004a0: 8b6f 9cfd 77f6 c6bf cc5b 2f39 6c85 c6bf
000004b0: 614a 9a78 6014 c6bf f1ef 39bc 54a3 c5bf
000004c0: 433b 7604 4932 c5bf 5400 c451 3dc1 c4bf
000004d0: 53e2 a6a4 3150 c4bf d99c b3fd 25df c3bf
000004e0: 2dae 925d 1a6e c3bf 3681 03c5 0efd c2bf
000004f0: 262d e034 038c c2bf 88ec 21ae f71a c2bf
00000500: 0a6e e631 eca9 c1bf bb35 76c1 e038 c1bf
00000510: 5646 4c5e d5c7 c0bf b15d 1f0a ca56 c0bf
00000520: 9c4a da8d 7dcb bfbf 648a 0f2e 67e9 bebf
00000530: d1e6 4cfa 5007 bebf 9a71 f3f8 3a25 bdbf
00000540: a4a8 8831 2543 bcbf 9bce f3ac 0f61 bbbf
00000550: 50de c975 fa7e babf 30dc ab98 e59c b9bf
00000560: c364 bc24 d1ba b8bf 75bb 322c bdd8 b7bf
00000570: 765a 13c5 a9f6 b6bf 8051 180a 9714 b6bf
00000580: b39b d61b 8532 b5bf c253 3122 7450 b4bf
00000590: 773f 304e 646e b3bf 48d0 54dc 558c b2bf
000005a0: 2775 8f17 49aa b1bf d498 fe5c 3ec8 b0bf
000005b0: 705b 5041 6ccc afbf d3b5 c8e6 6108 aebf
000005c0: ab04 5f14 5f44 acbf b2c7 168e 6580 aabf
000005d0: 3276 d486 77bc a8bf 47f4 68b7 97f8 a6bf
000005e0: 2f10 2e75 c934 a5bf 247c f9c1 1071 a3bf
000005f0: 0406 1d48 72ad a1bf 767c 014f e6d3 9fbf
00000600: f914 4abd 304d 9cbf c48c 24d0 cac6 98bf
00000610: 53a3 7488 b240 95bf e2a7 25db d0ba 91bf
00000620: 3f61 8a27 c369 8cbf 8ca4 0b7c 875c 85bf
00000630: cc19 a460 6f96 7cbf 0760 e4c2 ccc0 6cbf
00000640: 0000 0000 0000 0080 7706 783c 52cb 71bf
00000650: ae6d 3002 27e2 81bf e896 c61e 4ff3 8abf
00000660: f7b7 3ad3 910b 92bf 9fc5 ea8a e9a5 96bf
00000670: 982d 4d4d db47 9bbf 0c15 4cdf a7f0 9fbf
00000680: 1c4f 5e69 d14f a2bf d4ea b685 18aa a4bf
00000690: b8e8 719f e306 a7bf c22f 583e f465 a9bf
000006a0: 2e05 3664 12c7 abbf c0e9 57e5 0b2a aebf
000006b0: 6b1b f5e6 5947 b0bf 9971 5aea 707a b1bf
000006c0: 30df 87ed 38ae b2bf 6515 c3bc a1e2 b3bf
000006d0: 7c2a 32cc 9c17 b5bf eac2 a309 1d4d b6bf
000006e0: 3812 5fb3 1683 b7bf f81f 8233 7fb9 b8bf
000006f0: 361f 79ff 4cf0 b9bf 6e79 207b 7727 bbbf
00000700: ed70 2bdf f65e bcbf 3e1e 7222 c496 bdbf
00000710: fe62 d2e5 d8ce bebf 9509 2cb1 9703 c0bf
00000720: b14e b42c e19f c0bf 5f0a 5b83 463c c1bf
00000730: 181c e289 c5d8 c1bf 1d31 6846 5c75 c2bf
00000740: 8e60 79eb 0812 c3bf 2318 aad3 c9ae c3bf
00000750: 683d ac7d 9d4b c4bf b149 d088 82e8 c4bf
00000760: 1af5 e5b1 7785 c5bf ff62 71d0 7b22 c6bf
00000770: d83c 2bd4 8dbf c6bf 0332 c3c2 ac5c c7bf
00000780: e463 ddb5 d7f9 c7bf 7e2f 44d9 0d97 c8bf
00000790: 1e85 4869 4e34 c9bf adab 4bb1 98d1 c9bf
000007a0: b2f8 6d0a ec6e cabf 8e6f 5eda 470c cbbf
000007b0: 22d5 4792 aba9 cbbf 2407 d8ad 1647 ccbf
000007c0: 30e3 5eb2 88e4 ccbf ed40 022e 0182 cdbf
000007d0: 90d5 04b7 7f1f cebf 5815 1eeb 03bd cebf
000007e0: 0954 e16e 8d5a cfbf e5ab 32ed 1bf8 cfbf
000007f0: 451b 648b d74a d0bf 1b3c db50 a399 d0bf
-0.7705786338974588 -0.7071428773958768 -0.6892107755270114 -0.6815364842398413 -0.6767842348625275 -0.6729248851503625 -0.6693451044912028 -0.6658537696397764
-0.6623905842786053 -0.6589363995479919 -0.6554851048288404 -0.6520347418550239 -0.6485846804997042 -0.6451347171830826 -0.6416847858678488 -0.6382348650462045
-0.6347849476849647 -0.6313350314749142 -0.6278851156548865 -0.6244351999730368 -0.6209852843458544 -0.6175353687455822 -0.6140854531630722 -0.6106355375954402
-0.6071856220418694 -0.6037357065022486 -0.6002857909767259 -0.5968358754655274 -0.5933859599689192 -0.5899360444872234 -0.5864861290206625 -0.5830362135695952
-0.5795862981343235 -0.5761363827151478 -0.5726864673124267 -0.5692365519264788 -0.5657866365576694 -0.5623367212063399 -0.5588868058728829 -0.555436890557657
-0.5519869752610856 -0.5485370599835467 -0.5450871447254468 -0.5416372294872362 -0.5381873142693321 -0.5347373990722155 -0.5312874838963161 -0.5278375687421555
-0.524387653610208 -0.5209377385009959 -0.5174878234150146 -0.5140379083528578 -0.5105879933150721 -0.5071380783022031 -0.5036881633148946 -0.5002382483537431
-0.496788333419399 -0.4933384185124934 -0.4898885036337556 -0.48643858878386004 -0.48298867396355805 -0.4795387591735767 -0.4760888444147124 -0.4726389296877747
-0.4691890149936044 -0.4657391003330477 -0.4622891857070451 -0.458839271116484 -0.45538935656235724 -0.45193944204564485 -0.44848952756741356 -0.44503961312870055
-0.44158969873065207 -0.4381397843744337 -0.43468987006122634 -0.43123995579232405 -0.4277900415689956 -0.4243401273925889 -0.4208902132645409 -0.4174402991863252
-0.41399038515943576 -0.4105404711854803 -0.4070905572661252 -0.40364064340307876 -0.40019072959815555 -0.39674081585323223 -0.3932909021702784 -0.38984098855133764
-0.38639107499853714 -0.38294116151412066 -0.37949124810045515 -0.37604133475995055 -0.3725914214951983 -0.36914150830885445 -0.36569159520375055 -0.3622416821828152
-0.3587917692491523 -0.35534185640600974 -0.35189194365677084 -0.34844203100503535 -0.34499211845455574 -0.3415422060092914 -0.3380922936734113 -0.33464238145128394
-0.33119246934756114 -0.32774255736710034 -0.3242926455150368 -0.3208427337968193 -0.31739282221817755 -0.3139429107851891 -0.31049299950427645 -0.3070430883822289
-0.303593177426273 -0.30014326664405366 -0.2966933560436854 -0.29324344563378807 -0.28979353542353364 -0.28634362542268554 -0.2828937156416388 -0.27944380609147945
-0.27599389678403974 -0.2725439877319305 -0.26909407894867093 -0.265644170448728 -0.2621942622475795 -0.25874435436184406 -0.2552944468093532 -0.2518445396093074
-0.2483946327823009 -0.24494472635060094 -0.24149482033818503 -0.2380449147709626 -0.23459500967694755 -0.23114510508648892 -0.22769520103249274 -0.2242452975507097
-0.2207953946799885 -0.21734549246267698 -0.21389559094495292 -0.2104456901772745 -0.2069957902148728 -0.20354589111826965 -0.2000959929539536 -0.19664609579505676
-0.19319619972219232 -0.18974630482437643 -0.18629641120009757 -0.1828465189585522 -0.17939662822106714 -0.17594673912273462 -0.17249685181430421 -0.16904696646440656
-0.16559708326209419 -0.16214720241987612 -0.15869732417719948 -0.15524744880460764 -0.1517975766085881 -0.14834770793732738 -0.14489784318753002 -0.14144798281254034
-0.1379981273320115 -0.13454827734351035 -0.13109843353645328 -0.12764859670890652 -0.12419876778794009 -0.12074894785431806 -0.11729913817262207 -0.1138493402281199
-0.11039955577203614 -0.10694978687734606 -0.1035000360078524 -0.10005030610396726 -0.09660060068962921 -0.09315092400605159 -0.08970128117958062 -0.08625167843303494
-0.08280212335249253 -0.07935262522489864 -0.07590319546602396 -0.07245384816343503 -0.06900460076527236 -0.0655554749524499 -0.062106497738731004 -0.05865770284831808
-0.05520913242026756 -0.05176083907589603 -0.048312888344508656 -0.044865361346162085 -0.041418357423964706 -0.037971996000799174 -0.03452641611375998 -0.03108177048886459
-0.027638207963282622 -0.024195832208658855 -0.020754613474454797 -0.017314208388974246 -0.01387360062044307 -0.01043039176279794 -0.0069794035609959774 -0.003509902882012031
-0.0 -0.004344292864972502 -0.008732132677372242 -0.013159387709332518 -0.017622259633462502 -0.02211728010542446 -0.026641298859698986 -0.03119146633527685
-0.03576521311984335 -0.040360227892468764 -0.04497443505620552 -0.0496059728721714 -0.05425317261961947 -0.058914539094945706 -0.06358873261079416 -0.06827455255046856
-0.07297092246141967 -0.07767687662552232 -0.08239154801609944 -0.08711415753692689 -0.0918440044325245 -0.09658045775915969 -0.1013229488099768 -0.10607096439387018
-0.11082404087523275 -0.1155817588897827 -0.12034373865970946 -0.12510963583924864 -0.1298791378290978 -0.13465196050499892 -0.1394278453119291 -0.14420655668107765
-0.1489878797317527 -0.15377161822488103 -0.15855759273879788 -0.16334563904145008 -0.16813560663641952 -0.17292735746266172 -0.17772076473054343 -0.18251571187865076
-0.18731209163777784 -0.19210980519016724 -0.19690876141343322 -0.2017088761998286 -0.2065100718427338 -0.2113122764829964 -0.21611542360884878 -0.22091945160360027
-0.22572430333618732 -0.23052992579005807 -0.23533626972645694 -0.2401432893786175 -0.24495094217368799 -0.24975918847971382 -0.2545679913750301 -0.25937731643802103

d f8 [401]
00000000: 1743 3a6f 31a4 b33f 1743 3a6f 31a4 b33f
00000010: 1743 3a6f 31a4 b33f 1743 3a6f 31a4 b33f
00000020: 1743 3a6f 31a4 b33f 1743 3a6f 31a4 b33f
00000030: 1743 3a6f 31a4 b33f 1743 3a6f 31a4 b33f
00000040: 1743 3a6f 31a4 b33f 1743 3a6f 31a4 b33f
00000050: 1743 3a6f 31a4 b33f 1743 3a6f 31a4 b33f
00000060: 1743 3a6f 31a4 b33f 1743 3a6f 31a4 b33f
00000070: 1743 3a6f 31a4 b33f 1743 3a6f 31a4 b33f
00000080: 1743 3a6f 31a4 b33f 1743 3a6f 31a4 b33f
00000090: 1743 3a6f 31a4 b33f 1743 3a6f 31a4 b33f
000000a0: 1743 3a6f 31a4 b33f 1743 3a6f 31a4 b33f
000000b0: 1743 3a6f 31a4 b33f 1743 3a6f 31a4 b33f
000000c0: 1743 3a6f 31a4 b33f 1743 3a6f 31a4 b33f
000000d0: 1743 3a6f 31a4 b33f 1743 3a6f 31a4 b33f
000000e0: 1743 3a6f 31a4 b33f 1743 3a6f 31a4 b33f
000000f0: 1743 3a6f 31a4 b33f 1743 3a6f 31a4 b33f
00000100: 1743 3a6f 31a4 b33f 1743 3a6f 31a4 b33f
00000110: 1743 3a6f 31a4 b33f 1743 3a6f 31a4 b33f
00000120: 1743 3a6f 31a4 b33f 1743 3a6f 31a4 b33f
00000130: 1743 3a6f 31a4 b33f 1743 3a6f 31a4 b33f
00000140: 1743 3a6f 31a4 b33f 1743 3a6f 31a4 b33f
00000150: 1743 3a6f 31a4 b33f 1743 3a6f 31a4 b33f
00000160: 1743 3a6f 31a4 b33f 1743 3a6f 31a4 b33f
00000170: 1743 3a6f 31a4 b33f 1743 3a6f 31a4 b33f
00000180: 1743 3a6f 31a4 b33f 1743 3a6f 31a4 b33f
00000190: 1743 3a6f 31a4 b33f 1743 3a6f 31a4 b33f
000001a0: 1743 3a6f 31a4 b33f 1743 3a6f 31a4 b33f
000001b0: 1743 3a6f 31a4 b33f 1743 3a6f 31a4 b33f
000001c0: 1743 3a6f 31a4 b33f 1743 3a6f 31a4 b33f
000001d0: 1743 3a6f 31a4 b33f 1743 3a6f 31a4 b33f
000001e0: 1743 3a6f 31a4 b33f 1743 3a6f 31a4 b33f
000001f0: 1743 3a6f 31a4 b33f 1743 3a6f 31a4 b33f
00000200: 1743 3a6f 31a4 b33f 1743 3a6f 31a4 b33f
00000210: 1743 3a6f 31a4 b33f 1743 3a6f 31a4 b33f
00000220: 1743 3a6f 31a4 b33f 1743 3a6f 31a4 b33f
00000230: 1743 3a6f 31a4 b33f 1743 3a6f 31a4 b33f
00000240: 1743 3a6f 31a4 b33f 1743 3a6f 31a4 b33f
00000250: 1743 3a6f 31a4 b33f 1743 3a6f 31a4 b33f
00000260: 1743 3a6f 31a4 b33f 1743 3a6f 31a4 b33f
00000270: 1743 3a6f 31a4 b33f 1743 3a6f 31a4 b33f
00000280: 1743 3a6f 31a4 b33f 1743 3a6f 31a4 b33f
00000290: 1743 3a6f 31a4 b33f 1743 3a6f 31a4 b33f
000002a0: 1743 3a6f 31a4 b33f 1743 3a6f 31a4 b33f
000002b0: 1743 3a6f 31a4 b33f 1743 3a6f 31a4 b33f
000002c0: 1743 3a6f 31a4 b33f 1743 3a6f 31a4 b33f
000002d0: 1743 3a6f 31a4 b33f 1743 3a6f 31a4 b33f
000002e0: 1743 3a6f 31a4 b33f 1743 3a6f 31a4 b33f
000002f0: 1743 3a6f 31a4 b33f 1743 3a6f 31a4 b33f
00000300: 1743 3a6f 31a4 b33f 1743 3a6f 31a4 b33f
00000310: 1743 3a6f 31a4 b33f 1743 3a6f 31a4 b33f
00000320: 1743 3a6f 31a4 b33f 1743 3a6f 31a4 b33f
00000330: 1743 3a6f 31a4 b33f 1743 3a6f 31a4 b33f
00000340: 1743 3a6f 31a4 b33f 1743 3a6f 31a4 b33f
00000350: 1743 3a6f 31a4 b33f 1743 3a6f 31a4 b33f
00000360: 1743 3a6f 31a4 b33f 1743 3a6f 31a4 b33f
00000370: 1743 3a6f 31a4 b33f 1743 3a6f 31a4 b33f
00000380: 1743 3a6f 31a4 b33f 1743 3a6f 31a4 b33f
00000390: 1743 3a6f 31a4 b33f 1743 3a6f 31a4 b33f
000003a0: 1743 3a6f 31a4 b33f 1743 3a6f 31a4 b33f
000003b0: 1743 3a6f 31a4 b33f 1743 3a6f 31a4 b33f
000003c0: 1743 3a6f 31a4 b33f 1743 3a6f 31a4 b33f
000003d0: 1743 3a6f 31a4 b33f 1743 3a6f 31a4 b33f
000003e0: 1743 3a6f 31a4 b33f 1743 3a6f 31a4 b33f
000003f0: 1743 3a6f 31a4 b33f 1743 3a6f 31a4 b33f
00000400: 1743 3a6f 31a4 b33f 1743 3a6f 31a4 b33f
00000410: 1743 3a6f 31a4 b33f 1743 3a6f 31a4 b33f
00000420: 1743 3a6f 31a4 b33f 1743 3a6f 31a4 b33f
00000430: 1743 3a6f 31a4 b33f 1743 3a6f 31a4 b33f
00000440: 1743 3a6f 31a4 b33f 1743 3a6f 31a4 b33f
00000450: 1743 3a6f 31a4 b33f 1743 3a6f 31a4 b33f
00000460: 1743 3a6f 31a4 b33f 1743 3a6f 31a4 b33f
00000470: 1743 3a6f 31a4 b33f 1743 3a6f 31a4 b33f
00000480: 1743 3a6f 31a4 b33f 1743 3a6f 31a4 b33f
00000490: 1743 3a6f 31a4 b33f 1743 3a6f 31a4 b33f
000004a0: 1743 3a6f 31a4 b33f 1743 3a6f 31a4 b33f
000004b0: 1743 3a6f 31a4 b33f 1743 3a6f 31a4 b33f
000004c0: 1743 3a6f 31a4 b33f 1743 3a6f 31a4 b33f
000004d0: 1743 3a6f 31a4 b33f 1743 3a6f 31a4 b33f
000004e0: 1743 3a6f 31a4 b33f 1743 3a6f 31a4 b33f
000004f0: 1743 3a6f 31a4 b33f 1743 3a6f 31a4 b33f
00000500: 1743 3a6f 31a4 b33f 1743 3a6f 31a4 b33f
00000510: 1743 3a6f 31a4 b33f 1743 3a6f 31a4 b33f
00000520: 1743 3a6f 31a4 b33f 1743 3a6f 31a4 b33f
00000530: 1743 3a6f 31a4 b33f 1743 3a6f 31a4 b33f
00000540: 1743 3a6f 31a4 b33f 1743 3a6f 31a4 b33f
00000550: 1743 3a6f 31a4 b33f 1743 3a6f 31a4 b33f
00000560: 1743 3a6f 31a4 b33f 1743 3a6f 31a4 b33f
00000570: 1743 3a6f 31a4 b33f 1743 3a6f 31a4 b33f
00000580: 1743 3a6f 31a4 b33f 1743 3a6f 31a4 b33f
00000590: 1743 3a6f 31a4 b33f 1743 3a6f 31a4 b33f
000005a0: 1743 3a6f 31a4 b33f 1743 3a6f 31a4 b33f
000005b0: 1743 3a6f 31a4 b33f 1743 3a6f 31a4 b33f
000005c0: 1743 3a6f 31a4 b33f 1743 3a6f 31a4 b33f
000005d0: 1743 3a6f 31a4 b33f 1743 3a6f 31a4 b33f
000005e0: 1743 3a6f 31a4 b33f 1743 3a6f 31a4 b33f
000005f0: 1743 3a6f 31a4 b33f 1743 3a6f 31a4 b33f
00000600: 1743 3a6f 31a4 b33f 1743 3a6f 31a4 b33f
00000610: 1743 3a6f 31a4 b33f 1743 3a6f 31a4 b33f
00000620: 1743 3a6f 31a4 b33f 1743 3a6f 31a4 b33f
00000630: 1743 3a6f 31a4 b33f 1743 3a6f 31a4 b33f
00000640: 1743 3a6f 31a4 b33f 1743 3a6f 31a4 b33f
00000650: 1743 3a6f 31a4 b33f 1743 3a6f 31a4 b33f
00000660: 1743 3a6f 31a4 b33f 1743 3a6f 31a4 b33f
00000670: 1743 3a6f 31a4 b33f 1743 3a6f 31a4 b33f
00000680: 1743 3a6f 31a4 b33f 1743 3a6f 31a4 b33f
00000690: 1743 3a6f 31a4 b33f 1743 3a6f 31a4 b33f
000006a0: 1743 3a6f 31a4 b33f 1743 3a6f 31a4 b33f
000006b0: 1743 3a6f 31a4 b33f 1743 3a6f 31a4 b33f
000006c0: 1743 3a6f 31a4 b33f 1743 3a6f 31a4 b33f
000006d0: 1743 3a6f 31a4 b33f 1743 3a6f 31a4 b33f
000006e0: 1743 3a6f 31a4 b33f 1743 3a6f 31a4 b33f
000006f0: 1743 3a6f 31a4 b33f 1743 3a6f 31a4 b33f
00000700: 1743 3a6f 31a4 b33f 1743 3a6f 31a4 b33f
00000710: 1743 3a6f 31a4 b33f 1743 3a6f 31a4 b33f
00000720: 1743 3a6f 31a4 b33f 1743 3a6f 31a4 b33f
00000730: 1743 3a6f 31a4 b33f 1743 3a6f 31a4 b33f
00000740: 1743 3a6f 31a4 b33f 1743 3a6f 31a4 b33f
00000750: 1743 3a6f 31a4 b33f 1743 3a6f 31a4 b33f
00000760: 1743 3a6f 31a4 b33f 1743 3a6f 31a4 b33f
00000770: 1743 3a6f 31a4 b33f 1743 3a6f 31a4 b33f
00000780: 1743 3a6f 31a4 b33f 1743 3a6f 31a4 b33f
00000790: 1743 3a6f 31a4 b33f 1743 3a6f 31a4 b33f
000007a0: 1743 3a6f 31a4 b33f 1743 3a6f 31a4 b33f
000007b0: 1743 3a6f 31a4 b33f 1743 3a6f 31a4 b33f
000007c0: 1743 3a6f 31a4 b33f 1743 3a6f 31a4 b33f
000007d0: 1743 3a6f 31a4 b33f 1743 3a6f 31a4 b33f
000007e0: 1743 3a6f 31a4 b33f 1743 3a6f 31a4 b33f
000007f0: 1743 3a6f 31a4 b33f 1743 3a6f 31a4 b33f
0.07672413793103448 0.07672413793103448 0.07672413793103448 0.07672413793103448 0.07672413793103448 0.07672413793103448 0.07672413793103448 0.07672413793103448
0.07672413793103448 0.07672413793103448 0.07672413793103448 0.07672413793103448 0.07672413793103448 0.07672413793103448 0.07672413793103448 0.07672413793103448
0.07672413793103448 0.07672413793103448 0.07672413793103448 0.07672413793103448 0.07672413793103448 0.07672413793103448 0.07672413793103448 0.07672413793103448
0.07672413793103448 0.07672413793103448 0.07672413793103448 0.07672413793103448 0.07672413793103448 0.07672413793103448 0.07672413793103448 0.07672413793103448
0.07672413793103448 0.07672413793103448 0.07672413793103448 0.07672413793103448 0.07672413793103448 0.07672413793103448 0.07672413793103448 0.07672413793103448
0.07672413793103448 0.07672413793103448 0.07672413793103448 0.07672413793103448 0.07672413793103448 0.07672413793103448 0.07672413793103448 0.07672413793103448
0.07672413793103448 0.07672413793103448 0.07672413793103448 0.07672413793103448 0.07672413793103448 0.07672413793103448 0.07672413793103448 0.07672413793103448
0.07672413793103448 0.07672413793103448 0.07672413793103448 0.07672413793103448 0.07672413793103448 0.07672413793103448 0.07672413793103448 0.07672413793103448
0.07672413793103448 0.07672413793103448 0.07672413793103448 0.07672413793103448 0.07672413793103448 0.07672413793103448 0.07672413793103448 0.07672413793103448
0.07672413793103448 0.07672413793103448 0.07672413793103448 0.07672413793103448 0.07672413793103448 0.07672413793103448 0.07672413793103448 0.07672413793103448
0.07672413793103448 0.07672413793103448 0.07672413793103448 0.07672413793103448 0.07672413793103448 0.07672413793103448 0.07672413793103448 0.07672413793103448
0.07672413793103448 0.07672413793103448 0.07672413793103448 0.07672413793103448 0.07672413793103448 0.07672413793103448 0.07672413793103448 0.07672413793103448
0.07672413793103448 0.07672413793103448 0.07672413793103448 0.07672413793103448 0.07672413793103448 0.07672413793103448 0.07672413793103448 0.07672413793103448
0.07672413793103448 0.07672413793103448 0.07672413793103448 0.07672413793103448 0.07672413793103448 0.07672413793103448 0.07672413793103448 0.07672413793103448
0.07672413793103448 0.07672413793103448 0.07672413793103448 0.07672413793103448 0.07672413793103448 0.07672413793103448 0.07672413793103448 0.07672413793103448
0.07672413793103448 0.07672413793103448 0.07672413793103448 0.07672413793103448 0.07672413793103448 0.07672413793103448 0.07672413793103448 0.07672413793103448
0.07672413793103448 0.07672413793103448 0.07672413793103448 0.07672413793103448 0.07672413793103448 0.07672413793103448 0.07672413793103448 0.07672413793103448
0.07672413793103448 0.07672413793103448 0.07672413793103448 0.07672413793103448 0.07672413793103448 0.07672413793103448 0.07672413793103448 0.07672413793103448
0.07672413793103448 0.07672413793103448 0.07672413793103448 0.07672413793103448 0.07672413793103448 0.07672413793103448 0.07672413793103448 0.07672413793103448
0.07672413793103448 0.07672413793103448 0.07672413793103448 0.07672413793103448 0.07672413793103448 0.07672413793103448 0.07672413793103448 0.07672413793103448
0.07672413793103448 0.07672413793103448 0.07672413793103448 0.07672413793103448 0.07672413793103448 0.07672413793103448 0.07672413793103448 0.07672413793103448
0.07672413793103448 0.07672413793103448 0.07672413793103448 0.07672413793103448 0.07672413793103448 0.07672413793103448 0.07672413793103448 0.07672413793103448
0.07672413793103448 0.07672413793103448 0.07672413793103448 0.07672413793103448 0.07672413793103448 0.07672413793103448 0.07672413793103448 0.07672413793103448
0.07672413793103448 0.07672413793103448 0.07672413793103448 0.07672413793103448 0.07672413793103448 0.07672413793103448 0.07672413793103448 0.07672413793103448
0.07672413793103448 0.07672413793103448 0.07672413793103448 0.07672413793103448 0.07672413793103448 0.07672413793103448 0.07672413793103448 0.07672413793103448
0.07672413793103448 0.07672413793103448 0.07672413793103448 0.07672413793103448 0.07672413793103448 0.07672413793103448 0.07672413793103448 0.07672413793103448
0.07672413793103448 0.07672413793103448 0.07672413793103448 0.07672413793103448 0.07672413793103448 0.07672413793103448 0.07672413793103448 0.07672413793103448
0.07672413793103448 0.07672413793103448 0.07672413793103448 0.07672413793103448 0.07672413793103448 0.07672413793103448 0.07672413793103448 0.07672413793103448
0.07672413793103448 0.07672413793103448 0.07672413793103448 0.07672413793103448 0.07672413793103448 0.07672413793103448 0.07672413793103448 0.07672413793103448
0.07672413793103448 0.07672413793103448 0.07672413793103448 0.07672413793103448 0.07672413793103448 0.07672413793103448 0.07672413793103448 0.07672413793103448
0.07672413793103448 0.07672413793103448 0.07672413793103448 0.07672413793103448 0.07672413793103448 0.07672413793103448 0.07672413793103448 0.07672413793103448
0.07672413793103448 0.07672413793103448 0.07672413793103448 0.07672413793103448 0.07672413793103448 0.07672413793103448 0.07672413793103448 0.07672413793103448

zmax f8 []
00000000: 0000 0000 0000 1440
5.0

hz_F f8 [401]
00000000: 80d0 1e08 8d18 9c3f 9a14 6d21 eb59 a23f
00000010: 389b d2be 02b2 a33f 8c49 4975 6b1e a43f
00000020: c8e6 e1d2 c240 a43f a1f4 fa18 b04b a43f
00000030: 9166 1dd4 2d4f a43f 2d33 2487 4c50 a43f
00000040: 430a b6dc a850 a43f 9f67 43b6 c650 a43f
00000050: 39c0 a964 d050 a43f 6f7d bf89 d350 a43f
00000060: 311f 4d8e d450 a43f af4b e6e0 d450 a43f
00000070: a668 12f9 d450 a43f 2e5f f3fd d450 a43f
00000080: 2320 66fc d450 a43f 265a a9f8 d450 a43f
00000090: 27ef 24f4 d450 a43f d25c 50ef d450 a43f
000000a0: 523f 53ea d450 a43f 3898 3ae5 d450 a43f
000000b0: ee79 0ae0 d450 a43f aeee c3da d450 a43f
000000c0: 90fd 66d5 d450 a43f 9352 f3cf d450 a43f
000000d0: 3576 68ca d450 a43f f1e3 c5c4 d450 a43f
000000e0: fa0e 0bbf d450 a43f db5f 37b9 d450 a43f
000000f0: 9a48 4ab3 d450 a43f ec25 43ad d450 a43f
00000100: 1758 21a7 d450 a43f d13b e4a0 d450 a43f
00000110: fc21 8b9a d450 a43f ab5c 1594 d450 a43f
00000120: 4833 828d d450 a43f 0eec d086 d450 a43f
00000130: 66c1 0080 d450 a43f b7ed 1079 d450 a43f
00000140: 349d 0072 d450 a43f 42fd ce6a d450 a43f
00000150: cb31 7b63 d450 a43f e852 045c d450 a43f
00000160: 7f77 6954 d450 a43f 18a7 a94c d450 a43f
00000170: 67ea c344 d450 a43f 0536 b73c d450 a43f
00000180: 897e 8234 d450 a43f 58aa 242c d450 a43f
00000190: 4b9c 9c23 d450 a43f bf20 e91a d450 a43f
000001a0: e102 0912 d450 a43f 9905 fb08 d450 a43f
000001b0: 21d4 bdff d350 a43f 5817 50f6 d350 a43f
000001c0: 5c66 b0ec d350 a43f 3351 dde2 d350 a43f
000001d0: d94d d5d8 d350 a43f eecf 96ce d350 a43f
000001e0: 6833 20c4 d350 a43f f3cb 6fb9 d350 a43f
000001f0: 92d5 83ae d350 a43f e77c 5aa3 d350 a43f
00000200: a3db f197 d350 a43f 19fc 478c d350 a43f
00000210: d6c9 5a80 d350 a43f 4e29 2874 d350 a43f
00000220: a4dc ad67 d350 a43f 9c96 e95a d350 a43f
00000230: d5e8 d84d d350 a43f be56 7940 d350 a43f
00000240: b93c c832 d350 a43f 4fde c224 d350 a43f
00000250: 3166 6616 d350 a43f 48d3 af07 d350 a43f
00000260: 5e10 9cf8 d250 a43f 05e0 27e9 d250 a43f
00000270: 07d9 4fd9 d250 a43f ac6e 10c9 d250 a43f
00000280: f1f1 65b8 d250 a43f 8f7e 4ca7 d250 a43f
00000290: 4c03 c095 d250 a43f 2643 bc83 d250 a43f
000002a0: 20c7 3c71 d250 a43f 2ee4 3c5e d250 a43f
000002b0: ebb2 b74a d250 a43f cb10 a836 d250 a43f
000002c0: 5a9b 0822 d250 a43f caa6 d30c d250 a43f
000002d0: 3539 03f7 d150 a43f a217 91e0 d150 a43f
000002e0: 11a6 76c9 d150 a43f 9afb acb1 d150 a43f
000002f0: 34c7 2c99 d150 a43f 8e5b ee7f d150 a43f
00000300: be99 e965 d150 a43f 73f2 154b d150 a43f
00000310: 6862 6a2f d150 a43f ba5a dd12 d150 a43f
00000320: fdc7 64f5 d050 a43f 57ff f5d6 d050 a43f
00000330: 2fb6 85b7 d050 a43f 44fc 0797 d050 a43f
00000340: 4c1f 7075 d050 a43f 38b3 b052 d050 a43f
00000350: fe76 bb2e d050 a43f 7b40 8109 d050 a43f
00000360: bcf7 f1e2 cf50 a43f 6379 fcba cf50 a43f
00000370: 7788 8e91 cf50 a43f 18b9 9466 cf50 a43f
00000380: 014d fa39 cf50 a43f 5325 a90b cf50 a43f
00000390: 45a0 89db ce50 a43f 3279 82a9 ce50 a43f
000003a0: bfa2 7875 ce50 a43f f820 4f3f ce50 a43f
000003b0: ebdf e606 ce50 a43f f781 1ecc cd50 a43f
000003c0: b72b d28e cd50 a43f 5452 db4e cd50 a43f
000003d0: e269 100c cd50 a43f d4a7 44c6 cc50 a43f
000003e0: a4b9 477d cc50 a43f 6f61 e530 cc50 a43f
000003f0: 071c e5e0 cb50 a43f e3a5 098d cb50 a43f
00000400: db9e 1035 cb50 a43f 19d5 b1d8 ca50 a43f
00000410: c9ce 9e77 ca50 a43f cb0c 8211 ca50 a43f
00000420: 604d fea5 c950 a43f 2baa ad34 c950 a43f
00000430: 73a4 20bd c850 a43f 7104 dd3e c850 a43f
00000440: 38a9 5cb9 c750 a43f fb06 0c2c c750 a43f
00000450: 7b99 4896 c650 a43f 1203 5ff7 c550 a43f
00000460: d0eb 884e c550 a43f 899f ea9a c450 a43f
00000470: 0e2f 90db c350 a43f e943 6a0f c350 a43f
00000480: 055c 4a35 c250 a43f c379 de4b c150 a43f
00000490: 711b ac51 c050 a43f 3d5a 0a45 bf50 a43f
000004a0: 2e0a 1b24 be50 a43f faac c2ec bc50 a43f
000004b0: 9cf9 9e9c bb50 a43f b5a1 fb30 ba50 a43f
000004c0: bd1a c5a6 b850 a43f 16ca 78fa b650 a43f
000004d0: bb44 1228 b550 a43f d7bb f42a b350 a43f
000004e0: f6f2 cffd b050 a43f dc93 7f9a ae50 a43f
000004f0: d29b e3f9 ab50 a43f 2e30 b013 a950 a43f
00000500: 45d0 32de a550 a43f 1b1a 0a4e a250 a43f
00000510: 91be cc55 9e50 a43f f930 9be5 9950 a43f
00000520: 423f 96ea 9450 a43f 602f 334e 8f50 a43f
00000530: 2a70 63f5 8850 a43f eef0 82bf 8150 a43f
00000540: fd03 fc84 7950 a43f 4ef5 8915 7050 a43f
00000550: 2b87 fb35 6550 a43f d005 4c9d 5850 a43f
00000560: 39ab daf0 4950 a43f 2842 73bf 3850 a43f
00000570: b8e9 bd7a 2450 a43f 9e90 826e 0c50 a43f
00000580: 3428 f2b4 ef4f a43f 5afd d226 cd4f a43f
00000590: 3e8e f345 a34f a43f 0fe1 941f 704f a43f
000005a0: 85a8 7623 314f a43f a2bb a9ea e24e a43f
000005b0: 4c92 05e7 804e a43f 85f7 aaf0 044e a43f
000005c0: 0aeb bca1 664d a43f 98f9 6168 9a4c a43f
000005d0: 54cb 902a 904b a43f 810b 7a43 314a a43f
000005e0: 9b1f 3d83 5d48 a43f 6bda e4a7 e645 a43f
000005f0: 0a64 bd76 8942 a43f 7035 a01b e33d a43f
00000600: 2d95 07a1 6037 a43f eef9 a7fb 242e a43f
00000610: e1ab f6f3 df20 a43f b4b8 d3b0 8c0d a43f
00000620: d8d4 091a 09f1 a33f e039 1001 6fc6 a33f
00000630: 71e3 dbfb 0c86 a33f a9a7 b44a d223 a33f
00000640: d5c2 21cf 038d a23f 07dd 73b8 e124 a23f
00000650: c8f4 1188 72c6 a13f e20d 73c0 9f70 a13f
00000660: 46ef aea2 7422 a13f 8c02 d03c 1adb a03f
00000670: ee63 e1cd d399 a03f 581f aa85 fb5d a03f
00000680: 640b 9f9f ff26 a03f 53ea 59a9 bfe8 9f3f
00000690: f2b3 a33a 568b 9f3f 3daf f678 fb34 9f3f
000006a0: 0a89 c116 ffe4 9e3f 22a9 8efd c49a 9e3f
000006b0: b617 35bd c255 9e3f 4216 c452 7d15 9e3f
000006c0: e45b 923b 87d9 9d3f eb39 2fca 7ea1 9d3f
000006d0: c9e0 37b4 0c6d 9d3f 8455 3cd1 e23b 9d3f
000006e0: 4f48 ec03 bb0d 9d3f bfa5 b147 56e2 9c3f
000006f0: 3428 afdd 7bb9 9c3f 0512 cf94 f892 9c3f
00000700: 763e 2b29 9e6e 9c3f 45da 9eb7 424c 9c3f
00000710: 2376 c642 c02b 9c3f c16c 1647 f40c 9c3f
00000720: a3fd 045c bfef 9b3f a3d5 8de0 04d4 9b3f
00000730: cb4c 93b1 aab9 9b3f 6c41 d6e8 98a0 9b3f
00000740: 071a 6ba3 b988 9b3f c316 b9ce f871 9b3f
00000750: 711c 32fb 435c 9b3f 58cd 0d34 8a47 9b3f
00000760: 7189 6adb bb33 9b3f d982 4c8a ca20 9b3f
00000770: d223 04f4 a80e 9b3f 690e 95cc 4afd 9a3f
00000780: 32f6 c3b1 a4ec 9a3f 4cee 7c16 acdc 9a3f
00000790: 0dca 4d30 57cd 9a3f c3bc b8e6 9cbe 9a3f
000007a0: 9c7f 2ac4 74b0 9a3f d321 66e8 d6a2 9a3f
000007b0: 85a7 3dfc bb95 9a3f 1305 7426 1d89 9a3f
000007c0: c8b8 a801 f47c 9a3f 3c53 3193 3a71 9a3f
000007d0: 5541 c842 eb65 9a3f 98fd fad2 005b 9a3f
000007e0: 5f66 445a 7650 9a3f 7fd4 c13c 4746 9a3f
000007f0: 30f5 7326 6f3c 9a3f a676 fd05 ea32 9a3f
0.027437404270771015 0.035842273550352036 0.03846748904589109 0.03929458433835284 0.0395565874504889 0.039639952706673094 0.03966658796589429 0.03967513227153172
0.03967788404681418 0.03967877364057348 0.03967906216428258 0.03967915588850245 0.039679186220892844 0.03967919583660461 0.03967919865063267 0.03967919921859529
0.03967919903794861 0.03967919860285844 0.03967919807698044 0.03967919751465278 0.03967919693388801 0.03967919634060063 0.039679195736642345 0.03967919512248606
0.03967919449814439 0.0396791938634681 0.0396791932182449 0.0396791925622394 0.039679191895201485 0.03967919121686211 0.03967919052696907 0.0396791898252323
0.03967918911136808 0.039679188385086335 0.039679187646076 0.03967918689402813 0.03967918612861482 0.03967918534950608 0.03967918455635093 0.039679183748798356
0.03967918292647213 0.039679182088998136 0.039679181235985427 0.03967918036702206 0.039679179481693964 0.03967917857955977 0.03967917766018019 0.039679176723080224
0.039679175767784854 0.03967917479379385 0.039679173800600674 0.03967917278765886 0.039679171754419824 0.039679170700320295 0.039679169624754936 0.03967916852711423
0.039679167406757115 0.03967916626302994 0.03967916509523279 0.03967916390266156 0.03967916268457011 0.039679161440197584 0.03967916016874108 0.039679158869370394
0.039679157541221664 0.03967915618340374 0.03967915479497079 0.0396791533749644 0.03967915192236518 0.03967915043612644 0.039679148915142605 0.039679147358282915
0.03967914576434723 0.039679144132091275 0.03967914246022664 0.039679140747387154 0.03967913899217089 0.03967913719310449 0.03967913534863681 0.039679133457153654
0.03967913151697989 0.03967912952634577 0.039679127483401716 0.03967912538622036 0.03967912323277134 0.03967912102093184 0.03967911874847182 0.03967911641305618
0.0396791140122363 0.039679111543433246 0.03967910900392938 0.039679106390891464 0.039679103701313896 0.03967910093205447 0.03967909807978601 0.039679095141017404
0.03967909211205577 0.039679088989008536 0.03967908576777718 0.03967908244401515 0.039679079013140474 0.03967907547030219 0.039679071810365556 0.03967906802790158
0.03967906411713659 0.03967906007196692 0.03967905588591057 0.039679051552071486 0.03967904706313116 0.03967904241129607 0.03967903758827245 0.03967903258522848
0.03967902739273122 0.039679022000721396 0.03967901639845243 0.039679010574433696 0.039679004516363296 0.039678998211060745 0.039678991644393445 0.039678984801188415
0.039678977665139774 0.039678970218720494 0.03967896244303738 0.039678954317721754 0.039678945820799144 0.03967893692851276 0.03967892761516372 0.03967891785289248
0.0396789076115149 0.03967889685820065 0.03967888555726302 0.039678873669822666 0.0396788611534713 0.03967884796187023 0.0396788340443174 0.039678819345234546
0.03967880380362704 0.03967878735239868 0.03967876991764548 0.03967875141780132 0.039678731762670005 0.03967871085234182 0.039678688575888285 0.03967866480991928
0.03967863941687003 0.039678612243040166 0.039678583116304796 0.039678551843441025 0.03967851820700151 0.03967848196165309 0.03967844282987018 0.039678400496828393
0.039678354604395484 0.039678304743933676 0.03967825044777259 0.03967819117894294 0.039678126318880944 0.039678055152570585 0.03967797685054787 0.03967789044699575
0.039677794813002744 0.039677688623715755 0.039677570317846585 0.03967743804750685 0.03967728961572316 0.03967712239827281 0.039676933245317805 0.039676718356959614
0.03967647312493481 0.039676191930065316 0.039675867881454906 0.03967549247864677 0.039675055171150615 0.03967454278029364 0.03967393873513764 0.0396732220554281
0.03967236598789761 0.03967133616378744 0.03967008808993143 0.03966856370465354 0.03966668661026155 0.03966435541666803 0.03966143436517608 0.03965774000015102
0.039653022044566624 0.039646935693770036 0.0396390010795559 0.03962854336443567 0.039614603300434946 0.03959580230223455 0.039570136780362544 0.039534661409656446
0.039484996468483004 0.03941455432867601 0.03931331494398883 0.03916587503941696 0.03894833033420192 0.03862330329876662 0.03813210081529562 0.03738267099318133
0.036232108149197785 0.035437635198770016 0.03471715842258899 0.03406237816082204 0.03346600042229268 0.03292161934223711 0.03242360962094169 0.03196702963492609
0.031547535166757595 0.031161303244952098 0.03080496533305061 0.030475548990281032 0.030170427097240306 0.029887273765475737 0.02962402610616951 0.02937885110534056
0.02915011693093196 0.02893636807476156 0.028736303805971617 0.02854875948022119 0.028372690309943768 0.0282071572550302 0.02805131474068663 0.027904399950573495
0.02776572347903402 0.027634661156947144 0.027510646892201628 0.027393166388361537 0.027281751624511973 0.027175975995722756 0.027075450027791697 0.02697981759189487
0.02688875255514669 0.026801955811854194 0.026719152647754322 0.026640090396040733 0.026564536349391547 0.02649227589711498 0.02642311086040989 0.026356858002385773
0.026293347692435805 0.026232422707137368 0.026173937152131944 0.02611775549138141 0.02606375167181306 0.026011808332926222 0.025961816092070506 0.025913672897336214
0.025867283440839356 0.02582255862610626 0.02577941508394706 0.025737774731849322 0.02569756437251269 0.025658715327570022 0.025621163103086875 0.025584847083669836

Vz_F f8 [401]
00000000: 008c c9cc 84ae dd3f c05e 930d 1563 e33f
00000010: 0086 c394 98ce e43f 00f3 34bc 1f41 e53f
00000020: 8041 6c4f 6765 e53f 0067 5778 f270 e53f
00000030: 8075 51a5 a274 e53f c087 f786 d175 e53f
00000040: 0029 b512 3376 e53f 4013 929b 5276 e53f
00000050: 40b7 dbd5 5c76 e53f 006b 6228 6076 e53f
00000060: c0e0 a43b 6176 e53f 808b e792 6176 e53f
00000070: c0ee 70ac 6176 e53f 0064 98b1 6176 e53f
00000080: 00b9 f4af 6176 e53f 40f2 01ac 6176 e53f
00000090: c041 3ca7 6176 e53f c0e3 21a2 6176 e53f
000000a0: c0b0 dc9c 6176 e53f 4066 7a97 6176 e53f
000000b0: 8051 ff91 6176 e53f c08b 6c8c 6176 e53f
000000c0: 801c c286 6176 e53f 00ab ff80 6176 e53f
000000d0: 00b9 247b 6176 e53f 80ba 3075 6176 e53f
000000e0: c01a 236f 6176 e53f c039 fb68 6176 e53f
000000f0: 8081 b862 6176 e53f 8045 5a5c 6176 e53f
00000100: 00dd df55 6176 e53f 809b 484f 6176 e53f
00000110: 00c8 9348 6176 e53f c0aa c041 6176 e53f
00000120: c080 ce3a 6176 e53f c085 bc33 6176 e53f
00000130: 00e9 892c 6176 e53f c0d9 3525 6176 e53f
00000140: 4078 bf1d 6176 e53f 00e6 2516 6176 e53f
00000150: 803a 680e 6176 e53f c080 8506 6176 e53f
00000160: 80c2 7cfe 6076 e53f 40f9 4cf6 6076 e53f
00000170: c01f f5ed 6076 e53f 801b 74e5 6076 e53f
00000180: 00d2 c8dc 6076 e53f c019 f2d3 6076 e53f
00000190: 80c5 eeca 6076 e53f 4090 bdc1 6076 e53f
000001a0: c033 5db8 6076 e53f 0061 ccae 6076 e53f
000001b0: 00b0 09a5 6076 e53f 40b6 139b 6076 e53f
000001c0: 80f6 e890 6076 e53f 00ec 8786 6076 e53f
000001d0: 80f6 ee7b 6076 e53f 4073 1c71 6076 e53f
000001e0: 80a6 0e66 6076 e53f c0cb c35a 6076 e53f
000001f0: 8005 3a4f 6076 e53f 0066 6f43 6076 e53f
00000200: 80eb 6137 6076 e53f 0084 0f2b 6076 e53f
00000210: 00fd 751e 6076 e53f 801c 9311 6076 e53f
00000220: 4084 6404 6076 e53f c0c5 e7f6 5f76 e53f
00000230: 804f 1ae9 5f76 e53f 0081 f9da 5f76 e53f
00000240: 8090 82cc 5f76 e53f 009a b2bd 5f76 e53f
00000250: 409f 86ae 5f76 e53f c073 fb9e 5f76 e53f
00000260: c0d5 0d8f 5f76 e53f 0059 ba7e 5f76 e53f
00000270: 0063 fd6d 5f76 e53f c033 d35c 5f76 e53f
00000280: 00e7 374b 5f76 e53f 4060 2739 5f76 e53f
00000290: 8053 9d26 5f76 e53f 8046 9513 5f76 e53f
000002a0: c081 0a00 5f76 e53f c016 f8eb 5e76 e53f
000002b0: 40d7 58d7 5e76 e53f 8056 27c2 5e76 e53f
000002c0: 40e4 5dac 5e76 e53f c082 f695 5e76 e53f
000002d0: c0e1 ea7e 5e76 e53f 406c 3467 5e76 e53f
000002e0: c026 cc4e 5e76 e53f 80c4 aa35 5e76 e53f
000002f0: c08a c81b 5e76 e53f 405d 1d01 5e76 e53f
00000300: c0a7 a0e5 5d76 e53f 405f 49c9 5d76 e53f
00000310: 40fe 0dac 5d76 e53f c06b e48d 5d76 e53f
00000320: c002 c26e 5d76 e53f 407e 9b4e 5d76 e53f
00000330: 80f0 642d 5d76 e53f c0bc 110b 5d76 e53f
00000340: 4079 94e7 5c76 e53f 00f8 dec2 5c76 e53f
00000350: 002a e29c 5c76 e53f 000a 8e75 5c76 e53f
00000360: 8097 d14c 5c76 e53f 80b7 9a22 5c76 e53f
00000370: 8025 d6f6 5b76 e53f 005d 6fc9 5b76 e53f
00000380: 0074 509a 5b76 e53f 000c 6269 5b76 e53f
00000390: c02d 8b36 5b76 e53f 8027 b101 5b76 e53f
000003a0: 0065 b7ca 5a76 e53f 8047 7f91 5a76 e53f
000003b0: 00fa e755 5a76 e53f c03c ce17 5a76 e53f
000003c0: 402e 0cd7 5976 e53f c016 7993 5976 e53f
000003d0: 0012 e94c 5976 e53f 40ce 2c03 5976 e53f
000003e0: c03e 11b6 5876 e53f c032 5f65 5876 e53f
000003f0: 80f6 da10 5876 e53f 40d1 43b8 5776 e53f
00000400: c0a3 535b 5776 e53f 0029 bef9 5676 e53f
00000410: 4079 3093 5676 e53f 0042 5027 5676 e53f
00000420: 00fe bab5 5576 e53f 8006 053e 5576 e53f
00000430: c091 b8bf 5476 e53f 0082 543a 5476 e53f
00000440: 4024 4bad 5376 e53f c098 0018 5376 e53f
00000450: 002f c979 5276 e53f a069 e7d1 5176 e53f
00000460: c0be 891f 5176 e53f a013 c861 5076 e53f
00000470: 60b4 a097 4f76 e53f e0f9 f4bf 4e76 e53f
00000480: 004f 85d9 4d76 e53f 60a2 ece2 4c76 e53f
00000490: 2015 9bda 4b76 e53f e0c4 cfbe 4a76 e53f
000004a0: 6088 918d 4976 e53f 006e a644 4876 e53f
000004b0: 80ba 89e1 4676 e53f 200c 6061 4576 e53f
000004c0: e064 e9c0 4376 e53f e071 70fc 4176 e53f
000004d0: 20bc b60f 4076 e53f e0ce dcf5 3d76 e53f
000004e0: 20a7 45a9 3b76 e53f 602f 7423 3976 e53f
000004f0: 2071 e15c 3676 e53f 60b1 c94c 3376 e53f
00000500: e050 eee8 2f76 e53f 207d 4925 2c76 e53f
00000510: e01d b0f3 2776 e53f c04a 5d43 2376 e53f
00000520: 0022 6100 1e76 e53f 4032 eb12 1876 e53f
00000530: e0f5 655e 1176 e53f 60b8 55c0 0976 e53f
00000540: e0d2 e80e 0176 e53f e01e 2117 f775 e53f
00000550: 0014 769a eb75 e53f e0ec c34b de75 e53f
00000560: 205f 4ccb ce75 e53f 007c 77a1 bc75 e53f
00000570: a09d e437 a775 e53f 00a6 2fd0 8d75 e53f
00000580: 40ef 9077 6f75 e53f c0f4 24f6 4a75 e53f
00000590: 60c1 27b8 1e75 e53f a0cb b3ae e874 e53f
000005a0: 205d 7e24 a674 e53f 60db 6f81 5374 e53f
000005b0: 0080 8df5 eb73 e53f 40be 0500 6973 e53f
000005c0: 006f a3c1 c172 e53f c049 6001 ea71 e53f
000005d0: 002b 8abc d070 e53f 608a 2107 5e6f e53f
000005e0: e0d5 30e0 6f6d e53f e025 5e69 d56a e53f
000005f0: e0f8 899c 4767 e53f 80c2 8a11 5e62 e53f
00000600: 20cf 6387 7d5b e53f e04c d778 bc51 e53f
00000610: e0b0 3bb4 b743 e53f 80dc 5034 4d2f e53f
00000620: a069 209b 2d11 e53f 4059 01f0 2be4 e43f
00000630: c06f 21a0 27a0 e43f 806e 5595 6138 e43f
00000640: 2007 bc0a 1099 e33f 4026 b24b 0d2b e33f
00000650: 409d 4497 49c7 e23f 0060 e8b7 9e6c e23f
00000660: 20ce 491e 0a1a e23f a056 a1b6 a8ce e13f
00000670: 401d 9b18 b389 e13f a077 1818 7a4a e13f
00000680: c001 4eb6 6310 e13f 20de a06e e8da e03f
00000690: 006d 5bd8 90a9 e03f 60b6 4295 f37b e03f
000006a0: 8072 d284 b351 e03f 80b8 2034 7e2a e03f
000006b0: e034 ed82 0a06 e03f 4015 0fee 2ec8 df3f
000006c0: 0036 db6f d688 df3f 4078 6d5a a44d df3f
000006d0: 000a 1876 3c16 df3f 00cb 1531 4ce2 de3f
000006e0: 004c fa78 89b1 de3f 80e7 9dba b183 de3f
000006f0: c06d 3303 8958 de3f 0005 f53d d92f de3f
00000700: 40c1 7b8a 7109 de3f 403a 64a8 25e5 dd3f
00000710: 8059 5d75 cdc2 dd3f 007c 277b 44a2 dd3f
00000720: 003d 648b 6983 dd3f 00ac 6367 1e66 dd3f
00000730: 00c7 5d72 474a dd3f 80aa be6c cb2f dd3f
00000740: 001e 5c37 9316 dd3f c0f0 939d 89fe dc3f
00000750: c078 7525 9be7 dc3f 80ce 36e5 b5d1 dc3f
00000760: c07c 4f5d c9bc dc3f 8026 a956 c6a8 dc3f
00000770: 80ac 68c4 9e95 dc3f 404e e3a8 4583 dc3f
00000780: 00f6 60fd ae71 dc3f 40dd 589c cf60 dc3f
00000790: 004c e02d 9d50 dc3f c03e 0c16 0e41 dc3f
000007a0: 8040 0e65 1932 dc3f 4006 dcc8 b623 dc3f
000007b0: 00a2 3680 de15 dc3f 00db eb4e 8908 dc3f
000007c0: 4022 3073 b0fb db3f c0e3 f39b 4def db3f
000007d0: c022 1ae0 5ae3 db3f 004b 79b6 d2d7 db3f
000007e0: 40de 91ee afcc db3f 409e e8a9 edc1 db3f
000007f0: 805d f455 87b7 db3f c0bc 90a6 78ad db3f
0.4637767791629699 0.6058449998044679 0.6502192407171492 0.6641997028269486 0.6686283637264268 0.6700374937456388 0.6704877117987706 0.6706321369240342
0.6706786504157947 0.6706936872948077 0.6706985642356145 0.6707001484640784 0.6707006611750543 0.6707008237102485 0.6707008712760043 0.6707008808763248
0.6707008778228385 0.6707008704684725 0.6707008615795118 0.6707008520744395 0.6707008422577232 0.6707008322293362 0.6707008220205779 0.670700811639442
0.6707008010861415 0.6707007903581541 0.6707007794518915 0.6707007683633748 0.6707007570883761 0.6707007456223479 0.6707007339610271 0.6707007220995109
0.6707007100330031 0.670700697756601 0.6707006852650466 0.6707006725531173 0.6707006596152709 0.6707006464459297 0.6707006330391607 0.6707006193890308
0.6707006054891806 0.6707005913332864 0.67070057691474 0.6707005622265783 0.6707005472618022 0.6707005320129511 0.6707005164725999 0.6707005006327194
0.6707004844852804 0.6707004680218276 0.6707004512337988 0.6707004341119571 0.6707004166470298 0.6707003988294957 0.670700380649123 0.6707003620956087
0.6707003431581171 0.6707003238255993 0.6707003040862247 0.6707002839280918 0.6707002633385883 0.6707002423048536 0.6707002208133162 0.6707001988499428
0.6707001764001319 0.67070015344882 0.6707001299800197 0.6707001059775308 0.6707000814241226 0.6707000563021026 0.6707000305927835 0.6707000042770517
0.6706999773346212 0.6706999497444599 0.6706999214847897 0.670699892532518 0.6706998628639482 0.6706998324541757 0.6706998012769816 0.6706997693050809
0.6706997365101586 0.6706997028623007 0.6706996683302435 0.6706996328814085 0.6706995964814766 0.6706995590945652 0.6706995206829802 0.6706994812072509
0.6706994406259881 0.6706993988956 0.6706993559701502 0.6706993118017479 0.6706992663395894 0.6706992195305617 0.6706991713184252 0.6706991216441693
0.670699070445373 0.67069901765624 0.6706989632074922 0.6706989070256597 0.6706988490332932 0.6706987891483962 0.6706987272841758 0.6706986633488654
0.670698597244872 0.6706985288690248 0.6706984581117581 0.6706983848565073 0.6706983089795671 0.6706982303492026 0.6706981488252239 0.670698064258346
0.670697976489123 0.6706978853475221 0.6706977906518929 0.6706976922080088 0.6706975898079293 0.6706974832288637 0.6706973722319276 0.6706972565606506
0.6706971359394132 0.6706970100719545 0.6706968786389211 0.6706967412960196 0.6706965976718138 0.6706964473647403 0.670696289940409 0.6706961249279075
0.6706959518170308 0.6706957700528449 0.6706955790321345 0.6706953780977187 0.6706951665327665 0.670694943554011 0.6706947083044312 0.670694459844583
0.6706941971434688 0.6706939190669559 0.670693624365839 0.6706933116613989 0.6706929794290417 0.670692625979985 0.6706922494391954 0.6706918477209989
0.6706914185001267 0.6706909591785681 0.6706904668468816 0.6706899382390041 0.6706893696794047 0.6706887570211961 0.6706880955733396 0.670687380014332
0.6706866042906334 0.6706857614950046 0.6706848437223734 0.6706838418963024 0.6706827455611553 0.6706815426309554 0.6706802190852024 0.6706787585986085
0.6706771420890867 0.6706753471625326 0.6706733474283588 0.6706711116515507 0.6706686026964803 0.6706657762056878 0.6706625789371934 0.6706589466609891
0.6706548014832059 0.6706500484223987 0.6706445710011621 0.6706382255355514 0.6706308336897315 0.6706221727034745 0.6706119624768014 0.6705998483786857
0.6705853781963711 0.6705679709918044 0.670546874693212 0.6705211078791429 0.6704893791929045 0.6704499748292214 0.6704006000472873 0.6703381538808983
0.6702584058761829 0.6701555277707527 0.6700214083114986 0.6698446406629266 0.6696090105748986 0.6692912157024544 0.6688573892022553 0.6682577459924488
0.6674182552655772 0.6662275657821759 0.6645163078478866 0.662024118594573 0.65834694193045 0.6528529822924511 0.6445501449156765 0.6318824688600699
0.6124344072015653 0.5990053633151504 0.5868270830587008 0.575759276575809 0.5656786529129398 0.5564769331928865 0.5480590324959067 0.5403414221398073
0.5332506714476537 0.5267221604071359 0.5206989503598436 0.5151307978864672 0.5099732965641834 0.5051871317025558 0.5007374341163562 0.4965932202142831
0.49272690700021826 0.4891138918955029 0.4857321885357635 0.48256211083860023 0.4795859986708706 0.47678797935770234 0.4741537600764012 0.47167044687746795
0.4693263866784214 0.46711102909549496 0.46501480542556095 0.4630290224721989 0.4611457692380583 0.4593578347837024 0.4576586357935497 0.4560421525917846
0.4545028725264899 0.4530357397886853 0.4516361108598055 0.45029971489132237 0.449022618411572 0.44780119383776906 0.44663209133677384 0.44551221363983373
0.4444386934663669 0.44340887325548195 0.4424202869424221 0.44147064355000154 0.4405578123924059 0.43967980971510556 0.4388347866138531 0.43802101809653493
0.43723689316587766 0.43648090581660526 0.43575164685220713 0.43504779643733116 0.4343681173117808 0.43371144859927213 0.4330767001533431 0.4324628473868408
