onecap_model_with_structure_ambiguity/output/upper_triangular_four_ambiguous_parameters/Delta_10.0_distorted_0/logadjustment_1_boundary_1/zmax_5.0_zscale_2.0/delta_0.01/q_0.1_gamma_9.0_rho_1.0/model.npz (npz, 126264 bytes, 58 tensors)

clowerlim f8 []
00000000: 2d43 1ceb e236 1a3f
0.0001

zmin f8 []
00000000: 0000 0000 0000 14c0
-5.0

Delta f8 []
00000000: 0000 0000 0000 2440
10.0

s1_F f8 [401]
00000000: bf1f fdd8 6376 dcbf 57f4 ad12 0cfd d5bf
00000010: 062a 2363 a549 d4bf 71fb 480a 3cae d3bf
00000020: 1f10 635c a568 d3bf 6133 4a8c ee3f d3bf
00000030: 3bef 587c 4521 d3bf 49f7 50c0 2906 d3bf
00000040: 8ae6 92cd 51ec d2bf 1898 f0c8 edd2 d2bf
00000050: 3d99 bc7c b3b9 d2bf 862c 414b 88a0 d2bf
00000060: 39f1 8d9e 6287 d2bf 137e 62ff 3e6e d2bf
00000070: c5db c52b 1c55 d2bf 1c2f 86ae f93b d2bf
00000080: 45ca ec5c d722 d2bf bd5e 7627 b509 d2bf
00000090: 1682 9908 93f0 d1bf 16d5 79fe 70d7 d1bf
000000a0: e0dd 9708 4fbe d1bf dda5 f626 2da5 d1bf
000000b0: a9eb ca59 0b8c d1bf 1d3c 5da1 e972 d1bf
000000c0: 4ba8 fefd c759 d1bf 7eb9 0470 a640 d1bf
000000d0: a4e2 c7f7 8427 d1bf 49ec a295 630e d1bf
000000e0: 44cd f249 42f5 d0bf 11b7 1615 21dc d0bf
000000f0: a2f8 6ff7 ffc2 d0bf 6830 62f1 dea9 d0bf
00000100: 563e 5303 be90 d0bf 3566 ab2d 9d77 d0bf
00000110: c15c d570 7c5e d0bf 1e55 3ecd 5b45 d0bf
00000120: 2d1f 5643 3b2c d0bf df2f 8fd3 1a13 d0bf
00000130: 0276 bdfc f4f3 cfbf 1a97 7988 b4c1 cfbf
00000140: e1aa 484b 748f cfbf 1b96 2646 345d cfbf
00000150: 127a 157a f42a cfbf 8dd5 1de8 b4f8 cebf
00000160: 3dbf 4e91 75c6 cebf 081f be76 3694 cebf
00000170: 6be1 8899 f761 cebf 572d d3fa b82f cebf
00000180: a4a3 c89b 7afd cdbf 0a9d 9c7d 3ccb cdbf
00000190: 997c 8aa1 fe98 cdbf 3bca d508 c166 cdbf
000001a0: 0c9f cab4 8334 cdbf 6bdb bda6 4602 cdbf
000001b0: 897b 0de0 09d0 ccbf 60db 2062 cd9d ccbf
000001c0: f616 692e 916b ccbf b751 6146 5539 ccbf
000001d0: 3321 8fab 1907 ccbf 5bd0 825f ded4 cbbf
000001e0: e3e0 d763 a3a2 cbbf 864b 35ba 6870 cbbf
000001f0: be0c 4e64 2e3e cbbf 347b e163 f40b cbbf
00000200: 1bc5 bbba bad9 cabf e260 b66a 81a7 cabf
00000210: 0e94 b875 4875 cabf 98e6 b7dd 0f43 cabf
00000220: 75bb b8a4 d710 cabf b6d4 cecc 9fde c9bf
00000230: 17ee 1d58 68ac c9bf 4b57 da48 317a c9bf
00000240: f294 49a1 fa47 c9bf cc0c c363 c415 c9bf
00000250: 37bf b092 8ee3 c8bf 7bfc 8f30 59b1 c8bf
00000260: db1c f23f 247f c8bf 5766 7dc3 ef4c c8bf
00000270: 83db edbd bb1a c8bf 300f 1632 88e8 c7bf
00000280: 3b2c e022 55b6 c7bf 4dd1 4e93 2284 c7bf
00000290: 7b35 7e86 f051 c7bf 0227 a5ff be1f c7bf
000002a0: 422b 1602 8eed c6bf 9fc0 4091 5dbb c6bf
000002b0: c68e b2b0 2d89 c6bf 54bd 1864 fe56 c6bf
000002c0: 0b53 41af cf24 c6bf d4b1 1c96 a1f2 c5bf
000002d0: a01a bf1c 74c0 c5bf 5951 6247 478e c5bf
000002e0: 0c4c 671a 1b5c c5bf 880b 589a ef29 c5bf
000002f0: 5575 e9cb c4f7 c4bf 736c fdb3 9ac5 c4bf
00000300: c1d5 a457 7193 c4bf aef4 21bc 4861 c4bf
00000310: 4fbe eae6 202f c4bf e15b abdd f9fc c3bf
00000320: fae1 48a6 d3ca c3bf 5b23 e446 ae98 c3bf
00000330: dda2 dcc5 8966 c3bf 78dc d329 6634 c3bf
00000340: 5193 b079 4302 c3bf b66e a2bc 21d0 c2bf
00000350: 10cc 25fa 009e c2bf 9fdd 073a e16b c2bf
00000360: 7ee5 6a84 c239 c2bf 68df cae1 a407 c2bf
00000370: 516c 025b 88d5 c1bf 9301 50f9 6ca3 c1bf
00000380: 3c8f 5bc6 5271 c1bf 496f 3ccc 393f c1bf
00000390: 27c6 7f15 220d c1bf 5a5d 2fad 0bdb c0bf
000003a0: dfe3 d89e f6a8 c0bf ebd0 95f6 e276 c0bf
000003b0: d8bd 13c1 d044 c0bf 0963 9d0b c012 c0bf
000003c0: 899a 48c8 61c1 bfbf ce6d 96b2 465d bfbf
000003d0: 8c76 e2f4 2ef9 bebf 3ab2 7baf 1a95 bebf
000003e0: ffda 5b04 0a31 bebf 9f58 4317 fdcc bdbf
000003f0: 517a d70d f468 bdbf ce1b c30f ef04 bdbf
00000400: c7e2 d946 eea0 bcbf 258d 3edf f13c bcbf
00000410: 7164 8c07 fad8 bbbf a42a 04f1 0675 bbbf
00000420: 4108 bdcf 1811 bbbf afbb d9da 2fad babf
00000430: c070 c24c 4c49 babf 36f0 6363 6ee5 b9bf
00000440: 0c7f 7460 9681 b9bf 663f bf89 c41d b9bf
00000450: eca0 7629 f9b9 b8bf 23bf 8e8e 3456 b8bf
00000460: 5590 200d 77f2 b7bf 77ed d6fe c08e b7bf
00000470: 9188 66c3 122b b7bf 8341 12c1 6cc7 b6bf
00000480: 5d27 3d65 cf63 b6bf d4fc 0b25 3b00 b6bf
00000490: 9b29 187e b09c b5bf 5b35 36f7 2f39 b5bf
000004a0: e978 5221 bad5 b4bf eee3 6698 4f72 b4bf
000004b0: 5c24 8d04 f10e b4bf 8028 311b 9fab b3bf
000004c0: a56e 68a0 5a48 b3bf 916a 7368 24e5 b2bf
000004d0: f0f8 6e59 fd81 b2bf ac22 3d6d e61e b2bf
000004e0: c848 adb3 e0bb b1bf 2ab5 ed54 ed58 b1bf
000004f0: 1dd3 5194 0df6 b0bf b5b7 7ad3 4293 b0bf
00000500: b20d f295 8e30 b0bf 8db6 940a e59b afbf
00000510: 69f5 b6eb e0d6 aebf 54d8 6cd8 1412 aebf
00000520: 6f86 e246 854d adbf 24f2 e428 3789 acbf
00000530: 01dd d6fc 2fc5 abbf 5df4 77e1 7501 abbf
00000540: 8885 0bad 0f3e aabf 1fbb 8b08 057b a9bf
00000550: 04c0 be8f 5eb8 a8bf 254b 35f7 25f6 a7bf
00000560: 9fba 7939 6634 a7bf 2986 08cd 2b73 a6bf
00000570: 2ca5 12e5 84b2 a5bf a86b 90bf 81f2 a4bf
00000580: b8aa d803 3533 a4bf 0636 d135 b474 a3bf
00000590: c7c1 f442 18b7 a2bf 76a0 ed2f 7efa a1bf
000005a0: 8b27 85ef 073f a1bf cf79 4f6e dd84 a0bf
000005b0: 2a4f 0ac4 5b98 9fbf 361b 6ae0 622a 9ebf
000005c0: 5e6e 8b8c 56c0 9cbf 0610 388a d85a 9bbf
000005d0: b60c 7adb acfa 99bf 9b85 cd94 c2a0 98bf
000005e0: c623 2842 3f4e 97bf 79f9 79a0 8d04 96bf
000005f0: 6b39 a492 70c5 94bf 7b51 f648 1b93 93bf
00000600: 8ef5 2963 4f70 92bf b10e e414 8160 91bf
00000610: d794 457c ff67 90bf d739 b285 3718 8fbf
00000620: 1da2 bd49 88a6 8dbf 44ea 6e95 058a 8cbf
00000630: 7551 8707 a7d3 8bbf a960 1707 c095 8bbf
00000640: 0201 8d3a ffe3 8bbf 1222 bf28 058e 8cbf
00000650: c34b 147f 1dbb 8dbf eeba 3eec 9566 8fbf
00000660: 525a 7ca2 b7c3 90bf 87d1 c015 2309 92bf
00000670: b867 4982 847d 93bf 2d04 adb1 111b 95bf
00000680: b785 e846 8edc 96bf d97f 46ac 67bd 98bf
00000690: 01c8 74f4 b2b9 9abf 1c21 f17b 1cce 9cbf
000006a0: 697f bfcf d2f7 9ebf 4084 c3de 389a a0bf
000006b0: cb64 aed2 f7c0 a1bf d787 4dd5 46ef a2bf
000006c0: f824 ff57 6524 a4bf eab1 0463 ac5f a5bf
000006d0: ab5d 0451 8aa0 a6bf 3aa8 1e5d 7fe6 a7bf
000006e0: dbe8 02d9 1a31 a9bf 4915 3ce8 f87f aabf
000006f0: 0733 05a5 c0d2 abbf 25cb e298 2229 adbf
00000700: 014c 0278 d782 aebf 9faf 1d12 9fdf afbf
00000710: 8b32 44b7 9f9f b0bf e1a7 a305 c250 b1bf
00000720: 7284 679c 1e03 b2bf 5ca3 abc6 9fb6 b2bf
00000730: 36d4 dcb5 316b b3bf 860a 4f4d c220 b4bf
00000740: 4634 abf4 40d7 b4bf 681e 2470 9e8e b5bf
00000750: 973e 93bd cc46 b6bf 056b c5f5 beff b6bf
00000760: f037 5f31 69b9 b7bf 47a0 d970 c073 b8bf
00000770: c182 2c87 ba2e b9bf 99f0 cc06 4eea b9bf
00000780: 4720 b330 72a6 babf 7324 27e5 1e63 bbbf
00000790: e4e8 1c96 4c20 bcbf 64c8 ef3a f4dd bcbf
000007a0: 3eb4 5445 0f9c bdbf 9435 5f97 975a bebf
000007b0: 6b9a 7a7a 8719 bfbf d93a 3c97 d9d8 bfbf
000007c0: 7db8 fb76 444c c0bf 474a ff67 48ac c0bf
000007d0: 3e72 bf6c 760c c1bf 7ec0 f375 cc6c c1bf
000007e0: 7c95 6694 48cd c1bf 564e 9ff6 e82d c2bf
000007f0: 3110 bfe6 ab8e c2bf 1c64 8bc8 8fef c2bf
-0.44472595396336695 -0.3435697729508482 -0.3169949978006631 -0.3075094318809795 -0.3032620813576176 -0.3007770891206772 -0.29890572684574906 -0.29725116520772993
-0.2956738002354561 -0.2941240751555383 -0.2925842970020261 -0.29104812001305225 -0.28951325877985173 -0.28797888698497437 -0.2864447047681405 -0.2849106029832329
-0.2833765418501211 -0.2818425069212756 -0.2803084930401679 -0.2787744984737669 -0.27724052275831745 -0.27570656590486725 -0.2741726281052999 -0.27263870962355147
-0.2711048107545408 -0.26957093180944713 -0.2680370731100459 -0.26650323498660505 -0.2649694177773265 -0.2634356218285215 -0.26190184749419576 -0.26036809513676085
-0.2588343651268351 -0.25730065784373163 -0.25576697367564455 -0.2542333130198403 -0.2526996762830887 -0.25116606388178114 -0.24963247624229729 -0.24809891380135057
-0.24656537700624084 -0.2450318663151599 -0.24349838219764358 -0.24196492513480586 -0.2404314956197541 -0.23889809415799612 -0.23736472126780525 -0.2358313774806031
-0.23429806334141035 -0.23276477940928714 -0.231231526257919 -0.22969830447580528 -0.22816511466702882 -0.2266319574516403 -0.22509883346625895 -0.22356574336455548
-0.22203268781793611 -0.22049966751604952 -0.21896668316754528 -0.21743373550055164 -0.21590082526359486 -0.21436795322605579 -0.21283512017916978 -0.21130232693664086
-0.20976957433553242 -0.20823686323706797 -0.2067041945275893 -0.20517156911937628 -0.20363898795173055 -0.2021064519919144 -0.200573962236249 -0.19904151971121062
-0.1975091254745745 -0.19597678061663826 -0.19444448626153996 -0.19291224356854628 -0.1913800537333604 -0.1898479179897545 -0.1883158376110395 -0.18678381391156895
-0.1852518482486135 -0.1837199420239223 -0.18218809668580235 -0.18065631373092833 -0.17912459470638892 -0.17759294121197386 -0.17606135490233593 -0.17452983748942563
-0.17299839074498666 -0.17146701650325602 -0.1699357166637201 -0.16840449319409848 -0.1668733481334076 -0.16534228359531888 -0.1638113017715265 -0.16228040493556115
-0.1607495954464593 -0.15921887575305987 -0.15768824839823245 -0.15615771602344267 -0.1546272813736918 -0.15309694730265275 -0.15156671677802694 -0.15003659288752025
-0.14850657884485455 -0.14697667799634012 -0.1454468938278244 -0.14391722997218623 -0.1423876902170313 -0.14085827851317423 -0.13932899898358866 -0.13779985593283736
-0.13627085385734883 -0.1347419974562121 -0.13321329164277637 -0.13168474155711857 -0.13015635257923372 -0.12862813034337903 -0.12710008075326473 -0.12557220999840293
-0.12404452457176708 -0.12251703128861566 -0.12098973730686619 -0.11946265014894034 -0.11793577772537488 -0.11640912836023397 -0.11488271081859948 -0.11335653433626122
-0.11183060865176762 -0.11030494404126452 -0.10877955135619445 -0.10725444206415574 -0.10572962829340417 -0.1042051228812244 -0.10268093942653689 -0.10115709234736489
-0.09963359694347335 -0.09811046946492538 -0.09658772718706005 -0.09506538849268202 -0.09354347296226824 -0.09202200147313087 -0.09050099630852261 -0.08898048127799112
-0.08746048185017004 -0.08594102529967823 -0.08442214086986725 -0.0829038599533382 -0.08138621629266009 -0.07986924620389832 -0.07835298882595637 -0.07683748639934329
-0.07532278457841331 -0.07380893278188184 -0.07229598458704678 -0.07078399817431585 -0.06927303682940356 -0.0677631695122797 -0.06625447150311144 -0.0647470251376195
-0.06324092064647038 -0.061736257115950634 -0.06023314359070293 -0.05873170034321676 -0.057232060339868045 -0.05573437093923797 -0.05423879586617809 -0.05274551751424703
-0.05125473964086341 -0.04976669053382054 -0.04828162674618855 -0.04679983751943543 -0.045321650043537824 -0.04384743573997369 -0.04237761780070523 -0.040912680277151836
-0.03945317909195495 -0.037999755448805 -0.03655315224966987 -0.035114234305013634 -0.03368401335553902 -0.0322636792331995 -0.030854638901089228 -0.02945856566159507
-0.028077461555638165 -0.026713736950128485 -0.02537031259136021 -0.02405075104923569 -0.022759426510706303 -0.02150174419375037 -0.02028442282704061 -0.019115854576356988
-0.01800655405758316 -0.01696969690330147 -0.01602172084803474 -0.015182908790191725 -0.014477791548146485 -0.013935130713311435 -0.013587288777593834 -0.013469219414148208
-0.013618463491753111 -0.013942756944644894 -0.014517050209667098 -0.015332385322691402 -0.016371602337210973 -0.017612980082235132 -0.01903349919516703 -0.020611072988007507
-0.022325728490732746 -0.024160022630553477 -0.02609901063005538 -0.028130002083600933 -0.030242246560987427 -0.03242662162097831 -0.03467535445015243 -0.036981786287256284
-0.0393401784818454 -0.04174555500717132 -0.04419357527711595 -0.04668043147769692 -0.049202765455861296 -0.05175760111709821 -0.05434228910835342 -0.05695446125300511
-0.05959199275925898 -0.062252970658703825 -0.06493566726948978 -0.0676385177390837 -0.07036010092225967 -0.0730991230044657 -0.07585440340047075 -0.07862486255093346
-0.08140951131208948 -0.08420744169063143 -0.08701781872081892 -0.08983987331650319 -0.09267289595956618 -0.09551623110894623 -0.09836927223342241 -0.10123145738629304
-0.10410226525266451 -0.10698121161034795 -0.10986784615389272 -0.11276174963839619 -0.11566253130577395 -0.11856982656100562 -0.12148329487045266 -0.1244026178576222
-0.12732749757509856 -0.13025765493383032 -0.13319282827332474 -0.13613277205832114 -0.13907725568894225 -0.14202606241325338 -0.1449789883319013 -0.14793584148608907

d f8 [401]
00000000: 279e 158d 047c b33f 279e 158d 047c b33f
00000010: 279e 158d 047c b33f 279e 158d 047c b33f
00000020: 279e 158d 047c b33f 279e 158d 047c b33f
00000030: 279e 158d 047c b33f 279e 158d 047c b33f
00000040: 279e 158d 047c b33f 279e 158d 047c b33f
00000050: 279e 158d 047c b33f 279e 158d 047c b33f
00000060: 279e 158d 047c b33f 279e 158d 047c b33f
00000070: 279e 158d 047c b33f 279e 158d 047c b33f
00000080: 279e 158d 047c b33f 279e 158d 047c b33f
00000090: 279e 158d 047c b33f 279e 158d 047c b33f
000000a0: 279e 158d 047c b33f 279e 158d 047c b33f
000000b0: 279e 158d 047c b33f 279e 158d 047c b33f
000000c0: 279e 158d 047c b33f 279e 158d 047c b33f
000000d0: 279e 158d 047c b33f 279e 158d 047c b33f
000000e0: 279e 158d 047c b33f 279e 158d 047c b33f
000000f0: 279e 158d 047c b33f 279e 158d 047c b33f
00000100: 279e 158d 047c b33f 279e 158d 047c b33f
00000110: 279e 158d 047c b33f 279e 158d 047c b33f
00000120: 279e 158d 047c b33f 279e 158d 047c b33f
00000130: 279e 158d 047c b33f 279e 158d 047c b33f
00000140: 279e 158d 047c b33f 279e 158d 047c b33f
00000150: 279e 158d 047c b33f 279e 158d 047c b33f
00000160: 279e 158d 047c b33f 279e 158d 047c b33f
00000170: 279e 158d 047c b33f 279e 158d 047c b33f
00000180: 279e 158d 047c b33f 279e 158d 047c b33f
00000190: 279e 158d 047c b33f 279e 158d 047c b33f
000001a0: 279e 158d 047c b33f 279e 158d 047c b33f
000001b0: 279e 158d 047c b33f 279e 158d 047c b33f
000001c0: 279e 158d 047c b33f 279e 158d 047c b33f
000001d0: 279e 158d 047c b33f 279e 158d 047c b33f
000001e0: 279e 158d 047c b33f 279e 158d 047c b33f
000001f0: 279e 158d 047c b33f 279e 158d 047c b33f
00000200: 279e 158d 047c b33f 279e 158d 047c b33f
00000210: 279e 158d 047c b33f 279e 158d 047c b33f
00000220: 279e 158d 047c b33f 279e 158d 047c b33f
00000230: 279e 158d 047c b33f 279e 158d 047c b33f
00000240: 279e 158d 047c b33f 279e 158d 047c b33f
00000250: 279e 158d 047c b33f 279e 158d 047c b33f
00000260: 279e 158d 047c b33f 279e 158d 047c b33f
00000270: 279e 158d 047c b33f 279e 158d 047c b33f
00000280: 279e 158d 047c b33f 279e 158d 047c b33f
00000290: 279e 158d 047c b33f 279e 158d 047c b33f
000002a0: 279e 158d 047c b33f 279e 158d 047c b33f
000002b0: 279e 158d 047c b33f 279e 158d 047c b33f
000002c0: 279e 158d 047c b33f 279e 158d 047c b33f
000002d0: 279e 158d 047c b33f 279e 158d 047c b33f
000002e0: 279e 158d 047c b33f 279e 158d 047c b33f
000002f0: 279e 158d 047c b33f 279e 158d 047c b33f
00000300: 279e 158d 047c b33f 279e 158d 047c b33f
00000310: 279e 158d 047c b33f 279e 158d 047c b33f
00000320: 279e 158d 047c b33f 279e 158d 047c b33f
00000330: 279e 158d 047c b33f 279e 158d 047c b33f
00000340: 279e 158d 047c b33f 279e 158d 047c b33f
00000350: 279e 158d 047c b33f 279e 158d 047c b33f
00000360: 279e 158d 047c b33f 279e 158d 047c b33f
00000370: 279e 158d 047c b33f 279e 158d 047c b33f
00000380: 279e 158d 047c b33f 279e 158d 047c b33f
00000390: 279e 158d 047c b33f 279e 158d 047c b33f
000003a0: 279e 158d 047c b33f 279e 158d 047c b33f
000003b0: 279e 158d 047c b33f 279e 158d 047c b33f
000003c0: 279e 158d 047c b33f 279e 158d 047c b33f
000003d0: 279e 158d 047c b33f 279e 158d 047c b33f
000003e0: 279e 158d 047c b33f 279e 158d 047c b33f
000003f0: 279e 158d 047c b33f 279e 158d 047c b33f
00000400: 279e 158d 047c b33f 279e 158d 047c b33f
00000410: 279e 158d 047c b33f 279e 158d 047c b33f
00000420: 279e 158d 047c b33f 279e 158d 047c b33f
00000430: 279e 158d 047c b33f 279e 158d 047c b33f
00000440: 279e 158d 047c b33f 279e 158d 047c b33f
00000450: 279e 158d 047c b33f 279e 158d 047c b33f
00000460: 279e 158d 047c b33f 279e 158d 047c b33f
00000470: 279e 158d 047c b33f 279e 158d 047c b33f
00000480: 279e 158d 047c b33f 279e 158d 047c b33f
00000490: 279e 158d 047c b33f 279e 158d 047c b33f
000004a0: 279e 158d 047c b33f 279e 158d 047c b33f
000004b0: 279e 158d 047c b33f 279e 158d 047c b33f
000004c0: 279e 158d 047c b33f 279e 158d 047c b33f
000004d0: 279e 158d 047c b33f 279e 158d 047c b33f
000004e0: 279e 158d 047c b33f 279e 158d 047c b33f
000004f0: 279e 158d 047c b33f 279e 158d 047c b33f
00000500: 279e 158d 047c b33f 279e 158d 047c b33f
00000510: 279e 158d 047c b33f 279e 158d 047c b33f
00000520: 279e 158d 047c b33f 279e 158d 047c b33f
00000530: 279e 158d 047c b33f 279e 158d 047c b33f
00000540: 279e 158d 047c b33f 279e 158d 047c b33f
00000550: 279e 158d 047c b33f 279e 158d 047c b33f
00000560: 279e 158d 047c b33f 279e 158d 047c b33f
00000570: 279e 158d 047c b33f 279e 158d 047c b33f
00000580: 279e 158d 047c b33f 279e 158d 047c b33f
00000590: 279e 158d 047c b33f 279e 158d 047c b33f
000005a0: 279e 158d 047c b33f 279e 158d 047c b33f
000005b0: 279e 158d 047c b33f 279e 158d 047c b33f
000005c0: 279e 158d 047c b33f 279e 158d 047c b33f
000005d0: 279e 158d 047c b33f 279e 158d 047c b33f
000005e0: 279e 158d 047c b33f 279e 158d 047c b33f
000005f0: 279e 158d 047c b33f 279e 158d 047c b33f
00000600: 279e 158d 047c b33f 279e 158d 047c b33f
00000610: 279e 158d 047c b33f 279e 158d 047c b33f
00000620: 279e 158d 047c b33f 279e 158d 047c b33f
00000630: 279e 158d 047c b33f 279e 158d 047c b33f
00000640: 279e 158d 047c b33f 279e 158d 047c b33f
00000650: 279e 158d 047c b33f 279e 158d 047c b33f
00000660: 279e 158d 047c b33f 279e 158d 047c b33f
00000670: 279e 158d 047c b33f 279e 158d 047c b33f
00000680: 279e 158d 047c b33f 279e 158d 047c b33f
00000690: 279e 158d 047c b33f 279e 158d 047c b33f
000006a0: 279e 158d 047c b33f 279e 158d 047c b33f
000006b0: 279e 158d 047c b33f 279e 158d 047c b33f
000006c0: 279e 158d 047c b33f 279e 158d 047c b33f
000006d0: 279e 158d 047c b33f 279e 158d 047c b33f
000006e0: 279e 158d 047c b33f 279e 158d 047c b33f
000006f0: 279e 158d 047c b33f 279e 158d 047c b33f
00000700: 279e 158d 047c b33f 279e 158d 047c b33f
00000710: 279e 158d 047c b33f 279e 158d 047c b33f
00000720: 279e 158d 047c b33f 279e 158d 047c b33f
00000730: 279e 158d 047c b33f 279e 158d 047c b33f
00000740: 279e 158d 047c b33f 279e 158d 047c b33f
00000750: 279e 158d 047c b33f 279e 158d 047c b33f
00000760: 279e 158d 047c b33f 279e 158d 047c b33f
00000770: 279e 158d 047c b33f 279e 158d 047c b33f
00000780: 279e 158d 047c b33f 279e 158d 047c b33f
00000790: 279e 158d 047c b33f 279e 158d 047c b33f
000007a0: 279e 158d 047c b33f 279e 158d 047c b33f
000007b0: 279e 158d 047c b33f 279e 158d 047c b33f
000007c0: 279e 158d 047c b33f 279e 158d 047c b33f
000007d0: 279e 158d 047c b33f 279e 158d 047c b33f
000007e0: 279e 158d 047c b33f 279e 158d 047c b33f
000007f0: 279e 158d 047c b33f 279e 158d 047c b33f
0.07611111111111112 0.07611111111111112 0.07611111111111112 0.07611111111111112 0.07611111111111112 0.07611111111111112 0.07611111111111112 0.07611111111111112
0.07611111111111112 0.07611111111111112 0.07611111111111112 0.07611111111111112 0.07611111111111112 0.07611111111111112 0.07611111111111112 0.07611111111111112
0.07611111111111112 0.07611111111111112 0.07611111111111112 0.07611111111111112 0.07611111111111112 0.07611111111111112 0.07611111111111112 0.07611111111111112
0.07611111111111112 0.07611111111111112 0.07611111111111112 0.07611111111111112 0.07611111111111112 0.07611111111111112 0.07611111111111112 0.07611111111111112
0.07611111111111112 0.07611111111111112 0.07611111111111112 0.07611111111111112 0.07611111111111112 0.07611111111111112 0.07611111111111112 0.07611111111111112
0.07611111111111112 0.07611111111111112 0.07611111111111112 0.07611111111111112 0.07611111111111112 0.07611111111111112 0.07611111111111112 0.07611111111111112
0.07611111111111112 0.07611111111111112 0.07611111111111112 0.07611111111111112 0.07611111111111112 0.07611111111111112 0.07611111111111112 0.07611111111111112
0.07611111111111112 0.07611111111111112 0.07611111111111112 0.07611111111111112 0.07611111111111112 0.07611111111111112 0.07611111111111112 0.07611111111111112
0.07611111111111112 0.07611111111111112 0.07611111111111112 0.07611111111111112 0.07611111111111112 0.07611111111111112 0.07611111111111112 0.07611111111111112
0.07611111111111112 0.07611111111111112 0.07611111111111112 0.07611111111111112 0.07611111111111112 0.07611111111111112 0.07611111111111112 0.07611111111111112
0.07611111111111112 0.07611111111111112 0.07611111111111112 0.07611111111111112 0.07611111111111112 0.07611111111111112 0.07611111111111112 0.07611111111111112
0.07611111111111112 0.07611111111111112 0.07611111111111112 0.07611111111111112 0.07611111111111112 0.07611111111111112 0.07611111111111112 0.07611111111111112
0.07611111111111112 0.07611111111111112 0.07611111111111112 0.07611111111111112 0.07611111111111112 0.07611111111111112 0.07611111111111112 0.07611111111111112
0.07611111111111112 0.07611111111111112 0.07611111111111112 0.07611111111111112 0.07611111111111112 0.07611111111111112 0.07611111111111112 0.07611111111111112
0.07611111111111112 0.07611111111111112 0.07611111111111112 0.07611111111111112 0.07611111111111112 0.07611111111111112 0.07611111111111112 0.07611111111111112
0.07611111111111112 0.07611111111111112 0.07611111111111112 0.07611111111111112 0.07611111111111112 0.07611111111111112 0.07611111111111112 0.07611111111111112
0.07611111111111112 0.07611111111111112 0.07611111111111112 0.07611111111111112 0.07611111111111112 0.07611111111111112 0.07611111111111112 0.07611111111111112
0.07611111111111112 0.07611111111111112 0.07611111111111112 0.07611111111111112 0.07611111111111112 0.07611111111111112 0.07611111111111112 0.07611111111111112
0.07611111111111112 0.07611111111111112 0.07611111111111112 0.07611111111111112 0.07611111111111112 0.07611111111111112 0.07611111111111112 0.07611111111111112
0.07611111111111112 0.07611111111111112 0.07611111111111112 0.07611111111111112 0.07611111111111112 0.07611111111111112 0.07611111111111112 0.07611111111111112
0.07611111111111112 0.07611111111111112 0.07611111111111112 0.07611111111111112 0.07611111111111112 0.07611111111111112 0.07611111111111112 0.07611111111111112
0.07611111111111112 0.07611111111111112 0.07611111111111112 0.07611111111111112 0.07611111111111112 0.07611111111111112 0.07611111111111112 0.07611111111111112
0.07611111111111112 0.07611111111111112 0.07611111111111112 0.07611111111111112 0.07611111111111112 0.07611111111111112 0.07611111111111112 0.07611111111111112
0.07611111111111112 0.07611111111111112 0.07611111111111112 0.07611111111111112 0.07611111111111112 0.07611111111111112 0.07611111111111112 0.07611111111111112
0.07611111111111112 0.07611111111111112 0.07611111111111112 0.07611111111111112 0.07611111111111112 0.07611111111111112 0.07611111111111112 0.07611111111111112
0.07611111111111112 0.07611111111111112 0.07611111111111112 0.07611111111111112 0.07611111111111112 0.07611111111111112 0.07611111111111112 0.07611111111111112
0.07611111111111112 0.07611111111111112 0.07611111111111112 0.07611111111111112 0.07611111111111112 0.07611111111111112 0.07611111111111112 0.07611111111111112
0.07611111111111112 0.07611111111111112 0.07611111111111112 0.07611111111111112 0.07611111111111112 0.07611111111111112 0.07611111111111112 0.07611111111111112
0.07611111111111112 0.07611111111111112 0.07611111111111112 0.07611111111111112 0.07611111111111112 0.07611111111111112 0.07611111111111112 0.07611111111111112
0.07611111111111112 0.07611111111111112 0.07611111111111112 0.07611111111111112 0.07611111111111112 0.07611111111111112 0.07611111111111112 0.07611111111111112
0.07611111111111112 0.07611111111111112 0.07611111111111112 0.07611111111111112 0.07611111111111112 0.07611111111111112 0.07611111111111112 0.07611111111111112
0.07611111111111112 0.07611111111111112 0.07611111111111112 0.07611111111111112 0.07611111111111112 0.07611111111111112 0.07611111111111112 0.07611111111111112

zmax f8 []
00000000: 0000 0000 0000 1440
5.0

hz_F f8 [401]
00000000: 7a7e 9eb7 69a2 a53f b84b e255 7931 ac3f
00000010: 4134 f295 757a ae3f 798a 8084 8648 af3f
00000020: 7fca b79e 8c91 af3f 06b8 12e7 83ab af3f
00000030: 6f84 1b0d c0b4 af3f 9a2b df96 02b8 af3f
00000040: 418c 4582 20b9 af3f 9190 cdc0 78b9 af3f
00000050: d8b4 875f 89b9 af3f 2b9b 88d2 7fb9 af3f
00000060: 97f2 f58d 6cb9 af3f 884d 268c 55b9 af3f
00000070: 0627 cefa 3cb9 af3f 855c 76a5 23b9 af3f
00000080: 9a4d 29d6 09b9 af3f cfdb 64a7 efb8 af3f
00000090: 9504 1c22 d5b8 af3f 72fb be48 bab8 af3f
000000a0: c14a 4d1b 9fb8 af3f 5e11 d898 83b8 af3f
000000b0: b691 11c0 67b8 af3f 867b 828f 4bb8 af3f
000000c0: 350b 9e05 2fb8 af3f cf29 c920 12b8 af3f
000000d0: 1a11 5ddf f4b7 af3f 9f28 a83f d7b7 af3f
000000e0: 5f1a ee3f b9b7 af3f 3d85 67de 9ab7 af3f
000000f0: 4dfe 4119 7cb7 af3f 4778 9fee 5cb7 af3f
00000100: 8624 965c 3db7 af3f 54f4 2f61 1db7 af3f
00000110: 0441 6afa fcb6 af3f 7871 3526 dcb6 af3f
00000120: 6e7b 74e2 bab6 af3f 328e fc2c 99b6 af3f
00000130: ce97 9403 77b6 af3f 3dca f463 54b6 af3f
00000140: f12a c64b 31b6 af3f 0c18 a2b8 0db6 af3f
00000150: fab4 11a8 e9b5 af3f 8973 8d17 c5b5 af3f
00000160: 3e7f 7c04 a0b5 af3f 1826 346c 7ab5 af3f
00000170: e543 f74b 54b5 af3f 25a7 f5a0 2db5 af3f
00000180: b167 4b68 06b5 af3f cf3a 009f deb4 af3f
00000190: 1cac 0642 b6b4 af3f 5f8f 3b4e 8db4 af3f
000001a0: f313 65c0 63b4 af3f 890e 3295 39b4 af3f
000001b0: 161c 39c9 0eb4 af3f b4d1 f758 e3b3 af3f
000001c0: 09c7 d140 b7b3 af3f a3b6 0f7d 8ab3 af3f
000001d0: c96f de09 5db3 af3f 1cef 4de3 2eb3 af3f
000001e0: 5528 5005 00b3 af3f 8b14 b86b d0b2 af3f
000001f0: 815f 3812 a0b2 af3f 914c 62f4 6eb2 af3f
00000200: 4665 a40d 3db2 af3f 6c2e 4959 0ab2 af3f
00000210: f7b8 75d2 d6b1 af3f 1241 2874 a2b1 af3f
00000220: ab95 3639 6db1 af3f 298e 4c1c 37b1 af3f
00000230: 6159 ea17 00b1 af3f e4c0 6226 c8b0 af3f
00000240: a757 d941 8fb0 af3f 788d 4064 55b0 af3f
00000250: 79a3 5787 1ab0 af3f 8897 a8a4 deaf af3f
00000260: 92fd 85b5 a1af af3f 9b8c 08b3 63af af3f
00000270: bab8 0c96 24af af3f ce35 3057 e4ae af3f
00000280: fe20 cfee a2ae af3f 5052 0155 60ae af3f
00000290: 0836 9781 1cae af3f bac3 166c d7ad af3f
000002a0: e730 b80b 91ad af3f 275b 6257 49ad af3f
000002b0: 1631 a745 00ad af3f c5c9 bfcc b5ac af3f
000002c0: d252 88e2 69ac af3f 21b6 7b7c 1cac af3f
000002d0: 9613 af8f cdab af3f 6ae9 cc10 7dab af3f
000002e0: 7b07 10f4 2aab af3f c41d 3e2d d7aa af3f
000002f0: 3220 a2af 81aa af3f df1e 066e 2aaa af3f
00000300: 0810 ad5a d1a9 af3f eedf 4b67 76a9 af3f
00000310: 2f5b 0285 19a9 af3f dd97 53a4 baa8 af3f
00000320: 18cf 1db5 59a8 af3f 61cb 91a6 f6a7 af3f
00000330: 8be2 2967 91a7 af3f 2419 a0e4 29a7 af3f
00000340: cdf1 e30b c0a6 af3f 9468 0fc9 53a6 af3f
00000350: 843e 5b07 e5a5 af3f 8f65 12b1 73a5 af3f
00000360: 64da 84af ffa4 af3f f654 f9ea 88a4 af3f
00000370: 3614 9e4a 0fa4 af3f a2ba 78b4 92a3 af3f
00000380: 4dd4 540d 13a3 af3f ae4e b138 90a2 af3f
00000390: 4b8e ac18 0aa2 af3f 2003 ef8d 80a1 af3f
000003a0: b255 9477 f3a0 af3f 2aaa 12b3 62a0 af3f
000003b0: 793b 201c ce9f af3f 9ee9 968c 359f af3f
000003c0: cd7b 55dc 989e af3f 08ab 1ee1 f79d af3f
000003d0: 6d71 756e 529d af3f 929b 7655 a89c af3f
000003e0: 7b2b af64 f99b af3f 1b65 ef67 459b af3f
000003f0: 4c11 1a28 8c9a af3f e8ae ef6a cd99 af3f
00000400: 573b d5f2 0899 af3f cce2 957e 3e98 af3f
00000410: 6252 1fc9 6d97 af3f 531b 3889 9696 af3f
00000420: 4353 2f71 b895 af3f 9de8 842e d394 af3f
00000430: 94ef 8969 e693 af3f 5dcb f7c4 f192 af3f
00000440: e676 7ddd f491 af3f 6191 4149 ef90 af3f
00000450: df19 5897 e08f af3f b853 2a4f c88e af3f
00000460: 4b37 cfef a58d af3f db90 52ef 788c af3f
00000470: fbca e8b9 408b af3f a0d2 0cb1 fc89 af3f
00000480: c998 852a ac88 af3f 35df 4f6f 4e87 af3f
00000490: c1c0 68ba e285 af3f 68fd 7437 6884 af3f
000004a0: aa19 4001 de82 af3f 23ea 0d20 4381 af3f
000004b0: dd4e b887 967f af3f 37a5 9115 d77d af3f
000004c0: 177b 038e 037c af3f 4778 df99 1a7a af3f
000004d0: 040e 57c3 1a78 af3f 350b 8c72 0276 af3f
000004e0: 5a74 aae9 cf73 af3f 6d63 7840 8171 af3f
000004f0: 2e16 465f 146f af3f 2dac 23f9 866c af3f
00000500: 7d48 3d85 d669 af3f 5f9b 3837 0067 af3f
00000510: 6338 67f6 0064 af3f a3aa 9853 d560 af3f
00000520: 2d41 4c7d 795d af3f 27e6 f531 e959 af3f
00000530: 9ddf f8af 1f56 af3f 4a22 e8a2 1752 af3f
00000540: ff7a 830d cb4d af3f 14a6 cb2f 3349 af3f
00000550: 9162 6268 4844 af3f d1ce 3e10 023f af3f
00000560: 2833 874f 5639 af3f 01c2 1cea 3933 af3f
00000570: b176 1202 a02c af3f bc20 e2cd 7925 af3f
00000580: e4d0 b63f b61d af3f f680 8f9a 4115 af3f
00000590: b5a7 4df1 040c af3f 0df4 f98a e501 af3f
000005a0: e34f aa26 c4f6 ae3f 1dfa 8c18 7cea ae3f
000005b0: 837f c938 e2dc ae3f c7b4 5e9c c3cd ae3f
000005c0: 1097 4210 e4bc ae3f 78a9 6950 fca9 ae3f
000005d0: f766 f3f7 b794 ae3f 2d55 f32e b37c ae3f
000005e0: acb8 0e27 7861 ae3f 47e5 8c8c 7c42 ae3f
000005f0: 3a67 d42e 1f1f ae3f 8e25 5147 a6f6 ad3f
00000600: 5f6c ebe3 3ec8 ad3f d823 76ee fd92 ad3f
00000610: 5880 d8c0 e255 ad3f e509 ee85 d90f ad3f
00000620: f3f2 36ad b7bf ac3f 295a f6c7 2464 ac3f
00000630: cda2 0d3e 54fb ab3f b534 572a 5e82 ab3f
00000640: 779e 2f84 e3f3 aa3f 8872 42a0 2e8a aa3f
00000650: fb7c fcd7 901f aa3f 0556 f95e 99b5 a93f
00000660: d3d4 1866 964d a93f 51f8 5950 88e8 a83f
00000670: 881c b253 2387 a83f 0f7e 4885 d929 a83f
00000680: ff0f e90a e8d0 a73f b245 561b 647c a73f
00000690: 3eb7 a436 462c a73f 873a ca1f 73e0 a63f
000006a0: cd6d bfb3 c298 a63f d8de 3ff4 0455 a63f
000006b0: 69a2 15a7 0515 a63f 9c57 6de1 8ed8 a53f
000006c0: 071d d1c6 6a9f a53f f571 6db3 6469 a53f
000006d0: 0dba 89fb 4936 a53f a2b6 2e5f ea05 a53f
000006e0: dd42 9848 18d8 a43f 0d0d d1e5 a8ac a43f
000006f0: 2cca 3d29 7483 a43f 1135 83b9 545c a43f
00000700: d627 c3d6 2737 a43f 77fa 6a39 cd13 a43f
00000710: 26e0 88ed 26f2 a33f 9da5 b42c 19d2 a33f
00000720: 95ac f037 8ab3 a33f 018e 7032 6296 a33f
00000730: 6651 ddfd 8a7a a33f 2f03 7318 f05f a33f
00000740: ba02 297d 7e46 a33f 6b0a f985 242e a33f
00000750: 84e3 44d0 d116 a33f 5574 4d23 7700 a33f
00000760: 730b a558 06eb a23f e4fd 8146 72d6 a23f
00000770: 5d8f d3ab aec2 a23f 3643 fa1d b0af a23f
00000780: 5ca4 04f8 6b9d a23f 3764 524b d88b a23f
00000790: 21fd 80d1 eb7a a23f a59d 86df 9d6a a23f
000007a0: cdd0 e159 e65a a23f 194c c6a9 bd4b a23f
000007b0: dbd7 30b3 1c3d a23f f647 cecb fc2e a23f
000007c0: 6ef4 a2b2 5721 a23f 88d5 6188 2714 a23f
000007d0: 78ce 63c8 6607 a23f 1f07 3142 10fb a13f
000007e0: dea2 8f13 1fef a13f 8300 0ca3 8ee3 a13f
000007f0: 2715 f09a 5ad8 a13f 9b20 a0e4 7ecd a13f
0.04225473753399185 0.05506495641124992 0.05952804046055649 0.06110020034272607 0.06165732800936485 0.061855432469528224 0.06192588958743605 0.06195076076217916
0.0619592818282162 0.06196191171218957 0.06196240702761607 0.061962122392563344 0.061961548165503526 0.06196086250124738 0.06196013032520224 0.061959375331917456
0.0619586061408441 0.0619578258360246 0.061957035459280586 0.061956235294465936 0.06195542534137167 0.061954605491367984 0.06195377559268726 0.061952935474656676
0.06195208495684882 0.06195122385232176 0.06195035196882 0.06194946910916709 0.06194857507130246 0.06194766964814356 0.06194675262758818 0.0619458237922435
0.06194488291937099 0.06194392978066135 0.061942964142078366 0.06194198576369819 0.06194099439948429 0.0619399897971359 0.06193897169786987 0.06193793983620253
0.06193689393974989 0.06193583372900954 0.061934758917098834 0.061933669209543636 0.06193256430401427 0.061931443890056836 0.061930307648829154 0.0619291552528252
0.06192798636557429 0.061926800641335704 0.06192559772474501 0.06192437725056154 0.06192313884324809 0.06192188211664724 0.061920606673588605 0.06191931210551918
0.06191799799206705 0.06191666390064412 0.061915309385966184 0.06191393398964193 0.06191253723962179 0.06191111864976858 0.061909677719255825 0.06190821393206492
0.061906726756385796 0.06190521564402904 0.061903680029773804 0.06190211933074087 0.061900532945667074 0.06189892025420491 0.0618972806161533 0.06189561337066765
0.061893917835433236 0.061892193305790266 0.06189043905380393 0.061888654327318326 0.06188683834897825 0.06188499031511548 0.06188310939465809 0.06188119472799834
0.06187924542570221 0.06187726056729004 0.0618752391998037 0.061873180336426484 0.061871082954981386 0.06186894599630071 0.06186676836259346 0.061864548915667984
0.0618622864750812 0.06185997981615921 0.06185762766793983 0.06185522871097045 0.061852781575011805 0.06185028483656255 0.061847737016308094 0.061845136576321506
0.06184248191723901 0.06183977137510498 0.061837003218150215 0.061834175643340684 0.0618312867726713 0.061828334649269186 0.06182531723329018 0.06182223239743426
0.06181907792231165 0.061815851491432344 0.061812550685883344 0.061809172978608655 0.06180571572842977 0.061802176173538045 0.061798551424580614 0.06179483845732149
0.0617910341046942 0.061787135048374395 0.06178313780972341 0.06177903874004742 0.06177483401021834 0.061770519599424326 0.061766091283167186 0.061761544620327444
0.06175687493918467 0.061752077322429655 0.06174714659093437 0.061742077286275024 0.06173686365180849 0.061731499612230865 0.06172597875141381 0.061720294288390154
0.06171443905133483 0.061708405449228815 0.061702185441082205 0.061695770502459134 0.06168915158892798 0.06168231909619346 0.061675262816577675 0.061667971891344854
0.061660434758534596 0.061652639095685975 0.06164457175696091 0.061636218703973567 0.06162756492959306 0.06161859437387004 0.06160928983117305 0.061599632847366026
0.061589603605897 0.06157918080128725 0.06156834149840185 0.06155706097569685 0.06154531255019731 0.06153306738174915 0.06152029425370895 0.06150695932667321
0.061493025861400756 0.061478453906361134 0.06146319994470775 0.0614472164943635 0.06143045165411172 0.06141284858694616 0.06139434493074379 0.06137487212421209
0.06135435463387837 0.0613327090653033 0.06130984313823331 0.061285654501565 0.061260029359006964 0.061232840870570286 0.0612039472875374 0.06117318976982185
0.061140389823540524 0.061105346283351875 0.061067831747270714 0.06102758835132039 0.06098432274629878 0.0609377001077327 0.060887336972183966 0.060832792646637185
0.06077355888138117 0.06070904742932896 0.060638575035070565 0.060561345305338056 0.060476426811106675 0.06038272666636522 0.060278958732623365 0.06016360553562943
0.06003487299430621 0.059890637222298204 0.05972838308089295 0.05954513500334211 0.05933738209510983 0.05910100188925554 0.05883119055415738 0.05852241154259295
0.058168378183574225 0.05776208434969704 0.05729588131021107 0.05676154861341213 0.056150188345304296 0.055451535615408006 0.05465186364637518 0.053729002636467106
0.052641973386752854 0.0518354960088106 0.05102207790900511 0.05021361622190671 0.04942007061291922 0.048649082001234085 0.04790602108646974 0.04719428779594292
0.04651570447143171 0.045870903336559535 0.045259660883273586 0.04468116534291249 0.04413422054468761 0.04361739617882926 0.043129135747965126 0.04266783239169955
0.04223188092196933 0.041819712546132516 0.04142981715709846 0.04106075679679334 0.04071117292563085 0.04037978940371021 0.040065412554117635 0.03976692928845627
0.03948330399141724 0.039213574656504706 0.03895684861748831 0.038712298114045064 0.038479155853871884 0.03825671067923154 0.03804430340702218 0.03784132288411112
0.03764720228037306 0.037461415628531856 0.03728347461078044 0.03711292558612259 0.03694934684838005 0.036792346102625634 0.03664155814638435 0.036496642741559546
0.0363572826630125 0.03622318191009593 0.03609406406803318 0.035969670806760314 0.03584976050561437 0.035734106993139565 0.03562249839198702 0.03551473605979531
0.03541063361760953 0.03531001605817169 0.03521271892705341 0.035118587570208463 0.035027476442172065 0.03493924846952814 0.03485377446490139 0.03477093258703797

Vz_F f8 [401]
00000000: 006f 1490 56ab e23f 00d1 9303 f402 e93f
00000010: 8046 2003 9f38 eb3f 8087 b5ef e1ff eb3f
00000020: 00bf d3b8 7e46 ec3f 800d 7d7f 9a5f ec3f
00000030: 8058 e093 8868 ec3f 00bd c28e af6b ec3f
00000040: 8000 1a09 c46c ec3f 00f0 a55d 196d ec3f
00000050: 802c e06f 296d ec3f c02d 9e33 206d ec3f
00000060: 80af ed91 0d6d ec3f 0059 9c52 f76c ec3f
00000070: 0003 f490 df6c ec3f 80ef c411 c76c ec3f
00000080: c094 a71c ae6c ec3f c0e0 39cb 946c ec3f
00000090: c029 2326 7b6c ec3f 8006 bf2f 616c ec3f
000000a0: 4005 0de8 466c ec3f 4028 264e 2c6c ec3f
000000b0: 40b7 c760 116c ec3f c0c6 861e f66b ec3f
000000c0: 40ad e385 da6b ec3f 00e7 5095 be6b ec3f
000000d0: c0a3 354b a26b ec3f 809c eea5 856b ec3f
000000e0: 8027 cea3 686b ec3f 40ed 1b43 4b6b ec3f
000000f0: c0e9 1482 2d6b ec3f 00d9 ea5e 0f6b ec3f
00000100: 0019 c4d7 f06a ec3f 402f bbea d16a ec3f
00000110: c073 de95 b26a ec3f 80b9 2fd7 926a ec3f
00000120: 00d4 a3ac 726a ec3f c044 2214 526a ec3f
00000130: 80c4 840b 316a ec3f 80cc 9690 0f6a ec3f
00000140: c029 15a1 ed69 ec3f 4086 ad3a cb69 ec3f
00000150: 80da fd5a a869 ec3f 80fa 93ff 8469 ec3f
00000160: 0006 ed25 6169 ec3f 40d6 74cb 3c69 ec3f
00000170: 406e 85ed 1769 ec3f c064 6689 f268 ec3f
00000180: 8040 4c9c cc68 ec3f 00d2 5723 a668 ec3f
00000190: 0073 951b 7f68 ec3f 007d fc81 5768 ec3f
000001a0: 8064 6e53 2f68 ec3f c008 b68c 0668 ec3f
000001b0: 00de 862a dd67 ec3f 4024 7c29 b367 ec3f
000001c0: c0f9 1786 8867 ec3f c082 c23c 5d67 ec3f
000001d0: 40e4 c849 3167 ec3f 4064 5ca9 0467 ec3f
000001e0: c03d 9157 d766 ec3f 00b7 5d50 a966 ec3f
000001f0: 00da 988f 7a66 ec3f c062 f910 4b66 ec3f
00000200: 0079 14d0 1a66 ec3f 4070 5cc8 e965 ec3f
00000210: c064 1ff5 b765 ec3f 40e6 8551 8565 ec3f
00000220: 006d 91d8 5165 ec3f 80dc 1a85 1d65 ec3f
00000230: c0e0 d051 e864 ec3f 4040 3639 b264 ec3f
00000240: 001a a035 7b64 ec3f 4009 3441 4364 ec3f
00000250: 402b e655 0a64 ec3f 401c 776d d063 ec3f
00000260: 00e3 7181 9563 ec3f 8092 298b 5963 ec3f
00000270: 40f8 b683 1c63 ec3f 0034 f663 de62 ec3f
00000280: 40f9 8324 9f62 ec3f 80f7 babd 5e62 ec3f
00000290: 40ce b027 1d62 ec3f c01d 335a da61 ec3f
000002a0: 8055 c44c 9661 ec3f c03c 98f6 5061 ec3f
000002b0: c079 904e 0a61 ec3f 40ca 384b c260 ec3f
000002c0: 0014 c3e2 7860 ec3f 402f 030b 2e60 ec3f
000002d0: c086 6ab9 e15f ec3f 0069 03e3 935f ec3f
000002e0: 4026 6c7c 445f ec3f 00cd d179 f35e ec3f
000002f0: 40bd eace a05e ec3f c0b4 f06e 4c5e ec3f
00000300: 80cd 9a4c f65d ec3f 40c8 165a 9e5d ec3f
00000310: c032 0289 445d ec3f 0011 63ca e85c ec3f
00000320: c0fb 9f0e 8b5c ec3f 40d7 7745 2b5c ec3f
00000330: 8019 f95d c95b ec3f 0041 7846 655b ec3f
00000340: 40fa 85ec fe5a ec3f 4078 e43c 965a ec3f
00000350: 0023 7c23 2b5a ec3f c06d 4f8b bd59 ec3f
00000360: 0020 6e5e 4d59 ec3f 007f e785 da58 ec3f
00000370: 009a bbe9 6458 ec3f 40af cb70 ec57 ec3f
00000380: c045 c900 7157 ec3f c041 247e f256 ec3f
00000390: c0a2 f7cb 7056 ec3f 00cd f4cb eb55 ec3f
000003a0: 8077 4d5e 6355 ec3f 40c0 9b61 d754 ec3f
000003b0: 80a6 c8b2 4754 ec3f 8089 f02c b453 ec3f
000003c0: 806e 45a9 1c53 ec3f 0022 effe 8052 ec3f
000003d0: c0b4 e802 e151 ec3f 0052 db87 3c51 ec3f
000003e0: 4002 f65d 9350 ec3f c033 c252 e54f ec3f
000003f0: 8099 f430 324f ec3f c01a 3ac0 794e ec3f
00000400: 407f 00c5 bb4d ec3f 402e 3a00 f84c ec3f
00000410: c0bc 1c2f 2e4c ec3f 00bf d90a 5e4b ec3f
00000420: 4010 5148 874a ec3f 400c bc97 a949 ec3f
00000430: 4005 51a4 c448 ec3f 80e3 dd13 d847 ec3f
00000440: c037 5986 e346 ec3f 8070 6895 e645 ec3f
00000450: 8026 dad3 e044 ec3f 0007 13cd d143 ec3f
00000460: 00cd 6b04 b942 ec3f 007b 7ef4 9541 ec3f
00000470: c0e3 600e 6840 ec3f c005 cab8 2e3f ec3f
00000480: 80d2 1f4f e93d ec3f 002b 6a20 973c ec3f
00000490: 40a0 276e 373b ec3f 4021 006b c939 ec3f
000004a0: 00d0 5039 4c38 ec3f 00c4 8be9 be36 ec3f
000004b0: 80b2 6578 2035 ec3f 8042 cacc 6f33 ec3f
000004c0: c0de 8eb5 ab31 ec3f 804f dae6 d22f ec3f
000004d0: c00c 36f7 e32d ec3f c0dc 3b5c dd2b ec3f
000004e0: 00a2 d066 bd29 ec3f 80bf d93e 8227 ec3f
000004f0: 80f2 57de 2925 ec3f 0003 ce0b b222 ec3f
00000500: 8007 d553 1820 ec3f 0079 ba01 5a1d ec3f
00000510: c0f4 fc16 741a ec3f 005e 7441 6317 ec3f
00000520: 0077 e7cf 2314 ec3f 00cc c4a4 b110 ec3f
00000530: 80e2 a426 080d ec3f c00a 292e 2209 ec3f
00000540: 009c b2f0 f904 ec3f 802d 52e7 8800 ec3f
00000550: 808d 2ab1 c7fb eb3f 00f2 57f0 adf6 eb3f
00000560: 0088 3620 32f1 eb3f 002d a163 49eb eb3f
00000570: 0081 7049 e7e4 eb3f 00c3 1f85 fddd eb3f
00000580: 8028 0599 7bd6 eb3f 40ea fb6e 4ece eb3f
00000590: c0e1 b4db 5fc5 eb3f c0c3 1f08 96bb eb3f
000005a0: 4047 87bb d2b0 eb3f 40db 1a80 f2a4 eb3f
000005b0: 807d d49a cb97 eb3f c02a 24cf 2c89 eb3f
000005c0: 8028 e7e6 db78 eb3f c073 86f8 9366 eb3f
000005d0: 0040 9168 0352 eb3f c04f 25ab c93a eb3f
000005e0: 8097 cbd5 7420 eb3f 8025 2926 7f02 eb3f
000005f0: 0057 48be 4ce0 ea3f c0e2 0ffa 29b9 ea3f
00000600: 8000 aade 4a8c ea3f 00ae 3f19 cc58 ea3f
00000610: c098 557d b51d ea3f 60f0 9051 fcd9 e93f
00000620: 2045 66e1 7f8c e93f 80a9 cd1d f333 e93f
00000630: e064 5aa4 98ce e83f a0ca 8420 a159 e83f
00000640: e091 b1f1 dacf e73f 2086 a0a8 a369 e73f
00000650: 8046 ff2b 8b02 e73f 202a b580 139c e63f
00000660: 605a 81ce 7f37 e63f e09b fc00 c8d5 e53f
00000670: 60b2 ac5a 9a77 e53f 002e 4f2c 651d e53f
00000680: 808a c496 63c7 e43f 0094 791d aa75 e43f
00000690: a02e e97f 3128 e43f a0b6 4c67 dfde e33f
000006a0: 401f ea03 8d99 e33f 8091 34ed 0b58 e33f
000006b0: c0ff 78a2 291a e33f 2012 b000 b2df e23f
000006c0: 0080 b6f2 70a8 e23f 207c b891 3374 e23f
000006d0: a098 57de c842 e23f 0096 7f30 0214 e23f
000006e0: c03d c873 b3e7 e13f 00a0 3840 b3bd e13f
000006f0: 40ae cdda da95 e13f 8058 e825 0670 e13f
00000700: a0e1 6c87 134c e13f e0d9 a9c8 e329 e13f
00000710: 6073 e3f2 5909 e13f 0042 7e2a 5bea e03f
00000720: 007a 228a cecc e03f 0040 bdfe 9cb0 e03f
00000730: 60f4 f224 b195 e03f e03b 5b28 f77b e03f
00000740: 207d b6a4 5c63 e03f 202c 3089 d04b e03f
00000750: 00d6 adfd 4235 e03f 200c 1e4a a51f e03f
00000760: 40cc b1bf e90a e03f 40be cc47 07ee df3f
00000770: 4045 853a cec7 df3f 00c6 5343 12a3 df3f
00000780: 80ae 4ccc be7f df3f 403e 1ca0 c05d df3f
00000790: 40c6 cdce 053d df3f c083 db94 7d1d df3f
000007a0: 40ae 5544 18ff de3f c018 f32f c7e1 de3f
000007b0: 80c4 e097 7cc5 de3f 00a4 2998 2baa de3f
000007c0: 00a7 9218 c88f de3f 0074 cabd 4676 de3f
000007d0: c0ea cedb 9c5d de3f 401f 6d69 c045 de3f
000007e0: 4040 c3f4 a72e de3f 0089 ad98 4a18 de3f
000007f0: 8012 0af3 9f02 de3f 40a6 c01b a0ed dd3f
0.5834152998026809 0.7816104955550429 0.8506617604309241 0.8749856645410858 0.8836053476242967 0.8866703500756756 0.8877604377946824 0.8881452358527042
0.8882770707860033 0.8883177594248082 0.8883254227706772 0.8883210189973667 0.8883121347584932 0.8883015264025573 0.8882901984325997 0.8882785174423447
0.8882666167889042 0.8882545441874967 0.8882423157568198 0.8882299358885604 0.8882174045794855 0.8882047201489129 0.8881918802487476 0.8881788822383996
0.8881657233263596 0.8881524006203279 0.8881389111457949 0.8881252518521165 0.8881114196130824 0.8880974112247841 0.8880832234056513 0.8880688527922587
0.8880542959384741 0.8880395493119764 0.8880246092918398 0.888009472166047 0.8879941341280073 0.8879785912742122 0.8879628396008599 0.8879468750004804
0.8879306932588449 0.8879142900515902 0.887897660940169 0.8878808013685813 0.8878637066592887 0.8878463720090579 0.8878287924848749 0.8878109630196818
0.8877928784077227 0.8877745332998188 0.887755922197897 0.887737039451082 0.8877178792491947 0.8876984356177431 0.8876787024118471 0.8876586733105185
0.887638341809911 0.8876177012171738 0.8875967446430266 0.8875754649954004 0.8875538549709105 0.8875319070482135 0.8875096134786986 0.8874869662787077
0.8874639572202625 0.8874405778219696 0.8874168193389309 0.8873926727530446 0.8873681287617785 0.8873431777673346 0.8873178098647472 0.8872920148296615
0.8872657821055441 0.887239100790147 0.8872119596211192 0.8871843469613694 0.8871562507839315 0.8871276586547339 0.8870985577157242 0.8870689346673544
0.8870387757486142 0.8870080667181668 0.8869767928321792 0.8869449388229711 0.8869124888757796 0.8868794266035351 0.8868457350216019 0.8868113965202795
0.8867763928361683 0.8867407050215448 0.8867043134125296 0.8866671975950169 0.8866293363691469 0.886590707711008 0.8865512887331661 0.8865110556413569
0.8864699836907874 0.886428047137322 0.8863852191876376 0.8863414719458262 0.8862967763560547 0.8862511021422748 0.8862044177447359 0.8861566902506013
0.8861078853222537 0.8860579671197755 0.8860068982185965 0.8859546395209961 0.8859011501635905 0.8858463874166489 0.8857903065771211 0.885732860855093
0.8856740012508268 0.8856136764243772 0.8855518325554712 0.8854884131928031 0.8854233590934513 0.8853566080488307 0.8852880946989927 0.8852177503325009
0.8851455026701416 0.8850712756330381 0.8849949890915454 0.8849165585948526 0.8848358950782043 0.8847529045466374 0.8846674877320737 0.884579539721777
0.884488949555795 0.8843955997885544 0.8842993660126908 0.8842001163411339 0.8840977108416226 0.8839920009198821 0.8838828286463141 0.8837700260183823
0.8836534141535068 0.883532802402911 0.883407987378817 0.8832787518842622 0.8831448637342021 0.8830060744547552 0.8828621178464502 0.8827127083933917
0.8825575395008656 0.8823962815380071 0.8822285796604845 0.8820540513852748 0.8818722838827853 0.8816828309483071 0.8814852096089254 0.8812788963133045
0.8810633226448417 0.8808378704875253 0.8806018665640281 0.8803545762483722 0.8800951965432091 0.8798228480863912 0.87953656603311 0.8792352896271893
0.8789178502413364 0.8785829576261506 0.8782291840540424 0.8778549459847795 0.8774584828022114 0.8770378320826921 0.8765908007399759 0.8761149312561756
0.8756074620367826 0.8750652807224668 0.8744848690297857 0.8738622373780913 0.873192847171822 0.8724715181246268 0.8716923174252145 0.8708484268264272
0.8699319828676977 0.8689338843972294 0.8678435603279055 0.8666486891435099 0.8653348601021449 0.8638851644562706 0.8622797035240382 0.8604949994781563
0.8585032949279281 0.856271729851521 0.853761390908403 0.8509262411775964 0.8477119613350936 0.8440547700239875 0.8398803440529434 0.8351030239128576
0.8296255444438572 0.8233395093097329 0.8161265800415762 0.807859572705194 0.7984008219083627 0.7875915128800415 0.7752192697545546 0.7609410891658008
0.7441229553774598 0.7316454213616375 0.7190605029411046 0.7065522683927306 0.6942748101526597 0.6823463458321122 0.6708499690044611 0.6598382821479731
0.6493394798929586 0.6393633437807011 0.6299064157733092 0.620956136471893 0.6124939991432043 0.6044978745381258 0.5969436810773843 0.5898065579827438
0.5830616703497071 0.576684746370919 0.5706524222012099 0.5649424502595934 0.5595338116999571 0.554406762535109 0.5495428346161546 0.5449248066313572
0.5405366559053171 0.5363634986122712 0.5323915237346277 0.5286079244561392 0.5250008295004704 0.5215592360855226 0.5182729455624546 0.515132502385196
0.5121291367576397 0.5092547110992918 0.5065016703289871 0.5038629958729679 0.5013321632417345 0.4989031029863078 0.49657016482258953 0.4943280847065523
0.4921719546425507 0.49009719501279747 0.48809952922519884 0.4861749604879684 0.48431975053128795 0.4825304001100328 0.48080363113246705 0.4791363702739204
0.4775257339448302 0.4759690144945239 0.4744636675419933 0.4730073003342916 0.4715976610432371 0.4702326289172021 0.46891020521460547 0.46762850485047025
