onecap_model_with_structure_ambiguity/output/upper_triangular_four_ambiguous_parameters/Delta_10.0_distorted_0/logadjustment_1_boundary_0/zmax_5.0_zscale_2.0/delta_0.02/q_0.3_gamma_9.0_rho_1.0/model.npz (npz, 126264 bytes, 58 tensors)

clowerlim f8 []
0.0001
00000000: 2d43 1ceb e236 1a3f

zmin f8 []
-5.0
00000000: 0000 0000 0000 14c0

Delta f8 []
10.0
00000000: 0000 0000 0000 2440

s1_F f8 [401]
-0.826490019649143 -0.8223734717086189 -0.8182568823207129 -0.8141402839520017 -0.8100236971359468 -0.8059071349841995 -0.8017906059811757 -0.7976741157188854
-0.7935576679768499 -0.7894412653994475 -0.7853249099180349 -0.7812086030156925 -0.7770923458968697 -0.7729761395921321 -0.7688599850267782 -0.7647438830638029
-0.7606278345309656 -0.7565118402380177 -0.7523959009910521 -0.748280017595891 -0.7441641908666651 -0.7400484216284059 -0.7359327107178572 -0.731817058987089
-0.7277014673032377 -0.7235859365509582 -0.719470467632247 -0.7153550614681424 -0.7112397189986748 -0.7071244411830409 -0.7030092290008928 -0.6988940834528984
-0.6947790055619135 -0.6906639963731612 -0.6865490569539119 -0.6824341883950144 -0.6783193918124536 -0.6742046683464341 -0.6700900191628937 -0.6659754454545476
-0.6618609484410657 -0.6577465293698214 -0.6536321895173998 -0.6495179301905923 -0.6454037527257364 -0.6412896584912848 -0.6371756488882111 -0.6330617253506061
-0.6289478893477636 -0.624834142384207 -0.6207204860014419 -0.6166069217782991 -0.6124934513336063 -0.6083800763254797 -0.604266798455073 -0.6001536194658571
-0.5960405411454123 -0.591927565327505 -0.5878146938941412 -0.5837019287750541 -0.5795892719520712 -0.5754767254585262 -0.5713642913819941 -0.5672519718670231
-0.563139769115232 -0.5590276853894467 -0.5549157230138747 -0.5508038843777122 -0.5466921719362673 -0.5425805882152128 -0.5384691358107803 -0.5343578173946503
-0.5302466357150508 -0.5261355936003862 -0.522024693962228 -0.5179139397983922 -0.513803334196383 -0.5096928803364735 -0.5055825814960372 -0.5014724410524788
-0.4973624624877039 -0.4932526493926458 -0.489143005471115 -0.48503353454472625 -0.4809242405570801 -0.4768151275800876 -0.47270619981810813 -0.46859746161481236
-0.46448891745762017 -0.4603805719847985 -0.4562724299923867 -0.45216449643996054 -0.44805677645959646 -0.4439492753616526 -0.43984199864413087 -0.4357349520006829
-0.4316281413303178 -0.4275215727457836 -0.4234152525848059 -0.41930918742038453 -0.4152033840716461 -0.4110978496163088 -0.40699259140334865 -0.4028876170662855
-0.3987829345374047 -0.39467855206333674 -0.39057447822020064 -0.3864707219317374 -0.3823672924868055 -0.3782641995593429 -0.37416145322839717 -0.37005906399995026
-0.36595704283123714 -0.36185540115497267 -0.3577541509065797 -0.353653304552281 -0.3495528751199977 -0.34545287623176574 -0.34135332213882813 -0.3372542277597818
-0.33315560872019695 -0.32905748139622687 -0.32495986296094825 -0.3208627714352383 -0.3167662257411403 -0.3126702457601241 -0.3085748523963918 -0.3044800676442787
-0.3003859146620403 -0.29629241785153454 -0.2921996029441468 -0.28810749709450995 -0.28401612898194684 -0.27992552892122774 -0.27583572898292597 -0.27174676312469603
-0.2676586673347032 -0.26357147978812 -0.25948524101862014 -0.25539999410677794 -0.25131578488614326 -0.2472326621706473 -0.2431506780043073 -0.23906988793704032
-0.23499035132943227 -0.23091213168980068 -0.22683529704793157 -0.22275992037058956 -0.2186860800230892 -0.21461386028446666 -0.21054335192310575 -0.20647465284050726
-0.20240786879455785 -0.19834311421156853 -0.19428051310271555 -0.19022020009822363 -0.18616232161999505 -0.1821070372117478 -0.17805452105500436 -0.1740049636990077
-0.1699585740424721 -0.1659155816098041 -0.16187623917429994 -0.15784082579103068 -0.1538096503156156 -0.149783055501598 -0.1457614227893189 -0.1417451779255834
-0.13773479758473903 -0.1337308172033982 -0.1297338402928074 -0.12574454955929718 -0.12176372024846496 -0.11779223623871742 -0.11383110955363641 -0.10988150414739407
-0.10594476506432422 -0.10202245439511208 -0.0981163958797066 -0.09422873057716603 -0.09036198678469892 -0.08651916841278706 -0.08270386740875231 -0.07892040770285699
-0.07517403071953298 -0.07147113602988261 -0.06781959561090993 -0.06422916701107606 -0.06071204035936652 -0.057283567876294524 -0.053963244188438245 -0.05077603373707497
-0.04775418047310075 -0.04493968589089975 -0.04238770065213129 -0.040171135501151985 -0.038386890848014284 -0.037164536010378196 -0.03668051163721045 -0.03719043947645923
-0.03912700087533216 -0.041353075553318575 -0.04471140617718555 -0.04921465802420905 -0.05483036828215774 -0.06149764243023099 -0.06914261356991795 -0.07768886815918942
-0.08706301563349952 -0.09719701838884846 -0.10802877764519465 -0.1195019309266324 -0.13156536455242637 -0.14417267081339244 -0.15728163928890712 -0.17085380808720058
-0.18485407533454645 -0.19925036301761787 -0.21401332405753634 -0.2291160846638973 -0.24453401569102304 -0.2602445282318809 -0.2762268898543738 -0.2924620587382285
-0.30893253356873096 -0.3256222174580465 -0.342516294455899 -0.35960111742153544 -0.376864106179327 -0.39429365500116687 -0.41187904855580076 -0.42961038554447
-0.44747850931376193 -0.4654749448000462 -0.4835918412169175 -0.5018219199492472 -0.5201584271653503 -0.5385950907061475 -0.55712608084522 -0.5757459745583274
-0.5944497229674822 -0.6132326216646745 -0.6320902836402743 -0.6510186145741972 -0.6700137902682344 -0.6890722360174076 -0.7081906077436736 -0.7273657747265859
-0.7465948037849848 -0.7658749447757621 -0.7852036172927997 -0.8045783984523637 -0.8239970116742873 -0.8434573163625491 -0.8629572984122816 -0.8824950614668142
00000000: 85a1 9b32 9b72 eabf 9ac4 c22b e250 eabf
00000010: 956b a90e 292f eabf 91c2 bdec 6f0d eabf
00000020: 83e2 05d1 b6eb e9bf a2d8 8bc2 fdc9 e9bf
00000030: c6bb ddc5 44a8 e9bf 4c1b fcdd 8b86 e9bf
00000040: 4a6b ee0c d364 e9bf 891c 2054 1a43 e9bf
00000050: 9da0 9ab4 6121 e9bf c5cc 292f a9ff e8bf
00000060: ce2a 73c4 f0dd e8bf 855e 0475 38bc e8bf
00000070: f793 5c41 809a e8bf 1267 f229 c878 e8bf
00000080: 089c 372f 1057 e8bf 717d 9b51 5835 e8bf
00000090: 2ed5 8c91 a013 e8bf 9663 7aef e8f1 e7bf
000000a0: 570d d46b 31d0 e7bf a936 0b07 7aae e7bf
000000b0: d9df 92c1 c28c e7bf 7524 e09b 0b6b e7bf
000000c0: 2132 6a96 5449 e7bf e59e aab1 9d27 e7bf
000000d0: f062 1dee e605 e7bf 6914 414c 30e4 e6bf
000000e0: b0e5 96cc 79c2 e6bf 82ab a26f c3a0 e6bf
000000f0: 510a eb35 0d7f e6bf fb89 f91f 575d e6bf
00000100: 0bbf 5a2e a13b e6bf 0551 9e61 eb19 e6bf
00000110: 26ef 56ba 35f8 e5bf 4386 1a39 80d6 e5bf
00000120: 9777 82de cab4 e5bf 8378 2bab 1593 e5bf
00000130: d1c7 b59f 6071 e5bf 7152 c5bc ab4f e5bf
00000140: b5b9 0103 f72d e5bf a96d 1673 420c e5bf
00000150: 26e2 b20d 8eea e4bf cfb1 8ad3 d9c8 e4bf
00000160: d486 55c5 25a7 e4bf 5e75 cfe3 7185 e4bf
00000170: cb09 b92f be63 e4bf b25d d7a9 0a42 e4bf
00000180: 4061 f452 5720 e4bf 2cdc de2b a4fe e3bf
00000190: 5eab 6a35 f1dc e3bf 01cd 7070 3ebb e3bf
000001a0: 85be cfdd 8b99 e3bf b163 6b7e d977 e3bf
000001b0: 8b8a 2d53 2756 e3bf 01d2 055d 7534 e3bf
000001c0: f7e8 e99c c312 e3bf 59d7 d513 12f1 e2bf
000001d0: 5946 ccc2 60cf e2bf 6b6e d6aa afad e2bf
000001e0: eab0 04cd fe8b e2bf 6883 6e2a 4e6a e2bf
000001f0: e8cf 32c4 9d48 e2bf 0155 789b ed26 e2bf
00000200: 44a9 6db1 3d05 e2bf cecc 4907 8ee3 e1bf
00000210: 672f 4c9e dec1 e1bf 6d2f bd77 2fa0 e1bf
00000220: 5941 ee94 807e e1bf 6285 3af7 d15c e1bf
00000230: 4ece 06a0 233b e1bf 854d c290 7519 e1bf
00000240: b4b9 e6ca c7f7 e0bf 7cce f84f 1ad6 e0bf
00000250: aeb5 8821 6db4 e0bf 9173 3241 c092 e0bf
00000260: 0a60 9eb0 1371 e0bf 0293 8171 674f e0bf
00000270: cd7c 9e85 bb2d e0bf 494d c5ee 0f0c e0bf
00000280: 3e22 a95d c9d4 dfbf 16a2 738f 7391 dfbf
00000290: 9832 e476 1e4e dfbf ff4d 1518 ca0a dfbf
000002a0: 83f6 4277 76c7 debf 6873 cc98 2384 debf
000002b0: 2c74 3581 d140 debf 75f3 2735 80fd ddbf
000002c0: 5d6f 75b9 2fba ddbf e9dc 1813 e076 ddbf
000002d0: 5e8f 3847 9133 ddbf d9cd 275b 43f0 dcbf
000002e0: 214a 6954 f6ac dcbf 71b7 b038 aa69 dcbf
000002f0: 485d e50d 5f26 dcbf c24a 24da 14e3 dbbf
00000300: bc01 c3a3 cb9f dbbf 9ec4 5171 835c dbbf
00000310: 31ad 9e49 3c19 dbbf 3581 b833 f6d5 dabf
00000320: 09ae f136 b192 dabf d2b5 e35a 6d4f dabf
00000330: c6aa 72a7 2a0c dabf 1ad6 d024 e9c8 d9bf
00000340: c3a0 82db a885 d9bf c9db 62d4 6942 d9bf
00000350: e6e9 a618 2cff d8bf 8dbb e3b1 efbb d8bf
00000360: 0b9e 12aa b478 d8bf 3eb8 960b 7b35 d8bf
00000370: 138c 42e1 42f2 d7bf 4af6 5d36 0caf d7bf
00000380: c1dd ac16 d76b d7bf 41dc 758e a328 d7bf
00000390: 82ba 89aa 71e5 d6bf f528 4b78 41a2 d6bf
000003a0: 0d3e b705 135f d6bf 595f 6e61 e61b d6bf
000003b0: ede6 bd9a bbd8 d5bf b79f aac1 9295 d5bf
000003c0: 77a9 fbe6 6b52 d5bf 8575 461c 470f d5bf
000003d0: b883 fb73 24cc d4bf 8f5e 7401 0489 d4bf
000003e0: 7746 02d9 e545 d4bf 8135 fe0f ca02 d4bf
000003f0: 2046 dabc b0bf d3bf 143a 34f7 997c d3bf
00000400: b9c2 e9d7 8539 d3bf 2968 2e79 74f6 d2bf
00000410: aa27 a3f6 65b3 d2bf a536 706d 5a70 d2bf
00000420: 0ae5 60fc 512d d2bf 290f 02c4 4cea d1bf
00000430: fa32 c3e6 4aa7 d1bf fe85 1a89 4c64 d1bf
00000440: 3462 acd1 5121 d1bf 8e4a 76e9 5ade d0bf
00000450: c40e fefb 679b d0bf c094 8537 7958 d0bf
00000460: da7d 43cd 8e15 d0bf 3752 43e3 51a5 cfbf
00000470: 4fad 03b9 8f1f cfbf c8f0 1293 d799 cebf
00000480: 69f0 eaf0 2914 cebf 4abd ed5a 878e cdbf
00000490: a31c 3363 f008 cdbf a4f5 6ca6 6583 ccbf
000004a0: d811 e5cc e7fd cbbf 1e55 988b 7778 cbbf
000004b0: d231 73a5 15f3 cabf 4893 b3ec c26d cabf
000004c0: d87c 7644 80e8 c9bf 1e76 76a2 4e63 c9bf
000004d0: 945c 0311 2fde c8bf e9ef 3ab1 2259 c8bf
000004e0: e17a 8dbd 2ad4 c7bf a413 998c 484f c7bf
000004f0: 2e08 6b94 7dca c6bf 5ee6 366e cb45 c6bf
00000500: 92f6 97da 33c1 c5bf 4799 74c6 b83c c5bf
00000510: 5465 a050 5cb8 c4bf 8980 5fd0 2034 c4bf
00000520: 0617 f5dc 08b0 c3bf 99e9 6f56 172c c3bf
00000530: cf03 f36f 4fa8 c2bf b02d c7bb b424 c2bf
00000540: abe5 9239 4ba1 c1bf c08f 2d67 171e c1bf
00000550: f7fc 9e54 1e9b c0bf 8df3 00bc 6518 c0bf
00000560: 8273 4e3c e82b bfbf 1335 5eca a127 bebf
00000570: f1dd cc1c 0924 bdbf 9993 bfba 3121 bcbf
00000580: 9538 2235 321f bbbf 23ac 15c1 241e babf
00000590: eb35 81f7 271e b9bf 7d2a 2cc4 5f1f b8bf
000005a0: bcb7 0a92 f621 b7bf 905e cfc6 1e26 b6bf
000005b0: bdf7 c5a5 142c b5bf 261d 12ba 2034 b4bf
000005c0: afea 72f3 9a3e b3bf 5637 dbaf ee4b b2bf
000005d0: fb42 2d01 a05c b1bf 780b c39b 5271 b0bf
000005e0: 3242 a207 a615 afbf 91f6 4095 4554 adbf
000005f0: 3268 f301 12a1 abbf 5285 a4f8 50ff a9bf
00000600: ff2c c266 3c73 a8bf 684a 63a2 5502 a7bf
00000610: d369 1b38 d7b3 a5bf b9f6 70a2 4f91 a4bf
00000620: a11e 9351 72a7 a3bf 149f 78e5 3a07 a3bf
00000630: 84c5 c3bb c9c7 a2bf d9ee 8c12 a00a a3bf
00000640: e0db 4c4a 7408 a4bf b058 2ef6 3a2c a5bf
00000650: f80f 94d6 69e4 a6bf 4946 65e5 a932 a9bf
00000660: 15f2 32dd b912 acbf 09b3 0976 9e7c afbf
00000670: 8bf2 0a90 54b3 b1bf 11c9 01ec 6ae3 b3bf
00000680: c246 d604 c349 b6bf 53b2 3f5f e7e1 b8bf
00000690: cd51 0323 c6a7 bbbf 4784 23b5 ad97 bebf
000006a0: 97fd 0445 22d7 c0bf 5b6c 0f05 4074 c2bf
000006b0: 77e9 8004 ce21 c4bf d6d7 109f 89de c5bf
000006c0: a80e 0c60 4ca9 c7bf df3a 7030 0981 c9bf
000006d0: 8f20 dee1 c964 cbbf 973b 4f05 ad53 cdbf
000006e0: f384 1300 e44c cfbf 1502 6eaa d8a7 d0bf
000006f0: 34d2 8c8c b3ad d1bf 587f 66c8 b2b7 d2bf
00000700: a047 16f6 8cc5 d3bf f354 b591 fed6 d4bf
00000710: 9740 c276 c9eb d5bf 248e bb67 b403 d7bf
00000720: 10e5 c4a0 8a1e d8bf 3805 5074 1b3c d9bf
00000730: cb1a ddf0 395c dabf 69de fb8e bc7e dbbf
00000740: 8d96 cae6 7ca3 dcbf b982 416c 57ca ddbf
00000750: c7e6 a831 2bf3 debf 6122 d3d7 ec0e e0bf
00000760: 4e3f 2d49 23a5 e0bf 51cf 8bc5 2b3c e1bf
00000770: eb52 1f13 fad3 e1bf 6503 71d2 826c e2bf
00000780: ff5e e86c bb05 e3bf d97b dc04 9a9f e3bf
00000790: c556 0b67 153a e4bf 76de 55fd 24d5 e4bf
000007a0: 3446 a2c2 c070 e5bf efd7 c837 e10c e6bf
000007b0: 7bfd 7259 7fa9 e6bf c1c5 d596 9446 e7bf
000007c0: 6cd7 33c9 1ae4 e7bf 1368 142c 0c82 e8bf
000007d0: b526 1f56 6320 e9bf 7f78 8d32 1bbf e9bf
000007e0: c591 24fb 2e5e eabf 9d2b ab32 9afd eabf
000007f0: f3ce d09f 589d ebbf 0f35 7c48 663d ecbf

d f8 [401]
0.07672413793103448 0.07672413793103448 0.07672413793103448 0.07672413793103448 0.07672413793103448 0.07672413793103448 0.07672413793103448 0.07672413793103448
0.07672413793103448 0.07672413793103448 0.07672413793103448 0.07672413793103448 0.07672413793103448 0.07672413793103448 0.07672413793103448 0.07672413793103448
0.07672413793103448 0.07672413793103448 0.07672413793103448 0.07672413793103448 0.07672413793103448 0.07672413793103448 0.07672413793103448 0.07672413793103448
0.07672413793103448 0.07672413793103448 0.07672413793103448 0.07672413793103448 0.07672413793103448 0.07672413793103448 0.07672413793103448 0.07672413793103448
0.07672413793103448 0.07672413793103448 0.07672413793103448 0.07672413793103448 0.07672413793103448 0.07672413793103448 0.07672413793103448 0.07672413793103448
0.07672413793103448 0.07672413793103448 0.07672413793103448 0.07672413793103448 0.07672413793103448 0.07672413793103448 0.07672413793103448 0.07672413793103448
0.07672413793103448 0.07672413793103448 0.07672413793103448 0.07672413793103448 0.07672413793103448 0.07672413793103448 0.07672413793103448 0.07672413793103448
0.07672413793103448 0.07672413793103448 0.07672413793103448 0.07672413793103448 0.07672413793103448 0.07672413793103448 0.07672413793103448 0.07672413793103448
0.07672413793103448 0.07672413793103448 0.07672413793103448 0.07672413793103448 0.07672413793103448 0.07672413793103448 0.07672413793103448 0.07672413793103448
0.07672413793103448 0.07672413793103448 0.07672413793103448 0.07672413793103448 0.07672413793103448 0.07672413793103448 0.07672413793103448 0.07672413793103448
0.07672413793103448 0.07672413793103448 0.07672413793103448 0.07672413793103448 0.07672413793103448 0.07672413793103448 0.07672413793103448 0.07672413793103448
0.07672413793103448 0.07672413793103448 0.07672413793103448 0.07672413793103448 0.07672413793103448 0.07672413793103448 0.07672413793103448 0.07672413793103448
0.07672413793103448 0.07672413793103448 0.07672413793103448 0.07672413793103448 0.07672413793103448 0.07672413793103448 0.07672413793103448 0.07672413793103448
0.07672413793103448 0.07672413793103448 0.07672413793103448 0.07672413793103448 0.07672413793103448 0.07672413793103448 0.07672413793103448 0.07672413793103448
0.07672413793103448 0.07672413793103448 0.07672413793103448 0.07672413793103448 0.07672413793103448 0.07672413793103448 0.07672413793103448 0.07672413793103448
0.07672413793103448 0.07672413793103448 0.07672413793103448 0.07672413793103448 0.07672413793103448 0.07672413793103448 0.07672413793103448 0.07672413793103448
0.07672413793103448 0.07672413793103448 0.07672413793103448 0.07672413793103448 0.07672413793103448 0.07672413793103448 0.07672413793103448 0.07672413793103448
0.07672413793103448 0.07672413793103448 0.07672413793103448 0.07672413793103448 0.07672413793103448 0.07672413793103448 0.07672413793103448 0.07672413793103448
0.07672413793103448 0.07672413793103448 0.07672413793103448 0.07672413793103448 0.07672413793103448 0.07672413793103448 0.07672413793103448 0.07672413793103448
0.07672413793103448 0.07672413793103448 0.07672413793103448 0.07672413793103448 0.07672413793103448 0.07672413793103448 0.07672413793103448 0.07672413793103448
0.07672413793103448 0.07672413793103448 0.07672413793103448 0.07672413793103448 0.07672413793103448 0.07672413793103448 0.07672413793103448 0.07672413793103448
0.07672413793103448 0.07672413793103448 0.07672413793103448 0.07672413793103448 0.07672413793103448 0.07672413793103448 0.07672413793103448 0.07672413793103448
0.07672413793103448 0.07672413793103448 0.07672413793103448 0.07672413793103448 0.07672413793103448 0.07672413793103448 0.07672413793103448 0.07672413793103448
0.07672413793103448 0.07672413793103448 0.07672413793103448 0.07672413793103448 0.07672413793103448 0.07672413793103448 0.07672413793103448 0.07672413793103448
0.07672413793103448 0.07672413793103448 0.07672413793103448 0.07672413793103448 0.07672413793103448 0.07672413793103448 0.07672413793103448 0.07672413793103448
0.07672413793103448 0.07672413793103448 0.07672413793103448 0.07672413793103448 0.07672413793103448 0.07672413793103448 0.07672413793103448 0.07672413793103448
0.07672413793103448 0.07672413793103448 0.07672413793103448 0.07672413793103448 0.07672413793103448 0.07672413793103448 0.07672413793103448 0.07672413793103448
0.07672413793103448 0.07672413793103448 0.07672413793103448 0.07672413793103448 0.07672413793103448 0.07672413793103448 0.07672413793103448 0.07672413793103448
0.07672413793103448 0.07672413793103448 0.07672413793103448 0.07672413793103448 0.07672413793103448 0.07672413793103448 0.07672413793103448 0.07672413793103448
0.07672413793103448 0.07672413793103448 0.07672413793103448 0.07672413793103448 0.07672413793103448 0.07672413793103448 0.07672413793103448 0.07672413793103448
0.07672413793103448 0.07672413793103448 0.07672413793103448 0.07672413793103448 0.07672413793103448 0.07672413793103448 0.07672413793103448 0.07672413793103448
0.07672413793103448 0.07672413793103448 0.07672413793103448 0.07672413793103448 0.07672413793103448 0.07672413793103448 0.07672413793103448 0.07672413793103448
00000000: 1743 3a6f 31a4 b33f 1743 3a6f 31a4 b33f
00000010: 1743 3a6f 31a4 b33f 1743 3a6f 31a4 b33f
00000020: 1743 3a6f 31a4 b33f 1743 3a6f 31a4 b33f
00000030: 1743 3a6f 31a4 b33f 1743 3a6f 31a4 b33f
00000040: 1743 3a6f 31a4 b33f 1743 3a6f 31a4 b33f
00000050: 1743 3a6f 31a4 b33f 1743 3a6f 31a4 b33f
00000060: 1743 3a6f 31a4 b33f 1743 3a6f 31a4 b33f
00000070: 1743 3a6f 31a4 b33f 1743 3a6f 31a4 b33f
00000080: 1743 3a6f 31a4 b33f 1743 3a6f 31a4 b33f
00000090: 1743 3a6f 31a4 b33f 1743 3a6f 31a4 b33f
000000a0: 1743 3a6f 31a4 b33f 1743 3a6f 31a4 b33f
000000b0: 1743 3a6f 31a4 b33f 1743 3a6f 31a4 b33f
000000c0: 1743 3a6f 31a4 b33f 1743 3a6f 31a4 b33f
000000d0: 1743 3a6f 31a4 b33f 1743 3a6f 31a4 b33f
000000e0: 1743 3a6f 31a4 b33f 1743 3a6f 31a4 b33f
000000f0: 1743 3a6f 31a4 b33f 1743 3a6f 31a4 b33f
00000100: 1743 3a6f 31a4 b33f 1743 3a6f 31a4 b33f
00000110: 1743 3a6f 31a4 b33f 1743 3a6f 31a4 b33f
00000120: 1743 3a6f 31a4 b33f 1743 3a6f 31a4 b33f
00000130: 1743 3a6f 31a4 b33f 1743 3a6f 31a4 b33f
00000140: 1743 3a6f 31a4 b33f 1743 3a6f 31a4 b33f
00000150: 1743 3a6f 31a4 b33f 1743 3a6f 31a4 b33f
00000160: 1743 3a6f 31a4 b33f 1743 3a6f 31a4 b33f
00000170: 1743 3a6f 31a4 b33f 1743 3a6f 31a4 b33f
00000180: 1743 3a6f 31a4 b33f 1743 3a6f 31a4 b33f
00000190: 1743 3a6f 31a4 b33f 1743 3a6f 31a4 b33f
000001a0: 1743 3a6f 31a4 b33f 1743 3a6f 31a4 b33f
000001b0: 1743 3a6f 31a4 b33f 1743 3a6f 31a4 b33f
000001c0: 1743 3a6f 31a4 b33f 1743 3a6f 31a4 b33f
000001d0: 1743 3a6f 31a4 b33f 1743 3a6f 31a4 b33f
000001e0: 1743 3a6f 31a4 b33f 1743 3a6f 31a4 b33f
000001f0: 1743 3a6f 31a4 b33f 1743 3a6f 31a4 b33f
00000200: 1743 3a6f 31a4 b33f 1743 3a6f 31a4 b33f
00000210: 1743 3a6f 31a4 b33f 1743 3a6f 31a4 b33f
00000220: 1743 3a6f 31a4 b33f 1743 3a6f 31a4 b33f
00000230: 1743 3a6f 31a4 b33f 1743 3a6f 31a4 b33f
00000240: 1743 3a6f 31a4 b33f 1743 3a6f 31a4 b33f
00000250: 1743 3a6f 31a4 b33f 1743 3a6f 31a4 b33f
00000260: 1743 3a6f 31a4 b33f 1743 3a6f 31a4 b33f
00000270: 1743 3a6f 31a4 b33f 1743 3a6f 31a4 b33f
00000280: 1743 3a6f 31a4 b33f 1743 3a6f 31a4 b33f
00000290: 1743 3a6f 31a4 b33f 1743 3a6f 31a4 b33f
000002a0: 1743 3a6f 31a4 b33f 1743 3a6f 31a4 b33f
000002b0: 1743 3a6f 31a4 b33f 1743 3a6f 31a4 b33f
000002c0: 1743 3a6f 31a4 b33f 1743 3a6f 31a4 b33f
000002d0: 1743 3a6f 31a4 b33f 1743 3a6f 31a4 b33f
000002e0: 1743 3a6f 31a4 b33f 1743 3a6f 31a4 b33f
000002f0: 1743 3a6f 31a4 b33f 1743 3a6f 31a4 b33f
00000300: 1743 3a6f 31a4 b33f 1743 3a6f 31a4 b33f
00000310: 1743 3a6f 31a4 b33f 1743 3a6f 31a4 b33f
00000320: 1743 3a6f 31a4 b33f 1743 3a6f 31a4 b33f
00000330: 1743 3a6f 31a4 b33f 1743 3a6f 31a4 b33f
00000340: 1743 3a6f 31a4 b33f 1743 3a6f 31a4 b33f
00000350: 1743 3a6f 31a4 b33f 1743 3a6f 31a4 b33f
00000360: 1743 3a6f 31a4 b33f 1743 3a6f 31a4 b33f
00000370: 1743 3a6f 31a4 b33f 1743 3a6f 31a4 b33f
00000380: 1743 3a6f 31a4 b33f 1743 3a6f 31a4 b33f
00000390: 1743 3a6f 31a4 b33f 1743 3a6f 31a4 b33f
000003a0: 1743 3a6f 31a4 b33f 1743 3a6f 31a4 b33f
000003b0: 1743 3a6f 31a4 b33f 1743 3a6f 31a4 b33f
000003c0: 1743 3a6f 31a4 b33f 1743 3a6f 31a4 b33f
000003d0: 1743 3a6f 31a4 b33f 1743 3a6f 31a4 b33f
000003e0: 1743 3a6f 31a4 b33f 1743 3a6f 31a4 b33f
000003f0: 1743 3a6f 31a4 b33f 1743 3a6f 31a4 b33f
00000400: 1743 3a6f 31a4 b33f 1743 3a6f 31a4 b33f
00000410: 1743 3a6f 31a4 b33f 1743 3a6f 31a4 b33f
00000420: 1743 3a6f 31a4 b33f 1743 3a6f 31a4 b33f
00000430: 1743 3a6f 31a4 b33f 1743 3a6f 31a4 b33f
00000440: 1743 3a6f 31a4 b33f 1743 3a6f 31a4 b33f
00000450: 1743 3a6f 31a4 b33f 1743 3a6f 31a4 b33f
00000460: 1743 3a6f 31a4 b33f 1743 3a6f 31a4 b33f
00000470: 1743 3a6f 31a4 b33f 1743 3a6f 31a4 b33f
00000480: 1743 3a6f 31a4 b33f 1743 3a6f 31a4 b33f
00000490: 1743 3a6f 31a4 b33f 1743 3a6f 31a4 b33f
000004a0: 1743 3a6f 31a4 b33f 1743 3a6f 31a4 b33f
000004b0: 1743 3a6f 31a4 b33f 1743 3a6f 31a4 b33f
000004c0: 1743 3a6f 31a4 b33f 1743 3a6f 31a4 b33f
000004d0: 1743 3a6f 31a4 b33f 1743 3a6f 31a4 b33f
000004e0: 1743 3a6f 31a4 b33f 1743 3a6f 31a4 b33f
000004f0: 1743 3a6f 31a4 b33f 1743 3a6f 31a4 b33f
00000500: 1743 3a6f 31a4 b33f 1743 3a6f 31a4 b33f
00000510: 1743 3a6f 31a4 b33f 1743 3a6f 31a4 b33f
00000520: 1743 3a6f 31a4 b33f 1743 3a6f 31a4 b33f
00000530: 1743 3a6f 31a4 b33f 1743 3a6f 31a4 b33f
00000540: 1743 3a6f 31a4 b33f 1743 3a6f 31a4 b33f
00000550: 1743 3a6f 31a4 b33f 1743 3a6f 31a4 b33f
00000560: 1743 3a6f 31a4 b33f 1743 3a6f 31a4 b33f
00000570: 1743 3a6f 31a4 b33f 1743 3a6f 31a4 b33f
00000580: 1743 3a6f 31a4 b33f 1743 3a6f 31a4 b33f
00000590: 1743 3a6f 31a4 b33f 1743 3a6f 31a4 b33f
000005a0: 1743 3a6f 31a4 b33f 1743 3a6f 31a4 b33f
000005b0: 1743 3a6f 31a4 b33f 1743 3a6f 31a4 b33f
000005c0: 1743 3a6f 31a4 b33f 1743 3a6f 31a4 b33f
000005d0: 1743 3a6f 31a4 b33f 1743 3a6f 31a4 b33f
000005e0: 1743 3a6f 31a4 b33f 1743 3a6f 31a4 b33f
000005f0: 1743 3a6f 31a4 b33f 1743 3a6f 31a4 b33f
00000600: 1743 3a6f 31a4 b33f 1743 3a6f 31a4 b33f
00000610: 1743 3a6f 31a4 b33f 1743 3a6f 31a4 b33f
00000620: 1743 3a6f 31a4 b33f 1743 3a6f 31a4 b33f
00000630: 1743 3a6f 31a4 b33f 1743 3a6f 31a4 b33f
00000640: 1743 3a6f 31a4 b33f 1743 3a6f 31a4 b33f
00000650: 1743 3a6f 31a4 b33f 1743 3a6f 31a4 b33f
00000660: 1743 3a6f 31a4 b33f 1743 3a6f 31a4 b33f
00000670: 1743 3a6f 31a4 b33f 1743 3a6f 31a4 b33f
00000680: 1743 3a6f 31a4 b33f 1743 3a6f 31a4 b33f
00000690: 1743 3a6f 31a4 b33f 1743 3a6f 31a4 b33f
000006a0: 1743 3a6f 31a4 b33f 1743 3a6f 31a4 b33f
000006b0: 1743 3a6f 31a4 b33f 1743 3a6f 31a4 b33f
000006c0: 1743 3a6f 31a4 b33f 1743 3a6f 31a4 b33f
000006d0: 1743 3a6f 31a4 b33f 1743 3a6f 31a4 b33f
000006e0: 1743 3a6f 31a4 b33f 1743 3a6f 31a4 b33f
000006f0: 1743 3a6f 31a4 b33f 1743 3a6f 31a4 b33f
00000700: 1743 3a6f 31a4 b33f 1743 3a6f 31a4 b33f
00000710: 1743 3a6f 31a4 b33f 1743 3a6f 31a4 b33f
00000720: 1743 3a6f 31a4 b33f 1743 3a6f 31a4 b33f
00000730: 1743 3a6f 31a4 b33f 1743 3a6f 31a4 b33f
00000740: 1743 3a6f 31a4 b33f 1743 3a6f 31a4 b33f
00000750: 1743 3a6f 31a4 b33f 1743 3a6f 31a4 b33f
00000760: 1743 3a6f 31a4 b33f 1743 3a6f 31a4 b33f
00000770: 1743 3a6f 31a4 b33f 1743 3a6f 31a4 b33f
00000780: 1743 3a6f 31a4 b33f 1743 3a6f 31a4 b33f
00000790: 1743 3a6f 31a4 b33f 1743 3a6f 31a4 b33f
000007a0: 1743 3a6f 31a4 b33f 1743 3a6f 31a4 b33f
000007b0: 1743 3a6f 31a4 b33f 1743 3a6f 31a4 b33f
000007c0: 1743 3a6f 31a4 b33f 1743 3a6f 31a4 b33f
000007d0: 1743 3a6f 31a4 b33f 1743 3a6f 31a4 b33f
000007e0: 1743 3a6f 31a4 b33f 1743 3a6f 31a4 b33f
000007f0: 1743 3a6f 31a4 b33f 1743 3a6f 31a4 b33f

zmax f8 []
5.0
00000000: 0000 0000 0000 1440

hz_F f8 [401]
0.08066884029474092 0.08066769398214901 0.08066654252076516 0.08066538259686445 0.08066421203806642 0.08066302938347722 0.08066183361616909 0.08066062399631943
0.08065939995683133 0.08065816103750398 0.08065690684378247 0.08065563702072262 0.08065435123616384 0.080653049170249 0.0806517305084621 0.08065039493719185
0.08064904214086598 0.08064767180005905 0.08064628358985293 0.0806448771793454 0.08064345223057093 0.08064200839805054 0.0806405453285255 0.08063906266036949
0.08063756002341857 0.0806360370384891 0.08063449331718016 0.0806329284614557 0.08063134206341484 0.08062973370503017 0.08062810295774815 0.08062644938216303
0.08062477252760815 0.08062307193185284 0.08062134712084976 0.08061959760825274 0.08061782289491623 0.08061602246867934 0.08061419580384697 0.08061234236071216
0.0806104615851703 0.08060855290825072 0.080606615745538 0.08060464949663927 0.08060265354484432 0.08060062725636324 0.08059856997981672 0.08059648104568486
0.08059435976554478 0.08059220543155182 0.080590017315677 0.0805877946691055 0.08058553672130433 0.08058324267951261 0.0805809117276117 0.08057854302556501
0.0805761357084949 0.08057368888568826 0.08057120163957027 0.08056867302500159 0.08056610206786391 0.0805634877642976 0.08056082907943872 0.0805581249461102
0.08055537426384815 0.08055257589730373 0.08054972867516842 0.08054683138855293 0.0805438827896759 0.08054088159003397 0.08053782645911796 0.08053471602236471
0.08053154885961396 0.08052832350311515 0.08052503843555728 0.0805216920880091 0.08051828283772164 0.08051480900590298 0.08051126885520403 0.08050766058733254
0.0805039823403206 0.08050023218567268 0.08049640812551132 0.08049250808942666 0.08048852993132372 0.08048447142577349 0.08048033026458928 0.08047610405278759
0.08047179030480377 0.08046738644007864 0.08046288977848662 0.08045829753577757 0.08045360681824029 0.08044881461771733 0.08044391780574024 0.08043891312765808
0.0804337971961848 0.08042856648491006 0.08042321732096949 0.0804177458775634 0.08041214816602547 0.08040642002720719 0.08040055712242124 0.08039455492383626
0.08038840870422863 0.08038211352596707 0.08037566422956131 0.08036905542103019 0.08036228145878994 0.08035533643937143 0.08034821418241618 0.08034090821453373
0.08033341175179469 0.08032571768135839 0.08031781854148369 0.08030970650031384 0.08030137333291132 0.08029281039673603 0.08028400860519676 0.0802749583990626
0.08026564971598452 0.08025607195738993 0.08024621395289282 0.08023606392160379 0.08022560943065933 0.08021483735016902 0.0802037338043002 0.0801922841184936
0.08018047276193481 0.08016828328508867 0.08015569825186283 0.08014269916559422 0.08012926638844527 0.0801153790532867 0.08010101496744691 0.08008615050735209
0.08007076050302588 0.080054818111427 0.08003829467720319 0.08002115957932077 0.08000338006226101 0.07998492104942721 0.07996574493707712 0.07994581136600214
0.07992507696824379 0.07990349508572665 0.07988101545703523 0.07985758386795089 0.07983314176125533 0.07980762579968309 0.07978096737557071 0.07975309205982219
0.07972391898065685 0.07969336012250641 0.0796613195319016 0.0796276924168254 0.07959236412155321 0.07955520895789318 0.07951608886772854 0.0794748518893066
0.07943133039239633 0.07938533904159702 0.07933667243813182 0.07928510238027396 0.07923037466953327 0.07917220537361316 0.0791102764372146 0.07904423050613663
0.07897366479879753 0.07889812381856291 0.07881709064899024 0.07872997650840857 0.07863610815600365 0.07853471263310495 0.07842489868246298 0.07830563400770513
0.07817571729796972 0.07803374363782085 0.07787806152712357 0.07770671922647306 0.07751739749623368 0.07730732498723311 0.07707317155586495 0.07681091363626723
0.07651566460038814 0.07618146200443764 0.07580100326679284 0.0753653226146758 0.07486340680884473 0.07428175800788542 0.07360393312453908 0.07281012432002945
0.07187689520056995 0.07077723671436968 0.06948109761948656 0.06795631983959351 0.06616911791213484 0.06408120373185319 0.06163618736078136 0.05871896023861862
0.055054984002539054 0.052614664336293394 0.05021900417429106 0.04791468496878262 0.04573396376124554 0.04369524638553666 0.04180575959220794 0.04006476090771416
0.038466393480353384 0.03700187399409957 0.03566102129629382 0.03443325371885352 0.033308200138451934 0.032276047316496574 0.03132771508236672 0.030454923395274863
0.02965019425824525 0.02890681648640155 0.0282187911278704 0.02758076856639584 0.02698798393112364 0.02643619461954865 0.02592162196491337 0.02544089798217958
0.024991017466252145 0.024569295333399105 0.024173328888400302 0.023800964599379856 0.02345026892754436 0.023119502761998364 0.022807099034062923 0.022511643120512643
0.0222318556840178 0.021966577638304334 0.021714756962974886 0.021475437127425168 0.0212477469143885 0.021030891461104664 0.020824144360701277 0.02062684068719378
0.020438370826309876 0.02025817500985544 0.020085738465495544 0.01992058710534918 0.019762283687159432 0.019610424390649372 0.019464635758999288 0.019324571962140914
0.019189912344031786 0.019060359220996147 0.018935635902256723 0.01881548490767048 0.018699666360394492 0.018587956535399915 0.018480146546629217 0.018376041157978806
00000000: d445 df8e b6a6 b43f b83f 7f53 a3a6 b43f
00000010: 8411 0202 90a6 b43f 9440 2c8c 7ca6 b43f
00000020: 2a3e a9e8 68a6 b43f 36c5 3211 55a6 b43f
00000030: 01b6 6a01 41a6 b43f fe9e 23b6 2ca6 b43f
00000040: 96f8 ed2c 18a6 b43f c6c3 cf63 03a6 b43f
00000050: 392f 1759 eea5 b43f 06f7 3d0b d9a5 b43f
00000060: 49e4 d678 c3a5 b43f 3b47 82a0 ada5 b43f
00000070: 794f e680 97a5 b43f 492b aa18 81a5 b43f
00000080: f7e0 7266 6aa5 b43f 403a e168 53a5 b43f
00000090: d0f6 8f1e 3ca5 b43f f641 1386 24a5 b43f
000000a0: da82 f79d 0ca5 b43f cddd c064 f4a4 b43f
000000b0: 51e9 ead8 dba4 b43f a208 e8f8 c2a4 b43f
000000c0: de3b 21c3 a9a4 b43f 5098 f535 90a4 b43f
000000d0: d510 ba4f 76a4 b43f 3c00 b90e 5ca4 b43f
000000e0: a1e8 3171 41a4 b43f c329 5975 26a4 b43f
000000f0: 8990 5719 0ba4 b43f 39fb 495b efa3 b43f
00000100: 71e6 4039 d3a3 b43f d217 40b1 b6a3 b43f
00000110: e656 3ec1 99a3 b43f 66e5 2467 7ca3 b43f
00000120: 56f2 cea0 5ea3 b43f 3d5d 096c 40a3 b43f
00000130: 1724 92c6 21a3 b43f e2dc 17ae 02a3 b43f
00000140: 0a49 3920 e3a2 b43f 8ed1 841a c3a2 b43f
00000150: 1be4 779a a2a2 b43f 215d 7e9d 81a2 b43f
00000160: 2128 f220 60a2 b43f 1c69 1a22 3ea2 b43f
00000170: 17ed 2a9e 1ba2 b43f f98e 4392 f8a1 b43f
00000180: f360 6ffb d4a1 b43f 741a a4d6 b0a1 b43f
00000190: 8c41 c120 8ca1 b43f 9981 8fd6 66a1 b43f
000001a0: daa4 bff4 40a1 b43f f404 ea77 1aa1 b43f
000001b0: ee4c 8d5c f3a0 b43f 81db 0d9f cba0 b43f
000001c0: 42bf b43b a3a0 b43f bf9e ae2e 7aa0 b43f
000001d0: 9c97 0a74 50a0 b43f c878 b907 26a0 b43f
000001e0: 5434 8ce5 fa9f b43f e308 3309 cf9f b43f
000001f0: 271e 3c6e a29f b43f 7c14 1210 759f b43f
00000200: d6f2 fae9 469f b43f eb64 16f7 179f b43f
00000210: b18c 5c32 e89e b43f 123a 9c96 b79e b43f
00000220: d579 791e 869e b43f 8492 6bc4 539e b43f
00000230: 159b bb82 209e b43f 673a 8253 ec9d b43f
00000240: e5f4 a530 b79d b43f 82fb d813 819d b43f
00000250: 2a01 97f6 499d b43f faf6 22d2 119d b43f
00000260: b6a1 849f d89c b43f 7527 8657 9e9c b43f
00000270: eb4b b1f2 629c b43f d3d0 4c69 269c b43f
00000280: ce74 59b3 e89b b43f 9ed0 8ec8 a99b b43f
00000290: c233 58a0 699b b43f a92d d131 289b b43f
000002a0: 4816 c273 e59a b43f 0d0b 9c5c a19a b43f
000002b0: 2c2b 75e2 5b9a b43f b726 04fb 149a b43f
000002c0: 6f15 9c9b cc99 b43f 7e9c 27b9 8299 b43f
000002d0: 9ae7 2348 3799 b43f 06a6 9b3c ea98 b43f
000002e0: 762c 218a 9b98 b43f def9 c823 4b98 b43f
000002f0: a944 23fc f897 b43f 0a86 3505 a597 b43f
00000300: bf61 7330 4f97 b43f 8283 b76e f796 b43f
00000310: ea8f 3bb0 9d96 b43f 9cea 8fe4 4196 b43f
00000320: d7fd 92fa e395 b43f 5ec1 67e0 8395 b43f
00000330: 49c5 6b83 2195 b43f 5ea2 2cd0 bc94 b43f
00000340: 73b5 5cb2 5594 b43f e302 c714 ec93 b43f
00000350: 479f 42e1 7f93 b43f e5cb a400 1193 b43f
00000360: 158c b25a 9f92 b43f 00f1 10d6 2a92 b43f
00000370: 659a 3458 b391 b43f d5f6 4fc5 3891 b43f
00000380: f303 4000 bb90 b43f 151b 78ea 3990 b43f
00000390: d1f6 eb63 b58f b43f 755f f84a 2d8f b43f
000003a0: e8ea 497c a18e b43f 6406 c2d2 118e b43f
000003b0: dde1 5927 7e8d b43f 0601 0351 e68c b43f
000003c0: 6ab8 8524 4a8c b43f 10c7 5c74 a98b b43f
000003d0: d334 8e10 048b b43f 22c8 80c6 598a b43f
000003e0: 056d ce60 aa89 b43f e2ab 12a7 f588 b43f
000003f0: 0de1 b45d 3b88 b43f 4c33 ae45 7b87 b43f
00000400: fd52 4a1c b586 b43f 9bcb e29a e885 b43f
00000410: 766d 9476 1585 b43f beec ed5f 3b84 b43f
00000420: 9541 9702 5a83 b43f 40c5 f004 7182 b43f
00000430: 075e a907 8081 b43f 05a7 4aa5 8680 b43f
00000440: b9f1 b971 847f b43f b801 adf9 787e b43f
00000450: 64f2 10c2 637d b43f 0095 6147 447c b43f
00000460: aed6 effc 197b b43f 2f97 144c e479 b43f
00000470: 0a16 4e93 a278 b43f f3e7 4425 5477 b43f
00000480: cf79 b547 f875 b43f edb2 3a32 8e74 b43f
00000490: 8b90 f50c 1573 b43f bce8 0cef 8b71 b43f
000004a0: d863 00dd f16f b43f 8cf2 c7c6 456e b43f
000004b0: 5fa8 b885 866c b43f 41dd 26da b26a b43f
000004c0: 9d1a bb68 c968 b43f 6a3c 6fb7 c866 b43f
000004d0: 214e 252a af64 b43f 3545 c9fe 7a62 b43f
000004e0: 3ed4 e948 2a60 b43f 5b5a b3ec ba5d b43f
000004f0: 5856 3199 2a5b b43f 6911 b8c1 7658 b43f
00000500: 2e28 5096 9c55 b43f 0d2d f7fa 9852 b43f
00000510: 19c8 7e7d 684f b43f 9785 c849 074c b43f
00000520: 6d33 0e1c 7148 b43f 0af5 d430 a144 b43f
00000530: 8a4a 1332 9240 b43f 881a f620 3e3c b43f
00000540: b05c 8e3b 9e37 b43f 7338 84dd aa32 b43f
00000550: 310a b45a 5b2d b43f cc86 51d2 a527 b43f
00000560: c193 d0f8 7e21 b43f 4725 5cd6 d91a b43f
00000570: d385 0877 a713 b43f f4d7 2789 d60b b43f
00000580: dbd8 22e5 5203 b43f edac e8f8 04fa b33f
00000590: 24ba 550f d1ef b33f fdd4 c169 96e4 b33f
000005a0: 0a0b 1e1f 2ed8 b33f 8eb8 8fb0 69ca b33f
000005b0: 7b3f 3b3f 11bb b33f 872c 0b4a e1a9 b33f
000005c0: 9e22 17d5 8796 b33f cfda ded7 a080 b33f
000005d0: e0ec 08ce b167 b33f f2ec e14b 244b b33f
000005e0: f03f e98b 3f2a b33f 2250 5519 2104 b33f
000005f0: 527a a015 b5d7 b23f 42b0 c52e afa3 b23f
00000600: b076 3932 8666 b23f cb4d fdfc 741e b23f
00000610: cc43 f761 83c9 b13f 797f 44db 9565 b13f
00000620: ce12 7095 75f0 b03f 2e0e 5132 a067 b03f
00000630: 20eb ed41 c78e af3f 398e c25b 6910 ae3f
00000640: 70a0 8bb7 2a30 ac3f 5592 3a2d 4ff0 aa3f
00000650: d3ed 2129 4eb6 a93f 04cd e009 4688 a83f
00000660: 268d 572d 716a a73f 9dde 6e2c 395f a63f
00000670: 0748 7784 9067 a53f b031 a44b 5e83 a43f
00000680: cc82 fcfb ddb1 a33f 9c07 64dd e8f1 a23f
00000690: 0549 6b50 2942 a23f cf14 3c45 3ca1 a13f
000006a0: 4109 91bc c50d a13f cf45 566f 7c86 a03f
000006b0: 7a6e 79af 2f0a a03f 3887 f04f 932f 9f3f
000006c0: 0808 a3da 9e5c 9e3f 5524 c39d bf99 9d3f
000006d0: bf80 1b04 63e5 9c3f 0c01 f70b 223e 9c3f
000006e0: 5702 7af1 bca2 9b3f 4e5f 49fd 1612 9b3f
000006f0: aef1 649a 328b 9a3f b1e0 41c3 2d0d 9a3f
00000700: ae63 d8ca 3e97 993f f856 c57f b128 993f
00000710: 0366 0ba4 e4c0 983f 5f36 45b2 475f 983f
00000720: ad3c 81e8 5803 983f bfdd 0c91 a3ac 973f
00000730: f229 df81 be5a 973f 9563 edcb 4a0d 973f
00000740: 4d76 5e94 f2c3 963f 1e0a 3f12 687e 963f
00000750: a57b fcab 643c 963f a0b4 8430 a8fd 953f
00000760: aaa5 7128 f8c1 953f 14eb 1f3c 1f89 953f
00000770: ec4e fcab ec52 953f 2069 afd8 331f 953f
00000780: 4b4d 21d9 cbed 943f d06d 931c 8fbe 943f
00000790: be1e 4d17 5b91 943f 05d3 89f8 0f66 943f
000007a0: 50c2 8568 903c 943f 7390 ac4d c114 943f
000007b0: e8c6 0d98 89ee 933f 0aac 5812 d2c9 933f
000007c0: 820f b937 85a6 933f 834a 040e 8f84 933f
000007d0: b174 b703 dd63 933f fee8 58d1 5d44 933f
000007e0: 4f24 db5d 0126 933f 8211 ada5 b808 933f
000007f0: e017 2ca4 75ec 923f 90c0 363f 2bd1 923f

Vz_F f8 [401]
1.177744771396192 1.177727036051408 1.177709221046328 1.177691275112167 1.1776731646386196 1.17765486702325 1.1776363665325107 1.1776176517201264
1.1775987138121735 1.1775795456885874 1.1775601412449532 1.1775404949896995 1.1775206017837547 1.177500456678402 1.1774800548075604 1.1774593913191467
1.1774384613307376 1.1774172599002952 1.1773957820008008 1.1773740225126517 1.177351976206964 1.1773296377386089 1.1773070016420917 1.1772840623224567
1.1772608140526586 1.177237250966101 1.1772133670535823 1.1771891561568282 1.1771646119649404 1.1771397280103457 1.1771144976626147 1.1770889141234164
1.1770629704201951 1.1770366594014803 1.1770099737329787 1.1769829058901138 1.1769554481502809 1.1769275925895073 1.1768993310744236 1.1768706552548736
1.176841556557946 1.1768120261807269 1.1767820550813468 1.1767516339707385 1.1767207533073787 1.1766894032854935 1.1766575738271712 1.1766252545738354
1.1765924348744505 1.1765591037774925 1.1765252500191536 1.1764908620140346 1.1764559278407205 1.1764204352338936 1.1763843715668543 1.1763477238428521
1.1763104786808043 1.176272622299912 1.1762341405037802 1.1761950186695458 1.1761552417259935 1.1761147941417605 1.1760736599057964 1.1760318225071131
1.1759892649197212 1.1759459695779029 1.1759019183595854 1.1758570925612588 1.1758114728776903 1.1757650393736085 1.1757177714638445 1.1756696478816409
1.175620646654778 1.1755707450747366 1.1755199196662147 1.1754681461552607 1.1754153994352734 1.1753616535325762 1.175306881567515 1.1752510557175455
1.175194147174956 1.1751361261027427 1.1750769615904488 1.1750166216054225 1.1749550729440372 1.1748922811752394 1.1748282105875774 1.1747628241267094
1.1746960833368547 1.1746279482925104 1.1745583775277169 1.1744873279655366 1.1744147548354888 1.1743406115964206 1.1742648498457697 1.1741874192287227
1.174108267338383 1.174027339615371 1.1739445792344227 1.1738599269886407 1.1737733211667845 1.1736846974199722 1.1735939886215618 1.1735011247185412
1.17340603257297 1.1733086357915568 1.1732088545484842 1.1731066053899752 1.1730018010314325 1.1728943501364597 1.1727841570847275 1.1726711217222174
1.1725551390903632 1.1724360991417981 1.1723138864310911 1.1721883797865118 1.1720594519547234 1.1719269692213885 1.1717907910019676 1.171650769399406
1.1715067487325825 1.1713585650241143 1.171206045449722 1.171049007739633 1.1708872595369613 1.1707205977006652 1.170548807548748 1.170371662041596
1.170188920891917 1.1700003295982953 1.1698056183956496 1.169604501110122 1.1693966739120043 1.1691818139524202 1.168959577874169 1.168729600181635
1.168491491453807 1.168244836384602 1.1679891916285001 1.1677240834276503 1.1674490050002007 1.1671634136533982 1.1668667275953837 1.1665583224026932
1.1662375271015435 1.165903619814621 1.1655558229150031 1.165193297619389 1.1648151379511162 1.1644203639783157 1.1640079142273763 1.163576637157533
1.1631252815490711 1.1626524856561105 1.1621567649203612 1.1616364980366356 1.1610899110919348 1.1605150594828118 1.1599098072226965 1.1592718032128602
1.158598453937394 1.1578868919522378 1.1571339393998414 1.1563360656234423 1.155489337753508 1.1545893628895243 1.1536312201918975 1.1526093808022608
1.1515176130258098 1.1503488695790054 1.1490951529126647 1.147747353604096 1.1462950555084817 1.1447262996814445 1.1430272969046484 1.1411820758521074
1.1391720502651737 1.1369754837869195 1.1345668249887808 1.1319158772459303 1.1289867580993729 1.1257365902105576 1.1221138507702122 1.1180562885840928
1.1134882994636541 1.1083176345780643 1.1024313109558292 1.0956906133175437 1.0879251487036257 1.0789260832645553 1.0684390153441825 1.0561574850356692
1.04171889270674 1.0247053638184767 1.0046519561371525 0.9810611312292927 0.9534101723147259 0.9211066993108652 0.8832782669534289 0.8381439561293114
0.7814562059589392 0.7437004393647761 0.7066356288948228 0.6709840135408918 0.6372446628904171 0.6057023455237953 0.576468871180893 0.5495327525724569
0.5248033745512615 0.5021448447445209 0.48139964394326995 0.462404056304937 0.44499762346127625 0.42902851844020873 0.4143562560391878 0.40085273038270586
0.38840224453469574 0.37690096540588414 0.36625607932522897 0.35638481891371754 0.347213463767293 0.33867637383389493 0.33071508691199014 0.3232774947229977
0.3163171017918742 0.3097923654485868 0.30366611203872296 0.29790502287539766 0.2924791829272344 0.287361685282832 0.282528284807384 0.2779570949484622
0.2736283222493796 0.26952403373543987 0.265627952917491 0.26192528069083565 0.2584025378886956 0.2550474266743308 0.25184870833639295 0.2487960953741819
0.2458801560503332 0.24309222982845213 0.24042435233223358 0.23786918864091788 0.235419973896267 0.23307046033314904 0.23081486995915057 0.22864785221322848
0.22656444601800274 0.22456004571646204 0.22263037044632839 0.22077143656549225 0.21897953278390503 0.2172511977066982 0.21558319952234228 0.21397251760658875
00000000: 00e8 c2e6 0ad8 f23f 004b f74d f8d7 f23f
00000010: 4077 c99f e5d7 f23f c042 76ce d2d7 f23f
00000020: c0fe f7d0 bfd7 f23f 0071 3da1 acd7 f23f
00000030: 0066 0d3b 99d7 f23f c048 559b 85d7 f23f
00000040: c028 babf 71d7 f23f 80bc 52a6 5dd7 f23f
00000050: 0086 7b4d 49d7 f23f 8024 bbb3 34d7 f23f
00000060: 8070 b0d7 1fd7 f23f 4057 07b8 0ad7 f23f
00000070: c073 7153 f5d6 f23f 4057 a1a8 dfd6 f23f
00000080: 407d 47b6 c9d6 f23f 8048 107b b3d6 f23f
00000090: c044 a2f5 9cd6 f23f 00a1 9d24 86d6 f23f
000000a0: c009 9b06 6fd6 f23f 802e 2b9a 57d6 f23f
000000b0: 4079 d6dd 3fd6 f23f 806e 1cd0 27d6 f23f
000000c0: 007f 736f 0fd6 f23f 8084 48ba f6d5 f23f
000000d0: 008c feae ddd5 f23f 0064 ee4b c4d5 f23f
000000e0: 005e 668f aad5 f23f 4007 aa77 90d5 f23f
000000f0: 00bc f102 76d5 f23f c04e 6a2f 5bd5 f23f
00000100: 0099 34fb 3fd5 f23f c028 6564 24d5 f23f
00000110: c0fb 0369 08d5 f23f 40fc 0b07 ecd4 f23f
00000120: c078 6a3c cfd4 f23f 40e9 fe06 b2d4 f23f
00000130: 0062 9a64 94d4 f23f 8011 ff52 76d4 f23f
00000140: 80d7 dfcf 57d4 f23f 80c5 dfd8 38d4 f23f
00000150: 4081 916b 19d4 f23f c0b3 7685 f9d3 f23f
00000160: c0ac ff23 d9d3 f23f 4093 8a44 b8d3 f23f
00000170: c0da 62e4 96d3 f23f 40ad c000 75d3 f23f
00000180: c01b c896 52d3 f23f 0091 88a3 2fd3 f23f
00000190: 0002 fc23 0cd3 f23f 404a 0615 e8d2 f23f
000001a0: 002e 7473 c3d2 f23f 80cf fa3b 9ed2 f23f
000001b0: 807b 366b 78d2 f23f c010 aafd 51d2 f23f
000001c0: c004 beef 2ad2 f23f 2055 bf3d 03d2 f23f
000001d0: 4070 dee3 dad1 f23f 0076 2ede b1d1 f23f
000001e0: c0b6 a328 88d1 f23f e0e3 12bf 5dd1 f23f
000001f0: 00b8 2f9d 32d1 f23f c092 8bbe 06d1 f23f
00000200: c06f 941e dad0 f23f a033 93b8 acd0 f23f
00000210: 8087 aa87 7ed0 f23f c01f d586 4fd0 f23f
00000220: 2057 e4b0 1fd0 f23f a03c 7e00 efcf f23f
00000230: 2036 1c70 bdcf f23f e0d2 08fa 8acf f23f
00000240: 8027 5e98 57cf f23f 80af 0345 23cf f23f
00000250: 0035 acf9 edce f23f 20a0 d3af b7ce f23f
00000260: e0a0 bc60 80ce f23f 8051 6e05 48ce f23f
00000270: 208a b196 0ece f23f 6057 0e0d d4cd f23f
00000280: a012 c960 98cd f23f c059 df89 5bcd f23f
00000290: 4006 0580 1dcd f23f c0d3 a03a decc f23f
000002a0: e005 c9b0 9dcc f23f 2087 3fd9 5bcc f23f
000002b0: 0045 6eaa 18cc f23f a0e4 621a d4cb f23f
000002c0: c0bc ca1e 8ecb f23f 8024 eeac 46cb f23f
000002d0: 0097 abb9 fdca f23f c0da 7239 b3ca f23f
000002e0: 2055 3f20 67ca f23f 80bd 9261 19ca f23f
000002f0: 00e1 6ef0 c9c9 f23f 6064 4fbf 78c9 f23f
00000300: c0e7 22c0 25c9 f23f 6020 44e4 d0c8 f23f
00000310: a00d 721c 7ac8 f23f c004 c858 21c8 f23f
00000320: 2042 b588 c6c7 f23f 40c0 f39a 69c7 f23f
00000330: c096 7e7d 0ac7 f23f 00c4 871d a9c6 f23f
00000340: c047 6d67 45c6 f23f 006d ad46 dfc5 f23f
00000350: 209d daa5 76c5 f23f c0f1 8d6e 0bc5 f23f
00000360: 0044 5989 9dc4 f23f 00fd b7dd 2cc4 f23f
00000370: 2022 ff51 b9c3 f23f 402b 4ccb 42c3 f23f
00000380: c065 722d c9c2 f23f e06b e75a 4cc2 f23f
00000390: 20e4 ad34 ccc1 f23f e0f2 3e9a 48c1 f23f
000003a0: c0cf 7169 c1c0 f23f 40b3 617e 36c0 f23f
000003b0: 00b8 51b3 a7bf f23f 8075 8ee0 14bf f23f
000003c0: 8098 4ddc 7dbe f23f 60b0 8a7a e2bd f23f
000003d0: 4058 e18c 42bd f23f 6014 64e2 9dbc f23f
000003e0: a03a 7047 f4bb f23f 000c 7e85 45bb f23f
000003f0: e0b2 ec62 91ba f23f 2024 caa2 d7b9 f23f
00000400: 00f5 9504 18b9 f23f 40f1 fe43 52b8 f23f
00000410: 60fb 9a18 86b7 f23f a05b 9835 b3b6 f23f
00000420: 400d 6849 d9b5 f23f c00e 60fd f7b4 f23f
00000430: 600c 55f5 0eb4 f23f 405b 2acf 1db3 f23f
00000440: 802c 5722 24b2 f23f 40e2 5f7f 21b1 f23f
00000450: a003 426f 15b0 f23f 602c d172 ffae f23f
00000460: e093 0302 dfad f23f 40aa 2b8b b3ac f23f
00000470: e000 1d72 7cab f23f 008a 390f 39aa f23f
00000480: 004e 64ae e8a8 f23f e044 d68d 8aa7 f23f
00000490: 2051 d1dc 1da6 f23f e0b2 2cba a1a4 f23f
000004a0: 202c b632 15a3 f23f 2055 613f 77a1 f23f
000004b0: a044 3ec3 c69f f23f 40b3 2f89 029e f23f
000004c0: 0077 5641 299c f23f 0019 287e 399a f23f
000004d0: a087 22b1 3198 f23f 6084 0e27 1096 f23f
000004e0: c0af bd03 d393 f23f 20e8 2f3d 7891 f23f
000004f0: 604c 0596 fd8e f23f 4096 1f97 608c f23f
00000500: 60b7 4d88 9e89 f23f 606e d667 b486 f23f
00000510: 0006 ade0 9e83 f23f a09b 103f 5a80 f23f
00000520: c072 4863 e27c f23f 40b8 1eb2 3279 f23f
00000530: 80e6 a502 4675 f23f 80bc b988 1671 f23f
00000540: e06b 8bbb 9d6c f23f 8051 5d37 d467 f23f
00000550: 4008 5c99 b162 f23f 60cd 3c54 2c5d f23f
00000560: 609b ef7b 3957 f23f e00b 4086 cc50 f23f
00000570: 8040 aafd d649 f23f 200f e922 4842 f23f
00000580: c07f c678 0c3a f23f 607f 7334 0d31 f23f
00000590: 0041 078b 2f27 f23f c082 a9d2 531c f23f
000005a0: 4076 3a6b 5410 f23f a0d6 ed5e 0403 f23f
000005b0: a025 37a7 2df4 f13f a0e4 a8fd 8ee3 f13f
000005c0: 00cd 6a1b d9d0 f13f 607c a145 abbb f13f
000005d0: 6044 aa03 8fa3 f13f 80ba 6be1 f287 f13f
000005e0: 20d9 6233 2468 f13f 20c3 26ff 4743 f13f
000005f0: 80c7 4a82 5318 f13f 0076 1a64 05e6 f03f
00000600: 00d0 fc6d e1aa f03f a02d 9a73 3165 f03f
00000610: 408b f7ed 0d13 f03f e035 4050 da64 ef3f
00000620: c07e b80c 5682 ee3f 6055 b5c1 b479 ed3f
00000630: 20a4 bac8 d043 ec3f 604b 1d46 13d2 ea3f
00000640: 4032 fb71 b001 e93f 20f6 22dd 64cc e73f
00000650: 4055 8952 c29c e63f a080 4977 b378 e53f
00000660: c046 55eb 4e64 e43f 8053 a4e2 e961 e33f
00000670: 8049 9cd8 6e72 e23f 6025 0cb6 c595 e13f
00000680: 40e6 5072 30cb e03f 000c c110 9211 e03f
00000690: 80b6 c273 40cf de3f 4084 d72e 0798 dd3f
000006a0: 0017 e44f d77a dc3f 4021 f007 3475 db3f
000006b0: 4034 251a d084 da3f c062 e035 92a7 d93f
000006c0: 800c 7e16 95db d83f 40f1 0f3a 251f d83f
000006d0: 406f aa56 bd70 d73f 809e 8145 02cf d63f
000006e0: 4021 e7d1 be38 d63f 40d8 62ab dfac d53f
000006f0: c02b a59c 6f2a d53f c08e d716 94b0 d43f
00000700: 8024 d715 8a3e d43f 00bd 895b a3d3 d33f
00000710: c006 07fd 436f d33f 0018 a43a e010 d33f
00000720: c0ba 5b9b fab7 d23f 0072 1a44 2264 d23f
00000730: 0055 dc83 f114 d23f 00ab 1f8e 0cca d13f
00000740: 0082 d45d 2083 d13f 404d 98bb e13f d13f
00000750: 80c7 ab62 0c00 d13f 4004 a440 62c3 d03f
00000760: c0dc 5bcc aa89 d03f 80b1 1f71 b252 d03f
00000770: c00e 760b 4a1e d03f 0097 80ea 8cd8 cf3f
00000780: 005c 7c3e 0079 cf3f 8030 836c a51d cf3f
00000790: 00e7 36a5 39c6 ce3f 802a f860 7f72 ce3f
000007a0: 80d5 5ae0 3d22 ce3f 80b3 65ba 40d5 cd3f
000007b0: 80d8 f376 578b cd3f 003a c733 5544 cd3f
000007c0: 00b6 0a53 1000 cd3f 8094 2b32 62be cc3f
000007d0: 80e8 14e8 267f cc3f 0049 f809 3d42 cc3f
000007e0: 006e e675 8507 cc3f 8063 9522 e3ce cb3f
000007f0: 00fc c1f3 3a98 cb3f 8079 ae92 7363 cb3f
