onecap_model_with_structure_ambiguity/output/upper_triangular_four_ambiguous_parameters/Delta_10.0_distorted_0/logadjustment_1_boundary_0/zmax_5.0_zscale_2.0/delta_0.015/q_0.1_gamma_2.0_rho_1.0/model.npz (npz, 126264 bytes, 58 tensors)

clowerlim f8 []
00000000: 2d43 1ceb e236 1a3f
0.0001

zmin f8 []
00000000: 0000 0000 0000 14c0
-5.0

Delta f8 []
00000000: 0000 0000 0000 2440
10.0

s1_F f8 [401]
00000000: 983a 3596 66a7 d5bf 1d94 ba4a ef8b d5bf
00000010: a256 48f1 7770 d5bf 9575 aeac 0055 d5bf
00000020: 3385 1888 8939 d5bf 062e 5887 121e d5bf
00000030: 60fa f4ab 9b02 d5bf 9a6b c0f6 24e7 d4bf
00000040: cc4c 5468 aecb d4bf f675 3a01 38b0 d4bf
00000050: a958 f9c1 c194 d4bf 9ffd 17ab 4b79 d4bf
00000060: 8e52 1fbd d55d d4bf e5ab 9af8 5f42 d4bf
00000070: 42e5 175e ea26 d4bf cb82 27ee 740b d4bf
00000080: 7fcc 5ca9 ffef d3bf 16d3 4d90 8ad4 d3bf
00000090: c68a 93a3 15b9 d3bf 14df c9e3 a09d d3bf
000000a0: 9abe 8f51 2c82 d3bf 8733 87ed b766 d3bf
000000b0: 9f74 55b8 434b d3bf c8fe a2b2 cf2f d3bf
000000c0: 31a6 1bdd 5b14 d3bf a3a9 6e38 e8f8 d2bf
000000d0: afd7 4ec5 74dd d2bf ed88 7284 01c2 d2bf
000000e0: acdd 9376 8ea6 d2bf 2cbb 709c 1b8b d2bf
000000f0: 58e8 caf6 a86f d2bf e238 6886 3654 d2bf
00000100: db92 124c c438 d2bf c51c 9848 521d d2bf
00000110: ab52 cb7c e001 d2bf aa1f 83e9 6ee6 d1bf
00000120: 5907 9b8f fdca d1bf 8544 f36f 8caf d1bf
00000130: 69e0 708b 1b94 d1bf cdde fde2 aa78 d1bf
00000140: 7961 8977 3a5d d1bf 19c7 074a ca41 d1bf
00000150: 26d7 725b 5a26 d1bf 28e5 c9ac ea0a d1bf
00000160: ccfa 113f 7bef d0bf 9a06 5613 0cd4 d0bf
00000170: 81fc a62a 9db8 d0bf ed15 1c86 2e9d d0bf
00000180: 28e9 d226 c081 d0bf 61b0 ef0d 5266 d0bf
00000190: 4567 9d3c e44a d0bf 8d13 0eb4 762f d0bf
000001a0: f8ed 7a75 0914 d0bf 5333 4904 39f1 cfbf
000001b0: 1fd7 a6b6 5fba cfbf fb29 af04 8783 cfbf
000001c0: 31e2 12f1 ae4c cfbf 327e 937e d715 cfbf
000001d0: 88ce 03b0 00df cebf 2781 4888 2aa8 cebf
000001e0: cfb5 580a 5571 cebf 0694 3e39 803a cebf
000001f0: 10e6 1718 ac03 cebf 02c9 16aa d8cc cdbf
00000200: 393f 82f2 0596 cdbf 8504 b7f4 335f cdbf
00000210: b31f 28b4 6228 cdbf 31bd 5f34 92f1 ccbf
00000220: 1bf5 ff78 c2ba ccbf 4c90 c385 f383 ccbf
00000230: 30e0 7e5e 254d ccbf d4b1 2007 5816 ccbf
00000240: af2f b383 8bdf cbbf 99ca 5cd8 bfa8 cbbf
00000250: a252 6109 f571 cbbf ffe8 221b 2b3b cbbf
00000260: 042f 2312 6204 cbbf 3459 04f3 99cd cabf
00000270: 5568 8ac2 d296 cabf 1d5a 9c85 0c60 cabf
00000280: c080 4541 4729 cabf 99e0 b6fa 82f2 c9bf
00000290: 8a8d 48b7 bfbb c9bf 923b 7b7c fd84 c9bf
000002a0: 24ae f94f 3c4e c9bf be7a 9a37 7c17 c9bf
000002b0: 5d9c 6139 bde0 c8bf 4e56 825b ffa9 c8bf
000002c0: 4f02 61a4 4273 c8bf 000e 951a 873c c8bf
000002d0: cd02 ebc4 cc05 c8bf f0ae 66aa 13cf c7bf
000002e0: 2f74 45d2 5b98 c7bf 5c98 0044 a561 c7bf
000002f0: ccd4 4f07 f02a c7bf 18e5 2b24 3cf4 c6bf
00000300: 2b59 d1a2 89bd c6bf db79 c38b d886 c6bf
00000310: 174d cfe7 2850 c6bf b2e0 0ec0 7a19 c6bf
00000320: cf9e ec1d cee2 c5bf aee8 260b 23ac c5bf
00000330: 5be1 d391 7975 c5bf 9e5b 65bc d13e c5bf
00000340: af14 ad95 2b08 c5bf 4e2e e128 87d1 c4bf
00000350: ddcb a081 e49a c4bf 6a16 f9ab 4364 c4bf
00000360: a777 6ab4 a42d c4bf 8b24 eea7 07f7 c3bf
00000370: 1e07 fc93 6cc0 c3bf c2ee 9086 d389 c3bf
00000380: 793d 358e 3c53 c3bf fadc 03ba a71c c3bf
00000390: f3bd b119 15e6 c2bf 36b6 95bd 84af c2bf
000003a0: 44fa b0b6 f678 c2bf 7401 b816 6b42 c2bf
000003b0: 951f 1cf0 e10b c2bf 05a4 1556 5bd5 c1bf
000003c0: 1fb2 ae5c d79e c1bf 0ece ce18 5668 c1bf
000003d0: 1037 47a0 d731 c1bf 0f19 e009 5cfb c0bf
000003e0: e5a7 666d e3c4 c0bf c840 bce3 6d8e c0bf
000003f0: 3f90 e686 fb57 c0bf bdf6 2072 8c21 c0bf
00000400: 324d de83 41d6 bfbf 3d4c 6228 7169 bfbf
00000410: adc9 7110 a8fc bebf c1ad c27d e68f bebf
00000420: 77f6 4eb5 2c23 bebf 468e 8aff 7ab6 bdbf
00000430: ac8d 9da8 d149 bdbf e51b a300 31dd bcbf
00000440: e48a ed5b 9970 bcbf 6640 5013 0b04 bcbf
00000450: 88b8 6f84 8697 bbbf 019b 1812 0c2b bbbf
00000460: 287f 9e24 9cbe babf 3410 432a 3752 babf
00000470: 63b5 a697 dde5 b9bf aaa2 43e8 8f79 b9bf
00000480: dc92 f49e 4e0d b9bf c081 8846 1aa1 b8bf
00000490: bbe8 6472 f334 b8bf af41 38bf dac8 b7bf
000004a0: dcce bed3 d05c b7bf 6b01 9c61 d6f0 b6bf
000004b0: 2805 4b26 ec84 b6bf 36a1 29ec 1219 b6bf
000004c0: 50e8 a08b 4bad b5bf 2acf 6fec 9641 b5bf
000004d0: d47d 1c07 f6d5 b4bf 6af9 91e6 696a b4bf
000004e0: 95b6 f0a9 f3fe b3bf 11e6 9986 9493 b3bf
000004f0: aa9c 7eca 4d28 b3bf 7bda bdde 20bd b2bf
00000500: e17c 9e4a 0f52 b2bf 84a9 f4b6 1ae7 b1bf
00000510: 90bc 05f2 447c b1bf ad66 01f4 8f11 b1bf
00000520: 61d2 2be4 fda6 b0bf 7db0 da1e 913c b0bf
00000530: 29dd dd78 98a4 afbf db10 fd32 64d0 aebf
00000540: 9ddc dcc0 8bfc adbf 78b5 9829 1629 adbf
00000550: 55c8 9941 0b56 acbf b359 d9ca 7383 abbf
00000560: 962d ab9b 59b1 aabf 0e65 accd c7df a9bf
00000570: 92a2 e8f6 ca0e a9bf 1ced e36f 713e a8bf
00000580: ac40 07aa cb6e a7bf 2b9a 039b ec9f a6bf
00000590: 01c7 3443 ead1 a5bf 6f09 0657 de04 a5bf
000005a0: e705 0716 e738 a4bf c219 045e 286e a3bf
000005b0: 41fe 6c0d cda4 a2bf cdc8 1ccf 08dd a1bf
000005c0: abe4 d172 1a17 a1bf 9c65 2002 4f53 a0bf
000005d0: d669 a2a4 0b24 9fbf c75c 9fd2 6ba7 9dbf
000005e0: 9377 904d ea31 9cbf d706 ec82 03c5 9abf
000005f0: ac62 168b 9d62 99bf 9ee9 c999 280d 98bf
00000600: e811 c004 c8c7 96bf bf39 dec7 8396 95bf
00000610: 088c e85d 7f7e 94bf 58fc 3e9e 2c86 93bf
00000620: 01d0 6021 67b5 92bf cd6b 10f3 5715 92bf
00000630: 0248 56e4 f9af 91bf a535 fc21 258f 91bf
00000640: 2b14 6ba8 3cbb 91bf 71c5 7ee8 c530 92bf
00000650: 75bc 8a15 00f7 92bf 58c7 390c e10a 94bf
00000660: 943f cb7d 7066 95bf fcb4 01c3 0c02 97bf
00000670: c382 eeb0 93d5 98bf f13b beb5 31d9 9abf
00000680: 056e 9fc7 d205 9dbf 4151 1b0b 4d55 9fbf
00000690: 4f34 b193 30e1 a0bf 53a5 cfd1 5224 a2bf
000006a0: 1191 7a44 3572 a3bf 3107 072c 4ec9 a4bf
000006b0: dcad 6cc5 5428 a6bf 4ec1 9fe0 358e a7bf
000006c0: 514e a557 0afa a8bf 6db0 fc38 0f6b aabf
000006d0: 281d ab65 9fe0 abbf 1472 bd62 2e5a adbf
000006e0: f296 de24 44d7 aebf e7f3 c5d2 bc2b b0bf
000006f0: 611e 1a0d 3bed b0bf 0567 a256 f6af b1bf
00000700: 5e11 cc4f cd73 b2bf ad8b fade a238 b3bf
00000710: cc24 3c8d 5dfe b3bf defd 87fe e6c4 b4bf
00000720: 3e00 6780 2b8c b5bf ef26 f0aa 1954 b6bf
00000730: f9c3 cf10 a21c b7bf a3f3 b4fb b6e5 b7bf
00000740: 1004 0233 4caf b8bf 85c9 03cb 5679 b9bf
00000750: 9ab4 45fb cc43 babf 1d89 dafa a50e bbbf
00000760: ea53 a6e1 d9d9 bbbf 64e1 e08d 61a5 bcbf
00000770: 59ad 2a8d 3671 bdbf d013 aa08 533d bebf
00000780: 17e5 bdb3 b109 bfbf 85db e4bc 4dd6 bfbf
00000790: 29a5 4460 9151 c0bf ee6d b65e 16b8 c0bf
000007a0: f366 3d05 b41e c1bf fe13 e8a6 6885 c1bf
000007b0: 2a1f 68ba 32ec c1bf 4b32 91d6 1053 c2bf
000007c0: 1751 3daf 01ba c2bf 51bb 8912 0421 c3bf
000007d0: 514d 61e6 1688 c3bf 4fc6 4a26 39ef c3bf
000007e0: 65ac 72e1 6956 c4bf ccc7 e938 a8bd c4bf
000007f0: 2ade 115e f324 c5bf a65c 3391 4a8c c5bf
-0.3383423296808501 -0.33666593835579467 -0.33498953402281917 -0.3333131491034121 -0.33163679400066143 -0.32996047227126757 -0.3282841853396459 -0.32660793396797205
-0.324931718715743 -0.32325554008443136 -0.32157939856314016 -0.31990329464312056 -0.31822722882251575 -0.31655120160820466 -0.31487521351626324 -0.3131992650724384
-0.3115233568125361 -0.30984748928249084 -0.30817166303874577 -0.30649587864853456 -0.3048201366900486 -0.30314443775278516 -0.301468782437789 -0.29979317135801553
-0.2981176051385744 -0.2964420844170041 -0.2947666098438004 -0.29309118208233437 -0.29141580180972926 -0.2897404697168209 -0.28806518650856594 -0.28638995290465463
-0.28471476963959014 -0.2830396374633433 -0.2813645571416525 -0.27968952945638625 -0.278014555206132 -0.2763396352066326 -0.2746647702911163 -0.27298996131092396
-0.27131520913601254 -0.26964051465539424 -0.26796587877776046 -0.26629130243198285 -0.26461678656771137 -0.2629423321560381 -0.26126794018995986 -0.25959361168528866
-0.25791934768098423 -0.25624514924016323 -0.25457101745051985 -0.25289695342535695 -0.2512229583041683 -0.24954903325342545 -0.24787517946759238 -0.24620139816973094
-0.24452769061260107 -0.24285405807948873 -0.24118050188518603 -0.23950702337698113 -0.23783362393571258 -0.236160304976835 -0.23448706795152008 -0.23281391434790782
-0.23114084569214713 -0.22946786354990337 -0.2277949695273925 -0.22612216527293463 -0.2244494524783612 -0.22277683288041528 -0.221104308262285 -0.21943188045533069
-0.2177595513406891 -0.21608732285092883 -0.21441519697204564 -0.21274317574518162 -0.21107126126877784 -0.20939945570052887 -0.20772776125960726 -0.20605618022882846
-0.20438471495709187 -0.20271336786186536 -0.2010421414316677 -0.19937103822891494 -0.19770006089253045 -0.1960292121411466 -0.19435849477597147 -0.19268791168421945
-0.19101746584239485 -0.18934716031991172 -0.18767699828278808 -0.18600698299757523 -0.18433711783555526 -0.182667406276951 -0.18099785191558337 -0.17932845846352374
-0.17765922975622436 -0.17599016975778067 -0.17432128256641796 -0.17265257242047977 -0.1709840437044847 -0.16931570095568332 -0.16764754887095532 -0.16597959231395704
-0.16431183632281463 -0.16264428611826748 -0.16097694711206048 -0.15930982491606765 -0.1576429253518061 -0.15597625446051597 -0.15430981851391662 -0.15264362402546366
-0.15097767776249407 -0.14931198675888152 -0.14764655832867354 -0.1459814000804031 -0.14431651993250416 -0.14265192612948463 -0.140987627259389 -0.13932363227220904
-0.13765995049961163 -0.1359965916759482 -0.13433356596072388 -0.13267088396259694 -0.13100855676503823 -0.12934659595385356 -0.12768501364655724 -0.1260238225240097
-0.1243630358642818 -0.1227026675790492 -0.12104273225285196 -0.11938324518512557 -0.11772422243572032 -0.11606568087386746 -0.11440763823116268 -0.11275011315875323
-0.11109312528928289 -0.10943669530411312 -0.10778084500609186 -0.10612559739875495 -0.10447097677251505 -0.10281700879846839 -0.10116372063085559 -0.09951114101898875
-0.09785930042978513 -0.09620823118212396 -0.09455796759440009 -0.09290854614687903 -0.091260005660668 -0.08961238749544058 -0.08796573576821187 -0.08632009759606238
-0.08467552336597461 -0.08303206703550062 -0.08138978646865463 -0.07974874381213728 -0.07810900591786159 -0.07647064481889056 -0.07483373826709064 -0.0731983703425189
-0.07156463214640808 -0.06993262259189775 -0.06830244930982787 -0.0666742296902167 -0.06504809208474562 -0.0634241772010586 -0.06180263972685857 -0.06018365023058588
-0.058567397396864986 -0.056954090669345925 -0.05534396339216189 -0.05373727656540286 -0.05213432336094141 -0.05053543458616093 -0.04894098533651915 -0.04735140314911687
-0.045767178063785025 -0.04418887512456523 -0.0426171500242969 -0.04105276882457331 -0.039496632994552354 -0.037949811436238004 -0.03641358174217802 -0.03488948372104659
-0.03337938930139591 -0.03188559437712543 -0.03041094009732056 -0.028958973627450726 -0.027534161552572888 -0.026142172685473888 -0.02479025041029341 -0.0234876960625826
-0.022246480264600438 -0.02108198077581291 -0.0200137997691279 -0.019066521795817998 -0.01827012196754652 -0.017659544191797317 -0.017272858201586423 -0.01714761753014717
-0.017315814761577435 -0.017764179530506966 -0.018520356478515205 -0.01957275044555415 -0.0208985878733184 -0.022468757059347574 -0.024252231287053016 -0.026219155042379986
-0.028342526849753486 -0.03059883480348558 -0.03296806147464137 -0.03543337641878943 -0.0379807134716278 -0.04059833800739766 -0.043276452159570516 -0.046006854696204344
-0.04878265685934181 -0.051598048883847315 -0.05444810978002074 -0.057328652909493766 -0.060236100674314744 -0.06316738267737741 -0.0661198527324074 -0.06909122099969174
-0.07207949827358592 -0.07508295005622641 -0.07810005853766028 -0.08112949098721553 -0.08417007336447654 -0.08722076819699585 -0.09028065596045555 -0.0933489193457278
-0.09642482991513668 -0.09950773674407827 -0.10259705671861 -0.10569226621968082 -0.10879289397264783 -0.11189851487950403 -0.11500874468281576 -0.1181232353356585
-0.12124167097308135 -0.1243637643973284 -0.12748925400345826 -0.1306179010833683 -0.13374948745586543 -0.13688381337865957 -0.1400206957043733 -0.1431599662486341
-0.14630147034279936 -0.14944506554771889 -0.15259062050845754 -0.1557380139325226 -0.1588871336765322 -0.1620378759285458 -0.16519014447452324 -0.16834385003924018

d f8 [401]
00000000: 30d1 dfc9 6a79 b33f 30d1 dfc9 6a79 b33f
00000010: 30d1 dfc9 6a79 b33f 30d1 dfc9 6a79 b33f
00000020: 30d1 dfc9 6a79 b33f 30d1 dfc9 6a79 b33f
00000030: 30d1 dfc9 6a79 b33f 30d1 dfc9 6a79 b33f
00000040: 30d1 dfc9 6a79 b33f 30d1 dfc9 6a79 b33f
00000050: 30d1 dfc9 6a79 b33f 30d1 dfc9 6a79 b33f
00000060: 30d1 dfc9 6a79 b33f 30d1 dfc9 6a79 b33f
00000070: 30d1 dfc9 6a79 b33f 30d1 dfc9 6a79 b33f
00000080: 30d1 dfc9 6a79 b33f 30d1 dfc9 6a79 b33f
00000090: 30d1 dfc9 6a79 b33f 30d1 dfc9 6a79 b33f
000000a0: 30d1 dfc9 6a79 b33f 30d1 dfc9 6a79 b33f
000000b0: 30d1 dfc9 6a79 b33f 30d1 dfc9 6a79 b33f
000000c0: 30d1 dfc9 6a79 b33f 30d1 dfc9 6a79 b33f
000000d0: 30d1 dfc9 6a79 b33f 30d1 dfc9 6a79 b33f
000000e0: 30d1 dfc9 6a79 b33f 30d1 dfc9 6a79 b33f
000000f0: 30d1 dfc9 6a79 b33f 30d1 dfc9 6a79 b33f
00000100: 30d1 dfc9 6a79 b33f 30d1 dfc9 6a79 b33f
00000110: 30d1 dfc9 6a79 b33f 30d1 dfc9 6a79 b33f
00000120: 30d1 dfc9 6a79 b33f 30d1 dfc9 6a79 b33f
00000130: 30d1 dfc9 6a79 b33f 30d1 dfc9 6a79 b33f
00000140: 30d1 dfc9 6a79 b33f 30d1 dfc9 6a79 b33f
00000150: 30d1 dfc9 6a79 b33f 30d1 dfc9 6a79 b33f
00000160: 30d1 dfc9 6a79 b33f 30d1 dfc9 6a79 b33f
00000170: 30d1 dfc9 6a79 b33f 30d1 dfc9 6a79 b33f
00000180: 30d1 dfc9 6a79 b33f 30d1 dfc9 6a79 b33f
00000190: 30d1 dfc9 6a79 b33f 30d1 dfc9 6a79 b33f
000001a0: 30d1 dfc9 6a79 b33f 30d1 dfc9 6a79 b33f
000001b0: 30d1 dfc9 6a79 b33f 30d1 dfc9 6a79 b33f
000001c0: 30d1 dfc9 6a79 b33f 30d1 dfc9 6a79 b33f
000001d0: 30d1 dfc9 6a79 b33f 30d1 dfc9 6a79 b33f
000001e0: 30d1 dfc9 6a79 b33f 30d1 dfc9 6a79 b33f
000001f0: 30d1 dfc9 6a79 b33f 30d1 dfc9 6a79 b33f
00000200: 30d1 dfc9 6a79 b33f 30d1 dfc9 6a79 b33f
00000210: 30d1 dfc9 6a79 b33f 30d1 dfc9 6a79 b33f
00000220: 30d1 dfc9 6a79 b33f 30d1 dfc9 6a79 b33f
00000230: 30d1 dfc9 6a79 b33f 30d1 dfc9 6a79 b33f
00000240: 30d1 dfc9 6a79 b33f 30d1 dfc9 6a79 b33f
00000250: 30d1 dfc9 6a79 b33f 30d1 dfc9 6a79 b33f
00000260: 30d1 dfc9 6a79 b33f 30d1 dfc9 6a79 b33f
00000270: 30d1 dfc9 6a79 b33f 30d1 dfc9 6a79 b33f
00000280: 30d1 dfc9 6a79 b33f 30d1 dfc9 6a79 b33f
00000290: 30d1 dfc9 6a79 b33f 30d1 dfc9 6a79 b33f
000002a0: 30d1 dfc9 6a79 b33f 30d1 dfc9 6a79 b33f
000002b0: 30d1 dfc9 6a79 b33f 30d1 dfc9 6a79 b33f
000002c0: 30d1 dfc9 6a79 b33f 30d1 dfc9 6a79 b33f
000002d0: 30d1 dfc9 6a79 b33f 30d1 dfc9 6a79 b33f
000002e0: 30d1 dfc9 6a79 b33f 30d1 dfc9 6a79 b33f
000002f0: 30d1 dfc9 6a79 b33f 30d1 dfc9 6a79 b33f
00000300: 30d1 dfc9 6a79 b33f 30d1 dfc9 6a79 b33f
00000310: 30d1 dfc9 6a79 b33f 30d1 dfc9 6a79 b33f
00000320: 30d1 dfc9 6a79 b33f 30d1 dfc9 6a79 b33f
00000330: 30d1 dfc9 6a79 b33f 30d1 dfc9 6a79 b33f
00000340: 30d1 dfc9 6a79 b33f 30d1 dfc9 6a79 b33f
00000350: 30d1 dfc9 6a79 b33f 30d1 dfc9 6a79 b33f
00000360: 30d1 dfc9 6a79 b33f 30d1 dfc9 6a79 b33f
00000370: 30d1 dfc9 6a79 b33f 30d1 dfc9 6a79 b33f
00000380: 30d1 dfc9 6a79 b33f 30d1 dfc9 6a79 b33f
00000390: 30d1 dfc9 6a79 b33f 30d1 dfc9 6a79 b33f
000003a0: 30d1 dfc9 6a79 b33f 30d1 dfc9 6a79 b33f
000003b0: 30d1 dfc9 6a79 b33f 30d1 dfc9 6a79 b33f
000003c0: 30d1 dfc9 6a79 b33f 30d1 dfc9 6a79 b33f
000003d0: 30d1 dfc9 6a79 b33f 30d1 dfc9 6a79 b33f
000003e0: 30d1 dfc9 6a79 b33f 30d1 dfc9 6a79 b33f
000003f0: 30d1 dfc9 6a79 b33f 30d1 dfc9 6a79 b33f
00000400: 30d1 dfc9 6a79 b33f 30d1 dfc9 6a79 b33f
00000410: 30d1 dfc9 6a79 b33f 30d1 dfc9 6a79 b33f
00000420: 30d1 dfc9 6a79 b33f 30d1 dfc9 6a79 b33f
00000430: 30d1 dfc9 6a79 b33f 30d1 dfc9 6a79 b33f
00000440: 30d1 dfc9 6a79 b33f 30d1 dfc9 6a79 b33f
00000450: 30d1 dfc9 6a79 b33f 30d1 dfc9 6a79 b33f
00000460: 30d1 dfc9 6a79 b33f 30d1 dfc9 6a79 b33f
00000470: 30d1 dfc9 6a79 b33f 30d1 dfc9 6a79 b33f
00000480: 30d1 dfc9 6a79 b33f 30d1 dfc9 6a79 b33f
00000490: 30d1 dfc9 6a79 b33f 30d1 dfc9 6a79 b33f
000004a0: 30d1 dfc9 6a79 b33f 30d1 dfc9 6a79 b33f
000004b0: 30d1 dfc9 6a79 b33f 30d1 dfc9 6a79 b33f
000004c0: 30d1 dfc9 6a79 b33f 30d1 dfc9 6a79 b33f
000004d0: 30d1 dfc9 6a79 b33f 30d1 dfc9 6a79 b33f
000004e0: 30d1 dfc9 6a79 b33f 30d1 dfc9 6a79 b33f
000004f0: 30d1 dfc9 6a79 b33f 30d1 dfc9 6a79 b33f
00000500: 30d1 dfc9 6a79 b33f 30d1 dfc9 6a79 b33f
00000510: 30d1 dfc9 6a79 b33f 30d1 dfc9 6a79 b33f
00000520: 30d1 dfc9 6a79 b33f 30d1 dfc9 6a79 b33f
00000530: 30d1 dfc9 6a79 b33f 30d1 dfc9 6a79 b33f
00000540: 30d1 dfc9 6a79 b33f 30d1 dfc9 6a79 b33f
00000550: 30d1 dfc9 6a79 b33f 30d1 dfc9 6a79 b33f
00000560: 30d1 dfc9 6a79 b33f 30d1 dfc9 6a79 b33f
00000570: 30d1 dfc9 6a79 b33f 30d1 dfc9 6a79 b33f
00000580: 30d1 dfc9 6a79 b33f 30d1 dfc9 6a79 b33f
00000590: 30d1 dfc9 6a79 b33f 30d1 dfc9 6a79 b33f
000005a0: 30d1 dfc9 6a79 b33f 30d1 dfc9 6a79 b33f
000005b0: 30d1 dfc9 6a79 b33f 30d1 dfc9 6a79 b33f
000005c0: 30d1 dfc9 6a79 b33f 30d1 dfc9 6a79 b33f
000005d0: 30d1 dfc9 6a79 b33f 30d1 dfc9 6a79 b33f
000005e0: 30d1 dfc9 6a79 b33f 30d1 dfc9 6a79 b33f
000005f0: 30d1 dfc9 6a79 b33f 30d1 dfc9 6a79 b33f
00000600: 30d1 dfc9 6a79 b33f 30d1 dfc9 6a79 b33f
00000610: 30d1 dfc9 6a79 b33f 30d1 dfc9 6a79 b33f
00000620: 30d1 dfc9 6a79 b33f 30d1 dfc9 6a79 b33f
00000630: 30d1 dfc9 6a79 b33f 30d1 dfc9 6a79 b33f
00000640: 30d1 dfc9 6a79 b33f 30d1 dfc9 6a79 b33f
00000650: 30d1 dfc9 6a79 b33f 30d1 dfc9 6a79 b33f
00000660: 30d1 dfc9 6a79 b33f 30d1 dfc9 6a79 b33f
00000670: 30d1 dfc9 6a79 b33f 30d1 dfc9 6a79 b33f
00000680: 30d1 dfc9 6a79 b33f 30d1 dfc9 6a79 b33f
00000690: 30d1 dfc9 6a79 b33f 30d1 dfc9 6a79 b33f
000006a0: 30d1 dfc9 6a79 b33f 30d1 dfc9 6a79 b33f
000006b0: 30d1 dfc9 6a79 b33f 30d1 dfc9 6a79 b33f
000006c0: 30d1 dfc9 6a79 b33f 30d1 dfc9 6a79 b33f
000006d0: 30d1 dfc9 6a79 b33f 30d1 dfc9 6a79 b33f
000006e0: 30d1 dfc9 6a79 b33f 30d1 dfc9 6a79 b33f
000006f0: 30d1 dfc9 6a79 b33f 30d1 dfc9 6a79 b33f
00000700: 30d1 dfc9 6a79 b33f 30d1 dfc9 6a79 b33f
00000710: 30d1 dfc9 6a79 b33f 30d1 dfc9 6a79 b33f
00000720: 30d1 dfc9 6a79 b33f 30d1 dfc9 6a79 b33f
00000730: 30d1 dfc9 6a79 b33f 30d1 dfc9 6a79 b33f
00000740: 30d1 dfc9 6a79 b33f 30d1 dfc9 6a79 b33f
00000750: 30d1 dfc9 6a79 b33f 30d1 dfc9 6a79 b33f
00000760: 30d1 dfc9 6a79 b33f 30d1 dfc9 6a79 b33f
00000770: 30d1 dfc9 6a79 b33f 30d1 dfc9 6a79 b33f
00000780: 30d1 dfc9 6a79 b33f 30d1 dfc9 6a79 b33f
00000790: 30d1 dfc9 6a79 b33f 30d1 dfc9 6a79 b33f
000007a0: 30d1 dfc9 6a79 b33f 30d1 dfc9 6a79 b33f
000007b0: 30d1 dfc9 6a79 b33f 30d1 dfc9 6a79 b33f
000007c0: 30d1 dfc9 6a79 b33f 30d1 dfc9 6a79 b33f
000007d0: 30d1 dfc9 6a79 b33f 30d1 dfc9 6a79 b33f
000007e0: 30d1 dfc9 6a79 b33f 30d1 dfc9 6a79 b33f
000007f0: 30d1 dfc9 6a79 b33f 30d1 dfc9 6a79 b33f
0.07607142857142857 0.07607142857142857 0.07607142857142857 0.07607142857142857 0.07607142857142857 0.07607142857142857 0.07607142857142857 0.07607142857142857
0.07607142857142857 0.07607142857142857 0.07607142857142857 0.07607142857142857 0.07607142857142857 0.07607142857142857 0.07607142857142857 0.07607142857142857
0.07607142857142857 0.07607142857142857 0.07607142857142857 0.07607142857142857 0.07607142857142857 0.07607142857142857 0.07607142857142857 0.07607142857142857
0.07607142857142857 0.07607142857142857 0.07607142857142857 0.07607142857142857 0.07607142857142857 0.07607142857142857 0.07607142857142857 0.07607142857142857
0.07607142857142857 0.07607142857142857 0.07607142857142857 0.07607142857142857 0.07607142857142857 0.07607142857142857 0.07607142857142857 0.07607142857142857
0.07607142857142857 0.07607142857142857 0.07607142857142857 0.07607142857142857 0.07607142857142857 0.07607142857142857 0.07607142857142857 0.07607142857142857
0.07607142857142857 0.07607142857142857 0.07607142857142857 0.07607142857142857 0.07607142857142857 0.07607142857142857 0.07607142857142857 0.07607142857142857
0.07607142857142857 0.07607142857142857 0.07607142857142857 0.07607142857142857 0.07607142857142857 0.07607142857142857 0.07607142857142857 0.07607142857142857
0.07607142857142857 0.07607142857142857 0.07607142857142857 0.07607142857142857 0.07607142857142857 0.07607142857142857 0.07607142857142857 0.07607142857142857
0.07607142857142857 0.07607142857142857 0.07607142857142857 0.07607142857142857 0.07607142857142857 0.07607142857142857 0.07607142857142857 0.07607142857142857
0.07607142857142857 0.07607142857142857 0.07607142857142857 0.07607142857142857 0.07607142857142857 0.07607142857142857 0.07607142857142857 0.07607142857142857
0.07607142857142857 0.07607142857142857 0.07607142857142857 0.07607142857142857 0.07607142857142857 0.07607142857142857 0.07607142857142857 0.07607142857142857
0.07607142857142857 0.07607142857142857 0.07607142857142857 0.07607142857142857 0.07607142857142857 0.07607142857142857 0.07607142857142857 0.07607142857142857
0.07607142857142857 0.07607142857142857 0.07607142857142857 0.07607142857142857 0.07607142857142857 0.07607142857142857 0.07607142857142857 0.07607142857142857
0.07607142857142857 0.07607142857142857 0.07607142857142857 0.07607142857142857 0.07607142857142857 0.07607142857142857 0.07607142857142857 0.07607142857142857
0.07607142857142857 0.07607142857142857 0.07607142857142857 0.07607142857142857 0.07607142857142857 0.07607142857142857 0.07607142857142857 0.07607142857142857
0.07607142857142857 0.07607142857142857 0.07607142857142857 0.07607142857142857 0.07607142857142857 0.07607142857142857 0.07607142857142857 0.07607142857142857
0.07607142857142857 0.07607142857142857 0.07607142857142857 0.07607142857142857 0.07607142857142857 0.07607142857142857 0.07607142857142857 0.07607142857142857
0.07607142857142857 0.07607142857142857 0.07607142857142857 0.07607142857142857 0.07607142857142857 0.07607142857142857 0.07607142857142857 0.07607142857142857
0.07607142857142857 0.07607142857142857 0.07607142857142857 0.07607142857142857 0.07607142857142857 0.07607142857142857 0.07607142857142857 0.07607142857142857
0.07607142857142857 0.07607142857142857 0.07607142857142857 0.07607142857142857 0.07607142857142857 0.07607142857142857 0.07607142857142857 0.07607142857142857
0.07607142857142857 0.07607142857142857 0.07607142857142857 0.07607142857142857 0.07607142857142857 0.07607142857142857 0.07607142857142857 0.07607142857142857
0.07607142857142857 0.07607142857142857 0.07607142857142857 0.07607142857142857 0.07607142857142857 0.07607142857142857 0.07607142857142857 0.07607142857142857
0.07607142857142857 0.07607142857142857 0.07607142857142857 0.07607142857142857 0.07607142857142857 0.07607142857142857 0.07607142857142857 0.07607142857142857
0.07607142857142857 0.07607142857142857 0.07607142857142857 0.07607142857142857 0.07607142857142857 0.07607142857142857 0.07607142857142857 0.07607142857142857
0.07607142857142857 0.07607142857142857 0.07607142857142857 0.07607142857142857 0.07607142857142857 0.07607142857142857 0.07607142857142857 0.07607142857142857
0.07607142857142857 0.07607142857142857 0.07607142857142857 0.07607142857142857 0.07607142857142857 0.07607142857142857 0.07607142857142857 0.07607142857142857
0.07607142857142857 0.07607142857142857 0.07607142857142857 0.07607142857142857 0.07607142857142857 0.07607142857142857 0.07607142857142857 0.07607142857142857
0.07607142857142857 0.07607142857142857 0.07607142857142857 0.07607142857142857 0.07607142857142857 0.07607142857142857 0.07607142857142857 0.07607142857142857
0.07607142857142857 0.07607142857142857 0.07607142857142857 0.07607142857142857 0.07607142857142857 0.07607142857142857 0.07607142857142857 0.07607142857142857
0.07607142857142857 0.07607142857142857 0.07607142857142857 0.07607142857142857 0.07607142857142857 0.07607142857142857 0.07607142857142857 0.07607142857142857
0.07607142857142857 0.07607142857142857 0.07607142857142857 0.07607142857142857 0.07607142857142857 0.07607142857142857 0.07607142857142857 0.07607142857142857

zmax f8 []
00000000: 0000 0000 0000 1440
5.0

hz_F f8 [401]
00000000: ba82 b66e edca ac3f 0d84 34ae a2ca ac3f
00000010: b8e4 c253 57ca ac3f dd45 c42c 0bca ac3f
00000020: dfed be26 bec9 ac3f 3430 3739 70c9 ac3f
00000030: 52f7 c45e 21c9 ac3f f39f e892 d1c8 ac3f
00000040: 7a36 5cd1 80c8 ac3f a5cd db15 2fc8 ac3f
00000050: 8472 135c dcc7 ac3f c700 999f 88c7 ac3f
00000060: 68b2 e9db 33c7 ac3f c7c7 680c dec6 ac3f
00000070: feb4 5e2c 87c6 ac3f 6347 f836 2fc6 ac3f
00000080: aacd 4527 d6c5 ac3f 2b5b 3af8 7bc5 ac3f
00000090: 5ce4 aaa4 20c5 ac3f 2f5f 4d27 c4c4 ac3f
000000a0: 9de8 b77a 66c4 ac3f 53d0 5f99 07c4 ac3f
000000b0: 40a8 987d a7c3 ac3f 7a3f 9321 46c3 ac3f
000000c0: 46a2 5c7f e3c2 ac3f 840e dd90 7fc2 ac3f
000000d0: e6c3 d64f 1ac2 ac3f 540e e5b5 b3c1 ac3f
000000e0: 44dd 7abc 4bc1 ac3f d9b6 e15c e2c0 ac3f
000000f0: 886f 3890 77c0 ac3f 29c0 714f 0bc0 ac3f
00000100: 1f0d 5393 9dbf ac3f 42e1 7254 2ebf ac3f
00000110: 3185 378b bdbe ac3f 4983 d52f 4bbe ac3f
00000120: d204 4e3a d7bd ac3f 0633 6da2 61bd ac3f
00000130: d796 c85f eabc ac3f 8c47 bd69 71bc ac3f
00000140: 1d18 6eb7 f6bb ac3f c8bc c13f 7abb ac3f
00000150: d9c9 60f9 fbba ac3f e9af b3da 7bba ac3f
00000160: 559a e0d9 f9b9 ac3f 9932 c9ec 75b9 ac3f
00000170: d068 0809 f0b8 ac3f f3ef ef23 68b8 ac3f
00000180: 7fec 8532 deb7 ac3f d737 8229 52b7 ac3f
00000190: 05d6 4bfd c3b6 ac3f 6805 f6a1 33b6 ac3f
000001a0: 5c6d 3d0b a1b5 ac3f ee17 852c 0cb5 ac3f
000001b0: 5b31 d3f8 74b4 ac3f d9de cd62 dbb3 ac3f
000001c0: b4b5 b75c 3fb3 ac3f 0135 6cd8 a0b2 ac3f
000001d0: 0c09 5cc7 ffb1 ac3f 4029 891a 5cb1 ac3f
000001e0: 8dc7 82c2 b5b0 ac3f 6a16 61af 0cb0 ac3f
000001f0: 55e0 c0d0 60af ac3f a9de be15 b2ae ac3f
00000200: acff f26c 00ae ac3f d73a 6bc4 4bad ac3f
00000210: a574 a609 94ac ac3f afe3 8e29 d9ab ac3f
00000220: 9751 7410 1bab ac3f ce21 06aa 59aa ac3f
00000230: de06 4de1 94a9 ac3f 5d59 a4a0 cca8 ac3f
00000240: 2c3b b3d1 00a8 ac3f 8f6a 655d 31a7 ac3f
00000250: 4695 e32b 5ea6 ac3f 9d83 8b24 87a5 ac3f
00000260: 37ac e72d aca4 ac3f 158b a62d cda3 ac3f
00000270: 9f6f 9108 eaa2 ac3f deee 82a2 02a2 ac3f
00000280: c6bf 5cde 16a1 ac3f 451f fd9d 26a0 ac3f
00000290: 66bd 33c2 319f ac3f 9df1 b52a 389e ac3f
000002a0: 608f 12b6 399d ac3f f4cc a441 369c ac3f
000002b0: 83ca 86a9 2d9b ac3f 291d 83c8 1f9a ac3f
000002c0: 33c9 0578 0c99 ac3f 1e51 0c90 f397 ac3f
000002d0: 9ff9 14e7 d496 ac3f ef1b 0d52 b095 ac3f
000002e0: fb72 3ea4 8594 ac3f 7882 3baf 5493 ac3f
000002f0: 61bd ca42 1d92 ac3f 3aab d02c df90 ac3f
00000300: eda5 3839 9a8f ac3f fa5a dc31 4e8e ac3f
00000310: 09ed 69de fa8c ac3f 766d 4804 a08b ac3f
00000320: c3e6 7a66 3d8a ac3f 8190 81c5 d288 ac3f
00000330: 402f 39df 5f87 ac3f 3696 b86e e485 ac3f
00000340: 02f4 2b2c 6084 ac3f ffda adcc d282 ac3f
00000350: 5d0a 1e02 3c81 ac3f ce72 f57a 9b7f ac3f
00000360: b390 17e2 f07d ac3f decc a0de 3b7c ac3f
00000370: d79c b113 7c7a ac3f 2253 3620 b178 ac3f
00000380: 7d16 ab9e da76 ac3f 2f12 dc24 f874 ac3f
00000390: f639 a143 0973 ac3f 149b 9586 0d71 ac3f
000003a0: e28f c973 046f ac3f d7cc 6f8b ed6c ac3f
000003b0: 9a75 8447 c86a ac3f 9421 6e1b 9468 ac3f
000003c0: a110 9873 5066 ac3f cd20 05b5 fc63 ac3f
000003d0: 66da da3c 9861 ac3f b2f4 e35f 225f ac3f
000003e0: 799a 096a 9a5c ac3f 2895 c29d ff59 ac3f
000003f0: a0a9 7733 5157 ac3f 26f8 db58 8e54 ac3f
00000400: 898b 3830 b651 ac3f acda a9cf c74e ac3f
00000410: f6dc 4d40 c24b ac3f 8ba8 617d a448 ac3f
00000420: 56a0 4c73 6d45 ac3f c9dd 97fe 1b42 ac3f
00000430: acbc cfea ae3e ac3f 2aaf 4df1 243b ac3f
00000440: 34f0 e7b7 7c37 ac3f fa80 84cf b433 ac3f
00000450: eaf0 8cb2 cb2f ac3f d383 3fc3 bf2b ac3f
00000460: 2964 da49 8f27 ac3f 1a33 9d72 3823 ac3f
00000470: 767c 9c4b b91e ac3f 877c 62c2 0f1a ac3f
00000480: e9de 57a1 3915 ac3f ac95 ee8c 3410 ac3f
00000490: d23c 8800 fe0a ac3f 59ad 104b 9305 ac3f
000004a0: 078a 448b f1ff ab3f bc81 9aab 15fa ab3f
000004b0: 9f1c c55d fcf3 ab3f 675a c115 a2ed ab3f
000004c0: 6938 6504 03e7 ab3f d993 5f11 1be0 ab3f
000004d0: 6ffa 98d4 e5d8 ab3f 16fd e28e 5ed1 ab3f
000004e0: 8056 e121 80c9 ab3f 9b87 1507 45c1 ab3f
000004f0: f0ca f245 a7b8 ab3f d0c3 dc68 a0af ab3f
00000500: 9cc1 ef70 29a6 ab3f 2779 6dc8 3a9c ab3f
00000510: 5017 a433 cc91 ab3f fa02 21c0 d486 ab3f
00000520: b1bb fab1 4a7b ab3f e270 f76e 236f ab3f
00000530: 5f3a 4f67 5362 ab3f 5b3b c2fb cd54 ab3f
00000540: 44d7 b360 8546 ab3f ff4d f57d 6a37 ab3f
00000550: 24c9 e3ca 6c27 ab3f 9c87 7826 7a16 ab3f
00000560: d6bd e7aa 7e04 ab3f 4312 6b7c 64f1 aa3f
00000570: 0a88 dc92 13dd aa3f e1cf d67d 71c7 aa3f
00000580: d6f8 2e23 61b0 aa3f 1d19 cf77 c297 aa3f
00000590: 85e5 4b33 727d aa3f f6d1 0d7f 4961 aa3f
000005a0: c3b1 a5a2 1d43 aa3f 230a ffaf bf22 aa3f
000005b0: decb bf33 fcff a93f 2632 7af0 9ada a93f
000005c0: 734b abae 5eb2 a93f 9cf8 3730 0587 a93f
000005d0: b46a ac5c 4758 a93f 4692 7fc4 d925 a93f
000005e0: 43aa 90a5 6def a83f a64c 4daa b2b4 a83f
000005f0: 460d e1ae 5975 a83f b93c ebe9 1831 a83f
00000600: 380c 9fe1 b1e7 a73f 5319 f28b f998 a73f
00000610: 1767 83bc e244 a73f 7597 e868 8aeb a63f
00000620: 76c8 aa20 448d a63f be48 0d49 a32a a63f
00000630: ccd9 24ad 7bc4 a53f 6722 7711 d35b a53f
00000640: 0310 da8f bff1 a43f 823a 5eb1 2e92 a43f
00000650: 6299 3f6a 1c36 a43f d08c bf35 8ade a33f
00000660: 1816 2664 238c a33f 610b 81e9 403f a33f
00000670: a447 b46a f7f7 a23f 2b18 00fe 28b6 a23f
00000680: 9dc4 be0c 9679 a23f b4d5 d624 eb41 a23f
00000690: 0413 de39 cb0e a23f d616 8db5 d6df a13f
000006a0: 9e40 bc04 b0b4 a13f f977 3e4f fe8c a13f
000006b0: c4a5 d1eb 6e68 a13f 4dea 17fe b546 a13f
000006c0: 4d35 2d8d 8e27 a13f 1963 d448 ba0a a13f
000006d0: 9202 3321 01f0 a03f 600e 6bc8 30d7 a03f
000006e0: db60 bd2c 1cc0 a03f 67c2 19f4 9aaa a03f
000006f0: 6fab 37fe 8896 a03f 41e6 e2ef c583 a03f
00000700: eb1d 9ec8 3472 a03f abc7 cc82 bb61 a03f
00000710: 85b9 08be 4252 a03f 279e fa72 b543 a03f
00000720: c88c e7af 0036 a03f a987 1a5d 1329 a03f
00000730: b5a3 5308 de1c a03f e150 72b6 5211 a03f
00000740: f42b a0ba 6406 a03f 3a8d a624 11f8 9f3f
00000750: b2c1 218b 67e4 9f3f 6dea d495 b9d1 9f3f
00000760: dfe9 7ddd f5bf 9f3f b50c b17a 0caf 9f3f
00000770: a5e5 17df ee9e 9f3f db40 15b3 8f8f 9f3f
00000780: 8da3 43b7 e280 9f3f 5e16 56a9 dc72 9f3f
00000790: 02ff f12b 7365 9f3f ad9b 26b1 9c58 9f3f
000007a0: a15f 3267 504c 9f3f 9154 5027 8640 9f3f
000007b0: 37fd 5066 3635 9f3f cd63 c926 5a2a 9f3f
000007c0: 67de a9ec ea1f 9f3f 75e9 13b2 e215 9f3f
000007d0: 9643 4bdd 3b0c 9f3f 7d02 a337 f102 9f3f
000007e0: c71b 4be5 fdf9 9e3f 68e9 e55d 5df1 9e3f
000007f0: c987 d065 0be9 9e3f e30b 0b08 04e1 9e3f
0.05623571373440002 0.056233485951686736 0.05623124024845921 0.05622897073238751 0.05622667525264168 0.056224352821658746 0.056222002810030106 0.05621962469405153
0.05621721797625141 0.05621478216007895 0.05621231674169727 0.05620982120717737 0.05620729503138905 0.05620473767739003 0.05620214859605176 0.05619952722567125
0.05619687299158767 0.05619418530584704 0.05619146356679813 0.056188707158695166 0.05618591545130978 0.05618308779949701 0.05618022354276819 0.05617732200482713
0.05617438249311539 0.05617140429833703 0.05616838669391892 0.05616532893557449 0.056162230260663054 0.056159089887712184 0.05615590701583445 0.056152680824084485
0.056149410470903265 0.056146095093426954 0.05614273380684621 0.0561393257037311 0.056135869853287126 0.05613236530061809 0.05612881106598671 0.056125206143987943
0.05612154950272006 0.056117840082941906 0.056114076797161246 0.0561102585287186 0.05610638413081818 0.05610245242551066 0.056098462202685107 0.05609441221892544
0.05609030119645641 0.05608612782189908 0.05608189074511575 0.05607758857787354 0.05607321989256306 0.05606878322082297 0.05606427705206115 0.05605969983201726
0.05605504996115532 0.056050325793060914 0.05604552563274198 0.05604064773486295 0.056035690301896236 0.05603065148220028 0.056025529368014894 0.05602032199334179
0.05601502733179528 0.05600964329425089 0.05600416772652154 0.055998598406808646 0.05599293304308899 0.05598716927039825 0.055981304647969785 0.05597533665620589
0.05596926269355715 0.055963080073259446 0.05595678601984359 0.05595037766557385 0.05594385204661772 0.05593720609910783 0.05593043665496044 0.05592354043753088
0.05591651405700264 0.055909354005562885 0.055902056652366736 0.05589461823817319 0.05588703486981106 0.05587930251422249 0.05587141699233646 0.055863373972494586
0.05585516896361966 0.055846797307966364 0.0558382541735114 0.05582953454591421 0.055820633220013925 0.05581154479091749 0.05580226364451835 0.055792783947558225
0.055783099637050394 0.055773204409140534 0.0557630917073429 0.05575275471002332 0.05574218631723007 0.055731379136688915 0.05572032546896688 0.055709017291786386
0.05569744624333596 0.055685603604549876 0.055673480280365985 0.05566106677972514 0.055648353194358256 0.05563532917622081 0.055621983913448574 0.05560830610480695
0.05559428393239061 0.05557990503260545 0.055565156465139084 0.055550024679908244 0.055534495481680116 0.05551855399235144 0.05550218461051344 0.055485370968258924
0.05546809588489166 0.0554503413173407 0.055432088306976365 0.05541331692254782 0.05539400619891394 0.05537413407118158 0.055353677303929816 0.055332611414982844
0.055310910593354974 0.05528854761080501 0.05526549372637561 0.055241718583446696 0.05521719009840413 0.05519187434031953 0.05516573540068612 0.05513873525236897
0.05511083359667204 0.05508198769735091 0.055052152200433316 0.055021278938290806 0.054989316716451526 0.05495621108148026 0.054921904067890034 0.054886333922007195
0.05484943480035815 0.054811136439904956 0.05477136379715265 0.05473003665278026 0.054687069178061924 0.05464236945886422 0.05459583897259645 0.05454737201278164
0.05449685505537689 0.05444416606022857 0.054389173700191466 0.054331736509533865 0.054271701942224304 0.05420890532947383 0.0541431687246553 0.0540742996221365
0.054002089534949976 0.05392631241442052 0.05384672289259973 0.05376305432628743 0.05367501661873265 0.053582293792460836 0.053484541283627555 0.05338138292528668
0.05327240758371812 0.053157165408858724 0.053035163657016576 0.0529058620416116 0.052768667566734415 0.05262292879846033 0.052467929532454674 0.05230288182374899
0.05212691835866827 0.05193908417236257 0.05173832775285362 0.051523491630096105 0.05129330263557421 0.05104636214629845 0.05078113681511075 0.0504959505607057
0.05018897897902876 0.04985824788671886 0.04950163847225522 0.049116902577030205 0.048701693020423174 0.04825361565476642 0.047770311925456485 0.04724958281951203
0.04668956641355532 0.046088980038848114 0.04544743109882015 0.04476578264829715 0.04404652498978205 0.04329405085322112 0.04251467217038715 0.04171619022560407
0.040906893072161686 0.04017778315675448 0.039475334138660015 0.038807219563545936 0.0381785449745104 0.03759196138755417 0.03704808404485441 0.03654602146711768
0.03608387857037452 0.03565916847893949 0.03526911813154324 0.03491087881279291 0.03458166177563381 0.03427881924947935 0.03399988773964993 0.03374260641790681
0.03350491975161649 0.033284970655762254 0.03308108835472469 0.032891773667441226 0.032715683423420315 0.03255161504501274 0.0323984918903396 0.03225534966754796
0.03212132405229425 0.03199563953093273 0.03187759942771876 0.031766577039260384 0.031662007782665536 0.03156338225859596 0.031470240131802475 0.03138216473704048
0.03129877832551378 0.031219737874960553 0.0311447313947057 0.031073474664689394 0.031005708354749358 0.03094119547700976 0.03087971913007483 0.03082108049903885
0.030765097079811055 0.030711601100412593 0.030660438115318385 0.03061146575205569 0.0305645525919257 0.030519577168963755 0.0304764270733788 0.03043499814734556
0.030395193762585395 0.03035692417049903 0.030320105916704053 0.030284661312864437 0.030250517959554715 0.030217608314594996 0.030185869302051836 0.030155241957583356

Vz_F f8 [401]
00000000: 004d 08df 5697 e93f 4056 7396 0e97 e93f
00000010: 8010 04b9 c596 e93f c0fd c815 7c96 e93f
00000020: c093 e49a 3196 e93f 80dc 2240 e695 e93f
00000030: 0077 4900 9a95 e93f 80c7 fed6 4c95 e93f
00000040: 40fa 20c0 fe94 e93f c030 90b7 af94 e93f
00000050: 400e 1db9 5f94 e93f 40c0 82c0 0e94 e93f
00000060: c0a2 64c9 bc93 e93f c0f3 4ccf 6993 e93f
00000070: 8007 accd 1593 e93f 4075 d7bf c092 e93f
00000080: 8046 09a1 6a92 e93f 8040 5f6c 1392 e93f
00000090: 4008 da1c bb91 e93f 404a 5cad 6191 e93f
000000a0: 40e7 a918 0791 e93f 0008 6759 ab90 e93f
000000b0: c034 176a 4e90 e93f c058 1c45 f08f e93f
000000c0: c0ca b5e4 908f e93f 404a ff42 308f e93f
000000d0: c0d9 ef59 ce8e e93f 40d1 5823 6b8e e93f
000000e0: 8081 e498 068e e93f 0030 15b4 a08d e93f
000000f0: 80d9 436e 398d e93f 00d4 9ec0 d08c e93f
00000100: 40a0 28a4 668c e93f 8071 b611 fb8b e93f
00000110: c0d0 ee01 8e8b e93f 402d 486d 1f8b e93f
00000120: 8047 074c af8a e93f 00a0 3d96 3d8a e93f
00000130: c0e4 c743 ca89 e93f 402f 4c4c 5589 e93f
00000140: 4041 38a7 de88 e93f 00ba bf4b 6688 e93f
00000150: 0026 da30 ec87 e93f 400c 414d 7087 e93f
00000160: c0de 6d97 f286 e93f c0d0 9705 7386 e93f
00000170: 00b2 b18d f185 e93f 4080 6725 6e85 e93f
00000180: 8029 1cc2 e884 e93f 80e6 e658 6184 e93f
00000190: 00c6 90de d783 e93f 40d5 9147 4c83 e93f
000001a0: 8066 0e88 be82 e93f 4024 d493 2e82 e93f
000001b0: 40ec 565e 9c81 e93f 00c1 adda 0781 e93f
000001c0: c05e 8ffb 7080 e93f 00d3 4eb3 d77f e93f
000001d0: 80df d7f3 3b7f e93f 0039 abae 9d7e e93f
000001e0: 0099 dad4 fc7d e93f 80a7 0457 597d e93f
000001f0: c0b7 5025 b37c e93f 8046 6a2f 0a7c e93f
00000200: 0068 7c64 5e7b e93f 00c8 2cb3 af7a e93f
00000210: c0b8 9609 fe79 e93f 80c7 4555 4979 e93f
00000220: 002e 3083 9178 e93f c00b b17f d677 e93f
00000230: 8050 8236 1877 e93f 804b b692 5676 e93f
00000240: c008 b17e 9175 e93f c060 21e4 c874 e93f
00000250: 808c f9ab fc73 e93f c092 67be 2c73 e93f
00000260: 0023 cd02 5972 e93f c035 b75f 8171 e93f
00000270: 4028 d5ba a570 e93f 807f eff8 c56f e93f
00000280: 401a defd e16e e93f c0ee 7dac f96d e93f
00000290: 8055 a6e6 0c6d e93f 40a1 1d8d 1b6c e93f
000002a0: 805a 8d7f 256b e93f 0095 759c 2a6a e93f
000002b0: c0e8 1fc1 2a69 e93f 4077 91c9 2568 e93f
000002c0: c064 7c90 1b67 e93f 006e 30ef 0b66 e93f
000002d0: c0b9 8abd f664 e93f 80c0 e4d1 db63 e93f
000002e0: c037 0201 bb62 e93f c01e fe1d 9461 e93f
000002f0: 4095 36fa 6660 e93f 80b9 3765 335f e93f
00000300: c02a a52c f95d e93f 8059 221c b85c e93f
00000310: c083 39fd 6f5b e93f 4017 4197 205a e93f
00000320: c0b0 3faf c958 e93f 4054 ce07 6b57 e93f
00000330: c0e0 f860 0456 e93f 80b5 1c78 9554 e93f
00000340: 0035 c507 1e53 e93f c016 86c7 9d51 e93f
00000350: c08c d36b 1450 e93f 00bc d7a5 814e e93f
00000360: 00a1 4523 e54c e93f 0014 298e 3e4b e93f
00000370: 40a8 b38c 8d49 e93f 4057 06c1 d147 e93f
00000380: 8073 f7c8 0a46 e93f 40f4 d43d 3844 e93f
00000390: 407a 22b4 5942 e93f 4007 53bb 6e40 e93f
000003a0: 40c3 7ddd 763e e93f c0c6 0d9f 713c e93f
000003b0: 801f 6c7e 5e3a e93f 00f8 a3f3 3c38 e93f
000003c0: c028 0070 0c36 e93f c0c7 a15d cc33 e93f
000003d0: 4011 0f1f 7c31 e93f 4011 ba0e 1b2f e93f
000003e0: 005b 7e7e a82c e93f 80fc 14b7 232a e93f
000003f0: 00ff 7df7 8b27 e93f 0050 5e74 e024 e93f
00000400: c045 5157 2022 e93f 008d 2cbe 4a1f e93f
00000410: 002c 35ba 5e1c e93f 809a 444f 5b19 e93f
00000420: 6005 dc72 3f16 e93f 2075 240b 0a13 e93f
00000430: 40cf d9ed b90f e93f 60e8 1edf 4d0c e93f
00000440: a051 3890 c408 e93f c063 2b9e 1c05 e93f
00000450: a01c 3f90 5401 e93f a07f 5bd6 6afd e83f
00000460: 0043 44c7 5df9 e83f 003b ab9e 2bf5 e83f
00000470: a02e 167b d2f0 e83f c0aa 935b 50ec e83f
00000480: e0a7 391d a3e7 e83f 8053 6878 c8e2 e83f
00000490: 80a8 cafd bddd e83f 00b8 0d13 81d8 e83f
000004a0: 40b2 46ef 0ed3 e83f c0b9 fe96 64cd e83f
000004b0: c0ab dad7 7ec7 e83f a087 d343 5ac1 e83f
000004c0: e0f8 f22b f3ba e83f 20f3 859a 45b4 e83f
000004d0: 407d b54c 4dad e83f 00db 73ab 05a6 e83f
000004e0: c015 aac3 699e e83f 004c 8f3d 7496 e83f
000004f0: 6085 1053 1f8e e83f 606a 2cc5 6485 e83f
00000500: 60d0 22d0 3d7c e83f c035 541e a372 e83f
00000510: 2075 a8b9 8c68 e83f 8090 4ffb f15d e83f
00000520: e0bd a979 c952 e83f 003f 1ef4 0847 e83f
00000530: 2013 a23c a53a e83f 402a a91e 922d e83f
00000540: c0db 3543 c21f e83f 20ca b311 2711 e83f
00000550: e046 458d b001 e83f a01a 252e 4df1 e73f
00000560: 2090 bcb6 e9df e73f 80ef 0d04 71cd e73f
00000570: 803e 1bd9 cbb9 e73f 00b8 00a5 e0a4 e73f
00000580: a068 9843 938e e73f 8048 aeb8 c476 e73f
00000590: 20d0 1be6 525d e73f c07b 9c3d 1842 e73f
000005a0: 40bb e56f eb24 e73f 20b6 9d1b 9f05 e73f
000005b0: 6026 5c80 01e4 e63f c0de 213c dcbf e63f
000005c0: 4026 ed1c f498 e63f 407c a014 096f e63f
000005d0: e007 cc63 d641 e63f 2060 9b18 1311 e63f
000005e0: a0ff b80a 73dc e53f 2051 b08b a8a3 e53f
000005f0: 8017 b214 6766 e53f 8085 214c 6724 e53f
00000600: 4087 57c8 6cdd e43f 8035 20eb 4d91 e43f
00000610: 806e 77f7 fd3f e43f 8019 23ee 98e9 e33f
00000620: a01e 489c 6f8e e33f c09b 2289 102f e33f
00000630: 600f 5b81 48cc e23f 40cc 93a4 1467 e23f
00000640: 8020 acdd 8100 e23f e034 3ce0 18a4 e13f
00000650: 2072 9def 104b e13f 80c8 6906 63f6 e03f
00000660: 2047 b0cc b4a6 e03f 8028 8446 5c5c e03f
00000670: 00c1 446a 6d17 e03f 0058 2496 96af df3f
00000680: 80d5 a8d7 703a df3f 80c8 ba37 c8ce de3f
00000690: 80e2 b7c2 e86b de3f 00e7 2e9c 1911 de3f
000006a0: 80cc e8cb a5bd dd3f c042 a97f e170 dd3f
000006b0: 802a 7fda 2c2a dd3f 801b 4826 f5e8 dc3f
000006c0: 80bd 5dff b4ac dc3f 408f d2e2 f374 dc3f
000006d0: 004f cc64 4541 dc3f 007f 103c 4811 dc3f
000006e0: c099 203f a5e4 db3f c055 1964 0ebb db3f
000006f0: c0d7 34cd 3d94 db3f 400d 19e7 f46f db3f
00000700: c021 239b fb4d db3f 00a6 0f96 1f2e db3f
00000710: 801c 4ea2 3310 db3f c071 b914 0ff4 da3f
00000720: c083 274a 8dd9 da3f 0097 2b34 8dc0 da3f
00000730: 4064 6df3 f0a8 da3f 800e 0d7e 9d92 da3f
00000740: 4025 ab50 7a7d da3f 80b7 cd28 7169 da3f
00000750: c066 7ec7 6d56 da3f c018 1ebb 5d44 da3f
00000760: 40cf 892f 3033 da3f c023 c8c3 d522 da3f
00000770: 00c1 8f64 4013 da3f 00cd 0d2b 6304 da3f
00000780: 404b 663f 32f6 d93f 802e 7abe a2e8 d93f
00000790: 0058 8da2 aadb d93f c01b 74ae 40cf d93f
000007a0: 402b fb5a 5cc3 d93f 0059 46c6 f5b7 d93f
000007b0: c0b0 eba4 05ad d93f 0052 9734 85a2 d93f
000007c0: 801f 0b30 6e98 d93f 80fb 52c4 ba8e d93f
000007d0: c0ea 0a87 6585 d93f 80de 986d 697c d93f
000007e0: 0089 3fc5 c173 d93f 0093 f22b 6a6b d93f
000007f0: 00c3 d789 5e63 d93f 40b5 620b 9b5b d93f
0.7997240406133699 0.7996895731436737 0.7996548284140914 0.7996197152605689 0.7995842004062226 0.7995482685718258 0.7995119100193904 0.7994751166463487
0.7994378807559954 0.7994001946658713 0.7993620505807897 0.7993234405494221 0.7992843564471386 0.7992447899665578 0.7992047326117557 0.7991641756922618
0.7991231103171259 0.7990815273897311 0.7990394176015414 0.7989967714259549 0.7989535791123004 0.798909830679122 0.7988655159075719 0.7988206243342333
0.7987751452440861 0.7987290676631531 0.7986823803501508 0.7986350717897395 0.7985871301826108 0.7985385434380987 0.7984892991651549 0.7984393846624016
0.7983887869095341 0.7983374925566267 0.7982854879142209 0.7982327589428806 0.7981792912416807 0.7981250700368037 0.7980700801700991 0.7980143060862943
0.7979577318201692 0.7979003409835173 0.7978421167510419 0.7977830418461807 0.797723098526113 0.7976622685660217 0.7976005332434966 0.7975378733208416
0.7974742690287684 0.7974097000471403 0.7973441454871022 0.7972775838704038 0.7972099931095755 0.7971413504866476 0.7970716326302707 0.797000815493476
0.7969288743288061 0.7968557836635171 0.7967815172732884 0.7967060481549026 0.7966293484976461 0.7965513896535725 0.796472142106488 0.7963915754391593
0.7963096583000606 0.7962263583669937 0.7961416423111345 0.7960554757575977 0.7959678232450074 0.7958786481834679 0.7957879128102974 0.7956955781431674
0.7956016039318214 0.795505948607591 0.7954085692293944 0.7953094214286338 0.7952084593499364 0.7951056355902253 0.7950009011340242 0.7948942052862407
0.7947854956008271 0.7946747178061386 0.7945618157270218 0.7944467312018233 0.7943294039967697 0.7942097717138097 0.7940877696958282 0.7939633309249317
0.7938363859167552 0.7937068626083033 0.7935746862402127 0.7934397792323722 0.7933020610523656 0.7931614480775906 0.7930178534485677 0.7928711869151783
0.7927213546730272 0.7925682591910999 0.7924117990297574 0.7922518686470781 0.7920883581951088 0.7919211533031856 0.7917501348483924 0.7915751787128755
0.7913961555256321 0.7912129303883475 0.7910253625854224 0.790833305274532 0.7906366051584257 0.7904351021358025 0.7902286289293059 0.7900170106902138
0.7898000645760561 0.7895775993016585 0.789349414659064 0.7891153010061558 0.78887503871929 0.788628397609692 0.7883751362978586 0.7881150015452931
0.7878477275383133 0.7875730351208787 0.7872906309717465 0.787000206721622 0.786701438005224 0.786393983442295 0.7860774835425843 0.7857515595264886
0.7854158120555255 0.785069819863935 0.7847131382817452 0.7843452976420195 0.7839658015583773 0.783574125063442 0.7831697125934411 0.7827519758059331
0.7823202912136829 0.7818739976165645 0.7814123933138895 0.7809347330730709 0.780440224831267 0.779928026104102 0.7793972400699722 0.7788469112977836
0.7782760210804973 0.7776834823331313 0.7770681340091556 0.7764287349834831 0.7757639573442887 0.7750723790284653 0.7743524757291809 0.773602611993045
0.77282103141604 0.7720058458358814 0.7711550234052211 0.770266375416071 0.7693375417299464 0.7683659746493277 0.7673489210466578 0.7662834025425802
0.7651661935001464 0.7639937965738497 0.7627624155171908 0.761467924920467 0.7601058365088953 0.7586712615902513 0.7571588691940612 0.7555628393977898
0.7538768112852878 0.7520938249347786 0.7502062567893653 0.7482057477253257 0.7460831231187548 0.743828304213352 0.7414302101478398 0.7388766501151167
0.7361542053434 0.7332481009527925 0.7301420683202231 0.7268181994767176 0.7232567964073056 0.719436220109575 0.7153327471762161 0.7109204458674512
0.7061710896461548 0.7010541346425114 0.6955367993507444 0.6895843010524949 0.6831603249956864 0.6762278297706281 0.6687503246509863 0.6606937872822272
0.6520294106414681 0.6427373497296429 0.6328115304308568 0.6222653056254757 0.6111372043969432 0.5994951895162259 0.587436916969164 0.5750830854798394
0.5625619248903746 0.5512813930123706 0.5404133491497909 0.5300765156992071 0.520349883825677 0.5112744691152926 0.5028597903783805 0.4950920549612192
0.4879419427919274 0.48137097780557525 0.4753362561746499 0.4697937035776789 0.4647001735022016 0.4600147005740318 0.455699170470929 0.451718604454463
0.4480412000475198 0.4446382250846348 0.4414838299137358 0.43855481973331223 0.4358304134824742 0.43329200530328293 0.4309229377716939 0.4287082917037033
0.42663469457741243 0.424690147918767 0.4228638730059586 0.4211461737047806 0.4195283149875273 0.41800241560700613 0.41656135341833433 0.41519868192356313
0.4139085567263301 0.4126856707069848 0.4115251968556599 0.410422737819669 0.4093742813340562 0.4083761608058545 0.4074250204130436 0.4065177841614087
0.4056516284119205 0.40482395745559785 0.4040323817656599 0.4032746986053404 0.40254887471080636 0.40185303080342294 0.40118542771848453 0.4005444539627945
0.39992861453765016 0.3993365208843258 0.3987668818260026 0.398218495396101 0.39769024145620335 0.39718107501748534 0.39669002019131483 0.3962161647021567
