onecap_model_with_structure_ambiguity/output/lower_triangular_two_ambiguous_parameters/Delta_10.0_distorted_0/logadjustment_1_boundary_0/zmax_5.0_zscale_2.0/delta_0.02/q_0.2_gamma_4.0_rho_1.0/model.npz (npz, 126264 bytes, 58 tensors)

clowerlim f8 []
0.0001
00000000: 2d43 1ceb e236 1a3f

zmin f8 []
-5.0
00000000: 0000 0000 0000 14c0

Delta f8 []
10.0
00000000: 0000 0000 0000 2440

s1_F f8 [401]
-1.8831231420978545 -1.8737076773544565 -1.864292212410267 -1.8548767479421617 -1.8454612843062599 -1.8360458216951423 -1.8266303602197569 -1.81721489994892
-1.8077994409310665 -1.7983839832040815 -1.7889685268009916 -1.7795530717522525 -1.7701376180882025 -1.7607221658386891 -1.751306715034459 -1.741891265706104
-1.732475817885715 -1.7230603716058177 -1.7136449268998888 -1.7042294838025143 -1.6948140423486768 -1.6853986025753476 -1.675983164519768 -1.6665677282203883
-1.657152293717212 -1.6477368610508845 -1.638321430263603 -1.6289060013985888 -1.6194905745003179 -1.610075149615176 -1.6006597267904614 -1.5912443060748434
-1.5818288875188995 -1.5724134711741902 -1.562998057094623 -1.5535826453352493 -1.544167235953056 -1.5347518290070254 -1.5253364245575742 -1.5159210226675466
-1.506505623401729 -1.4970902268266193 -1.4876748330116252 -1.4782594420279138 -1.4688440539493084 -1.4594286688519413 -1.4500132868147304 -1.44059790791921
-1.4311825322497458 -1.4217671598937038 -1.412351790941235 -1.4029364254861831 -1.3935210636253434 -1.3841057054590253 -1.3746903510912625 -1.3652750006298422
-1.3558596541866825 -1.3464443118775913 -1.3370289738227377 -1.327613640147177 -1.3181983109801454 -1.3087829864561265 -1.2993676667148095 -1.2899523519012268
-1.2805370421663524 -1.2711217376666633 -1.2617064385652086 -1.2522911450315881 -1.2428758572420735 -1.2334605753803203 -1.2240452996377074 -1.2146300302130273
-1.2052147673139746 -1.1957995111567667 -1.1863842619669391 -1.1769690199797245 -1.1675537854405382 -1.1581385586056943 -1.148723339742676 -1.139308129131114
-1.1298929270629283 -1.1204777338436958 -1.1110625497928128 -1.1016473752444307 -1.0922322105486506 -1.082817056071724 -1.073401912197753 -1.0639867793289202
-1.0545716578873687 -1.0451565483157252 -1.0357414510786955 -1.0263263666642946 -1.0169112955851891 -1.0074962383800834 -0.9980811956158812 -0.9886661678887673
-0.9792511558264584 -0.9698361600901412 -0.9604211813765634 -0.9510062204203309 -0.94159127799648 -0.9321763549232815 -0.9227614520647037 -0.9133465703339703
-0.9039317106966385 -0.8945168741745438 -0.8851020618491567 -0.8756872748665075 -0.8662725144411904 -0.8568577818616792 -0.8474430784955639 -0.8380284057954375
-0.8286137653051263 -0.819199158666753 -0.8097845876280731 -0.8003700540506729 -0.7909555599188538 -0.781541107349122 -0.7721266986010862 -0.7627123360888006
-0.7532980223930765 -0.7438837602756461 -0.7344695526942333 -0.7250554028187948 -0.7156413140499067 -0.706227290038603 -0.6968133347082002 -0.6873994522786855
-0.6779856472928255 -0.6685719246457387 -0.6591582896171313 -0.6497447479069743 -0.6403313056748834 -0.6309179695840658 -0.6215047468494983 -0.6120916452919378
-0.6026786733974506 -0.593265840383894 -0.5838531562749494 -0.5744406319823415 -0.5650282793979161 -0.5556161114963681 -0.5462041424499386 -0.5367923877572098
-0.5273808643870822 -0.5179695909404486 -0.5085585878320205 -0.4991478774943087 -0.4897374846077514 -0.48032743635975644 -0.47091776273686464 -0.4615084968550324
-0.4520996753324802 -0.44269133871178623 -0.43328353193786734 -0.4238763048993986 -0.4144697130431397 -0.4050638180708309 -0.39565868873054055 -0.3862544017156586
-0.37685104268615377 -0.3674487074290359 -0.35804750317697764 -0.34864755010562665 -0.33924898303310086 -0.3298519533466253 -0.3204566311832805 -0.3110632078934481
-0.30167189881536244 -0.2922829463885893 -0.2828966236305105 -0.27351323799290195 -0.2641331356033366 -0.25475670587615473 -0.24538438644549934 -0.2360166683253486
-0.22665410112910211 -0.21729729807481815 -0.2079469403472631 -0.19860378016147817 -0.18926864154607087 -0.1799424173915039 -0.17062606062548455 -0.1613205663879662
-0.1520269406398184 -0.14274614853643688 -0.13347903279939688 -0.12422618770695469 -0.11498776736649488 -0.10576319625979881 -0.09655073334367639 -0.08734681417397853
-0.07814505119851352 -0.06893469652224588 -0.059698236375772415 -0.050407534688124575 -0.04101744852497157 -0.0314548070060274 -0.02159834309228129 -0.011239598055924177
-0.0 -0.02489622911493694 -0.050826905160833366 -0.07767614409339743 -0.10532734369626554 -0.1336705410015508 -0.16260624927187312 -0.19204690131439128
-0.22191682597228274 -0.2521514232665993 -0.2826959731657653 -0.31350434049642406 -0.3445377214568226 -0.375763503163007 -0.4071542636311346 -0.4386869150829854
-0.4703419809814764 -0.5021029918015966 -0.5339559830870482 -0.5658890799448171 -0.5978921536818362 -0.6299565381718257 -0.6620747954306021 -0.6942405216172839
-0.7264481862034662 -0.7586929983512002 -0.7909707956266147 -0.8232779510713262 -0.8556112953905683 -0.8879680516130585 -0.9203457800650142 -0.9527423318969109
-0.9851558097182156 -1.017584534158258 -1.0500270153789 -1.0824819287391343 -1.1149480939477612 -1.1474244571572705 -1.179910075542496 -1.2124041039851852
-1.2449057835482134 -1.277414431474495 -1.3099294324874797 -1.3424502312074629 -1.3749763255242031 -1.4075072607936776 -1.4400426247453835 -1.4725820430032273
-1.5051251751390136 -1.5376717111877758 -1.570221368565472 -1.6027738893371284 -1.635329037791387 -1.6678865982835251 -1.7004463733137332 -1.7330081818117875
00000000: af6a 5abb 4521 febf 3006 c8e6 b4fa fdbf
00000010: 54d5 2712 24d4 fdbf d55b a83d 93ad fdbf
00000020: 9d12 6269 0287 fdbf 9735 6295 7160 fdbf
00000030: 9464 b0c1 e039 fdbf 355a 51ee 4f13 fdbf
00000040: 8e6a 481b bfec fcbf 1a30 9848 2ec6 fcbf
00000050: dbef 4276 9d9f fcbf 9ac1 4aa4 0c79 fcbf
00000060: 0ebb b1d2 7b52 fcbf 4de9 7901 eb2b fcbf
00000070: 3d69 a530 5a05 fcbf 0c55 3660 c9de fbbf
00000080: 45e1 2e90 38b8 fbbf 1d4a 91c0 a791 fbbf
00000090: 80dc 5ff1 166b fbbf e0f8 9c22 8644 fbbf
000000a0: a906 4b54 f51d fbbf 4290 6c86 64f7 fabf
000000b0: d424 04b9 d3d0 fabf cb68 14ec 42aa fabf
000000c0: e71b a01f b283 fabf 3209 aa53 215d fabf
000000d0: 0517 3588 9036 fabf b93d 44bd ff0f fabf
000000e0: be8b daf2 6ee9 f9bf 1a31 fb28 dec2 f9bf
000000f0: e26d a95f 4d9c f9bf 489a e896 bc75 f9bf
00000100: 1230 bcce 2b4f f9bf 4fba 2707 9b28 f9bf
00000110: 59ed 2e40 0a02 f9bf aa91 d579 79db f8bf
00000120: c891 1fb4 e8b4 f8bf 53fb 10ef 578e f8bf
00000130: 28f5 ad2a c767 f8bf d8d0 fa66 3641 f8bf
00000140: 2002 fca3 a51a f8bf d61a b6e1 14f4 f7bf
00000150: 04e0 2d20 84cd f7bf a635 685f f3a6 f7bf
00000160: 722e 6a9f 6280 f7bf be05 39e0 d159 f7bf
00000170: e027 da21 4133 f7bf 362f 5364 b00c f7bf
00000180: eee7 a9a7 1fe6 f6bf fd52 e4eb 8ebf f6bf
00000190: 57a2 0831 fe98 f6bf e648 1d77 6d72 f6bf
000001a0: 82ed 28be dc4b f6bf d474 3206 4c25 f6bf
000001b0: 0a05 414f bbfe f5bf 5b06 5c99 2ad8 f5bf
000001c0: a929 8be4 99b1 f5bf 4464 d630 098b f5bf
000001d0: 36f8 457e 7864 f5bf 7e7d e2cc e73d f5bf
000001e0: a8d5 b41c 5717 f5bf 903e c66d c6f0 f4bf
000001f0: a751 20c0 35ca f4bf 5c06 cd13 a5a3 f4bf
00000200: a6bc d668 147d f4bf 4a35 48bf 8356 f4bf
00000210: ada4 2c17 f32f f4bf 70b2 8f70 6209 f4bf
00000220: 947b 7dcb d1e2 f3bf 009f 0228 41bc f3bf
00000230: 7a43 2c86 b095 f3bf 3412 08e6 1f6f f3bf
00000240: fb50 a447 8f48 f3bf 8cdb 0fab fe21 f3bf
00000250: 9031 5a10 6efb f2bf 497d 9377 ddd4 f2bf
00000260: 1c9c cce0 4cae f2bf 282b 174c bc87 f2bf
00000270: 0b8c 85b9 2b61 f2bf 16f6 2a29 9b3a f2bf
00000280: cb78 1b9b 0a14 f2bf ee13 6c0f 7aed f1bf
00000290: 61ba 3286 e9c6 f1bf 9762 86ff 58a0 f1bf
000002a0: 9c1b 7f7b c879 f1bf 9a10 36fa 3753 f1bf
000002b0: c2a6 c57b a72c f1bf 5b81 4900 1706 f1bf
000002c0: d0a2 de87 86df f0bf e675 a312 f6b8 f0bf
000002d0: cee9 b7a0 6592 f0bf c887 3d32 d56b f0bf
000002e0: c28a 57c7 4445 f0bf b8f7 2a60 b41e f0bf
000002f0: 7b87 bdf9 47f0 efbf 09ce 373b 27a3 efbf
00000300: eb08 1b85 0656 efbf 9117 c2d7 e508 efbf
00000310: 9dbc 8c33 c5bb eebf b4ee df98 a46e eebf
00000320: 0133 2608 8421 eebf dcff cf81 63d4 edbf
00000330: 7313 5406 4387 edbf faf0 2f96 223a edbf
00000340: f84c e831 02ed ecbf 1198 09da e19f ecbf
00000350: 2075 288f c152 ecbf 8166 e251 a105 ecbf
00000360: ef5a de22 81b8 ebbf 9068 cd02 616b ebbf
00000370: 2f85 6bf2 401e ebbf 5e55 80f2 20d1 eabf
00000380: ad07 e003 0184 eabf 294d 6c27 e136 eabf
00000390: 825b 155e c1e9 e9bf 740d dba8 a19c e9bf
000003a0: 681b ce08 824f e9bf 4d69 117f 6202 e9bf
000003b0: 0e86 db0c 43b5 e8bf a63a 78b3 2368 e8bf
000003c0: 4e3b 4a74 041b e8bf d619 cd50 e5cd e7bf
000003d0: e857 974a c680 e7bf 72a2 5c63 a733 e7bf
000003e0: 9858 f09c 88e6 e6bf af45 48f9 6999 e6bf
000003f0: 26a1 7f7a 4b4c e6bf 9668 da22 2dff e5bf
00000400: 63f6 c8f4 0eb2 e5bf 3812 ecf2 f064 e5bf
00000410: 3c5f 1920 d317 e5bf 5543 607f b5ca e4bf
00000420: b850 0f14 987d e4bf 2950 bae1 7a30 e4bf
00000430: 16e0 40ec 5de3 e3bf eae0 d537 4196 e3bf
00000440: 8fa3 07c9 2449 e3bf 8a0c c9a4 08fc e2bf
00000450: ccc0 7bd0 ecae e2bf 8372 fb51 d161 e2bf
00000460: cf88 aa2f b614 e2bf 2f3e 8070 9bc7 e1bf
00000470: 0a64 181c 817a e1bf 4216 c53a 672d e1bf
00000480: f384 a2d5 4de0 e0bf d92c adf6 3493 e0bf
00000490: c2d4 daa8 1c46 e0bf fb2c 6df0 09f2 dfbf
000004a0: 85ff 00e4 db57 dfbf e358 a249 afbd debf
000004b0: 4ddc 8341 8423 debf 0762 34ef 5a89 ddbf
000004c0: 4074 057a 33ef dcbf 4a55 7f0d 0e55 dcbf
000004d0: 7f62 e4d9 eaba dbbf 49e7 c514 ca20 dbbf
000004e0: 81fa acf9 ab86 dabf 220e daca 90ec d9bf
000004f0: 6675 1ed2 7852 d9bf d881 d361 64b8 d8bf
00000500: e43b f3d5 531e d8bf 225f 5795 4784 d7bf
00000510: 14d0 2313 40ea d6bf 2230 62d0 3d50 d6bf
00000520: f304 d55d 41b6 d5bf 704f 095e 4b1c d5bf
00000530: 4afc ad87 5c82 d4bf 9009 39a8 75e8 d3bf
00000540: 6130 e2a6 974e d3bf 86b8 fa87 c3b4 d2bf
00000550: 4a14 a970 fa1a d2bf 0cf7 0cab 3d81 d1bf
00000560: 6e33 cdaa 8ee7 d0bf 862f 0b12 ef4d d0bf
00000570: c5c0 5d6d c168 cfbf 0f56 e24f cb35 cebf
00000580: 5848 ed67 0003 cdbf f5c8 5eda 65d0 cbbf
00000590: 0721 0c5e 019e cabf 28e8 5342 d96b c9bf
000005a0: e6a2 cc70 f439 c8bf 5a0a ee66 5a08 c7bf
000005b0: 9faa 1d23 13d7 c5bf 507d 67fe 26a6 c4bf
000005c0: 9558 1469 9e75 c3bf b506 cc7b 8145 c2bf
000005d0: 909d 4948 d715 c1bf a714 8295 49cd bfbf
000005e0: 7a76 479c d66f bdbf 6967 0efd 4b13 bbbf
000005f0: 12ac 1d82 8cb7 b8bf 9b7a 495e 5c5c b6bf
00000600: 9dea 3d67 5001 b4bf 4c6b 1f4b b4a5 b1bf
00000610: 8ec3 b969 c490 aebf e63a ea31 04cf a9bf
00000620: cfd1 f52f 3d00 a5bf 7c27 c92e d81a a0bf
00000630: 89a2 ea44 e01d 96bf 2323 9050 c904 87bf
00000640: 0000 0000 0000 0080 2098 5ea7 657e 99bf
00000650: 9668 d8ee fb05 aabf 9a7e 8f72 95e2 b3bf
00000660: 9acd 8c98 bbf6 babf 2628 05c5 1d1c c1bf
00000670: cebb 5f15 48d0 c4bf f8c2 382c fe94 c8bf
00000680: 7ed5 fd42 c567 ccbf 3379 24b9 3f23 d0bf
00000690: 814d ddd9 b017 d2bf 2284 6582 7410 d4bf
000006a0: 684e 79f1 e70c d6bf 7a64 475d 820c d8bf
000006b0: 7a40 aec1 d00e dabf 36bb 5d48 7213 dcbf
000006c0: 3815 9040 151a debf 235f 204b 3a11 e0bf
000006d0: ca98 9bdb 2a16 e1bf 3ed9 706a c31b e2bf
000006e0: da26 d3b9 ee21 e3bf 042e 2b9d 9a28 e4bf
000006f0: a22b 3c7b b72f e5bf 55ef fce5 3737 e6bf
00000700: de6f 3f44 103f e7bf 3bec f389 3647 e8bf
00000710: 4dd6 69fc a14f e9bf c4d0 6b00 4b58 eabf
00000720: 4e4d 79f0 2a61 ebbf 0745 b2f9 3b6a ecbf
00000730: cd81 4cfe 7873 edbf 6362 a07c dd7c eebf
00000740: 4688 067a 6586 efbf 7600 72b8 0648 f0bf
00000750: 7880 af20 e9cc f0bf 1d21 2792 d851 f1bf
00000760: 06e4 03d0 d3d6 f1bf bdef 61bf d95b f2bf
00000770: 87d0 2a63 e9e0 f2bf dc70 82d8 0166 f3bf
00000780: a50d af53 22eb f3bf 36f1 691d 4a70 f4bf
00000790: 03a0 8990 78f5 f4bf f6b2 f817 ad7a f5bf
000007a0: 4769 ee2c e7ff f5bf badc 5f55 2685 f6bf
000007b0: ec09 a222 6a0a f7bf fa02 3630 b28f f7bf
000007c0: bebb b922 fe14 f8bf dc92 f8a6 4d9a f8bf
000007d0: 4a81 1771 a01f f9bf fc5e d93b f6a4 f9bf
000007e0: e235 f8c7 4e2a fabf e807 91db a9af fabf
000007f0: a8bf 9f41 0735 fbbf 1350 89c9 66ba fbbf

d f8 [401]
0.07672413793103448 0.07672413793103448 0.07672413793103448 0.07672413793103448 0.07672413793103448 0.07672413793103448 0.07672413793103448 0.07672413793103448
0.07672413793103448 0.07672413793103448 0.07672413793103448 0.07672413793103448 0.07672413793103448 0.07672413793103448 0.07672413793103448 0.07672413793103448
0.07672413793103448 0.07672413793103448 0.07672413793103448 0.07672413793103448 0.07672413793103448 0.07672413793103448 0.07672413793103448 0.07672413793103448
0.07672413793103448 0.07672413793103448 0.07672413793103448 0.07672413793103448 0.07672413793103448 0.07672413793103448 0.07672413793103448 0.07672413793103448
0.07672413793103448 0.07672413793103448 0.07672413793103448 0.07672413793103448 0.07672413793103448 0.07672413793103448 0.07672413793103448 0.07672413793103448
0.07672413793103448 0.07672413793103448 0.07672413793103448 0.07672413793103448 0.07672413793103448 0.07672413793103448 0.07672413793103448 0.07672413793103448
0.07672413793103448 0.07672413793103448 0.07672413793103448 0.07672413793103448 0.07672413793103448 0.07672413793103448 0.07672413793103448 0.07672413793103448
0.07672413793103448 0.07672413793103448 0.07672413793103448 0.07672413793103448 0.07672413793103448 0.07672413793103448 0.07672413793103448 0.07672413793103448
0.07672413793103448 0.07672413793103448 0.07672413793103448 0.07672413793103448 0.07672413793103448 0.07672413793103448 0.07672413793103448 0.07672413793103448
0.07672413793103448 0.07672413793103448 0.07672413793103448 0.07672413793103448 0.07672413793103448 0.07672413793103448 0.07672413793103448 0.07672413793103448
0.07672413793103448 0.07672413793103448 0.07672413793103448 0.07672413793103448 0.07672413793103448 0.07672413793103448 0.07672413793103448 0.07672413793103448
0.07672413793103448 0.07672413793103448 0.07672413793103448 0.07672413793103448 0.07672413793103448 0.07672413793103448 0.07672413793103448 0.07672413793103448
0.07672413793103448 0.07672413793103448 0.07672413793103448 0.07672413793103448 0.07672413793103448 0.07672413793103448 0.07672413793103448 0.07672413793103448
0.07672413793103448 0.07672413793103448 0.07672413793103448 0.07672413793103448 0.07672413793103448 0.07672413793103448 0.07672413793103448 0.07672413793103448
0.07672413793103448 0.07672413793103448 0.07672413793103448 0.07672413793103448 0.07672413793103448 0.07672413793103448 0.07672413793103448 0.07672413793103448
0.07672413793103448 0.07672413793103448 0.07672413793103448 0.07672413793103448 0.07672413793103448 0.07672413793103448 0.07672413793103448 0.07672413793103448
0.07672413793103448 0.07672413793103448 0.07672413793103448 0.07672413793103448 0.07672413793103448 0.07672413793103448 0.07672413793103448 0.07672413793103448
0.07672413793103448 0.07672413793103448 0.07672413793103448 0.07672413793103448 0.07672413793103448 0.07672413793103448 0.07672413793103448 0.07672413793103448
0.07672413793103448 0.07672413793103448 0.07672413793103448 0.07672413793103448 0.07672413793103448 0.07672413793103448 0.07672413793103448 0.07672413793103448
0.07672413793103448 0.07672413793103448 0.07672413793103448 0.07672413793103448 0.07672413793103448 0.07672413793103448 0.07672413793103448 0.07672413793103448
0.07672413793103448 0.07672413793103448 0.07672413793103448 0.07672413793103448 0.07672413793103448 0.07672413793103448 0.07672413793103448 0.07672413793103448
0.07672413793103448 0.07672413793103448 0.07672413793103448 0.07672413793103448 0.07672413793103448 0.07672413793103448 0.07672413793103448 0.07672413793103448
0.07672413793103448 0.07672413793103448 0.07672413793103448 0.07672413793103448 0.07672413793103448 0.07672413793103448 0.07672413793103448 0.07672413793103448
0.07672413793103448 0.07672413793103448 0.07672413793103448 0.07672413793103448 0.07672413793103448 0.07672413793103448 0.07672413793103448 0.07672413793103448
0.07672413793103448 0.07672413793103448 0.07672413793103448 0.07672413793103448 0.07672413793103448 0.07672413793103448 0.07672413793103448 0.07672413793103448
0.07672413793103448 0.07672413793103448 0.07672413793103448 0.07672413793103448 0.07672413793103448 0.07672413793103448 0.07672413793103448 0.07672413793103448
0.07672413793103448 0.07672413793103448 0.07672413793103448 0.07672413793103448 0.07672413793103448 0.07672413793103448 0.07672413793103448 0.07672413793103448
0.07672413793103448 0.07672413793103448 0.07672413793103448 0.07672413793103448 0.07672413793103448 0.07672413793103448 0.07672413793103448 0.07672413793103448
0.07672413793103448 0.07672413793103448 0.07672413793103448 0.07672413793103448 0.07672413793103448 0.07672413793103448 0.07672413793103448 0.07672413793103448
0.07672413793103448 0.07672413793103448 0.07672413793103448 0.07672413793103448 0.07672413793103448 0.07672413793103448 0.07672413793103448 0.07672413793103448
0.07672413793103448 0.07672413793103448 0.07672413793103448 0.07672413793103448 0.07672413793103448 0.07672413793103448 0.07672413793103448 0.07672413793103448
0.07672413793103448 0.07672413793103448 0.07672413793103448 0.07672413793103448 0.07672413793103448 0.07672413793103448 0.07672413793103448 0.07672413793103448
00000000: 1743 3a6f 31a4 b33f 1743 3a6f 31a4 b33f
00000010: 1743 3a6f 31a4 b33f 1743 3a6f 31a4 b33f
00000020: 1743 3a6f 31a4 b33f 1743 3a6f 31a4 b33f
00000030: 1743 3a6f 31a4 b33f 1743 3a6f 31a4 b33f
00000040: 1743 3a6f 31a4 b33f 1743 3a6f 31a4 b33f
00000050: 1743 3a6f 31a4 b33f 1743 3a6f 31a4 b33f
00000060: 1743 3a6f 31a4 b33f 1743 3a6f 31a4 b33f
00000070: 1743 3a6f 31a4 b33f 1743 3a6f 31a4 b33f
00000080: 1743 3a6f 31a4 b33f 1743 3a6f 31a4 b33f
00000090: 1743 3a6f 31a4 b33f 1743 3a6f 31a4 b33f
000000a0: 1743 3a6f 31a4 b33f 1743 3a6f 31a4 b33f
000000b0: 1743 3a6f 31a4 b33f 1743 3a6f 31a4 b33f
000000c0: 1743 3a6f 31a4 b33f 1743 3a6f 31a4 b33f
000000d0: 1743 3a6f 31a4 b33f 1743 3a6f 31a4 b33f
000000e0: 1743 3a6f 31a4 b33f 1743 3a6f 31a4 b33f
000000f0: 1743 3a6f 31a4 b33f 1743 3a6f 31a4 b33f
00000100: 1743 3a6f 31a4 b33f 1743 3a6f 31a4 b33f
00000110: 1743 3a6f 31a4 b33f 1743 3a6f 31a4 b33f
00000120: 1743 3a6f 31a4 b33f 1743 3a6f 31a4 b33f
00000130: 1743 3a6f 31a4 b33f 1743 3a6f 31a4 b33f
00000140: 1743 3a6f 31a4 b33f 1743 3a6f 31a4 b33f
00000150: 1743 3a6f 31a4 b33f 1743 3a6f 31a4 b33f
00000160: 1743 3a6f 31a4 b33f 1743 3a6f 31a4 b33f
00000170: 1743 3a6f 31a4 b33f 1743 3a6f 31a4 b33f
00000180: 1743 3a6f 31a4 b33f 1743 3a6f 31a4 b33f
00000190: 1743 3a6f 31a4 b33f 1743 3a6f 31a4 b33f
000001a0: 1743 3a6f 31a4 b33f 1743 3a6f 31a4 b33f
000001b0: 1743 3a6f 31a4 b33f 1743 3a6f 31a4 b33f
000001c0: 1743 3a6f 31a4 b33f 1743 3a6f 31a4 b33f
000001d0: 1743 3a6f 31a4 b33f 1743 3a6f 31a4 b33f
000001e0: 1743 3a6f 31a4 b33f 1743 3a6f 31a4 b33f
000001f0: 1743 3a6f 31a4 b33f 1743 3a6f 31a4 b33f
00000200: 1743 3a6f 31a4 b33f 1743 3a6f 31a4 b33f
00000210: 1743 3a6f 31a4 b33f 1743 3a6f 31a4 b33f
00000220: 1743 3a6f 31a4 b33f 1743 3a6f 31a4 b33f
00000230: 1743 3a6f 31a4 b33f 1743 3a6f 31a4 b33f
00000240: 1743 3a6f 31a4 b33f 1743 3a6f 31a4 b33f
00000250: 1743 3a6f 31a4 b33f 1743 3a6f 31a4 b33f
00000260: 1743 3a6f 31a4 b33f 1743 3a6f 31a4 b33f
00000270: 1743 3a6f 31a4 b33f 1743 3a6f 31a4 b33f
00000280: 1743 3a6f 31a4 b33f 1743 3a6f 31a4 b33f
00000290: 1743 3a6f 31a4 b33f 1743 3a6f 31a4 b33f
000002a0: 1743 3a6f 31a4 b33f 1743 3a6f 31a4 b33f
000002b0: 1743 3a6f 31a4 b33f 1743 3a6f 31a4 b33f
000002c0: 1743 3a6f 31a4 b33f 1743 3a6f 31a4 b33f
000002d0: 1743 3a6f 31a4 b33f 1743 3a6f 31a4 b33f
000002e0: 1743 3a6f 31a4 b33f 1743 3a6f 31a4 b33f
000002f0: 1743 3a6f 31a4 b33f 1743 3a6f 31a4 b33f
00000300: 1743 3a6f 31a4 b33f 1743 3a6f 31a4 b33f
00000310: 1743 3a6f 31a4 b33f 1743 3a6f 31a4 b33f
00000320: 1743 3a6f 31a4 b33f 1743 3a6f 31a4 b33f
00000330: 1743 3a6f 31a4 b33f 1743 3a6f 31a4 b33f
00000340: 1743 3a6f 31a4 b33f 1743 3a6f 31a4 b33f
00000350: 1743 3a6f 31a4 b33f 1743 3a6f 31a4 b33f
00000360: 1743 3a6f 31a4 b33f 1743 3a6f 31a4 b33f
00000370: 1743 3a6f 31a4 b33f 1743 3a6f 31a4 b33f
00000380: 1743 3a6f 31a4 b33f 1743 3a6f 31a4 b33f
00000390: 1743 3a6f 31a4 b33f 1743 3a6f 31a4 b33f
000003a0: 1743 3a6f 31a4 b33f 1743 3a6f 31a4 b33f
000003b0: 1743 3a6f 31a4 b33f 1743 3a6f 31a4 b33f
000003c0: 1743 3a6f 31a4 b33f 1743 3a6f 31a4 b33f
000003d0: 1743 3a6f 31a4 b33f 1743 3a6f 31a4 b33f
000003e0: 1743 3a6f 31a4 b33f 1743 3a6f 31a4 b33f
000003f0: 1743 3a6f 31a4 b33f 1743 3a6f 31a4 b33f
00000400: 1743 3a6f 31a4 b33f 1743 3a6f 31a4 b33f
00000410: 1743 3a6f 31a4 b33f 1743 3a6f 31a4 b33f
00000420: 1743 3a6f 31a4 b33f 1743 3a6f 31a4 b33f
00000430: 1743 3a6f 31a4 b33f 1743 3a6f 31a4 b33f
00000440: 1743 3a6f 31a4 b33f 1743 3a6f 31a4 b33f
00000450: 1743 3a6f 31a4 b33f 1743 3a6f 31a4 b33f
00000460: 1743 3a6f 31a4 b33f 1743 3a6f 31a4 b33f
00000470: 1743 3a6f 31a4 b33f 1743 3a6f 31a4 b33f
00000480: 1743 3a6f 31a4 b33f 1743 3a6f 31a4 b33f
00000490: 1743 3a6f 31a4 b33f 1743 3a6f 31a4 b33f
000004a0: 1743 3a6f 31a4 b33f 1743 3a6f 31a4 b33f
000004b0: 1743 3a6f 31a4 b33f 1743 3a6f 31a4 b33f
000004c0: 1743 3a6f 31a4 b33f 1743 3a6f 31a4 b33f
000004d0: 1743 3a6f 31a4 b33f 1743 3a6f 31a4 b33f
000004e0: 1743 3a6f 31a4 b33f 1743 3a6f 31a4 b33f
000004f0: 1743 3a6f 31a4 b33f 1743 3a6f 31a4 b33f
00000500: 1743 3a6f 31a4 b33f 1743 3a6f 31a4 b33f
00000510: 1743 3a6f 31a4 b33f 1743 3a6f 31a4 b33f
00000520: 1743 3a6f 31a4 b33f 1743 3a6f 31a4 b33f
00000530: 1743 3a6f 31a4 b33f 1743 3a6f 31a4 b33f
00000540: 1743 3a6f 31a4 b33f 1743 3a6f 31a4 b33f
00000550: 1743 3a6f 31a4 b33f 1743 3a6f 31a4 b33f
00000560: 1743 3a6f 31a4 b33f 1743 3a6f 31a4 b33f
00000570: 1743 3a6f 31a4 b33f 1743 3a6f 31a4 b33f
00000580: 1743 3a6f 31a4 b33f 1743 3a6f 31a4 b33f
00000590: 1743 3a6f 31a4 b33f 1743 3a6f 31a4 b33f
000005a0: 1743 3a6f 31a4 b33f 1743 3a6f 31a4 b33f
000005b0: 1743 3a6f 31a4 b33f 1743 3a6f 31a4 b33f
000005c0: 1743 3a6f 31a4 b33f 1743 3a6f 31a4 b33f
000005d0: 1743 3a6f 31a4 b33f 1743 3a6f 31a4 b33f
000005e0: 1743 3a6f 31a4 b33f 1743 3a6f 31a4 b33f
000005f0: 1743 3a6f 31a4 b33f 1743 3a6f 31a4 b33f
00000600: 1743 3a6f 31a4 b33f 1743 3a6f 31a4 b33f
00000610: 1743 3a6f 31a4 b33f 1743 3a6f 31a4 b33f
00000620: 1743 3a6f 31a4 b33f 1743 3a6f 31a4 b33f
00000630: 1743 3a6f 31a4 b33f 1743 3a6f 31a4 b33f
00000640: 1743 3a6f 31a4 b33f 1743 3a6f 31a4 b33f
00000650: 1743 3a6f 31a4 b33f 1743 3a6f 31a4 b33f
00000660: 1743 3a6f 31a4 b33f 1743 3a6f 31a4 b33f
00000670: 1743 3a6f 31a4 b33f 1743 3a6f 31a4 b33f
00000680: 1743 3a6f 31a4 b33f 1743 3a6f 31a4 b33f
00000690: 1743 3a6f 31a4 b33f 1743 3a6f 31a4 b33f
000006a0: 1743 3a6f 31a4 b33f 1743 3a6f 31a4 b33f
000006b0: 1743 3a6f 31a4 b33f 1743 3a6f 31a4 b33f
000006c0: 1743 3a6f 31a4 b33f 1743 3a6f 31a4 b33f
000006d0: 1743 3a6f 31a4 b33f 1743 3a6f 31a4 b33f
000006e0: 1743 3a6f 31a4 b33f 1743 3a6f 31a4 b33f
000006f0: 1743 3a6f 31a4 b33f 1743 3a6f 31a4 b33f
00000700: 1743 3a6f 31a4 b33f 1743 3a6f 31a4 b33f
00000710: 1743 3a6f 31a4 b33f 1743 3a6f 31a4 b33f
00000720: 1743 3a6f 31a4 b33f 1743 3a6f 31a4 b33f
00000730: 1743 3a6f 31a4 b33f 1743 3a6f 31a4 b33f
00000740: 1743 3a6f 31a4 b33f 1743 3a6f 31a4 b33f
00000750: 1743 3a6f 31a4 b33f 1743 3a6f 31a4 b33f
00000760: 1743 3a6f 31a4 b33f 1743 3a6f 31a4 b33f
00000770: 1743 3a6f 31a4 b33f 1743 3a6f 31a4 b33f
00000780: 1743 3a6f 31a4 b33f 1743 3a6f 31a4 b33f
00000790: 1743 3a6f 31a4 b33f 1743 3a6f 31a4 b33f
000007a0: 1743 3a6f 31a4 b33f 1743 3a6f 31a4 b33f
000007b0: 1743 3a6f 31a4 b33f 1743 3a6f 31a4 b33f
000007c0: 1743 3a6f 31a4 b33f 1743 3a6f 31a4 b33f
000007d0: 1743 3a6f 31a4 b33f 1743 3a6f 31a4 b33f
000007e0: 1743 3a6f 31a4 b33f 1743 3a6f 31a4 b33f
000007f0: 1743 3a6f 31a4 b33f 1743 3a6f 31a4 b33f

zmax f8 []
5.0
00000000: 0000 0000 0000 1440

hz_F f8 [401]
0.06765523827107935 0.0676552219464222 0.0676552054786988 0.06765518879179407 0.06765517184325555 0.06765515460780684 0.06765513706870491 0.06765511921355744
0.06765510103199827 0.06765508251463234 0.06765506365241762 0.067655044436413 0.06765502485750081 0.06765500490642466 0.0676549845736255 0.06765496384935513
0.06765494272347858 0.06765492118558769 0.06765489922493377 0.06765487683039824 0.06765485399056825 0.067654830693537 0.0676548069270972 0.067654782678619
0.06765475793499554 0.06765473268274154 0.06765470690786946 0.06765468059594192 0.06765465373202764 0.06765462630060684 0.0676545982856784 0.06765456967068843
0.06765454043844411 0.06765451057121454 0.06765448005053736 0.06765444885735335 0.06765441697188443 0.0676543843736043 0.06765435104128882 0.06765431695286267
0.06765428208543707 0.0676542464153162 0.06765420991780792 0.06765417256735 0.06765413433735869 0.06765409520024347 0.0676540551273083 0.06765401408873893
0.06765397205353571 0.06765392898945052 0.06765388486297624 0.06765383963917233 0.06765379328172574 0.06765374575282064 0.06765369701305644 0.0676536470213889
0.06765359573501671 0.06765354310935617 0.06765348909790678 0.067653433652104 0.06765337672135299 0.06765331825279104 0.06765325819121189 0.0676531964789586
0.06765313305573852 0.06765306785859604 0.0676530008216414 0.06765293187594351 0.06765286094939546 0.06765278796647696 0.06765271284806523 0.06765263551134883
0.06765255586943246 0.06765247383124033 0.06765238930121557 0.06765230217907435 0.0676522123595326 0.0676521197319761 0.06765202418019553 0.06765192558198095
0.06765182380884638 0.06765171872551907 0.0676516101896222 0.0676514980511997 0.06765138215216791 0.06765126232592443 0.06765113839665465 0.06765101017887981
0.06765087747666464 0.06765074008304563 0.06765059777921764 0.0676504503337479 0.06765029750172463 0.06765013902384918 0.06764997462531783 0.06764980401486329
0.06764962688349795 0.06764944290324847 0.06764925172578545 0.06764905298092698 0.0676488462749928 0.06764863118900948 0.06764840727687964 0.06764817406319615
0.06764793104102672 0.06764767766936243 0.06764741337053866 0.06764713752712659 0.06764684947883726 0.06764654851891264 0.06764623389029414 0.0676459047813769
0.06764556032138996 0.06764519957525324 0.06764482153800756 0.06764442512863339 0.06764400918325345 0.06764357244768814 0.06764311356909665 0.06764263108688234
0.06764212342265666 0.06764158886893763 0.06764102557673027 0.06764043154181433 0.06763980458934434 0.06763914235680385 0.06763844227500301 0.0676377015467619
0.06763691712330924 0.06763608567763996 0.06763520357477852 0.06763426683838965 0.06763327111327987 0.06763221162308579 0.06763108312274801 0.06762987984468362
0.06762859543807316 0.0676272229000158 0.06762575449742589 0.06762418167839317 0.0676224949711843 0.067620683869135 0.06761873669925718 0.06761664047176381
0.06761438070773072 0.0676119412411436 0.06760930399106128 0.06760644869916242 0.06760335262640739 0.06759999020208166 0.06759633261681323 0.06759234734944174
0.06758799761621077 0.06758324172778528 0.06757803233714064 0.06757231555796102 0.0675660299286113 0.06755910519209511 0.06755146085574913 0.06754300448680663
0.06753362969063133 0.06752321370648519 0.0675116145412072 0.06749866754353238 0.06748418129905918 0.06746793269844556 0.06744966099670165 0.06742906063793604
0.06740577256598483 0.06737937367286195 0.06734936395138376 0.06731515081018312 0.06727602987286835 0.06723116141041176 0.0671795413380599 0.06711996543135941
0.06705098506645622 0.06697085234770642 0.06687745192672116 0.0667682161141204 0.06664001900289909 0.06648904422375372 0.06631061959637452 0.06609901028902998
0.06584716012636373 0.065546368398154 0.06518588698960179 0.06475242006481491 0.06422950628443055 0.06359676236616708 0.06282896799272306 0.06189497775346996
0.06075645926678608 0.05936648266177488 0.057668031575164695 0.05559257703916734 0.05305895894251012 0.04997295384048099 0.04622805292633001 0.04170807089071768
0.036292117760071185 0.03244684462924591 0.02937842911311495 0.026897102948482045 0.024864866845365072 0.023180460851257096 0.021768792862437675 0.02057354145821865
0.019551972899179686 0.018671290129753413 0.017906041015408367 0.017236261669767387 0.0166461332174062 0.016123000082894773 0.015656645146799264 0.015238749148942627
0.014862483534530147 0.014522200884631326 0.014213197389528321 0.013931529003230565 0.013673867957544682 0.013437389883411081 0.01321968433725349 0.013018683367859114
0.012832604095197755 0.012659902251735059 0.01249923436029501 0.012349426761477043 0.012209450107780375 0.01207839824745571 0.011955470653664866 0.011839957732727991
0.011731228483019327 0.011628720082576609 0.011531929067070946 0.011440403825037002 0.011353738189187479 0.011271565943481538 0.011193556098533342 0.011119408814132224
0.011048851868818788 0.010981637593609754 0.010917540200926872 0.010856353451053988 0.010797888607915087 0.0107419726434906 0.010688446656613454 0.01063716447715035
0.010587991430869862 0.010540803244025447 0.01049548506968602 0.01045193062045508 0.010410041394356943 0.010369725982499297 0.01033089944869238 0.010293482772524048
00000000: f101 c78b da51 b13f 74db a945 da51 b13f
00000010: 6467 effe d951 b13f 45f5 43b7 d951 b13f
00000020: c9d7 786e d951 b13f 4344 7224 d951 b13f
00000030: f4d1 1dd9 d851 b13f bce0 6d8c d851 b13f
00000040: cb0a 573e d851 b13f a6fb ceee d751 b13f
00000050: 33c2 cb9d d751 b13f bf89 434b d751 b13f
00000060: e54b 2cf7 d651 b13f 33db 7ba1 d651 b13f
00000070: 07b5 274a d651 b13f 8221 25f1 d551 b13f
00000080: e6fb 6896 d551 b13f 90d2 e739 d551 b13f
00000090: 03d4 95db d451 b13f a5c6 667b d451 b13f
000000a0: 081e 4e19 d451 b13f b4c2 3eb5 d351 b13f
000000b0: 9d48 2b4f d351 b13f c7cc 05e7 d251 b13f
000000c0: f0e5 bf7c d251 b13f 55c0 4a10 d251 b13f
000000d0: d0fa 96a1 d151 b13f 9fb5 9430 d151 b13f
000000e0: fa85 33bd d051 b13f 725b 6247 d051 b13f
000000f0: 1d9e 0fcf cf51 b13f 7b1a 2954 cf51 b13f
00000100: 31e9 9bd6 ce51 b13f 718b 5456 ce51 b13f
00000110: 8bb4 3ed3 cd51 b13f cd6f 454d cd51 b13f
00000120: 2efe 52c4 cc51 b13f 0ace 5038 cc51 b13f
00000130: 5189 27a9 cb51 b13f 5cea be16 cb51 b13f
00000140: 8dc6 fd80 ca51 b13f 1c10 cae7 c951 b13f
00000150: d1a0 084b c951 b13f 8b5d 9daa c851 b13f
00000160: a10b 6b06 c851 b13f 0955 535e c751 b13f
00000170: 8aac 36b2 c651 b13f 2f4a f401 c651 b13f
00000180: 5618 6a4d c551 b13f f6a1 7494 c451 b13f
00000190: a40f efd6 c351 b13f 7df6 b214 c351 b13f
000001a0: 4a69 984d c251 b13f d5d3 7581 c151 b13f
000001b0: d7e3 1fb0 c051 b13f 6278 69d9 bf51 b13f
000001c0: f781 23fd be51 b13f 64fb 1c1b be51 b13f
000001d0: eec3 2233 bd51 b13f e275 ff44 bc51 b13f
000001e0: 1270 7b50 bb51 b13f f592 5c55 ba51 b13f
000001f0: 5d2b 6653 b951 b13f 4ed4 584a b851 b13f
00000200: e942 f239 b751 b13f c03e ed21 b651 b13f
00000210: 8155 0102 b551 b13f ccbc e2d9 b351 b13f
00000220: 562c 42a9 b251 b13f 0d9b cc6f b151 b13f
00000230: dc09 2b2d b051 b13f 696b 02e1 ae51 b13f
00000240: db34 f38a ad51 b13f a342 992a ac51 b13f
00000250: e383 8bbf aa51 b13f 37b5 5b49 a951 b13f
00000260: cb13 96c7 a751 b13f 7c00 c139 a651 b13f
00000270: 46b5 5c9f a451 b13f 1fd3 e2f7 a251 b13f
00000280: 7014 c642 a151 b13f 55bd 717f 9f51 b13f
00000290: 4942 49ad 9d51 b13f 6dc2 a7cb 9b51 b13f
000002a0: 276d dfd9 9951 b13f 0f14 39d7 9751 b13f
000002b0: bc67 f3c2 9551 b13f 8c78 429c 9351 b13f
000002c0: 9fd7 4e62 9151 b13f e9f5 3414 8f51 b13f
000002d0: 3e3f 04b1 8c51 b13f 153d be37 8a51 b13f
000002e0: e4a6 55a7 8751 b13f 9762 adfe 8451 b13f
000002f0: ce49 973c 8251 b13f 161c d35f 7f51 b13f
00000300: 271d 0d67 7c51 b13f b7b0 dc50 7951 b13f
00000310: c4d8 c21b 7651 b13f 5b90 28c6 7251 b13f
00000320: 59fc 5c4e 6f51 b13f 3372 93b2 6b51 b13f
00000330: ab74 e1f0 6751 b13f 8a4c 3c07 6451 b13f
00000340: 0f99 76f3 5f51 b13f c181 3db3 5b51 b13f
00000350: 7de0 1544 5751 b13f 80d6 58a3 5251 b13f
00000360: f864 30ce 4d51 b13f 3275 93c1 4851 b13f
00000370: 22a2 417a 4351 b13f 518d bef4 3d51 b13f
00000380: 84ca 4c2d 3851 b13f 1538 e81f 3251 b13f
00000390: 29df 3fc8 2b51 b13f cc27 af21 2551 b13f
000003a0: aa5f 3627 1e51 b13f 978a 72d3 1651 b13f
000003b0: bd31 9420 0f51 b13f b463 5508 0751 b13f
000003c0: 9aab ee83 fe50 b13f fda3 0a8c f550 b13f
000003d0: 0a4f b818 ec50 b13f e902 5c21 e250 b13f
000003e0: 057b 9e9c d750 b13f 1c1a 5a80 cc50 b13f
000003f0: 8605 86c1 c050 b13f 1bb5 1e54 b450 b13f
00000400: 0a00 0c2b a750 b13f a4d1 0338 9950 b13f
00000410: 4377 696b 8a50 b13f 05ea 28b4 7a50 b13f
00000420: ef93 8dff 6950 b13f 3bca 1339 5850 b13f
00000430: f08b 344a 4550 b13f c952 2a1a 3150 b13f
00000440: 0552 ae8d 1b50 b13f 4ac4 ac86 0450 b13f
00000450: 7e0b efe3 eb4f b13f e33a ba80 d14f b13f
00000460: 8e0a 6034 b54f b13f 6847 c0d1 964f b13f
00000470: 655b b826 764f b13f 85da 7dfb 524f b13f
00000480: ef05 e111 2d4f b13f 2325 7324 044f b13f
00000490: a303 8ce5 d74e b13f e75e 29fe a74e b13f
000004a0: 4960 a10c 744e b13f 82bb 20a3 3b4e b13f
000004b0: 4333 eb45 fe4d b13f af62 5369 bb4d b13f
000004c0: cd1e 5d6f 724d b13f ff7e faa4 224d b13f
000004d0: 9fe8 d03e cb4c b13f 2dba 6f55 6b4c b13f
000004e0: 5a2b dde0 014c b13f bbd9 58b3 8d4b b13f
000004f0: c726 2c73 0d4b b13f a12b 5893 7f4a b13f
00000500: 85c4 e64a e249 b13f 9115 978a 3349 b13f
00000510: 15fd 8df0 7048 b13f 1780 9fb9 9747 b13f
00000520: 5f42 adaf a446 b13f 12f3 7714 9445 b13f
00000530: 3d6c 1b88 6144 b13f 756c 3dea 0743 b13f
00000540: 5b86 bb34 8141 b13f 6893 594e c63f b13f
00000550: 3ddd 93d3 ce3d b13f 974a 41d3 903b b13f
00000560: 04d3 1b7c 0039 b13f 01a2 87b7 0f36 b13f
00000570: f6da 01ad ad32 b13f edb3 6f28 c62e b13f
00000580: 4f67 06dc 402a b13f 725f 9e74 0025 b13f
00000590: db75 dd74 e11e b13f 1656 9fc8 b817 b13f
000005a0: b2e6 38fe 510f b13f dbba 7b0e 6d05 b13f
000005b0: b03e 8b96 bbf9 b03f 2046 7d5f ddeb b03f
000005c0: 11f7 4607 5cdb b03f 7a42 a494 a5c7 b03f
000005d0: 9ef5 c7b4 05b0 b03f 64e6 8356 9d93 b03f
000005e0: 060b ee4c 5871 b03f 0182 7e9e e047 b03f
000005f0: 462a c52a 8f15 b03f 0ec1 79d2 b2b0 af3f
00000600: 10a9 247b 781b af3f 4c91 059b 4865 ae3f
00000610: b7b1 470b aa86 ad3f f431 9158 a176 ac3f
00000620: 61f5 d53a 8b2a ab3f 26d8 db14 0e96 a93f
00000630: 6de3 f30e 34ab a73f 4ce6 e8a0 c25a a53f
00000640: d8a0 c365 e194 a23f 88fe 1471 df9c a03f
00000650: c1a6 fe00 6115 9e3f 6760 1506 ea8a 9b3f
00000660: c952 aef7 2c76 993f 75a7 0c65 9ebc 973f
00000670: f596 abf5 8e4a 963f 3e5f e7fe 3a11 953f
00000680: eb6f b2b0 6e05 943f f9f8 ec11 911e 933f
00000690: 7c80 3f12 f655 923f 3132 b5f0 61a6 913f
000006a0: 8d2f 1817 af0b 913f d81a 4738 8c82 903f
000006b0: 5079 7bab 4b08 903f 3d31 d049 7e35 8f3f
000006c0: 0dc3 bec5 3870 8e3f 9068 ecce d0bd 8d3f
000006d0: 874b ad0f cf1b 8d3f 3701 9e2b 2288 8c3f
000006e0: ccf3 7f7d 0b01 8c3f 1c29 bef0 0f85 8b3f
000006f0: 33b5 22ff eb12 8b3f 645c 6a1a 8aa9 8a3f
00000700: db86 4af7 fa47 8a3f 7552 2251 6fed 893f
00000710: 8e88 6bd6 3299 893f 9fe5 8400 a84a 893f
00000720: 2e0b 52a7 4401 893f fee4 af2b 8fbc 883f
00000730: ffe9 b91b 1c7c 883f 1a16 fc39 8c3f 883f
00000740: ff69 69d5 8a06 883f e98f 9763 ccd0 873f
00000750: da75 9f51 0d9e 873f 52a6 4002 116e 873f
00000760: 73e3 adf1 a040 873f b7d0 d0f8 8b15 873f
00000770: c000 f4aa a5ec 863f 0c11 a9c9 c5c5 863f
00000780: 0dba 7acb c7a0 863f 5c91 9172 8a7d 863f
00000790: 560c ed70 ef5b 863f 9270 3518 db3b 863f
000007a0: 41a9 7e13 341d 863f 2a28 9629 e3ff 853f
000007b0: e37a ae06 d3e3 853f 7f8a 690c f0c8 853f
000007c0: c245 6827 28af 853f 5c3d a7a9 6a96 853f
000007d0: 4827 0a29 a87e 853f e32f 8f61 d267 853f
000007e0: afcc b51a dc51 853f fede b40f b93c 853f
000007f0: 88c6 29da 5d28 853f f69d f5de bf14 853f

Vz_F f8 [401]
1.1435822495894854 1.1435819736524167 1.1435816952970868 1.143581413236916 1.1435811267543272 1.1435808354220711 1.1435805389571385 1.1435802371500614
1.14357992982562 1.1435796168250079 1.1435792979953874 1.143578973185626 1.1435786422416072 1.1435783050068693 1.143577961319835 1.1435776110157292
1.1435772539232403 1.1435768898664378 1.143576518663636 1.1435761401268962 1.1435757540633062 1.1435753602716048 1.1435749585454502 1.14357454867136
1.1435741304277869 1.1435737035867888 1.1435732679119326 1.1435728231591824 1.1435723690761534 1.1435719054005133 1.143571431861794 1.1435709481801837
1.1435704540650704 1.1435699492167473 1.1435694333231439 1.1435689060621002 1.1435683670993058 1.1435678160878027 1.1435672526688379 1.1435666764692698
1.143566087102208 1.1435654841671195 1.1435648672466314 1.1435642359086629 1.1435635897038665 1.1435629281658777 1.1435622508096444 1.143561557131214
1.1435608466065972 1.1435601186907007 1.1435593728171511 1.1435586083953453 1.1435578248114808 1.1435570214263535 1.1435561975739716 1.1435553525605613
1.1435544856626478 1.1435535961266297 1.1435526831665044 1.143551745961382 1.1435507836560532 1.143549795356975 1.1435487801309918 1.143547737003523
1.143546664955437 1.14354556292259 1.1435444297912412 1.1435432643962429 1.1435420655187656 1.1435408318822837 1.1435395621493782 1.14353825492028
1.1435369087261904 1.1435355220276477 1.1435340932094462 1.1435326205764795 1.1435311023491224 1.1435295366576526 1.1435279215377747 1.1435262549237635
1.1435245346438094 1.143522758411386 1.1435209238198851 1.1435190283345875 1.1435170692833907 1.1435150438502006 1.1435129490632079 1.1435107817872492
1.1435085387104138 1.14350621633438 1.1435038109606666 1.1435013186773446 1.1434987353446502 1.143496056579636 1.1434932777372708 1.1434903938942398
1.1434873998276984 1.1434842899938857 1.1434810585049604 1.1434776991037054 1.1434742051357105 1.1434705695190317 1.1434667847132474 1.14346284268251
1.1434587348581005 1.1434544520952983 1.1434499846297896 1.1434453220251228 1.1434404531203768 1.143435365969161 1.1434300477748494 1.1434244848188158
1.143418662382345 1.1434125646596982 1.1434061746639657 1.1433994741225817 1.1433924433624298 1.1433850611840057 1.1433773047201257 1.1433691492822007
1.1433605681905945 1.1433515325835941 1.14334201120748 1.1433319701847466 1.143321372753796 1.143310178980812 1.1432983454385592 1.1432858248460676
1.1432725656696974 1.1432585116727978 1.1432436014130687 1.1432277676781766 1.143210936851915 1.1431930281990077 1.143173953061769 1.143153613950254
1.1431319035160215 1.1431087033884424 1.143083882854512 1.1430572973605635 1.1430287868050826 1.1429981735930284 1.1429652604148899 1.1429298277031918
1.142891630719447 1.1428503962081393 1.1428058185455825 1.1427575553036462 1.1427052221224088 1.142648386777907 1.1425865623028741 1.142519198989369
1.1424456750784273 1.142365285891671 1.1422772311183138 1.1421805999133738 1.1420743533856026 1.141957303975012 1.1418280911072642 1.1416851523834382
1.1415266894059428 1.1413506271395768 1.1411545654618571 1.1409357212584403 1.1406908590354092 1.1404162075565694 1.1401073594271693 1.1397591498099757
1.139365509548096 1.1389192868112374 1.1384120299354272 1.1378337222983603 1.1371724577659492 1.136414042326983 1.1355415038514316 1.1345344872308871
1.133368506253074 1.1320140160891867 1.1304352608254042 1.1285888385896392 1.1264219119097874 1.123869972370759 1.1208540457112015 1.1172771955823535
1.1130201508517246 1.1079358426740527 1.1018425947502841 1.0945156664349298 1.0856768103079695 1.0749814860144902 1.0620033923850336 1.0462160758934402
1.0269716010312813 1.003476708197315 0.9747676449513776 0.9396860603195023 0.896860098034562 0.8446970911926854 0.7813967123700571 0.7049950713961728
0.6134487547606504 0.548451775818446 0.4965860872437844 0.45464401993561054 0.4202929601523664 0.3918213023001549 0.36795975815985926 0.34775632196494044
0.3304886616815672 0.3156024058886331 0.3026673349903142 0.29134599771635905 0.28137100626937084 0.2725284423809349 0.26464560521183955 0.25758187359938844
0.2512218239008135 0.24546999731336783 0.24024688494112212 0.23548582023908082 0.23113055365829638 0.227133344648216 0.22345344927595434 0.22005591278619008
0.21691059900605936 0.21399140505002023 0.21127562200904393 0.20874341141841057 0.20637737412972257 0.20416219338285302 0.2020843378045356 0.20013181307241723
0.1982939533123229 0.19656124509673134 0.19492517832524925 0.19337811937084837 0.1919132027533088 0.19052423829172938 0.18920563124435574 0.18795231338659235
0.1867596833359464 0.18562355472251824 0.1845401110396594 0.18350586619989784 0.1825176299812803 0.18157247767646822 0.18066772336551296 0.17980089632221308
0.17896972013657475 0.17817209419888513 0.17740607724169521 0.17666987268009748 0.175961815526815 0.17528036068956254 0.17462407248469702 0.17399161522346773
00000000: 005e a4e6 1c4c f23f c01d 929c 1c4c f23f
00000010: 00af d951 1c4c f23f 00a8 2206 1c4c f23f
00000020: 00b9 3bb9 1b4c f23f c085 076b 1b4c f23f
00000030: 809b 721b 1b4c f23f 4095 6eca 1a4c f23f
00000040: 8068 ef77 1a4c f23f 802b ea23 1a4c f23f
00000050: 805d 54ce 194c f23f c09b 2377 194c f23f
00000060: 004f 4d1e 194c f23f c0b6 c6c3 184c f23f
00000070: 80b8 8467 184c f23f 8001 7c09 184c f23f
00000080: 00cc a0a9 174c f23f 0001 e747 174c f23f
00000090: 4024 42e4 164c f23f 804b a57e 164c f23f
000000a0: 0035 0317 164c f23f 200c 4ead 154c f23f
000000b0: e0a2 7741 154c f23f a04d 71d3 144c f23f
000000c0: e0d2 2b63 144c f23f a088 97f0 134c f23f
000000d0: 802f a47b 134c f23f 6002 4104 134c f23f
000000e0: 40a9 5c8a 124c f23f 201d e50d 124c f23f
000000f0: e0c7 c78e 114c f23f 006f f10c 114c f23f
00000100: 001a 4e88 104c f23f 6030 c900 104c f23f
00000110: 2040 4d76 0f4c f23f c025 c4e8 0e4c f23f
00000120: 00e8 1658 0e4c f23f 20af 2dc4 0d4c f23f
00000130: e0d3 ef2c 0d4c f23f e0b1 4392 0c4c f23f
00000140: e0b2 0ef4 0b4c f23f a050 3552 0b4c f23f
00000150: a0dc 9aac 0a4c f23f a0a5 2103 0a4c f23f
00000160: a0ca aa55 094c f23f 403f 16a4 084c f23f
00000170: 60ae 42ee 074c f23f 6076 0d34 074c f23f
00000180: 2095 5275 064c f23f 4095 ecb1 054c f23f
00000190: 008b b4e9 044c f23f 60e0 811c 044c f23f
000001a0: 4067 2a4a 034c f23f a032 8272 024c f23f
000001b0: 407e 5b95 014c f23f 209d 86b2 004c f23f
000001c0: c0d7 d1c9 ff4b f23f a064 09db fe4b f23f
000001d0: 4040 f7e5 fd4b f23f 6001 63ea fc4b f23f
000001e0: 00e3 11e8 fb4b f23f c07d c6de fa4b f23f
000001f0: 60b1 40ce f94b f23f e084 3db6 f84b f23f
00000200: 80ef 7696 f74b f23f a0d0 a36e f64b f23f
00000210: 209f 773e f54b f23f 8049 a205 f44b f23f
00000220: e00d d0c3 f24b f23f 6033 a978 f14b f23f
00000230: e0d1 d123 f04b f23f 60b8 e9c4 ee4b f23f
00000240: 80f7 8b5b ed4b f23f c0c4 4ee7 eb4b f23f
00000250: 2021 c367 ea4b f23f 0090 74dc e84b f23f
00000260: e0c5 e844 e74b f23f 4046 9fa0 e54b f23f
00000270: e014 11ef e34b f23f 203d b02f e24b f23f
00000280: 2080 e761 e04b f23f e0bc 1985 de4b f23f
00000290: e091 a198 dc4b f23f e0cf d09b da4b f23f
000002a0: c0d6 ef8d d84b f23f 4021 3d6e d64b f23f
000002b0: c076 ec3b d44b f23f e064 26f6 d14b f23f
000002c0: e053 079c cf4b f23f a0dc 9e2c cd4b f23f
000002d0: c0d6 eea6 ca4b f23f e06e ea09 c84b f23f
000002e0: 8029 7554 c54b f23f 00d5 6185 c24b f23f
000002f0: 203d 719b bf4b f23f 000e 5195 bc4b f23f
00000300: 605e 9a71 b94b f23f 6037 d02e b64b f23f
00000310: 00fd 5dcb b24b f23f 20b1 9545 af4b f23f
00000320: 200a ae9b ab4b f23f 205d c0cb a74b f23f
00000330: a07d c6d3 a34b f23f 8033 98b1 9f4b f23f
00000340: 40a8 e862 9b4b f23f 4070 43e5 964b f23f
00000350: e08b 0936 924b f23f 20cb 6d52 8d4b f23f
00000360: 0035 7137 884b f23f 60d6 dee1 824b f23f
00000370: a04e 474e 7d4b f23f 20e1 fb78 774b f23f
00000380: 8017 095e 714b f23f 40c8 30f9 6a4b f23f
00000390: 809e e345 644b f23f e0eb 393f 5d4b f23f
000003a0: 40c3 ebdf 554b f23f 0053 4822 4e4b f23f
000003b0: 602f 2c00 464b f23f 20c2 f672 3d4b f23f
000003c0: 20a2 7e73 344b f23f c072 04fa 2a4b f23f
000003d0: c076 24fe 204b f23f c0a2 c676 164b f23f
000003e0: e0b9 0c5a 0b4b f23f 0081 3e9d ff4a f23f
000003f0: 20ac b334 f34a f23f a01b bb13 e64a f23f
00000400: 2072 7f2c d84a f23f 0022 e86f c94a f23f
00000410: e0e2 76cd b94a f23f e0e8 2033 a94a f23f
00000420: 0056 238d 974a f23f 4014 d2c5 844a f23f
00000430: 20a1 60c5 704a f23f 6087 a371 5b4a f23f
00000440: 40d9 c9ad 444a f23f a038 0d5a 2c4a f23f
00000450: 001e 5753 124a f23f 60e2 d972 f649 f23f
00000460: 206e 9b8d d849 f23f 4084 ef73 b849 f23f
00000470: 2023 dff0 9549 f23f e0ba 79c9 7049 f23f
00000480: 80fe 0cbc 4849 f23f 20f4 3e7f 1d49 f23f
00000490: 004f 05c1 ee48 f23f c093 7425 bc48 f23f
000004a0: 20bf 5f45 8548 f23f c09c c0ac 4948 f23f
000004b0: e009 dfd8 0848 f23f 2062 2b36 c247 f23f
000004c0: 20b2 be1d 7547 f23f c0d8 6fd2 2047 f23f
000004d0: c0e5 697d c446 f23f c00e 2c2a 5f46 f23f
000004e0: a043 d6c1 ef45 f23f 2004 a005 7545 f23f
000004f0: 605b 4f88 ed44 f23f e00c 7da6 5744 f23f
00000500: a027 687d b143 f23f 5056 0de0 f842 f23f
00000510: b06f 254a 2b42 f23f 704a 9ad0 4541 f23f
00000520: a073 e60e 4540 f23f 808a b410 253f f23f
00000530: a0b2 ea36 e13d f23f 8002 1c17 743c f23f
00000540: f030 1b54 d73a f23f e034 1a6e 0339 f23f
00000550: 5021 5f88 ef36 f23f 20eb 1822 9134 f23f
00000560: 6044 40bf db31 f23f 2027 a87d c02e f23f
00000570: 50ae 6491 2d2b f23f e073 6da2 0d27 f23f
00000580: f0c5 ca03 4722 f23f 8077 9bba ba1c f23f
00000590: 70d8 b748 4316 f23f 50f8 852b b30e f23f
000005a0: c067 92fb d205 f23f 109f 8414 5ffb f13f
000005b0: d0b3 dea6 04ef f13f 207c 790d 5ee0 f13f
000005c0: 8027 bb37 eece f13f c09e 25ef 1aba f13f
000005d0: 10ad 5cb3 25a1 f13f 40c3 04dc 2283 f13f
000005e0: f0c5 a4a5 ee5e f13f b0cd 63c9 1f33 f13f
000005f0: 708e e844 f7fd f03f 4030 6811 4dbd f03f
00000600: 109a 05c6 796e f03f 5015 c097 3d0e f03f
00000610: c07b 88ea 4b31 ef3f 008a 3280 e811 ee3f
00000620: 60aa c4f2 13b3 ec3f 805d b631 c207 eb3f
00000630: 209a 9aad 3301 e93f a09b efd2 518f e63f
00000640: 6001 6f48 5fa1 e33f e058 12bd ea8c e13f
00000650: 0015 1703 11c8 df3f c081 3c3b e318 dd3f
00000660: 00fb a571 14e6 da3f c056 d0a7 9913 d93f
00000670: 409a e215 a78c d73f 4044 74bb a341 d63f
00000680: c0c0 67ea b926 d53f 8028 f56e d432 d43f
00000690: c074 56d0 e65e d33f c0c8 00af 69a5 d23f
000006a0: 400d 7e89 fb01 d23f 4061 d022 1b71 d13f
000006b0: 008f da1e f4ef d03f c0b6 c9ae 387c d03f
000006c0: 8082 6cb3 0414 d03f 8018 4e95 8f6b cf3f
000006d0: 00dd e4f0 68c0 ce3f 809e 4c3c 6624 ce3f
000006e0: 00cd 889c af95 cd3f 002f 8c97 b412 cd3f
000006f0: 80c8 6864 1f9a cc3f 80a3 5aca ca2a cc3f
00000700: 8082 71fc b9c3 cb3f 804f 2803 1264 cb3f
00000710: 8046 7c5f 140b cb3f 0016 a6a6 1ab8 ca3f
00000720: 00c1 42e4 926a ca3f 8059 d49b fc21 ca3f
00000730: 00c0 f34a e6dd c93f 0082 0454 eb9d c93f
00000740: 0049 3c3e b261 c93f 00fe ac3b eb28 c93f
00000750: 0076 09e9 4ef3 c83f 00da 3a3d 9dc0 c83f
00000760: 807f bfa0 9c90 c83f 0076 4726 1963 c83f
00000770: 00ef 34df e337 c83f 80fa 9947 d20e c83f
00000780: 80d1 11c6 bde7 c73f 0043 733c 83c2 c73f
00000790: 0097 dba6 029f c73f 80f2 f9c6 1e7d c73f
000007a0: 8044 dbd9 bc5c c73f 00b0 bc56 c43d c73f
000007b0: 8019 a6b5 1e20 c73f 0069 bf3c b703 c73f
000007c0: 80fd 7ad3 7ae8 c63f 0070 d2da 57ce c63f
000007d0: 80af ee09 3eb5 c63f 80bc ac4e 1e9d c63f
000007e0: 8027 84b1 ea85 c63f 0079 653c 966f c63f
000007f0: 0043 35e4 145a c63f 80dd 9474 5b45 c63f
