onecap_model_with_structure_ambiguity/output/upper_triangular_four_ambiguous_parameters/Delta_10.0_distorted_0/logadjustment_1_boundary_1/zmax_5.0_zscale_2.0/delta_0.02/q_0.2_gamma_4.0_rho_1.0/model.npz (npz, 126264 bytes, 58 tensors)

clowerlim f8 []
0	0x3f1a36e2eb1c432d	0.0001

zmin f8 []
0	0xc014000000000000	-5.0

Delta f8 []
0	0x4024000000000000	10.0

s1_F f8 [401]
0	0xbfef404296b3bb08	-0.976594251956926
1	0xbfe721ca640a8af0	-0.7228748277596804
2	0xbfe4c5fc883d1410	-0.6491682682905111
3	0xbfe3d99068724f12	-0.6203081169100833
4	0xbfe36c14a0e5bd80	-0.6069434301879681
5	0xbfe33013f0843b00	-0.599618882902945
6	0xbfe3085c1d185656	-0.5947704857123408
7	0xbfe2e9265eab927d	-0.590960678961508
8	0xbfe2cd8cd2939154	-0.587591563493826
9	0xbfe2b37e20aa33ab	-0.5844107282624597
10	0xbfe29a18f938476e	-0.5813107364249228
11	0xbfe280fcf1eb307b	-0.5782456135725761
12	0xbfe268009d450b8f	-0.575195605437658
13	0xbfe24f121e100fe2	-0.5721521937525689
14	0xbfe23629b9c896f7	-0.5691116932473211
15	0xbfe21d4415d35a65	-0.5660725046426022
16	0xbfe2045fbc8cf995	-0.563033931983045
17	0xbfe1eb7c0b04fa69	-0.5599956717704347
18	0xbfe1d298ba21caf4	-0.5569575915709195
19	0xbfe1b9b5aaf3d93e	-0.5539196337620422
20	0xbfe1a0d2d02bdc4e	-0.5508817735525413
21	0xbfe187f0243e1cc1	-0.5478440006126207
22	0xbfe16f0da50e4893	-0.5448063110109324
23	0xbfe1562b5207958c	-0.541768703664887
24	0xbfe13d492b450ce1	-0.5387311787711974
25	0xbfe1246731322c53	-0.5356937371119649
26	0xbfe10b856460753a	-0.5326563797458796
27	0xbfe0f2a3c5748ae0	-0.5296191078708397
28	0xbfe0d9c2551dd3d7	-0.5265819227630527
29	0xbfe0c0e11412c837	-0.5235448257501564
30	0xbfe0a800030f4e64	-0.5205078181993028
31	0xbfe08f1f22d41ade	-0.517470901512606
32	0xbfe0763e742666a9	-0.5144340771250501
33	0xbfe05d5df7cfef14	-0.511397346504483
34	0xbfe0447dae9f0919	-0.5083607111521672
35	0xbfe02b9d9966a6b9	-0.5053241726029319
36	0xbfe012bdb8fe823e	-0.5022877324264028
37	0xbfdff3bc1c868b6f	-0.4992513922281238
38	0xbfdfc1fd342d2cbc	-0.49621515364988134
39	0xbfdf903ebabeb8ba	-0.49317901837174427
40	0xbfdf5e80b213931c	-0.49014298811225543
41	0xbfdf2cc31c0f2c7c	-0.48710706463015874
42	0xbfdefb05faa053ce	-0.4840712497255567
43	0xbfdec9494fc16fca	-0.48103554524072634
44	0xbfde978d1d78f960	-0.4779999530618593
45	0xbfde65d165d9dcb5	-0.4749644751204401
46	0xbfde34162b03b270	-0.47192911339406063
47	0xbfde025b6f235a8b	-0.46889386990862
48	0xbfddd0a134733b63	-0.46585874673922073
49	0xbfdd9ee77d3bbd3b	-0.46282374601192416
50	0xbfdd6d2e4bd3cf4b	-0.4597888699056411
51	0xbfdd3b75a2a12ea9	-0.45675412065313964
52	0xbfdd09bd84191085	-0.45371950054346427
53	0xbfdcd805f2c0998e	-0.45068501192363264
54	0xbfdca64ef12d3073	-0.44765065719980796
55	0xbfdc749882055264	-0.4446164388403189
56	0xbfdc42e2a800e72a	-0.4415823593768545
57	0xbfdc112d65e9f4ba	-0.43854842140701644
58	0xbfdbdf78be9d2918	-0.435514627596278
59	0xbfdbadc4b50a9178	-0.43248098068058693
60	0xbfdb7c114c361c0c	-0.4294474834682098
61	0xbfdb4a5e873878d8	-0.4264141388429272
62	0xbfdb18ac693f98e8	-0.4233809497658414
63	0xbfdae6faf58f992e	-0.42034791927871396
64	0xbfdab54a2f837528	-0.41731505050650464
65	0xbfda839a1a8dcb0a	-0.41428234666015895
66	0xbfda51eaba39c2a0	-0.4112498110398892
67	0xbfda203c122bf3c0	-0.4082174470384494
68	0xbfd9ee8e26232883	-0.4051852581438952
69	0xbfd9bce0f9f988dc	-0.40215324794384144
70	0xbfd98b3491a56861	-0.3991214201283864
71	0xbfd95988f13a7100	-0.3960897784943569
72	0xbfd927de1ceaaece	-0.3930583269491138
73	0xbfd8f6341907a4bd	-0.39002706951448457
74	0xbfd8c48aea0399de	-0.386996010331499
75	0xbfd892e29472c18b	-0.383965153664598
76	0xbfd8613b1d0c82e8	-0.3809345039062877
77	0xbfd82f9488acec2b	-0.3779040655824157
78	0xbfd7fdeedc56161b	-0.3748738433572229
79	0xbfd7cc4a1d318f88	-0.37184384203850884
80	0xbfd79aa6509208a1	-0.36881406658370436
81	0xbfd769037bf4e9c3	-0.36578452210565277
82	0xbfd73761a50406eb	-0.3627552138787979
83	0xbfd705c0d19783f3	-0.3597261473460655
84	0xbfd6d42107b790c8	-0.35669732812517596
85	0xbfd6a2824d9e8ef3	-0.35366876201645353
86	0xbfd670e4a9bb0f75	-0.35064045501007196
87	0xbfd63f4822b20a46	-0.34761241329411907
88	0xbfd60dacbf613508	-0.3445846432631048
89	0xbfd5dc1286e15c7e	-0.34155715152650845
90	0xbfd5aa7980890373	-0.33852994491831295
91	0xbfd578e1b3ef0ade	-0.3355030305066701
92	0xbfd5474b28ed8135	-0.3324764156041227
93	0xbfd515b5e7a4a284	-0.32945010777852013
94	0xbfd4e421f87dfb4f	-0.3264241148644275
95	0xbfd4b28f642fad1c	-0.323398444975014
96	0xbfd480fe33c005cb	-0.32037310651511736
97	0xbfd44f6e70890fb1	-0.3173481081942056
98	0xbfd41de0243c821f	-0.3143234590407093
99	0xbfd3ec5358e7e7c8	-0.3112991684171189
100	0xbfd3bac818f8dc43	-0.30827524603541095
101	0xbfd3893e6f41c4d3	-0.30525170197422574
102	0xbfd357b666fe94eb	-0.30222854669621196
103	0xbfd326300bd9f185	-0.2992057910667188
104	0xbfd2f4ab69f2bcd0	-0.29618344637397076
105	0xbfd2c3288de1bbf6	-0.2931615243496134
106	0xbfd291a784bfc910	-0.29014003719125103
107	0xbfd260285c2c54f4	-0.28711899758611925
108	0xbfd22eab22543ef1	-0.2840984187359786
109	0xbfd1fd2fe5f92db3	-0.2810783143838435
110	0xbfd1cbb6b679617d	-0.2780586988424359
111	0xbfd19a3fa3d7e48f	-0.2750395870239765
112	0xbfd168cabec56fd7	-0.27202099447253886
113	0xbfd1375818a9c50c	-0.26900293739807135
114	0xbfd105e7c3ada09e	-0.26598543271257735
115	0xbfd0d479d2c57218	-0.26296849806911515
116	0xbfd0a30e59bcabd4	-0.2599521519029484
117	0xbfd071a56d41e5a4	-0.2569364134756944
118	0xbfd0403f22f3dfdf	-0.2539213029226612
119	0xbfd00edb916f4325	-0.2509068413028664
120	0xbfcfbaf5a0bb0e80	-0.24789305065324996
121	0xbfcf5839f1099840	-0.24487995404632734
122	0xbfcef58447b18f2e	-0.24186757565177558
123	0xbfce92d4db1a2274	-0.23885594080299521
124	0xbfce302be4514b8b	-0.2358450760680991
125	0xbfcdcd899f35b203	-0.23283500932610943
126	0xbfcd6aee4aa3e34e	-0.22982576984920872
127	0xbfcd085a28a6c494	-0.22681738839086008
128	0xbfcca5cd7eabb0b9	-0.223809897280608
129	0xbfcc434895bade39	-0.22080333052666548
130	0xbfcbe0cbbab3d31f	-0.21779772392587746
131	0xbfcb7e573e8ee057	-0.21479311518283126
132	0xbfcb1beb76a3cd2d	-0.21178954403840447
133	0xbfcab988bcf61c50	-0.20878705240849849
134	0xbfca572f7087bbbf	-0.20578568453444565
135	0xbfc9f4dff5b27c17	-0.20278548714574704
136	0xbfc9929ab688f70f	-0.19978650963633313
137	0xbfc93060233ff430	-0.19678880425627332
138	0xbfc8ce30b2a08c6e	-0.1937924263193937
139	0xbfc86c0ce2847cfd	-0.19079743442942024
140	0xbfc809f5385d7564	-0.18780389072609716
141	0xbfc7a7ea41c85c51	-0.18481186115306739
142	0xbfc745ec952e1364	-0.18182141575030208
143	0xbfc6e3fcd272fed0	-0.17883262897338748
144	0xbfc6821ba3b6d055	-0.17584558004239406
145	0xbfc62049be26861e	-0.17286035332385635
146	0xbfc5be87e2e28392	-0.16987703874931676
147	0xbfc55cd6dffaea25	-0.16689573227434198
148	0xbfc4fb379184f705	-0.16391653638304873
149	0xbfc499aae2cbec11	-0.16093956064273177
150	0xbfc43831cfa1019e	-0.15796492231494325
151	0xbfc3d6cd65cddcb8	-0.15499274702935906
152	0xbfc3757ec6adc2cf	-0.15202316952811265
153	0xbfc3144728f23b5e	-0.14905633448912686
154	0xbfc2b327da9882aa	-0.14609239743824293
155	0xbfc252224315efed	-0.14313152576130453
156	0xbfc1f137e5c26ed9	-0.14017389982915665
157	0xbfc1906a64891ac0	-0.13721971425021273
158	0xbfc12fbb82e861b7	-0.1342691792676882
159	0xbfc0cf2d294c8eb1	-0.13132252232127464
160	0xbfc06ec168d1604a	-0.12837998979626014
161	0xbfc00e7a7f794c4b	-0.1254418489866985
162	0xbfbf5cb5b9d79f7a	-0.12250839030423136
163	0xbfbe9cca4f9e455e	-0.11957992976956208
164	0xbfbddd3887aaaf26	-0.11665681183029317
165	0xbfbd1e06b13332c6	-0.11373941255733219
166	0xbfbc5f3bb2e015c5	-0.11082814328263797
167	0xbfbba0df1ca37735	-0.10792345475371408
168	0xbfbae2f93c2e66c1	-0.1050258418967145
169	0xbfba2593347f1507	-0.10213584930086848
170	0xbfb968b719213e14	-0.09925407756349386
171	0xbfb8ac700ddfd79d	-0.09638119066934654
172	0xbfb7f0ca6bd8a219	-0.09351792462315024
173	0xbfb735d3ed23fb96	-0.09066509761394878
174	0xbfb67b9be09a95cf	-0.08782362206928628
175	0xbfb5c23367b893a2	-0.08499451906443636
176	0xbfb509adc13de6b5	-0.08217893569772168
177	0xbfb45220a407ae9b	-0.07937816624297016
178	0xbfb39ba4aecee4f6	-0.076593678167132
179	0xbfb2e655f32249a3	-0.07382714448821175
180	0xbfb23254a44835e0	-0.07108048449318671
181	0xbfb17fc5f60639d7	-0.06835591560795905
182	0xbfb0ced53c07ab9f	-0.06565602031302696
183	0xbfb01fb5616543d0	-0.06298383357831416
184	0xbfaee545b32538a7	-0.060342958563169895
185	0xbfad8fcc7409f324	-0.0577377216004378
186	0xbfac3faf80308fbb	-0.05517338218513098
187	0xbfaaf5c84702d6a0	-0.052656420391412384
188	0xbfa9b3267c03b636	-0.0501949335465323
189	0xbfa87922901fca49	-0.04779918679550527
190	0xbfa7497761dc555b	-0.04548237866962764
191	0xbfa62665d3c9f3b0	-0.043261701682218656
192	0xbfa512e5830b17fc	-0.04115979408884127
193	0xbfa412e5d0be6382	-0.03920667813435498
194	0xbfa32ba0cd37622e	-0.03744223122675226
195	0xbfa263fc6d9155b0	-0.035919082999196106
196	0xbfa1c4eb4b8d0a16	-0.03470549866917254
197	0xbfa159ac380f2142	-0.033887273638870244
198	0xbfa12fb6ab681231	-0.03356715051998938
199	0xbfa1562b2d7f895f	-0.03386053972623659
200	0xbfa1dcebbd999855	-0.034888617414978874
201	0xbfa2a5d4f98d2bb6	-0.0364214472416146
202	0xbfa3d20187e3df11	-0.03871159347357723
203	0xbfa56045f1001494	-0.041750131291373865
204	0xbfa74b59aa67a7cf	-0.04549675183427803
205	0xbfa98b6094276fa2	-0.049891489110194046
206	0xbfac1766f27d1eb1	-0.054866044140508115
207	0xbfaee6739754390f	-0.060351955626275815
208	0xbfb0f812c35be085	-0.06628529805664314
209	0xbfb2967ced79169b	-0.07260876462631886
210	0xbfb44b2e1411a778	-0.07927215566601642
211	0xbfb6134d9a6ce76b	-0.08623204250480192
212	0xbfb7ec68f4c19e8a	-0.09345108008857941
213	0xbfb9d4668321bc39	-0.10089722348651343
214	0xbfbbc978ddab6085	-0.1085429707703743
215	0xbfbdca1369f57852	-0.11636468254934698
216	0xbfbfd4e0765a64f9	-0.12434199227790889
217	0xbfc0f45c683d7726	-0.1324573048577175
218	0xbfc2024e57ed9bea	-0.14069537442557528
219	0xbfc313d6e2cba8ce	-0.14904295038224408
220	0xbfc4289521bca03a	-0.15748848101907403
221	0xbfc5403458cf444f	-0.1660218652382661
222	0xbfc65a6a37da19c9	-0.1746342442240361
223	0xbfc776f5623cd21b	-0.18331782624012835
224	0xbfc8959c319fce3a	-0.19206573889788264
225	0xbfc9b62ba9af855a	-0.2008719042342289
226	0xbfcad876949a0fa7	-0.2097309327692731
227	0xbfcbfc54c18b4473	-0.2186380333937766
228	0xbfcd21a25f975664	-0.22758893649613576
229	0xbfce483f707dd30f	-0.23657982819317921
230	0xbfcf700f4f7ad6f9	-0.24560729390002914
231	0xbfd04c7c2481c684	-0.2546682697785416
232	0xbfd0e171a0690934	-0.263760000849419
233	0xbfd176ddb20af01c	-0.2728800047586917
234	0xbfd20cb6f2fbec61	-0.28202604035295137
235	0xbfd2a2f4e276f53a	-0.291196080357469
236	0xbfd3398fcbcbb3fe	-0.3003882875626117
237	0xbfd3d080b007cab2	-0.30960099401924446
238	0xbfd467c1326705cb	-0.3188326828204395
239	0xbfd4ff4b87282664	-0.3280819721117949
240	0xbfd5971a6473094c	-0.3373476010275638
241	0xbfd62f28f5091bcc	-0.34662841729408167
242	0xbfd6c772cc837ac6	-0.35592336627989274
243	0xbfd75ff3dceb1c21	-0.36523148130476285
244	0xbfd7f8a86d7e7c3e	-0.3745518750456006
245	0xbfd8918d127ecc97	-0.3838837319010024
246	0xbfd92a9ea5e3b25b	-0.39322630119457863
247	0xbfd9c3da40d955ab	-0.40257889111429773
248	0xbfda5d3d35f0347d	-0.41194086329853247
249	0xbfdaf6c50be97f05	-0.42131162799158545
250	0xbfdb906f790d781f	-0.43069063970131255
251	0xbfdc2a3a5efc0a69	-0.4400773933013285
252	0xbfdcc423c6e934f3	-0.44947142052553984
253	0xbfdd5e29de398179	-0.45887228681205944
254	0xbfddf84af3736fed	-0.46827958845619727
255	0xbfde9285737cb890	-0.47769295003934875

d f8 [401]
0	0x3fb3a4316f3a4317	0.07672413793103448
1	0x3fb3a4316f3a4317	0.07672413793103448
2	0x3fb3a4316f3a4317	0.07672413793103448
3	0x3fb3a4316f3a4317	0.07672413793103448
4	0x3fb3a4316f3a4317	0.07672413793103448
5	0x3fb3a4316f3a4317	0.07672413793103448
6	0x3fb3a4316f3a4317	0.07672413793103448
7	0x3fb3a4316f3a4317	0.07672413793103448
8	0x3fb3a4316f3a4317	0.07672413793103448
9	0x3fb3a4316f3a4317	0.07672413793103448
10	0x3fb3a4316f3a4317	0.07672413793103448
11	0x3fb3a4316f3a4317	0.07672413793103448
12	0x3fb3a4316f3a4317	0.07672413793103448
13	0x3fb3a4316f3a4317	0.07672413793103448
14	0x3fb3a4316f3a4317	0.07672413793103448
15	0x3fb3a4316f3a4317	0.07672413793103448
16	0x3fb3a4316f3a4317	0.07672413793103448
17	0x3fb3a4316f3a4317	0.07672413793103448
18	0x3fb3a4316f3a4317	0.07672413793103448
19	0x3fb3a4316f3a4317	0.07672413793103448
20	0x3fb3a4316f3a4317	0.07672413793103448
21	0x3fb3a4316f3a4317	0.07672413793103448
22	0x3fb3a4316f3a4317	0.07672413793103448
23	0x3fb3a4316f3a4317	0.07672413793103448
24	0x3fb3a4316f3a4317	0.07672413793103448
25	0x3fb3a4316f3a4317	0.07672413793103448
26	0x3fb3a4316f3a4317	0.07672413793103448
27	0x3fb3a4316f3a4317	0.07672413793103448
28	0x3fb3a4316f3a4317	0.07672413793103448
29	0x3fb3a4316f3a4317	0.07672413793103448
30	0x3fb3a4316f3a4317	0.07672413793103448
31	0x3fb3a4316f3a4317	0.07672413793103448
32	0x3fb3a4316f3a4317	0.07672413793103448
33	0x3fb3a4316f3a4317	0.07672413793103448
34	0x3fb3a4316f3a4317	0.07672413793103448
35	0x3fb3a4316f3a4317	0.07672413793103448
36	0x3fb3a4316f3a4317	0.07672413793103448
37	0x3fb3a4316f3a4317	0.07672413793103448
38	0x3fb3a4316f3a4317	0.07672413793103448
39	0x3fb3a4316f3a4317	0.07672413793103448
40	0x3fb3a4316f3a4317	0.07672413793103448
41	0x3fb3a4316f3a4317	0.07672413793103448
42	0x3fb3a4316f3a4317	0.07672413793103448
43	0x3fb3a4316f3a4317	0.07672413793103448
44	0x3fb3a4316f3a4317	0.07672413793103448
45	0x3fb3a4316f3a4317	0.07672413793103448
46	0x3fb3a4316f3a4317	0.07672413793103448
47	0x3fb3a4316f3a4317	0.07672413793103448
48	0x3fb3a4316f3a4317	0.07672413793103448
49	0x3fb3a4316f3a4317	0.07672413793103448
50	0x3fb3a4316f3a4317	0.07672413793103448
51	0x3fb3a4316f3a4317	0.07672413793103448
52	0x3fb3a4316f3a4317	0.07672413793103448
53	0x3fb3a4316f3a4317	0.07672413793103448
54	0x3fb3a4316f3a4317	0.07672413793103448
55	0x3fb3a4316f3a4317	0.07672413793103448
56	0x3fb3a4316f3a4317	0.07672413793103448
57	0x3fb3a4316f3a4317	0.07672413793103448
58	0x3fb3a4316f3a4317	0.07672413793103448
59	0x3fb3a4316f3a4317	0.07672413793103448
60	0x3fb3a4316f3a4317	0.07672413793103448
61	0x3fb3a4316f3a4317	0.07672413793103448
62	0x3fb3a4316f3a4317	0.07672413793103448
63	0x3fb3a4316f3a4317	0.07672413793103448
64	0x3fb3a4316f3a4317	0.07672413793103448
65	0x3fb3a4316f3a4317	0.07672413793103448
66	0x3fb3a4316f3a4317	0.07672413793103448
67	0x3fb3a4316f3a4317	0.07672413793103448
68	0x3fb3a4316f3a4317	0.07672413793103448
69	0x3fb3a4316f3a4317	0.07672413793103448
70	0x3fb3a4316f3a4317	0.07672413793103448
71	0x3fb3a4316f3a4317	0.07672413793103448
72	0x3fb3a4316f3a4317	0.07672413793103448
73	0x3fb3a4316f3a4317	0.07672413793103448
74	0x3fb3a4316f3a4317	0.07672413793103448
75	0x3fb3a4316f3a4317	0.07672413793103448
76	0x3fb3a4316f3a4317	0.07672413793103448
77	0x3fb3a4316f3a4317	0.07672413793103448
78	0x3fb3a4316f3a4317	0.07672413793103448
79	0x3fb3a4316f3a4317	0.07672413793103448
80	0x3fb3a4316f3a4317	0.07672413793103448
81	0x3fb3a4316f3a4317	0.07672413793103448
82	0x3fb3a4316f3a4317	0.07672413793103448
83	0x3fb3a4316f3a4317	0.07672413793103448
84	0x3fb3a4316f3a4317	0.07672413793103448
85	0x3fb3a4316f3a4317	0.07672413793103448
86	0x3fb3a4316f3a4317	0.07672413793103448
87	0x3fb3a4316f3a4317	0.07672413793103448
88	0x3fb3a4316f3a4317	0.07672413793103448
89	0x3fb3a4316f3a4317	0.07672413793103448
90	0x3fb3a4316f3a4317	0.07672413793103448
91	0x3fb3a4316f3a4317	0.07672413793103448
92	0x3fb3a4316f3a4317	0.07672413793103448
93	0x3fb3a4316f3a4317	0.07672413793103448
94	0x3fb3a4316f3a4317	0.07672413793103448
95	0x3fb3a4316f3a4317	0.07672413793103448
96	0x3fb3a4316f3a4317	0.07672413793103448
97	0x3fb3a4316f3a4317	0.07672413793103448
98	0x3fb3a4316f3a4317	0.07672413793103448
99	0x3fb3a4316f3a4317	0.07672413793103448
100	0x3fb3a4316f3a4317	0.07672413793103448
101	0x3fb3a4316f3a4317	0.07672413793103448
102	0x3fb3a4316f3a4317	0.07672413793103448
103	0x3fb3a4316f3a4317	0.07672413793103448
104	0x3fb3a4316f3a4317	0.07672413793103448
105	0x3fb3a4316f3a4317	0.07672413793103448
106	0x3fb3a4316f3a4317	0.07672413793103448
107	0x3fb3a4316f3a4317	0.07672413793103448
108	0x3fb3a4316f3a4317	0.07672413793103448
109	0x3fb3a4316f3a4317	0.07672413793103448
110	0x3fb3a4316f3a4317	0.07672413793103448
111	0x3fb3a4316f3a4317	0.07672413793103448
112	0x3fb3a4316f3a4317	0.07672413793103448
113	0x3fb3a4316f3a4317	0.07672413793103448
114	0x3fb3a4316f3a4317	0.07672413793103448
115	0x3fb3a4316f3a4317	0.07672413793103448
116	0x3fb3a4316f3a4317	0.07672413793103448
117	0x3fb3a4316f3a4317	0.07672413793103448
118	0x3fb3a4316f3a4317	0.07672413793103448
119	0x3fb3a4316f3a4317	0.07672413793103448
120	0x3fb3a4316f3a4317	0.07672413793103448
121	0x3fb3a4316f3a4317	0.07672413793103448
122	0x3fb3a4316f3a4317	0.07672413793103448
123	0x3fb3a4316f3a4317	0.07672413793103448
124	0x3fb3a4316f3a4317	0.07672413793103448
125	0x3fb3a4316f3a4317	0.07672413793103448
126	0x3fb3a4316f3a4317	0.07672413793103448
127	0x3fb3a4316f3a4317	0.07672413793103448
128	0x3fb3a4316f3a4317	0.07672413793103448
129	0x3fb3a4316f3a4317	0.07672413793103448
130	0x3fb3a4316f3a4317	0.07672413793103448
131	0x3fb3a4316f3a4317	0.07672413793103448
132	0x3fb3a4316f3a4317	0.07672413793103448
133	0x3fb3a4316f3a4317	0.07672413793103448
134	0x3fb3a4316f3a4317	0.07672413793103448
135	0x3fb3a4316f3a4317	0.07672413793103448
136	0x3fb3a4316f3a4317	0.07672413793103448
137	0x3fb3a4316f3a4317	0.07672413793103448
138	0x3fb3a4316f3a4317	0.07672413793103448
139	0x3fb3a4316f3a4317	0.07672413793103448
140	0x3fb3a4316f3a4317	0.07672413793103448
141	0x3fb3a4316f3a4317	0.07672413793103448
142	0x3fb3a4316f3a4317	0.07672413793103448
143	0x3fb3a4316f3a4317	0.07672413793103448
144	0x3fb3a4316f3a4317	0.07672413793103448
145	0x3fb3a4316f3a4317	0.07672413793103448
146	0x3fb3a4316f3a4317	0.07672413793103448
147	0x3fb3a4316f3a4317	0.07672413793103448
148	0x3fb3a4316f3a4317	0.07672413793103448
149	0x3fb3a4316f3a4317	0.07672413793103448
150	0x3fb3a4316f3a4317	0.07672413793103448
151	0x3fb3a4316f3a4317	0.07672413793103448
152	0x3fb3a4316f3a4317	0.07672413793103448
153	0x3fb3a4316f3a4317	0.07672413793103448
154	0x3fb3a4316f3a4317	0.07672413793103448
155	0x3fb3a4316f3a4317	0.07672413793103448
156	0x3fb3a4316f3a4317	0.07672413793103448
157	0x3fb3a4316f3a4317	0.07672413793103448
158	0x3fb3a4316f3a4317	0.07672413793103448
159	0x3fb3a4316f3a4317	0.07672413793103448
160	0x3fb3a4316f3a4317	0.07672413793103448
161	0x3fb3a4316f3a4317	0.07672413793103448
162	0x3fb3a4316f3a4317	0.07672413793103448
163	0x3fb3a4316f3a4317	0.07672413793103448
164	0x3fb3a4316f3a4317	0.07672413793103448
165	0x3fb3a4316f3a4317	0.07672413793103448
166	0x3fb3a4316f3a4317	0.07672413793103448
167	0x3fb3a4316f3a4317	0.07672413793103448
168	0x3fb3a4316f3a4317	0.07672413793103448
169	0x3fb3a4316f3a4317	0.07672413793103448
170	0x3fb3a4316f3a4317	0.07672413793103448
171	0x3fb3a4316f3a4317	0.07672413793103448
172	0x3fb3a4316f3a4317	0.07672413793103448
173	0x3fb3a4316f3a4317	0.07672413793103448
174	0x3fb3a4316f3a4317	0.07672413793103448
175	0x3fb3a4316f3a4317	0.07672413793103448
176	0x3fb3a4316f3a4317	0.07672413793103448
177	0x3fb3a4316f3a4317	0.07672413793103448
178	0x3fb3a4316f3a4317	0.07672413793103448
179	0x3fb3a4316f3a4317	0.07672413793103448
180	0x3fb3a4316f3a4317	0.07672413793103448
181	0x3fb3a4316f3a4317	0.07672413793103448
182	0x3fb3a4316f3a4317	0.07672413793103448
183	0x3fb3a4316f3a4317	0.07672413793103448
184	0x3fb3a4316f3a4317	0.07672413793103448
185	0x3fb3a4316f3a4317	0.07672413793103448
186	0x3fb3a4316f3a4317	0.07672413793103448
187	0x3fb3a4316f3a4317	0.07672413793103448
188	0x3fb3a4316f3a4317	0.07672413793103448
189	0x3fb3a4316f3a4317	0.07672413793103448
190	0x3fb3a4316f3a4317	0.07672413793103448
191	0x3fb3a4316f3a4317	0.07672413793103448
192	0x3fb3a4316f3a4317	0.07672413793103448
193	0x3fb3a4316f3a4317	0.07672413793103448
194	0x3fb3a4316f3a4317	0.07672413793103448
195	0x3fb3a4316f3a4317	0.07672413793103448
196	0x3fb3a4316f3a4317	0.07672413793103448
197	0x3fb3a4316f3a4317	0.07672413793103448
198	0x3fb3a4316f3a4317	0.07672413793103448
199	0x3fb3a4316f3a4317	0.07672413793103448
200	0x3fb3a4316f3a4317	0.07672413793103448
201	0x3fb3a4316f3a4317	0.07672413793103448
202	0x3fb3a4316f3a4317	0.07672413793103448
203	0x3fb3a4316f3a4317	0.07672413793103448
204	0x3fb3a4316f3a4317	0.07672413793103448
205	0x3fb3a4316f3a4317	0.07672413793103448
206	0x3fb3a4316f3a4317	0.07672413793103448
207	0x3fb3a4316f3a4317	0.07672413793103448
208	0x3fb3a4316f3a4317	0.07672413793103448
209	0x3fb3a4316f3a4317	0.07672413793103448
210	0x3fb3a4316f3a4317	0.07672413793103448
211	0x3fb3a4316f3a4317	0.07672413793103448
212	0x3fb3a4316f3a4317	0.07672413793103448
213	0x3fb3a4316f3a4317	0.07672413793103448
214	0x3fb3a4316f3a4317	0.07672413793103448
215	0x3fb3a4316f3a4317	0.07672413793103448
216	0x3fb3a4316f3a4317	0.07672413793103448
217	0x3fb3a4316f3a4317	0.07672413793103448
218	0x3fb3a4316f3a4317	0.07672413793103448
219	0x3fb3a4316f3a4317	0.07672413793103448
220	0x3fb3a4316f3a4317	0.07672413793103448
221	0x3fb3a4316f3a4317	0.07672413793103448
222	0x3fb3a4316f3a4317	0.07672413793103448
223	0x3fb3a4316f3a4317	0.07672413793103448
224	0x3fb3a4316f3a4317	0.07672413793103448
225	0x3fb3a4316f3a4317	0.07672413793103448
226	0x3fb3a4316f3a4317	0.07672413793103448
227	0x3fb3a4316f3a4317	0.07672413793103448
228	0x3fb3a4316f3a4317	0.07672413793103448
229	0x3fb3a4316f3a4317	0.07672413793103448
230	0x3fb3a4316f3a4317	0.07672413793103448
231	0x3fb3a4316f3a4317	0.07672413793103448
232	0x3fb3a4316f3a4317	0.07672413793103448
233	0x3fb3a4316f3a4317	0.07672413793103448
234	0x3fb3a4316f3a4317	0.07672413793103448
235	0x3fb3a4316f3a4317	0.07672413793103448
236	0x3fb3a4316f3a4317	0.07672413793103448
237	0x3fb3a4316f3a4317	0.07672413793103448
238	0x3fb3a4316f3a4317	0.07672413793103448
239	0x3fb3a4316f3a4317	0.07672413793103448
240	0x3fb3a4316f3a4317	0.07672413793103448
241	0x3fb3a4316f3a4317	0.07672413793103448
242	0x3fb3a4316f3a4317	0.07672413793103448
243	0x3fb3a4316f3a4317	0.07672413793103448
244	0x3fb3a4316f3a4317	0.07672413793103448
245	0x3fb3a4316f3a4317	0.07672413793103448
246	0x3fb3a4316f3a4317	0.07672413793103448
247	0x3fb3a4316f3a4317	0.07672413793103448
248	0x3fb3a4316f3a4317	0.07672413793103448
249	0x3fb3a4316f3a4317	0.07672413793103448
250	0x3fb3a4316f3a4317	0.07672413793103448
251	0x3fb3a4316f3a4317	0.07672413793103448
252	0x3fb3a4316f3a4317	0.07672413793103448
253	0x3fb3a4316f3a4317	0.07672413793103448
254	0x3fb3a4316f3a4317	0.07672413793103448
255	0x3fb3a4316f3a4317	0.07672413793103448

zmax f8 []
0	0x4014000000000000	5.0

hz_F f8 [401]
0	0x3fa4e25cd03aca2f	0.040789509218843605
1	0x3fac7908534c21ef	0.05561090485395314
2	0x3fafa5b0dd73a2fe	0.061810996086768086
3	0x3fb07e80eb84af06	0.06443029165228262
4	0x3fb0c76ac8f1719f	0.06554286390150431
5	0x3fb0e67be1a08661	0.06601690538857376
6	0x3fb0f3baf174c7ba	0.0662190284245118
7	0x3fb0f95b8f84001b	0.06630489591407278
8	0x3fb0fbb73b62aa73	0.06634087753142541
9	0x3fb0fcaa6daeb962	0.06635537317081266
10	0x3fb0fd01b84d6d0e	0.06636057614871424
11	0x3fb0fd153906d7fb	0.06636173860792376
12	0x3fb0fd0b033c312c	0.06636113003714134
13	0x3fb0fcf397c6ecb1	0.06635973411077846
14	0x3fb0fcd62312260f	0.06635797840331058
15	0x3fb0fcb5c539c9ac	0.06635604920464883
16	0x3fb0fc93db3e489b	0.06635402777308956
17	0x3fb0fc70fd1ae5db	0.06635194949458116
18	0x3fb0fc4d6c728bbf	0.0663498296512861
19	0x3fb0fc2944ec8480	0.06634767468178104
20	0x3fb0fc049167ae35	0.0663454871170693
21	0x3fb0fbdf554d4d89	0.06634326775138367
22	0x3fb0fbb990addfc2	0.06634101659972116
23	0x3fb0fb934212c279	0.06633873332135377
24	0x3fb0fb6c674ceaff	0.06633641740783601
25	0x3fb0fb44fdd082f0	0.06633406826632515
26	0x3fb0fb1d02dda06a	0.06633168525661551
27	0x3fb0faf4739235b1	0.06632926770745119
28	0x3fb0facb4cf1c5d2	0.06632681492353434
29	0x3fb0faa18be88382	0.06632432618836329
30	0x3fb0fa772d4c6669	0.06632180076521767
31	0x3fb0fa4c2ddd3aa5	0.06631923789721357
32	0x3fb0fa208a4455cd	0.0663166368070371
33	0x3fb0f9f43f13fbd6	0.06631399669639335
34	0x3fb0f9c748c6aa15	0.06631131674536335
35	0x3fb0f999a3be6b55	0.06630859611179336
36	0x3fb0f96b4c43fd60	0.0663058339305187
37	0x3fb0f93c3e85f347	0.06630302931257602
38	0x3fb0f90c7697eefe	0.06630018134449853
39	0x3fb0f8dbf07191de	0.06629728908735141
40	0x3fb0f8aaa7edabe3	0.06629435157599022
41	0x3fb0f87898c927ae	0.06629136781808029
42	0x3fb0f845bea20376	0.06628833679316223
43	0x3fb0f81214f64e7d	0.06628525745173337
44	0x3fb0f7dd9722f8a4	0.06628212871416622
45	0x3fb0f7a84062a5df	0.06627894946964073
46	0x3fb0f7720bcc8ded	0.06627571857512012
47	0x3fb0f73af4531982	0.0662724348540902
48	0x3fb0f702f4c2a829	0.0662690970954435
49	0x3fb0f6ca07c02797	0.06626570405219777
50	0x3fb0f69027c7984b	0.06626225444014826
51	0x3fb0f6554f2aa961	0.06625874693660229
52	0x3fb0f619780f0c16	0.06625518017885698
53	0x3fb0f5dc9c6cd617	0.06625155276272952
54	0x3fb0f59eb60ceaf9	0.06624786324111288
55	0x3fb0f55fbe87074c	0.06624411012219616
56	0x3fb0f51faf4007ce	0.06624029186789857
57	0x3fb0f4de8167e4fc	0.06623640689203464
58	0x3fb0f49c2df7b51c	0.06623245355850255
59	0x3fb0f458adaf7e71	0.06622843017930237
60	0x3fb0f413f91415b7	0.06622433501259804
61	0x3fb0f3ce086cab32	0.06622016626049002
62	0x3fb0f386d3c07dd8	0.06621592206692328
63	0x3fb0f33e52d43214	0.06621160051526714
64	0x3fb0f2f47d273239	0.06620719962592937
65	0x3fb0f2a949f0e8d3	0.06620271735383491
66	0x3fb0f25cb01dc7e7	0.06619815158572316
67	0x3fb0f20ea64c31d3	0.06619350013733731
68	0x3fb0f1bf22c95a6f	0.0661887607505862
69	0x3fb0f16e1b8dc0bd	0.06618393109033867
70	0x3fb0f11b8639c322	0.06617900874131213
71	0x3fb0f0c75811d00e	0.06617399120460751
72	0x3fb0f07185fa8341	0.06616887589417521
73	0x3fb0f01a04749344	0.06616366013311131
74	0x3fb0efc0c7986b76	0.06615834114965743
75	0x3fb0ef65c311b023	0.0661529160731225
76	0x3fb0ef08ea1a7b89	0.06614738192955207
77	0x3fb0eeaa2f7646c8	0.06614173563709891
78	0x3fb0ee49856ca5a6	0.06613597400123314
79	0x3fb0ede6ddc3c19d	0.0661300937097224
80	0x3fb0ed8229ba67c0	0.0661240913272243
81	0x3fb0ed1b5a01e237	0.06611796328969254
82	0x3fb0ecb25eb775fb	0.0661117058984572
83	0x3fb0ec47275d70be	0.0661053153139077
84	0x3fb0ebd9a2d4046c	0.06609878754899662
85	0x3fb0eb69bf517e7b	0.06609211846216027
86	0x3fb0eaf76a5a41d5	0.06608530375002115
87	0x3fb0ea8290b83487	0.06607833893959213
88	0x3fb0ea0b1e71ae12	0.06607121938002816
89	0x3fb0e990febff5f2	0.0660639402339809
90	0x3fb0e9141c0516d8	0.06605649646834466
91	0x3fb0e8945fc12d68	0.0660488828445317
92	0x3fb0e811b28712c8	0.06604109390816426
93	0x3fb0e78bfbf05192	0.06603312397812136
94	0x3fb0e7032290666f	0.06602496713494486
95	0x3fb0e6770be742b1	0.06601661720857056
96	0x3fb0e5e79c52dc82	0.06600806776519799
97	0x3fb0e554b7000ac9	0.06599931209351974
98	0x3fb0e4be3dda492c	0.06599034318995639
99	0x3fb0e424117a783f	0.06598115374296841
100	0x3fb0e3861114a4d8	0.06597173611648388
101	0x3fb0e2e41a646f27	0.06596208233207489
102	0x3fb0e23e09985f15	0.06595218405015786
103	0x3fb0e193b93bca31	0.06594203254989207
104	0x3fb0e0e5021f2b6f	0.0659316187076635
105	0x3fb0e031bb3f1b51	0.06592093297431957
106	0x3fb0df79b9a96874	0.0659099653507001
107	0x3fb0debcd06069c4	0.0658987053615539
108	0x3fb0ddfad03c675c	0.06588714202771712
109	0x3fb0dd3387cad07c	0.06587526383629155
110	0x3fb0dc66c32b20c4	0.06586305870871728
111	0x3fb0db944be967ce	0.06585051396669359
112	0x3fb0dabbe8d5f528	0.06583761629550067
113	0x3fb0d9dd5dda358a	0.06582435170476778
114	0x3fb0d8f86bca6d49	0.06581070548638936
115	0x3fb0d80cd033e8a7	0.06579666216922196
116	0x3fb0d71a4527930c	0.06578220547050878
117	0x3fb0d620810075ee	0.06576731824357981
118	0x3fb0d51f3625c619	0.06575198242151038
119	0x3fb0d41612c85384	0.06573617895658229
120	0x3fb0d304c09a9291	0.06571988775483308
121	0x3fb0d1eae48312d5	0.0657030876055374
122	0x3fb0d0c81e48d34d	0.0656857561051087
123	0x3fb0cf9c0838ab86	0.06566786957470869
124	0x3fb0ce6636c36f5c	0.06564940297124394
125	0x3fb0cd263813ffaf	0.06563032979101878
126	0x3fb0cbdb939c62a7	0.06561062196522958
127	0x3fb0ca85c9993f52	0.06559024974671715
128	0x3fb0c924528ab63e	0.06556918158704492
129	0x3fb0c7b69ea15f72	0.06554738400279606
130	0x3fb0c63c151e9c75	0.06552482143034573
131	0x3fb0c4b413a69b77	0.06550145606762024
132	0x3fb0c31ded82c3f6	0.06547724770167904
133	0x3fb0c178ead2fe14	0.06545215352070272
134	0x3fb0bfc447abdbcd	0.06542612790859366
135	0x3fb0bdff331fc7b6	0.0653991222204969
136	0x3fb0bc28ce30fc9a	0.06537108453720678
137	0x3fb0ba402aa98b48	0.06534195939597709
138	0x3fb0b84449d6fc36	0.06531168749550961
139	0x3fb0b6341b260956	0.06528020537192467
140	0x3fb0b40e7a9b04e5	0.06524744504260445
141	0x3fb0b1d22f2307f1	0.06521333361436611
142	0x3fb0af7de8b9365e	0.06517779285169342
143	0x3fb0ad103e5b1b41	0.06514073870048966
144	0x3fb0aa87abc66fe8	0.06510208076218726
145	0x3fb0a7e28ef9b0d0	0.06506172171220048
146	0x3fb0a51f25703883	0.06501955665609853
147	0x3fb0a23b8911a007	0.06497547241599487
148	0x3fb09f35accac27f	0.06492934673839022
149	0x3fb09c0b58c5eaf4	0.06488104741394435
150	0x3fb098ba2635c4be	0.06483043129789487
151	0x3fb0953f7aa54f41	0.06477734321862007
152	0x3fb0919882bcf4c3	0.0647216147599066
153	0x3fb08dc22c6ac0b4	0.0646630629005383
154	0x3fb089b920591d2f	0.06460148849247525
155	0x3fb08579ba9c963a	0.06453667455624493
156	0x3fb08100027dad7a	0.06446838436902694
157	0x3fb07c47a14005e8	0.06439635931749133
158	0x3fb0774bd7c3a5b9	0.06432031648332427
159	0x3fb0720772d7f0ba	0.0642399459247284
160	0x3fb06c74be121c4e	0.0641549076118377
161	0x3fb0668d74f24965	0.06406482796800146
162	0x3fb0604ab21a9236	0.06396929596173426
163	0x3fb059a4dc52ba27	0.06386785868628718
164	0x3fb0529391095ccc	0.06376001635486545
165	0x3fb04b0d8bf846de	0.0636452166293355
166	0x3fb043088b851024	0.06352284818882531
167	0x3fb03a79316973dd	0.06339223343225293
168	0x3fb03152df1fc29c	0.06325262019505334
169	0x3fb027878d7f9561	0.06310317234563946
170	0x3fb01d079ee62165	0.06294295911187005
171	0x3fb011c1ab34c239	0.06277094297252796
172	0x3fb005a244e0b61d	0.06258596593462369
173	0x3faff1276c848a53	0.06238673400573149
174	0x3fafd4fb6c95a73f	0.06217179966445351
175	0x3fafb68a2798f975	0.061939542134939275
176	0x3faf9596ad2243bb	0.061688145288946804
177	0x3faf71dcab573300	0.06141557303963019
178	0x3faf4b0f858205e4	0.06111954216704499
179	0x3faf20d95529e4a8	0.0607974926433113
180	0x3faef2d9d809704d	0.06044655573052236
181	0x3faec0a54ff40777	0.06006352044097601
182	0x3fae89c35dd21a53	0.059644799425815485
183	0x3fae4dade6e5ae2d	0.05918639606064988
184	0x3fae0bd01c463866	0.0586838755144619
185	0x3fadc385c8f4d753	0.058132344036876525
186	0x3fad741b1c4bd461	0.05752644272244179
187	0x3fad1ccd3e407ece	0.05686036477004351
188	0x3facbccc1a357102	0.05612790889674281
189	0x3fac533df45362c4	0.0553225861310174
190	0x3fabdf458a52ebfc	0.05443780244373639
191	0x3fab600bab0c4dca	0.053467144613161446
192	0x3faad4cd42e67680	0.05240479890492811
193	0x3faa3ceea8a2d564	0.05124612625642547
194	0x3fa99814265df0ae	0.04998839348169902
195	0x3fa8e63dbc3142a0	0.04863160059233462
196	0x3fa827e02d775d21	0.04717922739990344
197	0x3fa75def0ced9726	0.04563853295148439
198	0x3fa689c379d341bd	0.04401980268596926
199	0x3fa5acc4edac73bc	0.04233374978341639
200	0x3fa4c7b9785a2844	0.04058627695219788
201	0x3fa40e71598187c7	0.03917268960573455
202	0x3fa35d53488f8d8c	0.03782139073134791
203	0x3fa2b67a49769442	0.03654844424026084
204	0x3fa21b25d72fb5df	0.03536337138926248
205	0x3fa18bd1b3e4ff97	0.0342698604677018
206	0x3fa10863278c6f77	0.033267115190226564
207	0x3fa090599e73a74b	0.03235130366540647
208	0x3fa022f845e9ba6b	0.03151679852895913
209	0x3f9f7eca5a99d7f8	0.03075710466369938
210	0x3f9ec97cdb17a673	0.030065489647233833
211	0x3f9e244ec92b1ad3	0.029435378101676356
212	0x3f9d8da0842963bf	0.028860576693066294
213	0x3f9d03f38c0c4d38	0.028335385725836576
214	0x3f9c85ed2bf8ae5c	0.02785463887100402
215	0x3f9c12563ff9d660	0.027413699774533007
216	0x3f9ba8195bdef8e9	0.027008434517250022
217	0x3f9b4640227121eb	0.026635171987693978
218	0x3f9aebf04c2b31b9	0.02629065956971186
219	0x3f9a9868a85bc5c0	0.025972018504892835
220	0x3f9a4afe42588d3d	0.025676701354439436
221	0x3f9a0319bfc04b6f	0.0254024527822127
222	0x3f99c0350047aac3	0.025147274152838472
223	0x3f9981d9003be4c1	0.02490939201286291
224	0x3f99479bfad77bfe	0.024687230286755117
225	0x3f99111fc776bd26	0.024479385899835247
226	0x3f98de106bdebd73	0.02428460749041279
227	0x3f98ae22dda4968f	0.02410177686501541
228	0x3f988113ecffadbe	0.023929892864470885
229	0x3f9856a753c3185c	0.02376805733435848
230	0x3f982ea6e3c09740	0.02361546292390604
231	0x3f9808e1d06166fc	0.0234713824687338
232	0x3f97e52c0fc752be	0.02333515974335642
233	0x3f97c35dd041d93c	0.023206201396953605
234	0x3f97a352ff531cf7	0.023083969911366044
235	0x3f9784eadfe0b69e	0.022967977442184144
236	0x3f976807ad82c8af	0.022857780423415516
237	0x3f974c8e4b2cfd61	0.022752974832881082
238	0x3f973265fbad68e3	0.022653192030113522
239	0x3f97197822b3f355	0.022558095090960368
240	0x3f9701b00d438d39	0.0224673755736948
241	0x3f96eafac096fad4	0.02238075066065444
242	0x3f96d546cea5502e	0.022297960627227713
243	0x3f96c0842f8f3c6a	0.022218766596605745
244	0x3f96aca41f57b664	0.022142948544504285
245	0x3f969998ff5fb696	0.02207030352285829
246	0x3f9687563b2f49bd	0.022000644075726095
247	0x3f9675d03025c1ce	0.02193379682415913
248	0x3f9664fc17b86d00	0.02186960119989312
249	0x3f9654cff3f2bb87	0.021807908310332216
250	0x3f9645427df4c64f	0.021748579919579843
251	0x3f96364b16356833	0.02169148753214518
252	0x3f9627e1b6551d27	0.021636511567774932
253	0x3f9619fee45470ac	0.021583540617130012
254	0x3f960c9ba70715f8	0.021532470769463047
255	0x3f95ffb17ba0ead4	0.021483205004396336

Vz_F f8 [401]
0	0x3fe1f1a12ec9cac0	0.5607458032448775
1	0x3fe9482612f4f580	0.7900572176219356
2	0x3fec59f8b28d8d00	0.8859828460084884
3	0x3feda5f366eb8580	0.9265076646953929
4	0x3fee32f65cfe1480	0.9437209907779476
5	0x3fee6f0b4d3ab480	0.9510551937470524
6	0x3fee88a9774c0b40	0.9541823701878016
7	0x3fee938b8e82ee40	0.9555108817507474
8	0x3fee981b07d14c40	0.9560675766646298
9	0x3fee99f15c9fb680	0.9562918480930449
10	0x3fee9a9a2e00d440	0.9563723467350727
11	0x3fee9abfe5b65680	0.9563903318946387
12	0x3fee9aac26c11c00	0.9563809163017822
13	0x3fee9a7edbcd63c0	0.9563593190206277
14	0x3fee9a45e4689380	0.9563321553329018
15	0x3fee9a074bf2db80	0.9563023074505139
16	0x3fee99c5b5607380	0.9562710325732127
17	0x3fee9982469e4a00	0.9562388781799314
18	0x3fee993d7e9c7840	0.9562060807109063
19	0x3fee98f792d60740	0.956172739781529
20	0x3fee98b09850e880	0.9561388945505911
21	0x3fee986895a5f8c0	0.9561045573061833
22	0x3fee981f8af51bc0	0.9560697282803332
23	0x3fee97d57569cac0	0.9560344022014178
24	0x3fee978a50cadc40	0.9559985712029473
25	0x3fee973e182bb040	0.9559622261126677
26	0x3fee96f0c63af040	0.9559253570255422
27	0x3fee96a255653f40	0.955887953556136
28	0x3fee9652bfe420c0	0.9558500049470453
29	0x3fee9601ffc401c0	0.9558115001128087
30	0x3fee95b00ee65100	0.9557724276551482
31	0x3fee955ce7019d00	0.9557327758638223
32	0x3fee950881a10300	0.9556925327125043
33	0x3fee94b2d8230300	0.9556516858502562
34	0x3fee945be3b821c0	0.9556102225915808
35	0x3fee94039d619c40	0.9555681299069718
36	0x3fee93a9fdefc140	0.9555253944109054
37	0x3fee934efe004480	0.9554820023496546
38	0x3fee92f295fcbf00	0.9554379395903823
39	0x3fee9294be18a200	0.9553931916062197
40	0x3fee92356e4fa340	0.9553477434647917
41	0x3fee91d49e63a740	0.955301579813046
42	0x3fee917245dac480	0.9552546848627941
43	0x3fee910e5bfd4f80	0.9552070423765002
44	0x3fee90a8d7d38e00	0.9551586356505481
45	0x3fee9041b02371c0	0.955109447498721
46	0x3fee8fd8db6e6b00	0.955059460236356
47	0x3fee8f6e4feeba40	0.9550086556608406
48	0x3fee8f02039510c0	0.9549570150343456
49	0x3fee8e93ec05d700	0.9549045190640015
50	0x3fee8e23fe964f00	0.954851147881044
51	0x3fee8db23049e380	0.9547968810212382
52	0x3fee8d3e75ceeb40	0.9547416974013245
53	0x3fee8cc8c37b8900	0.9546855752962813
54	0x3fee8c510d4a9940	0.9546284923169779
55	0x3fee8bd746d7e980	0.9545704253826415
56	0x3fee8b5b635ce3c0	0.9545113506966274
57	0x3fee8add55aca7c0	0.954451243718033
58	0x3fee8a5d103030c0	0.9543900791336668
59	0x3fee89da84e21ec0	0.9543278308273884
60	0x3fee8955a54a9780	0.9542644718501236
61	0x3fee88ce627a8a00	0.9541999743854035
62	0x3fee8844ad073bc0	0.9541343097169985
63	0x3fee87b875052340	0.9540674481914735
64	0x3fee8729aa02d540	0.9539993591812745
65	0x3fee86983b03a840	0.9539300110457205
66	0x3fee86041679f540	0.9538593710891874
67	0x3fee856d2a411dc0	0.9537874055176232
68	0x3fee84d3639782c0	0.9537140793946364
69	0x3fee8436af17b3c0	0.9536393565918999
70	0x3fee8396f8b1d100	0.9535631997410121
71	0x3fee82f42ba42d40	0.9534855701798861
72	0x3fee824e3273ca00	0.9534064278980736
73	0x3fee81a4f6e47740	0.9533257314794596
74	0x3fee80f861f05200	0.9532434380403743
75	0x3fee80485bbf1840	0.9531595031664963
76	0x3fee7f94cb9cf380	0.9530738808458494
77	0x3fee7edd97f0a0c0	0.952986523397179
78	0x3fee7e22a6314100	0.952897381395843
79	0x3fee7d63dadbacc0	0.9528064035961492
80	0x3fee7ca11966f440	0.9527135368476891
81	0x3fee7bda44387a80	0.9526187260087937
82	0x3fee7b0f3c975ec0	0.9525219138549446
83	0x3fee7a3fe29f0dc0	0.9524230409810386
84	0x3fee796c15317180	0.9523220457008819
85	0x3fee7893b1e7e380	0.9522188639376594
86	0x3fee77b69503a840	0.95211342911103
87	0x3fee76d4995d5b80	0.9520056720165115
88	0x3fee75ed98536640	0.9518955206978674
89	0x3fee750169b79c80	0.9517829003133471
90	0x3fee740fe3bb8fc0	0.9516677329925116
91	0x3fee7318dadbe140	0.9515499376857761
92	0x3fee721c21ca56c0	0.9514294300049286
93	0x3fee711989569000	0.9513061220536656
94	0x3fee7010e0555f80	0.9511799222482153
95	0x3fee6f01f386b3c0	0.9510507351275166
96	0x3fee6dec8d79abc0	0.9509184611500743
97	0x3fee6cd0766f4ec0	0.9507829964809034
98	0x3fee6bad743b26c0	0.9506442327630893
99	0x3fee6a834a21e480	0.9505020568750666
100	0x3fee6951b8b62240	0.9503563506742196
101	0x3fee68187db27d40	0.9502069907211208
102	0x3fee66d753d19c00	0.95005384798867
103	0x3fee658df2a36fc0	0.94989678755109
104	0x3fee643c0e5f7400	0.9497356682510372
105	0x3fee62e157b44600	0.9495703423473856
106	0x3fee617d7b939cc0	0.9494006551366496
107	0x3fee601022fad240	0.9492264445494314
108	0x3fee5e98f2b7ba80	0.9490475407199739
109	0x3fee5d178b2939c0	0.94886376552477
110	0x3fee5b8b87fb6080	0.9486749320885934
111	0x3fee59f47fdef440	0.9484808442572401
112	0x3fee5852043b7140	0.9482812960300535
113	0x3fee56a3a0db9e40	0.9480760709529434
114	0x3fee54e8db940fc0	0.9478649414672802
115	0x3fee532133e2d2c0	0.9476476682089796
116	0x3fee514c22882240	0.9474239992569622
117	0x3fee4f6919173140	0.9471936693239869
118	0x3fee4d77817e5cc0	0.9469563988849572
119	0x3fee4b76bd8670c0	0.946711893240284
120	0x3fee496626477b80	0.9464598415032555
121	0x3fee47450b92da00	0.9461999155089984
122	0x3fee4512b3516700	0.9459317686371094
123	0x3fee42ce58d44900	0.9456550345369408
124	0x3fee40772c17b040	0.9453693257505691
125	0x3fee3e0c50f5f740	0.9450742322221473
126	0x3fee3b8cde496a00	0.9447693196810292
127	0x3fee38f7dcfb7680	0.9444541278896423
128	0x3fee364c46ff4b00	0.9441281687416847
129	0x3fee338906358780	0.9437909241935216
130	0x3fee30acf3376d80	0.943441844017272
131	0x3fee2db6d4066400	0.9430803433525625
132	0x3fee2aa55a9d5600	0.9427058000389366
133	0x3fee27772360e840	0.9423175517069993
134	0x3fee242ab36ab600	0.9419148926005505
135	0x3fee20be76abfb80	0.941497070103523
136	0x3fee1d30bde35ac0	0.9410632809402486
137	0x3fee197fbc607340	0.9406126670106474
138	0x3fee15a985909180	0.9401443108259144
139	0x3fee11ac0a4daa40	0.93965723049525
140	0x3fee0d8515e90500	0.9391503742155294
141	0x3fee09324aea0d00	0.9386226142090948
142	0x3fee04b11f7833c0	0.9380727400435873
143	0x3fedfffed9663f00	0.9374994512636192
144	0x3fedfb1889d40700	0.9369013492543843
145	0x3fedf5fb0859db40	0.9362769282441619
146	0x3fedf0a2edaf78c0	0.9356245653432538
147	0x3fedeb0c8dbe9cc0	0.9349425095032515
148	0x3fede533f10e9200	0.9342288692610623
149	0x3feddf14cd747780	0.9334815991203271
150	0x3fedd8aa7df04380	0.9326984843956865
151	0x3fedd1eff99bec80	0.9318771243264479
152	0x3fedcadfc98e0440	0.9310149132362611
153	0x3fedc373fd8cee00	0.9301090194853145
154	0x3fedbba61f6adbc0	0.9291563619252585
155	0x3fedb36f24dd1d00	0.9281535835260968
156	0x3fedaac75f9a9c20	0.9270970217957064
157	0x3feda1a66b862100	0.9259826755597089
158	0x3fed98031aa02940	0.9248061676055741
159	0x3fed8dd35e724520	0.9235627026229487
160	0x3fed830c2e9a8960	0.9222470197894772
161	0x3fed77a16c10ebc0	0.9208533392587626
162	0x3fed6b85c0b12820	0.9193753016963946
163	0x3fed5eaa7a831ee0	0.9178058998886307
164	0x3fed50ff6228a080	0.9161374013101664
165	0x3fed42728bc1f360	0.9143612603798879
166	0x3fed32f021820da0	0.9124680189565204
167	0x3fed226227113000	0.9104471934347202
168	0x3fed10b034bf4980	0.9082871465891884
169	0x3fecfdbf296836e0	0.9059749420864271
170	0x3fece970d1cb7c60	0.9034961793476093
171	0x3fecd3a383f8a040	0.9008348062097937
172	0x3fecbc31ad5320c0	0.8979729066131981
173	0x3feca2f1519851a0	0.8948904603626495
174	0x3fec87b379446e40	0.89156507191678
175	0x3fec6a438dba32c0	0.8879716652023362
176	0x3fec4a66a1b5a540	0.8840821417226508
177	0x3fec27daa4e942c0	0.879864999858988
178	0x3fec02558245f560	0.8752849144363317
179	0x3febd984297e4bc0	0.8703022776047575
180	0x3febad098609a3a0	0.864872705261508
181	0x3feb7c7d688cf640	0.8589465181355038
182	0x3feb476b6b843580	0.8524682140284057
183	0x3feb0d51e1dced20	0.8453759585749232
184	0x3feacda0e6a6fb20	0.8376011376311432
185	0x3fea87b9b108dce0	0.8290680368144443
186	0x3fea3aee607401a0	0.8196937450266439
187	0x3fe9e6828c015540	0.8093884214855862
188	0x3fe989acfe1cd060	0.798056122125228
189	0x3fe9239b2b936040	0.7855964518630643
190	0x3fe8b377208eb3a0	0.7719073902022622
191	0x3fe83870c70e9880	0.7568897140343012
192	0x3fe7b1cb7c951120	0.7404534753082181
193	0x3fe71ef0bbca7920	0.7225269000807977
194	0x3fe67f87d614d040	0.7030677014613573
195	0x3fe5d390cb8cb960	0.6820758796291493
196	0x3fe51b7c847a36a0	0.6596052730034963
197	0x3fe4583688867b00	0.6357681910047575
198	0x3fe38b0c9167be20	0.6107237663217724
199	0x3fe2b55a39c41160	0.5846377495040933
200	0x3fe1d7df07246880	0.5576014651771999
201	0x3fe124b53613e220	0.5357309395031429
202	0x3fe079706e5c36a0	0.5148241191361258
203	0x3fdfb033ce985680	0.49512953925418657
204	0x3fde83cd1e2f7280	0.4767945093897552
205	0x3fdd6e9c236705c0	0.4598760934569235
206	0x3fdc706d31e96bc0	0.4443619716091085
207	0x3fdb8847a0346800	0.430192858171381
208	0x3fdab4be41615340	0.41728168854506364
209	0x3fd9f42b98f1ab40	0.4055279725641192
210	0x3fd944dac427f900	0.39482754855988844
211	0x3fd8a521112fe140	0.3850786846010301
212	0x3fd8136c98eedc40	0.3761855596052932
213	0x3fd78e4b7ce2bf40	0.3680599898898329
214	0x3fd7146e7b1e5900	0.360622043831782
215	0x3fd6a4a8b5f17200	0.353799989394048
216	0x3fd63dedea65eec0	0.34752986803480823
217	0x3fd5df4fddf0e840	0.3417548816102034
218	0x3fd587fb7e4e4000	0.33642470678842074
219	0x3fd53735fbf55a00	0.3314948044329924
220	0x3fd4ec5a076e5ac0	0.32692576146784447
221	0x3fd4a6d545d3bb40	0.3226826841263808
222	0x3fd4662604b49c00	0.31873465022584924
223	0x3fd429d92e78fb00	0.31505422151887785
224	0x3fd3f1887c7c77c0	0.3116170135198182
225	0x3fd3bcd8e2172b00	0.3084013183512724
226	0x3fd38b792af854c0	0.30538777538579254
227	0x3fd35d20c712e500	0.3025590843277115
228	0x3fd3318ebe96ed80	0.2998997555948435
229	0x3fd30888c8e09180	0.29739589325824767
230	0x3fd2e1da81c6ffc0	0.2950350062710605
231	0x3fd2bd54b93b3ac0	0.2928058442020465
232	0x3fd29accd9a834c0	0.2906982541615655
233	0x3fd27a1c61fb2480	0.28870305603465596
234	0x3fd25b2070a72f80	0.2868119335296271
235	0x3fd23db95d54b580	0.2850173388895527
236	0x3fd221ca5f3ff7c0	0.2833124094175865
237	0x3fd207393e91b500	0.2816908942248375
238	0x3fd1edee0f3a8480	0.2801470898358005
239	0x3fd1d5d2f40e9580	0.27867578347862576
240	0x3fd1bed3e90c8e00	0.277272203051524
241	0x3fd1a8de93e17680	0.27593197289920823
242	0x3fd193e219dccbc0	0.2746510746539421
243	0x3fd17fcefaa3df40	0.2734258124978517
244	0x3fd16c96ef0c4b40	0.2722527822926857
245	0x3fd15a2ccb99a6c0	0.27112884409744353
246	0x3fd14884662ca800	0.2700510976598025
247	0x3fd137927e80db40	0.26901686052172025
248	0x3fd1274ca9234280	0.2680236484275511
249	0x3fd117a93c975280	0.26706915776347984
250	0x3fd1089f40697640	0.26615124979239013
251	0x3fd0fa265df63b80	0.26526793647729363
252	0x3fd0ec36d2b50940	0.26441736771461777
253	0x3fd0dec963daa7c0	0.26359781981829755
254	0x3fd0d1d7532dfd40	0.2628076851178385
255	0x3fd0c55a54ed6640	0.26204546254811945
