onecap_model_with_structure_ambiguity/output/upper_triangular_two_ambiguous_parameters/Delta_10.0_distorted_0/logadjustment_1_boundary_0/zmax_5.0_zscale_2.0/delta_0.02/q_0.3_gamma_10.0_rho_1.0/model.npz (npz, 126264 bytes, 58 tensors)

clowerlim f8 []
00000000: 2d43 1ceb e236 1a3f
0.0001

zmin f8 []
00000000: 0000 0000 0000 14c0
-5.0

Delta f8 []
00000000: 0000 0000 0000 2440
10.0

s1_F f8 [401]
00000000: 6c4c 9ce3 7f83 f3bf 6776 1820 856a f3bf
00000010: 30d6 705d 8a51 f3bf 76d3 309b 8f38 f3bf
00000020: 4d2c ecd8 941f f3bf aca4 4616 9a06 f3bf
00000030: b0be f952 9fed f2bf a8e1 d58e a4d4 f2bf
00000040: 4547 bec9 a9bb f2bf d5ed a103 afa2 f2bf
00000050: 19da 763c b489 f2bf 98a7 3674 b970 f2bf
00000060: 05dd dbaa be57 f2bf aff1 61e0 c33e f2bf
00000070: 74f0 c314 c925 f2bf 8f18 fd47 ce0c f2bf
00000080: 9e71 087a d3f3 f1bf 0ff8 e0aa d8da f1bf
00000090: 5251 81da ddc1 f1bf 3253 e408 e3a8 f1bf
000000a0: 9184 0436 e88f f1bf 1d44 dc61 ed76 f1bf
000000b0: c5f0 658c f25d f1bf 82c6 9bb5 f744 f1bf
000000c0: 38e9 77dd fc2b f1bf 2718 f403 0213 f1bf
000000d0: 9960 0a29 07fa f0bf 982e b44c 0ce1 f0bf
000000e0: c84c eb6e 11c8 f0bf aa1b a98f 16af f0bf
000000f0: 0fbf e6ae 1b96 f0bf 8063 9dcc 207d f0bf
00000100: a1f7 c5e8 2564 f0bf 4357 5903 2b4b f0bf
00000110: 5f17 501c 3032 f0bf 84b9 a233 3519 f0bf
00000120: e78b 4949 3a00 f0bf 2e53 79ba 7ece efbf
00000130: 001d e8de 889c efbf c8ee ceff 926a efbf
00000140: 6209 1d1d 9d38 efbf cd16 c136 a706 efbf
00000150: 5697 a94c b1d4 eebf d56c c45e bba2 eebf
00000160: 8f2a ff6c c570 eebf cfd0 4677 cf3e eebf
00000170: 515f 887d d90c eebf a1a6 af7f e3da edbf
00000180: abc5 a87d eda8 edbf 07c0 5e77 f776 edbf
00000190: 3f6f bc6c 0145 edbf f82c ac5d 0b13 edbf
000001a0: ffb8 174a 15e1 ecbf d127 e831 1faf ecbf
000001b0: ce33 0615 297d ecbf f709 5af3 324b ecbf
000001c0: 8b2e cbcc 3c19 ecbf 5e78 40a1 46e7 ebbf
000001d0: 3316 a070 50b5 ebbf cce7 cf3a 5a83 ebbf
000001e0: b7d0 b4ff 6351 ebbf 5719 33bf 6d1f ebbf
000001f0: 9b9b 2e79 77ed eabf 18fa 892d 81bb eabf
00000200: 8a9a 27dc 8a89 eabf 52d1 e884 9457 eabf
00000210: 3256 ae27 9e25 eabf 5ec8 57c4 a7f3 e9bf
00000220: 3777 c45a b1c1 e9bf 6d59 d2ea ba8f e9bf
00000230: 52b1 5e74 c45d e9bf 63f9 45f7 cd2b e9bf
00000240: f876 6373 d7f9 e8bf 85b2 91e8 e0c7 e8bf
00000250: 4807 aa56 ea95 e8bf 0df2 84bd f363 e8bf
00000260: 8ac2 f91c fd31 e8bf 42a2 de74 0600 e8bf
00000270: 35a4 08c5 0fce e7bf 74a9 4b0d 199c e7bf
00000280: 2188 7a4d 226a e7bf 9b62 6685 2b38 e7bf
00000290: 6153 dfb4 3406 e7bf 7744 b4db 3dd4 e6bf
000002a0: cd32 b2f9 46a2 e6bf 5723 a50e 5070 e6bf
000002b0: 0429 571a 593e e6bf 2c29 911c 620c e6bf
000002c0: 7f0a 1a15 6bda e5bf 7d0e b703 74a8 e5bf
000002d0: edd8 2be8 7c76 e5bf d1e0 39c2 8544 e5bf
000002e0: c3dd a091 8e12 e5bf ae73 1e56 97e0 e4bf
000002f0: c90c 6e0f a0ae e4bf 6bf1 48bd a87c e4bf
00000300: 2ee5 655f b14a e4bf b45c 79f5 b918 e4bf
00000310: e61d 357f c2e6 e3bf f422 48fc cab4 e3bf
00000320: 7aa1 5e6c d382 e3bf 159d 21cf db50 e3bf
00000330: 2df4 3624 e41e e3bf d604 416b ecec e2bf
00000340: 5ba9 dea3 f4ba e2bf 12bc aacd fc88 e2bf
00000350: bfe3 3be8 0457 e2bf 56c3 24f3 0c25 e2bf
00000360: 15b0 f2ed 14f3 e1bf 8f6e 2ed8 1cc1 e1bf
00000370: 3d18 5bb1 248f e1bf e209 f678 2c5d e1bf
00000380: ac4f 762e 342b e1bf 76fe 4bd1 3bf9 e0bf
00000390: 122c e060 43c7 e0bf 9290 93dc 4a95 e0bf
000003a0: b571 be43 5263 e0bf 538b af95 5931 e0bf
000003b0: ce4f 56a3 c1fe dfbf 303e d5ed cf9a dfbf
000003c0: 11fd 3409 de36 dfbf 8625 b4f3 ebd2 debf
000003d0: 1fdc 72ab f96e debf e6f1 702e 070b debf
000003e0: e64c 897a 14a7 ddbf b914 6f8d 2143 ddbf
000003f0: 2e82 a864 2edf dcbf bbd6 8afd 3a7b dcbf
00000400: 5b19 3455 4717 dcbf 9665 8568 53b3 dbbf
00000410: 06f2 1b34 5f4f dbbf 2aee 48b4 6aeb dabf
00000420: 7eac 08e5 7587 dabf f72b f9c1 8023 dabf
00000430: 01f7 4d46 8bbf d9bf 07d6 c36c 955b d9bf
00000440: eaad 922f 9ff7 d8bf 407c 5c88 a893 d8bf
00000450: 998e 1b70 b12f d8bf 8b93 0ddf b9cb d7bf
00000460: bd32 9ccc c167 d7bf f4b9 422f c903 d7bf
00000470: 8202 70fc cf9f d6bf b6a9 6528 d63b d6bf
00000480: eeaf 11a6 dbd7 d5bf 0183 e466 e073 d5bf
00000490: d79f a15a e40f d5bf 1b52 2a6f e7ab d4bf
000004a0: 1bc1 4290 e947 d4bf 38c0 4fa7 eae3 d3bf
000004b0: 7729 0e9b ea7f d3bf 4afb 414f e91b d3bf
000004c0: 50f4 5da4 e6b7 d2bf c76f 2377 e253 d2bf
000004d0: 95b0 39a0 dcef d1bf 3a39 bef3 d48b d1bf
000004e0: 7a3d cf40 cb27 d1bf 339e 1051 bfc3 d0bf
000004f0: 0331 30e8 b05f d0bf 369d d786 3ff7 cfbf
00000500: 9e1b 4032 172f cfbf bf09 cf30 e866 cebf
00000510: 5638 add1 b19e cdbf 2b6d c354 73d6 ccbf
00000520: 3b17 09eb 2b0e ccbf 8c86 85b7 da45 cbbf
00000530: 2acc 4dd1 7e7d cabf 03ee d646 17b5 c9bf
00000540: da86 0e23 a3ec c8bf 0b48 cb74 2124 c8bf
00000550: 8130 4659 915b c7bf cb75 790a f292 c6bf
00000560: e299 6cf2 42ca c5bf 88e5 a5c4 8301 c5bf
00000570: 231f 2a9f b438 c4bf 8937 9734 d66f c3bf
00000580: ba42 0101 eaa6 c2bf 5570 278b f2dd c1bf
00000590: 8697 4eb3 f314 c1bf 26bf 6110 f34b c0bf
000005a0: 45c4 6cb5 f005 bfbf 6c0f 58c3 1b74 bdbf
000005b0: 18dd fd0b 82e2 bbbf 0909 235b 4551 babf
000005c0: 60b3 723c 8fc0 b8bf f8ff d546 9130 b7bf
000005d0: 6ec9 3ead 84a1 b5bf 3d83 b7aa a813 b4bf
000005e0: 519e ae4b 3f87 b2bf 31ba 891a 88fc b0bf
000005f0: 3746 61ea 70e7 aebf 614b a715 e4d9 abbf
00000600: 5b5d f81e 73d0 a8bf 93af 81c3 e4ca a5bf
00000610: fe30 be31 cec8 a2bf 698a ff5f 9993 9fbf
00000620: 69bc fde2 969b 99bf d001 ae1e eda8 93bf
00000630: f315 5fda b161 8bbf e918 5485 e7d9 7dbf
00000640: 0000 0000 0000 0080 f716 7d35 ffe2 83bf
00000650: cdc0 71d9 7411 96bf 0926 fdd2 b032 a2bf
00000660: 8ef1 cdbf 1f72 aabf 9ccd e834 bade b1bf
00000670: 0489 0979 1704 b7bf 9b2c be0b 62a2 bcbf
00000680: 1f64 df70 8e59 c1bf 7a33 0145 6698 c4bf
00000690: 3683 732d da0b c8bf 188c 2b2b 5db3 cbbf
000006a0: 1e18 d545 4b90 cfbf 41ba 44e7 57d3 d1bf
000006b0: 3c36 7137 0fff d3bf 6ca6 41ab 1451 d6bf
000006c0: 9c9d 82a8 acd0 d8bf ecd4 4107 5c84 dbbf
000006d0: 09af f00b cf6c debf 17c9 f442 3ebe e0bf
000006e0: 1be1 ddf3 1547 e2bf 9bb8 cab5 59b0 e3bf
000006f0: 8277 f741 75d0 e4bf 2cc9 e806 5f83 e5bf
00000700: c43d bf5f 01c0 e5bf 88a5 1665 ddae e5bf
00000710: 8f0a 1081 5cc4 e5bf a8a7 0340 050e e7bf
00000720: 0506 8205 63de ecbf fad3 162b 212b f8bf
00000730: 8b6e 9ce4 f16f e3bf 046b bf18 ac19 dabf
00000740: bcde 6183 2990 d8bf ffe2 995d 3e8f d9bf
00000750: ff34 8c2d e53b dbbf 05fe 0a80 e4ff dcbf
00000760: 0bcd a7c1 06be debf 6781 dd78 a12f e0bf
00000770: 38e4 197e 8ab5 e0bf d639 bcf1 8749 e0bf
00000780: ec47 67fc ed9f dbbf 006e 82ac ef97 d2bf
00000790: 8714 b026 506b c4bf 4320 7d37 1ec9 b5bf
000007a0: 5075 1d40 3379 adbf d049 6a43 2f4b b4bf
000007b0: 1aa4 df12 6eff d1bf 2a62 d823 ced8 dfbf
000007c0: 4018 a6aa e82d e8bf bbc2 f399 266e f0bf
000007d0: 52f8 8d29 4d03 f4bf 9808 f5a0 dfdb f4bf
000007e0: cd47 53ba 8dc5 f0bf 62ad 2041 87e0 e3bf
000007f0: 4c2a 50d1 ccb3 d4bf be19 c904 e640 c7bf
-1.2196043864285242 -1.213505864499348 -1.2074073457746515 -1.2013088285577544 -1.1952103112733028 -1.1891117925791077 -1.1830132714493793 -1.176914747191498
-1.1708162193867377 -1.1647176877876195 -1.1586191522488944 -1.1525206126775398 -1.1464220689939009 -1.140323521132 -1.1342249690196953 -1.1281264125878214
-1.1220278517640518 -1.115929286475424 -1.1098307166440304 -1.1037321421947124 -1.0976335630478256 -1.0915349791214404 -1.0854363903336417 -1.079337796600527
-1.0732391978368252 -1.067140593951544 -1.0610419848581272 -1.0549433704608528 -1.0488447506693763 -1.0427461253873198 -1.0366474945148558 -1.0305488579526525
-1.0244502155978596 -1.018351567346557 -1.0122529130907976 -1.0061542527215304 -1.0000555861267857 -0.9939569131916863 -0.9878582337995852 -0.9817595478302445
-0.9756608551618167 -0.9695621556681658 -0.9634634492219714 -0.9573647356914089 -0.9512660149424209 -0.9451672868367725 -0.939068551236213 -0.9329698079938745
-0.9268710569651167 -0.9207722979972467 -0.9146735309363762 -0.9085747556249819 -0.9024759719011682 -0.8963771795981704 -0.8902783785466626 -0.8841795685733008
-0.8780807494999449 -0.8719819211435256 -0.8658830833161971 -0.8597842358278682 -0.8536853784812796 -0.8475865110747617 -0.8414876334035059 -0.8353887452538542
-0.8292898464104195 -0.8231909366500452 -0.8170920157451234 -0.8109930834600723 -0.8048941395570414 -0.7987951837883834 -0.7926962159013249 -0.7865972356374126
-0.7804982427294069 -0.7743992369046998 -0.7683002178821221 -0.7622011853741825 -0.7561021390848321 -0.7500030787096608 -0.7439040039363422 -0.737804914443855
-0.7317058099035912 -0.7256066899745578 -0.7195075543082617 -0.7134084025475563 -0.7073092343212807 -0.7012100492512258 -0.695110846945028 -0.6890116270017521
-0.6829123890059491 -0.676813132530199 -0.6707138571353234 -0.6646145623663192 -0.6585152477554675 -0.652415912819938 -0.6463165570607085 -0.6402171799632418
-0.6341177809946765 -0.6280183596053548 -0.6219189152261009 -0.615819447267397 -0.6097199551195864 -0.6036204381497635 -0.5975208957021373 -0.5914213270954416
-0.5853217316228368 -0.5792221085483809 -0.5731224571055619 -0.567022776498656 -0.5609230658933507 -0.5548233244221182 -0.5487235511761878 -0.5426237452050453
-0.5365239055122308 -0.5304240310505992 -0.524324120722101 -0.5182241733678146 -0.5121241877673613 -0.5060241626309597 -0.49992409659284653 -0.49382398820759743
-0.4877238359367349 -0.4816236381453439 -0.47552339308771424 -0.46942309890053335 -0.463322753586182 -0.4572223550024535 -0.45112190084367654 -0.44502138862604185
-0.4389208156648203 -0.432820179053658 -0.4267194756392033 -0.4206187019915172 -0.41451785437192956 -0.4084169286986134 -0.40231592050245985 -0.39621482488232157
-0.39011363645360453 -0.38401234928636896 -0.3779109568406312 -0.37180945189020836 -0.36570782643756755 -0.3596060716180596 -0.3535041775904021 -0.3474021334174283
-0.3412999269264664 -0.3351975445566922 -0.3290949711868029 -0.32299218994129014 -0.3168891819759822 -0.31078592623726164 -0.3046823991977798 -0.2985785745622037
-0.2924744229456495 -0.28636991152393104 -0.28026500365263846 -0.2741596584609344 -0.26805383042388764 -0.26194746891494275 -0.25584051775582867 -0.24973291477292897
-0.2436245913852106 -0.23751547225226763 -0.231405475026295 -0.2252945102580751 -0.21918248154013917 -0.21306928597464425 -0.2069548151008303 -0.2008389564415297
-0.19472159587626586 -0.18860262110553125 -0.18248192652788833 -0.17635941993186885 -0.17023503148193614 -0.16410872556643263 -0.15798051616388262 -0.1518504864492878
-0.14571881341045928 -0.13958579821235398 -0.13345190291618908 -0.1273177938451166 -0.12118439130132781 -0.11505292433872477 -0.10892498772397052 -0.10280259585400499
-0.09668822503836116 -0.09058483104126924 -0.0844958231889785 -0.07842497032062297 -0.07237620923717115 -0.06635332725429845 -0.0603595052822467 -0.05439675106358411
-0.048465344934977415 -0.04256358038477894 -0.03668827397550166 -0.03083648346354054 -0.0250075889629752 -0.0191990900016224 -0.013369931675593505 -0.007287887933904205
-0.0 -0.009710305995791908 -0.021550966045140996 -0.03554298949763896 -0.05165194717753528 -0.06980479995472993 -0.08990618424425995 -0.11185276781741253
-0.13554554473265143 -0.16090086335534776 -0.1878617021493711 -0.21641125305095055 -0.24659100446496124 -0.27852437577067596 -0.31244259275704045 -0.3486987755228259
-0.387736477432975 -0.4299535818930298 -0.47539116064102466 -0.5232230479944374 -0.571177460004978 -0.6152771521208423 -0.6504465378200026 -0.67228652333714
-0.6796881551799108 -0.6775958036788987 -0.6802198906664944 -0.7204614877966735 -0.9021468265129334 -1.5105296786471158 -0.6074151482639122 -0.407816909949972
-0.38379896002104963 -0.3993678964684903 -0.42553071449295027 -0.45311844352906433 -0.4803482905546878 -0.5058143005990531 -0.5221607649720061 -0.5089759560958622
-0.43163633011601976 -0.29052345129613855 -0.15952493561795597 -0.08510006766039262 -0.05756530912069968 -0.07927222629431374 -0.2812152084648588 -0.49760774136078345
-0.7556041081413767 -1.0268922818906236 -1.250806009600201 -1.303680065859714 -1.0482308653194992 -0.6211582443260506 -0.3234741252969442 -0.1816680453650416

d f8 [401]
00000000: 1743 3a6f 31a4 b33f 1743 3a6f 31a4 b33f
00000010: 1743 3a6f 31a4 b33f 1743 3a6f 31a4 b33f
00000020: 1743 3a6f 31a4 b33f 1743 3a6f 31a4 b33f
00000030: 1743 3a6f 31a4 b33f 1743 3a6f 31a4 b33f
00000040: 1743 3a6f 31a4 b33f 1743 3a6f 31a4 b33f
00000050: 1743 3a6f 31a4 b33f 1743 3a6f 31a4 b33f
00000060: 1743 3a6f 31a4 b33f 1743 3a6f 31a4 b33f
00000070: 1743 3a6f 31a4 b33f 1743 3a6f 31a4 b33f
00000080: 1743 3a6f 31a4 b33f 1743 3a6f 31a4 b33f
00000090: 1743 3a6f 31a4 b33f 1743 3a6f 31a4 b33f
000000a0: 1743 3a6f 31a4 b33f 1743 3a6f 31a4 b33f
000000b0: 1743 3a6f 31a4 b33f 1743 3a6f 31a4 b33f
000000c0: 1743 3a6f 31a4 b33f 1743 3a6f 31a4 b33f
000000d0: 1743 3a6f 31a4 b33f 1743 3a6f 31a4 b33f
000000e0: 1743 3a6f 31a4 b33f 1743 3a6f 31a4 b33f
000000f0: 1743 3a6f 31a4 b33f 1743 3a6f 31a4 b33f
00000100: 1743 3a6f 31a4 b33f 1743 3a6f 31a4 b33f
00000110: 1743 3a6f 31a4 b33f 1743 3a6f 31a4 b33f
00000120: 1743 3a6f 31a4 b33f 1743 3a6f 31a4 b33f
00000130: 1743 3a6f 31a4 b33f 1743 3a6f 31a4 b33f
00000140: 1743 3a6f 31a4 b33f 1743 3a6f 31a4 b33f
00000150: 1743 3a6f 31a4 b33f 1743 3a6f 31a4 b33f
00000160: 1743 3a6f 31a4 b33f 1743 3a6f 31a4 b33f
00000170: 1743 3a6f 31a4 b33f 1743 3a6f 31a4 b33f
00000180: 1743 3a6f 31a4 b33f 1743 3a6f 31a4 b33f
00000190: 1743 3a6f 31a4 b33f 1743 3a6f 31a4 b33f
000001a0: 1743 3a6f 31a4 b33f 1743 3a6f 31a4 b33f
000001b0: 1743 3a6f 31a4 b33f 1743 3a6f 31a4 b33f
000001c0: 1743 3a6f 31a4 b33f 1743 3a6f 31a4 b33f
000001d0: 1743 3a6f 31a4 b33f 1743 3a6f 31a4 b33f
000001e0: 1743 3a6f 31a4 b33f 1743 3a6f 31a4 b33f
000001f0: 1743 3a6f 31a4 b33f 1743 3a6f 31a4 b33f
00000200: 1743 3a6f 31a4 b33f 1743 3a6f 31a4 b33f
00000210: 1743 3a6f 31a4 b33f 1743 3a6f 31a4 b33f
00000220: 1743 3a6f 31a4 b33f 1743 3a6f 31a4 b33f
00000230: 1743 3a6f 31a4 b33f 1743 3a6f 31a4 b33f
00000240: 1743 3a6f 31a4 b33f 1743 3a6f 31a4 b33f
00000250: 1743 3a6f 31a4 b33f 1743 3a6f 31a4 b33f
00000260: 1743 3a6f 31a4 b33f 1743 3a6f 31a4 b33f
00000270: 1743 3a6f 31a4 b33f 1743 3a6f 31a4 b33f
00000280: 1743 3a6f 31a4 b33f 1743 3a6f 31a4 b33f
00000290: 1743 3a6f 31a4 b33f 1743 3a6f 31a4 b33f
000002a0: 1743 3a6f 31a4 b33f 1743 3a6f 31a4 b33f
000002b0: 1743 3a6f 31a4 b33f 1743 3a6f 31a4 b33f
000002c0: 1743 3a6f 31a4 b33f 1743 3a6f 31a4 b33f
000002d0: 1743 3a6f 31a4 b33f 1743 3a6f 31a4 b33f
000002e0: 1743 3a6f 31a4 b33f 1743 3a6f 31a4 b33f
000002f0: 1743 3a6f 31a4 b33f 1743 3a6f 31a4 b33f
00000300: 1743 3a6f 31a4 b33f 1743 3a6f 31a4 b33f
00000310: 1743 3a6f 31a4 b33f 1743 3a6f 31a4 b33f
00000320: 1743 3a6f 31a4 b33f 1743 3a6f 31a4 b33f
00000330: 1743 3a6f 31a4 b33f 1743 3a6f 31a4 b33f
00000340: 1743 3a6f 31a4 b33f 1743 3a6f 31a4 b33f
00000350: 1743 3a6f 31a4 b33f 1743 3a6f 31a4 b33f
00000360: 1743 3a6f 31a4 b33f 1743 3a6f 31a4 b33f
00000370: 1743 3a6f 31a4 b33f 1743 3a6f 31a4 b33f
00000380: 1743 3a6f 31a4 b33f 1743 3a6f 31a4 b33f
00000390: 1743 3a6f 31a4 b33f 1743 3a6f 31a4 b33f
000003a0: 1743 3a6f 31a4 b33f 1743 3a6f 31a4 b33f
000003b0: 1743 3a6f 31a4 b33f 1743 3a6f 31a4 b33f
000003c0: 1743 3a6f 31a4 b33f 1743 3a6f 31a4 b33f
000003d0: 1743 3a6f 31a4 b33f 1743 3a6f 31a4 b33f
000003e0: 1743 3a6f 31a4 b33f 1743 3a6f 31a4 b33f
000003f0: 1743 3a6f 31a4 b33f 1743 3a6f 31a4 b33f
00000400: 1743 3a6f 31a4 b33f 1743 3a6f 31a4 b33f
00000410: 1743 3a6f 31a4 b33f 1743 3a6f 31a4 b33f
00000420: 1743 3a6f 31a4 b33f 1743 3a6f 31a4 b33f
00000430: 1743 3a6f 31a4 b33f 1743 3a6f 31a4 b33f
00000440: 1743 3a6f 31a4 b33f 1743 3a6f 31a4 b33f
00000450: 1743 3a6f 31a4 b33f 1743 3a6f 31a4 b33f
00000460: 1743 3a6f 31a4 b33f 1743 3a6f 31a4 b33f
00000470: 1743 3a6f 31a4 b33f 1743 3a6f 31a4 b33f
00000480: 1743 3a6f 31a4 b33f 1743 3a6f 31a4 b33f
00000490: 1743 3a6f 31a4 b33f 1743 3a6f 31a4 b33f
000004a0: 1743 3a6f 31a4 b33f 1743 3a6f 31a4 b33f
000004b0: 1743 3a6f 31a4 b33f 1743 3a6f 31a4 b33f
000004c0: 1743 3a6f 31a4 b33f 1743 3a6f 31a4 b33f
000004d0: 1743 3a6f 31a4 b33f 1743 3a6f 31a4 b33f
000004e0: 1743 3a6f 31a4 b33f 1743 3a6f 31a4 b33f
000004f0: 1743 3a6f 31a4 b33f 1743 3a6f 31a4 b33f
00000500: 1743 3a6f 31a4 b33f 1743 3a6f 31a4 b33f
00000510: 1743 3a6f 31a4 b33f 1743 3a6f 31a4 b33f
00000520: 1743 3a6f 31a4 b33f 1743 3a6f 31a4 b33f
00000530: 1743 3a6f 31a4 b33f 1743 3a6f 31a4 b33f
00000540: 1743 3a6f 31a4 b33f 1743 3a6f 31a4 b33f
00000550: 1743 3a6f 31a4 b33f 1743 3a6f 31a4 b33f
00000560: 1743 3a6f 31a4 b33f 1743 3a6f 31a4 b33f
00000570: 1743 3a6f 31a4 b33f 1743 3a6f 31a4 b33f
00000580: 1743 3a6f 31a4 b33f 1743 3a6f 31a4 b33f
00000590: 1743 3a6f 31a4 b33f 1743 3a6f 31a4 b33f
000005a0: 1743 3a6f 31a4 b33f 1743 3a6f 31a4 b33f
000005b0: 1743 3a6f 31a4 b33f 1743 3a6f 31a4 b33f
000005c0: 1743 3a6f 31a4 b33f 1743 3a6f 31a4 b33f
000005d0: 1743 3a6f 31a4 b33f 1743 3a6f 31a4 b33f
000005e0: 1743 3a6f 31a4 b33f 1743 3a6f 31a4 b33f
000005f0: 1743 3a6f 31a4 b33f 1743 3a6f 31a4 b33f
00000600: 1743 3a6f 31a4 b33f 1743 3a6f 31a4 b33f
00000610: 1743 3a6f 31a4 b33f 1743 3a6f 31a4 b33f
00000620: 1743 3a6f 31a4 b33f 1743 3a6f 31a4 b33f
00000630: 1743 3a6f 31a4 b33f 1743 3a6f 31a4 b33f
00000640: 1743 3a6f 31a4 b33f 1743 3a6f 31a4 b33f
00000650: 1743 3a6f 31a4 b33f 1743 3a6f 31a4 b33f
00000660: 1743 3a6f 31a4 b33f 1743 3a6f 31a4 b33f
00000670: 1743 3a6f 31a4 b33f 1743 3a6f 31a4 b33f
00000680: 1743 3a6f 31a4 b33f 1743 3a6f 31a4 b33f
00000690: 1743 3a6f 31a4 b33f 1743 3a6f 31a4 b33f
000006a0: 1743 3a6f 31a4 b33f 1743 3a6f 31a4 b33f
000006b0: 1743 3a6f 31a4 b33f 1743 3a6f 31a4 b33f
000006c0: 1743 3a6f 31a4 b33f 1743 3a6f 31a4 b33f
000006d0: 1743 3a6f 31a4 b33f 1743 3a6f 31a4 b33f
000006e0: 1743 3a6f 31a4 b33f 1743 3a6f 31a4 b33f
000006f0: 1743 3a6f 31a4 b33f 1743 3a6f 31a4 b33f
00000700: 1743 3a6f 31a4 b33f 1743 3a6f 31a4 b33f
00000710: 1743 3a6f 31a4 b33f 1743 3a6f 31a4 b33f
00000720: 1743 3a6f 31a4 b33f 1743 3a6f 31a4 b33f
00000730: 1743 3a6f 31a4 b33f 1743 3a6f 31a4 b33f
00000740: 1743 3a6f 31a4 b33f 1743 3a6f 31a4 b33f
00000750: 1743 3a6f 31a4 b33f 1743 3a6f 31a4 b33f
00000760: 1743 3a6f 31a4 b33f 1743 3a6f 31a4 b33f
00000770: 1743 3a6f 31a4 b33f 1743 3a6f 31a4 b33f
00000780: 1743 3a6f 31a4 b33f 1743 3a6f 31a4 b33f
00000790: 1743 3a6f 31a4 b33f 1743 3a6f 31a4 b33f
000007a0: 1743 3a6f 31a4 b33f 1743 3a6f 31a4 b33f
000007b0: 1743 3a6f 31a4 b33f 1743 3a6f 31a4 b33f
000007c0: 1743 3a6f 31a4 b33f 1743 3a6f 31a4 b33f
000007d0: 1743 3a6f 31a4 b33f 1743 3a6f 31a4 b33f
000007e0: 1743 3a6f 31a4 b33f 1743 3a6f 31a4 b33f
000007f0: 1743 3a6f 31a4 b33f 1743 3a6f 31a4 b33f
0.07672413793103448 0.07672413793103448 0.07672413793103448 0.07672413793103448 0.07672413793103448 0.07672413793103448 0.07672413793103448 0.07672413793103448
0.07672413793103448 0.07672413793103448 0.07672413793103448 0.07672413793103448 0.07672413793103448 0.07672413793103448 0.07672413793103448 0.07672413793103448
0.07672413793103448 0.07672413793103448 0.07672413793103448 0.07672413793103448 0.07672413793103448 0.07672413793103448 0.07672413793103448 0.07672413793103448
0.07672413793103448 0.07672413793103448 0.07672413793103448 0.07672413793103448 0.07672413793103448 0.07672413793103448 0.07672413793103448 0.07672413793103448
0.07672413793103448 0.07672413793103448 0.07672413793103448 0.07672413793103448 0.07672413793103448 0.07672413793103448 0.07672413793103448 0.07672413793103448
0.07672413793103448 0.07672413793103448 0.07672413793103448 0.07672413793103448 0.07672413793103448 0.07672413793103448 0.07672413793103448 0.07672413793103448
0.07672413793103448 0.07672413793103448 0.07672413793103448 0.07672413793103448 0.07672413793103448 0.07672413793103448 0.07672413793103448 0.07672413793103448
0.07672413793103448 0.07672413793103448 0.07672413793103448 0.07672413793103448 0.07672413793103448 0.07672413793103448 0.07672413793103448 0.07672413793103448
0.07672413793103448 0.07672413793103448 0.07672413793103448 0.07672413793103448 0.07672413793103448 0.07672413793103448 0.07672413793103448 0.07672413793103448
0.07672413793103448 0.07672413793103448 0.07672413793103448 0.07672413793103448 0.07672413793103448 0.07672413793103448 0.07672413793103448 0.07672413793103448
0.07672413793103448 0.07672413793103448 0.07672413793103448 0.07672413793103448 0.07672413793103448 0.07672413793103448 0.07672413793103448 0.07672413793103448
0.07672413793103448 0.07672413793103448 0.07672413793103448 0.07672413793103448 0.07672413793103448 0.07672413793103448 0.07672413793103448 0.07672413793103448
0.07672413793103448 0.07672413793103448 0.07672413793103448 0.07672413793103448 0.07672413793103448 0.07672413793103448 0.07672413793103448 0.07672413793103448
0.07672413793103448 0.07672413793103448 0.07672413793103448 0.07672413793103448 0.07672413793103448 0.07672413793103448 0.07672413793103448 0.07672413793103448
0.07672413793103448 0.07672413793103448 0.07672413793103448 0.07672413793103448 0.07672413793103448 0.07672413793103448 0.07672413793103448 0.07672413793103448
0.07672413793103448 0.07672413793103448 0.07672413793103448 0.07672413793103448 0.07672413793103448 0.07672413793103448 0.07672413793103448 0.07672413793103448
0.07672413793103448 0.07672413793103448 0.07672413793103448 0.07672413793103448 0.07672413793103448 0.07672413793103448 0.07672413793103448 0.07672413793103448
0.07672413793103448 0.07672413793103448 0.07672413793103448 0.07672413793103448 0.07672413793103448 0.07672413793103448 0.07672413793103448 0.07672413793103448
0.07672413793103448 0.07672413793103448 0.07672413793103448 0.07672413793103448 0.07672413793103448 0.07672413793103448 0.07672413793103448 0.07672413793103448
0.07672413793103448 0.07672413793103448 0.07672413793103448 0.07672413793103448 0.07672413793103448 0.07672413793103448 0.07672413793103448 0.07672413793103448
0.07672413793103448 0.07672413793103448 0.07672413793103448 0.07672413793103448 0.07672413793103448 0.07672413793103448 0.07672413793103448 0.07672413793103448
0.07672413793103448 0.07672413793103448 0.07672413793103448 0.07672413793103448 0.07672413793103448 0.07672413793103448 0.07672413793103448 0.07672413793103448
0.07672413793103448 0.07672413793103448 0.07672413793103448 0.07672413793103448 0.07672413793103448 0.07672413793103448 0.07672413793103448 0.07672413793103448
0.07672413793103448 0.07672413793103448 0.07672413793103448 0.07672413793103448 0.07672413793103448 0.07672413793103448 0.07672413793103448 0.07672413793103448
0.07672413793103448 0.07672413793103448 0.07672413793103448 0.07672413793103448 0.07672413793103448 0.07672413793103448 0.07672413793103448 0.07672413793103448
0.07672413793103448 0.07672413793103448 0.07672413793103448 0.07672413793103448 0.07672413793103448 0.07672413793103448 0.07672413793103448 0.07672413793103448
0.07672413793103448 0.07672413793103448 0.07672413793103448 0.07672413793103448 0.07672413793103448 0.07672413793103448 0.07672413793103448 0.07672413793103448
0.07672413793103448 0.07672413793103448 0.07672413793103448 0.07672413793103448 0.07672413793103448 0.07672413793103448 0.07672413793103448 0.07672413793103448
0.07672413793103448 0.07672413793103448 0.07672413793103448 0.07672413793103448 0.07672413793103448 0.07672413793103448 0.07672413793103448 0.07672413793103448
0.07672413793103448 0.07672413793103448 0.07672413793103448 0.07672413793103448 0.07672413793103448 0.07672413793103448 0.07672413793103448 0.07672413793103448
0.07672413793103448 0.07672413793103448 0.07672413793103448 0.07672413793103448 0.07672413793103448 0.07672413793103448 0.07672413793103448 0.07672413793103448
0.07672413793103448 0.07672413793103448 0.07672413793103448 0.07672413793103448 0.07672413793103448 0.07672413793103448 0.07672413793103448 0.07672413793103448

zmax f8 []
00000000: 0000 0000 0000 1440
5.0

hz_F f8 [401]
00000000: 7b84 5619 3277 b63f b7ad c9b6 3277 b63f
00000010: f961 d054 3377 b63f 020b f7f3 3377 b63f
00000020: 1902 c394 3477 b63f 3f2e a937 3577 b63f
00000030: a7b5 06dd 3577 b63f 39fb 1e85 3677 b63f
00000040: c8e6 1f30 3777 b63f 2df4 29de 3777 b63f
00000050: 95ac 558f 3877 b63f 54af b743 3977 b63f
00000060: 11e8 63fb 3977 b63f 2283 6db6 3a77 b63f
00000070: 979e e874 3b77 b63f bf85 e936 3c77 b63f
00000080: 7a3b 85fc 3c77 b63f 8146 d1c5 3d77 b63f
00000090: 3c16 e492 3e77 b63f b75a d463 3f77 b63f
000000a0: 61ab b938 4077 b63f 1a5b ac11 4177 b63f
000000b0: 5e48 c5ee 4177 b63f ae0f 1ed0 4277 b63f
000000c0: 8802 d1b5 4377 b63f ac92 f99f 4477 b63f
000000d0: bc6a b38e 4577 b63f b2b2 1b82 4677 b63f
000000e0: c6bf 4f7a 4777 b63f c727 6e77 4877 b63f
000000f0: 198c 9679 4977 b63f cf41 e980 4a77 b63f
00000100: 16b9 878d 4b77 b63f 7f49 949f 4c77 b63f
00000110: 2382 32b7 4d77 b63f 50ea 86d4 4e77 b63f
00000120: 8436 b7f7 4f77 b63f 7b51 ea20 5177 b63f
00000130: d048 4850 5277 b63f 8984 fa85 5377 b63f
00000140: 0f9f 2bc2 5477 b63f 00b4 0705 5677 b63f
00000150: b01b bc4e 5777 b63f 1ecc 779f 5877 b63f
00000160: 662a 6bf7 5977 b63f 1d4a c856 5b77 b63f
00000170: 598c c2bd 5c77 b63f 7191 8f2c 5e77 b63f
00000180: ee26 66a3 5f77 b63f 1a69 7f22 6177 b63f
00000190: f61a 16aa 6277 b63f a6f7 663a 6477 b63f
000001a0: f4d7 b0d3 6577 b63f 9dd2 3476 6777 b63f
000001b0: 130f 3622 6977 b63f f300 fad7 6a77 b63f
000001c0: b292 c897 6c77 b63f 723f ec61 6e77 b63f
000001d0: c325 b236 7077 b63f dfd5 6916 7277 b63f
000001e0: 6af8 6501 7477 b63f 7319 fcf7 7577 b63f
000001f0: 779d 84fa 7777 b63f 2987 5b09 7a77 b63f
00000200: 78c2 df24 7c77 b63f e9f7 734d 7e77 b63f
00000210: aa4a 7e83 8077 b63f c7e6 68c7 8277 b63f
00000220: d276 a119 8577 b63f 1732 9a7a 8777 b63f
00000230: d175 c9ea 8977 b63f feff a96a 8c77 b63f
00000240: db7e bbfa 8e77 b63f 2454 829b 9177 b63f
00000250: f52c 884d 9477 b63f 6cee 5b11 9777 b63f
00000260: 9935 92e7 9977 b63f 898c c5d0 9c77 b63f
00000270: 6e99 96cd 9f77 b63f c279 acde a277 b63f
00000280: 4fe1 b404 a677 b63f c006 6540 a977 b63f
00000290: 114b 7992 ac77 b63f 7db0 b5fb af77 b63f
000002a0: 8fec e67c b377 b63f 39d0 e116 b777 b63f
000002b0: eba2 84ca ba77 b63f ecc2 b698 be77 b63f
000002c0: 3be7 6982 c277 b63f c238 9a88 c677 b63f
000002d0: 1ac4 4eac ca77 b63f b392 9aee ce77 b63f
000002e0: bdc2 9c50 d377 b63f ba73 81d3 d777 b63f
000002f0: 8f8d 8278 dc77 b63f 124e e840 e177 b63f
00000300: a768 0a2e e677 b63f 7889 5041 eb77 b63f
00000310: b58b 337c f077 b63f fa74 3ee0 f577 b63f
00000320: a255 0f6f fb77 b63f 43c0 582a 0178 b63f
00000330: 6dc6 e213 0778 b63f 4982 8c2d 0d78 b63f
00000340: 1d4e 4d79 1378 b63f eca3 36f9 1978 b63f
00000350: 8cc1 75af 2078 b63f 32eb 549e 2778 b63f
00000360: 3ca2 3ec8 2e78 b63f 8d78 be2f 3678 b63f
00000370: 8e55 84d7 3d78 b63f 5998 66c2 4578 b63f
00000380: f40b 65f3 4d78 b63f 1329 ac6d 5678 b63f
00000390: 33ba 9734 5f78 b63f ac86 b74b 6878 b63f
000003a0: 3288 d2b6 7178 b63f 58c8 eb79 7b78 b63f
000003b0: af54 4799 8578 b63f e6fd 6e19 9078 b63f
000003c0: 0965 39ff 9a78 b63f 7189 cf4f a678 b63f
000003d0: 7406 b510 b278 b63f 8b62 cf47 be78 b63f
000003e0: ad09 70fb ca78 b63f 4cb4 5d32 d878 b63f
000003f0: 266f e0f3 e578 b63f e8b3 cd47 f478 b63f
00000400: 2553 9736 0379 b63f 3529 5bc9 1279 b63f
00000410: 593e f509 2379 b63f 3076 1403 3479 b63f
00000420: a8ad 51c0 4579 b63f d277 494e 5879 b63f
00000430: d58e baba 6b79 b63f a73d a714 8079 b63f
00000440: 6798 7b6c 9579 b63f 2507 3ad4 ab79 b63f
00000450: 13dc ac5f c379 b63f 6bd1 9f24 dc79 b63f
00000460: e1b2 213b f679 b63f 9e9c cfbd 117a b63f
00000470: c4d6 2bca 2e7a b63f 649a 0081 4d7a b63f
00000480: aa4a d306 6e7a b63f ee17 6884 907a b63f
00000490: 8929 5a27 b57a b63f ff8c cb22 dc7a b63f
000004a0: 46ec 2fb0 057b b63f 427f 3710 327b b63f
000004b0: 50d9 dd8b 617b b63f 9dd7 a375 947b b63f
000004c0: ee1f fa2a cb7b b63f dcc2 e315 067c b63f
000004d0: 3aa5 daae 457c b63f 07e4 fd7e 8a7c b63f
000004e0: a9a8 9422 d57c b63f 14b0 f24b 267d b63f
000004f0: 5251 c8c6 7e7d b63f bc00 ed7b df7d b63f
00000500: 2de0 af75 497e b63f 27e9 bae4 bd7e b63f
00000510: 2d7a 9125 3e7f b63f 8649 b2c6 cb7f b63f
00000520: e3cb 578f 6880 b63f 6700 cf86 1681 b63f
00000530: d947 44fc d781 b63f b601 d28e af82 b63f
00000540: 0138 7735 a083 b63f 2570 6746 ad84 b63f
00000550: c936 df7c da85 b63f 8372 40fc 2b87 b63f
00000560: 4251 b04e a688 b63f c1ae b15c 4e8a b63f
00000570: 8324 345a 298c b63f c9b9 3ca4 3c8e b63f
00000580: 9400 8388 8d90 b63f 16e9 14ee 2093 b63f
00000590: d85a 21d3 fa95 b63f b918 6090 1d99 b63f
000005a0: a7bb 1dce 889c b63f 542b d911 38a0 b63f
000005b0: a399 e2c5 20a4 b63f 7b1c 4c97 2fa8 b63f
000005c0: ad3a ff02 45ac b63f bf76 0aeb 30b0 b63f
000005d0: 8a89 e313 adb3 b63f 88cd 6178 56b6 b63f
000005e0: 165e 2677 a5b7 b63f 0b9a e1de e4b6 b63f
000005f0: 2621 1685 27b3 b63f 3e3c 6488 3aab b63f
00000600: 91be c083 8d9d b63f dda7 6aae fc87 b63f
00000610: edab 3d96 4767 b63f 54a3 e6b7 b135 b63f
00000620: b061 f01e a8e7 b53f d6e8 b805 3d64 b53f
00000630: 3180 7a59 e576 b43f 5122 e9b7 e9bd b23f
00000640: 8dbb 1994 9c61 af3f 4c1c 2912 26ea ab3f
00000650: 9ae7 a81c ec0c a93f fe61 8df9 56ad a63f
00000660: c59f f91b 18b3 a43f f7c0 034d 360a a33f
00000670: 1b08 5538 98a2 a13f 9dad 225f 616f a03f
00000680: 045c a780 9bcc 9e3f 6f46 f09d 3cfe 9c3f
00000690: 8b7f 83db 3466 9b3f 6177 b7a7 49f9 993f
000006a0: 9820 6d4d c3ad 983f 65ea 8416 df7a 973f
000006b0: 1615 de4b 7d58 963f 4f7a 8828 3d3f 953f
000006c0: b229 5418 5229 943f c012 a9d0 5014 933f
000006d0: b606 cffc cf03 923f 6fc1 66d5 fa03 913f
000006e0: b49d b22f 832a 903f 46f7 6209 be28 8f3f
000006f0: 10ca 2ce6 53bf 8e3f 7a16 f820 4444 8f3f
00000700: 175c aff7 355c 903f 61e8 09de 7364 913f
00000710: fc9c c056 963e 923f 580b 0ba4 35c4 913f
00000720: 2492 7e3a b7ee 8a3f c002 5d87 cded 403f
00000730: e849 02c3 311d 99bf ddcd da8a 034b a4bf
00000740: e3bd d4d7 c562 a6bf 1b61 5060 972c a6bf
00000750: 1400 36eb 2666 a5bf 340e 4ca9 97a4 a4bf
00000760: 777e bf3a f6fc a3bf f892 b279 9e79 a3bf
00000770: 70c9 a917 2e5e a3bf b093 15ef 8477 a4bf
00000780: 9e9c 209e 5803 a9bf d453 b2cc 5649 b3bf
00000790: f9cc 8ef5 4e1c c2bf d591 2d2a 9c69 d1bf
000007a0: f53c ad57 c559 dabf 66cd 8667 a490 d3bf
000007b0: 6574 3277 8d68 b6bf 1f41 64a4 e183 a9bf
000007c0: 5473 8ff1 4bb5 a0bf e1b8 d318 fd1b 98bf
000007d0: e65e f043 785a 93bf 69db 6c23 82d0 92bf
000007e0: 9ca1 c4b5 8f3e 99bf 3883 7dd4 03f0 a6bf
000007f0: 715d 4da2 13e0 b6bf 0dcd c0b5 cbd6 c4bf
0.08775628203012957 0.08775631868927901 0.08775635548261808 0.08775639253785175 0.08775642997626 0.0877564679041649 0.08775650640628517 0.08775654554390834
0.08775658535878528 0.08775662588045981 0.08775666713124715 0.08775670912990324 0.0877567518945457 0.08775679544261242 0.08775683979240011 0.08775688496236621
0.08775693097162032 0.08775697783974047 0.08775702558713133 0.08775707423442723 0.08775712380308455 0.08775717431522559 0.08775722579346865 0.0877572782611071
0.08775733174207734 0.08775738626133983 0.08775744184405715 0.08775749851674666 0.08775755630608648 0.08775761523989366 0.08775767534693592 0.08775773665661933
0.08775779919935575 0.0877578630063791 0.08775792811003007 0.08775799454353117 0.08775806234117495 0.08775813153835614 0.08775820217150287 0.087758274278274
0.08775834789741686 0.08775842306904735 0.08775849983440653 0.08775857823620511 0.08775865831845805 0.08775874012670966 0.08775882370768907 0.08775890911016916
0.08775899638399284 0.08775908558110182 0.08775917675493958 0.08775926996074065 0.08775936525566391 0.08775946269890729 0.08775956235154707 0.08775966427674912
0.08775976853992054 0.08775987520880138 0.08775998435353131 0.08776009604647282 0.0877602103628036 0.08776032738032828 0.08776044717943941 0.0877605698438201
0.08776069545980103 0.0877608241171114 0.08776095590864466 0.08776109093096372 0.0877612292838095 0.08776137107106084 0.08776151640036935 0.08776166538336835
0.08776181813618271 0.08776197477921294 0.08776213543767482 0.08776230024153059 0.08776246932594346 0.08776264283146608 0.08776282090420803 0.08776300369615966
0.08776319136530229 0.08776338407644868 0.08776358200092839 0.0877637853170103 0.08776399421087631 0.08776420887608162 0.08776442951478784 0.0877646563374232
0.08776488956382604 0.08776512942333439 0.08776537615519012 0.08776563000953778 0.08776589124750962 0.08776616014206598 0.08776643697870255 0.08776672205595329
0.0877670156864122 0.08776731819719952 0.08776762993106398 0.0877679512472759 0.08776828252242422 0.0877686241517504 0.08776897655004641 0.08776934015305317
0.08776971541856722 0.08777010282814474 0.08777050288859395 0.08777091613312107 0.08777134312425344 0.0877717844545904 0.08777224074977694 0.08777271267044408
0.08777320091489554 0.08777370622206986 0.08777422937394234 0.0877747711997709 0.08777533257901451 0.08777591444575827 0.08777651779321859 0.0877771436780602
0.08777779322680969 0.08777846764090726 0.08777916820420179 0.08777989628959852 0.08778065336813397 0.08778144101752722 0.08778226093312166 0.08778311493888646
0.08778400500098067 0.08778493324203825 0.08778590195765314 0.08778691363519253 0.0877879709748216 0.08778907691291174 0.08779023464972664 0.08779144767981127
0.08779271982675284 0.08779405528369162 0.0877954586584198 0.08779693502566992 0.08779848998683405 0.08780012973839965 0.08780186115094596 0.08780369185897424
0.0878056303657028 0.08780768616279008 0.08780986986872653 0.08781219338884581 0.08781467009969032 0.08781731506269089 0.08782014527046056 0.08782317993231321
0.08782644080395105 0.08782995256820975 0.08783374327562835 0.08783784485230238 0.08784229368453346 0.08784713129233551 0.08785240510070949 0.08785816932231943
0.08786448596208692 0.08787142595511864 0.08787907044595818 0.08788751221644561 0.08789685725768907 0.08790722647882064 0.0879187575231123 0.08793160664391206
0.08794595055880451 0.08796198815201757 0.0879799418318853 0.08800005825509953 0.08802260800468267 0.08804788363493811 0.08807619526136716 0.0881078625650168
0.08814320166402673 0.08818250477353148 0.08822600988910823 0.088273856876273 0.08832602531559407 0.08838224826574265 0.08844189482861124 0.08850381320745442
0.0885661251370304 0.0886259626226673 0.0886791394764598 0.0887197536374541 0.0887397209065671 0.08872824136197026 0.088671178809936 0.0885502417552155
0.08834156481384016 0.0880124975034557 0.08751342218390308 0.08675680866020957 0.08556605105730486 0.08356076612190874 0.07993920740636963 0.07321034183508714
0.0612915926729932 0.05452078792273393 0.04892671441889647 0.04429122730534017 0.04042888013356064 0.03718728723640823 0.034443623424991375 0.03209976469346574
0.030077390410806273 0.028313586368375384 0.026757074258852803 0.02536501966630256 0.024100352860188495 0.022929654836142527 0.021821935420594483 0.020749049757905088
0.019688875899228804 0.018632185683844282 0.017592668347566863 0.01661674430369103 0.01578717211364529 0.015214428578811511 0.015013366186029692 0.015266926056038733
0.015976756327145205 0.016984758784453272 0.01781687645430184 0.01735004247417335 0.01315062663327022 0.0005166295584118838 -0.02452543022861589 -0.039634810161625934
-0.043722326847610814 -0.04330895472247872 -0.04179498311259536 -0.04031824056258096 -0.03903932063235243 -0.038037254672678544 -0.03782791174752986 -0.03997435968884788
-0.04885365419641484 -0.07533781526065236 -0.14148890485885326 -0.2720709239859194 -0.4117291790216336 -0.3057032595636059 -0.08753284607014818 -0.049834300343834174
-0.03263318370566162 -0.02354426826507783 -0.018899802347816762 -0.018373521244224564 -0.024652715176814874 -0.0447999188315919 -0.08935663902717807 -0.16280504583992475

Vz_F f8 [401]
00000000: 80a9 68e0 2f99 f43f c0cc a878 3099 f43f
00000010: c09b 7711 3199 f43f 40dd 5cab 3199 f43f
00000020: 4083 d946 3299 f43f 8098 5ee4 3299 f43f
00000030: c02f 4684 3399 f43f 4072 d126 3499 f43f
00000040: c0c3 2ccc 3499 f43f 808d 7774 3599 f43f
00000050: 4089 c91f 3699 f43f 00a8 36ce 3699 f43f
00000060: 002d d27f 3799 f43f 80a2 ae34 3899 f43f
00000070: 807c dfec 3899 f43f c05a 78a8 3999 f43f
00000080: 808e 8d67 3a99 f43f 80e8 332a 3b99 f43f
00000090: 801a 81f0 3b99 f43f c014 8bba 3c99 f43f
000000a0: 40a7 6888 3d99 f43f 4057 315a 3e99 f43f
000000b0: 0031 fd2f 3f99 f43f 80f8 e409 4099 f43f
000000c0: c020 02e8 4099 f43f 8033 6fca 4199 f43f
000000d0: 80f1 46b1 4299 f43f 408c a59c 4399 f43f
000000e0: 0061 a78c 4499 f43f 0003 6a81 4599 f43f
000000f0: 4008 0c7b 4699 f43f 80b4 ac79 4799 f43f
00000100: 405d 6c7d 4899 f43f c037 6c86 4999 f43f
00000110: 80a6 ce94 4a99 f43f 00fc b6a8 4b99 f43f
00000120: 00ae 49c2 4c99 f43f 405e ace1 4d99 f43f
00000130: c0c7 0507 4f99 f43f 80f4 7d32 5099 f43f
00000140: c016 3e64 5199 f43f 40d5 709c 5299 f43f
00000150: 0009 42db 5399 f43f 001b df20 5599 f43f
00000160: 40d7 766d 5699 f43f 00aa 39c1 5799 f43f
00000170: 0042 591c 5999 f43f 407a 097f 5a99 f43f
00000180: 0051 7fe9 5b99 f43f c0ff f15b 5d99 f43f
00000190: c058 9ad6 5e99 f43f c015 b359 6099 f43f
000001a0: 40fc 78e5 6199 f43f c0fc 2a7a 6399 f43f
000001b0: 0007 0a18 6599 f43f 8043 59bf 6699 f43f
000001c0: c03c 5e70 6899 f43f 40f8 602b 6a99 f43f
000001d0: a008 acf0 6b99 f43f 805d 8cc0 6d99 f43f
000001e0: c0e4 519b 6f99 f43f 4057 4f81 7199 f43f
000001f0: 402e da72 7399 f43f a062 4b70 7599 f43f
00000200: e0bd fe79 7799 f43f 80a6 5390 7999 f43f
00000210: 40e0 acb3 7b99 f43f a015 71e4 7d99 f43f
00000220: 2052 0a23 8099 f43f 8007 e76f 8299 f43f
00000230: 60aa 79cb 8499 f43f 20eb 3836 8799 f43f
00000240: a040 a0b0 8999 f43f 80ad 2f3b 8c99 f43f
00000250: 0053 6cd6 8e99 f43f 405e e082 9199 f43f
00000260: 0084 1b41 9499 f43f e033 b311 9799 f43f
00000270: 00c6 42f5 9999 f43f 20d3 6bec 9c99 f43f
00000280: a052 d6f7 9f99 f43f 407f 3118 a399 f43f
00000290: 8081 334e a699 f43f a0e2 999a a999 f43f
000002a0: a095 2afe ac99 f43f 6064 b379 b099 f43f
000002b0: 403f 0b0e b499 f43f a0e0 11bc b799 f43f
000002c0: 2004 b184 bb99 f43f 007f dc68 bf99 f43f
000002d0: 20ae 9269 c399 f43f e085 dd87 c799 f43f
000002e0: 40a9 d2c4 cb99 f43f a04e 9421 d099 f43f
000002f0: 4000 529f d499 f43f 2025 493f d999 f43f
00000300: 2017 c602 de99 f43f e0a1 24eb e299 f43f
00000310: c02e d1f9 e799 f43f 00b8 4930 ed99 f43f
00000320: a0a1 1e90 f299 f43f 8024 f41a f899 f43f
00000330: c042 83d2 fd99 f43f 6044 9bb8 039a f43f
00000340: 80e4 22cf 099a f43f 2021 1a18 109a f43f
00000350: 60d1 9b95 169a f43f 60dd de49 1d9a f43f
00000360: e059 3937 249a f43f a054 2160 2b9a f43f
00000370: c0fd 2fc7 329a f43f e0b7 236f 3a9a f43f
00000380: 60f3 e25a 429a f43f a054 7f8d 4a9a f43f
00000390: c041 380a 539a f43f 4066 7fd4 5b9a f43f
000003a0: 60cd fbef 649a f43f 8096 8e60 6e9a f43f
000003b0: 60bf 572a 789a f43f 20bb ba51 829a f43f
000003c0: e043 65db 8c9a f43f c0b9 54cc 979a f43f
000003d0: e01a de29 a39a f43f c014 b5f9 ae9a f43f
000003e0: 40aa f541 bb9a f43f 204b 2d09 c89a f43f
000003f0: 2076 6656 d59a f43f 606b 3431 e39a f43f
00000400: 4098 c1a1 f19a f43f 80c7 deb0 009b f43f
00000410: 20a8 1468 109b f43f 00ce b7d1 209b f43f
00000420: 600c fff8 319b f43f 2059 1cea 439b f43f
00000430: 603c 5ab2 569b f43f c01f 3c60 6a9b f43f
00000440: a043 a303 7f9b f43f 60d1 f9ad 949b f43f
00000450: 60ce 6272 ab9b f43f e0b3 f165 c39b f43f
00000460: 60ed e99f dc9b f43f 809b 073a f79b f43f
00000470: 4091 d350 139c f43f 00d6 0204 319c f43f
00000480: a010 e676 509c f43f c0d1 e8d0 719c f43f
00000490: 40b7 243e 959c f43f 208c 0bf0 ba9c f43f
000004a0: 204d 2b1e e39c f43f 2058 1107 0e9d f43f
000004b0: 6048 50f1 3b9d f43f 0087 af2c 6d9d f43f
000004c0: 60d1 8913 a29d f43f 6008 620c db9d f43f
000004d0: c09a b78b 189e f43f a078 2216 5b9e f43f
000004e0: 80ad c042 a39e f43f 4073 02be f19e f43f
000004f0: c037 de4c 479f f43f c013 7bd0 a49f f43f
00000500: 80e1 5c4a 0ba0 f43f 0016 1ee1 7ba0 f43f
00000510: e0db bfe5 f7a0 f43f 602e 98d9 80a1 f43f
00000520: c02c d974 18a2 f43f a0db a9ad c0a2 f43f
00000530: a00b b1bf 7ba3 f43f e0d9 df33 4ca4 f43f
00000540: a009 25e8 34a5 f43f 8005 7f16 39a6 f43f
00000550: e021 9f5a 5ca7 f43f c0a3 ebb4 a2a8 f43f
00000560: 605f 2989 10aa f43f a01a 5d96 aaab f43f
00000570: 20bc 7ae4 75ad f43f c049 30a3 77af f43f
00000580: e0b0 5ff3 b4b1 f43f 601c a592 32b4 f43f
00000590: 204a 6e5d f4b6 f43f 60bd 9c98 fcb9 f43f
000005a0: 0073 62ef 4abd f43f 5073 1a0d dbc0 f43f
000005b0: 50a3 8fb5 a2c4 f43f 80a0 2f39 8fc8 f43f
000005c0: a026 481f 82cc f43f 501a abe0 4cd0 f43f
000005d0: a0a7 8693 abd3 f43f 10ab c677 3ed6 f43f
000005e0: 9001 9e66 82d7 f43f 107a 792a c8d6 f43f
000005f0: e0c5 c56d 2ad3 f43f c045 6471 80cb f43f
00000600: 0019 1409 47be f43f 109c d882 6ca9 f43f
00000610: 90d0 bee9 cb89 f43f 90fa b838 d959 f43f
00000620: 105e 0e53 630e f43f 9001 4730 4f8f f33f
00000630: 603c 10ec cda9 f23f 10e7 0333 62ff f03f
00000640: a036 8eed 2318 ec3f 20e2 fdb4 fbbd e83f
00000650: 80db f22c f8f8 e53f a0ab ab51 73ad e33f
00000660: 60cb 7411 ecc3 e13f 40af a20e 1229 e03f
00000670: 00e4 281a a89a dd3f 400d 188f 8448 db3f
00000680: 0020 400a df47 d93f c013 dadd c488 d73f
00000690: 4012 2d72 36fe d53f 0057 1d22 589d d43f
000006a0: 00f7 b65e c45c d33f 4011 ea80 0234 d23f
000006b0: c0d7 bc7e 371b d13f c0f2 35f2 400b d03f
000006c0: 00ff 769a 06fd cd3f 0052 f170 4fe5 cb3f
000006d0: 806d 3b12 4dd6 c93f 80bb b531 88e7 c73f
000006e0: 8072 c0ad f542 c63f 00fd 53d2 9720 c53f
000006f0: 0028 0bd2 a8ba c43f 80d0 d33c 353b c53f
00000700: 00e8 41fa 12a3 c63f 000f 9f2b 1ba2 c83f
00000710: 0094 6d0d f847 ca3f 809d b2ba 4b5b c93f
00000720: 804a f311 4c0a c13f 0014 7fbc 4aeb afbf
00000730: 400f 8495 42c9 dcbf 4003 7b3c a6df e5bf
00000740: 4017 366d b7e5 e7bf 2009 8bfd 52b1 e7bf
00000750: e0b7 e810 70f1 e6bf 2062 2f17 4536 e6bf
00000760: 20fa 13bf 2c94 e5bf 205e ef50 2b15 e5bf
00000770: 0066 76e4 a2fa e4bf c039 2665 af0a e6bf
00000780: 80a7 2e83 1470 eabf 90ee ec0f 64c6 f3bf
00000790: 8852 302a 4113 02c0 c862 6a17 6f1e 11c0
000007a0: 30b1 bcfe 08c3 19c0 e47b 531b 4533 13c0
000007b0: d01e 3578 36cb f6bf 608c 6af2 5eec eabf
000007c0: 0062 baae 3c68 e2bf 002a 063e 8cd0 dbbf
000007d0: 0004 98de 3b37 d7bf c083 9804 d4b1 d6bf
000007e0: 8080 c575 86e9 dcbf 2084 7c67 4b6e e8bf
000007f0: d064 9939 ca3e f7bf 3054 da28 adb6 04c0
1.287399174305932 1.2873997414833838 1.2874003107369703 1.2874008840424978 1.2874014632763675 1.287402050083557 1.2874026457748045 1.287403251298329
1.2874038673000854 1.2874044942371654 1.287405132454822 1.2874057822432405 1.2874064438827304 1.2874071176430846 1.2874078038073833 1.2874085026611937
1.2874092145001725 1.2874099396272243 1.287410678358043 1.2874114310118756 1.2874121979206876 1.2874129794267475 1.2874137758799975 1.287414587640825
1.2874154150795647 1.2874162585823967 1.2874171185386274 1.287417995358524 1.287418889454841 1.287419801257954 1.287420731212947 1.2874216797747806
1.287422647413976 1.2874236346137735 1.2874246418745372 1.2874256697102737 1.2874267186515453 1.2874277892459673 1.2874288820571422 1.287429997667715
1.2874311366771707 1.2874322997061682 1.287433487392775 1.287434700397796 1.287435939402215 1.2874372051106775 1.2874384982461606 1.2874398195632608
1.28744116983313 1.2874425498593922 1.2874439604689059 1.2874454025162407 1.2874468768857383 1.2874483844932882 1.2874499262838413 1.2874515032346778
1.287453116357753 1.2874547667011171 1.2874564553499468 1.2874581834238086 1.2874599520858254 1.2874617625397633 1.2874636160294273 1.2874655138495328
1.287467457335758 1.2874694478763615 1.287471486908558 1.2874735759263345 1.2874757164728479 1.2874779101552747 1.2874801586391627 1.2874824636516635
1.2874848269894201 1.2874872505152268 1.2874897361663784 1.2874922859536042 1.2874949019681026 1.287497586384454 1.2875003414632147 1.2875031695559258
1.2875060731068189 1.2875090546658186 1.2875121168836756 1.2875152625185038 1.2875184944508433 1.287521815675312 1.2875252293196837 1.2875287386396295
1.2875323470364108 1.287536058058265 1.287539875406658 1.2875438029517383 1.287547844733652 1.2875520049755451 1.2875562880945068 1.287560698709349
1.2875652416564165 1.2875699219967984 1.2875747450333819 1.2875797163246716 1.287584841697118 1.2875901272657586 1.2875955794481087 1.2876012049857977
1.2876070109616933 1.2876130048262624 1.2876191944206639 1.2876255879944765 1.287632194250925 1.2876390223584977 1.2876460819969537 1.2876533833873438
1.2876609373335768 1.2876687552682498 1.2876768492898094 1.2876852322282417 1.287693917690227 1.2877029201276002 1.2877122549070563 1.28772193837694
1.287731987966474 1.2877424222639178 1.2877532611325293 1.2877645258134152 1.2877762390659342 1.2877884253000005 1.2878011107453702 1.287814323621852
1.287828094349166 1.287842455767958 1.2878574433948486 1.2878730957135076 1.2878894544999397 1.2879065651846489 1.2879244772809884 1.2879432448553274
1.2879629270648607 1.2879835887843782 1.2880053013040182 1.2880281431382556 1.2880522009498563 1.2880775706086922 1.2881043584139462 1.2881326824839334
1.2881626743774532 1.2881944809461032 1.2882282664754285 1.2882642151605594 1.2883025339586496 1.2883434558948537 1.2883872438728972 1.2884341950925204
1.2884846461502875 1.2885389789303403 1.2885976274207422 1.2886610855708014 1.288729916336564 1.2888047621010656 1.2888863566072217 1.288975538614281
1.289073267440557 1.2891806405690431 1.289298913439545 1.289429521540022 1.2895741047275777 1.2897345336657295 1.2899129379227148 1.290111734995314
1.2903336589957703 1.2905817869908276 1.2908595600039163 1.2911707942205197 1.2915196760058834 1.2919107316571754 1.292348759172235 1.2928387045436551
1.2933854586399818 1.2939935425108828 1.294666638340125 1.2954069100777232 1.29621404180142 1.2970839034889714 1.298006734107009 1.2989647134618565
1.2999287816950655 1.300854566202947 1.3016772997602644 1.3023056677581657 1.3026145943150347 1.302436986843194 1.3015541351309068 1.29968303960446
1.296454463446537 1.2913632498909955 1.2836417322805893 1.271935674259712 1.2535126919154926 1.2224876294932052 1.1664561482646363 1.0623495095046032
0.877946819282176 0.77319131231258 0.6866417768386412 0.6149231524590171 0.5551662770215948 0.5050134931420658 0.46256449274693523 0.42630113576906936
0.3950116729834008 0.36772271790715294 0.3436409106255134 0.3221035321379162 0.30253705262644814 0.28442442502297993 0.267286180274251 0.2506868710841381
0.23428423444965318 0.21793549551752278 0.201852449324047 0.18675329615822633 0.17391844734165218 0.1650571610443663 0.16194639450105797 0.16586938352668668
0.1768516275367915 0.19244708661982912 0.20532131820360178 0.19809862724398997 0.13312674404604152 -0.062342010030569384 -0.44978394127996424 -0.6835509473095058
-0.746791566184335 -0.7403960182203129 -0.7169723825697893 -0.6941247418245133 -0.6743377429955366 -0.6588341313135437 -0.6555952512891849 -0.6888043380329734
-0.8261816560891333 -1.2359352705088078 -2.2594016357418845 -4.279720655315664 -6.440464000956396 -4.800068308802086 -1.4246124930959247 -0.8413538679782384
-0.5752242481858616 -0.4346037488654986 -0.3627462075965582 -0.3546037716751549 -0.45175324917909876 -0.7634636899202896 -1.4528295755356346 -2.5891974631909065
