onecap_model_with_structure_ambiguity/output/lower_triangular_two_ambiguous_parameters/Delta_10.0_distorted_0/logadjustment_1_boundary_1/zmax_5.0_zscale_2.0/delta_0.02/q_0.3_gamma_2.0_rho_1.0/model.npz (npz, 126264 bytes, 58 tensors)

clowerlim f8 []
000000 2d 43 1c eb e2 36 1a 3f
       0.0001

zmin f8 []
000000 00 00 00 00 00 00 14 c0
       -5.0

Delta f8 []
000000 00 00 00 00 00 00 24 40
       10.0

s1_F f8 [401]
000000 3f 6e 56 84 e9 fd 0b c0 65 31 6b 3a d2 a8 06 c0
       -3.498980554473547 -2.8324322284662906
000010 c7 83 6b a0 7a c5 04 c0 3c a7 19 57 35 da 03 c0
       -2.59642529800519 -2.481547050924659
000020 28 c2 2a c4 db 53 03 c0 a2 8f 5b a6 46 fe 02 c0
       -2.415946514658817 -2.3741581913654537
000030 cd 74 ad 99 8d c2 02 c0 09 37 e3 69 4c 95 02 c0
       -2.3449966436442993 -2.3228996536698827
000040 f7 1c e6 7b 67 70 02 c0 8a 75 15 5d 70 50 02 c0
       -2.304884880027767 -2.2892768165754136
000050 92 62 e1 d2 6a 33 02 c0 91 c6 fe 3f 2b 18 02 c0
       -2.2751060938865715 -2.261801242792736
000060 4b ec 8f d2 fe fd 01 c0 4f 1c 8f eb 79 e4 01 c0
       -2.249021191613371 -2.2365606692360767
000070 6a 8d f8 62 5b cb 01 c0 76 b9 51 99 7b b2 01 c0
       -2.2242953998663113 -2.212149808699162
000080 ed f5 45 60 c2 99 01 c0 2b 58 bf ea 20 81 01 c0
       -2.2000777741766258 -2.188051065410965
000090 4c c8 55 23 8e 68 01 c0 3e 09 73 73 04 50 01 c0
       -2.176052356772777 -2.164070989559291
0000a0 4d 9a fb 68 80 37 01 c0 1d 4e d4 e2 ff 1e 01 c0
       -2.1521003915579855 -2.1401365014114746
0000b0 de 49 6b 8f 81 06 01 c0 c8 bc 45 9d 04 ee 00 c0
       -2.1281768040291658 -2.116219738665311
0000c0 c6 2c 23 8a 88 d5 00 c0 0d 1b df 04 0d bd 00 c0
       -2.104264334867909 -2.0923099880777785
0000d0 37 83 d6 da 91 a4 00 c0 15 cb 63 ec 16 8c 00 c0
       -2.080356321021465 -2.0684030979113097
0000e0 92 16 ba 25 9c 73 00 c0 60 a3 74 7a 21 5b 00 c0
       -2.0564501712240792 -2.0444974486203336
0000f0 06 af d2 e2 a6 42 00 c0 4c ad fd 59 2c 2a 00 c0
       -2.032544872335964 -2.0205924063244876
000100 93 e0 f4 dc b1 11 00 c0 9e 30 c0 d3 6e f2 ff bf
       -2.008640028212605 -1.996687724257789
000110 80 ee 45 ff 79 c1 ff bf 78 e3 30 3b 85 90 ff bf
       -1.9847354861839506 -1.9727833091876317
000120 46 8f cf 86 90 5f ff bf 52 2f d2 e1 9b 2e ff bf
       -1.960831190685853 -1.9488791295179522
000130 28 94 28 4c a7 fd fe bf 5c 15 ec c5 b2 cc fe bf
       -1.9369271254484008 -1.9249751788459752
000140 ea d6 51 4f be 9b fe bf 7c f5 a1 e8 c9 6a fe bf
       -1.9130232904839723 -1.9010714614117594
000150 fc f7 31 92 d5 39 fe bf 38 4a 61 4c e1 08 fe bf
       -1.8891196928739182 -1.8771679862590087
000160 de 02 97 17 ed d7 fd bf 26 83 40 f4 f8 a6 fd bf
       -1.8652163430671673 -1.853264764890079
000170 20 c7 d0 e2 04 76 fd bf 44 bf bf e3 10 45 fd bf
       -1.8413132534009904 -1.8293618103452483
000180 6e 20 8a f7 1c 14 fd bf d0 46 b1 1e 29 e3 fc bf
       -1.8174104375375708 -1.8054591368603958
000190 5c 31 bb 59 35 b2 fc bf 18 a6 32 a9 41 81 fc bf
       -1.79350791026362 -1.781556759766664
0001a0 5c 3d a7 0d 4e 50 fc bf ea 7d ad 87 5a 1f fc bf
       -1.7696056874591113 -1.7576546955023056
0001b0 de 14 df 17 67 ee fb bf 90 f6 da be 73 bd fb bf
       -1.74570378613253 -1.7337529616628764
0001c0 b4 a7 45 7d 80 8c fb bf 10 64 c9 53 8d 5b fb bf
       -1.7218022244874023 -1.709851577083331
0001d0 0b 68 16 43 9a 2a fb bf 90 1d e3 4b a7 f9 fa bf
       -1.6979010220152329 -1.6859505619375774
0001e0 9d 67 ec 6e b4 c8 fa bf 2c e6 f5 ac c1 97 fa bf
       -1.6740001995990277 -1.6620499378463007
0001f0 5f 3c ca 06 cf 66 fa bf f8 5c 3b 7d dc 35 fa bf
       -1.6500997796281565 -1.6381497279997443
000200 c7 ed 22 11 ea 04 fa bf 9a 74 62 c3 f7 d3 f9 bf
       -1.6261997861282553 -1.6142499572954763
000210 40 d7 e3 94 05 a3 f9 bf 13 92 99 86 13 72 f9 bf
       -1.6023002449050665 -1.590350652485658
000220 f4 48 7f 99 21 41 f9 bf 05 05 9a ce 2f 10 f9 bf
       -1.5784011836990972 -1.5664518423439528
000230 5a b1 f8 26 3e df f8 bf 05 89 b4 a3 4c ae f8 bf
       -1.5545026323626048 -1.542553557847499
000240 74 8e f1 45 5b 7d f8 bf a3 0a df 0e 6a 4c f8 bf
       -1.5306046230479327 -1.518655832377285
000250 d8 14 b8 ff 78 1b f8 bf df 17 c4 19 88 ea f7 bf
       -1.506707190420732 -1.494758701942821
000260 c0 65 57 5e 97 b9 f7 bf 20 d2 d3 ce a6 88 f7 bf
       -1.4828103718958658 -1.4708622054287233
000270 a9 4d a9 6c b6 57 f7 bf 08 a0 56 39 c6 26 f7 bf
       -1.4589142078956263 -1.4469663848667569
000280 db 14 6a 36 d6 f5 f6 bf 8c 39 82 65 e6 c4 f6 bf
       -1.4350187421380756 -1.4230712857421137
000290 96 a2 4e c8 f6 93 f6 bf fa c9 90 60 07 63 f6 bf
       -1.411124021959187 -1.3991769573300403
0002a0 45 df 1c 30 18 32 f6 bf 24 ca da 38 29 01 f6 bf
       -1.387230098667673 -1.3752834530720373
0002b0 78 14 c7 7c 3a d0 f5 bf b5 f0 f3 fd 4b 9f f5 bf
       -1.3633370279433432 -1.351390830996974
0002c0 1f 5f 8a be 5d 6e f5 bf 0d 38 cb c0 6f 3d f5 bf
       -1.3394448702801538 -1.3274991541870833
0002d0 3a 94 10 07 82 0c f5 bf 19 ed ce 93 94 db f4 bf
       -1.3155536914794212 -1.303608491302674
0002e0 b8 86 96 69 a7 aa f4 bf 06 e8 14 8b ba 79 f4 bf
       -1.2916635632067663 -1.2797189171674304
0002f0 0b 63 16 fb cd 48 f4 bf dc a9 87 bc e1 17 f4 bf
       -1.2677745636085003 -1.2558305134249315
000300 f5 9f 77 d2 f5 e6 f3 bf e5 10 19 40 0a b6 f3 bf
       -1.2438867780092526 -1.2319433692765014
000310 25 b5 c4 08 1f 85 f3 bf 48 32 fb 2f 34 54 f3 bf
       -1.2200002996936032 -1.208057582308486
000320 d1 5c 67 b9 49 23 f3 bf 29 79 e0 a8 5f f2 f2 bf
       -1.1961152307829261 -1.184173259425345
000330 ac c0 6c 02 76 c1 f2 bf c3 f6 43 ca 8c 90 f2 bf
       -1.1722316832274755 -1.1602905179019423
000340 0b 33 d2 04 a4 5f f2 bf b0 df ba b6 bb 2e f2 bf
       -1.1483497799228555 -1.1364094865693737
000350 dd d4 db e4 d3 fd f1 bf 4e c6 50 94 ec cc f1 bf
       -1.124469655970919 -1.1125303071570616
000360 a3 c8 76 ca 05 9c f1 bf 8a 21 f0 8c 1f 6b f1 bf
       -1.1005914601087532 -1.0886531358138165
000370 69 5d a8 e1 39 3a f1 bf 16 9d d8 ce 54 09 f1 bf
       -1.0767153563263838 -1.0647781448295226
000380 b6 36 0c 5b 70 d8 f0 bf 8d a1 25 8d 8c a7 f0 bf
       -1.0528415257025876 -1.040905524592833
000390 6c b1 63 6c a9 76 f0 bf 18 3b 67 00 c7 45 f0 bf
       -1.0289701684915498 -1.0170354858161712
0003a0 79 0a 39 51 e5 14 f0 bf fc 90 a0 ce 08 c8 ef bf
       -1.0051015064970257 -0.9931682620704403
0003b0 fe ae 32 97 48 66 ef bf 68 30 fa 0e 8a 04 ef bf
       -0.9812357857785796 -0.9693041126752293
0003c0 0e 79 d1 49 cd a2 ee bf cc 47 ac 5c 12 41 ee bf
       -0.9573732797396433 -0.9454433259982067
0003d0 26 99 a9 5d 59 df ed bf 5c c1 26 64 a2 7d ed bf
       -0.9335142926545685 -0.9215862232286258
0003e0 44 f5 d3 88 ed 1b ed bf ec 23 ca e5 3a ba ec bf
       -0.9096591637059324 -0.8977331626966794
0003f0 4a 88 a2 96 8a 58 ec bf da c2 8f b8 dc f6 eb bf
       -0.8858082716071831 -0.8738845448225121
000400 b6 d8 78 6a 31 95 eb bf bb 12 16 cd 88 33 eb bf
       -0.861962039902912 -0.8500408177938746
000410 97 fa 0f 03 e3 d1 ea bf a1 7c 20 31 40 70 ea bf
       -0.8381209430516091 -0.8262024840841101
000420 53 8e 36 7e a0 0e ea bf 0a 51 9c 13 04 ad e9 bf
       -0.8142855134105481 -0.8023701079387433
000430 d2 ef 1f 1d 6b 4b e9 bf c8 88 3f c9 d5 e9 e8 bf
       -0.7904563492625079 -0.7785443239811451
000440 f8 21 58 49 44 88 e8 bf bc 1a d8 d1 b6 26 e8 bf
       -0.7666341240411034 -0.7547258471029958
000450 5e 1f 75 9a 2d c5 e7 bf 8f 11 66 de a8 63 e7 bf
       -0.7428195969341507 -0.730915483829948
000460 27 ff a0 dc 28 02 e7 bf f6 79 1d d8 ad a0 e6 bf
       -0.719013625064666 -0.7071141453741905
000470 13 92 1b 18 38 3f e6 bf e8 d8 6f e8 c7 dd e5 bf
       -0.6952171774724455 -0.6833228626044532
000480 7f 65 d4 99 5d 7c e5 bf 50 89 3f 82 f9 1a e5 bf
       -0.6714313511358084 -0.65954280318355
000490 a8 1b 40 fd 9b b9 e4 bf a1 da 5f 6c 45 58 e4 bf
       -0.6476573892876916 -0.6357752911270219
0004a0 0b 03 8c 37 f6 f6 e3 bf 99 52 84 cd ae 95 e3 bf
       -0.6238967022801217 -0.6120218290330569
0004b0 cb 90 50 a4 6f 34 e3 bf a2 cf bc 39 39 d3 e2 bf
       -0.6001508912345569 -0.5882841232000724
0004c0 d7 1e dc 13 0c 72 e2 bf 43 d4 91 c1 e8 10 e2 bf
       -0.5764217746627435 -0.5645641117722636
0004d0 cd dd 20 db cf af e1 bf 39 ae c0 02 c2 4e e1 bf
       -0.5527114181376703 -0.5408639959109173
0004e0 6e f7 36 e5 bf ed e0 bf 56 08 75 3a ca 8c e0 bf
       -0.5290221669053901 -0.5171862737408996
0004f0 85 38 37 c6 e1 2b e0 bf 2e 8f 48 b1 0e 96 df bf
       -0.5053566810036193 -0.4935337764056723
000500 b6 c3 d3 9d 77 d4 de bf e2 09 a5 27 00 13 de bf
       -0.48171797192395205 -0.46990970489073736
000510 d2 3c a0 40 aa 51 dd bf 52 47 ea f7 77 90 dc bf
       -0.45810943900228296 -0.4463176651998896
000520 9a a5 a8 7a 6b cf db bf 6b 5f 7a 14 87 0e db bf
       -0.43453490236660175 -0.4227616977673196
000530 37 a8 90 2f cd 4d da bf 5a 5d 47 54 40 8d d9 bf
       -0.41099862713838625 -0.39924629431103187
000540 1c 30 14 28 e3 cc d8 bf e4 05 99 6b b8 0c d8 bf
       -0.3875053302188023 -0.37577639110176464
000550 ab f9 97 f7 c2 4c d7 bf 23 0d 76 b8 05 8d d6 bf
       -0.36406015566890443 -0.3523573209169674
000560 11 e7 e2 a7 83 cd d5 bf 6a 60 1f c4 3f 0e d5 bf
       -0.3406685962214491 -0.3289946952113555
000570 5b 1a 37 04 3d 4f d4 bf 8f aa 50 48 7e 90 d3 bf
       -0.31733632480282886 -0.30569417058965426
000580 2d 75 f8 44 06 d2 d2 bf 0b 8b f5 67 d7 13 d2 bf
       -0.2940688775577936 -0.28246102478276275
000590 5e dc c7 b4 f3 55 d1 bf 81 46 57 96 5c 98 d0 bf
       -0.2708710923611245 -0.2592994182751696
0005a0 d6 78 19 45 25 b6 cf bf 14 98 e4 96 2a 3c ce bf
       -0.24774614213942553 -0.2362111317426644
0005b0 be 74 d2 ef c4 c2 cc bf 4f 5a a5 f7 eb 49 cb bf
       -0.2246938868528669 -0.21319341270528233
0005c0 e4 c6 ba c8 91 d1 c9 bf a3 a1 14 11 a1 59 c8 bf
       -0.20170805264711256 -0.19023526510251285
0005d0 b7 6f 2a 8e fa e1 c6 bf 63 ac e9 a0 71 6a c5 bf
       -0.17877132360160683 -0.16731090886182462
0005e0 8f 98 c6 96 c7 f2 c3 bf e8 53 0b 11 a5 7a c2 bf
       -0.1558465467653076 -0.14436782200087284
0005f0 f3 ca 35 9f 90 01 c1 bf f0 46 07 27 c2 0d bf bf
       -0.13286025785381347 -0.12130368664591251
000600 e8 4a f1 45 52 13 bc bf 5f be bf 4f 30 11 b9 bf
       -0.10966982085782784 -0.09791852900502239
000610 93 37 8d 40 91 03 b6 bf 3f a0 ed 44 dd e4 b2 bf
       -0.08599193407027732 -0.07380469258134868
000620 06 69 8d 0b 2d 59 af bf 4d 8f f9 2e b2 9a a8 bf
       -0.06122723356266317 -0.04805523703978896
000630 82 83 73 d4 ed 61 a1 bf 3a 5b d8 ba 0e c1 92 bf
       -0.03395026415251491 -0.018314581064341008
000640 00 00 00 00 00 00 00 80 d2 53 0e 5b a1 a6 a9 bf
       -0.0 -0.05009941326640156
000650 22 70 49 c8 df 74 ba bf 41 dd b8 c0 9b 5f c4 bf
       -0.10334585799995513 -0.1591677371049887
000660 77 80 02 39 2a c8 cb bf cd 5b 2d e1 de b2 d1 bf
       -0.21704604896240529 -0.27654239644965345
000670 67 f2 88 0d 5a 96 d5 bf 36 e9 c6 1f ee 89 d9 bf
       -0.3373017437150225 -0.3990435896227099
000680 1f 12 5a 7e 06 8a dd bf 1f 92 7f 0f ef c9 e0 bf
       -0.4615493997482946 -0.5246501257611874
000690 12 fb cc fd a8 d2 e2 bf 7d 14 e3 f8 5d de e4 bf
       -0.5882153470082321 -0.6521444188189346
0006a0 df f9 a1 c6 6a ec e6 bf 3b 3c 6d c0 50 fc e8 bf
       -0.71635950847104 -0.7808002241453161
0006b0 4e 54 00 3b ad 0d eb bf 55 f8 38 00 33 20 ed bf
       -0.845419516789329 -0.91018056910958
0006c0 6a 2c 09 5d a5 33 ef bf a5 93 71 30 ea a3 f0 bf
       -0.9750544373613483 -1.0400182621317324
0006d0 4e c7 8c 01 4d ae f1 bf 9d f6 98 fa eb b8 f2 bf
       -1.1050539074462509 -1.1701469220128395
0006e0 ed c2 b8 fb ba c3 f3 bf 70 e8 dc 47 b0 ce f4 bf
       -1.2352857430343491 -1.3004610831399326
0006f0 ac bb 6f 05 c4 d9 f5 bf ee 94 54 db ef e4 f6 bf
       -1.3656654560433976 -1.430892807731023
000700 03 88 8c a3 2e f0 f7 bf cb 27 79 2e 7c fb f8 bf
       -1.4961382282858728 -1.5613977256166318
000710 8c 56 f1 12 d5 06 fa bf 09 ce 45 88 36 12 fb bf
       -1.626668046946551 -1.6919465373183604
000720 25 95 03 48 9e 1d fc bf 34 59 c5 75 0a 29 fd bf
       -1.7572310269400273 -1.822519741098927
000730 ec 27 c8 8b 79 34 fe bf 74 be 43 4b ea 3f ff bf
       -1.887811227820289 -1.9531042995476158
000740 0e 70 df d7 ad 25 00 c0 2e 67 62 72 66 ab 00 c0
       -2.0183979859411982 -2.0836914955406405
000750 44 f2 c0 9e 1e 31 01 c0 4d d1 f3 16 d6 b6 01 c0
       -2.1489841845161965 -2.2142755311162206
000760 4a 13 86 a2 8c 3c 02 c0 40 a5 44 14 42 c2 02 c0
       -2.2795651147047566 -2.344852598519225
000770 39 6b 55 48 f6 47 03 c0 17 0c a3 22 a9 cd 03 c0
       -2.4101377154414902 -2.4754202562339844
000780 6f b3 8d 8d 5a 53 04 c0 f5 8d d4 78 0a d9 04 c0
       -2.5407000597828566 -2.6059770049921505
000790 0e dd ad d8 b8 5e 05 c0 aa 72 05 a5 65 e4 05 c0
       -2.67125100403394 -2.7365219967162675
0007a0 82 0d db d8 10 6a 06 c0 ed f3 ba 71 ba ef 06 c0
       -2.8017899457788085 -2.867054832952354
0007b0 03 95 4c 6f 62 75 07 c0 22 53 f3 d2 08 fb 07 c0
       -2.9323166556592937 -2.9975754242426698
0007c0 a4 8d 7e 9f ad 80 08 c0 f2 82 e6 d8 50 06 09 c0
       -3.062831159638977 -3.1280838914248017
0007d0 66 b2 13 84 f2 8b 09 c0 72 66 af a6 92 11 0a c0
       -3.1933336561690338 -3.2585804960515867
0007e0 50 a7 fb 46 31 97 0a c0 d9 9e b1 6b ce 1c 0b c0
       -3.3238244576977323 -3.38906559119992
0007f0 42 4b e5 1b 6a a2 0b c0 9c b5 ed 5e 04 28 0c c0
       -3.4543039492940872 -3.5195395866673618

d f8 [401]
000000 17 43 3a 6f 31 a4 b3 3f 17 43 3a 6f 31 a4 b3 3f
       0.07672413793103448 0.07672413793103448
000010 17 43 3a 6f 31 a4 b3 3f 17 43 3a 6f 31 a4 b3 3f
       0.07672413793103448 0.07672413793103448
000020 17 43 3a 6f 31 a4 b3 3f 17 43 3a 6f 31 a4 b3 3f
       0.07672413793103448 0.07672413793103448
000030 17 43 3a 6f 31 a4 b3 3f 17 43 3a 6f 31 a4 b3 3f
       0.07672413793103448 0.07672413793103448
000040 17 43 3a 6f 31 a4 b3 3f 17 43 3a 6f 31 a4 b3 3f
       0.07672413793103448 0.07672413793103448
000050 17 43 3a 6f 31 a4 b3 3f 17 43 3a 6f 31 a4 b3 3f
       0.07672413793103448 0.07672413793103448
000060 17 43 3a 6f 31 a4 b3 3f 17 43 3a 6f 31 a4 b3 3f
       0.07672413793103448 0.07672413793103448
000070 17 43 3a 6f 31 a4 b3 3f 17 43 3a 6f 31 a4 b3 3f
       0.07672413793103448 0.07672413793103448
000080 17 43 3a 6f 31 a4 b3 3f 17 43 3a 6f 31 a4 b3 3f
       0.07672413793103448 0.07672413793103448
000090 17 43 3a 6f 31 a4 b3 3f 17 43 3a 6f 31 a4 b3 3f
       0.07672413793103448 0.07672413793103448
0000a0 17 43 3a 6f 31 a4 b3 3f 17 43 3a 6f 31 a4 b3 3f
       0.07672413793103448 0.07672413793103448
0000b0 17 43 3a 6f 31 a4 b3 3f 17 43 3a 6f 31 a4 b3 3f
       0.07672413793103448 0.07672413793103448
0000c0 17 43 3a 6f 31 a4 b3 3f 17 43 3a 6f 31 a4 b3 3f
       0.07672413793103448 0.07672413793103448
0000d0 17 43 3a 6f 31 a4 b3 3f 17 43 3a 6f 31 a4 b3 3f
       0.07672413793103448 0.07672413793103448
0000e0 17 43 3a 6f 31 a4 b3 3f 17 43 3a 6f 31 a4 b3 3f
       0.07672413793103448 0.07672413793103448
0000f0 17 43 3a 6f 31 a4 b3 3f 17 43 3a 6f 31 a4 b3 3f
       0.07672413793103448 0.07672413793103448
000100 17 43 3a 6f 31 a4 b3 3f 17 43 3a 6f 31 a4 b3 3f
       0.07672413793103448 0.07672413793103448
000110 17 43 3a 6f 31 a4 b3 3f 17 43 3a 6f 31 a4 b3 3f
       0.07672413793103448 0.07672413793103448
000120 17 43 3a 6f 31 a4 b3 3f 17 43 3a 6f 31 a4 b3 3f
       0.07672413793103448 0.07672413793103448
000130 17 43 3a 6f 31 a4 b3 3f 17 43 3a 6f 31 a4 b3 3f
       0.07672413793103448 0.07672413793103448
000140 17 43 3a 6f 31 a4 b3 3f 17 43 3a 6f 31 a4 b3 3f
       0.07672413793103448 0.07672413793103448
000150 17 43 3a 6f 31 a4 b3 3f 17 43 3a 6f 31 a4 b3 3f
       0.07672413793103448 0.07672413793103448
000160 17 43 3a 6f 31 a4 b3 3f 17 43 3a 6f 31 a4 b3 3f
       0.07672413793103448 0.07672413793103448
000170 17 43 3a 6f 31 a4 b3 3f 17 43 3a 6f 31 a4 b3 3f
       0.07672413793103448 0.07672413793103448
000180 17 43 3a 6f 31 a4 b3 3f 17 43 3a 6f 31 a4 b3 3f
       0.07672413793103448 0.07672413793103448
000190 17 43 3a 6f 31 a4 b3 3f 17 43 3a 6f 31 a4 b3 3f
       0.07672413793103448 0.07672413793103448
0001a0 17 43 3a 6f 31 a4 b3 3f 17 43 3a 6f 31 a4 b3 3f
       0.07672413793103448 0.07672413793103448
0001b0 17 43 3a 6f 31 a4 b3 3f 17 43 3a 6f 31 a4 b3 3f
       0.07672413793103448 0.07672413793103448
0001c0 17 43 3a 6f 31 a4 b3 3f 17 43 3a 6f 31 a4 b3 3f
       0.07672413793103448 0.07672413793103448
0001d0 17 43 3a 6f 31 a4 b3 3f 17 43 3a 6f 31 a4 b3 3f
       0.07672413793103448 0.07672413793103448
0001e0 17 43 3a 6f 31 a4 b3 3f 17 43 3a 6f 31 a4 b3 3f
       0.07672413793103448 0.07672413793103448
0001f0 17 43 3a 6f 31 a4 b3 3f 17 43 3a 6f 31 a4 b3 3f
       0.07672413793103448 0.07672413793103448
000200 17 43 3a 6f 31 a4 b3 3f 17 43 3a 6f 31 a4 b3 3f
       0.07672413793103448 0.07672413793103448
000210 17 43 3a 6f 31 a4 b3 3f 17 43 3a 6f 31 a4 b3 3f
       0.07672413793103448 0.07672413793103448
000220 17 43 3a 6f 31 a4 b3 3f 17 43 3a 6f 31 a4 b3 3f
       0.07672413793103448 0.07672413793103448
000230 17 43 3a 6f 31 a4 b3 3f 17 43 3a 6f 31 a4 b3 3f
       0.07672413793103448 0.07672413793103448
000240 17 43 3a 6f 31 a4 b3 3f 17 43 3a 6f 31 a4 b3 3f
       0.07672413793103448 0.07672413793103448
000250 17 43 3a 6f 31 a4 b3 3f 17 43 3a 6f 31 a4 b3 3f
       0.07672413793103448 0.07672413793103448
000260 17 43 3a 6f 31 a4 b3 3f 17 43 3a 6f 31 a4 b3 3f
       0.07672413793103448 0.07672413793103448
000270 17 43 3a 6f 31 a4 b3 3f 17 43 3a 6f 31 a4 b3 3f
       0.07672413793103448 0.07672413793103448
000280 17 43 3a 6f 31 a4 b3 3f 17 43 3a 6f 31 a4 b3 3f
       0.07672413793103448 0.07672413793103448
000290 17 43 3a 6f 31 a4 b3 3f 17 43 3a 6f 31 a4 b3 3f
       0.07672413793103448 0.07672413793103448
0002a0 17 43 3a 6f 31 a4 b3 3f 17 43 3a 6f 31 a4 b3 3f
       0.07672413793103448 0.07672413793103448
0002b0 17 43 3a 6f 31 a4 b3 3f 17 43 3a 6f 31 a4 b3 3f
       0.07672413793103448 0.07672413793103448
0002c0 17 43 3a 6f 31 a4 b3 3f 17 43 3a 6f 31 a4 b3 3f
       0.07672413793103448 0.07672413793103448
0002d0 17 43 3a 6f 31 a4 b3 3f 17 43 3a 6f 31 a4 b3 3f
       0.07672413793103448 0.07672413793103448
0002e0 17 43 3a 6f 31 a4 b3 3f 17 43 3a 6f 31 a4 b3 3f
       0.07672413793103448 0.07672413793103448
0002f0 17 43 3a 6f 31 a4 b3 3f 17 43 3a 6f 31 a4 b3 3f
       0.07672413793103448 0.07672413793103448
000300 17 43 3a 6f 31 a4 b3 3f 17 43 3a 6f 31 a4 b3 3f
       0.07672413793103448 0.07672413793103448
000310 17 43 3a 6f 31 a4 b3 3f 17 43 3a 6f 31 a4 b3 3f
       0.07672413793103448 0.07672413793103448
000320 17 43 3a 6f 31 a4 b3 3f 17 43 3a 6f 31 a4 b3 3f
       0.07672413793103448 0.07672413793103448
000330 17 43 3a 6f 31 a4 b3 3f 17 43 3a 6f 31 a4 b3 3f
       0.07672413793103448 0.07672413793103448
000340 17 43 3a 6f 31 a4 b3 3f 17 43 3a 6f 31 a4 b3 3f
       0.07672413793103448 0.07672413793103448
000350 17 43 3a 6f 31 a4 b3 3f 17 43 3a 6f 31 a4 b3 3f
       0.07672413793103448 0.07672413793103448
000360 17 43 3a 6f 31 a4 b3 3f 17 43 3a 6f 31 a4 b3 3f
       0.07672413793103448 0.07672413793103448
000370 17 43 3a 6f 31 a4 b3 3f 17 43 3a 6f 31 a4 b3 3f
       0.07672413793103448 0.07672413793103448
000380 17 43 3a 6f 31 a4 b3 3f 17 43 3a 6f 31 a4 b3 3f
       0.07672413793103448 0.07672413793103448
000390 17 43 3a 6f 31 a4 b3 3f 17 43 3a 6f 31 a4 b3 3f
       0.07672413793103448 0.07672413793103448
0003a0 17 43 3a 6f 31 a4 b3 3f 17 43 3a 6f 31 a4 b3 3f
       0.07672413793103448 0.07672413793103448
0003b0 17 43 3a 6f 31 a4 b3 3f 17 43 3a 6f 31 a4 b3 3f
       0.07672413793103448 0.07672413793103448
0003c0 17 43 3a 6f 31 a4 b3 3f 17 43 3a 6f 31 a4 b3 3f
       0.07672413793103448 0.07672413793103448
0003d0 17 43 3a 6f 31 a4 b3 3f 17 43 3a 6f 31 a4 b3 3f
       0.07672413793103448 0.07672413793103448
0003e0 17 43 3a 6f 31 a4 b3 3f 17 43 3a 6f 31 a4 b3 3f
       0.07672413793103448 0.07672413793103448
0003f0 17 43 3a 6f 31 a4 b3 3f 17 43 3a 6f 31 a4 b3 3f
       0.07672413793103448 0.07672413793103448
000400 17 43 3a 6f 31 a4 b3 3f 17 43 3a 6f 31 a4 b3 3f
       0.07672413793103448 0.07672413793103448
000410 17 43 3a 6f 31 a4 b3 3f 17 43 3a 6f 31 a4 b3 3f
       0.07672413793103448 0.07672413793103448
000420 17 43 3a 6f 31 a4 b3 3f 17 43 3a 6f 31 a4 b3 3f
       0.07672413793103448 0.07672413793103448
000430 17 43 3a 6f 31 a4 b3 3f 17 43 3a 6f 31 a4 b3 3f
       0.07672413793103448 0.07672413793103448
000440 17 43 3a 6f 31 a4 b3 3f 17 43 3a 6f 31 a4 b3 3f
       0.07672413793103448 0.07672413793103448
000450 17 43 3a 6f 31 a4 b3 3f 17 43 3a 6f 31 a4 b3 3f
       0.07672413793103448 0.07672413793103448
000460 17 43 3a 6f 31 a4 b3 3f 17 43 3a 6f 31 a4 b3 3f
       0.07672413793103448 0.07672413793103448
000470 17 43 3a 6f 31 a4 b3 3f 17 43 3a 6f 31 a4 b3 3f
       0.07672413793103448 0.07672413793103448
000480 17 43 3a 6f 31 a4 b3 3f 17 43 3a 6f 31 a4 b3 3f
       0.07672413793103448 0.07672413793103448
000490 17 43 3a 6f 31 a4 b3 3f 17 43 3a 6f 31 a4 b3 3f
       0.07672413793103448 0.07672413793103448
0004a0 17 43 3a 6f 31 a4 b3 3f 17 43 3a 6f 31 a4 b3 3f
       0.07672413793103448 0.07672413793103448
0004b0 17 43 3a 6f 31 a4 b3 3f 17 43 3a 6f 31 a4 b3 3f
       0.07672413793103448 0.07672413793103448
0004c0 17 43 3a 6f 31 a4 b3 3f 17 43 3a 6f 31 a4 b3 3f
       0.07672413793103448 0.07672413793103448
0004d0 17 43 3a 6f 31 a4 b3 3f 17 43 3a 6f 31 a4 b3 3f
       0.07672413793103448 0.07672413793103448
0004e0 17 43 3a 6f 31 a4 b3 3f 17 43 3a 6f 31 a4 b3 3f
       0.07672413793103448 0.07672413793103448
0004f0 17 43 3a 6f 31 a4 b3 3f 17 43 3a 6f 31 a4 b3 3f
       0.07672413793103448 0.07672413793103448
000500 17 43 3a 6f 31 a4 b3 3f 17 43 3a 6f 31 a4 b3 3f
       0.07672413793103448 0.07672413793103448
000510 17 43 3a 6f 31 a4 b3 3f 17 43 3a 6f 31 a4 b3 3f
       0.07672413793103448 0.07672413793103448
000520 17 43 3a 6f 31 a4 b3 3f 17 43 3a 6f 31 a4 b3 3f
       0.07672413793103448 0.07672413793103448
000530 17 43 3a 6f 31 a4 b3 3f 17 43 3a 6f 31 a4 b3 3f
       0.07672413793103448 0.07672413793103448
000540 17 43 3a 6f 31 a4 b3 3f 17 43 3a 6f 31 a4 b3 3f
       0.07672413793103448 0.07672413793103448
000550 17 43 3a 6f 31 a4 b3 3f 17 43 3a 6f 31 a4 b3 3f
       0.07672413793103448 0.07672413793103448
000560 17 43 3a 6f 31 a4 b3 3f 17 43 3a 6f 31 a4 b3 3f
       0.07672413793103448 0.07672413793103448
000570 17 43 3a 6f 31 a4 b3 3f 17 43 3a 6f 31 a4 b3 3f
       0.07672413793103448 0.07672413793103448
000580 17 43 3a 6f 31 a4 b3 3f 17 43 3a 6f 31 a4 b3 3f
       0.07672413793103448 0.07672413793103448
000590 17 43 3a 6f 31 a4 b3 3f 17 43 3a 6f 31 a4 b3 3f
       0.07672413793103448 0.07672413793103448
0005a0 17 43 3a 6f 31 a4 b3 3f 17 43 3a 6f 31 a4 b3 3f
       0.07672413793103448 0.07672413793103448
0005b0 17 43 3a 6f 31 a4 b3 3f 17 43 3a 6f 31 a4 b3 3f
       0.07672413793103448 0.07672413793103448
0005c0 17 43 3a 6f 31 a4 b3 3f 17 43 3a 6f 31 a4 b3 3f
       0.07672413793103448 0.07672413793103448
0005d0 17 43 3a 6f 31 a4 b3 3f 17 43 3a 6f 31 a4 b3 3f
       0.07672413793103448 0.07672413793103448
0005e0 17 43 3a 6f 31 a4 b3 3f 17 43 3a 6f 31 a4 b3 3f
       0.07672413793103448 0.07672413793103448
0005f0 17 43 3a 6f 31 a4 b3 3f 17 43 3a 6f 31 a4 b3 3f
       0.07672413793103448 0.07672413793103448
000600 17 43 3a 6f 31 a4 b3 3f 17 43 3a 6f 31 a4 b3 3f
       0.07672413793103448 0.07672413793103448
000610 17 43 3a 6f 31 a4 b3 3f 17 43 3a 6f 31 a4 b3 3f
       0.07672413793103448 0.07672413793103448
000620 17 43 3a 6f 31 a4 b3 3f 17 43 3a 6f 31 a4 b3 3f
       0.07672413793103448 0.07672413793103448
000630 17 43 3a 6f 31 a4 b3 3f 17 43 3a 6f 31 a4 b3 3f
       0.07672413793103448 0.07672413793103448
000640 17 43 3a 6f 31 a4 b3 3f 17 43 3a 6f 31 a4 b3 3f
       0.07672413793103448 0.07672413793103448
000650 17 43 3a 6f 31 a4 b3 3f 17 43 3a 6f 31 a4 b3 3f
       0.07672413793103448 0.07672413793103448
000660 17 43 3a 6f 31 a4 b3 3f 17 43 3a 6f 31 a4 b3 3f
       0.07672413793103448 0.07672413793103448
000670 17 43 3a 6f 31 a4 b3 3f 17 43 3a 6f 31 a4 b3 3f
       0.07672413793103448 0.07672413793103448
000680 17 43 3a 6f 31 a4 b3 3f 17 43 3a 6f 31 a4 b3 3f
       0.07672413793103448 0.07672413793103448
000690 17 43 3a 6f 31 a4 b3 3f 17 43 3a 6f 31 a4 b3 3f
       0.07672413793103448 0.07672413793103448
0006a0 17 43 3a 6f 31 a4 b3 3f 17 43 3a 6f 31 a4 b3 3f
       0.07672413793103448 0.07672413793103448
0006b0 17 43 3a 6f 31 a4 b3 3f 17 43 3a 6f 31 a4 b3 3f
       0.07672413793103448 0.07672413793103448
0006c0 17 43 3a 6f 31 a4 b3 3f 17 43 3a 6f 31 a4 b3 3f
       0.07672413793103448 0.07672413793103448
0006d0 17 43 3a 6f 31 a4 b3 3f 17 43 3a 6f 31 a4 b3 3f
       0.07672413793103448 0.07672413793103448
0006e0 17 43 3a 6f 31 a4 b3 3f 17 43 3a 6f 31 a4 b3 3f
       0.07672413793103448 0.07672413793103448
0006f0 17 43 3a 6f 31 a4 b3 3f 17 43 3a 6f 31 a4 b3 3f
       0.07672413793103448 0.07672413793103448
000700 17 43 3a 6f 31 a4 b3 3f 17 43 3a 6f 31 a4 b3 3f
       0.07672413793103448 0.07672413793103448
000710 17 43 3a 6f 31 a4 b3 3f 17 43 3a 6f 31 a4 b3 3f
       0.07672413793103448 0.07672413793103448
000720 17 43 3a 6f 31 a4 b3 3f 17 43 3a 6f 31 a4 b3 3f
       0.07672413793103448 0.07672413793103448
000730 17 43 3a 6f 31 a4 b3 3f 17 43 3a 6f 31 a4 b3 3f
       0.07672413793103448 0.07672413793103448
000740 17 43 3a 6f 31 a4 b3 3f 17 43 3a 6f 31 a4 b3 3f
       0.07672413793103448 0.07672413793103448
000750 17 43 3a 6f 31 a4 b3 3f 17 43 3a 6f 31 a4 b3 3f
       0.07672413793103448 0.07672413793103448
000760 17 43 3a 6f 31 a4 b3 3f 17 43 3a 6f 31 a4 b3 3f
       0.07672413793103448 0.07672413793103448
000770 17 43 3a 6f 31 a4 b3 3f 17 43 3a 6f 31 a4 b3 3f
       0.07672413793103448 0.07672413793103448
000780 17 43 3a 6f 31 a4 b3 3f 17 43 3a 6f 31 a4 b3 3f
       0.07672413793103448 0.07672413793103448
000790 17 43 3a 6f 31 a4 b3 3f 17 43 3a 6f 31 a4 b3 3f
       0.07672413793103448 0.07672413793103448
0007a0 17 43 3a 6f 31 a4 b3 3f 17 43 3a 6f 31 a4 b3 3f
       0.07672413793103448 0.07672413793103448
0007b0 17 43 3a 6f 31 a4 b3 3f 17 43 3a 6f 31 a4 b3 3f
       0.07672413793103448 0.07672413793103448
0007c0 17 43 3a 6f 31 a4 b3 3f 17 43 3a 6f 31 a4 b3 3f
       0.07672413793103448 0.07672413793103448
0007d0 17 43 3a 6f 31 a4 b3 3f 17 43 3a 6f 31 a4 b3 3f
       0.07672413793103448 0.07672413793103448
0007e0 17 43 3a 6f 31 a4 b3 3f 17 43 3a 6f 31 a4 b3 3f
       0.07672413793103448 0.07672413793103448
0007f0 17 43 3a 6f 31 a4 b3 3f 17 43 3a 6f 31 a4 b3 3f
       0.07672413793103448 0.07672413793103448

zmax f8 []
000000 00 00 00 00 00 00 14 40
       5.0

hz_F f8 [401]
000000 47 70 f8 51 88 26 a2 3f b2 7c 7a 99 53 42 ac 3f
       0.03545022965065008 0.0551935314990656
000010 17 62 49 5b ea 13 b1 3f 21 1c 17 61 3a d4 b2 3f
       0.06671013573339511 0.07355084295623772
000020 b5 0b e7 f2 29 e1 b3 3f a6 7d 16 68 84 83 b4 3f
       0.07765447788464892 0.08013179341514007
000030 35 0f 86 7f f8 e5 b4 3f 50 4d c4 35 e2 21 b5 3f
       0.08163407433863486 0.08254827320734148
000040 1b 1c 26 f9 72 46 b5 3f 82 3d 0c 63 d2 5c b5 3f
       0.08310621817337031 0.08344759863051901
000050 47 f4 f8 9e 8a 6a b5 3f bd 14 23 c3 f8 72 b5 3f
       0.08365694409526823 0.0837855793389108
000060 c8 48 db 27 29 78 b5 3f e0 8e 78 ea 5b 7b b5 3f
       0.0838647577577688 0.08391355966937963
000070 00 a6 07 f1 54 7d b5 3f fb 5b 7d 63 8c 7e b5 3f
       0.08394366154211497 0.0839622252363909
000080 0b bc 66 1e 4c 7f b5 3f 4d 3a 42 a2 c1 7f b5 3f
       0.08397365324229626 0.0839806576861772
000090 44 3c 5b 06 09 80 b5 3f 4d a5 a9 ab 33 80 b5 3f
       0.08398491292176496 0.08398745480521548
0000a0 3b 8d 4f 58 4c 80 b5 3f 46 30 b4 bd 59 80 b5 3f
       0.0839889255144514 0.08398972398225721
0000b0 30 e7 5c 06 60 80 b5 3f f2 7b 6b cb 61 80 b5 3f
       0.08399009852737715 0.08399020401292015
0000c0 60 2c 6a ac 60 80 b5 3f cb 29 5b ad 5d 80 b5 3f
       0.08399013718933324 0.08398995859457796
0000d0 43 65 1f 71 59 80 b5 3f 69 49 cd 5d 54 80 b5 3f
       0.08398970615180183 0.08398940363011821
0000e0 9d fc 58 b3 4e 80 b5 3f 80 35 bc 99 48 80 b5 3f
       0.08398906591991069 0.08398870232868738
0000f0 90 70 d3 29 42 80 b5 3f 4e ee ec 72 3b 80 b5 3f
       0.08398831864491485 0.0839879184322225
000100 28 8a 47 7e 34 80 b5 3f c2 73 46 51 2d 80 b5 3f
       0.08398750384325437 0.08398707613237291
000110 bd a5 d4 ee 25 80 b5 3f 23 ee 45 58 1e 80 b5 3f
       0.08398663597895158 0.08398618369204107
000120 64 ce e4 8d 16 80 b5 3f 5c 4c 4d 8f 0e 80 b5 3f
       0.08398571933940385 0.08398524283011127
000130 42 94 a5 5b 06 80 b5 3f ea 94 c2 f1 fd 7f b5 3f
       0.08398475396605057 0.08398425247522182
000140 5b b1 3e 50 f5 7f b5 3f 06 3d 88 75 ec 7f b5 3f
       0.08398373803237773 0.08398321027219788
000150 74 6e ea 5f e3 7f b5 3f 6a d9 92 0d da 7f b5 3f
       0.08398266879742683 0.08398211318385554
000160 ae ae 94 7c d0 7f b5 3f dd 7e ea aa c6 7f b5 3f
       0.0839815429832764 0.08398095772508492
000170 bc bd 76 96 bc 7f b5 3f 8b 38 04 3d b2 7f b5 3f
       0.08398035691674627 0.08397974004421564
000180 b9 ac 45 9c a7 7f b5 3f 92 34 d5 b1 9c 7f b5 3f
       0.08397910657156417 0.08397845594045553
000190 b3 7e 33 7b 91 7f b5 3f bc ac c6 f5 85 7f b5 3f
       0.08397778756943346 0.08397710085289395
0001a0 e3 57 d9 1e 7a 7f b5 3f bc 69 99 f3 6d 7f b5 3f
       0.083976395160192 0.08397566983459276
0001b0 fa b0 16 71 61 7f b5 3f 8e 95 41 94 54 7f b5 3f
       0.08397492419198108 0.08397415751968237
0001c0 7c 6d e9 59 47 7f b5 3f cd 05 bb be 39 7f b5 3f
       0.08397336907494507 0.08397255808360811
0001d0 81 d4 3e bf 2b 7f b5 3f 8e 51 d7 57 1d 7f b5 3f
       0.08397172373845942 0.08397086519773309
0001e0 d4 fe be 84 0e 7f b5 3f f9 68 06 42 ff 7e b5 3f
       0.08396998158331864 0.08396907197894511
0001f0 cf 0e 92 8b ef 7e b5 3f e0 22 18 5d df 7e b5 3f
       0.08396813542827462 0.08396717093286155
000200 75 02 1e b2 ce 7e b5 3f 7e 06 f6 85 bd 7e b5 3f
       0.08396617744984687 0.08396515388997192
000210 73 85 bc d3 ab 7e b5 3f fc 54 55 96 99 7e b5 3f
       0.08396409911485651 0.08396301193473116
000220 74 65 68 c8 86 7e b5 3f c2 f0 5e 64 73 7e b5 3f
       0.08396189110535152 0.08396073532543638
000230 71 f9 5f 64 5f 7e b5 3f 24 c2 4c c2 4a 7e b5 3f
       0.08395954323348122 0.08395831340454457
000240 89 04 bd 77 35 7e b5 3f 28 ea fa 7d 1f 7e b5 3f
       0.0839570443468053 0.08395573449789906
000250 d2 be fe cd 08 7e b5 3f 83 75 6a 60 f1 7d b5 3f
       0.08395438222100474 0.08395298580076908
000260 52 d3 84 2d d9 7d b5 3f a9 4e 34 2d c0 7d b5 3f
       0.08395154343891179 0.08395005324956152
000270 a6 ab f9 56 a6 7d b5 3f 7c 0a ea a1 8b 7d b5 3f
       0.08394851325435457 0.08394692137702892
000280 0f ca a8 04 70 7d b5 3f 74 f2 60 75 53 7d b5 3f
       0.08394527543786288 0.08394357314768702
000290 f0 37 be e9 35 7d b5 3f 82 63 e5 56 17 7d b5 3f
       0.08394181210152829 0.0839399897717055
0002a0 2f 7c 6c b1 f7 7c b5 3f bf 07 52 ed d6 7c b5 3f
       0.08393810350070006 0.08393615049320056
0002b0 81 14 f4 fd b4 7c b5 3f 27 82 06 d6 91 7c b5 3f
       0.08393412780795197 0.08393203234891954
0002c0 82 74 88 67 6d 7c b5 3f dc 7c b9 a3 47 7c b5 3f
       0.08392986085569201 0.08392760989362408
0002d0 ce 32 0d 7b 20 7c b5 3f 37 e1 1e dd f7 7b b5 3f
       0.08392527584255591 0.08392285488560423
0002e0 e1 bd a3 b8 cd 7b b5 3f 1a 35 5c fb a1 7b b5 3f
       0.08392034299662711 0.08391773592685006
0002f0 e8 36 04 92 74 7b b5 3f 65 7c 42 68 45 7b b5 3f
       0.08391502919058846 0.08391221805003253
000300 f8 2e 96 68 14 7b b5 3f ba cb 43 7c e1 7a b5 3f
       0.08390929749856102 0.0839062622433592
000310 14 0a 40 8b ac 7a b5 3f 4d 92 19 7c 75 7a b5 3f
       0.0839031066862293 0.08389982490332067
000320 c7 a0 e0 33 3c 7a b5 3f 59 36 0d 96 00 7a b5 3f
       0.08389641062297236 0.08389285720223806
000330 32 ed 62 84 c2 79 b5 3f 78 e4 d2 de 81 79 b5 3f
       0.08388915760126706 0.08388530435594699
000340 c3 2e 5b 83 3e 79 b5 3f a1 97 e3 4d f8 78 b5 3f
       0.08388128954828304 0.08387710477435785
000350 ad d6 17 18 af 78 b5 3f 9c 57 3e b9 62 78 b5 3f
       0.0838727411099522 0.08386818907305699
000360 a2 10 0c 06 13 78 b5 3f 40 89 74 d0 bf 77 b5 3f
       0.08386343858370762 0.08385847892035247
000370 1e d8 75 e7 68 77 b5 3f a8 75 e0 16 0e 77 b5 3f
       0.08385329867255151 0.08384788568988333
000380 b0 33 1a 27 af 76 b5 3f a6 16 dc dc 4b 76 b5 3f
       0.08384222702643629 0.08383630888064406
000390 f0 95 ea f8 e3 75 b5 3f 78 78 c7 37 77 75 b5 3f
       0.08383011653003059 0.08382363426014361
0003a0 24 1b 5d 51 05 75 b5 3f ef 29 a2 f8 8d 74 b5 3f
       0.08381684528749794 0.08380973167565008
0003b0 37 14 35 db 10 74 b5 3f 55 bb ee a0 8d 73 b5 3f
       0.0838022742437524 0.08379445246712909
0003c0 b1 13 6b eb 03 73 b5 3f 73 ea 86 55 73 72 b5 3f
       0.08378624436870898 0.0837776264005841
0003d0 1f b2 d1 72 db 71 b5 3f a4 2d f2 ce 3b 71 b5 3f
       0.08376857331467889 0.0837590580214767
0003e0 e0 62 fc ec 93 70 b5 3f d7 b9 b7 46 e3 6f b5 3f
       0.08374905143535782 0.08373852230554434
0003f0 84 09 d3 4b 29 6f b5 3f ce 45 05 61 65 6e b5 3f
       0.08372743703060875 0.08371575945536522
000400 f2 3d 18 df 96 6d b5 3f 06 61 db 11 bd 6c b5 3f
       0.08370345064781029 0.08369046865425753
000410 ec b7 fb 36 d7 6b b5 3f 4e 68 be 7c e4 6a b5 3f
       0.08367676823010556 0.08366230054380816
000420 b4 08 9a 00 e4 69 b5 3f 48 85 ab cd d4 68 b5 3f
       0.08364701285066439 0.08363084813347144
000430 60 55 02 db b5 67 b5 3f 7f 1e bf 09 86 66 b5 3f
       0.08361374470617511 0.08359563577607253
000440 8e 01 00 23 44 65 b5 3f 44 3a 94 d5 ee 63 b5 3f
       0.08357644896023528 0.08355610575038336
000450 4d ec 70 b3 84 62 b5 3f 7d 37 df 2e 04 61 b5 3f
       0.08353452092062348 0.08351160187086566
000460 0d 84 5b 97 6b 5f b5 3f 7f 67 1c 16 b9 5d b5 3f
       0.08348724789858882 0.08346134939020365
000470 c4 70 36 aa ea 5b b5 3f e0 66 50 24 fe 59 b5 3f
       0.0834337869222877 0.08340443026136368
000480 a8 f9 da 21 f1 57 b5 3f 1c 48 bb 07 c1 55 b5 3f
       0.08337313725039641 0.08333975256690035
000490 71 6f 57 fc 6a 53 b5 3f 8a 68 f0 e0 eb 50 b5 3f
       0.08330410633737785 0.08326601258923652
0004a0 7b 8c 32 4a 40 4e b5 3f da ac e2 77 64 4b b5 3f
       0.08322526751958208 0.08318164755717153
0004b0 b3 23 8a 4b 54 48 b5 3f aa a3 ff 3d 0b 45 b5 3f
       0.0831349071905965 0.08308477653157689
0004c0 e1 d0 a6 53 84 41 b5 3f 8a a4 39 0f ba 3d b5 3f
       0.08303095857883448 0.08297312614162614
0004d0 9d be e9 62 a6 39 b5 3f e1 90 9f 9f 42 35 b5 3f
       0.08291091837758775 0.08284393689206439
0004e0 3f 2b 15 62 87 30 b5 3f 8a ce 80 7d 6c 2b b5 3f
       0.08277174133870079 0.0826938444523028
0004f0 2c 37 78 e3 e8 25 b5 3f fa 8d a8 88 f2 1f b5 3f
       0.08260970643479187 0.0825187286032402
000500 2d 1a f0 45 7e 19 b5 3f a4 fc 55 b5 7f 12 b5 3f
       0.08242024619549033 0.08231352021356259
000510 31 b6 47 0a e9 0a b5 3f 85 3a 6e e4 aa 02 b5 3f
       0.0821977281663855 0.08207195355337589
000520 b9 76 51 1c b4 f9 b4 3f 74 b2 e2 88 f1 ef b4 3f
       0.08193517390597095 0.0817862471764757
000530 25 62 e4 bc 4d e5 b4 3f 6c 43 fc ba b0 d9 b4 3f
       0.08162389623283468 0.08144669117997488
000540 0d 32 10 9f ff cc b4 3f d0 44 58 3b 1c bf b4 3f
       0.0812530291879698 0.08104111145827919
000550 9f 44 55 a7 e4 af b4 3f d6 b6 95 be 32 9f b4 3f
       0.08080891690521462 0.08055417206716284
000560 a5 aa e6 8c db 8c b4 3f 38 88 35 a5 ae 78 b4 3f
       0.08027431669203595 0.07996646436143429
000570 91 c4 06 60 75 62 b4 3f b0 23 f9 fd f1 49 b4 3f
       0.07962735742946082 0.07925331545369718
000580 d6 95 55 aa de 2e b4 3f 2f 77 2c 59 ec 10 b4 3f
       0.07884017618706393 0.07838322808353547
000590 3d db f7 7b c1 ef b3 3f 71 08 2f 87 f8 ca b3 3f
       0.0778771331459724 0.07731583881744243
0005a0 35 26 ac 42 1e a2 b3 3f cf f6 43 de af 74 b3 3f
       0.07669247749085957 0.07599925209430157
0005b0 7e f2 84 c3 18 42 b3 3f 0e 00 4f 1d b0 09 b3 3f
       0.07522730611248993 0.07436657634298191
0005c0 57 ee f0 0d b6 ca b2 3f e1 1d d3 8c 50 84 b2 3f
       0.07340562668189797 0.07233146131613168
0005d0 a7 54 98 e5 87 35 b2 3f a5 e9 39 d4 42 dd b1 3f
       0.07112931590411851 0.0697824257021354
0005e0 b9 e6 34 3c 42 7a b1 3f 87 1b a1 7c 1c 0b b1 3f
       0.06827177019013221 0.06657579462726747
0005f0 5d ce 37 68 38 8e b0 3f a0 29 ef ee c7 01 b0 3f
       0.06467011017212472 0.06252717574458311
000600 98 4a 20 1d 85 c7 ae 3f d4 35 97 4e bf 63 ad 3f
       0.06011596661132507 0.05740163645132737
000610 d9 66 24 ab 21 d3 ab 3f 88 bd 0c d7 f8 0f aa 3f
       0.054345180646306175 0.050903106929008735
000620 62 3f 85 ff ef 13 a8 3f 87 7b 1b 2e 05 d8 a5 3f
       0.04702711099764546 0.04266372859796435
000630 fb fe 81 70 79 54 a3 3f 1d 4c 88 99 b2 80 a0 3f
       0.0377538633192653 0.03223188518691009
000640 6d dd 87 03 de a5 9a 3f 0f 35 8c 4b 82 4f 96 3f
       0.026023358312128254 0.021787677632393584
000650 78 82 7c f6 6f 27 93 3f 48 2d 8e 62 59 c8 90 3f
       0.018705129069646692 0.0163892713931493
000660 2b 9f fb 1b 48 e7 8d 3f ca dd 50 2c 68 02 8b 3f
       0.01460129104039217 0.013188184597409686
000670 14 7e 8e c7 f7 ac 88 3f b7 db 1c f3 c0 c2 86 3f
       0.012048660066112972 0.01111365072175184
000680 47 28 08 41 69 2a 85 3f c0 68 af 46 c3 d1 83 3f
       0.010334799096217163 0.00967743453468406
000690 66 cf 93 f9 7e ab 82 3f b8 6e e8 4c ac ad 81 3f
       0.009116165153024002 0.008632036301654863
0006a0 d2 ca 9f 47 bf d0 80 3f b1 3f bd de e5 0e 80 3f
       0.008210653661057252 0.007840915546381529
0006b0 d3 e2 62 56 25 c7 7e 3f b0 35 3b 12 55 96 7d 3f
       0.007514139031791617 0.007223446187436464
0006c0 5f 8e 7a 78 93 85 7c 3f b1 4d 1b 6f 32 90 7b 3f
       0.006963325554952242 0.006729313857892037
0006d0 02 70 6a 4f 5e b2 7a 3f 58 ae 32 f1 ee e8 79 3f
       0.006517761611259944 0.006325658195389737
0006e0 e7 5b 3e 30 44 31 79 3f ad e2 2f cf 2a 89 78 3f
       0.006150499688280831 0.005990187858508617
0006f0 d5 72 62 86 c7 ee 77 3f 42 2b 38 ae 86 60 77 3f
       0.005842952150626875 0.00570728883350108
000700 f2 9f 59 63 0f dd 76 3f ed 6d 45 51 39 63 76 3f
       0.005581913099014445 0.005465721031522969
000710 82 f4 c1 86 04 f2 75 3f 18 9e 6d df 92 88 75 3f
       0.005357759171713218 0.005257199975722958
000720 e4 de 5d aa 22 26 75 3f 99 40 d9 4a 0a ca 74 3f
       0.005163321888055104 0.0050754930540081395
000730 b8 f5 cd 9f b4 73 74 3f e2 54 47 0a 9e 22 74 3f
       0.004993157924102425 0.004915826172198852
000740 31 44 f3 f3 51 d6 73 3f 79 dc 69 bd 68 8e 73 3f
       0.004843063477168606 0.0047744838144502194
000750 dc d8 08 01 86 4a 73 3f 82 66 1f 1b 57 0a 73 3f
       0.004709742978368871 0.004648533113106647
000760 04 1a 37 eb 91 cd 72 3f 77 b6 a4 c4 f3 93 72 3f
       0.0045905780747888016 0.004535629481592466
000770 13 fc 72 86 40 5d 72 3f ca c1 2b d4 41 29 72 3f
       0.004483463336497645 0.0044338771283353815
000780 43 b4 3b 6a c6 f7 71 3f fa 35 97 89 a1 c8 71 3f
       0.004386687334528241 0.00434172726222703
000790 23 45 0d 77 aa 9b 71 3f e1 5e 51 0b bc 70 71 3f
       0.004298845175825935 0.004257902667710063
0007a0 ca 21 43 51 b4 47 71 3f 37 81 66 30 74 20 71 3f
       0.004218773236239712 0.004181341041118273
0007b0 56 0e cf 21 df fa 70 3f ca 6f 0c ee da d6 70 3f
       0.004145499810821093 0.00411115188105877
0007c0 37 26 dc 72 4f b4 70 3f 2d 06 95 6f 26 93 70 3f
       0.004078207346319077 0.004046583309276691
0007d0 20 f6 6c 57 4b 73 70 3f ca 52 d3 28 ab 54 70 3f
       0.004016203215369468 0.003986996261308115
0007e0 a4 43 3e 49 34 37 70 3f 49 92 da 64 d6 1a 70 3f
       0.003958896868326987 0.003931844211966303
0007f0 29 f5 4a a3 04 ff 6f 3f 57 4a 0d eb 53 ca 6f 3f
       0.0039057818015339097 0.0038806571032321924
