onecap_model_with_structure_ambiguity/output/upper_triangular_four_ambiguous_parameters/Delta_10.0_distorted_0/logadjustment_1_boundary_0/zmax_5.0_zscale_2.0/delta_0.02/q_0.1_gamma_6.0_rho_1.0/model.npz (npz, 126264 bytes, 58 tensors)

clowerlim f8 []
00000000: 2d43 1ceb e236 1a3f
0.0001

zmin f8 []
00000000: 0000 0000 0000 14c0
-5.0

Delta f8 []
00000000: 0000 0000 0000 2440
10.0

s1_F f8 [401]
00000000: 6815 8c9d 4063 d7bf 4b7e a319 7045 d7bf
00000010: 1e6e f199 9f27 d7bf 113b 622c cf09 d7bf
00000020: 9a28 bfd5 feeb d6bf 7512 d797 2ece d6bf
00000030: 814a 8073 5eb0 d6bf a7a5 4069 8e92 d6bf
00000040: d2a3 8479 be74 d6bf 5ba1 b1a4 ee56 d6bf
00000050: 5ef7 2beb 1e39 d6bf e0e8 584d 4f1b d6bf
00000060: 8e71 9fcb 7ffd d5bf 0d80 6866 b0df d5bf
00000070: 361a 1f1e e1c1 d5bf 0971 30f3 11a4 d5bf
00000080: 0cf3 0be6 4286 d5bf fe56 23f7 7368 d5bf
00000090: 11b3 ea26 a54a d5bf 8d81 d875 d62c d5bf
000000a0: 85c4 65e4 070f d5bf 2004 0e73 39f1 d4bf
000000b0: e963 4f22 6bd3 d4bf 0fbe aaf2 9cb5 d4bf
000000c0: b3b3 a3e4 ce97 d4bf b4b3 c0f8 007a d4bf
000000d0: 2d22 8b2f 335c d4bf 1c5a 8f89 653e d4bf
000000e0: 55d1 5c07 9820 d4bf 872d 86a9 ca02 d4bf
000000f0: 794f a170 fde4 d3bf 6c74 475d 30c7 d3bf
00000100: 9453 1570 63a9 d3bf b925 aba9 968b d3bf
00000110: e1d0 ac0a ca6d d3bf 1f02 c293 fd4f d3bf
00000120: 783c 9645 3132 d3bf 6305 d920 6514 d3bf
00000130: c8f3 3d26 99f6 d2bf a8e0 7c56 cdd8 d2bf
00000140: a9fd 51b2 01bb d2bf 19f3 7d3a 369d d2bf
00000150: 5f0d c6ef 6a7f d2bf 7b59 f4d2 9f61 d2bf
00000160: 26cd d7e4 d443 d2bf f76f 4426 0a26 d2bf
00000170: 2780 1398 3f08 d2bf d79e 233b 75ea d1bf
00000180: a1f7 5810 abcc d1bf 1979 9d18 e1ae d1bf
00000190: cff5 e054 1791 d1bf e35e 19c6 4d73 d1bf
000001a0: d0f4 426d 8455 d1bf 8d7b 604b bb37 d1bf
000001b0: 746e 7b61 f219 d1bf 8140 a4b0 29fc d0bf
000001c0: c792 f239 61de d0bf 2774 85fe 98c0 d0bf
000001d0: 869f 83ff d0a2 d0bf 5ec9 1b3e 0985 d0bf
000001e0: dbd2 84bb 4167 d0bf c323 fe78 7a49 d0bf
000001f0: 0ff0 cf77 b32b d0bf ca88 4bb9 ec0d d0bf
00000200: e050 977d 4ce0 cfbf a2b0 6913 c0a4 cfbf
00000210: c270 eb36 3469 cfbf 7ed1 0eeb a82d cfbf
00000220: fbd2 db32 1ef2 cebf 2104 7111 94b6 cebf
00000230: 2d52 048a 0a7b cebf c6ea e39f 813f cebf
00000240: 2931 7756 f903 cebf 0ba6 3fb1 71c8 cdbf
00000250: 4beb d9b3 ea8c cdbf 38d7 fe61 6451 cdbf
00000260: 277d 84bf de15 cdbf b76c 5fd0 59da ccbf
00000270: eecd a398 d59e ccbf 23b5 861c 5263 ccbf
00000280: 9469 5f60 cf27 ccbf 46d6 a868 4dec cbbf
00000290: 4cfa 023a ccb0 cbbf aa63 34d9 4b75 cbbf
000002a0: a0d7 2b4b cc39 cbbf a30f 0295 4dfe cabf
000002b0: 2962 fbbb cfc2 cabf dab8 89c5 5287 cabf
000002c0: 7379 4eb7 d64b cabf 4a9e 1c97 5b10 cabf
000002d0: 22e8 fa6a e1d4 c9bf ae15 2639 6899 c9bf
000002e0: e969 1308 f05d c9bf e820 73de 7822 c9bf
000002f0: 912c 33c3 02e7 c8bf d108 82bd 8dab c8bf
00000300: 60b9 d1d4 1970 c8bf 6ef8 da10 a734 c8bf
00000310: 5b87 a079 35f9 c7bf 39c3 7217 c5bd c7bf
00000320: 315d f3f2 5582 c7bf a052 1915 e846 c7bf
00000330: 7222 3587 7b0b c7bf bb3f f552 10d0 c6bf
00000340: 11cb 6a82 a694 c6bf 9a98 0e20 3e59 c6bf
00000350: 3e7c c636 d71d c6bf 7ef6 ead1 71e2 c5bf
00000360: d738 4dfd 0da7 c5bf fc80 3dc5 ab6b c5bf
00000370: f2f1 9136 4b30 c5bf 9fcc ad5e ecf4 c4bf
00000380: 9732 894b 8fb9 c4bf 1c5a b90b 347e c4bf
00000390: 3f5b 79ae da42 c4bf b4a2 b343 8307 c4bf
000003a0: 14eb 0bdc 2dcc c3bf c201 ea88 da90 c3bf
000003b0: 6850 855c 8955 c3bf 3c1e f169 3a1a c3bf
000003c0: 42d3 29c5 edde c2bf d419 2383 a3a3 c2bf
000003d0: cc22 d7b9 5b68 c2bf 33f9 5680 162d c2bf
000003e0: e91e dcee d3f1 c1bf 0c7f db1e 94b6 c1bf
000003f0: 2adb 192b 577b c1bf 84d1 c12f 1d40 c1bf
00000400: 15a4 7b4a e604 c1bf 34ed 869a b2c9 c0bf
00000410: e476 d640 828e c0bf 1d47 2e60 5553 c0bf
00000420: 1155 441d 2c18 c0bf f5d5 c73d 0dba bfbf
00000430: 1f58 281c ca43 bfbf 19d1 832c 8fcd bebf
00000440: b068 daca 5c57 bebf c142 b658 33e1 bdbf
00000450: a9dd 973d 136b bdbf f9b1 6ce7 fcf4 bcbf
00000460: 75ee 10cb f07e bcbf db90 dd64 ef08 bcbf
00000470: 3f6f 4439 f992 bbbf c48d 7bd5 0e1d bbbf
00000480: 65b7 39d0 30a7 babf 1a46 86ca 5f31 babf
00000490: 6e7e 9e70 9cbb b9bf 8d07 f37a e745 b9bf
000004a0: 7bb2 40af 41d0 b8bf 94b1 c7e1 ab5a b8bf
000004b0: ab7c a5f6 26e5 b7bf 2eb9 55e3 b36f b7bf
000004c0: 6f6d 5fb0 53fa b6bf 787b 347b 0785 b6bf
000004d0: 9965 4a78 d00f b6bf 304c 74f5 af9a b5bf
000004e0: 43c5 875c a725 b5bf d645 5736 b8b0 b4bf
000004f0: 591b 0f2e e43b b4bf e9f5 0315 2dc7 b3bf
00000500: a6c5 04e7 9452 b3bf 48ee 44cf 1dde b2bf
00000510: 86a9 f72d ca69 b2bf 4d51 ba9e 9cf5 b1bf
00000520: f3f2 f0ff 9781 b1bf 09cd 3f7b bf0d b1bf
00000530: a70d 558f 169a b0bf ef07 411b a126 b0bf
00000540: bd5d 51d7 c666 afbf b00b 5e94 c480 aebf
00000550: 5f7a 0f1f 469b adbf c06b 8071 57b6 acbf
00000560: 03c4 dd00 06d2 abbf 8507 4bf9 60ee aabf
00000570: a194 7885 790b aabf 782f ae24 6329 a9bf
00000580: 464d d112 3448 a8bf 2313 f3c6 0568 a7bf
00000590: b9e2 4c8e f588 a6bf 4377 624b 25ab a5bf
000005a0: 26d7 7263 bcce a4bf 6d2e b1e7 e8f3 a3bf
000005b0: 1b3d 400c e11a a3bf 5014 0f05 e543 a2bf
000005c0: 6bf3 1269 416f a1bf f721 af47 529d a0bf
000005d0: be26 9356 0e9d 9fbf fe9d d7af d006 9ebf
000005e0: dff0 8d5b 3b79 9cbf 89cc ba68 eff5 9abf
000005f0: 1a0d eddd f67e 99bf 6c0f a850 e316 98bf
00000600: 4d51 7d87 f4c0 96bf 2b9b ae2e 4781 95bf
00000610: d99a bcea 085d 94bf d8bf f08c a95a 93bf
00000620: d6db 1f0e f881 92bf 4a61 49d0 0edc 91bf
00000630: 9b09 f541 ed72 91bf 61b2 89a7 ad50 91bf
00000640: abe1 30db 7c7e 91bf 5b2a 26ae bbed 91bf
00000650: 32c3 9a21 d8ad 92bf a928 7b98 c6bb 93bf
00000660: 2b89 d2ec ad11 95bf 5962 d5c3 20a8 96bf
00000670: 8e9a 8de3 3977 98bf 4c8b 8a43 6177 9abf
00000680: de06 8997 b6a1 9cbf bf25 11e2 38f0 9ebf
00000690: 7f40 2e0a e3ae a0bf 0ea0 5b92 03f3 a1bf
000006a0: c93f ad8f aa42 a3bf 5cd7 8ce4 4e9c a4bf
000006b0: b43e bc63 a5fe a5bf 4b81 0725 9668 a7bf
000006c0: 6dc6 eb9e 33d9 a8bf 9f04 cb56 b34f aabf
000006d0: 42a7 01ea 67cb abbf 658f 0d33 bc4b adbf
000006e0: 6777 1a55 2fd0 aebf add2 86c0 282c b0bf
000006f0: a104 c6a7 e0f1 b0bf c46a 5bc9 14b9 b1bf
00000700: eae2 2ac4 9f81 b2bf 1a43 faac 604b b3bf
00000710: e0c9 236e 3a16 b4bf 1936 1641 13e2 b4bf
00000720: 6e9d f93c d4ae b5bf 1ad4 bcf6 687c b6bf
00000730: 7552 892f bf4a b7bf d9ac 2e8f c619 b8bf
00000740: 252e 8b68 70e9 b8bf 5606 5486 afb9 b9bf
00000750: f4ac e9fe 778a babf fcad 200e bf5b bbbf
00000760: f076 17f4 7a2d bcbf 0684 58d8 a2ff bcbf
00000770: a46d a8b0 2ed2 bdbf 5b14 f92a 17a5 bebf
00000780: 5fcc 109a 5578 bfbf 9115 43f2 f125 c0bf
00000790: 0a9a df3a de8f c0bf a9dd 5718 edf9 c0bf
000007a0: f4ef 0d32 1c64 c1bf 1091 1660 69ce c1bf
000007b0: 5c5c 97a6 d238 c2bf 125c a631 56a3 c2bf
000007c0: bdfa 9a51 f20d c3bf 84c3 c277 a578 c3bf
000007d0: d5ec 6d33 6ee3 c3bf c274 492f 4b4e c4bf
000007e0: 99e4 fd2e 3bb9 c4bf d7c2 0a0d 3d24 c5bf
000007f0: 440c d8b8 4f8f c5bf 859d f734 72fa c5bf
-0.36543288598507795 -0.363613152539959 -0.3617934230184988 -0.3599737103876786 -0.3581540191049811 -0.3563343508542752 -0.3545147064152517 -0.35269508627478746
-0.35087549082760205 -0.34905592044244366 -0.34723637548437647 -0.34541685632178876 -0.3435973633293309 -0.341777896888744 -0.3399584573893749 -0.33813904522845967
-0.33631966081138454 -0.3345003045518381 -0.3326809768721413 -0.3308616782033134 -0.3290424089855793 -0.3272231696683452 -0.32540396071050154 -0.3235847825808102
-0.32176563575813616 -0.31994652073154417 -0.3181274380008599 -0.3163083880766935 -0.3144893714809503 -0.31267038874712977 -0.310851440420485 -0.30903252705849726
-0.3072136492312947 -0.3053948075217608 -0.30357600252615496 -0.3017572348544792 -0.29993850513068976 -0.2981198139933296 -0.2963011620957414 -0.29448255010675917
-0.2926639787110284 -0.2908454486094328 -0.2890269605197399 -0.28720851517700624 -0.2853901133341473 -0.2835717557625225 -0.2817534432524575 -0.2799351766138733
-0.2781169566768487 -0.2762987842924232 -0.274480660333066 -0.2726625856935085 -0.27084456129143764 -0.2690265880682368 -0.26720866698972334 -0.2653907990470615
-0.2635729852575363 -0.2617552266654592 -0.25993752434305184 -0.25811987939154857 -0.2563022929419227 -0.25448476615616417 -0.2526673002282686 -0.2508498963853866
-0.24903255588890882 -0.24721528003590715 -0.24539807016015486 -0.24358092763362643 -0.24176385386785867 -0.23994685031542054 -0.238129918471388 -0.2363130598749505
-0.2344962761111529 -0.23267956881254323 -0.23086293966101787 -0.22904639038977748 -0.227229922785207 -0.22541353868914424 -0.22359724000089848 -0.22178102867966584
-0.21996490674684976 -0.21814887628868201 -0.21633293945883947 -0.21451709848113626 -0.21270135565253856 -0.2108857133463263 -0.20907017401511155 -0.20725474019440676
-0.20543941450609857 -0.20362419966225992 -0.20180909846914213 -0.1999941138312073 -0.19817924875572082 -0.19636450635721947 -0.19454988986249025 -0.19273540261571623
-0.19092104808391763 -0.18910682986274047 -0.18729275168248702 -0.18547881741462804 -0.18366503107856993 -0.18185139684887464 -0.18003791906291472 -0.1782246022289636
-0.17641145103478853 -0.1745984703567885 -0.17278566526963063 -0.17097304105657324 -0.1691606032204109 -0.16734835749503663 -0.1655363098578984 -0.16372446654313408
-0.16191283405568832 -0.1601014191862341 -0.15829022902718212 -0.15647927098986758 -0.1546685528226922 -0.15285808263071315 -0.1510478688966288 -0.1492379205030704
-0.14742824675672678 -0.14561885741404856 -0.14380976270901724 -0.14200097338284365 -0.1401925007160039 -0.13838435656270354 -0.13657655338803326 -0.13476910430803113
-0.1329620231329335 -0.1311553244139333 -0.1293490234938225 -0.1275431365616492 -0.12573768071221328 -0.12393267401042592 -0.12212813556138301 -0.12032408558645037
-0.11852054550618862 -0.11671753803080788 -0.11491508725872869 -0.1131132187844698 -0.11131195981664084 -0.10951133930717864 -0.10771138809326163 -0.10591213905313795
-0.10411362727765335 -0.10231589025922752 -0.10051896810045388 -0.09872290374462818 -0.09692774323111479 -0.09513353597839674 -0.09334033509866184 -0.09154819774787334
-0.08975718551612542 -0.08796736486372747 -0.08617880760939158 -0.08439159147774045 -0.0826058007148918 -0.08082152678186758 -0.07903886913764548 -0.07725793612549804
-0.07547884597877061 -0.07370172796520891 -0.07192672369243355 -0.07015398860159401 -0.06838369368137957 -0.06661602744116037 -0.06485119818994765 -0.06308943667775656
-0.061330999168315505 -0.05957617102742263 -0.05782527093082445 -0.05607865582006566 -0.05433672676634418 -0.05259993594292126 -0.050868794958924164 -0.04914388487585958
-0.047425868317669415 -0.04571550420363326 -0.044013665791174224 -0.042321362926698324 -0.040639769687386626 -0.03897025898239979 -0.03731444620654597 -0.035674244754354434
-0.03405193717615059 -0.03245026707697101 -0.030872558626277018 -0.029322872860488396 -0.02780621286682183 -0.026328793303673357 -0.024898392958914696 -0.0235248105982601
-0.02222044064485944 -0.021000969146963627 -0.019886149718469113 -0.01890053675396061 -0.01807391725739279 -0.017441016638572372 -0.017039973402697233 -0.016909325934124534
-0.017084074858048897 -0.017508442405907192 -0.01824128823381272 -0.01927099519415579 -0.020575254039280438 -0.022125732376795024 -0.023892311586133412 -0.025846023318659747
-0.027960637091615996 -0.0302132499676071 -0.03258428096080567 -0.03505717431636422 -0.037617998160044026 -0.0402550367347618 -0.042958420204852216 -0.045719806690387964
-0.048532117032561974 -0.051389316887715746 -0.05428623897098685 -0.057218438369800485 -0.06018207467899011 -0.06317381573064536 -0.06619075866730607 -0.06923036495156071
-0.07229040660139288 -0.07536892150006871 -0.0784641760726923 -0.08157463397056865 -0.08469892967842949 -0.08783584617488352 -0.09098429594571107 -0.0941433047834609
-0.09731199791274799 -0.10048958806512451 -0.10367536519486348 -0.10686868758119056 -0.11006897410649308 -0.11327569753531472 -0.11648837864816258 -0.11970658110756587
-0.12292990695350302 -0.1261579926414638 -0.1293905055492391 -0.1326271408904465 -0.13586761898102362 -0.1391116828136849 -0.142359095900903 -0.14560964035328589
-0.14886311516416653 -0.15211933467574223 -0.15537812720490388 -0.15863933381016265 -0.16190280718345632 -0.16516841065233365 -0.16843601728041524 -0.17170550905505536

d f8 [401]
00000000: 1743 3a6f 31a4 b33f 1743 3a6f 31a4 b33f
00000010: 1743 3a6f 31a4 b33f 1743 3a6f 31a4 b33f
00000020: 1743 3a6f 31a4 b33f 1743 3a6f 31a4 b33f
00000030: 1743 3a6f 31a4 b33f 1743 3a6f 31a4 b33f
00000040: 1743 3a6f 31a4 b33f 1743 3a6f 31a4 b33f
00000050: 1743 3a6f 31a4 b33f 1743 3a6f 31a4 b33f
00000060: 1743 3a6f 31a4 b33f 1743 3a6f 31a4 b33f
00000070: 1743 3a6f 31a4 b33f 1743 3a6f 31a4 b33f
00000080: 1743 3a6f 31a4 b33f 1743 3a6f 31a4 b33f
00000090: 1743 3a6f 31a4 b33f 1743 3a6f 31a4 b33f
000000a0: 1743 3a6f 31a4 b33f 1743 3a6f 31a4 b33f
000000b0: 1743 3a6f 31a4 b33f 1743 3a6f 31a4 b33f
000000c0: 1743 3a6f 31a4 b33f 1743 3a6f 31a4 b33f
000000d0: 1743 3a6f 31a4 b33f 1743 3a6f 31a4 b33f
000000e0: 1743 3a6f 31a4 b33f 1743 3a6f 31a4 b33f
000000f0: 1743 3a6f 31a4 b33f 1743 3a6f 31a4 b33f
00000100: 1743 3a6f 31a4 b33f 1743 3a6f 31a4 b33f
00000110: 1743 3a6f 31a4 b33f 1743 3a6f 31a4 b33f
00000120: 1743 3a6f 31a4 b33f 1743 3a6f 31a4 b33f
00000130: 1743 3a6f 31a4 b33f 1743 3a6f 31a4 b33f
00000140: 1743 3a6f 31a4 b33f 1743 3a6f 31a4 b33f
00000150: 1743 3a6f 31a4 b33f 1743 3a6f 31a4 b33f
00000160: 1743 3a6f 31a4 b33f 1743 3a6f 31a4 b33f
00000170: 1743 3a6f 31a4 b33f 1743 3a6f 31a4 b33f
00000180: 1743 3a6f 31a4 b33f 1743 3a6f 31a4 b33f
00000190: 1743 3a6f 31a4 b33f 1743 3a6f 31a4 b33f
000001a0: 1743 3a6f 31a4 b33f 1743 3a6f 31a4 b33f
000001b0: 1743 3a6f 31a4 b33f 1743 3a6f 31a4 b33f
000001c0: 1743 3a6f 31a4 b33f 1743 3a6f 31a4 b33f
000001d0: 1743 3a6f 31a4 b33f 1743 3a6f 31a4 b33f
000001e0: 1743 3a6f 31a4 b33f 1743 3a6f 31a4 b33f
000001f0: 1743 3a6f 31a4 b33f 1743 3a6f 31a4 b33f
00000200: 1743 3a6f 31a4 b33f 1743 3a6f 31a4 b33f
00000210: 1743 3a6f 31a4 b33f 1743 3a6f 31a4 b33f
00000220: 1743 3a6f 31a4 b33f 1743 3a6f 31a4 b33f
00000230: 1743 3a6f 31a4 b33f 1743 3a6f 31a4 b33f
00000240: 1743 3a6f 31a4 b33f 1743 3a6f 31a4 b33f
00000250: 1743 3a6f 31a4 b33f 1743 3a6f 31a4 b33f
00000260: 1743 3a6f 31a4 b33f 1743 3a6f 31a4 b33f
00000270: 1743 3a6f 31a4 b33f 1743 3a6f 31a4 b33f
00000280: 1743 3a6f 31a4 b33f 1743 3a6f 31a4 b33f
00000290: 1743 3a6f 31a4 b33f 1743 3a6f 31a4 b33f
000002a0: 1743 3a6f 31a4 b33f 1743 3a6f 31a4 b33f
000002b0: 1743 3a6f 31a4 b33f 1743 3a6f 31a4 b33f
000002c0: 1743 3a6f 31a4 b33f 1743 3a6f 31a4 b33f
000002d0: 1743 3a6f 31a4 b33f 1743 3a6f 31a4 b33f
000002e0: 1743 3a6f 31a4 b33f 1743 3a6f 31a4 b33f
000002f0: 1743 3a6f 31a4 b33f 1743 3a6f 31a4 b33f
00000300: 1743 3a6f 31a4 b33f 1743 3a6f 31a4 b33f
00000310: 1743 3a6f 31a4 b33f 1743 3a6f 31a4 b33f
00000320: 1743 3a6f 31a4 b33f 1743 3a6f 31a4 b33f
00000330: 1743 3a6f 31a4 b33f 1743 3a6f 31a4 b33f
00000340: 1743 3a6f 31a4 b33f 1743 3a6f 31a4 b33f
00000350: 1743 3a6f 31a4 b33f 1743 3a6f 31a4 b33f
00000360: 1743 3a6f 31a4 b33f 1743 3a6f 31a4 b33f
00000370: 1743 3a6f 31a4 b33f 1743 3a6f 31a4 b33f
00000380: 1743 3a6f 31a4 b33f 1743 3a6f 31a4 b33f
00000390: 1743 3a6f 31a4 b33f 1743 3a6f 31a4 b33f
000003a0: 1743 3a6f 31a4 b33f 1743 3a6f 31a4 b33f
000003b0: 1743 3a6f 31a4 b33f 1743 3a6f 31a4 b33f
000003c0: 1743 3a6f 31a4 b33f 1743 3a6f 31a4 b33f
000003d0: 1743 3a6f 31a4 b33f 1743 3a6f 31a4 b33f
000003e0: 1743 3a6f 31a4 b33f 1743 3a6f 31a4 b33f
000003f0: 1743 3a6f 31a4 b33f 1743 3a6f 31a4 b33f
00000400: 1743 3a6f 31a4 b33f 1743 3a6f 31a4 b33f
00000410: 1743 3a6f 31a4 b33f 1743 3a6f 31a4 b33f
00000420: 1743 3a6f 31a4 b33f 1743 3a6f 31a4 b33f
00000430: 1743 3a6f 31a4 b33f 1743 3a6f 31a4 b33f
00000440: 1743 3a6f 31a4 b33f 1743 3a6f 31a4 b33f
00000450: 1743 3a6f 31a4 b33f 1743 3a6f 31a4 b33f
00000460: 1743 3a6f 31a4 b33f 1743 3a6f 31a4 b33f
00000470: 1743 3a6f 31a4 b33f 1743 3a6f 31a4 b33f
00000480: 1743 3a6f 31a4 b33f 1743 3a6f 31a4 b33f
00000490: 1743 3a6f 31a4 b33f 1743 3a6f 31a4 b33f
000004a0: 1743 3a6f 31a4 b33f 1743 3a6f 31a4 b33f
000004b0: 1743 3a6f 31a4 b33f 1743 3a6f 31a4 b33f
000004c0: 1743 3a6f 31a4 b33f 1743 3a6f 31a4 b33f
000004d0: 1743 3a6f 31a4 b33f 1743 3a6f 31a4 b33f
000004e0: 1743 3a6f 31a4 b33f 1743 3a6f 31a4 b33f
000004f0: 1743 3a6f 31a4 b33f 1743 3a6f 31a4 b33f
00000500: 1743 3a6f 31a4 b33f 1743 3a6f 31a4 b33f
00000510: 1743 3a6f 31a4 b33f 1743 3a6f 31a4 b33f
00000520: 1743 3a6f 31a4 b33f 1743 3a6f 31a4 b33f
00000530: 1743 3a6f 31a4 b33f 1743 3a6f 31a4 b33f
00000540: 1743 3a6f 31a4 b33f 1743 3a6f 31a4 b33f
00000550: 1743 3a6f 31a4 b33f 1743 3a6f 31a4 b33f
00000560: 1743 3a6f 31a4 b33f 1743 3a6f 31a4 b33f
00000570: 1743 3a6f 31a4 b33f 1743 3a6f 31a4 b33f
00000580: 1743 3a6f 31a4 b33f 1743 3a6f 31a4 b33f
00000590: 1743 3a6f 31a4 b33f 1743 3a6f 31a4 b33f
000005a0: 1743 3a6f 31a4 b33f 1743 3a6f 31a4 b33f
000005b0: 1743 3a6f 31a4 b33f 1743 3a6f 31a4 b33f
000005c0: 1743 3a6f 31a4 b33f 1743 3a6f 31a4 b33f
000005d0: 1743 3a6f 31a4 b33f 1743 3a6f 31a4 b33f
000005e0: 1743 3a6f 31a4 b33f 1743 3a6f 31a4 b33f
000005f0: 1743 3a6f 31a4 b33f 1743 3a6f 31a4 b33f
00000600: 1743 3a6f 31a4 b33f 1743 3a6f 31a4 b33f
00000610: 1743 3a6f 31a4 b33f 1743 3a6f 31a4 b33f
00000620: 1743 3a6f 31a4 b33f 1743 3a6f 31a4 b33f
00000630: 1743 3a6f 31a4 b33f 1743 3a6f 31a4 b33f
00000640: 1743 3a6f 31a4 b33f 1743 3a6f 31a4 b33f
00000650: 1743 3a6f 31a4 b33f 1743 3a6f 31a4 b33f
00000660: 1743 3a6f 31a4 b33f 1743 3a6f 31a4 b33f
00000670: 1743 3a6f 31a4 b33f 1743 3a6f 31a4 b33f
00000680: 1743 3a6f 31a4 b33f 1743 3a6f 31a4 b33f
00000690: 1743 3a6f 31a4 b33f 1743 3a6f 31a4 b33f
000006a0: 1743 3a6f 31a4 b33f 1743 3a6f 31a4 b33f
000006b0: 1743 3a6f 31a4 b33f 1743 3a6f 31a4 b33f
000006c0: 1743 3a6f 31a4 b33f 1743 3a6f 31a4 b33f
000006d0: 1743 3a6f 31a4 b33f 1743 3a6f 31a4 b33f
000006e0: 1743 3a6f 31a4 b33f 1743 3a6f 31a4 b33f
000006f0: 1743 3a6f 31a4 b33f 1743 3a6f 31a4 b33f
00000700: 1743 3a6f 31a4 b33f 1743 3a6f 31a4 b33f
00000710: 1743 3a6f 31a4 b33f 1743 3a6f 31a4 b33f
00000720: 1743 3a6f 31a4 b33f 1743 3a6f 31a4 b33f
00000730: 1743 3a6f 31a4 b33f 1743 3a6f 31a4 b33f
00000740: 1743 3a6f 31a4 b33f 1743 3a6f 31a4 b33f
00000750: 1743 3a6f 31a4 b33f 1743 3a6f 31a4 b33f
00000760: 1743 3a6f 31a4 b33f 1743 3a6f 31a4 b33f
00000770: 1743 3a6f 31a4 b33f 1743 3a6f 31a4 b33f
00000780: 1743 3a6f 31a4 b33f 1743 3a6f 31a4 b33f
00000790: 1743 3a6f 31a4 b33f 1743 3a6f 31a4 b33f
000007a0: 1743 3a6f 31a4 b33f 1743 3a6f 31a4 b33f
000007b0: 1743 3a6f 31a4 b33f 1743 3a6f 31a4 b33f
000007c0: 1743 3a6f 31a4 b33f 1743 3a6f 31a4 b33f
000007d0: 1743 3a6f 31a4 b33f 1743 3a6f 31a4 b33f
000007e0: 1743 3a6f 31a4 b33f 1743 3a6f 31a4 b33f
000007f0: 1743 3a6f 31a4 b33f 1743 3a6f 31a4 b33f
0.07672413793103448 0.07672413793103448 0.07672413793103448 0.07672413793103448 0.07672413793103448 0.07672413793103448 0.07672413793103448 0.07672413793103448
0.07672413793103448 0.07672413793103448 0.07672413793103448 0.07672413793103448 0.07672413793103448 0.07672413793103448 0.07672413793103448 0.07672413793103448
0.07672413793103448 0.07672413793103448 0.07672413793103448 0.07672413793103448 0.07672413793103448 0.07672413793103448 0.07672413793103448 0.07672413793103448
0.07672413793103448 0.07672413793103448 0.07672413793103448 0.07672413793103448 0.07672413793103448 0.07672413793103448 0.07672413793103448 0.07672413793103448
0.07672413793103448 0.07672413793103448 0.07672413793103448 0.07672413793103448 0.07672413793103448 0.07672413793103448 0.07672413793103448 0.07672413793103448
0.07672413793103448 0.07672413793103448 0.07672413793103448 0.07672413793103448 0.07672413793103448 0.07672413793103448 0.07672413793103448 0.07672413793103448
0.07672413793103448 0.07672413793103448 0.07672413793103448 0.07672413793103448 0.07672413793103448 0.07672413793103448 0.07672413793103448 0.07672413793103448
0.07672413793103448 0.07672413793103448 0.07672413793103448 0.07672413793103448 0.07672413793103448 0.07672413793103448 0.07672413793103448 0.07672413793103448
0.07672413793103448 0.07672413793103448 0.07672413793103448 0.07672413793103448 0.07672413793103448 0.07672413793103448 0.07672413793103448 0.07672413793103448
0.07672413793103448 0.07672413793103448 0.07672413793103448 0.07672413793103448 0.07672413793103448 0.07672413793103448 0.07672413793103448 0.07672413793103448
0.07672413793103448 0.07672413793103448 0.07672413793103448 0.07672413793103448 0.07672413793103448 0.07672413793103448 0.07672413793103448 0.07672413793103448
0.07672413793103448 0.07672413793103448 0.07672413793103448 0.07672413793103448 0.07672413793103448 0.07672413793103448 0.07672413793103448 0.07672413793103448
0.07672413793103448 0.07672413793103448 0.07672413793103448 0.07672413793103448 0.07672413793103448 0.07672413793103448 0.07672413793103448 0.07672413793103448
0.07672413793103448 0.07672413793103448 0.07672413793103448 0.07672413793103448 0.07672413793103448 0.07672413793103448 0.07672413793103448 0.07672413793103448
0.07672413793103448 0.07672413793103448 0.07672413793103448 0.07672413793103448 0.07672413793103448 0.07672413793103448 0.07672413793103448 0.07672413793103448
0.07672413793103448 0.07672413793103448 0.07672413793103448 0.07672413793103448 0.07672413793103448 0.07672413793103448 0.07672413793103448 0.07672413793103448
0.07672413793103448 0.07672413793103448 0.07672413793103448 0.07672413793103448 0.07672413793103448 0.07672413793103448 0.07672413793103448 0.07672413793103448
0.07672413793103448 0.07672413793103448 0.07672413793103448 0.07672413793103448 0.07672413793103448 0.07672413793103448 0.07672413793103448 0.07672413793103448
0.07672413793103448 0.07672413793103448 0.07672413793103448 0.07672413793103448 0.07672413793103448 0.07672413793103448 0.07672413793103448 0.07672413793103448
0.07672413793103448 0.07672413793103448 0.07672413793103448 0.07672413793103448 0.07672413793103448 0.07672413793103448 0.07672413793103448 0.07672413793103448
0.07672413793103448 0.07672413793103448 0.07672413793103448 0.07672413793103448 0.07672413793103448 0.07672413793103448 0.07672413793103448 0.07672413793103448
0.07672413793103448 0.07672413793103448 0.07672413793103448 0.07672413793103448 0.07672413793103448 0.07672413793103448 0.07672413793103448 0.07672413793103448
0.07672413793103448 0.07672413793103448 0.07672413793103448 0.07672413793103448 0.07672413793103448 0.07672413793103448 0.07672413793103448 0.07672413793103448
0.07672413793103448 0.07672413793103448 0.07672413793103448 0.07672413793103448 0.07672413793103448 0.07672413793103448 0.07672413793103448 0.07672413793103448
0.07672413793103448 0.07672413793103448 0.07672413793103448 0.07672413793103448 0.07672413793103448 0.07672413793103448 0.07672413793103448 0.07672413793103448
0.07672413793103448 0.07672413793103448 0.07672413793103448 0.07672413793103448 0.07672413793103448 0.07672413793103448 0.07672413793103448 0.07672413793103448
0.07672413793103448 0.07672413793103448 0.07672413793103448 0.07672413793103448 0.07672413793103448 0.07672413793103448 0.07672413793103448 0.07672413793103448
0.07672413793103448 0.07672413793103448 0.07672413793103448 0.07672413793103448 0.07672413793103448 0.07672413793103448 0.07672413793103448 0.07672413793103448
0.07672413793103448 0.07672413793103448 0.07672413793103448 0.07672413793103448 0.07672413793103448 0.07672413793103448 0.07672413793103448 0.07672413793103448
0.07672413793103448 0.07672413793103448 0.07672413793103448 0.07672413793103448 0.07672413793103448 0.07672413793103448 0.07672413793103448 0.07672413793103448
0.07672413793103448 0.07672413793103448 0.07672413793103448 0.07672413793103448 0.07672413793103448 0.07672413793103448 0.07672413793103448 0.07672413793103448
0.07672413793103448 0.07672413793103448 0.07672413793103448 0.07672413793103448 0.07672413793103448 0.07672413793103448 0.07672413793103448 0.07672413793103448

zmax f8 []
00000000: 0000 0000 0000 1440
5.0

hz_F f8 [401]
00000000: 3da6 bf33 4a95 aa3f 560a 8033 3295 aa3f
00000010: f5bb 5601 1a95 aa3f 66bf 108c 0195 aa3f
00000020: 9b2a 27cd e894 aa3f 0342 8ec1 cf94 aa3f
00000030: 6676 5a67 b694 aa3f 441e fabc 9c94 aa3f
00000040: c8f3 f3c0 8294 aa3f 8440 d171 6894 aa3f
00000050: 345b 16ce 4d94 aa3f 2829 40d4 3294 aa3f
00000060: a7f3 c282 1794 aa3f b9ef 09d8 fb93 aa3f
00000070: 7cde 76d2 df93 aa3f 97bf 6170 c393 aa3f
00000080: a683 18b0 a693 aa3f 71c6 de8f 8993 aa3f
00000090: 0177 ed0d 6c93 aa3f b595 7228 4e93 aa3f
000000a0: a9c7 90dd 2f93 aa3f ae18 5f2b 1193 aa3f
000000b0: e99c e80f f292 aa3f 1f08 2c89 d292 aa3f
000000c0: a250 1b95 b292 aa3f 945c 9b31 9292 aa3f
000000d0: a580 835c 7192 aa3f a32e 9d13 5092 aa3f
000000e0: e472 a354 2e92 aa3f 8d82 421d 0c92 aa3f
000000f0: 2254 176b e991 aa3f 8216 af3b c691 aa3f
00000100: 2aa9 868c a291 aa3f a02f 0a5b 7e91 aa3f
00000110: 936e 94a4 5991 aa3f a73d 6e66 3491 aa3f
00000120: e604 ce9d 0e91 aa3f a80b d747 e890 aa3f
00000130: f6ec 9861 c190 aa3f edd6 0ee8 9990 aa3f
00000140: 73ea 1ed8 7190 aa3f 6a8b 992e 4990 aa3f
00000150: 7294 38e8 1f90 aa3f 0a9e 9e01 f68f aa3f
00000160: 782e 5677 cb8f aa3f e0e1 d045 a08f aa3f
00000170: 6892 6669 748f aa3f 3c6e 54de 478f aa3f
00000180: 980d bca0 1a8f aa3f 2b67 a2ac ec8e aa3f
00000190: f7e0 eefd bd8e aa3f 5531 6a90 8e8e aa3f
000001a0: 7246 bd5f 5e8e aa3f 911f 7067 2d8e aa3f
000001b0: 499d e8a2 fb8d aa3f fa33 690d c98d aa3f
000001c0: 7ca3 0fa2 958d aa3f e894 d35b 618d aa3f
000001d0: 5c2f 8535 2c8d aa3f 3e87 cb29 f68c aa3f
000001e0: 872c 2333 bf8c aa3f 7e6b dc4b 878c aa3f
000001f0: d7a0 196e 4e8c aa3f 366c cd93 148c aa3f
00000200: efda b8b6 d98b aa3f 5257 69d0 9d8b aa3f
00000210: 90b9 36da 608b aa3f 5e0c 41cd 228b aa3f
00000220: 034f 6ea2 e38a aa3f c115 6852 a38a aa3f
00000230: 5314 99d5 618a aa3f 9981 2a24 1f8a aa3f
00000240: e451 0136 db89 aa3f 6064 bb02 9689 aa3f
00000250: bd7c ac81 4f89 aa3f 3912 dba9 0789 aa3f
00000260: 3c0b fd71 be88 aa3f 4626 74d0 7388 aa3f
00000270: cc62 4abb 2788 aa3f 3f12 2e28 da87 aa3f
00000280: 78d0 6d0c 8b87 aa3f 032c f45c 3a87 aa3f
00000290: 0825 430e e886 aa3f f375 6f14 9486 aa3f
000002a0: 4880 1b63 3e86 aa3f 64f2 71ed e685 aa3f
000002b0: ef4c 20a6 8d85 aa3f d7e1 507f 3285 aa3f
000002c0: caa4 a46a d584 aa3f 2f8b 2c59 7684 aa3f
000002d0: cc8d 623b 1584 aa3f d55c 2201 b283 aa3f
000002e0: af73 a199 4c83 aa3f 65ed 66f3 e482 aa3f
000002f0: e7b4 42fc 7a82 aa3f 5e3e 44a1 0e82 aa3f
00000300: bdaf b0ce 9f81 aa3f 0369 f86f 2e81 aa3f
00000310: 3bf5 ab6f ba80 aa3f bd35 70b7 4380 aa3f
00000320: c4e2 f12f ca7f aa3f 0938 d8c0 4d7f aa3f
00000330: 9ac5 b650 ce7e aa3f 4d59 fec4 4b7e aa3f
00000340: 8be9 ec01 c67d aa3f c46c 7cea 3c7d aa3f
00000350: 1197 5060 b07c aa3f 384e a343 207c aa3f
00000360: 97cd 2f73 8c7b aa3f 2069 1ccc f47a aa3f
00000370: aaa9 e229 597a aa3f 54d3 3566 b979 aa3f
00000380: 2787 e758 1579 aa3f 6d86 cad7 6c78 aa3f
00000390: 9b47 93b6 bf77 aa3f a42b b6c6 0d77 aa3f
000003a0: ce5c 43d7 5676 aa3f 6fd4 bfb4 9a75 aa3f
000003b0: 4a67 fb28 d974 aa3f acbe e3fa 1174 aa3f
000003c0: baa5 53ee 4473 aa3f 23a7 dec3 7172 aa3f
000003d0: b05e 9838 9871 aa3f 4a59 d705 b870 aa3f
000003e0: 54e8 f2e0 d06f aa3f 0f86 fb7a e26e aa3f
000003f0: e13c 6d80 ec6d aa3f 4b83 db98 ee6c aa3f
00000400: c8e5 9566 e86b aa3f 28c3 4486 d96a aa3f
00000410: d144 7d8e c169 aa3f f7e6 4b0f a068 aa3f
00000420: c733 b491 7467 aa3f edf9 2497 3e66 aa3f
00000430: ac71 df98 fd64 aa3f 972d 5007 b163 aa3f
00000440: 4a1a 5849 5862 aa3f 1ad1 83bb f260 aa3f
00000450: 6f7e 2faf 7f5f aa3f 36d2 9469 fe5d aa3f
00000460: 74b3 c022 6e5c aa3f 50e4 6d04 ce5a aa3f
00000470: 543a c128 1d59 aa3f 4704 e498 5a57 aa3f
00000480: 4059 784b 8555 aa3f 09c3 e222 9c53 aa3f
00000490: 66e0 63eb 9d51 aa3f f60b fc58 894f aa3f
000004a0: 82e9 1105 5d4d aa3f 7a45 d46b 174b aa3f
000004b0: c3e6 4de9 b648 aa3f 2e20 21b6 3946 aa3f
000004c0: 6d1c dfe3 9d43 aa3f a12b ed58 e140 aa3f
000004d0: 4427 e8cb 013e aa3f 95c6 73be fc3a aa3f
000004e0: f86a 6077 cf37 aa3f 2a24 0ffc 7634 aa3f
000004f0: e03d f708 f030 aa3f 2d51 2c09 372d aa3f
00000500: 4653 be0c 4829 aa3f 13b7 c6bd 1e25 aa3f
00000510: 665a ee53 b620 aa3f ac05 2f86 091c aa3f
00000520: 2a2c 897a 1217 aa3f b853 5ab3 ca11 aa3f
00000530: b37a f2f9 2a0c aa3f 4744 f645 2b06 aa3f
00000540: 4058 08a1 c2ff a93f 4a2e 1e06 e7f8 a93f
00000550: 9687 ca3b 8df1 a93f 04aa aaa8 a8e9 a93f
00000560: f630 0221 2be1 a93f c999 6cac 04d8 a93f
00000570: a87d 6442 23ce a93f f947 377c 72c3 a93f
00000580: 093e d53a dbb7 a93f 64e7 cc3e 43ab a93f
00000590: 916e aeb0 8c9d a93f ac19 1d98 958e a93f
000005a0: 138b 0d40 377e a93f 0a4f 3787 456c a93f
000005b0: b10d c51c 8e58 a93f 6f39 16ab d742 a93f
000005c0: 2e1f 53f5 e02a a93f b79c 36f1 5f10 a93f
000005d0: 1f6d 86ed 00f3 a83f 641b 31e0 65d2 a83f
000005e0: 4933 0506 26ae a83f f5a1 5f12 ce85 a83f
000005f0: 1d39 1747 e158 a83f 5fb9 dee9 db26 a83f
00000600: 0424 2aa4 37ef a73f 9c94 c459 72b1 a73f
00000610: b9dd 76c1 176d a73f 9070 e347 cd21 a73f
00000620: bad8 7526 5ecf a63f aec9 58dc c275 a63f
00000630: 365d be9d 1b15 a63f f193 eb14 92ad a53f
00000640: 8ce3 1cd9 153f a53f bef3 308e 26e4 a43f
00000650: 0fb5 cdae a58a a43f 3957 c662 c933 a43f
00000660: 1102 52fa 7ce0 a33f 4f18 dfb1 5d91 a33f
00000670: f216 ae04 c346 a33f 25d0 2d90 cc00 a33f
00000680: dad5 9ede 70bf a23f aaeb 3d7f 8a82 a23f
00000690: 5606 c174 e249 a23f e7a2 8df5 3715 a23f
000006a0: a7e5 58e3 45e4 a13f 20a1 297b c6b6 a13f
000006b0: c98f 3cb5 758c a13f e8c3 2cb6 1265 a13f
000006c0: a288 759b 6040 a13f 27c7 5ad9 261e a13f
000006d0: cf47 9150 31fe a03f 131f 4f36 50e0 a03f
000006e0: 0cbc fce0 57c4 a03f f9b8 c785 20aa a03f
000006f0: 1d7c 30ef 8591 a03f 1689 ce31 677a a03f
00000700: 9647 9362 a664 a03f 5d55 8150 2850 a03f
00000710: 461d ed42 d43c a03f 982c c7bc 932a a03f
00000720: fc5a 1145 5219 a03f 0109 6434 fd08 a03f
00000730: f36e 8a0e 07f3 9f3f ce1c ff69 abd5 9f3f
00000740: 72e8 3c15 cbb9 9f3f 6115 6413 4c9f 9f3f
00000750: 14e3 ff94 1686 9f3f b980 94c2 146e 9f3f
00000760: e4db b78c 3257 9f3f df2b 2181 5d41 9f3f
00000770: a916 28a4 842c 9f3f 80c0 394e 9818 9f3f
00000780: 712d d60c 8a05 9f3f b6cd b386 4cf3 9e3f
00000790: df33 b262 d3e1 9e3f 9581 4d31 13d1 9e3f
000007a0: 65f4 4d58 01c1 9e3f 2e82 7500 94b1 9e3f
000007b0: c771 f504 c2a2 9e3f 3f11 7be4 8294 9e3f
000007c0: 1ee1 a8b3 ce86 9e3f 84bf d510 9e79 9e3f
000007d0: 2673 f018 ea6c 9e3f 8e50 695d ac60 9e3f
000007e0: 4c20 07db de54 9e3f 1ab9 8ff1 7b49 9e3f
000007f0: 57cc 2e5c 7e3e 9e3f 712f 882a e133 9e3f
0.051920241181346395 0.05191952589668307 0.0519188048013958 0.05191807589323964 0.05191733841237075 0.05191659200420775 0.05191583644521529 0.051915071552738584
0.05191429715521384 0.051913513082241486 0.0519127191611716 0.05191191521596955 0.051911101066685554 0.051910276529241135 0.05190944141525919 0.05190859553192622
0.05190773868185454 0.0519068706629583 0.05190599126829732 0.051905100285959994 0.05190419749887038 0.05190328268467802 0.051902355615590264 0.051901416058186316
0.05190046377325187 0.051899498515632164 0.05189852003400234 0.05189752807072281 0.05189652236160727 0.051895502635720715 0.05189446861519566 0.05189342001498877
0.05189235654263975 0.05189127789807846 0.05189018377333556 0.05188907385228996 0.05188794781043686 0.05188680531457318 0.05188564602254957 0.05188446958292823
0.05188327563469821 0.0518820638069631 0.051880833718578226 0.05187958497782226 0.05187831718202757 0.05187702991719667 0.051875722757618814 0.051874395265454315
0.05187304699031897 0.051871677468808684 0.051870286224074684 0.051868872765313746 0.0518674365872699 0.05186597716971087 0.05186449397688848 0.05186298645694616
0.05186145404133577 0.051859896144188344 0.05185831216166889 0.05185670147126452 0.05185506343112772 0.05185339737928184 0.051851702632861034 0.05184997848729049
0.05184822421545287 0.05184643906674914 0.05184462226621911 0.05184277301352645 0.051840890481939204 0.05183897381725045 0.0518370221366601 0.051835034527587705
0.05183301004641175 0.051830947717186104 0.05182884653026452 0.05182670544084939 0.051824523367506065 0.051822299190530205 0.051820031750315104 0.05181771984556293
0.05181536223145228 0.05181295761766338 0.051810504666329804 0.05180800198989379 0.05180544814879845 0.051802841649053716 0.051800180939744915 0.05179746441030247
0.05179469038768898 0.051791857133386514 0.05178896284021625 0.051786005629020394 0.05178298354505927 0.051779894554296026 0.05177673653938957 0.05177350729547635
0.0517702045256949 0.05176682583642569 0.05176336873226225 0.05175983061063103 0.05175620875610812 0.05175250033435936 0.05174870238569014 0.05174481181818411
0.051740825400389566 0.0517367397535167 0.051732551343134266 0.05172825647028073 0.051723851261978364 0.051719331661120416 0.051714693415607485 0.051709932066762804
0.05170504293688643 0.05170002111595982 0.05169486144735843 0.05168955851248505 0.05168410661433996 0.051678499759795986 0.051672731640521066 0.0516667956125024
0.05166068467390113 0.05165439144123087 0.051647908123582 0.051641226494825235 0.051634337863519036 0.0516272330403461 0.051619902302826544 0.05161233535705508
0.05160452129616605 0.05159644855519324 0.051588104861943436 0.051579477183578186 0.051570551668283886 0.051561313581703995 0.051551747237428586 0.0515418359210244
0.051531561806815576 0.051520905866626346 0.051509847769691024 0.051498365772577534 0.05148643659808885 0.05147403530185868 0.051461135125113217 0.051447707332052554
0.05143372102991117 0.051419142969626526 0.05140393732466535 0.051388065445301764 0.05137148558511041 0.051354152596227956 0.05133601758912001 0.051317027552215996
0.051297124925945826 0.051276247124938175 0.051254326001141354 0.051231287239614044 0.05120704967722206 0.0511815245332133 0.05115461453862813 0.05112621294952855
0.051096202426526946 0.05106445376018889 0.05103082441853672 0.050995156888812815 0.05095727678106983 0.05091699065557215 0.050874083529597235 0.05082831601169651
0.05077942100267352 0.050727099892438135 0.05067101817009172 0.05061080035132551 0.05054602411209601 0.050476213500860796 0.050400831083830255 0.05031926885898481
0.050230837756881704 0.05013475553137317 0.05003013283495961 0.04991595727783546 0.04979107529540818 0.049654171710839703 0.04950374699776761 0.04933809245550235
0.04915526385008061 0.04895305461405413 0.048728970522655006 0.04848020898548702 0.048203647837545 0.0478958508900326 0.047553100517335724 0.04717147092684359
0.04674695853197622 0.046275685747141554 0.045754186979532326 0.04517976286453618 0.04455084056364585 0.04386719646244629 0.04312979031163382 0.042339863828409714
0.04149692797950086 0.04080315099461228 0.0401202941783173 0.03945760088679013 0.038822084004099484 0.03821842952997711 0.037649244614881186 0.0371154714584068
0.036616828132007576 0.036152198822456086 0.035719944717595695 0.03531813499905017 0.03494470978007352 0.034597590002535705 0.034274748204807866 0.033974251497404684
0.03369428537077225 0.033433164627594096 0.03318933590402617 0.032961374883198634 0.03274798032213519 0.03254796631869001 0.03236025376121907 0.03218386157029067
0.03201789811431792 0.0318615530274353 0.031714089555459554 0.03157483748835793 0.03144318669426657 0.03131858124290155 0.031200514090058595 0.03108852228595254
0.03098218266607273 0.03088110798218702 0.030784943432055803 0.030693363548494477 0.03060606941104628 0.030522786146587207 0.03044326068813655 0.03036725976420529
0.030294568093763134 0.030224986764506766 0.03015833177464688 0.030094432720376558 0.030033131613425818 0.029974281814590657 0.029917747070941105 0.029863400645596668
0.029811124530369708 0.02976080873253252 0.029712350628062677 0.02966565437448359 0.029620630377195575 0.029577194803942587 0.029535269142524658 0.029494779797502205

Vz_F f8 [401]
00000000: 0087 9055 6174 e73f 4025 3620 4a74 e73f
00000010: 0003 98ba 3274 e73f c089 1414 1b74 e73f
00000020: c0fc 5b26 0374 e73f 0060 7cee ea73 e73f
00000030: c05f 9a6a d273 e73f 0096 3199 b973 e73f
00000040: 4032 d578 a073 e73f c0dd 1a08 8773 e73f
00000050: c078 9345 6d73 e73f 00b1 c82f 5373 e73f
00000060: 00e1 3bc5 3873 e73f c09b 6504 1e73 e73f
00000070: 4050 b5eb 0273 e73f 80fe 9079 e772 e73f
00000080: 80ec 54ac cb72 e73f c062 5382 af72 e73f
00000090: 4057 d4f9 9272 e73f c02d 1511 7672 e73f
000000a0: c04e 48c6 5872 e73f 80eb 9417 3b72 e73f
000000b0: c0a2 1603 1d72 e73f 801b dd86 fe71 e73f
000000c0: 00ab eba0 df71 e73f c004 394f c071 e73f
000000d0: 80bd ae8f a071 e73f 80fc 2860 8071 e73f
000000e0: 40fd 75be 5f71 e73f 80a1 55a8 3e71 e73f
000000f0: 400d 791b 1d71 e73f 4022 8215 fb70 e73f
00000100: c0fc 0294 d870 e73f 808a 7d94 b570 e73f
00000110: 40ed 6214 9270 e73f 40f1 1211 6e70 e73f
00000120: 008f db87 4970 e73f 0040 f875 2470 e73f
00000130: c077 91d8 fe6f e73f 80e9 bbac d86f e73f
00000140: 40ed 77ef b16f e73f c0d5 b09d 8a6f e73f
00000150: 002b 3cb4 626f e73f 80f7 d82f 3a6f e73f
00000160: 00ff 2e0d 116f e73f c0ed cd48 e76e e73f
00000170: c087 2cdf bc6e e73f 80c6 a7cc 916e e73f
00000180: c0f6 810d 666e e73f c0b5 e19d 396e e73f
00000190: 000a d179 0c6e e73f c04d 3c9d de6d e73f
000001a0: c01f f103 b06d e73f 4046 9da9 806d e73f
000001b0: 4089 cd89 506d e73f 0070 ec9f 1f6d e73f
000001c0: 8003 41e7 ed6c e73f 0078 ed5a bb6c e73f
000001d0: c0cd edf5 876c e73f 804d 16b3 536c e73f
000001e0: 0023 128d 1e6c e73f 80ac 617e e86b e73f
000001f0: 00dd 5881 b16b e73f 007e 1d90 796b e73f
00000200: c069 a5a4 406b e73f 008c b4b8 066b e73f
00000210: 4003 dbc5 cb6a e73f 40f8 72c5 8f6a e73f
00000220: 0073 9eb0 526a e73f 400f 4580 146a e73f
00000230: c09b 112d d569 e73f 0094 6faf 9469 e73f
00000240: 0072 88ff 5269 e73f 80f3 4015 1069 e73f
00000250: 402d 36e8 cb68 e73f 0075 ba6f 8668 e73f
00000260: c038 d2a2 3f68 e73f 0086 3078 f767 e73f
00000270: 0091 33e6 ad67 e73f 00e7 e0e2 6267 e73f
00000280: c088 e163 1667 e73f 80b7 7d5e c866 e73f
00000290: 009a 98c7 7866 e73f 00ad ab93 2766 e73f
000002a0: 00db c1b6 d465 e73f 404f 7224 8065 e73f
000002b0: 8029 dbcf 2965 e73f c0af 9bab d164 e73f
000002c0: 0053 cea9 7764 e73f 4047 02bc 1b64 e73f
000002d0: 40c0 34d3 bd63 e73f 40e3 c9df 5d63 e73f
000002e0: c01d 85d1 fb62 e73f 003f 8197 9762 e73f
000002f0: c0f2 2720 3162 e73f 00c9 2859 c861 e73f
00000300: c0b1 6f2f 5d61 e73f c0dd 1a8f ef60 e73f
00000310: 000d 7063 7f60 e73f 001e d196 0c60 e73f
00000320: 00f8 af12 975f e73f 40a8 81bf 1e5f e73f
00000330: c0aa b084 a35e e73f 4053 8e48 255e e73f
00000340: 0040 43f0 a35d e73f 40c2 be5f 1f5d e73f
00000350: 4036 a579 975c e73f 801c 3d1f 0c5c e73f
00000360: 00ee 5a30 7d5b e73f 409b 4b8b ea5a e73f
00000370: 8072 bd0c 545a e73f 807d a78f b959 e73f
00000380: 800a 2fed 1a59 e73f c066 8bfc 7758 e73f
00000390: 007d e792 d057 e73f 8028 4183 2457 e73f
000003a0: 4045 469e 7356 e73f 40ff 2eb2 bd55 e73f
000003b0: 8041 958a 0255 e73f c02b 49f0 4154 e73f
000003c0: 80fb 21a9 7b53 e73f 8064 cb77 af52 e73f
000003d0: 80c1 8e1b dd51 e73f 00f9 1750 0451 e73f
000003e0: 0080 35cd 2450 e73f c01b 9346 3e4f e73f
000003f0: 00d9 6e6b 504e e73f 40af 47e6 5a4d e73f
00000400: c02e 855c 5d4c e73f 0084 176e 574b e73f
00000410: 4001 0fb5 484a e73f c087 2ac5 3049 e73f
00000420: 407f 5b2b 0f48 e73f 40aa 3e6d e346 e73f
00000430: 4057 8808 ad45 e73f c0d5 6272 6b44 e73f
00000440: 0081 bd16 1e43 e73f 20b3 8a57 c441 e73f
00000450: 20f0 ea8b 5d40 e73f a0d4 42ff e83e e73f
00000460: a094 39f0 653d e73f 804f 9d8f d33b e73f
00000470: 60f9 29ff 303a e73f 0090 2f50 7d38 e73f
00000480: e07a 1382 b736 e73f 20af a880 de34 e73f
00000490: 6061 5922 f132 e73f 8084 1c26 ee30 e73f
000004a0: 6033 3031 d42e e73f 60b1 91cc a12c e73f
000004b0: 00f1 2962 552a e73f 40c4 a439 ed27 e73f
000004c0: 2017 e774 6725 e73f 60ef 160c c222 e73f
000004d0: e0cc 25c9 fa1f e73f 20de cb42 0f1d e73f
000004e0: e045 dfd6 fc19 e73f c0fe efa3 c016 e73f
000004f0: e0a0 0c82 5713 e73f 201b 90fa bd0f e73f
00000500: 201f d33e f00b e73f 40d1 951d ea07 e73f
00000510: 602f eff6 a603 e73f c0fa 86ae 21ff e63f
00000520: 002e d59b 54fa e63f e028 1678 39f5 e63f
00000530: 2022 9549 c9ef e63f 206d de4b fce9 e63f
00000540: a069 58d4 c9e3 e63f 807a ac32 28dd e63f
00000550: c046 508c 0cd6 e63f 004f 63b2 6ace e63f
00000560: c0bb f4f0 34c6 e63f a0d0 a1d6 5bbd e63f
00000570: e087 57f3 cdb3 e63f e012 da8c 77a9 e63f
00000580: 004b 8f47 429e e63f 606e e9c1 1492 e63f
00000590: 20a8 bd20 d284 e63f 201b db8a 5976 e63f
000005a0: c0d8 6d92 8566 e63f 8085 3c8b 2b55 e63f
000005b0: 00a3 cbcd 1a42 e63f 00ed 29e9 1b2d e63f
000005c0: 807f fec7 ef15 e63f 00ae ecd1 4efc e53f
000005d0: 603b 3b19 e8df e53f 800e d2ae 60c0 e53f
000005e0: 2057 1f45 539d e53f 40da 325e 5076 e53f
000005f0: 001e 6b5a df4a e53f 40e1 0ed9 801a e53f
00000600: 003d 37f3 b2e4 e43f 40af 96d8 f7a8 e43f
00000610: 4017 0017 df66 e43f e065 c718 111e e43f
00000620: c0a5 7dd5 5ace e33f a08f bb0b b577 e33f
00000630: c0d3 75df 3e1a e33f e0b5 b89a 20b6 e23f
00000640: e063 785f 4a4b e23f 408d 2acf 5bf3 e13f
00000650: c0ab d090 cf9c e13f e0e1 4c8e d148 e13f
00000660: 409d 9552 45f8 e03f 80ef e1e8 c2ab e03f
00000670: e012 e9e8 9e63 e03f 60ee d6e4 f71f e03f
00000680: 404b c96d 89c1 df3f 801e a255 c24b df3f
00000690: c0bf 5c28 30de de3f c066 259a 5578 de3f
000006a0: 0080 00ff ac19 de3f 8022 766c afc1 dd3f
000006b0: 40ba 3451 d96f dd3f 4074 003f ad23 dd3f
000006c0: 8057 3576 b5dc dc3f 0056 649b 849a dc3f
000006d0: c0a4 35e1 b55c dc3f 4046 1eda ec22 dc3f
000006e0: 80a3 2515 d5ec db3f 4044 6e9d 21ba db3f
000006f0: 80d9 2a6c 8c8a db3f c0dc 1ed7 d55d db3f
00000700: c0d7 0202 c433 db3f 8057 9756 220c db3f
00000710: 80b7 7d05 c1e6 da3f 803b cf90 74c3 da3f
00000720: 4071 b260 15a2 da3f 0026 bb61 7f82 da3f
00000730: c090 9cac 9164 da3f 8047 8f36 2e48 da3f
00000740: 8041 bb89 392d da3f 40b8 f184 9a13 da3f
00000750: 40ac 0622 3afb d93f c0a7 2242 03e4 d93f
00000760: 0082 707f e2cd d93f c0e8 9703 c6b8 d93f
00000770: 8003 8262 9da4 d93f 0086 f278 5991 d93f
00000780: 0038 8b4e ec7e d93f c008 dbfa 486d d93f
00000790: c08c 248d 635c d93f c009 90f6 304c d93f
000007a0: 40be 86f6 a63c d93f c060 fb08 bc2d d93f
000007b0: 808c 6b56 671f d93f 40da 6aa5 a011 d93f
000007c0: 0065 8e4d 6004 d93f c08a 932b 9ff7 d83f
000007d0: 8065 a196 56eb d83f c0b6 8756 80df d83f
000007e0: 404f e19a 16d4 d83f 002d 03f3 13c9 d83f
000007f0: c083 a346 73be d83f c098 26cf 2fb4 d83f
0.7329565688307582 0.7329455021983122 0.7329343456659387 0.7329230682556087 0.732911658211286 0.7329001100470123 0.7328884203043273 0.7328765861572606
0.7328646049514376 0.732852474050496 0.7328401907832571 0.732827752426175 0.7328151561951302 0.7328023992421251 0.7327894786526556 0.7327763914435792
0.7327631345609831 0.7327497048782661 0.7327360991937226 0.7327223142287309 0.7327083466247686 0.7326941929417075 0.73267984965522 0.7326653131539018
0.7326505797367133 0.7326356456107064 0.7326205068874714 0.7326051595808991 0.7325895996035925 0.7325738227637402 0.7325578247622744 0.732541601189105
0.7325251475193895 0.732508459110548 0.7324915311977875 0.7324743588901939 0.732456937167143 0.7324392608734343 0.7324213247154532 0.7324031232558781
0.7323846509092746 0.7323659019372641 0.7323468704429104 0.732327550365639 0.732307935475518 0.7322880193673242 0.7322677954546108 0.7322472569632765
0.7322263969251352 0.7322052081705621 0.7321836833219209 0.7321618147856768 0.7321395947446874 0.7321170151501022 0.7320940677130139 0.7320707438952923
0.7320470349005603 0.73202293166446 0.7319984248446687 0.7319735048098863 0.7319481616296741 0.7319223850621626 0.7318961645422917 0.731869489169128
0.7318423476929681 0.7318147285008081 0.7317866196027367 0.7317580086162323 0.7317288827503887 0.7316992287892177 0.7316690330743469 0.7316382814866529
0.731606959426756 0.7315750517951614 0.7315425429709776 0.7315094167894642 0.731475656519045 0.7314412448360486 0.7314061637994484 0.7313703948231876
0.7313339186478274 0.7312967153099947 0.7312587641106916 0.7312200435821126 0.7311805314519404 0.731140204605687 0.7310990390481464 0.7310570098611535
0.7310140911600627 0.7309702560471365 0.7309254765623407 0.7308797236320075 0.7308329670130931 0.7307851752356953 0.7307363155410584 0.73068635381631
0.7306352545252182 0.7305829806345443 0.7305294935362383 0.7304747529641986 0.7304187169063425 0.7303613415108501 0.7303025809863684 0.7302423874958563
0.7301807110434311 0.7301174993536463 0.7300526977430266 0.7299862489825415 0.7299180931508431 0.7298481674778046 0.7297764061764411 0.7297027402636758
0.7296270973677821 0.7295494015226822 0.729469572946897 0.7293875278057982 0.7293031779574122 0.7292164306781856 0.7291271883678263 0.7290353482325074
0.7289408019422439 0.7288434352623341 0.7287431276545675 0.7286397518471688 0.7285331733692146 0.7284232500468235 0.7283098314572101 0.7281927583366965
0.7280718619380977 0.7279469633323288 0.7278178726483375 0.7276843882466366 0.7275462958168433 0.7274033673941815 0.7272553602840404 0.7271020158865937
0.7269430584092618 0.726778193454809 0.7266071064727875 0.7264294610564725 0.7262448970692681 0.7260530285807221 0.7258534415885087 0.7256456915024501
0.7254293003605561 0.7252037537450384 0.7249684973603898 0.7247229332316607 0.7244664154728575 0.7241982455721363 0.7239176671278358 0.7236238599636025
0.7233159335380357 0.7229929195523077 0.7226537636437591 0.7222973160377855 0.7219223210069536 0.7215274049667286 0.7211110630060169 0.7206716436201965
0.7202073313755797 0.7197161271892938 0.7191958258567688 0.7186439903960817 0.7180579227073736 0.7174346299591683 0.7167707860144823 0.7160626870931175
0.7153062007303568 0.714496706936032 0.7136290302753068 0.7126973613871712 0.7116951662227322 0.7106150810273171 0.709448790814573 0.7081868887913423
0.7068187139178406 0.705332163557113 0.7037134780378018 0.7019469940213163 0.7000148639624726 0.6978967399083302 0.695569421715021 0.6930064729671415
0.6901778131614122 0.6870493030632474 0.6835823529053009 0.6797336019958067 0.6754547452971771 0.6706926193063012 0.6653897062287228 0.6594852675835128
0.6529173612888428 0.645625994705803 0.6375575494027785 0.6286702617609841 0.6189397973768607 0.6083626965669175 0.5969538082559822 0.5847323438553609
0.5716907372144497 0.5609568639960472 0.5503919437809301 0.5401389865210682 0.5303064930894053 0.5209669636237635 0.5121607350380053 0.5039023847125002
0.49618755074805065 0.48899896967530054 0.48231128636961884 0.4760946278889655 0.470317124390931 0.4649466094202026 0.45995171480436525 0.4553025355579088
0.4509709982279375 0.4469310300349605 0.4431585978805508 0.4396316652356269 0.4363300997270514 0.4332355534944021 0.43033133090229825 0.4276022530352286
0.425034524883241 0.4226156087510091 0.4203341058372345 0.4181796468882837 0.4161427921587979 0.4142149404911777 0.4123882470760343 0.41065554931730475
0.40901030016268436 0.40744650824388273 0.4059586841855811 0.4045417924741024 0.40319120831739497 0.4019026789752722 0.40067228908451824 0.3994964295507941
0.39837176962180365 0.39729523179643067 0.3962639692637815 0.39527534559615773 0.394326916454677 0.39341641308920927 0.39254172744239924 0.39170089868585833
0.3908921010384603 0.3901136327314525 0.3893639060020959 0.3886414380093406 0.38794484257708817 0.387272822682192 0.38662416361153973 0.3859977267224046
