onecap_model_with_structure_ambiguity/output/upper_triangular_two_ambiguous_parameters/Delta_10.0_distorted_0/logadjustment_1_boundary_1/zmax_5.0_zscale_2.0/delta_0.02/q_0.3_gamma_3.0_rho_1.0/model.npz (npz, 126264 bytes, 58 tensors)

clowerlim f8 []
000000 2d 43 1c eb e2 36 1a 3f
       0.0001

zmin f8 []
000000 00 00 00 00 00 00 14 c0
       -5.0

Delta f8 []
000000 00 00 00 00 00 00 24 40
       10.0

s1_F f8 [401]
000000 bc e1 3f 23 6c 09 04 c0 4a 8f bf 79 4d f2 fa bf
       -2.504600787531869 -1.6841559177200502
000010 5e 11 8f 7f ec 6a f6 bf f4 7c 83 5d 8e 42 f4 bf
       -1.4011044485824509 -1.266249051368331
000020 69 eb ae 3b 3e 11 f3 bf de 87 ee 66 ab 58 f2 bf
       -1.1917097407701596 -1.146647836758795
000030 c0 1d 3a 8e 60 e1 f1 bf 35 8a fc 5c 91 8f f1 bf
       -1.1175237231962996 -1.0975507385525252
000040 94 c9 37 78 19 54 f1 bf 70 84 6f 1f 45 26 f1 bf
       -1.0830321022045597 -1.071843264384622
000050 b4 aa bc 56 e6 00 f1 bf 53 37 8d 4d d5 e0 f0 bf
       -1.0627196682132025 -1.0548909215317124
000060 ca dc fb 16 1e c4 f0 bf 54 dd de ef 87 a9 f0 bf
       -1.0478802583509599 -1.0413894052452024
000070 6c 47 ee a6 4d 90 f0 bf ff b4 90 30 f2 77 f0 bf
       -1.0352303047879685 -1.0292837044792689
000080 78 38 2e e6 25 60 f0 bf ea 59 e1 db b5 48 f0 bf
       -1.0234736434390737 -1.0177515591691368
000090 e3 1a 93 69 81 31 f0 bf 54 e5 da 8e 73 1a f0 bf
       -1.0120863079079576 -1.0064578609729624
0000a0 39 c0 3b c1 7e 03 f0 bf a5 0d 73 80 34 d9 ef bf
       -1.0008533046893844 -0.9952642926004286
0000b0 46 37 b5 c0 80 ab ef bf 51 18 4e e6 da 7d ef bf
       -0.989685417540138 -0.9841131685395884
0000c0 3a e4 92 26 3e 50 ef bf ba cd 75 61 a7 22 ef bf
       -0.9785452607531007 -0.9729802039641335
0000d0 cf 34 02 8c 14 f5 ee bf 6f 62 a4 4f 84 c7 ee bf
       -0.9674170240920378 -0.9618550830374043
0000e0 72 a5 75 cb f5 99 ee bf 89 1e 7f 6b 68 6c ee bf
       -0.9562939618892143 -0.9507333850423986
0000f0 9c a1 32 ce db 3e ee bf a9 3d 1c b3 4f 11 ee bf
       -0.9451731707859383 -0.9396131990669591
000100 bf c6 90 ef c3 e3 ed bf fe a2 42 67 38 b6 ed bf
       -0.9340533904089269 -0.9284936920931555
000110 bc 4b 63 07 ad 88 ed bf 62 50 6e c3 21 5b ed bf
       -0.9229340690893575 -0.9173744980821648
000120 11 b7 0c 93 96 2d ed bf a3 7c ae 70 0b 00 ed bf
       -0.911814963537582 -0.906255455094556
000130 39 71 9e 58 80 d2 ec bf 19 59 64 48 f5 a4 ec bf
       -0.9006959658468424 -0.8951364911943386
000140 ea ec 5c 3e 6a 77 ec bf 88 ac 73 39 df 49 ec bf
       -0.8895770280863904 -0.8840175745111916
000150 3c b2 f4 38 54 1c ec bf 66 38 6d 3c c9 ee eb bf
       -0.8784581291598168 -0.8728986911971901
000160 ff e2 96 43 3e c1 eb bf d9 90 49 4e b3 93 eb bf
       -0.8673392601113789 -0.8617798356104017
000170 fa 4b 72 5c 28 66 eb bf 17 7b 0c 6e 9d 38 eb bf
       -0.8562204175563004 -0.8506610059156142
000180 4c cb 1d 83 12 0b eb bf 9c 5b b3 9b 87 dd ea bf
       -0.845101600729643 -0.8395422020938557
000190 ca 96 df b7 fc af ea bf 9b 22 b9 d7 71 82 ea bf
       -0.8339828101422537 -0.8284234250396197
0001a0 b9 f5 59 fb e6 54 ea bf d9 99 de 22 5c 27 ea bf
       -0.8228640469748633 -0.817304676155625
0001b0 67 df 65 4e d1 f9 e9 bf a5 b1 10 7e 46 cc e9 bf
       -0.8117453128061073 -0.8061859571658273
0001c0 7e e0 01 b2 bb 9e e9 bf bb 21 5e ea 30 71 e9 bf
       -0.800626609488077 -0.7950672700399574
0001d0 82 11 4c 27 a6 43 e9 bf 14 19 f4 68 1b 16 e9 bf
       -0.7895079391023929 -0.7839486169694134
0001e0 13 8a 80 af 90 e8 e8 bf f0 ab 1d fb 05 bb e8 bf
       -0.7783893039489292 -0.772830000363113
0001f0 67 bc f9 4b 7b 8d e8 bf c8 32 45 a2 f0 5f e8 bf
       -0.7672707065484133 -0.7617114228574673
000200 4b bd 32 fe 65 32 e8 bf a6 54 f7 5f db 04 e8 bf
       -0.7561521496590243 -0.750592887338503
000210 ce 6a ca c7 50 d7 e7 bf 6c ea e5 35 c6 a9 e7 bf
       -0.74503363629932 -0.7394743969628741
000220 01 a8 86 aa 3b 7c e7 bf c9 36 ec 25 b1 4e e7 bf
       -0.7339151697717626 -0.7283559551885556
000230 6b 28 59 a8 26 21 e7 bf a4 58 13 32 9c f3 e6 bf
       -0.7227967536976058 -0.7172375658071997
000240 19 e3 63 c3 11 c6 e6 bf af 73 97 5c 87 98 e6 bf
       -0.7116783920492679 -0.7061192329816687
000250 c9 9f fe fd fc 6a e6 bf 1b cd ed a7 72 3d e6 bf
       -0.7005600891907245 -0.6950009612905065
000260 ff b9 bd 5a e8 0f e6 bf 86 76 cb 16 5e e2 e5 bf
       -0.6894418499267089 -0.6838827557764524
000270 4f df 78 dc d3 b4 e5 bf bb c2 2c ac 49 87 e5 bf
       -0.6783236795517754 -0.6727646220006912
000280 db 4e 53 86 bf 59 e5 bf f6 49 5e 6b 35 2c e5 bf
       -0.6672055839103125 -0.6616465661084578
000290 fa 65 c5 5b ab fe e4 bf 40 bb 06 58 21 d1 e4 bf
       -0.6560875694660233 -0.6505285949004715
0002a0 db ff a6 60 97 a3 e4 bf 48 31 32 76 0d 76 e4 bf
       -0.6449696433774038 -0.6394107159153828
0002b0 62 da 3b 99 83 48 e4 bf 7f 8b 5f ca f9 1a e4 bf
       -0.6338518135879208 -0.6282929375268934
0002c0 7b 8d 41 0a 70 ed e3 bf f8 13 8f 59 e6 bf e3 bf
       -0.6227340889276286 -0.6171752690503345
0002d0 c1 65 ff b8 5c 92 e3 bf 1a f7 53 29 d3 64 e3 bf
       -0.6116164792285234 -0.6060577208697595
0002e0 fc 68 59 ab 49 37 e3 bf 3e 1e e8 3f c0 09 e3 bf
       -0.6004989954629134 -0.5949403045824011
0002f0 a3 2b e5 e7 36 dc e2 bf 67 1a 43 a4 ad ae e2 bf
       -0.589381649895007 -0.5838230331654132
000300 a6 f4 02 76 24 81 e2 bf df 12 35 5e 9b 53 e2 bf
       -0.5782644562638282 -0.5727059211718276
000310 54 62 fa 5d 12 26 e2 bf c8 66 85 76 89 f8 e1 bf
       -0.5671474299916306 -0.561588984953425
000320 42 ae 1b a9 00 cb e1 bf 64 f7 16 f7 77 9d e1 bf
       -0.5560305884259338 -0.5504722429247804
000330 60 d8 e6 61 ef 6f e1 bf 50 3e 12 eb 66 42 e1 bf
       -0.54491395112451 -0.539355715869485
000340 ae 1c 39 94 de 14 e1 bf 5b 74 16 5f 56 e7 e0 bf
       -0.5337975401861479 -0.5282394272977727
000350 1d 25 82 4d ce b9 e0 bf ef 60 73 61 46 8c e0 bf
       -0.5226813806376956 -0.5171234038671438
000360 53 d6 02 9d be 5e e0 bf 17 6f 6d 02 37 31 e0 bf
       -0.5115655008909904 -0.5060076758777282
000370 7d 15 17 94 af 03 e0 bf 31 94 1b a9 50 ac df bf
       -0.5004499332796254 -0.4948922778551746
000380 73 01 1a 8d 42 51 df bf 40 7c 02 da 34 f6 de bf
       -0.48933471469356177 -0.4837772492409762
000390 6e 4c 18 96 27 9b de bf f8 7e 11 c8 1a 40 de bf
       -0.4782198873301188 -0.47266263521122154
0003a0 ad 82 20 77 0e e5 dd bf 22 7c fe aa 02 8a dd bf
       -0.46710549958701614 -0.46154848765030654
0003b0 09 c3 f6 6b f7 2e dd bf b6 0c f3 c2 ec d3 dc bf
       -0.455991607125768 -0.4504348663142069
0003c0 6f 43 89 b9 e2 78 dc bf d1 4d 0a 5a d9 1d dc bf
       -0.44487827414291464 -0.4393218402194324
0003d0 66 94 92 af d0 c2 db bf 29 d4 1b c6 c8 67 db bf
       -0.43376557489165746 -0.4282094893126805
0003e0 c3 12 91 aa c1 0c db bf 79 1b e4 6a bb b1 da bf
       -0.42265359551337783 -0.4170979064805845
0003f0 60 9e 25 16 b6 56 da bf 21 63 9f bc b1 fb d9 bf
       -0.411542436244849 -0.40598719997574234
000400 63 64 f1 6f ae a0 d9 bf 92 cd 31 43 ac 45 d9 bf
       -0.40043221408774893 -0.39487749635665026
000410 fb 54 10 4b ab ea d8 bf 9b 39 fd 9d ab 8f d8 bf
       -0.38932306604813477 -0.38376894405964784
000420 9b 8a 54 54 ad 34 d8 bf 2d d9 8d 88 b0 d9 d7 bf
       -0.37821515307784076 -0.3726617177520833
000430 53 35 71 57 b5 7e d7 bf e7 c0 51 e0 bb 23 d7 bf
       -0.36710866488723076 -0.3615560236567163
000440 77 b6 4e 45 c4 c8 d6 bf c6 b0 9b ab ce 6d d6 bf
       -0.3560038258391169 -0.350452106081104
000450 a7 96 d0 3b db 12 d6 bf 40 fd 42 22 ea b7 d5 bf
       -0.34490090218819563 -0.3393502554499328
000460 c2 18 69 8f fb 5c d5 bf e0 0c 48 b8 0f 02 d5 bf
       -0.33380021099982227 -0.3282508182166577
000470 f6 c1 ee d6 26 a7 d4 bf 6e fe fe 2a 41 4c d4 bf
       -0.32270213117138213 -0.317154209125852
000480 7b d7 45 fa 5e f1 d3 bf ff 44 66 91 80 96 d3 bf
       -0.3116071170874119 -0.30606092642945265
000490 c5 44 97 44 a6 3b d3 bf 95 4a 78 70 d0 e0 d2 bf
       -0.300515715583128 -0.2949715708101988
0004a0 6b c1 fe 7a ff 85 d2 bf 9a 7a 7f d4 33 2b d2 bf
       -0.28942858706707025 -0.2838868689704356
0004b0 e7 83 d7 f8 6d d0 d1 bf 08 4c b8 70 ae 75 d1 bf
       -0.27834653187716046 -0.2728077030926106
0004c0 f8 10 1b d3 f5 1a d1 bf 64 b0 e0 c6 44 c0 d0 bf
       -0.2672705232219097 -0.2617351476826626
0004d0 76 c4 a2 04 9c 65 d0 bf 11 08 bc 58 fc 0a d0 bf
       -0.2562017483970246 -0.2506705156848748
0004e0 90 b1 1c 4b cd 60 cf bf ae bc 1a cc b7 ab ce bf
       -0.24514166038114782 -0.23961541620289978
0004f0 72 ae 2a 61 ba f6 cd bf 8b df 2c 74 d7 41 cd bf
       -0.23409204239338838 -0.22857182667371165
000500 46 a4 3a b3 11 8d cc bf b7 ec 83 18 6c d8 cb bf
       -0.2230550885335864 -0.21754218289411195
000510 58 35 0d f3 e9 23 cb bf f3 ff 5f f0 8e 6f ca bf
       -0.21203350417855904 -0.2065294908243228
000520 00 ba 40 27 5f bb c9 bf 76 cb 7a 23 5f 07 c9 bf
       -0.20103063027040946 -0.19553746445088976
000530 b2 53 cf f2 93 53 c8 bf f7 0d 0f 33 03 a0 c7 bf
       -0.190050595817096 -0.18457069390397837
000540 59 a8 5d 21 b3 ec c6 bf fb 18 91 aa aa 39 c6 bf
       -0.17909850243751427 -0.17363484695869844
000550 e6 8c 8c 7c f1 86 c5 bf 1b 02 5c 18 90 d4 c4 bf
       -0.16818064290519102 -0.1627369040434282
000560 55 c7 b0 e4 8f 22 c4 bf 71 11 2c 40 fb 70 c3 bf
       -0.15730475107698774 -0.1518854201641591
000570 9c d5 9d 92 dd bf c2 bf 93 3d fd 5b 43 0f c2 bf
       -0.1464802709485128 -0.14109079353009388
000580 50 e8 5b 3f 3a 5f c1 bf 18 3f 5f 07 d1 af c0 bf
       -0.13571861356450876 -0.13036549434627243
000590 14 56 d4 a0 17 01 c0 bf da bc 3e 0d 3e a6 be bf
       -0.125033334283828 -0.11972415755620905
0005a0 d2 85 ea 30 f2 4b bd bf de 06 93 a6 70 f3 bb bf
       -0.11444009489289123 -0.10918335024600931
0005b0 37 63 ae bd de 9c ba bf 94 c4 76 bd 60 48 b9 bf
       -0.10395614748848635 -0.09876064897140885
0005c0 8b ba 19 dd 17 f6 b7 bf 01 72 5a 4c 1f a6 b6 bf
       -0.09359883449517718 -0.0884723245057515
0005d0 5c 0d 21 e9 87 58 b5 bf 0f 47 56 11 52 0d b4 bf
       -0.08338212434414544 -0.07832825587527402
0005e0 e9 4c f6 ba 64 c4 b2 bf 79 e8 60 8e 80 7d b1 bf
       -0.0733092266512362 -0.06832126117743255
0005f0 26 36 b5 0b 2d 38 b0 bf 98 fa 92 2b 39 e7 ad bf
       -0.06335717712246289 -0.058404718941791944
000600 33 e3 7b 58 04 5d ab bf 12 8e c6 b1 9f cd a8 bf
       -0.05344403820158163 -0.0484437851439702
000610 59 af 49 3f 9b 32 a6 bf 6d f4 a9 72 d4 81 a3 bf
       -0.043354846454205904 -0.03809989833551062
000620 69 95 ba 7b 0f ab a0 bf c5 62 26 4d fa 26 9b bf
       -0.03255508790361256 -0.026515875777110027
000630 bb cf 32 45 70 19 94 bf 57 6a b1 57 2e 03 87 bf
       -0.019628290389576124 -0.01123653607480894
000640 00 00 00 00 00 00 00 80 48 6d d8 60 c7 b0 8f bf
       -0.0 -0.0154738975934864
000650 5b 32 81 d4 e4 cc a1 bf 26 e0 07 26 a4 6b ad bf
       -0.03476634115267948 -0.05746186222307896
000660 6e 41 f9 72 e1 46 b5 bf af 27 80 47 5e 7d bc bf
       -0.08311280304883947 -0.11128796811695339
000670 b8 44 0a e4 db 1f c2 bf 69 94 7a ef d3 3b c6 bf
       -0.1415972579457383 -0.1737008017854891
000680 d7 a1 1f 30 1c 89 ca bf 18 01 e9 5a bf ff ce bf
       -0.20730926847251283 -0.24217979372952736
000690 2c c2 26 9a 8e cc d1 bf cb af 65 ab db 27 d4 bf
       -0.27811017087791146 -0.31493274438866753
0006a0 07 3f 45 b0 80 8f d6 bf f3 b5 b8 76 9b 01 d9 bf
       -0.35250870908656434 -0.3907231006040483
0006b0 c7 40 16 f5 9b 7c db bf 90 19 52 74 35 ff dd bf
       -0.4294805425097476 -0.46870170936053857
0006c0 fe a6 22 30 29 44 e0 bf e2 fc 95 2b 85 8b e1 bf
       -0.5083204212325823 -0.5482812739645875
0006d0 37 a6 fc 0a 4d d5 e2 bf a3 69 3c 75 2e 21 e4 bf
       -0.5885377134883986 -0.6290504731908196
0006e0 ac c5 b9 b0 e3 6e e5 bf aa b7 ec 79 31 be e6 bf
       -0.6697863055871287 -0.710716951498161
0006f0 a2 03 a3 40 e5 0e e8 bf e8 6b e9 b7 d3 60 e9 bf
       -0.7518183004796024 -0.7930697052028082
000700 e2 9c 8a a8 d7 b3 ea bf ae 9b 48 f9 d0 07 ec bf
       -0.8344534198594398 -0.875954138643342
000710 bb 7e 8b e2 a3 5c ed bf e9 5e 4d 45 38 b2 ee bf
       -0.9175586151795508 -0.9592553475913209
000720 57 87 58 8f 3c 04 f0 bf 03 35 7e 09 aa af f0 bf
       -1.0010343169637588 -1.0428867693729564
000730 1a 8a dc 85 5c 5b f1 bf af ff c7 f2 4c 07 f2 bf
       -1.0848050335849906 -1.1267823680536642
000740 8b 54 8e 15 75 b3 f2 bf c6 88 3c 6d cf 5f f3 bf
       -1.1688128320722935 -1.2108911768960282
000750 6e 61 d8 19 57 0c f4 bf ae 43 4e c7 07 b9 f4 bf
       -1.2530127534465367 -1.2951734338168808
000760 9e 55 77 9b dd 65 f5 bf 53 70 b8 26 d5 12 f6 bf
       -1.3373695443054667 -1.3795978081243632
000770 d1 72 ce 56 eb bf f6 bf 0e 94 72 6b 1d 6d f7 bf
       -1.4218552962185422 -1.464139384953572
000780 d5 96 8c ec 68 1a f8 bf 50 0a b7 a1 cb c7 f8 bf
       -1.5064477195932586 -1.5487781826965552
000790 5b 76 e3 8a 43 75 f9 bf c8 66 f3 d9 ce 22 fa bf
       -1.591128866704273 -1.6334980500891323
0007a0 b4 22 24 ed 6b d0 fa bf e1 0e 2e 4a 19 7e fb bf
       -1.6758841765714978 -1.718285836949626
0007b0 ae 09 ff 99 d5 2b fc bf 73 93 fa a4 9f d9 fc bf
       -1.7607017531850988 -1.8031307644352779
0007c0 be 0a ad 4f 76 87 fd bf b5 6a e3 97 58 35 fe bf
       -1.8455718147603615 -1.8880239422930292
0007d0 69 45 19 92 45 e3 fe bf 94 05 33 67 3c 91 ff bf
       -1.930486269662959 -1.9729579955313499
0007e0 69 b3 3c 29 9e 1f 00 c0 9c 8e e7 4f a2 76 00 c0
       -2.0154383870744152 -2.0579267733135804
0007f0 f9 45 0c 55 aa cd 00 c0 94 f7 e7 ec b5 24 01 c0
       -2.10042253917413 -2.142925120190691

d f8 [401]
000000 17 43 3a 6f 31 a4 b3 3f 17 43 3a 6f 31 a4 b3 3f
       0.07672413793103448 0.07672413793103448
000010 17 43 3a 6f 31 a4 b3 3f 17 43 3a 6f 31 a4 b3 3f
       0.07672413793103448 0.07672413793103448
000020 17 43 3a 6f 31 a4 b3 3f 17 43 3a 6f 31 a4 b3 3f
       0.07672413793103448 0.07672413793103448
000030 17 43 3a 6f 31 a4 b3 3f 17 43 3a 6f 31 a4 b3 3f
       0.07672413793103448 0.07672413793103448
000040 17 43 3a 6f 31 a4 b3 3f 17 43 3a 6f 31 a4 b3 3f
       0.07672413793103448 0.07672413793103448
000050 17 43 3a 6f 31 a4 b3 3f 17 43 3a 6f 31 a4 b3 3f
       0.07672413793103448 0.07672413793103448
000060 17 43 3a 6f 31 a4 b3 3f 17 43 3a 6f 31 a4 b3 3f
       0.07672413793103448 0.07672413793103448
000070 17 43 3a 6f 31 a4 b3 3f 17 43 3a 6f 31 a4 b3 3f
       0.07672413793103448 0.07672413793103448
000080 17 43 3a 6f 31 a4 b3 3f 17 43 3a 6f 31 a4 b3 3f
       0.07672413793103448 0.07672413793103448
000090 17 43 3a 6f 31 a4 b3 3f 17 43 3a 6f 31 a4 b3 3f
       0.07672413793103448 0.07672413793103448
0000a0 17 43 3a 6f 31 a4 b3 3f 17 43 3a 6f 31 a4 b3 3f
       0.07672413793103448 0.07672413793103448
0000b0 17 43 3a 6f 31 a4 b3 3f 17 43 3a 6f 31 a4 b3 3f
       0.07672413793103448 0.07672413793103448
0000c0 17 43 3a 6f 31 a4 b3 3f 17 43 3a 6f 31 a4 b3 3f
       0.07672413793103448 0.07672413793103448
0000d0 17 43 3a 6f 31 a4 b3 3f 17 43 3a 6f 31 a4 b3 3f
       0.07672413793103448 0.07672413793103448
0000e0 17 43 3a 6f 31 a4 b3 3f 17 43 3a 6f 31 a4 b3 3f
       0.07672413793103448 0.07672413793103448
0000f0 17 43 3a 6f 31 a4 b3 3f 17 43 3a 6f 31 a4 b3 3f
       0.07672413793103448 0.07672413793103448
000100 17 43 3a 6f 31 a4 b3 3f 17 43 3a 6f 31 a4 b3 3f
       0.07672413793103448 0.07672413793103448
000110 17 43 3a 6f 31 a4 b3 3f 17 43 3a 6f 31 a4 b3 3f
       0.07672413793103448 0.07672413793103448
000120 17 43 3a 6f 31 a4 b3 3f 17 43 3a 6f 31 a4 b3 3f
       0.07672413793103448 0.07672413793103448
000130 17 43 3a 6f 31 a4 b3 3f 17 43 3a 6f 31 a4 b3 3f
       0.07672413793103448 0.07672413793103448
000140 17 43 3a 6f 31 a4 b3 3f 17 43 3a 6f 31 a4 b3 3f
       0.07672413793103448 0.07672413793103448
000150 17 43 3a 6f 31 a4 b3 3f 17 43 3a 6f 31 a4 b3 3f
       0.07672413793103448 0.07672413793103448
000160 17 43 3a 6f 31 a4 b3 3f 17 43 3a 6f 31 a4 b3 3f
       0.07672413793103448 0.07672413793103448
000170 17 43 3a 6f 31 a4 b3 3f 17 43 3a 6f 31 a4 b3 3f
       0.07672413793103448 0.07672413793103448
000180 17 43 3a 6f 31 a4 b3 3f 17 43 3a 6f 31 a4 b3 3f
       0.07672413793103448 0.07672413793103448
000190 17 43 3a 6f 31 a4 b3 3f 17 43 3a 6f 31 a4 b3 3f
       0.07672413793103448 0.07672413793103448
0001a0 17 43 3a 6f 31 a4 b3 3f 17 43 3a 6f 31 a4 b3 3f
       0.07672413793103448 0.07672413793103448
0001b0 17 43 3a 6f 31 a4 b3 3f 17 43 3a 6f 31 a4 b3 3f
       0.07672413793103448 0.07672413793103448
0001c0 17 43 3a 6f 31 a4 b3 3f 17 43 3a 6f 31 a4 b3 3f
       0.07672413793103448 0.07672413793103448
0001d0 17 43 3a 6f 31 a4 b3 3f 17 43 3a 6f 31 a4 b3 3f
       0.07672413793103448 0.07672413793103448
0001e0 17 43 3a 6f 31 a4 b3 3f 17 43 3a 6f 31 a4 b3 3f
       0.07672413793103448 0.07672413793103448
0001f0 17 43 3a 6f 31 a4 b3 3f 17 43 3a 6f 31 a4 b3 3f
       0.07672413793103448 0.07672413793103448
000200 17 43 3a 6f 31 a4 b3 3f 17 43 3a 6f 31 a4 b3 3f
       0.07672413793103448 0.07672413793103448
000210 17 43 3a 6f 31 a4 b3 3f 17 43 3a 6f 31 a4 b3 3f
       0.07672413793103448 0.07672413793103448
000220 17 43 3a 6f 31 a4 b3 3f 17 43 3a 6f 31 a4 b3 3f
       0.07672413793103448 0.07672413793103448
000230 17 43 3a 6f 31 a4 b3 3f 17 43 3a 6f 31 a4 b3 3f
       0.07672413793103448 0.07672413793103448
000240 17 43 3a 6f 31 a4 b3 3f 17 43 3a 6f 31 a4 b3 3f
       0.07672413793103448 0.07672413793103448
000250 17 43 3a 6f 31 a4 b3 3f 17 43 3a 6f 31 a4 b3 3f
       0.07672413793103448 0.07672413793103448
000260 17 43 3a 6f 31 a4 b3 3f 17 43 3a 6f 31 a4 b3 3f
       0.07672413793103448 0.07672413793103448
000270 17 43 3a 6f 31 a4 b3 3f 17 43 3a 6f 31 a4 b3 3f
       0.07672413793103448 0.07672413793103448
000280 17 43 3a 6f 31 a4 b3 3f 17 43 3a 6f 31 a4 b3 3f
       0.07672413793103448 0.07672413793103448
000290 17 43 3a 6f 31 a4 b3 3f 17 43 3a 6f 31 a4 b3 3f
       0.07672413793103448 0.07672413793103448
0002a0 17 43 3a 6f 31 a4 b3 3f 17 43 3a 6f 31 a4 b3 3f
       0.07672413793103448 0.07672413793103448
0002b0 17 43 3a 6f 31 a4 b3 3f 17 43 3a 6f 31 a4 b3 3f
       0.07672413793103448 0.07672413793103448
0002c0 17 43 3a 6f 31 a4 b3 3f 17 43 3a 6f 31 a4 b3 3f
       0.07672413793103448 0.07672413793103448
0002d0 17 43 3a 6f 31 a4 b3 3f 17 43 3a 6f 31 a4 b3 3f
       0.07672413793103448 0.07672413793103448
0002e0 17 43 3a 6f 31 a4 b3 3f 17 43 3a 6f 31 a4 b3 3f
       0.07672413793103448 0.07672413793103448
0002f0 17 43 3a 6f 31 a4 b3 3f 17 43 3a 6f 31 a4 b3 3f
       0.07672413793103448 0.07672413793103448
000300 17 43 3a 6f 31 a4 b3 3f 17 43 3a 6f 31 a4 b3 3f
       0.07672413793103448 0.07672413793103448
000310 17 43 3a 6f 31 a4 b3 3f 17 43 3a 6f 31 a4 b3 3f
       0.07672413793103448 0.07672413793103448
000320 17 43 3a 6f 31 a4 b3 3f 17 43 3a 6f 31 a4 b3 3f
       0.07672413793103448 0.07672413793103448
000330 17 43 3a 6f 31 a4 b3 3f 17 43 3a 6f 31 a4 b3 3f
       0.07672413793103448 0.07672413793103448
000340 17 43 3a 6f 31 a4 b3 3f 17 43 3a 6f 31 a4 b3 3f
       0.07672413793103448 0.07672413793103448
000350 17 43 3a 6f 31 a4 b3 3f 17 43 3a 6f 31 a4 b3 3f
       0.07672413793103448 0.07672413793103448
000360 17 43 3a 6f 31 a4 b3 3f 17 43 3a 6f 31 a4 b3 3f
       0.07672413793103448 0.07672413793103448
000370 17 43 3a 6f 31 a4 b3 3f 17 43 3a 6f 31 a4 b3 3f
       0.07672413793103448 0.07672413793103448
000380 17 43 3a 6f 31 a4 b3 3f 17 43 3a 6f 31 a4 b3 3f
       0.07672413793103448 0.07672413793103448
000390 17 43 3a 6f 31 a4 b3 3f 17 43 3a 6f 31 a4 b3 3f
       0.07672413793103448 0.07672413793103448
0003a0 17 43 3a 6f 31 a4 b3 3f 17 43 3a 6f 31 a4 b3 3f
       0.07672413793103448 0.07672413793103448
0003b0 17 43 3a 6f 31 a4 b3 3f 17 43 3a 6f 31 a4 b3 3f
       0.07672413793103448 0.07672413793103448
0003c0 17 43 3a 6f 31 a4 b3 3f 17 43 3a 6f 31 a4 b3 3f
       0.07672413793103448 0.07672413793103448
0003d0 17 43 3a 6f 31 a4 b3 3f 17 43 3a 6f 31 a4 b3 3f
       0.07672413793103448 0.07672413793103448
0003e0 17 43 3a 6f 31 a4 b3 3f 17 43 3a 6f 31 a4 b3 3f
       0.07672413793103448 0.07672413793103448
0003f0 17 43 3a 6f 31 a4 b3 3f 17 43 3a 6f 31 a4 b3 3f
       0.07672413793103448 0.07672413793103448
000400 17 43 3a 6f 31 a4 b3 3f 17 43 3a 6f 31 a4 b3 3f
       0.07672413793103448 0.07672413793103448
000410 17 43 3a 6f 31 a4 b3 3f 17 43 3a 6f 31 a4 b3 3f
       0.07672413793103448 0.07672413793103448
000420 17 43 3a 6f 31 a4 b3 3f 17 43 3a 6f 31 a4 b3 3f
       0.07672413793103448 0.07672413793103448
000430 17 43 3a 6f 31 a4 b3 3f 17 43 3a 6f 31 a4 b3 3f
       0.07672413793103448 0.07672413793103448
000440 17 43 3a 6f 31 a4 b3 3f 17 43 3a 6f 31 a4 b3 3f
       0.07672413793103448 0.07672413793103448
000450 17 43 3a 6f 31 a4 b3 3f 17 43 3a 6f 31 a4 b3 3f
       0.07672413793103448 0.07672413793103448
000460 17 43 3a 6f 31 a4 b3 3f 17 43 3a 6f 31 a4 b3 3f
       0.07672413793103448 0.07672413793103448
000470 17 43 3a 6f 31 a4 b3 3f 17 43 3a 6f 31 a4 b3 3f
       0.07672413793103448 0.07672413793103448
000480 17 43 3a 6f 31 a4 b3 3f 17 43 3a 6f 31 a4 b3 3f
       0.07672413793103448 0.07672413793103448
000490 17 43 3a 6f 31 a4 b3 3f 17 43 3a 6f 31 a4 b3 3f
       0.07672413793103448 0.07672413793103448
0004a0 17 43 3a 6f 31 a4 b3 3f 17 43 3a 6f 31 a4 b3 3f
       0.07672413793103448 0.07672413793103448
0004b0 17 43 3a 6f 31 a4 b3 3f 17 43 3a 6f 31 a4 b3 3f
       0.07672413793103448 0.07672413793103448
0004c0 17 43 3a 6f 31 a4 b3 3f 17 43 3a 6f 31 a4 b3 3f
       0.07672413793103448 0.07672413793103448
0004d0 17 43 3a 6f 31 a4 b3 3f 17 43 3a 6f 31 a4 b3 3f
       0.07672413793103448 0.07672413793103448
0004e0 17 43 3a 6f 31 a4 b3 3f 17 43 3a 6f 31 a4 b3 3f
       0.07672413793103448 0.07672413793103448
0004f0 17 43 3a 6f 31 a4 b3 3f 17 43 3a 6f 31 a4 b3 3f
       0.07672413793103448 0.07672413793103448
000500 17 43 3a 6f 31 a4 b3 3f 17 43 3a 6f 31 a4 b3 3f
       0.07672413793103448 0.07672413793103448
000510 17 43 3a 6f 31 a4 b3 3f 17 43 3a 6f 31 a4 b3 3f
       0.07672413793103448 0.07672413793103448
000520 17 43 3a 6f 31 a4 b3 3f 17 43 3a 6f 31 a4 b3 3f
       0.07672413793103448 0.07672413793103448
000530 17 43 3a 6f 31 a4 b3 3f 17 43 3a 6f 31 a4 b3 3f
       0.07672413793103448 0.07672413793103448
000540 17 43 3a 6f 31 a4 b3 3f 17 43 3a 6f 31 a4 b3 3f
       0.07672413793103448 0.07672413793103448
000550 17 43 3a 6f 31 a4 b3 3f 17 43 3a 6f 31 a4 b3 3f
       0.07672413793103448 0.07672413793103448
000560 17 43 3a 6f 31 a4 b3 3f 17 43 3a 6f 31 a4 b3 3f
       0.07672413793103448 0.07672413793103448
000570 17 43 3a 6f 31 a4 b3 3f 17 43 3a 6f 31 a4 b3 3f
       0.07672413793103448 0.07672413793103448
000580 17 43 3a 6f 31 a4 b3 3f 17 43 3a 6f 31 a4 b3 3f
       0.07672413793103448 0.07672413793103448
000590 17 43 3a 6f 31 a4 b3 3f 17 43 3a 6f 31 a4 b3 3f
       0.07672413793103448 0.07672413793103448
0005a0 17 43 3a 6f 31 a4 b3 3f 17 43 3a 6f 31 a4 b3 3f
       0.07672413793103448 0.07672413793103448
0005b0 17 43 3a 6f 31 a4 b3 3f 17 43 3a 6f 31 a4 b3 3f
       0.07672413793103448 0.07672413793103448
0005c0 17 43 3a 6f 31 a4 b3 3f 17 43 3a 6f 31 a4 b3 3f
       0.07672413793103448 0.07672413793103448
0005d0 17 43 3a 6f 31 a4 b3 3f 17 43 3a 6f 31 a4 b3 3f
       0.07672413793103448 0.07672413793103448
0005e0 17 43 3a 6f 31 a4 b3 3f 17 43 3a 6f 31 a4 b3 3f
       0.07672413793103448 0.07672413793103448
0005f0 17 43 3a 6f 31 a4 b3 3f 17 43 3a 6f 31 a4 b3 3f
       0.07672413793103448 0.07672413793103448
000600 17 43 3a 6f 31 a4 b3 3f 17 43 3a 6f 31 a4 b3 3f
       0.07672413793103448 0.07672413793103448
000610 17 43 3a 6f 31 a4 b3 3f 17 43 3a 6f 31 a4 b3 3f
       0.07672413793103448 0.07672413793103448
000620 17 43 3a 6f 31 a4 b3 3f 17 43 3a 6f 31 a4 b3 3f
       0.07672413793103448 0.07672413793103448
000630 17 43 3a 6f 31 a4 b3 3f 17 43 3a 6f 31 a4 b3 3f
       0.07672413793103448 0.07672413793103448
000640 17 43 3a 6f 31 a4 b3 3f 17 43 3a 6f 31 a4 b3 3f
       0.07672413793103448 0.07672413793103448
000650 17 43 3a 6f 31 a4 b3 3f 17 43 3a 6f 31 a4 b3 3f
       0.07672413793103448 0.07672413793103448
000660 17 43 3a 6f 31 a4 b3 3f 17 43 3a 6f 31 a4 b3 3f
       0.07672413793103448 0.07672413793103448
000670 17 43 3a 6f 31 a4 b3 3f 17 43 3a 6f 31 a4 b3 3f
       0.07672413793103448 0.07672413793103448
000680 17 43 3a 6f 31 a4 b3 3f 17 43 3a 6f 31 a4 b3 3f
       0.07672413793103448 0.07672413793103448
000690 17 43 3a 6f 31 a4 b3 3f 17 43 3a 6f 31 a4 b3 3f
       0.07672413793103448 0.07672413793103448
0006a0 17 43 3a 6f 31 a4 b3 3f 17 43 3a 6f 31 a4 b3 3f
       0.07672413793103448 0.07672413793103448
0006b0 17 43 3a 6f 31 a4 b3 3f 17 43 3a 6f 31 a4 b3 3f
       0.07672413793103448 0.07672413793103448
0006c0 17 43 3a 6f 31 a4 b3 3f 17 43 3a 6f 31 a4 b3 3f
       0.07672413793103448 0.07672413793103448
0006d0 17 43 3a 6f 31 a4 b3 3f 17 43 3a 6f 31 a4 b3 3f
       0.07672413793103448 0.07672413793103448
0006e0 17 43 3a 6f 31 a4 b3 3f 17 43 3a 6f 31 a4 b3 3f
       0.07672413793103448 0.07672413793103448
0006f0 17 43 3a 6f 31 a4 b3 3f 17 43 3a 6f 31 a4 b3 3f
       0.07672413793103448 0.07672413793103448
000700 17 43 3a 6f 31 a4 b3 3f 17 43 3a 6f 31 a4 b3 3f
       0.07672413793103448 0.07672413793103448
000710 17 43 3a 6f 31 a4 b3 3f 17 43 3a 6f 31 a4 b3 3f
       0.07672413793103448 0.07672413793103448
000720 17 43 3a 6f 31 a4 b3 3f 17 43 3a 6f 31 a4 b3 3f
       0.07672413793103448 0.07672413793103448
000730 17 43 3a 6f 31 a4 b3 3f 17 43 3a 6f 31 a4 b3 3f
       0.07672413793103448 0.07672413793103448
000740 17 43 3a 6f 31 a4 b3 3f 17 43 3a 6f 31 a4 b3 3f
       0.07672413793103448 0.07672413793103448
000750 17 43 3a 6f 31 a4 b3 3f 17 43 3a 6f 31 a4 b3 3f
       0.07672413793103448 0.07672413793103448
000760 17 43 3a 6f 31 a4 b3 3f 17 43 3a 6f 31 a4 b3 3f
       0.07672413793103448 0.07672413793103448
000770 17 43 3a 6f 31 a4 b3 3f 17 43 3a 6f 31 a4 b3 3f
       0.07672413793103448 0.07672413793103448
000780 17 43 3a 6f 31 a4 b3 3f 17 43 3a 6f 31 a4 b3 3f
       0.07672413793103448 0.07672413793103448
000790 17 43 3a 6f 31 a4 b3 3f 17 43 3a 6f 31 a4 b3 3f
       0.07672413793103448 0.07672413793103448
0007a0 17 43 3a 6f 31 a4 b3 3f 17 43 3a 6f 31 a4 b3 3f
       0.07672413793103448 0.07672413793103448
0007b0 17 43 3a 6f 31 a4 b3 3f 17 43 3a 6f 31 a4 b3 3f
       0.07672413793103448 0.07672413793103448
0007c0 17 43 3a 6f 31 a4 b3 3f 17 43 3a 6f 31 a4 b3 3f
       0.07672413793103448 0.07672413793103448
0007d0 17 43 3a 6f 31 a4 b3 3f 17 43 3a 6f 31 a4 b3 3f
       0.07672413793103448 0.07672413793103448
0007e0 17 43 3a 6f 31 a4 b3 3f 17 43 3a 6f 31 a4 b3 3f
       0.07672413793103448 0.07672413793103448
0007f0 17 43 3a 6f 31 a4 b3 3f 17 43 3a 6f 31 a4 b3 3f
       0.07672413793103448 0.07672413793103448

zmax f8 []
000000 00 00 00 00 00 00 14 40
       5.0

hz_F f8 [401]
000000 e7 46 1e 31 b8 62 a5 3f f9 dc 3b 46 4c 15 b0 3f
       0.041768795009500974 0.06282498087590573
000010 3c a8 32 5e 33 50 b3 3f fa 78 6f 8a 0c 4c b5 3f
       0.07544251489403647 0.08319166545649984
000020 d6 cd 6d 40 55 88 b6 3f 51 b9 69 8a 17 4f b7 3f
       0.0880177767083333 0.09105059746955148
000030 c0 9d 13 29 c9 cc b7 3f 2c 4d 9d c5 a6 1c b8 3f
       0.09296853306624708 0.09418718647548435
000040 f0 ab 03 4f 97 4f b8 3f 2c 89 fc 8d 2f 70 b8 3f
       0.09496446303425876 0.0954618188521052
000050 d0 f4 07 06 1a 85 b8 3f 13 26 17 f8 8e 92 b8 3f
       0.09578097007029673 0.09598630482573638
000060 c0 8d 66 d7 3c 9b b8 3f ac ee 0c 43 d9 a0 b8 3f
       0.09611873873523447 0.09620435606933125
000070 ee d0 bd 04 7c a4 b8 3f 02 88 58 75 d8 a6 b8 3f
       0.09625983348616149 0.09629586090935052
000080 84 e6 fc d3 61 a8 b8 3f 5f 75 dc 5b 62 a9 b8 3f
       0.09631930757032064 0.09633459799484488
000090 a3 21 39 f9 09 aa b8 3f 17 6a 3a ae 77 aa b8 3f
       0.09634458860921895 0.09635112765901287
0000a0 b1 02 b9 96 bf aa b8 3f ec 24 76 c4 ee aa b8 3f
       0.09635541372063973 0.09635822578833925
0000b0 3f 1f c3 ba 0d ab b8 3f 21 6c 49 08 22 ab b8 3f
       0.09636007127403177 0.09636128141703228
0000c0 e5 e1 c9 4f 2f ab b8 3f 16 e8 87 f3 37 ab b8 3f
       0.09636207292522377 0.09636258788660287
0000d0 17 65 83 84 3d ab b8 3f 39 cf cc 0a 41 ab b8 3f
       0.09636291966616671 0.09636312974617746
0000e0 5c 3f a7 34 43 ab b8 3f 4c 6f 50 75 44 ab b8 3f
       0.09636325870019163 0.09636333335987252
0000f0 c4 55 26 19 45 ab b8 3f 18 34 dd 52 45 ab b8 3f
       0.09636337150580859 0.09636338494347318
000100 7c ce 2e 44 45 ab b8 3f 72 3a 93 03 45 ab b8 3f
       0.0963633815252311 0.0963633664825723
000110 c0 31 07 a0 44 ab b8 3f c7 dd 8b 23 44 ab b8 3f
       0.09636334330497842 0.09636331432181243
000120 5b 48 ce 94 43 ab b8 3f 38 af 41 f8 42 ab b8 3f
       0.09636328108743568 0.09636324463798196
000130 48 5d da 50 42 ab b8 3f b8 4c 8b a0 41 ab b8 3f
       0.09636320566129541 0.09636316461119321
000140 df 45 99 e8 40 ab b8 3f be 4b d3 29 40 ab b8 3f
       0.09636312178306337 0.09636307736518199
000150 bb de b7 64 3f ab b8 3f eb 8a 8e 99 3e ab b8 3f
       0.09636303147260154 0.09636298417039384
000160 5b c4 78 c8 3d ab b8 3f a9 81 7d f1 3c ab b8 3f
       0.09636293548898449 0.09636288543470663
000170 82 a0 90 14 3c ab b8 3f 18 83 98 31 3b ab b8 3f
       0.09636283399652437 0.09636278115113972
000180 05 64 71 48 3a ab b8 3f 2e a1 ef 58 39 ab b8 3f
       0.09636272686601906 0.0963626711014782
000190 06 7b e1 62 38 ab b8 3f ca e0 0f 66 37 ab b8 3f
       0.09636261381227137 0.09636255494831683
0001a0 56 20 3f 62 36 ab b8 3f 06 73 2f 57 35 ab b8 3f
       0.0963624944553215 0.09636243227528149
0001b0 36 23 9d 44 34 ab b8 3f 03 94 40 2a 33 ab b8 3f
       0.09636236834661535 0.09636230260419158
0001c0 62 53 ce 07 32 ab b8 3f 97 f6 f6 dc 30 ab b8 3f
       0.09636223497939292 0.09636216539999008
0001d0 00 f6 66 a9 2f ab b8 3f d0 a0 c6 6c 2e ab b8 3f
       0.09636209379001315 0.09636202006970795
0001e0 c4 db b9 26 2d ab b8 3f db ea df d6 2b ab b8 3f
       0.09636194415530414 0.09636186595882228
0001f0 04 46 d3 7c 2a ab b8 3f 62 27 29 18 29 ab b8 3f
       0.09636178538792001 0.09636170234548794
000200 bd 5c 71 a8 27 ab b8 3f c8 ff 35 2d 26 ab b8 3f
       0.09636161672948425 0.09636152843267987
000210 b2 0e fb a5 24 ab b8 3f ff 31 3e 12 23 ab b8 3f
       0.096361437342291 0.09636134333977252
000220 e7 06 76 71 21 ab b8 3f b4 08 12 c3 1f ab b8 3f
       0.09636124630017272 0.09636114609205287
000230 d0 05 7a 06 1e ab b8 3f 66 81 0d 3b 1c ab b8 3f
       0.09636104257699363 0.09636093560903233
000240 a7 6b 23 60 1a ab b8 3f a0 72 09 75 18 ab b8 3f
       0.09636082503440822 0.0963607106909401
000250 f5 40 03 79 16 ab b8 3f 92 33 4a 6b 14 ab b8 3f
       0.0963605924073397 0.0963604700029477
000260 2f 55 0c 4b 12 ab b8 3f 6e f0 6b 17 10 ab b8 3f
       0.0963603432868083 0.09636021205727882
000270 80 87 7e cf 0d ab b8 3f c4 21 4c 72 0b ab b8 3f
       0.09636007610109054 0.09635993519271496
000280 a7 3b ce fe 08 ab b8 3f aa e7 ee 73 06 ab b8 3f
       0.09635978909339703 0.09635963755036295
000290 14 c4 87 d0 03 ab b8 3f e7 b3 60 13 01 ab b8 3f
       0.0963594802958741 0.09635931704606514
0002a0 76 d8 2e 3b fe aa b8 3f ca f1 92 46 fb aa b8 3f
       0.0963591475000117 0.09635897133825391
0002b0 e0 23 18 34 f8 aa b8 3f 04 6d 32 02 f5 aa b8 3f
       0.0963587882216781 0.0963585977901183
0002c0 35 bd 3c af f1 aa b8 3f df 95 77 39 ee aa b8 3f
       0.09635839966062039 0.09635819342619055
0002d0 bc 5c 06 9f ea aa b8 3f 4c e4 ed dd e6 aa b8 3f
       0.09635797865336121 0.0963577548808569
0002e0 52 b6 11 f4 e2 aa b8 3f 79 c2 31 df de aa b8 3f
       0.09635752161713043 0.09635727833825482
0002f0 29 73 e7 9c da aa b8 3f 70 d4 a2 2a d6 aa b8 3f
       0.09635702448526885 0.09635675946158684
000300 6b 2d a7 85 d1 aa b8 3f 81 bc 07 ab cc aa b8 3f
       0.09635648262990563 0.09635619330923541
000310 7a 9c a3 97 c7 aa b8 3f 7a ca 21 48 c2 aa b8 3f
       0.09635589077116605 0.09635557423625044
000320 f8 4e ec b8 bc aa b8 3f 9e 89 2b e6 b6 aa b8 3f
       0.09635524286960251 0.09635489577661935
000330 3c 7b c0 cb b0 aa b8 3f cf ee 3e 65 aa aa b8 3f
       0.09635453199778693 0.09635415050336892
000340 f9 fe e6 ad a3 aa b8 3f 86 b1 9d a0 9c aa b8 3f
       0.09635375018751437 0.0963533298615343
000350 32 6a e5 37 95 aa b8 3f 07 ed d4 6d 8d aa b8 3f
       0.0963528882470335 0.09635242396773346
000360 fb 39 0e 3c 85 aa b8 3f da e9 b3 9b 7c aa b8 3f
       0.09635193554115766 0.09635142136895727
000370 f3 cb 5d 85 73 aa b8 3f 89 40 0c f1 69 aa b8 3f
       0.09635087972655736 0.09635030875165475
000380 c8 45 1a d6 5f aa b8 3f 68 26 2e 2b 55 aa b8 3f
       0.09634970643153118 0.09634907058912179
000390 fc 5f 28 e6 49 aa b8 3f 0f fd 10 fc 3d aa b8 3f
       0.09634839886746244 0.09634768871272946
0003a0 3d b3 02 61 31 aa b8 3f ef e4 13 08 24 aa b8 3f
       0.0963469373552472 0.0963461417885758
0003b0 47 f7 3c e3 15 aa b8 3f b2 2c 3c e3 06 aa b8 3f
       0.09634529874616958 0.09634440467577823
0003c0 e3 ec 75 f7 f6 a9 b8 3f d7 d0 d1 0d e6 a9 b8 3f
       0.0963434557105987 0.09634244763748555
0003d0 b7 6f 93 12 d4 a9 b8 3f 11 f1 2e f0 c0 a9 b8 3f
       0.09634137586129908 0.09634023536540705
0003e0 1c 3d 18 8f ac a9 b8 3f cd d9 8c d5 96 a9 b8 3f
       0.09633902066729089 0.09633772576930895
0003f0 e4 e9 56 a7 7f a9 b8 3f e7 2e 89 e5 66 a9 b8 3f
       0.09633634410321396 0.09633486846831439
000400 f3 91 32 6e 4c a9 b8 3f a3 64 08 1c 30 a9 b8 3f
       0.09633329096192948 0.09633160290140323
000410 e4 f3 05 c6 11 a9 b8 3f 6a 10 00 3f f1 a8 b8 3f
       0.09632979473640507 0.09632785595027973
000420 a1 a6 2a 55 ce a8 b8 3f 99 d1 8e d1 a8 a8 b8 3f
       0.0963257749487192 0.09632353893431968
000430 27 d8 6e 77 80 a8 b8 3f 62 d4 95 03 55 a8 b8 3f
       0.09632113376469019 0.09631854379206709
000440 31 de 8f 2b 26 a8 b8 3f e6 3e c7 9c f3 a7 b8 3f
       0.09631575168156627 0.09631273820491124
000450 0c 39 83 fb bc a7 b8 3f 69 d8 c2 e1 81 a7 b8 3f
       0.09630948200649331 0.09630595933671916
000460 26 87 ef dd 41 a7 b8 3f 7e 87 60 71 fc a6 b8 3f
       0.09630214374876953 0.09629800575251399
000470 4a 52 a8 0e b1 a6 b8 3f 29 25 a3 17 5f a6 b8 3f
       0.09629351241921671 0.09628862692911312
000480 71 a9 3d db 05 a6 b8 3f 77 20 e7 92 a4 a5 b8 3f
       0.09628330805359099 0.09627750956053825
000490 d6 74 a2 5f 3a a5 b8 3f f9 f5 a5 46 c6 a4 b8 3f
       0.09627117953137385 0.09626425957500108
0004a0 8a 08 77 2d 47 a4 b8 3f c8 17 6c d5 bb a3 b8 3f
       0.09625668392166822 0.09624837837699751
0004b0 97 d6 7a d6 22 a3 b8 3f 39 23 34 99 7a a2 b8 3f
       0.09623925911258834 0.09622923126529494
0004c0 76 cd c9 4f c1 a1 b8 3f 62 f2 f2 ed f4 a0 b8 3f
       0.09621818731266338 0.09620600518514658
0004d0 56 a1 7c 1f 13 a0 b8 3f f5 38 4a 3d 19 9f b8 3f
       0.09619254606935121 0.09617765184723111
0004e0 c7 c6 7d 40 04 9e b8 3f 80 ce 72 b3 d0 9c b8 3f
       0.09616114210600833 0.09614281064096453
0004f0 d5 88 25 a0 7a 9b b8 3f 2c 3c 8c 7b fd 99 b8 3f
       0.09612242135839051 0.09609970346740287
000500 e4 a9 50 0d 54 98 b8 3f 5d b4 3a 53 78 96 b8 3f
       0.09607434582782265 0.09604599029508294
000510 9a 46 79 5f 63 94 b8 3f 95 7e cd 30 0d 92 b8 3f
       0.0960142238702936 0.0959785694262741
000520 90 91 67 83 6c 8f b8 3f c1 ef 06 99 76 8c b8 3f
       0.09593847473258266 0.09589329944623072
000530 9c a0 a4 f6 1e 89 b8 3f 64 12 92 15 57 85 b8 3f
       0.09584229966697183 0.09578460957170304
000540 84 83 89 05 0e 81 b8 3f d1 52 a6 fc 2f 7c b8 3f
       0.09571921954331059 0.09564495008664699
000550 50 1a 9a d1 a5 76 b8 3f c3 7a b0 5b 54 70 b8 3f
       0.09556042067752313 0.09546401251325691
000560 42 7b 48 b3 1b 69 b8 3f 67 56 50 4c d6 60 b8 3f
       0.09535382391957817 0.09522761691217739
000570 1b 9c 00 e3 57 57 b8 3f 29 99 84 31 6c 4c b8 3f
       0.09508275310564367 0.09491611679968472
000580 e0 4c 68 63 d5 3f b8 3f 2d fc 83 39 4a 31 b8 3f
       0.09472402264536894 0.09450210479916228
000590 34 b4 ac ce 73 20 b8 3f c0 91 b7 ea ea 0c b8 3f
       0.09424518390433506 0.0939471076049534
0005a0 b1 18 6a ce 34 f6 b7 3f 40 58 e7 5f bf db b7 3f
       0.09360055961051007 0.09319683162115755
0005b0 52 22 4c 9c dc bc b7 3f 9b 45 ea 30 bd 98 b7 3f
       0.09272555175642452 0.09217436260430249
0005c0 42 0e a3 1d 6a 6e b7 3f f3 27 5d 43 bd 3c b7 3f
       0.09152854178960815 0.09077055830599061
0005d0 42 76 1a c7 58 02 b7 3f 43 6a 25 3e 9d bd b6 3f
       0.08987955914423032 0.08883078353157096
0005e0 df 12 68 ad 9e 6c b6 3f 75 da 89 89 18 0d b6 3f
       0.08759490712698036 0.08613732679246218
0005f0 8d 83 2a 1c 61 9c b5 3f 10 fa 36 02 5d 17 b5 3f
       0.08441740930221737 0.08238774589606401
000600 c7 1a f1 e4 73 7a b4 3f c6 4e 83 1c 88 c1 b3 3f
       0.07999348010444428 0.07717180915943364
000610 35 63 65 91 f3 e7 b2 3f 1f a1 95 da 8c e8 b1 3f
       0.07385179805477267 0.069954684605936
000620 35 ce d0 0c b8 bd b0 3f e9 fa b7 0e 0d c3 ae 3f
       0.06539488137132639 0.06008187107726377
000630 1b a6 54 dc ce 9b ab 3f bb 57 a1 05 cb f9 a7 3f
       0.05392309608062026 0.046827644765172725
000640 f4 85 c4 d7 c1 d1 a3 3f 2c e8 a3 8b b0 06 a1 3f
       0.0387096954239147 0.03325416283219371
000650 d1 2e 0b f2 26 ed 9d 3f b3 ea 29 16 37 cb 9a 3f
       0.029224976084875124 0.026165829398886852
000660 e0 b9 64 21 45 5b 98 3f b4 bb 75 25 47 6b 96 3f
       0.02378566757504952 0.021893607770319526
000670 1f b8 6e ae 86 d9 94 3f a3 f9 38 06 b8 8e 93 3f
       0.020361046215548236 0.01909911668757903
000680 07 19 9c 8e 60 7a 92 3f 1f ed 83 5d 97 90 91 3f
       0.01804495687886123 0.017153134424899293
000690 f8 cc f7 59 95 c8 90 3f 33 a5 24 9a c4 1b 90 3f
       0.01639016496296805 0.01573092642607783
0006a0 08 b9 81 28 3f 0a 8f 3f 4a b3 dc f4 86 01 8e 3f
       0.015156262801806722 0.014651350352858156
0006b0 f0 01 9e 22 48 17 8d 3f de 27 68 b7 ab 46 8c 3f
       0.014204562717851282 0.013806668791421058
0006c0 3a 7c f2 e2 ce 8b 8b 3f 6c 8d 9c a1 8a e3 8a 3f
       0.01345025663459697 0.013129313523285467
0006d0 80 4b d2 13 4a 4b 8a 3f 44 1f 82 4e eb c0 89 3f
       0.012838915567305653 0.012574995358832226
0006e0 32 18 37 bb a7 42 89 3f ce 73 a6 ff 01 cf 88 3f
       0.012334165955405128 0.012113586057972994
0006f0 54 6c bc fc b7 64 88 3f 66 17 8e dd b7 02 88 3f
       0.011910855675116995 0.011723934601615315
000700 fc 83 16 77 17 a8 87 3f 76 ab a5 6c 0d 54 87 3f
       0.011551078149581777 0.011390786054752172
000710 05 fa 32 b1 eb 05 87 3f 12 4c ea 17 1b bd 86 3f
       0.011241761536777703 0.011102878253302282
000720 5b f5 48 b9 17 79 86 3f ee 89 1a 00 6e 39 86 3f
       0.010973153440427088 0.010851725938953085
000730 ce 70 fe 3b b8 fd 85 3f b2 5a e0 9e 9c c5 85 3f
       0.010737838106983946 0.010630820845148523
000740 44 46 a5 90 cb 90 85 3f cd 24 c3 48 fe 5e 85 3f
       0.010530081130727294 0.010435091586617063
000750 d7 d4 de a0 f5 2f 85 3f 3c 89 30 16 79 03 85 3f
       0.010345381709934305 0.010260530461952848
000760 f0 7a 78 f1 55 d9 84 3f 4f b0 e5 8e 5e b1 84 3f
       0.010180159980391207 0.01010393022144043
000770 67 ea 97 c0 69 8b 84 3f 5d 48 5d 47 52 67 84 3f
       0.01003153437612987 0.00996269493376561
000780 76 9b 1e 5e f6 44 84 3f 59 b1 0b 55 37 24 84 3f
       0.0098971602890978 0.009834701807868983
000790 e5 5c 1c 3a f9 04 84 3f d9 b5 e6 8c 22 e7 83 3f
       0.009775111280346535 0.009718198704684976
0007a0 0a 5e 1d fc 9b ca 83 3f 04 d8 52 2b 50 af 83 3f
       0.009663790351324603 0.009611727068072902
0007b0 e8 90 d5 7f 2b 95 83 3f cc 37 a8 f3 1b 7c 83 3f
       0.009561862791720846 0.009514063237499835
0007c0 22 39 c2 ed 10 64 83 3f 6f 69 e2 1e fb 4c 83 3f
       0.009468204742259238 0.009424173240678539
0007d0 17 d7 5b 62 cc 36 83 3f 4b bf 57 a2 77 21 83 3f
       0.009381863357230054 0.009341177598770086
0007e0 e4 6f 1e bf f0 0c 83 3f de fb 04 79 2c f9 82 3f
       0.009302025635228924 0.009264323657246661
0007f0 89 35 ae 5c 20 e6 82 3f 90 9c 56 b1 c2 d3 82 3f
       0.009227993801483663 0.009192963635383827
