onecap_model_with_structure_ambiguity/output/lower_triangular_four_ambiguous_parameters/Delta_10.0_distorted_0/logadjustment_1_boundary_1/zmax_5.0_zscale_2.0/delta_0.015/q_0.2_gamma_10.0_rho_1.0/model.npz (npz, 126264 bytes, 58 tensors)

clowerlim f8 []
0	0x3f1a36e2eb1c432d	0.0001

zmin f8 []
0	0xc014000000000000	-5.0

Delta f8 []
0	0x4024000000000000	10.0

s1_F f8 [401]
0	0xbffcf9c9e52e6b62	-1.810983557929568
1	0xbff950533e829cbd	-1.5821106378369187
2	0xbff815ed20fb02b3	-1.505353096799962
3	0xbff782bf099a93c0	-1.4694204688214398
4	0xbff72efc6a4db1b8	-1.4489711906891056
5	0xbff6f71074dd2bc6	-1.4353184285161986
6	0xbff6cc4099857208	-1.4248662945675523
7	0xbff6a7d794060f20	-1.4159770757841628
8	0xbff6869efcd65e1d	-1.407866466184607
9	0xbff66702081df192	-1.4001484219616924
10	0xbff648364a14920e	-1.3926298993839086
11	0xbff629d587d1ade0	-1.3852134042198188
12	0xbff60babc48fd40c	-1.3778493574329813
13	0xbff5ed9e6c020f3c	-1.3705124110283142
14	0xbff5cf9fd77572fc	-1.363189546237833
15	0xbff5b1a8fc96bf7a	-1.355874048876983
16	0xbff593b63642ca5e	-1.3485624427381917
17	0xbff575c59f9003c8	-1.3412529213821802
18	0xbff557d63ba13f91	-1.3339445428173102
19	0xbff539e78631e866	-1.326636814307244
20	0xbff51bf939e78c6c	-1.3193294774908066
21	0xbff4fe0b325ab7aa	-1.3120223967521079
22	0xbff4e01d5c76bd1f	-1.3047155010097595
23	0xbff4c22fae4c10ba	-1.2974087532502794
24	0xbff4a44222c44d5c	-1.2901021345213257
25	0xbff48654b75e2d1a	-1.2827956354911465
26	0xbff468676afa9054	-1.2754892519815444
27	0xbff44a7a3d395e80	-1.2681829825941406
28	0xbff42c8d2e229e5a	-1.2608768274457334
29	0xbff40ea03df7f2d7	-1.2535707874914601
30	0xbff3f0b36d1ba48a	-1.246264864161534
31	0xbff3d2c6bc0335a3	-1.2389590591659292
32	0xbff3b4da2b30310a	-1.2316533743897389
33	0xbff396edbb2c395a	-1.2243478118358184
34	0xbff379016c870afa	-1.2170423735958011
35	0xbff35b153fd55419	-1.2097370618332717
36	0xbff33d2935b03157	-1.2024318787763002
37	0xbff31f3d4eb4eb8a	-1.1951268267136776
38	0xbff301518b84e24e	-1.1878219079936971
39	0xbff2e365ecc58a5a	-1.1805171250240591
40	0xbff2c57a73208380	-1.173212480273122
41	0xbff2a78f1f43a589	-1.1659079762706333
42	0xbff289a3f1e1299e	-1.1586036156100827
43	0xbff26bb8ebafc105	-1.151299400949996
44	0xbff24dce0d6aba10	-1.143995335016033
45	0xbff22fe357d226c2	-1.1366914206031855
46	0xbff211f8cbab02c1	-1.1293876605779334
47	0xbff1f40e69bf5b06	-1.122084057880501
48	0xbff1d62432de729b	-1.1147806155269453
49	0xbff1b83a27dcfa72	-1.1074773366123307
50	0xbff19a50499535b0	-1.1001742243127914
51	0xbff17c6698e72b34	-1.092871281888347
52	0xbff15e7d16b8d3fa	-1.0855685126855392
53	0xbff14093c3f657f0	-1.0782659201408897
54	0xbff122aaa19238f1	-1.0709635077833435
55	0xbff104c1b0858d84	-1.063661279237608
56	0xbff0e6d8f1d03cce	-1.0563592382275604
57	0xbff0c8f066793aab	-1.0490573885796646
58	0xbff0ab080f8ec579	-1.0417557342264827
59	0xbff08d1fee26a479	-1.0344542792102216
60	0xbff06f38035e712c	-1.0271530276869028
61	0xbff05150505bdd33	-1.0198519839303344
62	0xbff03368d64cfe1a	-1.0125511523364197
63	0xbff01581966891fe	-1.005250537427059
64	0xbfefef3523dcb94a	-0.9979501438554419
65	0xbfefb367944ee8e2	-0.9906499764104206
66	0xbfef779a80cd3703	-0.9833500400215772
67	0xbfef3bcdec1139c4	-0.9760503397645199
68	0xbfef0001d8e958a0	-0.9687508808663274
69	0xbfeec4364a399cf2	-0.9614516687114742
70	0xbfee886b42fc70fc	-0.9541527088472601
71	0xbfee4ca0c643934a	-0.9468540069907274
72	0xbfee10d6d738eebb	-0.9395555690348013
73	0xbfedd50d791f8e90	-0.9322574010552263
74	0xbfed9944af549c94	-0.9249595093177896
75	0xbfed5d7c7d506a45	-0.9176619002858578
76	0xbfed21b4e6a78260	-0.9103645806281513
77	0xbfece5edef0bcf56	-0.9030675572271132
78	0xbfecaa279a4dcb0d	-0.8957708371875427
79	0xbfec6e61ec5dbdb4	-0.8884744278456567
80	0xbfec329ce94d0d4a	-0.8811783367786259
81	0xbfebf6d8954fa17c	-0.8738825718146894
82	0xbfebbb14f4bd4ed9	-0.8665871410434774
83	0xbfeb7f520c13609e	-0.8592920528272037
84	0xbfeb438fdff6342a	-0.8519973158123595
85	0xbfeb07ce7532e381	-0.8447029389418362
86	0xbfeacc0dd0c104fc	-0.8374089314676492
87	0xbfea904df7c49244	-0.8301153029647783
88	0xbfea548eef8fd501	-0.8228220633451714
89	0xbfea18d0bda57c00	-0.8155292228728968
90	0xbfe9dd1367bac30e	-0.8082367921798281
91	0xbfe9a156f3b9c712	-0.8009447822825868
92	0xbfe9659b67c3e734	-0.7936532045998548
93	0xbfe929e0ca345a40	-0.7863620709711725
94	0xbfe8ee2721a2da86	-0.7790713936763758
95	0xbfe8b26e74e68724	-0.7717811854565508
96	0xbfe876b6cb18e468	-0.7644914595358729
97	0xbfe83b002b9905e8	-0.7572022296446308
98	0xbfe7ff4a9e0ef742	-0.7499135100440315
99	0xbfe7c3962a6f46c6	-0.7426253155519695
100	0xbfe787e2d8fed038	-0.7353376615706173
101	0xbfe74c30b256c079	-0.7280505641156331
102	0xbfe7107fbf68d1ec	-0.7207640398469812
103	0xbfe6d4d00983d366	-0.7134781061018713
104	0xbfe699219a587091	-0.7061927809295573
105	0xbfe65d747bfe46f6	-0.698908083128315
106	0xbfe621c8b8f95625	-0.6916240322850099
107	0xbfe5e61e5c3fb6be	-0.684340648816679
108	0xbfe5aa75713fc174	-0.6770579540152952
109	0xbfe56ece03e6968a	-0.6697759700952741
110	0xbfe5332820a70d8e	-0.6624947202439431
111	0xbfe4f783d4812329	-0.6552142286755941
112	0xbfe4bbe12d09e4f4	-0.6479345206891183
113	0xbfe480403873e302	-0.6406556227294404
114	0xbfe444a105983de5	-0.6333775624534012
115	0xbfe40903a4004fe3	-0.6261003688000496
116	0xbfe3cd6823f004d9	-0.618824072065901
117	0xbfe391ce9670f412	-0.6115487039857064
118	0xbfe356370d5e421d	-0.6042742978189072
119	0xbfe31aa19b716399	-0.5970008884424828
120	0xbfe2df0e544fcccf	-0.589728512450529
121	0xbfe2a37d4c99af49	-0.5824572082615102
122	0xbfe267ee99f9d00d	-0.5751870162334868
123	0xbfe22c62533694e8	-0.5679179787881852
124	0xbfe1f0d890446628	-0.5606501405447419
125	0xbfe1b5516a5983d0	-0.5533835484640068
126	0xbfe179ccfc0370e3	-0.5461182520043874
127	0xbfe13e4b613e128e	-0.5388543032900814
128	0xbfe102ccb78cbe6a	-0.5315917572933817
129	0xbfe0c7511e1555f9	-0.5243306720319075
130	0xbfe08bd8b5bdb238	-0.5170711087826652
131	0xbfe05063a14b837c	-0.509813132313965
132	0xbfe014f2058705a4	-0.5025568111379255
133	0xbfdfb30812c16ebd	-0.49530221778489275
134	0xbfdf3c33ac34db76	-0.48804942910231064
135	0xbfdec5672ee844ac	-0.48079852658072286
136	0xbfde4ea2f7b9b613	-0.4735495967096039
137	0xbfddd7e7695052c4	-0.46630273136660727
138	0xbfdd6134ec915760	-0.4590580282432395
139	0xbfdcea8bf1207599	-0.4518155913118221
140	0xbfdc73ecedecb48e	-0.444575531337997
141	0xbfdbfd5861cb5021	-0.4373379664441491
142	0xbfdb86ced422295e	-0.4301030227294599
143	0xbfdb1050d5a3c6c0	-0.42287083495385147
144	0xbfda99df011eef53	-0.4156415472932526
145	0xbfda2379fc644b58	-0.40841531417497867
146	0xbfd9ad227944ce1a	-0.4011923012032824
147	0xbfd936d936ac2824	-0.39397268618688686
148	0xbfd8c09f01dace4c	-0.38675666028141076
149	0xbfd84a74b7c3cff8	-0.3795444292620682
150	0xbfd7d45b46934aee	-0.37233621494412616
151	0xbfd75e53af63241a	-0.3651322567716889
152	0xbfd6e85f08246c45	-0.3579328135981011
153	0xbfd6727e7dc50575	-0.350738165685548
154	0xbfd5fcb3569a428c	-0.343548616955595
155	0xbfd586fef51ad496	-0.33636449752823105
156	0xbfd51162daf402d4	-0.32918616659303024
157	0xbfd49be0ac885807	-0.32201401566396765
158	0xbfd4267a34e869a2	-0.3148484722784365
159	0xbfd3b1316a59944b	-0.30769000421270637
160	0xbfd33c087381fd4c	-0.3005391242986277
161	0xbfd2c701ad55ed1c	-0.29339639594373224
162	0xbfd2521fb1e7de92	-0.2862624394760839
163	0xbfd1dd6560436e38	-0.2791379394600173
164	0xbfd168d5e583870e	-0.2720236531587127
165	0xbfd0f474c75e4811	-0.26492042035636226
166	0xbfd08045f06ddf3d	-0.257829174799088
167	0xbfd00c4dbe8d094b	-0.25075095756996707
168	0xbfcf312227636f43	-0.24368693278563044
169	0xbfce4a2ad391beca	-0.23663840609105186
170	0xbfcd63c1d46b613e	-0.22960684654277402
171	0xbfcc7df5137be878	-0.2225939126145169
172	0xbfcb98d453bf6b09	-0.21560148324245912
173	0xbfcab471819a952c	-0.2086316950637096
174	0xbfc9d0e113403618	-0.20168698730451307
175	0xbfc8ee3a7d7e3000	-0.19477015616973858
176	0xbfc80c98c205f453	-0.18788442109863243
177	0xbfc72c1b1db7ba28	-0.18103350592669298
178	0xbfc64ce5df5fde7a	-0.17422173888165898
179	0xbfc56f2371dd354a	-0.16745417651911004
180	0xbfc49305a804619e	-0.1607367582698886
181	0xbfc3b8c75d12bed4	-0.15407650036421805
182	0xbfc2e0ae82888474	-0.14748174070067288
183	0xbfc20b0ebc54a61e	-0.14096244998772617
184	0xbfc1384cb70d185c	-0.13453062952084138
185	0xbfc068e2725708e2	-0.12820082266814042
186	0xbfbf3ac9993f5a13	-0.1219907759799315
187	0xbfbdad156b87d5b8	-0.11592229724177272
188	0xbfbc2a6d1937adaf	-0.11002237191831087
189	0xbfbab5049c2675ac	-0.10432461559545086
190	0xbfb94f9ebaea09c7	-0.09887115538916823
191	0xbfb7fdb578d4debe	-0.0937150402067983
192	0xbfb6c3acc09647f8	-0.08892326070625234
193	0xbfb5a70f4a4868e8	-0.08458037913843308
194	0xbfb4aed24b18cdd8	-0.08079256375713528
195	0xbfb3e3957b286cc1	-0.07769140488419436
196	0xbfb34fc9a4009d07	-0.07543621305432079
197	0xbfb2ff9c13f5aa2d	-0.07421279418273548
198	0xbfb3008af2da34bb	-0.07422703198445195
199	0xbfb360cc28edb8d5	-0.07569576262696683
200	0xbfb42f90b85fb07b	-0.07885078908265257
201	0xbfb5550241a951d2	-0.08332838156758918
202	0xbfb6e1b7381bd57b	-0.08938164825288723
203	0xbfb8cf84f7985d6f	-0.09691649479679197
204	0xbfbb14dd74dde637	-0.10578712561791624
205	0xbfbda6c18c868cb6	-0.11582574539947896
206	0xbfc03d26a39672a3	-0.12686617839508071
207	0xbfc1c2d010f1a772	-0.13875771357862338
208	0xbfc3601ce32b3c99	-0.15137063114386676
209	0xbfc5117fcb2972e5	-0.1645965330125342
210	0xbfc6d40c06c37e61	-0.17834616022354324
211	0xbfc8a55c1d238276	-0.1925463812140326
212	0xbfca8378d8667dca	-0.20713720861838986
213	0xbfcc6cc36a42ba90	-0.22206919373043776
214	0xbfce5fe3764cd6d0	-0.23730128551840446
215	0xbfd02ddc62740a88	-0.25279912581041986
216	0xbfd12fa8066ecb02	-0.2685337126560371
217	0xbfd234ed1b41d62d	-0.28448035871346883
218	0xbfd33d52c68ab826	-0.3006178797612641
219	0xbfd4488c3631fe28	-0.316927960324366
220	0xbfd5565688d9e00e	-0.3333946548877983
221	0xbfd6667725b7306f	-0.35000399287378675
222	0xbfd778ba69edf2a5	-0.3667436632602324
223	0xbfd88cf297e590a8	-0.3836027606360042
224	0xbfd9a2f6f9d4fe7a	-0.4005715789571479
225	0xbfdabaa32c5e1f4a	-0.4176414426115015
226	0xbfdbd3d688bdc6fa	-0.4348045668949535
227	0xbfdcee73a8152328	-0.45205394186318637
228	0xbfde0a5ffacfe1a6	-0.4693832349144266
229	0xbfdf27837049fa3a	-0.48678670850486905
230	0xbfe022e415d84ff0	-0.5042591501864973
231	0xbfe0b28d21df62d3	-0.5217958127569439
232	0xbfe142b3c5b9a50b	-0.5393923627681557
233	0xbfe1d34fb11ff1a2	-0.5570448359936118
234	0xbfe26459453d79a9	-0.5747495987268866
235	0xbfe2f5c9828c72aa	-0.5925033139970612
236	0xbfe38799f8efede7	-0.6103029119544175
237	0xbfe419c4b9b67bb6	-0.6281455638126008
238	0xbfe4ac444b3fd2fa	-0.6460286588395256
239	0xbfe53f139e0b3db0	-0.6639497839732282
240	0xbfe5d22e02fe2959	-0.681906705708836
241	0xbfe6658f22b9d810	-0.6998973539582511
242	0xbfe6f932f5dd6da2	-0.7179198076295743
243	0xbfe78d15be16d540	-0.7359722817115326
244	0xbfe82133ffe93a83	-0.7540531156790425
245	0xbfe8b58a7d136d5f	-0.7721607630623274
246	0xbfe94a162f8382ee	-0.7902937820436742
247	0xbfe9ded444c788fb	-0.808450826964218
248	0xbfea73c219ed3bca	-0.8266306406384214
249	0xbfeb08dd37c4ac59	-0.8448320473884322
250	0xbfeb9e234f7ae485	-0.8630539467186656
251	0xbfec339237837dd1	-0.8812953075648072
252	0xbfecc927e8c8b0cb	-0.8995551630555608
253	0xbfed5ee27c1accd4	-0.9178326057357489
254	0xbfedf4c027d89727	-0.9361267832034387
255	0xbfee8abf3dcaefb1	-0.9544368941201268

d f8 [401]
0	0x3fb3796ac9dfd130	0.07607142857142857
1	0x3fb3796ac9dfd130	0.07607142857142857
2	0x3fb3796ac9dfd130	0.07607142857142857
3	0x3fb3796ac9dfd130	0.07607142857142857
4	0x3fb3796ac9dfd130	0.07607142857142857
5	0x3fb3796ac9dfd130	0.07607142857142857
6	0x3fb3796ac9dfd130	0.07607142857142857
7	0x3fb3796ac9dfd130	0.07607142857142857
8	0x3fb3796ac9dfd130	0.07607142857142857
9	0x3fb3796ac9dfd130	0.07607142857142857
10	0x3fb3796ac9dfd130	0.07607142857142857
11	0x3fb3796ac9dfd130	0.07607142857142857
12	0x3fb3796ac9dfd130	0.07607142857142857
13	0x3fb3796ac9dfd130	0.07607142857142857
14	0x3fb3796ac9dfd130	0.07607142857142857
15	0x3fb3796ac9dfd130	0.07607142857142857
16	0x3fb3796ac9dfd130	0.07607142857142857
17	0x3fb3796ac9dfd130	0.07607142857142857
18	0x3fb3796ac9dfd130	0.07607142857142857
19	0x3fb3796ac9dfd130	0.07607142857142857
20	0x3fb3796ac9dfd130	0.07607142857142857
21	0x3fb3796ac9dfd130	0.07607142857142857
22	0x3fb3796ac9dfd130	0.07607142857142857
23	0x3fb3796ac9dfd130	0.07607142857142857
24	0x3fb3796ac9dfd130	0.07607142857142857
25	0x3fb3796ac9dfd130	0.07607142857142857
26	0x3fb3796ac9dfd130	0.07607142857142857
27	0x3fb3796ac9dfd130	0.07607142857142857
28	0x3fb3796ac9dfd130	0.07607142857142857
29	0x3fb3796ac9dfd130	0.07607142857142857
30	0x3fb3796ac9dfd130	0.07607142857142857
31	0x3fb3796ac9dfd130	0.07607142857142857
32	0x3fb3796ac9dfd130	0.07607142857142857
33	0x3fb3796ac9dfd130	0.07607142857142857
34	0x3fb3796ac9dfd130	0.07607142857142857
35	0x3fb3796ac9dfd130	0.07607142857142857
36	0x3fb3796ac9dfd130	0.07607142857142857
37	0x3fb3796ac9dfd130	0.07607142857142857
38	0x3fb3796ac9dfd130	0.07607142857142857
39	0x3fb3796ac9dfd130	0.07607142857142857
40	0x3fb3796ac9dfd130	0.07607142857142857
41	0x3fb3796ac9dfd130	0.07607142857142857
42	0x3fb3796ac9dfd130	0.07607142857142857
43	0x3fb3796ac9dfd130	0.07607142857142857
44	0x3fb3796ac9dfd130	0.07607142857142857
45	0x3fb3796ac9dfd130	0.07607142857142857
46	0x3fb3796ac9dfd130	0.07607142857142857
47	0x3fb3796ac9dfd130	0.07607142857142857
48	0x3fb3796ac9dfd130	0.07607142857142857
49	0x3fb3796ac9dfd130	0.07607142857142857
50	0x3fb3796ac9dfd130	0.07607142857142857
51	0x3fb3796ac9dfd130	0.07607142857142857
52	0x3fb3796ac9dfd130	0.07607142857142857
53	0x3fb3796ac9dfd130	0.07607142857142857
54	0x3fb3796ac9dfd130	0.07607142857142857
55	0x3fb3796ac9dfd130	0.07607142857142857
56	0x3fb3796ac9dfd130	0.07607142857142857
57	0x3fb3796ac9dfd130	0.07607142857142857
58	0x3fb3796ac9dfd130	0.07607142857142857
59	0x3fb3796ac9dfd130	0.07607142857142857
60	0x3fb3796ac9dfd130	0.07607142857142857
61	0x3fb3796ac9dfd130	0.07607142857142857
62	0x3fb3796ac9dfd130	0.07607142857142857
63	0x3fb3796ac9dfd130	0.07607142857142857
64	0x3fb3796ac9dfd130	0.07607142857142857
65	0x3fb3796ac9dfd130	0.07607142857142857
66	0x3fb3796ac9dfd130	0.07607142857142857
67	0x3fb3796ac9dfd130	0.07607142857142857
68	0x3fb3796ac9dfd130	0.07607142857142857
69	0x3fb3796ac9dfd130	0.07607142857142857
70	0x3fb3796ac9dfd130	0.07607142857142857
71	0x3fb3796ac9dfd130	0.07607142857142857
72	0x3fb3796ac9dfd130	0.07607142857142857
73	0x3fb3796ac9dfd130	0.07607142857142857
74	0x3fb3796ac9dfd130	0.07607142857142857
75	0x3fb3796ac9dfd130	0.07607142857142857
76	0x3fb3796ac9dfd130	0.07607142857142857
77	0x3fb3796ac9dfd130	0.07607142857142857
78	0x3fb3796ac9dfd130	0.07607142857142857
79	0x3fb3796ac9dfd130	0.07607142857142857
80	0x3fb3796ac9dfd130	0.07607142857142857
81	0x3fb3796ac9dfd130	0.07607142857142857
82	0x3fb3796ac9dfd130	0.07607142857142857
83	0x3fb3796ac9dfd130	0.07607142857142857
84	0x3fb3796ac9dfd130	0.07607142857142857
85	0x3fb3796ac9dfd130	0.07607142857142857
86	0x3fb3796ac9dfd130	0.07607142857142857
87	0x3fb3796ac9dfd130	0.07607142857142857
88	0x3fb3796ac9dfd130	0.07607142857142857
89	0x3fb3796ac9dfd130	0.07607142857142857
90	0x3fb3796ac9dfd130	0.07607142857142857
91	0x3fb3796ac9dfd130	0.07607142857142857
92	0x3fb3796ac9dfd130	0.07607142857142857
93	0x3fb3796ac9dfd130	0.07607142857142857
94	0x3fb3796ac9dfd130	0.07607142857142857
95	0x3fb3796ac9dfd130	0.07607142857142857
96	0x3fb3796ac9dfd130	0.07607142857142857
97	0x3fb3796ac9dfd130	0.07607142857142857
98	0x3fb3796ac9dfd130	0.07607142857142857
99	0x3fb3796ac9dfd130	0.07607142857142857
100	0x3fb3796ac9dfd130	0.07607142857142857
101	0x3fb3796ac9dfd130	0.07607142857142857
102	0x3fb3796ac9dfd130	0.07607142857142857
103	0x3fb3796ac9dfd130	0.07607142857142857
104	0x3fb3796ac9dfd130	0.07607142857142857
105	0x3fb3796ac9dfd130	0.07607142857142857
106	0x3fb3796ac9dfd130	0.07607142857142857
107	0x3fb3796ac9dfd130	0.07607142857142857
108	0x3fb3796ac9dfd130	0.07607142857142857
109	0x3fb3796ac9dfd130	0.07607142857142857
110	0x3fb3796ac9dfd130	0.07607142857142857
111	0x3fb3796ac9dfd130	0.07607142857142857
112	0x3fb3796ac9dfd130	0.07607142857142857
113	0x3fb3796ac9dfd130	0.07607142857142857
114	0x3fb3796ac9dfd130	0.07607142857142857
115	0x3fb3796ac9dfd130	0.07607142857142857
116	0x3fb3796ac9dfd130	0.07607142857142857
117	0x3fb3796ac9dfd130	0.07607142857142857
118	0x3fb3796ac9dfd130	0.07607142857142857
119	0x3fb3796ac9dfd130	0.07607142857142857
120	0x3fb3796ac9dfd130	0.07607142857142857
121	0x3fb3796ac9dfd130	0.07607142857142857
122	0x3fb3796ac9dfd130	0.07607142857142857
123	0x3fb3796ac9dfd130	0.07607142857142857
124	0x3fb3796ac9dfd130	0.07607142857142857
125	0x3fb3796ac9dfd130	0.07607142857142857
126	0x3fb3796ac9dfd130	0.07607142857142857
127	0x3fb3796ac9dfd130	0.07607142857142857
128	0x3fb3796ac9dfd130	0.07607142857142857
129	0x3fb3796ac9dfd130	0.07607142857142857
130	0x3fb3796ac9dfd130	0.07607142857142857
131	0x3fb3796ac9dfd130	0.07607142857142857
132	0x3fb3796ac9dfd130	0.07607142857142857
133	0x3fb3796ac9dfd130	0.07607142857142857
134	0x3fb3796ac9dfd130	0.07607142857142857
135	0x3fb3796ac9dfd130	0.07607142857142857
136	0x3fb3796ac9dfd130	0.07607142857142857
137	0x3fb3796ac9dfd130	0.07607142857142857
138	0x3fb3796ac9dfd130	0.07607142857142857
139	0x3fb3796ac9dfd130	0.07607142857142857
140	0x3fb3796ac9dfd130	0.07607142857142857
141	0x3fb3796ac9dfd130	0.07607142857142857
142	0x3fb3796ac9dfd130	0.07607142857142857
143	0x3fb3796ac9dfd130	0.07607142857142857
144	0x3fb3796ac9dfd130	0.07607142857142857
145	0x3fb3796ac9dfd130	0.07607142857142857
146	0x3fb3796ac9dfd130	0.07607142857142857
147	0x3fb3796ac9dfd130	0.07607142857142857
148	0x3fb3796ac9dfd130	0.07607142857142857
149	0x3fb3796ac9dfd130	0.07607142857142857
150	0x3fb3796ac9dfd130	0.07607142857142857
151	0x3fb3796ac9dfd130	0.07607142857142857
152	0x3fb3796ac9dfd130	0.07607142857142857
153	0x3fb3796ac9dfd130	0.07607142857142857
154	0x3fb3796ac9dfd130	0.07607142857142857
155	0x3fb3796ac9dfd130	0.07607142857142857
156	0x3fb3796ac9dfd130	0.07607142857142857
157	0x3fb3796ac9dfd130	0.07607142857142857
158	0x3fb3796ac9dfd130	0.07607142857142857
159	0x3fb3796ac9dfd130	0.07607142857142857
160	0x3fb3796ac9dfd130	0.07607142857142857
161	0x3fb3796ac9dfd130	0.07607142857142857
162	0x3fb3796ac9dfd130	0.07607142857142857
163	0x3fb3796ac9dfd130	0.07607142857142857
164	0x3fb3796ac9dfd130	0.07607142857142857
165	0x3fb3796ac9dfd130	0.07607142857142857
166	0x3fb3796ac9dfd130	0.07607142857142857
167	0x3fb3796ac9dfd130	0.07607142857142857
168	0x3fb3796ac9dfd130	0.07607142857142857
169	0x3fb3796ac9dfd130	0.07607142857142857
170	0x3fb3796ac9dfd130	0.07607142857142857
171	0x3fb3796ac9dfd130	0.07607142857142857
172	0x3fb3796ac9dfd130	0.07607142857142857
173	0x3fb3796ac9dfd130	0.07607142857142857
174	0x3fb3796ac9dfd130	0.07607142857142857
175	0x3fb3796ac9dfd130	0.07607142857142857
176	0x3fb3796ac9dfd130	0.07607142857142857
177	0x3fb3796ac9dfd130	0.07607142857142857
178	0x3fb3796ac9dfd130	0.07607142857142857
179	0x3fb3796ac9dfd130	0.07607142857142857
180	0x3fb3796ac9dfd130	0.07607142857142857
181	0x3fb3796ac9dfd130	0.07607142857142857
182	0x3fb3796ac9dfd130	0.07607142857142857
183	0x3fb3796ac9dfd130	0.07607142857142857
184	0x3fb3796ac9dfd130	0.07607142857142857
185	0x3fb3796ac9dfd130	0.07607142857142857
186	0x3fb3796ac9dfd130	0.07607142857142857
187	0x3fb3796ac9dfd130	0.07607142857142857
188	0x3fb3796ac9dfd130	0.07607142857142857
189	0x3fb3796ac9dfd130	0.07607142857142857
190	0x3fb3796ac9dfd130	0.07607142857142857
191	0x3fb3796ac9dfd130	0.07607142857142857
192	0x3fb3796ac9dfd130	0.07607142857142857
193	0x3fb3796ac9dfd130	0.07607142857142857
194	0x3fb3796ac9dfd130	0.07607142857142857
195	0x3fb3796ac9dfd130	0.07607142857142857
196	0x3fb3796ac9dfd130	0.07607142857142857
197	0x3fb3796ac9dfd130	0.07607142857142857
198	0x3fb3796ac9dfd130	0.07607142857142857
199	0x3fb3796ac9dfd130	0.07607142857142857
200	0x3fb3796ac9dfd130	0.07607142857142857
201	0x3fb3796ac9dfd130	0.07607142857142857
202	0x3fb3796ac9dfd130	0.07607142857142857
203	0x3fb3796ac9dfd130	0.07607142857142857
204	0x3fb3796ac9dfd130	0.07607142857142857
205	0x3fb3796ac9dfd130	0.07607142857142857
206	0x3fb3796ac9dfd130	0.07607142857142857
207	0x3fb3796ac9dfd130	0.07607142857142857
208	0x3fb3796ac9dfd130	0.07607142857142857
209	0x3fb3796ac9dfd130	0.07607142857142857
210	0x3fb3796ac9dfd130	0.07607142857142857
211	0x3fb3796ac9dfd130	0.07607142857142857
212	0x3fb3796ac9dfd130	0.07607142857142857
213	0x3fb3796ac9dfd130	0.07607142857142857
214	0x3fb3796ac9dfd130	0.07607142857142857
215	0x3fb3796ac9dfd130	0.07607142857142857
216	0x3fb3796ac9dfd130	0.07607142857142857
217	0x3fb3796ac9dfd130	0.07607142857142857
218	0x3fb3796ac9dfd130	0.07607142857142857
219	0x3fb3796ac9dfd130	0.07607142857142857
220	0x3fb3796ac9dfd130	0.07607142857142857
221	0x3fb3796ac9dfd130	0.07607142857142857
222	0x3fb3796ac9dfd130	0.07607142857142857
223	0x3fb3796ac9dfd130	0.07607142857142857
224	0x3fb3796ac9dfd130	0.07607142857142857
225	0x3fb3796ac9dfd130	0.07607142857142857
226	0x3fb3796ac9dfd130	0.07607142857142857
227	0x3fb3796ac9dfd130	0.07607142857142857
228	0x3fb3796ac9dfd130	0.07607142857142857
229	0x3fb3796ac9dfd130	0.07607142857142857
230	0x3fb3796ac9dfd130	0.07607142857142857
231	0x3fb3796ac9dfd130	0.07607142857142857
232	0x3fb3796ac9dfd130	0.07607142857142857
233	0x3fb3796ac9dfd130	0.07607142857142857
234	0x3fb3796ac9dfd130	0.07607142857142857
235	0x3fb3796ac9dfd130	0.07607142857142857
236	0x3fb3796ac9dfd130	0.07607142857142857
237	0x3fb3796ac9dfd130	0.07607142857142857
238	0x3fb3796ac9dfd130	0.07607142857142857
239	0x3fb3796ac9dfd130	0.07607142857142857
240	0x3fb3796ac9dfd130	0.07607142857142857
241	0x3fb3796ac9dfd130	0.07607142857142857
242	0x3fb3796ac9dfd130	0.07607142857142857
243	0x3fb3796ac9dfd130	0.07607142857142857
244	0x3fb3796ac9dfd130	0.07607142857142857
245	0x3fb3796ac9dfd130	0.07607142857142857
246	0x3fb3796ac9dfd130	0.07607142857142857
247	0x3fb3796ac9dfd130	0.07607142857142857
248	0x3fb3796ac9dfd130	0.07607142857142857
249	0x3fb3796ac9dfd130	0.07607142857142857
250	0x3fb3796ac9dfd130	0.07607142857142857
251	0x3fb3796ac9dfd130	0.07607142857142857
252	0x3fb3796ac9dfd130	0.07607142857142857
253	0x3fb3796ac9dfd130	0.07607142857142857
254	0x3fb3796ac9dfd130	0.07607142857142857
255	0x3fb3796ac9dfd130	0.07607142857142857

zmax f8 []
0	0x4014000000000000	5.0

hz_F f8 [401]
0	0x3fa14fbe7e47a0c6	0.033811524310125615
1	0x3fa928bab0c75d16	0.04913886459297083
2	0x3facea97b6309700	0.05647729968067772
3	0x3faec3be511f3cad	0.06008715381869343
4	0x3fafb0088547cdaa	0.0618899023719693
5	0x3fb01391512eae6e	0.06279857856741852
6	0x3fb031c58a7d8705	0.0632594550238786
7	0x3fb0412867543186	0.06349422953298331
8	0x3fb049047042a4ff	0.06361415615778652
9	0x3fb04d08e6fc1d2c	0.06367545737531505
10	0x3fb04f150e7caf9b	0.06370669940650801
11	0x3fb0501d8854075a	0.0637224634010897
12	0x3fb0509fb8a3fa19	0.06373022325349388
13	0x3fb050dc268171ed	0.06373382511214461
14	0x3fb050f427abafbb	0.06373525589486821
15	0x3fb050f905637d63	0.06373554593618773
16	0x3fb050f3bef98d74	0.06373523151846944
17	0x3fb050e907a6f212	0.0637345927888833
18	0x3fb050db562739a5	0.06373377660131625
19	0x3fb050cbf6276dcd	0.06373286018008813
20	0x3fb050bb9683615f	0.06373188423765928
21	0x3fb050aa938a85d4	0.06373087026670216
22	0x3fb050991decb0f9	0.06372982960300878
23	0x3fb050874f33fa10	0.06372876819293816
24	0x3fb050753494bfab	0.06372768911091835
25	0x3fb05062d4a8b69c	0.06372659389372831
26	0x3fb05050327b4e10	0.0637254832502594
27	0x3fb0503d4f2a83e2	0.06372435744061947
28	0x3fb0502a2ac61ad4	0.06372321647914286
29	0x3fb05016c4c7afb8	0.06372206024360494
30	0x3fb050031c53828d	0.06372088853414422
31	0x3fb04fef305b7a8d	0.06371970110510912
32	0x3fb04fdaffb20082	0.06371849768220453
33	0x3fb04fc689146505	0.06371727797195
34	0x3fb04fb1cb302559	0.06371604166647184
35	0x3fb04f9cc4a602ff	0.06371478844631538
36	0x3fb04f87740b631f	0.06371351798169343
37	0x3fb04f71d7eb0264	0.06371222993312525
38	0x3fb04f5beec53021	0.0637109239516467
39	0x3fb04f45b70fd56e	0.06370959967883547
40	0x3fb04f2f2f3639fc	0.06370825674660091
41	0x3fb04f185598e554	0.06370689477707475
42	0x3fb04f01288d2d3f	0.06370551338220752
43	0x3fb04ee9a65cfbcc	0.06370411216356259
44	0x3fb04ed1cd466bed	0.06370269071196306
45	0x3fb04eb99b7b6155	0.06370124860712185
46	0x3fb04ea10f2122b9	0.06369978541728018
47	0x3fb04e88264fef51	0.06369830069882922
48	0x3fb04e6edf129dd3	0.06369679399596544
49	0x3fb04e5537660173	0.06369526484013992
50	0x3fb04e3b2d388b37	0.063693712749722
51	0x3fb04e20be69c31c	0.06369213722952022
52	0x3fb04e05e8c9cbcf	0.06369053777034071
53	0x3fb04deaaa18b983	0.0636889138483863
54	0x3fb04dcf00062182	0.06368726492485702
55	0x3fb04db2e8307947	0.06368559044537846
56	0x3fb04d9660247206	0.0636838898394175
57	0x3fb04d79655c54c7	0.06368216251970003
58	0x3fb04d5bf53f59d2	0.06368040788161203
59	0x3fb04d3e0d21000d	0.06367862530260045
60	0x3fb04d1faa4040e3	0.06367681414144814
61	0x3fb04d00c9c6d130	0.06367497373759501
62	0x3fb04ce168c84fcd	0.06367310341039385
63	0x3fb04cc184418e31	0.06367120245845893
64	0x3fb04ca1191787f9	0.06366927015872638
65	0x3fb04c8024169342	0.06366730576571647
66	0x3fb04c5ea1f16960	0.0636653085106551
67	0x3fb04c3c8f402454	0.06366327760055529
68	0x3fb04c19e87f3527	0.06366121221727337
69	0x3fb04bf6aa0e3fb1	0.06365911151647087
70	0x3fb04bd2d02f1809	0.06365697462669585
71	0x3fb04bae570466a9	0.06365480064814712
72	0x3fb04b893a90800e	0.06365258865162124
73	0x3fb04b6376b40ebd	0.06365033767729762
74	0x3fb04b3d072cae8c	0.06364804673347119
75	0x3fb04b15e793787f	0.06364571479523028
76	0x3fb04aee135b8405	0.06364334080309682
77	0x3fb04ac585d04712	0.06364092366154875
78	0x3fb04a9c3a13ea60	0.06363846223750036
79	0x3fb04a722b1d87d3	0.06363595535870496
80	0x3fb04a4753b75000	0.06363340181206922
81	0x3fb04a1bae7c9059	0.0636308003418561
82	0x3fb049ef35d7b371	0.0636281496478668
83	0x3fb049c1e4000ef3	0.06362544838344401
84	0x3fb04993b2f7982c	0.06362269515338487
85	0x3fb049649c8885a4	0.06361988851178652
86	0x3fb049349a42d28c	0.0636170269597846
87	0x3fb04903a5797f53	0.06361410894305423
88	0x3fb048d1b73fd499	0.06361113284931931
89	0x3fb0489ec86662ac	0.06360809700562225
90	0x3fb0486ad177ea8d	0.06360499967551388
91	0x3fb04835cab5fd07	0.06360183905598059
92	0x3fb047ffac15920b	0.06359861327434417
93	0x3fb047c86d3b46bb	0.06359532038484421
94	0x3fb0479005778339	0.06359195836513444
95	0x3fb047566bc24680	0.06358852511245949
96	0x3fb0471b96b6caa0	0.06358501843969089
97	0x3fb046df7c8eeca0	0.06358143607114863
98	0x3fb046a2131e2a79	0.06357777563804658
99	0x3fb046634fcc7aa1	0.0635740346738012
100	0x3fb046232790bad8	0.06357021060896828
101	0x3fb045e18eeac9cc	0.06356630076587705
102	0x3fb0459e79dd4e7a	0.06356230235297203
103	0x3fb04559dbe70813	0.06355821245873043
104	0x3fb04513a7fbbe9d	0.06355402804524109
105	0x3fb044cbd07cbe75	0.06354974594136727
106	0x3fb044824730c07f	0.06354536283538613
107	0x3fb04436fd3b74dd	0.06354087526729608
108	0x3fb043e9e31452b0	0.06353627962045993
109	0x3fb0439ae87cd788	0.0635315721127353
110	0x3fb04349fc762bca	0.06352674878705425
111	0x3fb042f70d35fcc3	0.0635218055012841
112	0x3fb042a2081a94b9	0.063516737917399
113	0x3fb0424ad99e27fe	0.0635115414899303
114	0x3fb041f16d492611	0.06350621145352188
115	0x3fb04195ada39f35	0.06350074280964864
116	0x3fb0413784259833	0.06349513031236213
117	0x3fb040d6d926289c	0.06348936845293668
118	0x3fb0407393c963b8	0.0634834514434165
119	0x3fb0400d99ecdc0d	0.06347737319889309
120	0x3fb03fa4d012b666	0.06347112731847346
121	0x3fb03f39194b0829	0.06346470706469688
122	0x3fb03eca571b7e35	0.06345810534139036
123	0x3fb03e5869651514	0.06345131466976667
124	0x3fb03de32e47b0f5	0.06344432716258892
125	0x3fb03d6a820361e0	0.06343713449621857
126	0x3fb03cee3ed71ac5	0.06342972788034291
127	0x3fb03c6e3cdcb6c0	0.063422098025252
128	0x3fb03bea51e1d17c	0.06341423510622762
129	0x3fb03b62513d5946	0.06340612872495396
130	0x3fb03ad60ba1551d	0.06339776786747504
131	0x3fb03a454ee8c4b9	0.06338914085860638
132	0x3fb039afe5e0c881	0.06338023531205474
133	0x3fb03915980cea63	0.06337103807610726
134	0x3fb038762965e4e3	0.06336153517431202
135	0x3fb037d15a1242af	0.0633517117405613
136	0x3fb03726e6184084	0.06334155194804408
137	0x3fb0367685080545	0.06333103893122878
138	0x3fb035bfe99da54d	0.0633201547003825
139	0x3fb03502c1599c24	0.06330888004741603
140	0x3fb0343eb40ed39d	0.06329719444222666
141	0x3fb033736364ebbc	0.06328507591835736
142	0x3fb032a06a4d7a98	0.06327250094680392
143	0x3fb031c55c6a6581	0.06325944429626952
144	0x3fb030e1c5639f7d	0.06324587887831785
145	0x3fb02ff5282a3178	0.06323177557550774
146	0x3fb02efefe262041	0.06321710305030682
147	0x3fb02dfeb64c3af8	0.06320182753209369
148	0x3fb02cf3b418c808	0.0631859125794848
149	0x3fb02bdd4e6b4244	0.06316931881452442
150	0x3fb02abace3ee46a	0.06315200362486598
151	0x3fb0298b6d3ad8d1	0.06313392082924742
152	0x3fb0284e5414629f	0.06311502030110681
153	0x3fb0270298bc1249	0.06309524754403485
154	0x3fb025a73c4e2a88	0.0630745432119203
155	0x3fb0243b28bcafb2	0.0630528425651267
156	0x3fb022bd2e2830cf	0.06303007485275035
157	0x3fb0212bffda3391	0.06300616260905502
158	0x3fb01f8630d1ed40	0.06298102085013557
159	0x3fb01dca2fd09f60	0.06295455615383849
160	0x3fb01bf642d00a25	0.06292666560333567
161	0x3fb01a0881c85ab1	0.06289723557015738
162	0x3fb017fed0a63445	0.06286614030814615
163	0x3fb015d6d84aa675	0.06283324032360744
164	0x3fb0138dfe66f521	0.06279838047972365
165	0x3fb011215bfc48f2	0.06276138778438048
166	0x3fb00e8db23a829b	0.0627220687988576
167	0x3fb00bcf5d6aaf21	0.06268020659143449
168	0x3fb008e2457d9f3a	0.06263555714178617
169	0x3fb005c1cbbf4210	0.062587845080323
170	0x3fb00268b5105944	0.06253675861839719
171	0x3faffda21fc289ee	0.06248194348997403
172	0x3faff5e829eec2c0	0.062422995680554205
173	0x3fafed94038d36e1	0.062359452661082455
174	0x3fafe493d5b2269d	0.06229078277199316
175	0x3fafdad308ad20d0	0.06221637230788846
176	0x3fafd039bc745c44	0.06213550973387119
177	0x3fafc4ac2236339c	0.06204736631034466
178	0x3fafb809af2e24b4	0.061950972208316385
179	0x3fafaa2c1ebbb6c8	0.06184518695031965
180	0x3faf9ae63714d11f	0.06172866270427079
181	0x3faf8a0240b263d7	0.06159979858166025
182	0x3faf77401cc5342b	0.06145668364715847
183	0x3faf6252e2bdf53e	0.06129702585074391
184	0x3faf4adde8b16ac2	0.061118063597594766
185	0x3faf3071171db6b0	0.0609164562909944
186	0x3faf1284684c7188	0.060688150150073616
187	0x3faef07279d30170	0.06042821633446038
188	0x3faec972297abab1	0.06013066059437245
189	0x3fae9c8f5ef71342	0.0597882083343735
190	0x3fae68a36bd7373c	0.059392077364107426
191	0x3fae2c4dd91bd004	0.05893176341297138
192	0x3fade5eefb330a3a	0.05839487854384058
193	0x3fad93a5da80bc86	0.057767088816370424
194	0x3fad3351c5ec913a	0.0570321611506039
195	0x3facc2926b79c864	0.056171966189950934
196	0x3fac3eb16a3b3b98	0.05516580983896019
197	0x3faba439af1e94a7	0.0539873148220889
198	0x3faaedac7e64aec4	0.052594557217472665
199	0x3faa1016d57c65ad	0.05090400081662536
200	0x3fa8f2f9cb22cdc2	0.048728757902974276
201	0x3fa831cbcc6ed4b1	0.04725491400260163
202	0x3fa76f5fbcf62203	0.04577159101160435
203	0x3fa6af23626bbd91	0.04430494858194856
204	0x3fa5f3db628a72df	0.04287610605135738
205	0x3fa53f8b9675e92c	0.04150043689419855
206	0x3fa49383ab39e6b6	0.040187945033676994
207	0x3fa3f07e27e1df57	0.038944189423033286
208	0x3fa356c3ff0a5194	0.03777134407315255
209	0x3fa2c64d040a46cb	0.03666916536634587
210	0x3fa23eda54690d48	0.035635779193877115
211	0x3fa1c00a6a2e0c80	0.03466827913418857
212	0x3fa14967ae4e9f16	0.03376316073200607
213	0x3fa0da72b138a6a4	0.032916626103838525
214	0x3fa072a91f1ac668	0.03212479119009687
215	0x3fa0118a54c5fb18	0.031383822296439046
216	0x3f9f6d348ad946cf	0.03069002244439539
217	0x3f9ec2c667b5a46e	0.030039882736137384
218	0x3f9e22ed3b5017d1	0.029430109734697233
219	0x3f9d8cdb375e624c	0.028857636694370734
220	0x3f9cffd1ce5a3c32	0.028319624156719132
221	0x3f9c7b21491c0022	0.0278134537575171
222	0x3f9bfe281573b718	0.027336717900587976
223	0x3f9b8851ecf02eb6	0.026887207113800847
224	0x3f9b1916e8dc757d	0.02646289631149078
225	0x3f9aaffa91646ffd	0.026061930774730502
226	0x3f9a4c8af0e00e12	0.02568261237321507
227	0x3f99ee5fb0dc3609	0.025323386354150688
228	0x3f9995194421fd23	0.024982828887457075
229	0x3f9940601f65ce8b	0.024659635464060286
230	0x3f98efe4013a27f2	0.024352610182667385
231	0x3f98a35b492fa97d	0.02406065591996186
232	0x3f985a825d9d353f	0.023782765353918874
233	0x3f98151b1f4759da	0.023518012794591182
234	0x3f97d2ec69fa2851	0.02326554676850662
235	0x3f9793c1a1195e38	0.02302458329935872
236	0x3f97576a47287feb	0.02279439982714841
237	0x3f971db99f533974	0.022574329709465116
238	0x3f96e686580a4958	0.022363757251306765
239	0x3f96b1aa3dd9097e	0.022162113213434413
240	0x3f967f01f5a74296	0.021968870752803037
241	0x3f964e6cbdac4337	0.02178354175254357
242	0x3f961fcc346901f6	0.021605673502792265
243	0x3f95f304250e9e31	0.021434845697198838
244	0x3f95c7fa58c5bfba	0.0212706677133949
245	0x3f959e966c58ff24	0.0211127761488107
246	0x3f9576c1a9d14cc1	0.020960832586138126
247	0x3f955066e59edf3f	0.020814521565369445
248	0x3f952b725ef3ca95	0.02067354874174983
249	0x3f9507d1a2fe2e31	0.020537639210983897
250	0x3f94e57372b9e98e	0.02040653598531033
251	0x3f94c447ab17573c	0.020279998605324354
252	0x3f94a43f2f3d620d	0.020157801874434656
253	0x3f94854bd4b1e3fd	0.020039734703889412
254	0x3f9467605139ac27	0.01992559905776772
255	0x3f944a702a45ef8d	0.019815208988333267

Vz_F f8 [401]
0	0x3fe249e25dba3880	0.5715190725911867
1	0x3fea94431db3f100	0.830598409665555
2	0x3fee8c6a72d9aa80	0.9546406024140452
3	0x3ff04022e3f1e900	1.0156582740879116
4	0x3ff0bcf31c6f6580	1.0461302862880473
5	0x3ff0fbdca4507700	1.061489717343136
6	0x3ff11bc54b51f580	1.0692799513047646
7	0x3ff12c067a358640	1.0732483648101976
8	0x3ff1345413c29000	1.0752754947543508
9	0x3ff1389297211880	1.0763116744506362
10	0x3ff13abc545399c0	1.076839761162418
11	0x3ff13bd3bbad1e80	1.0771062213042626
12	0x3ff13c5d4521e680	1.077237386749772
13	0x3ff13c9d1c290ac0	1.0772982692730437
14	0x3ff13cb6782cfe80	1.0773224539151727
15	0x3ff13cbb9c34a080	1.0773273565082775
16	0x3ff13cb609921280	1.0773220418788299
17	0x3ff13caab7683440	1.077311245378283
18	0x3ff13c9c400c4340	1.0772974492903842
19	0x3ff13c8c01e3ca80	1.0772819589443827
20	0x3ff13c7ab5a93580	1.0772654625064604
21	0x3ff13c68bce1c900	1.0772483232690888
22	0x3ff13c564afcd940	1.077230732842125
23	0x3ff13c437af584c0	1.0772127917373808
24	0x3ff13c305abef640	1.077194551922176
25	0x3ff13c1cf15241c0	1.0771760393728158
26	0x3ff13c0941e6d4c0	1.077157266071751
27	0x3ff13bf54daad180	1.0771382364156068
28	0x3ff13be114aede80	1.0771189506466783
29	0x3ff13bcc966502c0	1.0770994066989914
30	0x3ff13bb7d1e51700	1.0770796011942707
31	0x3ff13ba2c611c3c0	1.0770595299802466
32	0x3ff13b8d71ac6c00	1.0770391884204855
33	0x3ff13b77d36029c0	1.0770185715542624
34	0x3ff13b61e9c75f00	1.0769976741775622
35	0x3ff13b4bb36efa00	1.0769764908906154
36	0x3ff13b352ed7e880	1.0769550161190011
37	0x3ff13b1e5a77d5c0	1.0769332441244472
38	0x3ff13b0734b96900	1.0769111690083832
39	0x3ff13aefbbfc4d00	1.0768887847123665
40	0x3ff13ad7ee94f180	1.0768660850145295
41	0x3ff13abfcacc6ac0	1.0768430635277326
42	0x3ff13aa74edff980	1.0768197136927427
43	0x3ff13a8e7900cdc0	1.0767960287747513
44	0x3ff13a7547539dc0	1.0767720018574067
45	0x3ff13a5bb7f03800	1.0767476258365605
46	0x3ff13a41c8e117c0	1.076722893414157
47	0x3ff13a277822f480	1.076697797091839
48	0x3ff13a0cc3a45b80	1.0766723291651203
49	0x3ff139f1a9450c00	1.0766464817140786
50	0x3ff139d626d59340	1.0766202465976704
51	0x3ff139ba3a16be00	1.0765936154456313
52	0x3ff1399de0b91540	1.0765665796510149
53	0x3ff13981185c2b80	1.0765391303600325
54	0x3ff13963de8e2600	1.0765112584653025
55	0x3ff1394630cb12c0	1.0764829545961874
56	0x3ff139280c7c3ac0	1.0764542091089169
57	0x3ff139096ef774e0	1.0764250120767471
58	0x3ff138ea557e73c0	1.0763953532798354
59	0x3ff138cabd3e13a0	1.0763652221951148
60	0x3ff138aaa34d82c0	1.0763346079840375
61	0x3ff1388a04ad7780	1.0763034994810994
62	0x3ff13868de475320	1.0762718851812636
63	0x3ff138472cec6000	1.076239753228947
64	0x3ff13824ed54ba40	1.0762070914021393
65	0x3ff138021c1e7460	1.0761738870999338
66	0x3ff137deb5cc9200	1.076140127327676
67	0x3ff137bab6c5f6c0	1.0761057986814393
68	0x3ff137961b544da0	1.0760708873320723
69	0x3ff13770dfa2d440	1.0760353790076493
70	0x3ff1374affbd49c0	1.0759992589779444
71	0x3ff13724778e7f40	1.0759625120335414
72	0x3ff136fd42df1ec0	1.0759251224680355
73	0x3ff136d55d5441e0	1.0758870740574977
74	0x3ff136acc26df900	1.0758483500390525
75	0x3ff136836d85c220	1.0758089330885312
76	0x3ff1365959ccf480	1.0757688052974856
77	0x3ff1362e824b0940	1.075727948148213
78	0x3ff13602e1dbd780	1.0756863424880692
79	0x3ff135d6732db960	1.0756439685024688
80	0x3ff135a930bf96c0	1.075600805686392
81	0x3ff1357b14decee0	1.0755568328140086
82	0x3ff1354c19a51bc0	1.0755120279079478
83	0x3ff1351c38f64060	1.0754663682055465
84	0x3ff134eb6c7d9c20	1.0754198301235718
85	0x3ff134b9adabaa20	1.0753723892218048
86	0x3ff13486f5b360c0	1.075324020164814
87	0x3ff134533d874a80	1.0752746966797133
88	0x3ff1341e7dd6a160	1.0752243915140625
89	0x3ff133e8af0a2300	1.0751730763897172
90	0x3ff133b1c940cd00	1.0751207219553294
91	0x3ff13379c44c4b40	1.0750672977344067
92	0x3ff1334097ad5e00	1.0750127720729097
93	0x3ff133063a8fe1a0	1.074957112081485
94	0x3ff132caa3c6bcc0	1.0749002835762411
95	0x3ff1328dc9c76f60	1.0748422510141253
96	0x3ff1324fa2a57820	1.0747829774259188
97	0x3ff13210240d79c0	1.0747224243456088
98	0x3ff131cf433ff0c0	1.0746605517334018
99	0x3ff1318cf50bc060	1.0745973178964263
100	0x3ff131492dc85100	1.0745326794031484
101	0x3ff13103e14f5480	1.074466590992671
102	0x3ff130bd02f633c0	1.0743990054790942
103	0x3ff130748586fde0	1.0743298736487006
104	0x3ff1302a5b38f2e0	1.0742591441514193
105	0x3ff12fde75a89280	1.0741867633852564
106	0x3ff12f90c5cf0f80	1.0741126753718788
107	0x3ff12f413bf96020	1.074036821626585
108	0x3ff12eefc7be8920	1.073959141017049
109	0x3ff12e9c57f55040	1.0738795696133963
110	0x3ff12e46daa94b00	1.0737980405289704
111	0x3ff12def3d0f17a0	1.073714483748951
112	0x3ff12d956b77c920	1.073628825947317
113	0x3ff12d3951437ce0	1.073540990291626
114	0x3ff12cdad8d2e600	1.0734508962326572
115	0x3ff12c79eb77e000	1.0733584592799161
116	0x3ff12c167164e000	1.0732635907606891
117	0x3ff12bb0519b1f20	1.0731661975605178
118	0x3ff12b4771d77e00	1.0730661818450926
119	0x3ff12adbb67deec0	1.072963440760688
120	0x3ff12a6d028359a0	1.0728578661124644
121	0x3ff129fb3755b460	1.0727493440165503
122	0x3ff1298634c24940	1.0726377545257293
123	0x3ff1290dd8d9f380	1.0725229712254247
124	0x3ff12891ffd31ce0	1.0724048607970005
125	0x3ff1281283e945c0	1.0722832825452855
126	0x3ff1278f3d39db40	1.0721580878868764
127	0x3ff12708019e34a0	1.0720291197970155
128	0x3ff1267ca48235e0	1.0718962122076547
129	0x3ff125ecf6b77cc0	1.071759189355177
130	0x3ff12558c6448ae0	1.0716178650697472
131	0x3ff124bfde2fd180	1.0714720420047286
132	0x3ff124220645c100	1.0713215107935525
133	0x3ff1237f02d9b2e0	1.0711660491316977
134	0x3ff122d694810260	1.0710054207740072
135	0x3ff1222877c7a4c0	1.0708393744373979
136	0x3ff1217464dda260	1.0706676425999362
137	0x3ff120ba0f3c7760	1.0704899401821066
138	0x3ff11ff92543c8e0	1.070305963101923
139	0x3ff11f314fcc06e0	1.070115386683419
140	0x3ff11e6231ae0480	1.0699178639045215
141	0x3ff11d8b673e2760	1.0697130234643382
142	0x3ff11cac85b9d2a0	1.0695004676501085
143	0x3ff11bc51aa513e0	1.0692797699750756
144	0x3ff11ad4ab16c5a0	1.069050472561095
145	0x3ff119dab2f0ed00	1.0688120832335812
146	0x3ff118d6a402c3e0	1.068564072291558
147	0x3ff117c7e5114f60	1.0683058689073377
148	0x3ff116add0c34ce0	1.0680368571091137
149	0x3ff11587b46c7020	1.067756371287949
150	0x3ff11454ceb37340	1.0674636911637236
151	0x3ff113144e0d83c0	1.0671580361306354
152	0x3ff111c54f091000	1.0668385588951423
153	0x3ff11066da60a2e0	1.0665043382998007
154	0x3ff10ef7e2cd8120	1.0661543712122423
155	0x3ff10d77428ff8e0	1.0657875633328828
156	0x3ff10be3b8a1d480	1.0654027187531767
157	0x3ff10a3be5851ce0	1.0649985280631924
158	0x3ff1087e479ef780	1.0645735547727497
159	0x3ff106a9370ae9a0	1.0641262197592383
160	0x3ff104bae0cfbb00	1.0636547834107546
161	0x3ff102b14159dde0	1.063157325055606
162	0x3ff1008a1e1a3600	1.0626317191957924
163	0x3ff0fe42fe20e900	1.0620756079575244
164	0x3ff0fbd9218382c0	1.0614863690499732
165	0x3ff0f94977535c80	1.0608610783727102
166	0x3ff0f69091db9f60	1.0601964662145846
167	0x3ff0f3aa98cea9e0	1.0594888657602652
168	0x3ff0f09338f58300	1.0587341523134342
169	0x3ff0ed4590dacae0	1.0579276712784846
170	0x3ff0e9bc19c9cdc0	1.0570641524653723
171	0x3ff0e5f08c5155e0	1.0561376076851658
172	0x3ff0e1dbbf45cbc0	1.055141207846404
173	0x3ff0dd757ffac5c0	1.054067134781107
174	0x3ff0d8b46217d860	1.052906401802396
175	0x3ff0d38d84fe8580	1.0516486353957077
176	0x3ff0cdf44c2c6220	1.0502818084261278
177	0x3ff0c7da075169e0	1.048791912637732
178	0x3ff0c12d85f038c0	1.0471625549285335
179	0x3ff0b9da913f1200	1.0453744577108637
180	0x3ff0b1c9459b1420	1.043404838464319
181	0x3ff0a8dd432a51a0	1.041226637234196
182	0x3ff09ef4ab456b00	1.0388075533180086
183	0x3ff093e6de012ac0	1.0361088439992017
184	0x3ff08782e8f0a840	1.0330838298055056
185	0x3ff0798d967f1360	1.0296760443463526
186	0x3ff069bf0d1976c0	1.0258169662187555
187	0x3ff057bff0b0faa0	1.0214232828144887
188	0x3ff043260309ee40	1.0163936728194045
189	0x3ff02b70547c09c0	1.0106051731278143
190	0x3ff010033cd43c80	1.0039093376288122
191	0x3fefe0491c416940	0.9961286117425416
192	0x3fef95f16f05d3c0	0.9870536011136366
193	0x3fef3f0354ae35c0	0.9764420179287114
194	0x3feed93f5daf6ec0	0.964019473055906
195	0x3fee6222e235dc40	0.9494795244380683
196	0x3fedd6d050007480	0.9324723780188293
197	0x3fed33a09f39f680	0.9125521764651268
198	0x3fec72c5adbd0900	0.8890102761581886
199	0x3feb88ae4343ff40	0.8604346574574961
200	0x3fea5b7983e24c40	0.8236663413866907
201	0x3fe98f643287a700	0.7987538325225785
202	0x3fe8c1fedc905dc0	0.7736810977830189
203	0x3fe7f6e8d2ef26c0	0.7488903159912397
204	0x3fe7310ebadf5dc0	0.7247384691099157
205	0x3fe672918b320280	0.7014854162844841
206	0x3fe5bcd3e3408100	0.6793002546801574
207	0x3fe5109ad14a68c0	0.6582769477565975
208	0x3fe46e3365f86e00	0.6384522430047923
209	0x3fe3d594fe840040	0.6198220225342155
210	0x3fe3467d2bcfcb80	0.6023546081254239
211	0x3fe2c084e6bcdfc0	0.5860008722875065
212	0x3fe2432ff526dca0	0.570701578914754
213	0x3fe1cdf7b61ddf20	0.5563925320593377
214	0x3fe160527aaaad00	0.5430080791315106
215	0x3fe0f9b85ce3af20	0.5304834188695828
216	0x3fe099a64f89bc60	0.5187560609318886
217	0x3fe03f9ff027c4c0	0.5077666941198444
218	0x3fdfd660ff15ee00	0.49745964918813
219	0x3fdf37d68f592740	0.4877830886731438
220	0x3fdea2d742350b80	0.47868901696727306
221	0x3fde16a975881780	0.47013317563720847
222	0x3fdd92a278892180	0.46207486887990257
223	0x3fdd1625a64bb640	0.4544767497999125
224	0x3fdca0a36c6b6440	0.44730458820192
225	0x3fdc31984c9815c0	0.440527033614071
226	0x3fdbc88be2850500	0.4341153823953192
227	0x3fdb650ff4222700	0.42804335442689023
228	0x3fdb06bf8f8fa280	0.4222868825877768
229	0x3fdaad3e388cfa80	0.4168239166500953
230	0x3fda583726085c80	0.41163424219252676
231	0x3fda075c8fb68e80	0.4066993144462927
232	0x3fd9ba670b26b380	0.4020021065614898
233	0x3fd97114f77dcd00	0.39752697152216854
234	0x3fd92b29f6dfbb00	0.3932595167997732
235	0x3fd8e86e747b6900	0.38918649077608336
236	0x3fd8a8af362d6800	0.3852956799579488
237	0x3fd86bbcf8b35180	0.381575816031976
238	0x3fd8316c1576e880	0.37801649185315256
239	0x3fd7f9943108a300	0.3746080855221834
240	0x3fd7c40ff171c000	0.3713416917662471
241	0x3fd790bcbb9854c0	0.3682090599043697
242	0x3fd75f7a77017d00	0.3652025377432011
243	0x3fd7302b574e4700	0.3623150208087367
244	0x3fd702b3aadffbc0	0.3595399063778437
245	0x3fd6d6f9ae1ed300	0.3568710518259621
246	0x3fd6ace562eba7c0	0.35430273685653546
247	0x3fd684606bd17c00	0.35182962922220895
248	0x3fd65d55ea96cb80	0.3494467535885448
249	0x3fd637b261d7fa80	0.3471494632248451
250	0x3fd61363995ebe80	0.34493341424511215
251	0x3fd5f05884f04000	0.3427945421435652
252	0x3fd5ce812d5507c0	0.3407290404030583
253	0x3fd5adce9b62a840	0.3387333409724569
254	0x3fd58e32c4d5df00	0.3368040964337382
255	0x3fd56fa07ad08f00	0.3349381636964921
