onecap_model_with_structure_ambiguity/output/upper_triangular_four_ambiguous_parameters/Delta_10.0_distorted_0/logadjustment_1_boundary_1/zmax_5.0_zscale_2.0/delta_0.015/q_0.3_gamma_2.0_rho_1.0/model.npz (npz, 126264 bytes, 58 tensors)

clowerlim f8 []
00000000: 2d43 1ceb e236 1a3f
0.0001

zmin f8 []
00000000: 0000 0000 0000 14c0
-5.0

Delta f8 []
00000000: 0000 0000 0000 2440
10.0

s1_F f8 [401]
00000000: 406e 3a42 8d96 f5bf b03f 9c60 5a27 eebf
00000010: 81c4 13be 0f1b eabf 5d15 784f 4661 e8bf
00000020: 274a 75a5 bf86 e7bf deee cda7 ff0d e7bf
00000030: 871a 9162 4fc3 e6bf a51a 1266 238f e6bf
00000040: f032 c895 3166 e6bf 9ed3 ae3a e942 e6bf
00000050: dd58 c714 8122 e6bf 27bf fbc7 9003 e6bf
00000060: 0779 4d2c 61e5 e5bf 14c9 26c3 94c7 e5bf
00000070: 7969 3da8 fba9 e5bf 3a92 4c40 7d8c e5bf
00000080: 507c dadd 0c6f e5bf 5a42 82f4 a351 e5bf
00000090: 3534 5920 3f34 e5bf 5c43 2a9f dc16 e5bf
000000a0: 4811 2687 7bf9 e4bf fa90 e65e 1bdc e4bf
000000b0: 7ec1 93e7 bbbe e4bf 3aa3 ec00 5da1 e4bf
000000c0: 97d8 b79a fe83 e4bf f12c 2aad a066 e4bf
000000d0: 3254 ec34 4349 e4bf c3b5 0431 e62b e4bf
000000e0: 0685 bea1 890e e4bf 44b9 1588 2df1 e3bf
000000f0: 3ba8 68e5 d1d3 e3bf 50e0 4ebb 76b6 e3bf
00000100: f60f 830b 1c99 e3bf b1ad d7d7 c17b e3bf
00000110: 9bdd 3022 685e e3bf 4b5a 81ec 0e41 e3bf
00000120: cfe3 c838 b623 e3bf c4a8 1309 5e06 e3bf
00000130: 8202 7a5f 06e9 e2bf 4176 203e afcb e2bf
00000140: 49ea 37a7 58ae e2bf 15f2 fd9c 0291 e2bf
00000150: 541b bd21 ad73 e2bf cd30 cd37 5856 e2bf
00000160: 3ab4 93e1 0339 e2bf a734 8421 b01b e2bf
00000170: f6b4 20fa 5cfe e1bf 5725 fa6d 0ae1 e1bf
00000180: 95c5 b07f b8c3 e1bf d7a3 f431 67a6 e1bf
00000190: da07 8687 1689 e1bf 5efd 3583 c66b e1bf
000001a0: 39d4 e627 774e e1bf bfa7 8c78 2831 e1bf
000001b0: 3fee 2d78 da13 e1bf d6e5 e329 8df6 e0bf
000001c0: b06f db90 40d9 e0bf 1771 55b0 f4bb e0bf
000001d0: 9e85 a78b a99e e0bf d0c7 3c26 5f81 e0bf
000001e0: 0448 9683 1564 e0bf fbe9 4ba7 cc46 e0bf
000001f0: 3f19 0d95 8429 e0bf 597c a150 3d0c e0bf
00000200: 9ed5 d3bb eddd dfbf b00e c281 62a3 dfbf
00000210: 2a89 38fb d868 dfbf e687 9930 512e dfbf
00000220: 6279 802a cbf3 debf 61e7 c3f1 46b9 debf
00000230: 218b 778f c47e debf db5c ee0c 4444 debf
00000240: d5ad bc73 c509 debf b6a0 bacd 48cf ddbf
00000250: 2482 0625 ce94 ddbf 9e0a 0784 555a ddbf
00000260: 2c30 6ef5 de1f ddbf 2fb6 3b84 6ae5 dcbf
00000270: cb00 c03b f8aa dcbf 352b 9f27 8870 dcbf
00000280: 7ae7 d353 1a36 dcbf a7ad b2cc aefb dbbf
00000290: c246 ed9e 45c1 dbbf eaff 95d7 de86 dbbf
000002a0: 0181 2384 7a4c dbbf 5aa2 74b2 1812 dbbf
000002b0: 1854 d470 b9d7 dabf d3b6 fdcd 5c9d dabf
000002c0: 8089 20d9 0263 dabf 2fca e5a1 ab28 dabf
000002d0: 3e6e 7438 57ee d9bf 8f59 76ad 05b4 d9bf
000002e0: 64a1 1d12 b779 d9bf 1402 2a78 6b3f d9bf
000002f0: 92c1 eef1 2205 d9bf 0c8f 5892 ddca d8bf
00000300: d4f3 f36c 9b90 d8bf 75eb f395 5c56 d8bf
00000310: 2fdf 3822 211c d8bf 7cf2 5727 e9e1 d7bf
00000320: 58c9 a2bb b4a7 d7bf 5986 2ff6 836d d7bf
00000330: d76c e1ee 5633 d7bf eaa7 71be 2df9 d6bf
00000340: ecaa 787e 08bf d6bf 0c67 7849 e784 d6bf
00000350: 2a52 e63a ca4a d6bf ff9a 366f b110 d6bf
00000360: 77b0 e703 9dd6 d5bf b261 8e17 8d9c d5bf
00000370: 21ac e2c9 8162 d5bf 996f cd3b 7b28 d5bf
00000380: ae91 768f 79ee d4bf 9737 54e8 7cb4 d4bf
00000390: a193 3a6b 857a d4bf f2c6 6c3e 9340 d4bf
000003a0: 06bc ae89 a606 d4bf c1d9 5776 bfcc d3bf
000003b0: 5b07 672f de92 d3bf 1f91 97e1 0259 d3bf
000003c0: d998 77bb 2d1f d3bf d898 7fed 5ee5 d2bf
000003d0: 4666 2baa 96ab d2bf a9b8 1426 d571 d2bf
000003e0: 9c38 0f98 1a38 d2bf d256 4639 67fe d1bf
000003f0: a4dd 5c45 bbc4 d1bf bda0 8efa 168b d1bf
00000400: 350c d499 7a51 d1bf b119 0867 e617 d1bf
00000410: 979b 10a9 5ade d0bf 890c 09aa d7a4 d0bf
00000420: 8a28 70b7 5d6b d0bf af82 5822 ed31 d0bf
00000430: 1043 387f 0cf1 cfbf f52e 27d0 527e cfbf
00000440: 6067 a1f1 ad0b cfbf 8c17 baa6 1e99 cebf
00000450: e990 f9bb a526 cebf 45b1 eb07 44b4 cdbf
00000460: 8746 b86b fa41 cdbf 526e c5d3 c9cf ccbf
00000470: d45c 6538 b35d ccbf fe3f 909e b7eb cbbf
00000480: 0300 ab18 d879 cbbf af19 5cc7 1508 cbbf
00000490: a384 6fda 7196 cabf 78fc ca91 ed24 cabf
000004a0: 86f3 733e 8ab3 c9bf 26b7 a843 4942 c9bf
000004b0: 3634 0e18 2cd1 c8bf f691 f446 3460 c8bf
000004c0: d1e2 b371 63ef c7bf 3e01 2451 bb7e c7bf
000004d0: 8598 31b7 3d0e c7bf c012 9390 ec9d c6bf
000004e0: 173d a1e6 c92d c6bf 0797 56e1 d7bd c5bf
000004f0: d23f 7ac9 184e c5bf 1f69 fb0a 8fde c4bf
00000500: cc12 8337 3d6f c4bf eeab 4309 2600 c4bf
00000510: 7430 0f66 4c91 c3bf 5f67 be62 b322 c3bf
00000520: 4df5 f646 5eb4 c2bf 16f6 6091 5046 c2bf
00000530: 6a4e 61fc 8dd8 c1bf cfa3 7483 1a6b c1bf
00000540: 4f31 4e69 fafd c0bf bf75 e93e 3291 c0bf
00000550: 036a cceb c624 c0bf 1e3a 996f 7b71 bfbf
00000560: 195c 8bad 389a bebf 954b aeed d1c3 bdbf
00000570: 3a0d eca3 54ee bcbf 0ee1 d587 cf19 bcbf
00000580: 434b 84cc 5246 bbbf ef8b 9668 f073 babf
00000590: f49b 4574 bca2 b9bf 3481 f4a5 cdd2 b8bf
000005a0: 210b 3cf9 3d04 b8bf bf78 a891 2b37 b7bf
000005b0: 847f 0cf2 b96b b6bf 3688 acac 13a2 b5bf
000005c0: 34a1 75c1 6cda b4bf 40b8 d5f8 0515 b4bf
000005d0: ea9f f9af 3152 b3bf c2c7 b5c4 5a92 b2bf
000005e0: 1a89 baa5 0ed6 b1bf fc91 250c 0c1e b1bf
000005f0: a075 799e 586b b0bf 3dec 8883 c17e afbf
00000600: 2419 1e56 4c38 aebf 8e3f 943c 0609 adbf
00000610: 0ce3 eebf 11f9 abbf 4f1d 8d4b fb13 abbf
00000620: ce52 1aa7 ea69 aabf f715 a28b d710 aabf
00000630: b3c5 0607 5325 aabf 385b dab8 63ca aabf
00000640: 1c89 0ae3 a128 acbf 06dc 85a7 66fc adbf
00000650: 59b0 8ede 514a b0bf 3166 df17 64f9 b1bf
00000660: 17cf 7e75 2b07 b4bf d034 af1b 3d6c b6bf
00000670: 034d feff c11f b9bf 646e 232e b518 bcbf
00000680: 3634 349a 974e bfbf 584b e407 e05c c1bf
00000690: 3537 0433 b829 c3bf 56ab a47b e60a c5bf
000006a0: 8368 3aad e3fd c6bf 10ee b0a2 8200 c9bf
000006b0: 3844 caeb e310 cbbf 4698 338c 6a2d cdbf
000006c0: 57e0 f11d b254 cfbf adc7 102c c3c2 d0bf
000006d0: 4147 20ee 6ddf d1bf 4f6b ec10 e5ff d2bf
000006e0: dd66 bd2b c323 d4bf 132f 8f89 af4a d5bf
000006f0: 6523 4e58 5c74 d6bf d809 e020 85a0 d7bf
00000700: 1f33 f67b edce d8bf 1bfa 9ff9 5fff d9bf
00000710: 9b21 4533 ad31 dbbf 94aa 1a01 ab65 dcbf
00000720: 18ad 55cd 339b ddbf 2210 5900 26d2 debf
00000730: cde1 f5c0 3105 e0bf 3f33 17a6 e8a1 e0bf
00000740: 36a9 ca86 2b3f e1bf 9ba3 cf6b efdc e1bf
00000750: be3f 306c 2a7b e2bf f4f1 a48e d319 e3bf
00000760: ade1 e9ae e2b8 e3bf 3e5d 7666 5058 e4bf
00000770: e829 1bf8 15f8 e4bf fd81 213e 2d98 e5bf
00000780: 399b 929a 9038 e6bf 5a0f 5de9 3ad9 e6bf
00000790: 304b 1974 277a e7bf ce1b 36e7 511b e8bf
000007a0: a46a 5f48 b6bc e8bf d0f4 f6ed 505e e9bf
000007b0: 35eb 7c77 1e00 eabf 9ac7 cac6 1ba2 eabf
000007c0: acd5 06fa 4544 ebbf b327 3a66 9ae6 ebbf
000007d0: 063b 7692 1689 ecbf df1c 7933 b82b edbf
000007e0: d68c c127 7dce edbf 61bc 0674 6371 eebf
000007f0: 807a 0840 6914 efbf 3f8b add3 8cb7 efbf
-1.349255808548051 -0.9423038374825321 -0.8158034050412796 -0.7618743469362631 -0.735198805962061 -0.720458820097942 -0.7113415646679905 -0.7049729341095669
-0.6999748158865184 -0.6956678529883111 -0.6917119413217524 -0.6879352479863642 -0.6842504372869208 -0.6806129275849195 -0.6769998823104252 -0.6733995681611937
-0.6698059399676684 -0.6662158752024638 -0.6626277572446556 -0.6590407475178881 -0.6554544105170317 -0.6518685201195062 -0.6482829592696786 -0.6446976678899781
-0.6411126157606927 -0.6375277883647908 -0.6339431794791663 -0.6303587872877688 -0.6267746123377556 -0.6231906564624201 -0.6196069222107846 -0.6160234125482109
-0.6124401306956304 -0.6088570800470078 -0.6052742641249326 -0.6016916865581349 -0.5981093510700876 -0.5945272614747172 -0.5909454216744765 -0.5873638356603764
-0.5837825075134982 -0.5802014414071573 -0.5766206416090918 -0.5730401124833634 -0.5694598584938213 -0.5658798842065565 -0.5623001942928159 -0.558720793532454
-0.5551416868167275 -0.5515628791518975 -0.5479843756622771 -0.5444061815941657 -0.540828302319489 -0.5372507433396477 -0.5336735102895956 -0.5300966089409325
-0.5265200452081356 -0.5229438251513184 -0.5193679549812946 -0.5157924410652814 -0.5122172899302773 -0.5086425082693603 -0.505068102946815 -0.5014940810032257
-0.49792044966246773 -0.4943472163360907 -0.4907743886307282 -0.4872019743544328 -0.483629981523242 -0.48005841836822155 -0.4764872933430287 -0.4729166151314083
-0.4693463926548394 -0.465776635081521 -0.46220735183490747 -0.4586385526019202 -0.45507024734320356 -0.45150244630244435 -0.4479351600166523 -0.44436839932739086
-0.44080217539123334 -0.43723649969134687 -0.4336713840503813 -0.4301068406421097 -0.42654288200539275 -0.4229795210581294 -0.4194167711114587 -0.41585464588466187
-0.4122931595212762 -0.40873232660593123 -0.4051721621815182 -0.4016126817672551 -0.3980539013778268 -0.39449583754324746 -0.3909385073302697 -0.3873819283637523
-0.38382611885009266 -0.38027109760121586 -0.37671688405997633 -0.37316349832671114 -0.36961096118752357 -0.36605929414335986 -0.36250851944141743 -0.35895866010707655
-0.3554097399780136 -0.35186178374134225 -0.3483148169700906 -0.34476886616396024 -0.3412239587912675 -0.33768012333305386 -0.3341373893296709 -0.33059578743063295
-0.3270553494460512 -0.3235161084020261 -0.3199780985981367 -0.31644135566885645 -0.31290591664850387 -0.30937182003927083 -0.3058391058840379 -0.3023078158423846
-0.2987779932722226 -0.2952496833153311 -0.2917229329883394 -0.2881977912792402 -0.28467430924946213 -0.2811525401424265 -0.2776325394983934 -0.2741143652770111
-0.2705980779866793 -0.26708374082263747 -0.263571419813553 -0.26006118397726447 -0.2565531054866673 -0.25304725984646387 -0.249543726080923 -0.24604258693431516
-0.24254392908442934 -0.23904784337008456 -0.23555442503414462 -0.23206377398254055 -0.22857599506146561 -0.22509119835273111 -0.2216094994898642 -0.21813101999623535
-0.21465588764658614 -0.21118423685420626 -0.20771620908548014 -0.20425195330423995 -0.20079162644824694 -0.19733539394058502 -0.19388343023857296 -0.19043591942421728
-0.18699305583847672 -0.1835550447649527 -0.18012210316664237 -0.17669446048070903 -0.17327235947821215 -0.16985605719417426 -0.16644582593698815 -0.1630419543860819
-0.15964474878832957 -0.15625453426704844 -0.15287165625921129 -0.14949648210022823 -0.14612940278122225 -0.14277083490917225 -0.1394212229084702 -0.13608104151469866
-0.1327507986246794 -0.12943103858826352 -0.12612234605406067 -0.12282535051893048 -0.11954073178218073 -0.1162692265773287 -0.11301163675311879 -0.10976883951468983
-0.10654180043301857 -0.10333159020824188 -0.10013940657300663 -0.09696660329473589 -0.09381472906902079 -0.09068558031183026 -0.08758127364535367 -0.08450434652016345
-0.08145789836055856 -0.07844579052991296 -0.07547293230311394 -0.07254569342128916 -0.06967250391111116 -0.06686473175574997 -0.06413797253613618 -0.06151394587183077
-0.05902327109565622 -0.05670947541705039 -0.054634623221721496 -0.05288682267433364 -0.05158932962254924 -0.05090974406725118 -0.05106601200840135 -0.05232535964494506
-0.0549975003862235 -0.05856629176098953 -0.06363403018502946 -0.07021165449932522 -0.07823440187968021 -0.08758909154785788 -0.09814083576047854 -0.10975201012063845
-0.12229297175163442 -0.13564682374325332 -0.14971067896879622 -0.1643951514937167 -0.17962308843999972 -0.19532807296660382 -0.21145295155705113 -0.22794849248674803
-0.24477220976018785 -0.2618873529746633 -0.27926204924107273 -0.2968685784596134 -0.3146827628275853 -0.33268345292593543 -0.35085209487492924 -0.36917236528839004
-0.387629862839093 -0.40621184709007857 -0.424907016819384 -0.44370532138661045 -0.4625977997991 -0.48157644304251523 -0.5006340760001479 -0.5197642559011014
-0.5389611847543054 -0.5582196336446147 -0.5775348771148783 -0.5969026361486258 -0.6163190284997221 -0.6357805253236746 -0.6552839132139612 -0.6748262608999195
-0.6944048899648357 -0.7140173490410959 -0.7336613910250431 -0.7533349529120359 -0.7730361379174906 -0.7927631995914002 -0.8125145276784226 -0.8322886355074275
-0.852084148724932 -0.8718997952103024 -0.8917343960364128 -0.9115868573507234 -0.9314561630711988 -0.9513413683070092 -0.9712415934225902 -0.9911560186704732

d f8 [401]
00000000: 30d1 dfc9 6a79 b33f 30d1 dfc9 6a79 b33f
00000010: 30d1 dfc9 6a79 b33f 30d1 dfc9 6a79 b33f
00000020: 30d1 dfc9 6a79 b33f 30d1 dfc9 6a79 b33f
00000030: 30d1 dfc9 6a79 b33f 30d1 dfc9 6a79 b33f
00000040: 30d1 dfc9 6a79 b33f 30d1 dfc9 6a79 b33f
00000050: 30d1 dfc9 6a79 b33f 30d1 dfc9 6a79 b33f
00000060: 30d1 dfc9 6a79 b33f 30d1 dfc9 6a79 b33f
00000070: 30d1 dfc9 6a79 b33f 30d1 dfc9 6a79 b33f
00000080: 30d1 dfc9 6a79 b33f 30d1 dfc9 6a79 b33f
00000090: 30d1 dfc9 6a79 b33f 30d1 dfc9 6a79 b33f
000000a0: 30d1 dfc9 6a79 b33f 30d1 dfc9 6a79 b33f
000000b0: 30d1 dfc9 6a79 b33f 30d1 dfc9 6a79 b33f
000000c0: 30d1 dfc9 6a79 b33f 30d1 dfc9 6a79 b33f
000000d0: 30d1 dfc9 6a79 b33f 30d1 dfc9 6a79 b33f
000000e0: 30d1 dfc9 6a79 b33f 30d1 dfc9 6a79 b33f
000000f0: 30d1 dfc9 6a79 b33f 30d1 dfc9 6a79 b33f
00000100: 30d1 dfc9 6a79 b33f 30d1 dfc9 6a79 b33f
00000110: 30d1 dfc9 6a79 b33f 30d1 dfc9 6a79 b33f
00000120: 30d1 dfc9 6a79 b33f 30d1 dfc9 6a79 b33f
00000130: 30d1 dfc9 6a79 b33f 30d1 dfc9 6a79 b33f
00000140: 30d1 dfc9 6a79 b33f 30d1 dfc9 6a79 b33f
00000150: 30d1 dfc9 6a79 b33f 30d1 dfc9 6a79 b33f
00000160: 30d1 dfc9 6a79 b33f 30d1 dfc9 6a79 b33f
00000170: 30d1 dfc9 6a79 b33f 30d1 dfc9 6a79 b33f
00000180: 30d1 dfc9 6a79 b33f 30d1 dfc9 6a79 b33f
00000190: 30d1 dfc9 6a79 b33f 30d1 dfc9 6a79 b33f
000001a0: 30d1 dfc9 6a79 b33f 30d1 dfc9 6a79 b33f
000001b0: 30d1 dfc9 6a79 b33f 30d1 dfc9 6a79 b33f
000001c0: 30d1 dfc9 6a79 b33f 30d1 dfc9 6a79 b33f
000001d0: 30d1 dfc9 6a79 b33f 30d1 dfc9 6a79 b33f
000001e0: 30d1 dfc9 6a79 b33f 30d1 dfc9 6a79 b33f
000001f0: 30d1 dfc9 6a79 b33f 30d1 dfc9 6a79 b33f
00000200: 30d1 dfc9 6a79 b33f 30d1 dfc9 6a79 b33f
00000210: 30d1 dfc9 6a79 b33f 30d1 dfc9 6a79 b33f
00000220: 30d1 dfc9 6a79 b33f 30d1 dfc9 6a79 b33f
00000230: 30d1 dfc9 6a79 b33f 30d1 dfc9 6a79 b33f
00000240: 30d1 dfc9 6a79 b33f 30d1 dfc9 6a79 b33f
00000250: 30d1 dfc9 6a79 b33f 30d1 dfc9 6a79 b33f
00000260: 30d1 dfc9 6a79 b33f 30d1 dfc9 6a79 b33f
00000270: 30d1 dfc9 6a79 b33f 30d1 dfc9 6a79 b33f
00000280: 30d1 dfc9 6a79 b33f 30d1 dfc9 6a79 b33f
00000290: 30d1 dfc9 6a79 b33f 30d1 dfc9 6a79 b33f
000002a0: 30d1 dfc9 6a79 b33f 30d1 dfc9 6a79 b33f
000002b0: 30d1 dfc9 6a79 b33f 30d1 dfc9 6a79 b33f
000002c0: 30d1 dfc9 6a79 b33f 30d1 dfc9 6a79 b33f
000002d0: 30d1 dfc9 6a79 b33f 30d1 dfc9 6a79 b33f
000002e0: 30d1 dfc9 6a79 b33f 30d1 dfc9 6a79 b33f
000002f0: 30d1 dfc9 6a79 b33f 30d1 dfc9 6a79 b33f
00000300: 30d1 dfc9 6a79 b33f 30d1 dfc9 6a79 b33f
00000310: 30d1 dfc9 6a79 b33f 30d1 dfc9 6a79 b33f
00000320: 30d1 dfc9 6a79 b33f 30d1 dfc9 6a79 b33f
00000330: 30d1 dfc9 6a79 b33f 30d1 dfc9 6a79 b33f
00000340: 30d1 dfc9 6a79 b33f 30d1 dfc9 6a79 b33f
00000350: 30d1 dfc9 6a79 b33f 30d1 dfc9 6a79 b33f
00000360: 30d1 dfc9 6a79 b33f 30d1 dfc9 6a79 b33f
00000370: 30d1 dfc9 6a79 b33f 30d1 dfc9 6a79 b33f
00000380: 30d1 dfc9 6a79 b33f 30d1 dfc9 6a79 b33f
00000390: 30d1 dfc9 6a79 b33f 30d1 dfc9 6a79 b33f
000003a0: 30d1 dfc9 6a79 b33f 30d1 dfc9 6a79 b33f
000003b0: 30d1 dfc9 6a79 b33f 30d1 dfc9 6a79 b33f
000003c0: 30d1 dfc9 6a79 b33f 30d1 dfc9 6a79 b33f
000003d0: 30d1 dfc9 6a79 b33f 30d1 dfc9 6a79 b33f
000003e0: 30d1 dfc9 6a79 b33f 30d1 dfc9 6a79 b33f
000003f0: 30d1 dfc9 6a79 b33f 30d1 dfc9 6a79 b33f
00000400: 30d1 dfc9 6a79 b33f 30d1 dfc9 6a79 b33f
00000410: 30d1 dfc9 6a79 b33f 30d1 dfc9 6a79 b33f
00000420: 30d1 dfc9 6a79 b33f 30d1 dfc9 6a79 b33f
00000430: 30d1 dfc9 6a79 b33f 30d1 dfc9 6a79 b33f
00000440: 30d1 dfc9 6a79 b33f 30d1 dfc9 6a79 b33f
00000450: 30d1 dfc9 6a79 b33f 30d1 dfc9 6a79 b33f
00000460: 30d1 dfc9 6a79 b33f 30d1 dfc9 6a79 b33f
00000470: 30d1 dfc9 6a79 b33f 30d1 dfc9 6a79 b33f
00000480: 30d1 dfc9 6a79 b33f 30d1 dfc9 6a79 b33f
00000490: 30d1 dfc9 6a79 b33f 30d1 dfc9 6a79 b33f
000004a0: 30d1 dfc9 6a79 b33f 30d1 dfc9 6a79 b33f
000004b0: 30d1 dfc9 6a79 b33f 30d1 dfc9 6a79 b33f
000004c0: 30d1 dfc9 6a79 b33f 30d1 dfc9 6a79 b33f
000004d0: 30d1 dfc9 6a79 b33f 30d1 dfc9 6a79 b33f
000004e0: 30d1 dfc9 6a79 b33f 30d1 dfc9 6a79 b33f
000004f0: 30d1 dfc9 6a79 b33f 30d1 dfc9 6a79 b33f
00000500: 30d1 dfc9 6a79 b33f 30d1 dfc9 6a79 b33f
00000510: 30d1 dfc9 6a79 b33f 30d1 dfc9 6a79 b33f
00000520: 30d1 dfc9 6a79 b33f 30d1 dfc9 6a79 b33f
00000530: 30d1 dfc9 6a79 b33f 30d1 dfc9 6a79 b33f
00000540: 30d1 dfc9 6a79 b33f 30d1 dfc9 6a79 b33f
00000550: 30d1 dfc9 6a79 b33f 30d1 dfc9 6a79 b33f
00000560: 30d1 dfc9 6a79 b33f 30d1 dfc9 6a79 b33f
00000570: 30d1 dfc9 6a79 b33f 30d1 dfc9 6a79 b33f
00000580: 30d1 dfc9 6a79 b33f 30d1 dfc9 6a79 b33f
00000590: 30d1 dfc9 6a79 b33f 30d1 dfc9 6a79 b33f
000005a0: 30d1 dfc9 6a79 b33f 30d1 dfc9 6a79 b33f
000005b0: 30d1 dfc9 6a79 b33f 30d1 dfc9 6a79 b33f
000005c0: 30d1 dfc9 6a79 b33f 30d1 dfc9 6a79 b33f
000005d0: 30d1 dfc9 6a79 b33f 30d1 dfc9 6a79 b33f
000005e0: 30d1 dfc9 6a79 b33f 30d1 dfc9 6a79 b33f
000005f0: 30d1 dfc9 6a79 b33f 30d1 dfc9 6a79 b33f
00000600: 30d1 dfc9 6a79 b33f 30d1 dfc9 6a79 b33f
00000610: 30d1 dfc9 6a79 b33f 30d1 dfc9 6a79 b33f
00000620: 30d1 dfc9 6a79 b33f 30d1 dfc9 6a79 b33f
00000630: 30d1 dfc9 6a79 b33f 30d1 dfc9 6a79 b33f
00000640: 30d1 dfc9 6a79 b33f 30d1 dfc9 6a79 b33f
00000650: 30d1 dfc9 6a79 b33f 30d1 dfc9 6a79 b33f
00000660: 30d1 dfc9 6a79 b33f 30d1 dfc9 6a79 b33f
00000670: 30d1 dfc9 6a79 b33f 30d1 dfc9 6a79 b33f
00000680: 30d1 dfc9 6a79 b33f 30d1 dfc9 6a79 b33f
00000690: 30d1 dfc9 6a79 b33f 30d1 dfc9 6a79 b33f
000006a0: 30d1 dfc9 6a79 b33f 30d1 dfc9 6a79 b33f
000006b0: 30d1 dfc9 6a79 b33f 30d1 dfc9 6a79 b33f
000006c0: 30d1 dfc9 6a79 b33f 30d1 dfc9 6a79 b33f
000006d0: 30d1 dfc9 6a79 b33f 30d1 dfc9 6a79 b33f
000006e0: 30d1 dfc9 6a79 b33f 30d1 dfc9 6a79 b33f
000006f0: 30d1 dfc9 6a79 b33f 30d1 dfc9 6a79 b33f
00000700: 30d1 dfc9 6a79 b33f 30d1 dfc9 6a79 b33f
00000710: 30d1 dfc9 6a79 b33f 30d1 dfc9 6a79 b33f
00000720: 30d1 dfc9 6a79 b33f 30d1 dfc9 6a79 b33f
00000730: 30d1 dfc9 6a79 b33f 30d1 dfc9 6a79 b33f
00000740: 30d1 dfc9 6a79 b33f 30d1 dfc9 6a79 b33f
00000750: 30d1 dfc9 6a79 b33f 30d1 dfc9 6a79 b33f
00000760: 30d1 dfc9 6a79 b33f 30d1 dfc9 6a79 b33f
00000770: 30d1 dfc9 6a79 b33f 30d1 dfc9 6a79 b33f
00000780: 30d1 dfc9 6a79 b33f 30d1 dfc9 6a79 b33f
00000790: 30d1 dfc9 6a79 b33f 30d1 dfc9 6a79 b33f
000007a0: 30d1 dfc9 6a79 b33f 30d1 dfc9 6a79 b33f
000007b0: 30d1 dfc9 6a79 b33f 30d1 dfc9 6a79 b33f
000007c0: 30d1 dfc9 6a79 b33f 30d1 dfc9 6a79 b33f
000007d0: 30d1 dfc9 6a79 b33f 30d1 dfc9 6a79 b33f
000007e0: 30d1 dfc9 6a79 b33f 30d1 dfc9 6a79 b33f
000007f0: 30d1 dfc9 6a79 b33f 30d1 dfc9 6a79 b33f
0.07607142857142857 0.07607142857142857 0.07607142857142857 0.07607142857142857 0.07607142857142857 0.07607142857142857 0.07607142857142857 0.07607142857142857
0.07607142857142857 0.07607142857142857 0.07607142857142857 0.07607142857142857 0.07607142857142857 0.07607142857142857 0.07607142857142857 0.07607142857142857
0.07607142857142857 0.07607142857142857 0.07607142857142857 0.07607142857142857 0.07607142857142857 0.07607142857142857 0.07607142857142857 0.07607142857142857
0.07607142857142857 0.07607142857142857 0.07607142857142857 0.07607142857142857 0.07607142857142857 0.07607142857142857 0.07607142857142857 0.07607142857142857
0.07607142857142857 0.07607142857142857 0.07607142857142857 0.07607142857142857 0.07607142857142857 0.07607142857142857 0.07607142857142857 0.07607142857142857
0.07607142857142857 0.07607142857142857 0.07607142857142857 0.07607142857142857 0.07607142857142857 0.07607142857142857 0.07607142857142857 0.07607142857142857
0.07607142857142857 0.07607142857142857 0.07607142857142857 0.07607142857142857 0.07607142857142857 0.07607142857142857 0.07607142857142857 0.07607142857142857
0.07607142857142857 0.07607142857142857 0.07607142857142857 0.07607142857142857 0.07607142857142857 0.07607142857142857 0.07607142857142857 0.07607142857142857
0.07607142857142857 0.07607142857142857 0.07607142857142857 0.07607142857142857 0.07607142857142857 0.07607142857142857 0.07607142857142857 0.07607142857142857
0.07607142857142857 0.07607142857142857 0.07607142857142857 0.07607142857142857 0.07607142857142857 0.07607142857142857 0.07607142857142857 0.07607142857142857
0.07607142857142857 0.07607142857142857 0.07607142857142857 0.07607142857142857 0.07607142857142857 0.07607142857142857 0.07607142857142857 0.07607142857142857
0.07607142857142857 0.07607142857142857 0.07607142857142857 0.07607142857142857 0.07607142857142857 0.07607142857142857 0.07607142857142857 0.07607142857142857
0.07607142857142857 0.07607142857142857 0.07607142857142857 0.07607142857142857 0.07607142857142857 0.07607142857142857 0.07607142857142857 0.07607142857142857
0.07607142857142857 0.07607142857142857 0.07607142857142857 0.07607142857142857 0.07607142857142857 0.07607142857142857 0.07607142857142857 0.07607142857142857
0.07607142857142857 0.07607142857142857 0.07607142857142857 0.07607142857142857 0.07607142857142857 0.07607142857142857 0.07607142857142857 0.07607142857142857
0.07607142857142857 0.07607142857142857 0.07607142857142857 0.07607142857142857 0.07607142857142857 0.07607142857142857 0.07607142857142857 0.07607142857142857
0.07607142857142857 0.07607142857142857 0.07607142857142857 0.07607142857142857 0.07607142857142857 0.07607142857142857 0.07607142857142857 0.07607142857142857
0.07607142857142857 0.07607142857142857 0.07607142857142857 0.07607142857142857 0.07607142857142857 0.07607142857142857 0.07607142857142857 0.07607142857142857
0.07607142857142857 0.07607142857142857 0.07607142857142857 0.07607142857142857 0.07607142857142857 0.07607142857142857 0.07607142857142857 0.07607142857142857
0.07607142857142857 0.07607142857142857 0.07607142857142857 0.07607142857142857 0.07607142857142857 0.07607142857142857 0.07607142857142857 0.07607142857142857
0.07607142857142857 0.07607142857142857 0.07607142857142857 0.07607142857142857 0.07607142857142857 0.07607142857142857 0.07607142857142857 0.07607142857142857
0.07607142857142857 0.07607142857142857 0.07607142857142857 0.07607142857142857 0.07607142857142857 0.07607142857142857 0.07607142857142857 0.07607142857142857
0.07607142857142857 0.07607142857142857 0.07607142857142857 0.07607142857142857 0.07607142857142857 0.07607142857142857 0.07607142857142857 0.07607142857142857
0.07607142857142857 0.07607142857142857 0.07607142857142857 0.07607142857142857 0.07607142857142857 0.07607142857142857 0.07607142857142857 0.07607142857142857
0.07607142857142857 0.07607142857142857 0.07607142857142857 0.07607142857142857 0.07607142857142857 0.07607142857142857 0.07607142857142857 0.07607142857142857
0.07607142857142857 0.07607142857142857 0.07607142857142857 0.07607142857142857 0.07607142857142857 0.07607142857142857 0.07607142857142857 0.07607142857142857
0.07607142857142857 0.07607142857142857 0.07607142857142857 0.07607142857142857 0.07607142857142857 0.07607142857142857 0.07607142857142857 0.07607142857142857
0.07607142857142857 0.07607142857142857 0.07607142857142857 0.07607142857142857 0.07607142857142857 0.07607142857142857 0.07607142857142857 0.07607142857142857
0.07607142857142857 0.07607142857142857 0.07607142857142857 0.07607142857142857 0.07607142857142857 0.07607142857142857 0.07607142857142857 0.07607142857142857
0.07607142857142857 0.07607142857142857 0.07607142857142857 0.07607142857142857 0.07607142857142857 0.07607142857142857 0.07607142857142857 0.07607142857142857
0.07607142857142857 0.07607142857142857 0.07607142857142857 0.07607142857142857 0.07607142857142857 0.07607142857142857 0.07607142857142857 0.07607142857142857
0.07607142857142857 0.07607142857142857 0.07607142857142857 0.07607142857142857 0.07607142857142857 0.07607142857142857 0.07607142857142857 0.07607142857142857

zmax f8 []
00000000: 0000 0000 0000 1440
5.0

hz_F f8 [401]
00000000: dc4a 3c06 b6f3 a83f 69d1 7549 eef9 b13f
00000010: 6987 76d2 b8b6 b43f 1ad9 1799 e716 b63f
00000020: cd34 4df5 d8c8 b63f bcd1 c6d1 0923 b73f
00000030: 744b be10 d050 b73f 2458 53c5 0468 b73f
00000040: fe02 b10d b873 b73f 1bf3 57ff 8879 b73f
00000050: 6d25 3214 557c b73f e1e2 5532 937d b73f
00000060: 2946 737d 037e b73f 1a5e d4b0 087e b73f
00000070: 8784 28a9 d57d b73f a153 22aa 847d b73f
00000080: 1b82 2a4b 237d b73f 0246 b597 b87c b73f
00000090: dc74 1b37 487c b73f fe64 d00d d47b b73f
000000a0: 1715 6a15 5d7b b73f 5ff3 c7cc e37a b73f
000000b0: 502d 7372 687a b73f b7f7 1423 eb79 b73f
000000c0: 488e 66e9 6b79 b73f 0fc0 8cc6 ea78 b73f
000000d0: 48ab 7cb6 6778 b73f 11fe 4bb2 e277 b73f
000000e0: bc1d 69b1 5b77 b73f 7798 3faa d276 b73f
000000f0: 0fc4 8e92 4776 b73f 5e73 965f ba75 b73f
00000100: e11f 2e06 2b75 b73f 41c6 cf7a 9974 b73f
00000110: 95b7 9cb1 0574 b73f 1edf 5e9e 6f73 b73f
00000120: 3630 8834 d772 b73f 89d7 3067 3c72 b73f
00000130: 12f4 1429 9f71 b73f d2e4 916c ff70 b73f
00000140: 043c a323 5d70 b73f 7a79 df3f b86f b73f
00000150: e5a5 74b2 106f b73f 15dc 246c 666e b73f
00000160: bf6a 425d b96d b73f a800 ac75 096d b73f
00000170: e39f c8a4 566c b73f c151 83d9 a06b b73f
00000180: 0bd1 4602 e86a b73f bbe4 f80c 2c6a b73f
00000190: 9ea8 f5e6 6c69 b73f 0f7e 0a7d aa68 b73f
000001a0: c9d9 70bb e467 b73f fad4 c88d 1b67 b73f
000001b0: b07d 13df 4e66 b73f 891f ad99 7e65 b73f
000001c0: 5db8 46a7 aa64 b73f 3dd8 dff0 d263 b73f
000001d0: 4bd0 bf5e f762 b73f 227c 6ed8 1762 b73f
000001e0: d837 ad44 3461 b73f 45f8 6e89 4c60 b73f
000001f0: ff4d d08b 605f b73f e016 0f30 705e b73f
00000200: 6675 8159 7b5d b73f 1df2 8cea 815c b73f
00000210: 589e 9cc4 835b b73f 1807 17c8 805a b73f
00000220: 19af 53d4 7859 b73f 3ffd 8fc7 6b58 b73f
00000230: b795 e37e 5957 b73f f936 34d6 4156 b73f
00000240: fd07 29a8 2455 b73f 880e 1dce 0154 b73f
00000250: c926 1120 d952 b73f b86e 9d74 aa51 b73f
00000260: 0197 e1a0 7550 b73f e3b5 7478 3a4f b73f
00000270: af27 54cd f84d b73f a170 d16f b04c b73f
00000280: f377 7f2e 614b b73f aea2 1ed6 0a4a b73f
00000290: b6b3 8731 ad48 b73f 11fa 9509 4847 b73f
000002a0: a1ea 0f25 db45 b73f 0d9e 8e48 6644 b73f
000002b0: a512 6436 e942 b73f f604 80ae 6341 b73f
000002c0: 0f2a 536e d53f b73f 38d3 b030 3e3e b73f
000002d0: 69fc aead 9d3c b73f 058a 849a f33a b73f
000002e0: 1d8f 65a9 3f39 b73f ad95 5d89 8137 b73f
000002f0: 4894 27e6 b835 b73f 87d7 0368 e533 b73f
00000300: 1632 8bb3 0632 b73f 76af 7f69 1c30 b73f
00000310: d967 9a26 262e b73f f359 5683 232c b73f
00000320: ddf2 b713 142a b73f f250 1167 f727 b73f
00000330: 6b9f c207 cd25 b73f b1cc f67a 9423 b73f
00000340: a0e7 5b40 4d21 b73f 699d d6d1 f61e b73f
00000350: 4597 31a3 901c b73f db01 c721 1a1a b73f
00000360: 11c4 24b4 9217 b73f 38bf aab9 f914 b73f
00000370: d899 228a 4e12 b73f aa66 5075 900f b73f
00000380: 252e 7cc2 be0c b73f e41f f3af d809 b73f
00000390: 3a6b 8072 dd06 b73f b593 dc34 cc03 b73f
000003a0: 05b4 1217 a400 b73f 411b db2d 64fd b63f
000003b0: e7ef e981 0bfa b63f 207e 310f 99f6 b63f
000003c0: 7d78 16c4 0bf3 b63f e9b2 9580 62ef b63f
000003d0: e1b8 5915 9ceb b63f 1cfd be42 b7e7 b63f
000003e0: 0c4a c5b7 b2e3 b63f a8ab ec10 8ddf b63f
000003f0: 6549 fcd6 44db b63f 53ef b07d d8d6 b63f
00000400: d7a9 5162 46d2 b63f ada8 27ca 8ccd b63f
00000410: cd29 d7e0 a9c8 b63f b9a2 96b6 9bc3 b63f
00000420: 5efc 403e 60be b63f fd83 3f4b f5b8 b63f
00000430: 771d 488f 58b3 b63f 6e54 eb97 87ad b63f
00000440: a600 eecb 7fa7 b63f ff93 6968 3ea1 b63f
00000450: 496f ad7d c09a b63f 117b dbeb 0294 b63f
00000460: a7fb 385f 028d b63f a2d7 2c4c bb85 b63f
00000470: 69b9 e2ea 297e b63f d02b 8a32 4a76 b63f
00000480: 01e6 27d4 176e b63f ad18 ee34 8e65 b63f
00000490: 94ad 0f68 a85c b63f 95dd 0028 6153 b63f
000004a0: c730 16cf b249 b63f 9742 714f 973f b63f
000004b0: f30f 292a 0835 b63f f40d 9965 fe29 b63f
000004c0: 611f c182 721e b63f 9ea0 9c71 5c12 b63f
000004d0: 3c4d 5584 b305 b63f 5c7f 3361 6ef8 b53f
000004e0: af65 29f3 82ea b53f 939a d458 e6db b53f
000004f0: f667 ccd1 8ccc b53f aeb5 0faa 69bc b53f
00000500: b36b 6123 6fab b53f e7de 5c5c 8e99 b53f
00000510: 1ec4 0735 b786 b53f 8b68 a230 d872 b53f
00000520: 2fde 7154 de5d b53f 6b13 3c03 b547 b53f
00000530: e073 2ad5 4530 b53f bab4 c46b 7817 b53f
00000540: 902c b641 32fd b43f 9dd7 1176 56e1 b43f
00000550: cf58 d092 c5c3 b43f dbf6 4f4e 5da4 b43f
00000560: 892f b447 f882 b43f 7c4f 23be 6d5f b43f
00000570: f7a8 1243 9139 b43f efd1 1a68 3211 b43f
00000580: a60b 3569 1ce6 b33f 8ae8 d7d4 15b8 b33f
00000590: f25f 3734 e086 b33f ccde 0eb7 3752 b33f
000005a0: 538b ece7 d219 b33f edba 1f70 62dd b23f
000005b0: 4c65 69f5 909c b23f ff70 a61f 0357 b23f
000005c0: b36c 48da 570c b23f cb34 14ed 28bc b13f
000005d0: a1c9 ea11 0c66 b13f 5645 15bb 9409 b13f
000005e0: c773 56cf 56a6 b03f 9caa 1ab7 ea3b b03f
000005f0: bec4 7e5e e693 af3f ec05 20da 4aa0 ae3f
00000600: abe1 2b4d a89c ad3f a238 ced4 fb88 ac3f
00000610: d997 4630 bd65 ab3f 4adc ba86 0434 aa3f
00000620: 13d9 3d31 a9f5 a83f 5d28 ce89 44ad a73f
00000630: 5d00 8457 f45d a63f 866f 8f90 aa0a a53f
00000640: 51d8 f813 d5b4 a33f bf54 2b06 0ea6 a23f
00000650: 9a82 069b 73ab a13f 220f 9e2c e0c6 a03f
00000660: 53f2 17c1 3ff1 9f3f 539f 6abc ac7f 9e3f
00000670: a705 ac55 e335 9d3f bf86 8c6f 1310 9c3f
00000680: b5a6 5310 450a 9b3f aa4d 00b8 a720 9a3f
00000690: 8994 5c2e bb4f 993f ac7f 50a3 5f94 983f
000006a0: 30c5 267b d7eb 973f 11ca 0798 c153 973f
000006b0: 4fdb 6444 10ca 963f 72c9 8618 ff4c 963f
000006c0: 97e4 db19 09db 953f de22 c1ab df72 953f
000006d0: 74b1 bc8b 6213 953f 72ac 19e1 98bb 943f
000006e0: 56b4 1d4f ab6a 943f 5157 85ee de1f 943f
000006f0: 2d3a 0510 91da 933f 173e 7daa 339a 933f
00000700: a467 3e5a 4a5e 933f f8dd 15da 6726 933f
00000710: 8e5a 2be2 2bf2 923f bf51 de5b 41c1 923f
00000720: c908 8bdc 5c93 923f 8b5f 7f5b 3b68 923f
00000730: bb9a 6419 a13f 923f 7eb0 0fb1 5819 923f
00000740: df9b 0a4b 32f5 913f 606f 4eee 02d3 913f
00000750: 0e07 97e9 a3b2 913f a521 7f51 f293 913f
00000760: 4b3b 3890 ce76 913f 0329 3604 1c5b 913f
00000770: cf29 98ab c040 913f def4 71da a427 913f
00000780: fe41 65fa b20f 913f e3a4 3a52 d7f8 903f
00000790: 2c0c 5cd4 ffe2 903f 0d2f 40f3 1bce 903f
000007a0: 094e f97a 1cba 903f 0104 396f f3a6 903f
000007b0: fcdf 33ed 9394 903f a05a e510 f282 903f
000007c0: f2ad 46dd 0272 903f b997 1a27 bc61 903f
000007d0: fa83 fc81 1452 903f 187c 6d2f 0343 903f
000007e0: 741f a20f 8034 903f 74bb dc93 8326 903f
000007f0: 9ecd 25b2 0619 903f ca69 3bda 020c 903f
0.04873436761967806 0.07021989148581088 0.08091311586625029 0.08628699767709627 0.08900218952949786 0.09037839290142008 0.09107685478947564 0.0914309484245171
0.09160948118461573 0.09169822916005581 0.09174091094077648 0.09175987223523975 0.09176656544448093 0.09176687543037368 0.09176383380737906 0.0917590060583522
0.09175320229633892 0.09174684242068312 0.09174014420883075 0.09173322045571194 0.09172612927257649 0.09171890019929439 0.09171154779612789 0.0917040787362272
0.09169649551636738 0.09168879840285647 0.09168098645447487 0.09167305806112604 0.09166501122773857 0.09165684372382708 0.09164855316227281 0.09164013703998594
0.09163159275897172 0.0916229176362089 0.09161410890803119 0.09160516373128444 0.09159607918280774 0.0915868522577893 0.09157747986769518 0.0915679588378169
0.0915582859044975 0.09154845771215561 0.09153847081019924 0.0915283216498753 0.0915180065807517 0.0915075218472362 0.09149686358489321 0.09148602781653549
0.09147501044828148 0.09146380726533014 0.09145241392767153 0.09144082596548507 0.09142903877441379 0.09141704761062278 0.09140484758562795 0.0913924336610973
0.09137980064289893 0.09136694317553036 0.09135385573591852 0.09134053262685929 0.09132696797061557 0.09131315570172756 0.0912990895597474 0.09128476308168443
0.09127016959378906 0.09125530220348606 0.09124015379040296 0.09122471699722856 0.09120898422014213 0.09119294759874651 0.0911765990054708 0.09115993003453217
0.09114293199039021 0.09112559587543434 0.09110791237722106 0.091089871855213 0.09107146432651449 0.09105267945115929 0.09103350651653729 0.09101393442091645
0.0909939516563723 0.09097354629069329 0.09095270594816793 0.09093141778974025 0.09090966849172812 0.09088744422353319 0.09086473062422813 0.0908415127778602
0.09081777518728294 0.09079350174654344 0.09076867571182991 0.09074327967076819 0.09071729550992953 0.09069070438052647 0.0906634866619963 0.0906356219237222
0.09060708888427657 0.09057786536840048 0.09054792826137205 0.09051725346066757 0.09048581582460309 0.0904535891180023 0.0904205459543143 0.09038665773441569
0.09035189458145831 0.09031622527128537 0.09027961715909523 0.09024203610079644 0.09020344636952894 0.09016381056676159 0.09012308952751569 0.09008124221909478
0.09003822563334347 0.08999399467131713 0.08994850202036 0.08990169802252874 0.08985353053385843 0.08980394477394517 0.08975288316463513 0.08970028515749862
0.08964608704852313 0.0895902217795982 0.08953261872531783 0.0894732034639571 0.08941189753139883 0.08934861815639172 0.08928327797574338 0.08921578472739826
0.08914604091993482 0.08907394347594062 0.08899938334722109 0.08892224509930714 0.0888424064623776 0.08875973784553533 0.08867410181129808 0.08858535250631558
0.08849333504440668 0.08839788483744825 0.08829882686899028 0.08819597490535737 0.08808913063783895 0.08797808274979826 0.08786260590088592 0.08774245962028648
0.08761738710008872 0.08748711387861148 0.0873513464027183 0.08720977045674368 0.08706204944445793 0.08690782250892891 0.08674670247370368 0.08657827358643272
0.08640208904500703 0.08621766828275887 0.0860244939879537 0.08582200882983443 0.08560961185994274 0.08538665455544452 0.08515243646652934 0.08490620042694871
0.0846471272829337 0.08437433009100524 0.08408684773145622 0.08378363787997693 0.08346356927528896 0.08312541321727245 0.08276783422702705 0.08238937979759245
0.08198846916472946 0.08156338102875656 0.08111224016497263 0.0806330028717314 0.08012344122488292 0.07958112613715501 0.07900340926667924 0.0783874038850809
0.0777299649098909 0.07702766844150424 0.07627679133236123 0.0754732915801199 0.07461279070097974 0.07369055974389101 0.07270151130196217 0.07164020083149934
0.07050084189579557 0.06927734172878101 0.06796336591177134 0.06655244414766534 0.06503813325839679 0.06341425867382572 0.06167526153093082 0.05981668388995928
0.057835826320970916 0.05573260281299609 0.05351058210662502 0.051178113409541995 0.04874924398511573 0.04624380285447736 0.04368556564622914 0.04109700216915173
0.03848901623534629 0.036423147442897534 0.0345111967792537 0.03276730103155347 0.031193729553694215 0.029783915519743086 0.0285258790054336 0.027405074771315038
0.02640636360312128 0.02551519451669796 0.02471821279973033 0.024003500311777934 0.023360602275436182 0.022780442146492833 0.022255186247288446 0.021778093215922785
0.021343366816812006 0.020946020944651582 0.0205817601956126 0.02024687646773455 0.019938160613879617 0.019652827556760958 0.01938845310479047 0.019142920761906348
0.018914376981775796 0.01870119350993879 0.01850193565300145 0.01831533549518993 0.018140269242174854 0.017975738009993896 0.017820851492752903 0.017674814040149027
0.017536912756124564 0.017406507296626628 0.01728302109928053 0.01716593382278266 0.017054774811238443 0.01694911742883055 0.016848574136057167 0.016752792198975956
0.016661449940615462 0.016574253457893994 0.016490933739088984 0.01641124412712629 0.016334958081939664 0.016261867202278072 0.016191779473018628 0.0161245177090118
0.01605991817056735 0.015997829329215316 0.01593811076520877 0.015880632180934467 0.015825272516422698 0.015771919154925 0.01572046720816688 0.015670818872288973

Vz_F f8 [401]
00000000: 00a0 0437 97e0 e53f 0077 7a87 df41 f03f
00000010: 40e5 20d5 85e7 f23f 007a 7962 133c f43f
00000020: 80ca 407b 24e8 f43f c0bb f2e6 5a3f f53f
00000030: c050 2730 9e6b f53f 40f0 2fb8 0e82 f53f
00000040: 40ab 8717 5f8d f53f 40ea 31de fe92 f53f
00000050: 008e 8e4d b395 f53f c013 72ea e696 f53f
00000060: 80e1 4580 5397 f53f 40fb af87 5897 f53f
00000070: 40a0 672f 2797 f53f 00bd 17dd d896 f53f
00000080: c061 43b5 7a96 f53f 4007 d187 1396 f53f
00000090: 406e 36dd a695 f53f 008f e789 3695 f53f
000000a0: c07f 3c7f c394 f53f 8025 e437 4e94 f53f
000000b0: 0006 57f0 d693 f53f 000c 4cc4 5d93 f53f
000000c0: 00cc 21be e292 f53f c069 f3de 6592 f53f
000000d0: 0030 d822 e791 f53f 8042 2083 6691 f53f
000000e0: 8076 82f7 e390 f53f 4056 bb76 5f90 f53f
000000f0: 80e3 e0f6 d88f f53f 00d3 8d6d 508f f53f
00000100: 40f2 f7cf c58e f53f 40a8 fa12 398e f53f
00000110: 009e 1b2b aa8d f53f 80f9 8b0c 198d f53f
00000120: 80d0 27ab 858c f53f 0069 74fa ef8b f53f
00000130: 8005 9eed 578b f53f 8049 7577 bd8a f53f
00000140: 8046 6c8a 208a f53f 0052 9318 8189 f53f
00000150: 80bd 9513 df88 f53f 007d b66c 3a88 f53f
00000160: 8069 cc14 9387 f53f 808d 3efc e886 f53f
00000170: 803a 0013 3c86 f53f 40e1 8c48 8c85 f53f
00000180: a0e0 e38b d984 f53f a007 84cb 2384 f53f
00000190: e005 67f5 6a83 f53f 2087 fcf6 ae82 f53f
000001a0: 002d 25bd ef81 f53f 004e 2d34 2d81 f53f
000001b0: 0076 c747 6780 f53f 40df 06e3 9d7f f53f
000001c0: 601e 59f0 d07e f53f 2036 8059 007e f53f
000001d0: e0ff 8b07 2c7d f53f 0032 d3e2 537c f53f
000001e0: 6091 ecd2 777b f53f 804c a7be 977a f53f
000001f0: 0042 038c b379 f53f 60f8 2820 cb78 f53f
00000200: c0e1 605f de77 f53f 40c8 0a2d ed76 f53f
00000210: 2044 946b f775 f53f a003 6ffc fc74 f53f
00000220: 009e 06c0 fd73 f53f 80df b595 f972 f53f
00000230: 0085 bb5b f071 f53f a07f 2eef e170 f53f
00000240: 40ae f12b ce6f f53f 40c6 a6ec b46e f53f
00000250: c0c1 a00a 966d f53f 40c6 d55d 716c f53f
00000260: 20fa cfbc 466b f53f 40e0 9dfc 156a f53f
00000270: 40c9 c1f0 de68 f53f 804e 206b a167 f53f
00000280: e02b ee3b 5d66 f53f c002 9d31 1265 f53f
00000290: a0ec c618 c063 f53f e061 19bc 6662 f53f
000002a0: 4099 3ee4 0561 f53f 00d5 c557 9d5f f53f
000002b0: 607e 0adb 2c5e f53f c0e3 1930 b45c f53f
000002c0: 2066 9716 335b f53f 801d 9f4b a959 f53f
000002d0: 60f5 a689 1658 f53f e007 5e88 7a56 f53f
000002e0: 0012 8afc d454 f53f c0fa e297 2553 f53f
000002f0: 401b ec08 6c51 f53f 008c cbfa a74f f53f
00000300: c0cf 1e15 d94d f53f 2016 cdfb fe4b f53f
00000310: a0b7 d64e 194a f53f c0d0 21aa 2748 f53f
00000320: 40a7 43a5 2946 f53f 00e6 46d3 1e44 f53f
00000330: a012 6ec2 0642 f53f a07c f2fb e03f f53f
00000340: 40f8 be03 ad3d f53f 20e3 2558 6a3b f53f
00000350: a02b 9371 1839 f53f 40b3 38c2 b636 f53f
00000360: 608d b5b5 4434 f53f c079 b7b0 c131 f53f
00000370: 4020 9610 2d2f f53f 2065 e72a 862c f53f
00000380: 00dc 0c4d cc29 f53f 4029 b9bb fe26 f53f
00000390: 2051 6db2 1c24 f53f 40d3 ec62 2521 f53f
000003a0: a009 a8f4 171e f53f 003c 1c84 f31a f53f
000003b0: 401e 2822 b717 f53f 4062 54d3 6114 f53f
000003c0: 00b3 0e8f f210 f53f c0a4 d63e 680d f53f
000003d0: e008 5bbd c109 f53f 406e 86d5 fd05 f53f
000003e0: 0081 7941 1b02 f53f 0091 71a9 18fe f43f
000003f0: 20c3 99a2 f4f9 f43f 20bf c4ad adf5 f43f
00000400: 604b 0d36 42f1 f43f a022 5b8f b0ec f43f
00000410: 80d7 c9f4 f6e7 f43f c013 ef86 13e3 f43f
00000420: 4022 fd49 04de f43f a082 be23 c7d8 f43f
00000430: 2030 67d9 59d3 f43f 205e 370d bacd f43f
00000440: 2083 eb3b e5c7 f43f 00f2 f4b9 d8c1 f43f
00000450: 808e 75b0 91bb f43f c00a f919 0db5 f43f
00000460: 80e0 e4be 47ae f43f c076 9831 3ea7 f43f
00000470: e024 35ca ec9f f43f 607e 05a2 4f98 f43f
00000480: 406e 7a8e 6290 f43f 8052 b31b 2188 f43f
00000490: c06e 8586 867f f43f 408d f5b5 8d76 f43f
000004a0: e05f 1534 316d f43f e087 3426 6b63 f43f
000004b0: 80a4 5344 3559 f43f 6056 c5cf 884e f43f
000004c0: 4007 e888 5e43 f43f a087 dfa3 ae37 f43f
000004d0: c02b 34bc 702b f43f 00ea 39c7 9b1e f43f
000004e0: 203a 1e05 2611 f43f 2055 79f0 0403 f43f
000004f0: 0082 3a2c 2df4 f33f 80e9 c36f 92e4 f33f
00000500: 605a 0671 27d4 f33f c060 68cc ddc2 f33f
00000510: 001b 40ea a5b0 f33f 00a2 a2e1 6e9d f33f
00000520: e0f4 4658 2689 f33f 60c0 365f b873 f33f
00000530: 401d 044c 0f5d f33f 407e 388e 1345 f33f
00000540: 20be b180 ab2b f33f c0ef a336 bb10 f33f
00000550: 9085 fd43 24f4 f23f e0a8 f780 c5d5 f23f
00000560: 107e b1c8 7ab5 f23f 30d1 d4b2 1c93 f23f
00000570: a02a 7348 806e f23f c0b1 90b4 7647 f23f
00000580: a090 36f1 cc1d f23f 3093 7672 4bf1 f13f
00000590: c008 91d1 b5c1 f13f 90b7 867b ca8e f13f
000005a0: 301e e467 4258 f13f 70b5 abde d01d f13f
000005b0: 7070 2857 23df f03f e024 687d e19b f03f
000005c0: 40cb 8a71 ad53 f03f 00e5 755b 2406 f03f
000005d0: c011 e2ee be65 ef3f e0c6 e29a ebb2 ee3f
000005e0: 405e 1aac fdf2 ed3f 8019 d7ca 2c25 ed3f
000005f0: 4036 a399 c448 ec3f 40fe 9b73 345d eb3f
00000600: 8078 8ac2 2462 ea3f 004f 00bc 9257 e93f
00000610: e0cf f02a f23d e83f a06c 32f6 5116 e73f
00000620: 409d 3de6 79e2 e53f 8091 6d5c eda4 e43f
00000630: 2098 bbc7 af60 e33f e077 a038 9a18 e23f
00000640: 2096 3379 0ece e03f 80f9 9af2 7090 df3f
00000650: c088 4020 c9ab dd3f 80bf 80db baf1 db3f
00000660: c010 2068 d962 da3f 80ff 5ba2 7afd d83f
00000670: c0ab 0c21 95be d73f 8066 9902 79a2 d63f
00000680: 40fb f8d9 4fa5 d53f c092 2366 69c3 d43f
00000690: 802f 3307 63f9 d33f 4013 6356 3744 d33f
000006a0: 0094 21e3 3fa1 d23f 00b4 d6ac 2f0e d23f
000006b0: 80f7 1a5a 0a89 d13f c0d7 ae73 1a10 d13f
000006c0: 4069 49d7 e7a1 d03f 004c f7f4 2e3d d03f
000006d0: 8051 2c1e b2c1 cf3f 00c0 3209 eb17 cf3f
000006e0: 80f0 bc2a 687b ce3f 807e 4a0c c0ea cd3f
000006f0: 00a9 d20d b864 cd3f 807b 847e 3de8 cc3f
00000700: 80ae 17ce 5f74 cc3f 80ec 9ca9 4b08 cc3f
00000710: 005f 3bdd 46a3 cb3f 80a4 4eda ac44 cb3f
00000720: 00ce a5c6 ebeb ca3f 0016 39fe 8198 ca3f
00000730: 8069 85f4 fb49 ca3f 00fe f865 f2ff c93f
00000740: 00e4 86cc 08ba c93f 0090 ae0c ec77 c93f
00000750: 00b7 1652 5139 c93f 8097 5914 f5fd c83f
00000760: 0010 df3d 9ac5 c83f 006a a16f 0990 c83f
00000770: 00aa 955d 105d c83f 00fc 1b40 812c c83f
00000780: 8099 7357 32fe c73f 801e a67e fdd1 c73f
00000790: 80cd c1cb bfa7 c73f 003e 913b 597f c73f
000007a0: 80d2 4267 ac58 c73f 00f3 ae42 9e33 c73f
000007b0: 8058 1ce2 1510 c73f 00fa 8b46 fced c63f
000007c0: 00e3 b82f 3ccd c63f 0039 16f3 c1ad c63f
000007d0: 00cd 2d57 7b8f c63f 808b d872 5772 c63f
000007e0: 8057 db8f 4656 c63f 00fb 8110 3a3b c63f
000007f0: 00c7 df57 2421 c63f 8073 69b4 f807 c63f
0.6836658548900232 1.016082314693847 1.1815241170246082 1.2646669241581776 1.3066754164289307 1.327967550412481 1.3387739068030413 1.3442523188414413
1.3470145148409784 1.3483875922671729 1.3490479497494334 1.3493413122207443 1.3494448671973203 1.3494496631899011 1.3494026042699403 1.3493279110369372
1.3492381172746803 1.3491397195179644 1.3490360871427498 1.3489289652724779 1.3488192529839438 1.3487074073076144 1.3485936535147403 1.348478094849952
1.3483607699424738 1.3482416829125299 1.3481208191979022 1.347998153887744 1.3478736561150129 1.3477472913704247 1.347619022721318 1.347488811440769
1.3473566173335172 1.3472223988888032 1.3470861133481549 1.3469477167232924 1.3468071637880996 1.3466644080531864 1.3465194017338433 1.3463720957120984
1.3462224394938005 1.3460703811625763 1.3459158673320815 1.3457588430972578 1.3455992519799054 1.3454370358748236 1.3452721349928254 1.3451044878002705
1.3449340309580649 1.344760699256291 1.3445844255478434 1.3444051406772317 1.3442227734074663 1.3440372503436038 1.3438484958527397 1.3436564319835753
1.3434609783743312 1.3432620521665584 1.343059567909215 1.3428534374571655 1.3426435698721306 1.3424298713114524 1.342212244915686 1.3419905906917151
1.3417648053856368 1.3415347823579538 1.3413004114447702 1.3410615788163582 1.3408181668290808 1.3405700538696408 1.340317114191123 1.3400592177422155
1.339796229988579 1.3395280117223507 1.3392544188646838 1.3389753022605788 1.338690507458189 1.3383998744811976 1.3381032375878732 1.3378004250161268
1.3374912587194032 1.337175554086727 1.336853119645447 1.336523756754211 1.3361872592737 1.3358434132217667 1.3354919964112 1.3351327780676314
1.3347655184246676 1.3343899682966764 1.3340058686292977 1.3336129500244098 1.3332109322374208 1.3327995236465284 1.3323784206892952 1.3319473072704113
1.331505854131123 1.3310537181836324 1.3305905418051012 1.3301159520897698 1.3296295600543573 1.3291309597974532 1.3286197276039857 1.3280954209983875
1.3275575777365844 1.3270057147294168 1.3264393269080088 1.3258578860070003 1.3252608392729925 1.32464760808908 1.3240175865085035 1.3233701396878317
1.3227046022200284 1.322020276350102 1.3213164300733027 1.3205922950994164 1.319847064675379 1.3190798912580703 1.3182898840185686 1.3174761061728901
1.3166375721149848 1.3157732443453796 1.3148820301726616 1.313962778170108 1.313014274368527 1.312035238160263 1.311024317892766 1.3099800861199995
1.3089010344890184 1.3077855682223927 1.3066320001648535 1.305438544354942 1.3042033090770389 1.3029242893464144 1.3015993587787378 1.3002262607823312
1.2988025990127383 1.2973258270204724 1.2957932370126457 1.2942019476474087 1.2925488907622196 1.290830796940483 1.2890441797956598 1.2871853188479676
1.2852502408558308 1.2832346994447619 1.2811341528639986 1.2789437396794057 1.2766582521926395 1.27427210735231 1.2717793149006695 1.2691734424637602
1.2664475772766792 1.2635942841811598 1.2606055595122 1.257472780444573 1.2541866493153364 1.2507371324075578 1.2471133926084121 1.2433037153083148
1.2392954268485923 1.2350748047520455 1.2306269789129942 1.2259358228567407 1.2209838341071233 1.2157520026485358 1.210219666421679 1.2043643527503178
1.19816160460676 1.1915847906484345 1.1846048980590673 1.1771903074064127 1.169306549032516 1.1609160409544295 1.1519778089592947 1.1424471906021694
1.1322755262745332 1.1214098426073171 1.109792536372467 1.0973610711330117 1.0840477045293362 1.0697792718959498 1.0544770626647981 1.038056840772974
1.0204290805092597 1.001499516742399 0.981170145576975 0.9593408608545495 0.9359119759928447 0.9107879602168367 0.8838828087552386 0.8551275499339184
0.8244804191233612 0.791940085592131 0.7575617636380194 0.7214746292624064 0.6838960167778296 0.6451327138170626 0.605552568533998 0.5655032258980519
0.5251533858506185 0.4931909913247168 0.4636099638902458 0.4366290229399894 0.41228327911836615 0.3904711328068444 0.37100723483552756 0.3536665463812838
0.33821483885178694 0.324426984543873 0.312096364051051 0.30103858410102546 0.29109189205911434 0.282115858829286 0.27398928450917737 0.266607869121227
0.25988193534944415 0.25373433992825767 0.24809862588211828 0.24291742276318473 0.2381410797769412 0.23372650718828325 0.22963619875856267 0.22583740880596892
0.22230145991430916 0.21900316030391664 0.21592031290378344 0.21303330096751338 0.2103247375449513 0.20777916825515774 0.20538281859883156 0.20312337855465046
0.20098981844583363 0.19897223109467177 0.19706169613112223 0.19525016301775722 0.19353034993230267 0.19189565611561932 0.19034008569299488 0.18885818128907772
0.187444966031034 0.1860958927538725 0.18480679940294564 0.18357386978685497 0.18239359895746432 0.18126276260399976 0.18017838993609203 0.1791377396074978
0.17813827829538553 0.1771776616046239 0.17625371701033288 0.1753644285937206 0.17450792335756304 0.17368245893518264 0.17288641253212944 0.17211827096152987
