onecap_model_with_structure_ambiguity/output/upper_triangular_two_ambiguous_parameters/Delta_10.0_distorted_0/logadjustment_1_boundary_1/zmax_5.0_zscale_2.0/delta_0.01/q_0.1_gamma_10.0_rho_1.0/model.npz (npz, 126264 bytes, 58 tensors)

clowerlim f8 []
0.0001
00000000: 2d43 1ceb e236 1a3f

zmin f8 []
-5.0
00000000: 0000 0000 0000 14c0

Delta f8 []
10.0
00000000: 0000 0000 0000 2440

s1_F f8 [401]
-0.613300323579823 -0.4566837695122794 -0.41181897871173856 -0.394355175056301 -0.3862613669183025 -0.3817853122582414 -0.37877867788128333 -0.37638290287384524
-0.37424414505537473 -0.3722143265104841 -0.3702309336448326 -0.3682674166626372 -0.3663124452370968 -0.36436116307829297 -0.3624114801221658 -0.360462493191302
-0.35851381042299735 -0.3565652611145472 -0.35461677060443114 -0.3526683061050485 -0.3507198531594903 -0.34877140536745543 -0.3468229598833938 -0.3448745154373313
-0.3429260714600696 -0.3409776276954001 -0.33902918402761795 -0.3370807404041525 -0.3351322968008661 -0.3331838532070788 -0.33123540961766845 -0.32928696603022
-0.32733852244378553 -0.32539007885774873 -0.32344163527191777 -0.3214931916861871 -0.31954474810047373 -0.3175963045148377 -0.3156478609292176 -0.31369941734363277
-0.311750973758043 -0.3098025301723894 -0.30785408658675095 -0.30590564300112755 -0.3039571994155381 -0.30200875582994335 -0.30006031224434343 -0.2981118686587572
-0.2961634250731844 -0.29421498148758723 -0.29226653790198454 -0.2903180943164318 -0.2883696507308545 -0.2864212071453258 -0.2844727635597543 -0.2825243199741946
-0.28057587638857495 -0.27862743280305585 -0.2766789892175119 -0.2747305456319436 -0.2727821020464726 -0.2708336584609074 -0.26888521487536937 -0.26693677128987475
-0.26498832770436354 -0.26303988411884444 -0.26109144053334205 -0.2591429969478888 -0.2571945533624181 -0.25524610977693823 -0.2532976661914814 -0.251349222606007
-0.2494007790205705 -0.24745233543511583 -0.24550389184966673 -0.24355544826426118 -0.24160700467885218 -0.23965856109344694 -0.23771011750805268 -0.23576167392266886
-0.23381323033729495 -0.23186478675193045 -0.22991634316663298 -0.22796789958129215 -0.2260194559959804 -0.22407101241066807 -0.22212256882539724 -0.2201741252401244
-0.21822568165487682 -0.21627723806965357 -0.2143287944844194 -0.21238035089922805 -0.2104319073140378 -0.2084834637288878 -0.20653502014374367 -0.20458657655861748
-0.2026381329735019 -0.20068968938845952 -0.19874124580339295 -0.19679280221840223 -0.1948443586334225 -0.19289591504848938 -0.1909474714635764 -0.18899902787867603
-0.18705058429381086 -0.18510214070901976 -0.1831536971242647 -0.18120525353956635 -0.17925680995487625 -0.17730836637026612 -0.1753599227856986 -0.17341147920119845
-0.17146303561675108 -0.16951459203237462 -0.16756614844809162 -0.16561770486386557 -0.16366926127972367 -0.16172081769567634 -0.15977237411168252 -0.15782393052782306
-0.15587548694407075 -0.15392704336043844 -0.15197859977695738 -0.15003015619361845 -0.1480817126104318 -0.14613326902739224 -0.14418482544454947 -0.14223638186190476
-0.1402879382794854 -0.1383394946973032 -0.13639105111538155 -0.13444260753377146 -0.13249416395248212 -0.13054572037155412 -0.1285972767910366 -0.12664883321098228
-0.12470038963139543 -0.12275194605240658 -0.12080350247403622 -0.11885505889638762 -0.11690661531956556 -0.11495817174365712 -0.11300972816879323 -0.11106128459515816
-0.10911284102289028 -0.10716439745222713 -0.10521595388340824 -0.10326751031673487 -0.10131906675253284 -0.0993706231912602 -0.0974221796334414 -0.0954737360796977
-0.09352529253078755 -0.09157684898766898 -0.08962840545150265 -0.08767996192372024 -0.08573151840611437 -0.08378307490094176 -0.08183463141102715 -0.07988618793997448
-0.07793774449239468 -0.07598930107418621 -0.07404085769297614 -0.07209241435871352 -0.07014397108443643 -0.06819552788736408 -0.06624708479038205 -0.06429864182415433
-0.06235019903007165 -0.06040175646441363 -0.05845331420433559 -0.0565048723564206 -0.054556431069072944 -0.05260799055066665 -0.05065955109615174 -0.04871111312652105
-0.04676267724769059 -0.04481424433908978 -0.04286581568789055 -0.04091739319384126 -0.03896897968412039 -0.037020579400522016 -0.03507219875797782 -0.03312384753227941
-0.031175540728780617 -0.029227301533176472 -0.0272791659804579 -0.02533119034042591 -0.023383462758137463 -0.02143612144121675 -0.0194893825996012 -0.01754358205054532
-0.015599233619139553 -0.013657101403134161 -0.011718261256052515 -0.009784062126723593 -0.007855719529591314 -0.005932800717197656 -0.004008632888711945 -0.002057489637774571
-0.0 -0.002239938627577749 -0.004625824127192544 -0.007152863891011164 -0.009815720854907966 -0.012608677158751412 -0.015525777534778304 -0.018560951327102747
-0.021708113503693963 -0.024961246004657208 -0.028314461357908043 -0.031762050775606274 -0.035298519006744654 -0.038918608135815685 -0.042617312342021894 -0.046389885410986154
-0.05023184255187433 -0.05413895783710203 -0.05810725836159748 -0.06213301602062949 -0.06621273763210767 -0.0703431539810723 -0.07452120823948434 -0.07874404411142655
-0.08300899396926653 -0.08731356717829962 -0.09165543875277249 -0.09603243844317197 -0.10044254032075146 -0.10488385289932844 -0.10935460981420009 -0.1138531610633178
-0.11837796480436029 -0.12292757969372686 -0.127500657747637 -0.13209593770183956 -0.13671223884404124 -0.14134845529247694 -0.146003550692725 -0.15067655330597995
-0.15536655146213812 -0.16007268935223476 -0.16479416313567402 -0.16953021733921605 -0.17428014152588575 -0.17904326721335323 -0.18381896502272804 -0.18860664203994718
-0.1934057393733549 -0.19821572989211148 -0.20303611613125017 -0.20786642835055694 -0.21270622273507886 -0.21755507972626062 -0.22241260247330152 -0.22727841539584193
00000000: 8fd9 0c00 28a0 e3bf dcd4 aa8f 4e3a ddbf
00000010: 3019 5cfd 3d5b dabf c002 f87c 1d3d d9bf
00000020: d6d4 a798 81b8 d8bf c281 8fa9 2b6f d8bf
00000030: d305 7bec e83d d8bf 2c78 a750 a816 d8bf
00000040: 3ede eeb6 9df3 d7bf c1c5 dd09 5cd2 d7bf
00000050: ec36 fe15 ddb1 d7bf 50e6 af7f b191 d7bf
00000060: d14f 1ac1 a971 d7bf 83a4 d67b b151 d7bf
00000070: 3f75 b4eb bf31 d7bf af3d ec46 d111 d7bf
00000080: 6e97 bbe8 e3f1 d6bf 8a1b d819 f7d1 d6bf
00000090: 93fc 168a 0ab2 d6bf 42a4 4316 1e92 d6bf
000000a0: 0e30 d8ae 3172 d6bf d252 f54c 4552 d6bf
000000b0: c3de 8ced 5832 d6bf 66bd 418f 6c12 d6bf
000000c0: f678 7731 80f2 d5bf 5ea4 e7d3 93d2 d5bf
000000d0: 9e71 7276 a7b2 d5bf 606d 0919 bb92 d5bf
000000e0: 1cf5 a5bb ce72 d5bf 4819 455e e252 d5bf
000000f0: 7571 e500 f632 d5bf b053 86a3 0913 d5bf
00000100: 457d 2746 1df3 d4bf d6c2 c8e8 30d3 d4bf
00000110: e316 6a8b 44b3 d4bf ff71 0b2e 5893 d4bf
00000120: 52ce acd0 6b73 d4bf 1730 4e73 7f53 d4bf
00000130: fa92 ef15 9333 d4bf 59f8 90b8 a613 d4bf
00000140: 5f5d 325b baf3 d3bf e7bd d3fd cdd3 d3bf
00000150: 801f 75a0 e1b3 d3bf 2882 1643 f593 d3bf
00000160: 34e7 b7e5 0874 d3bf e04b 5988 1c54 d3bf
00000170: 2fb0 fa2a 3034 d3bf 7515 9ccd 4314 d3bf
00000180: ac7b 3d70 57f4 d2bf 2de0 de12 6bd4 d2bf
00000190: 4a44 80b5 7eb4 d2bf ebab 2158 9294 d2bf
000001a0: d211 c3fa a574 d2bf 247b 649d b954 d2bf
000001b0: 73e1 0540 cd34 d2bf 9648 a7e2 e014 d2bf
000001c0: 82ab 4885 f4f4 d1bf 8115 ea27 08d5 d1bf
000001d0: c07d 8bca 1bb5 d1bf 49e4 2c6d 2f95 d1bf
000001e0: aa51 ce0f 4375 d1bf 6bb8 6fb2 5655 d1bf
000001f0: 1521 1155 6a35 d1bf cd8c b2f7 7d15 d1bf
00000200: 5af7 539a 91f5 d0bf 5961 f53c a5d5 d0bf
00000210: 85cc 96df b8b5 d0bf 263b 3882 cc95 d0bf
00000220: 8da8 d924 e075 d0bf 4f15 7bc7 f355 d0bf
00000230: b083 1c6a 0736 d0bf d4f0 bd0c 1b16 d0bf
00000240: 46c1 be5e 5dec cfbf 559e 01a4 84ac cfbf
00000250: 2d7c 44e9 ab6c cfbf 2660 872e d32c cfbf
00000260: a343 ca73 faec cebf a727 0db9 21ad cebf
00000270: 370d 50fe 486d cebf 3ff4 9243 702d cebf
00000280: acdc d588 97ed cdbf 6cc6 18ce bead cdbf
00000290: 9bb9 5b13 e66d cdbf b0a6 9e58 0d2e cdbf
000002a0: dc97 e19d 34ee ccbf f488 24e3 5bae ccbf
000002b0: e37f 6728 836e ccbf 8976 aa6d aa2e ccbf
000002c0: be70 edb2 d1ee cbbf 5f6e 30f8 f8ae cbbf
000002d0: 776a 733d 206f cbbf 956c b682 472f cbbf
000002e0: db6e f9c7 6eef cabf cb76 3c0d 96af cabf
000002f0: 8f7f 7f52 bd6f cabf d98a c297 e42f cabf
00000300: a197 05dd 0bf0 c9bf b7ae 4822 33b0 c9bf
00000310: 65c2 8b67 5a70 c9bf c0e0 ceac 8130 c9bf
00000320: a700 12f2 a8f0 c8bf 1d27 5537 d0b0 c8bf
00000330: 6950 987c f770 c8bf 7b7b dbc1 1e31 c8bf
00000340: 81ab 1e07 46f1 c7bf f4e5 614c 6db1 c7bf
00000350: 7a25 a591 9471 c7bf fa6c e8d6 bb31 c7bf
00000360: a4b5 2b1c e3f1 c6bf 8f09 6f61 0ab2 c6bf
00000370: 7963 b2a6 3172 c6bf dfc6 f5eb 5832 c6bf
00000380: b231 3931 80f2 c5bf 80a6 7c76 a7b2 c5bf
00000390: 7528 c0bb ce72 c5bf 6eb2 0301 f632 c5bf
000003a0: 3f48 4746 1df3 c4bf 5feb 8a8b 44b3 c4bf
000003b0: 0796 ced0 6b73 c4bf 9853 1216 9333 c4bf
000003c0: 3d20 565b baf3 c3bf c6fd 99a0 e1b3 c3bf
000003d0: 98f0 dde5 0874 c3bf 6bf7 212b 3034 c3bf
000003e0: ac13 6670 57f4 c2bf a144 aab5 7eb4 c2bf
000003f0: 4891 eefa a574 c2bf cff9 3240 cd34 c2bf
00000400: 0d82 7785 f4f4 c1bf ab2b bcca 1bb5 c1bf
00000410: f5f9 0010 4375 c1bf 18f4 4555 6a35 c1bf
00000420: 5f1b 8b9a 91f5 c0bf 8175 d0df b8b5 c0bf
00000430: 6809 1625 e075 c0bf 7fde 5b6a 0736 c0bf
00000440: c2ea 435f 5dec bfbf d8c0 d0e9 ab6c bfbf
00000450: 0545 5e74 faec bebf 5a94 ecfe 486d bebf
00000460: 56cc 7b89 97ed bdbf 7b05 0c14 e66d bdbf
00000470: a464 9d9e 34ee bcbf ae1d 3029 836e bcbf
00000480: 8d57 c4b3 d1ee bbbf 1d55 5a3e 206f bbbf
00000490: ca59 f2c8 6eef babf 60ba 8c53 bd6f babf
000004a0: 95d2 29de 0bf0 b9bf 5623 ca68 5a70 b9bf
000004b0: 4340 6ef3 a8f0 b8bf 3ad8 167e f770 b8bf
000004c0: b7c0 c408 46f1 b7bf 6307 7993 9471 b7bf
000004d0: f1f2 341e e3f1 b6bf 5c16 faa8 3172 b6bf
000004e0: 386a ca33 80f2 b5bf bb69 a8be ce72 b5bf
000004f0: fc2f 9749 1df3 b4bf 68b3 9ad4 6b73 b4bf
00000500: da05 b85f baf3 b3bf 97a3 f5ea 0874 b3bf
00000510: 74ef 5b76 57f4 b2bf dad9 f501 a674 b2bf
00000520: acb8 d18d f4f4 b1bf b27a 021a 4375 b1bf
00000530: a449 a1a6 91f5 b0bf a7dc cf33 e075 b0bf
00000540: 5e6c 7783 5dec afbf 166f 45a1 faec aebf
00000550: 096c b3c1 97ed adbf 28c4 abe5 34ee acbf
00000560: a2cf 740e d2ee abbf 9dc6 d83d 6fef aabf
00000570: 3343 6076 0cf0 a9bf 490b a9bb a9f0 a8bf
00000580: 448b e712 47f1 a7bf e3a5 a983 e4f1 a6bf
00000590: 88e0 fd18 82f2 a5bf 72d2 35e3 1ff3 a4bf
000005a0: a183 9afa bdf3 a3bf dac1 9b83 5cf4 a2bf
000005b0: 9c22 54b5 fbf4 a1bf 56d7 bce3 9bf5 a0bf
000005c0: 87fe 751f 7bec 9fbf acf8 f000 c3ed 9dbf
000005d0: 072e fed6 11ef 9bbf 4fd2 5268 6bf0 99bf
000005e0: f0f4 409f d5f1 97bf 1d25 2cc2 59f3 95bf
000005f0: 40bf 8953 06f5 93bf e8aa a5dc f1f6 91bf
00000600: 1a1b e5b1 7df2 8fbf 0bb2 131f 41f8 8bbf
00000610: 1dc6 e266 beff 87bf 14b9 d996 aa09 84bf
00000620: 49a9 bad3 a816 80bf c662 dd10 fe4c 78bf
00000630: 3bfc 8932 5b6b 70bf 6e60 9856 deda 60bf
00000640: 0000 0000 0000 0080 dcd7 d0e4 7d59 62bf
00000650: cb51 7e35 87f2 72bf c10d c147 524c 7dbf
00000660: 29cc 77c0 431a 84bf df5d 5700 94d2 89bf
00000670: 6504 0e96 facb 8fbf 76ef ba5b a401 93bf
00000680: 2492 39d6 a63a 96bf 5f97 07dd 708f 99bf
00000690: beef 2456 77fe 9cbf e694 ab92 1d43 a0bf
000006a0: 3360 76c1 a512 a2bf bc5f 4cca 23ed a3bf
000006b0: bb3a 81b5 efd1 a5bf a826 6941 6ac0 a7bf
000006c0: 55cc f4f1 fcb7 a9bf f622 b3fa 19b8 abbf
000006d0: 7285 a50c 3cc0 adbf 01f3 9e0f e6cf afbf
000006e0: 4862 b566 51f3 b0bf 6aa0 d849 0202 b2bf
000006f0: cd3a 3f68 d213 b3bf a89e 36d6 9128 b4bf
00000700: 4832 5fd2 1340 b5bf 2f24 8793 2e5a b6bf
00000710: 9895 f117 bb76 b7bf 56f3 77f6 9495 b8bf
00000720: a506 ce31 9ab6 b9bf 58c2 140e abd9 babf
00000730: d89e d1e8 a9fe bbbf f22b 5013 7b25 bdbf
00000740: 2bda 66af 044e bebf 149d 8f8e 2e78 bfbf
00000750: b94e 9f09 f151 c0bf c792 2e0a 85e8 c0bf
00000760: 1328 6661 c97f c1bf 9320 69c8 b417 c2bf
00000770: ed9d a98d 3eb0 c2bf 5091 5c8a 5e49 c3bf
00000780: 220a b618 0de3 c3bf 2d14 e00a 437d c4bf
00000790: f2a4 9ea2 f917 c5bf 25ee 9389 2ab3 c5bf
000007a0: 4314 19ca cf4e c6bf 2e0b a0c8 e3ea c6bf
000007b0: a21e 943d 6187 c7bf 955a af2f 4324 c8bf
000007c0: 23cf bbee 84c1 c8bf e13d b80e 225f c9bf
000007d0: d864 5863 16fd c9bf 21da d9fb 5d9b cabf
000007e0: f7c3 261f f539 cbbf 0f61 4048 d8d8 cbbf
000007f0: 78a8 eb22 0478 ccbf b41d 9b88 7517 cdbf

d f8 [401]
0.07611111111111112 0.07611111111111112 0.07611111111111112 0.07611111111111112 0.07611111111111112 0.07611111111111112 0.07611111111111112 0.07611111111111112
0.07611111111111112 0.07611111111111112 0.07611111111111112 0.07611111111111112 0.07611111111111112 0.07611111111111112 0.07611111111111112 0.07611111111111112
0.07611111111111112 0.07611111111111112 0.07611111111111112 0.07611111111111112 0.07611111111111112 0.07611111111111112 0.07611111111111112 0.07611111111111112
0.07611111111111112 0.07611111111111112 0.07611111111111112 0.07611111111111112 0.07611111111111112 0.07611111111111112 0.07611111111111112 0.07611111111111112
0.07611111111111112 0.07611111111111112 0.07611111111111112 0.07611111111111112 0.07611111111111112 0.07611111111111112 0.07611111111111112 0.07611111111111112
0.07611111111111112 0.07611111111111112 0.07611111111111112 0.07611111111111112 0.07611111111111112 0.07611111111111112 0.07611111111111112 0.07611111111111112
0.07611111111111112 0.07611111111111112 0.07611111111111112 0.07611111111111112 0.07611111111111112 0.07611111111111112 0.07611111111111112 0.07611111111111112
0.07611111111111112 0.07611111111111112 0.07611111111111112 0.07611111111111112 0.07611111111111112 0.07611111111111112 0.07611111111111112 0.07611111111111112
0.07611111111111112 0.07611111111111112 0.07611111111111112 0.07611111111111112 0.07611111111111112 0.07611111111111112 0.07611111111111112 0.07611111111111112
0.07611111111111112 0.07611111111111112 0.07611111111111112 0.07611111111111112 0.07611111111111112 0.07611111111111112 0.07611111111111112 0.07611111111111112
0.07611111111111112 0.07611111111111112 0.07611111111111112 0.07611111111111112 0.07611111111111112 0.07611111111111112 0.07611111111111112 0.07611111111111112
0.07611111111111112 0.07611111111111112 0.07611111111111112 0.07611111111111112 0.07611111111111112 0.07611111111111112 0.07611111111111112 0.07611111111111112
0.07611111111111112 0.07611111111111112 0.07611111111111112 0.07611111111111112 0.07611111111111112 0.07611111111111112 0.07611111111111112 0.07611111111111112
0.07611111111111112 0.07611111111111112 0.07611111111111112 0.07611111111111112 0.07611111111111112 0.07611111111111112 0.07611111111111112 0.07611111111111112
0.07611111111111112 0.07611111111111112 0.07611111111111112 0.07611111111111112 0.07611111111111112 0.07611111111111112 0.07611111111111112 0.07611111111111112
0.07611111111111112 0.07611111111111112 0.07611111111111112 0.07611111111111112 0.07611111111111112 0.07611111111111112 0.07611111111111112 0.07611111111111112
0.07611111111111112 0.07611111111111112 0.07611111111111112 0.07611111111111112 0.07611111111111112 0.07611111111111112 0.07611111111111112 0.07611111111111112
0.07611111111111112 0.07611111111111112 0.07611111111111112 0.07611111111111112 0.07611111111111112 0.07611111111111112 0.07611111111111112 0.07611111111111112
0.07611111111111112 0.07611111111111112 0.07611111111111112 0.07611111111111112 0.07611111111111112 0.07611111111111112 0.07611111111111112 0.07611111111111112
0.07611111111111112 0.07611111111111112 0.07611111111111112 0.07611111111111112 0.07611111111111112 0.07611111111111112 0.07611111111111112 0.07611111111111112
0.07611111111111112 0.07611111111111112 0.07611111111111112 0.07611111111111112 0.07611111111111112 0.07611111111111112 0.07611111111111112 0.07611111111111112
0.07611111111111112 0.07611111111111112 0.07611111111111112 0.07611111111111112 0.07611111111111112 0.07611111111111112 0.07611111111111112 0.07611111111111112
0.07611111111111112 0.07611111111111112 0.07611111111111112 0.07611111111111112 0.07611111111111112 0.07611111111111112 0.07611111111111112 0.07611111111111112
0.07611111111111112 0.07611111111111112 0.07611111111111112 0.07611111111111112 0.07611111111111112 0.07611111111111112 0.07611111111111112 0.07611111111111112
0.07611111111111112 0.07611111111111112 0.07611111111111112 0.07611111111111112 0.07611111111111112 0.07611111111111112 0.07611111111111112 0.07611111111111112
0.07611111111111112 0.07611111111111112 0.07611111111111112 0.07611111111111112 0.07611111111111112 0.07611111111111112 0.07611111111111112 0.07611111111111112
0.07611111111111112 0.07611111111111112 0.07611111111111112 0.07611111111111112 0.07611111111111112 0.07611111111111112 0.07611111111111112 0.07611111111111112
0.07611111111111112 0.07611111111111112 0.07611111111111112 0.07611111111111112 0.07611111111111112 0.07611111111111112 0.07611111111111112 0.07611111111111112
0.07611111111111112 0.07611111111111112 0.07611111111111112 0.07611111111111112 0.07611111111111112 0.07611111111111112 0.07611111111111112 0.07611111111111112
0.07611111111111112 0.07611111111111112 0.07611111111111112 0.07611111111111112 0.07611111111111112 0.07611111111111112 0.07611111111111112 0.07611111111111112
0.07611111111111112 0.07611111111111112 0.07611111111111112 0.07611111111111112 0.07611111111111112 0.07611111111111112 0.07611111111111112 0.07611111111111112
0.07611111111111112 0.07611111111111112 0.07611111111111112 0.07611111111111112 0.07611111111111112 0.07611111111111112 0.07611111111111112 0.07611111111111112
00000000: 279e 158d 047c b33f 279e 158d 047c b33f
00000010: 279e 158d 047c b33f 279e 158d 047c b33f
00000020: 279e 158d 047c b33f 279e 158d 047c b33f
00000030: 279e 158d 047c b33f 279e 158d 047c b33f
00000040: 279e 158d 047c b33f 279e 158d 047c b33f
00000050: 279e 158d 047c b33f 279e 158d 047c b33f
00000060: 279e 158d 047c b33f 279e 158d 047c b33f
00000070: 279e 158d 047c b33f 279e 158d 047c b33f
00000080: 279e 158d 047c b33f 279e 158d 047c b33f
00000090: 279e 158d 047c b33f 279e 158d 047c b33f
000000a0: 279e 158d 047c b33f 279e 158d 047c b33f
000000b0: 279e 158d 047c b33f 279e 158d 047c b33f
000000c0: 279e 158d 047c b33f 279e 158d 047c b33f
000000d0: 279e 158d 047c b33f 279e 158d 047c b33f
000000e0: 279e 158d 047c b33f 279e 158d 047c b33f
000000f0: 279e 158d 047c b33f 279e 158d 047c b33f
00000100: 279e 158d 047c b33f 279e 158d 047c b33f
00000110: 279e 158d 047c b33f 279e 158d 047c b33f
00000120: 279e 158d 047c b33f 279e 158d 047c b33f
00000130: 279e 158d 047c b33f 279e 158d 047c b33f
00000140: 279e 158d 047c b33f 279e 158d 047c b33f
00000150: 279e 158d 047c b33f 279e 158d 047c b33f
00000160: 279e 158d 047c b33f 279e 158d 047c b33f
00000170: 279e 158d 047c b33f 279e 158d 047c b33f
00000180: 279e 158d 047c b33f 279e 158d 047c b33f
00000190: 279e 158d 047c b33f 279e 158d 047c b33f
000001a0: 279e 158d 047c b33f 279e 158d 047c b33f
000001b0: 279e 158d 047c b33f 279e 158d 047c b33f
000001c0: 279e 158d 047c b33f 279e 158d 047c b33f
000001d0: 279e 158d 047c b33f 279e 158d 047c b33f
000001e0: 279e 158d 047c b33f 279e 158d 047c b33f
000001f0: 279e 158d 047c b33f 279e 158d 047c b33f
00000200: 279e 158d 047c b33f 279e 158d 047c b33f
00000210: 279e 158d 047c b33f 279e 158d 047c b33f
00000220: 279e 158d 047c b33f 279e 158d 047c b33f
00000230: 279e 158d 047c b33f 279e 158d 047c b33f
00000240: 279e 158d 047c b33f 279e 158d 047c b33f
00000250: 279e 158d 047c b33f 279e 158d 047c b33f
00000260: 279e 158d 047c b33f 279e 158d 047c b33f
00000270: 279e 158d 047c b33f 279e 158d 047c b33f
00000280: 279e 158d 047c b33f 279e 158d 047c b33f
00000290: 279e 158d 047c b33f 279e 158d 047c b33f
000002a0: 279e 158d 047c b33f 279e 158d 047c b33f
000002b0: 279e 158d 047c b33f 279e 158d 047c b33f
000002c0: 279e 158d 047c b33f 279e 158d 047c b33f
000002d0: 279e 158d 047c b33f 279e 158d 047c b33f
000002e0: 279e 158d 047c b33f 279e 158d 047c b33f
000002f0: 279e 158d 047c b33f 279e 158d 047c b33f
00000300: 279e 158d 047c b33f 279e 158d 047c b33f
00000310: 279e 158d 047c b33f 279e 158d 047c b33f
00000320: 279e 158d 047c b33f 279e 158d 047c b33f
00000330: 279e 158d 047c b33f 279e 158d 047c b33f
00000340: 279e 158d 047c b33f 279e 158d 047c b33f
00000350: 279e 158d 047c b33f 279e 158d 047c b33f
00000360: 279e 158d 047c b33f 279e 158d 047c b33f
00000370: 279e 158d 047c b33f 279e 158d 047c b33f
00000380: 279e 158d 047c b33f 279e 158d 047c b33f
00000390: 279e 158d 047c b33f 279e 158d 047c b33f
000003a0: 279e 158d 047c b33f 279e 158d 047c b33f
000003b0: 279e 158d 047c b33f 279e 158d 047c b33f
000003c0: 279e 158d 047c b33f 279e 158d 047c b33f
000003d0: 279e 158d 047c b33f 279e 158d 047c b33f
000003e0: 279e 158d 047c b33f 279e 158d 047c b33f
000003f0: 279e 158d 047c b33f 279e 158d 047c b33f
00000400: 279e 158d 047c b33f 279e 158d 047c b33f
00000410: 279e 158d 047c b33f 279e 158d 047c b33f
00000420: 279e 158d 047c b33f 279e 158d 047c b33f
00000430: 279e 158d 047c b33f 279e 158d 047c b33f
00000440: 279e 158d 047c b33f 279e 158d 047c b33f
00000450: 279e 158d 047c b33f 279e 158d 047c b33f
00000460: 279e 158d 047c b33f 279e 158d 047c b33f
00000470: 279e 158d 047c b33f 279e 158d 047c b33f
00000480: 279e 158d 047c b33f 279e 158d 047c b33f
00000490: 279e 158d 047c b33f 279e 158d 047c b33f
000004a0: 279e 158d 047c b33f 279e 158d 047c b33f
000004b0: 279e 158d 047c b33f 279e 158d 047c b33f
000004c0: 279e 158d 047c b33f 279e 158d 047c b33f
000004d0: 279e 158d 047c b33f 279e 158d 047c b33f
000004e0: 279e 158d 047c b33f 279e 158d 047c b33f
000004f0: 279e 158d 047c b33f 279e 158d 047c b33f
00000500: 279e 158d 047c b33f 279e 158d 047c b33f
00000510: 279e 158d 047c b33f 279e 158d 047c b33f
00000520: 279e 158d 047c b33f 279e 158d 047c b33f
00000530: 279e 158d 047c b33f 279e 158d 047c b33f
00000540: 279e 158d 047c b33f 279e 158d 047c b33f
00000550: 279e 158d 047c b33f 279e 158d 047c b33f
00000560: 279e 158d 047c b33f 279e 158d 047c b33f
00000570: 279e 158d 047c b33f 279e 158d 047c b33f
00000580: 279e 158d 047c b33f 279e 158d 047c b33f
00000590: 279e 158d 047c b33f 279e 158d 047c b33f
000005a0: 279e 158d 047c b33f 279e 158d 047c b33f
000005b0: 279e 158d 047c b33f 279e 158d 047c b33f
000005c0: 279e 158d 047c b33f 279e 158d 047c b33f
000005d0: 279e 158d 047c b33f 279e 158d 047c b33f
000005e0: 279e 158d 047c b33f 279e 158d 047c b33f
000005f0: 279e 158d 047c b33f 279e 158d 047c b33f
00000600: 279e 158d 047c b33f 279e 158d 047c b33f
00000610: 279e 158d 047c b33f 279e 158d 047c b33f
00000620: 279e 158d 047c b33f 279e 158d 047c b33f
00000630: 279e 158d 047c b33f 279e 158d 047c b33f
00000640: 279e 158d 047c b33f 279e 158d 047c b33f
00000650: 279e 158d 047c b33f 279e 158d 047c b33f
00000660: 279e 158d 047c b33f 279e 158d 047c b33f
00000670: 279e 158d 047c b33f 279e 158d 047c b33f
00000680: 279e 158d 047c b33f 279e 158d 047c b33f
00000690: 279e 158d 047c b33f 279e 158d 047c b33f
000006a0: 279e 158d 047c b33f 279e 158d 047c b33f
000006b0: 279e 158d 047c b33f 279e 158d 047c b33f
000006c0: 279e 158d 047c b33f 279e 158d 047c b33f
000006d0: 279e 158d 047c b33f 279e 158d 047c b33f
000006e0: 279e 158d 047c b33f 279e 158d 047c b33f
000006f0: 279e 158d 047c b33f 279e 158d 047c b33f
00000700: 279e 158d 047c b33f 279e 158d 047c b33f
00000710: 279e 158d 047c b33f 279e 158d 047c b33f
00000720: 279e 158d 047c b33f 279e 158d 047c b33f
00000730: 279e 158d 047c b33f 279e 158d 047c b33f
00000740: 279e 158d 047c b33f 279e 158d 047c b33f
00000750: 279e 158d 047c b33f 279e 158d 047c b33f
00000760: 279e 158d 047c b33f 279e 158d 047c b33f
00000770: 279e 158d 047c b33f 279e 158d 047c b33f
00000780: 279e 158d 047c b33f 279e 158d 047c b33f
00000790: 279e 158d 047c b33f 279e 158d 047c b33f
000007a0: 279e 158d 047c b33f 279e 158d 047c b33f
000007b0: 279e 158d 047c b33f 279e 158d 047c b33f
000007c0: 279e 158d 047c b33f 279e 158d 047c b33f
000007d0: 279e 158d 047c b33f 279e 158d 047c b33f
000007e0: 279e 158d 047c b33f 279e 158d 047c b33f
000007f0: 279e 158d 047c b33f 279e 158d 047c b33f

zmax f8 []
5.0
00000000: 0000 0000 0000 1440

hz_F f8 [401]
0.04433129739345981 0.059940333857948225 0.06631163056506631 0.06896005945869646 0.07007189879084255 0.0705416849486743 0.07074118456493163 0.07082628051450357
0.0708627302652632 0.07087840707361263 0.07088517700528647 0.07088811244007463 0.07088939042334691 0.07088994908360739 0.0708901942983358 0.07089030237407
0.07089035020399813 0.07089037145932166 0.07089038094435077 0.07089038519467057 0.07089038710725523 0.07089038797146699 0.07089038836362001 0.07089038854230684
0.07089038862405417 0.07089038866159825 0.07089038867888459 0.07089038868685266 0.07089038869055425 0.07089038869223513 0.07089038869297912 0.0708903886933006
0.07089038869340164 0.07089038869341541 0.07089038869338327 0.07089038869332816 0.07089038869326846 0.07089038869319038 0.07089038869310771 0.07089038869301587
0.07089038869292401 0.07089038869284593 0.07089038869276328 0.07089038869267601 0.07089038869257956 0.07089038869248313 0.07089038869238667 0.07089038869228564
0.07089038869218002 0.07089038869207898 0.07089038869197795 0.07089038869186313 0.0708903886917529 0.0708903886916289 0.0708903886915141 0.07089038869139469
0.07089038869128907 0.07089038869115588 0.07089038869102729 0.07089038869090329 0.07089038869075173 0.07089038869062314 0.07089038869048536 0.07089038869033382
0.07089038869018456 0.07089038869003529 0.07089038868987915 0.07089038868970693 0.07089038868953701 0.07089038868936708 0.07089038868918797 0.07089038868901115
0.07089038868882057 0.07089038868863227 0.07089038868843939 0.07089038868823043 0.07089038868801917 0.07089038868780331 0.07089038868758057 0.07089038868735095
0.07089038868711443 0.07089038868687103 0.07089038868660237 0.07089038868634288 0.07089038868606963 0.07089038868579178 0.07089038868549556 0.07089038868519475
0.07089038868488017 0.07089038868455179 0.07089038868422114 0.0708903886838698 0.07089038868351158 0.0708903886831327 0.07089038868274462 0.07089038868234278
0.07089038868192946 0.07089038868148168 0.07089038868103391 0.0708903886805494 0.0708903886800511 0.07089038867952525 0.07089038867898104 0.07089038867842075
0.07089038867783519 0.07089038867720832 0.07089038867655388 0.0708903886758627 0.07089038867515315 0.07089038867439537 0.07089038867360316 0.07089038867276502
0.07089038867188555 0.07089038867095555 0.07089038866996357 0.07089038866892336 0.07089038866782114 0.07089038866665004 0.07089038866542613 0.07089038866411036
0.07089038866271194 0.07089038866122166 0.07089038865962115 0.07089038865791043 0.0708903886560803 0.07089038865412847 0.07089038865202509 0.07089038864976326
0.0708903886473223 0.07089038864468848 0.0708903886418411 0.07089038863874343 0.07089038863537939 0.07089038863171454 0.07089038862770754 0.07089038862331247
0.07089038861850867 0.07089038861319968 0.07089038860734878 0.0708903886008664 0.0708903885936561 0.07089038858562603 0.0708903885766499 0.07089038856655777
0.07089038855519811 0.07089038854234127 0.07089038852773927 0.0708903885110821 0.07089038849201844 0.07089038847007295 0.07089038844468305 0.07089038841516675
0.07089038838067901 0.0708903883401452 0.07089038829223344 0.07089038823526979 0.07089038816712327 0.07089038808506365 0.07089038798559825 0.07089038786418737
0.07089038771490204 0.07089038752997853 0.07089038729914562 0.07089038700868998 0.07089038664018629 0.07089038616866487 0.07089038556002607 0.07089038476727894
0.07089038372510367 0.07089038234190652 0.0708903804880261 0.0708903779782128 0.07089037454525621 0.07089036979983226 0.07089036316899777 0.07089035380080994
0.07089034041504572 0.07089032106698409 0.07089029276968747 0.07089025088344544 0.07089018811766967 0.0708900928806194 0.07088994651901191 0.07088971864548924
0.07088935913297933 0.07088878422776562 0.07088785215465448 0.07088631970899735 0.07088376399990869 0.0708794394821628 0.0708720132384674 0.07085906819491103
0.07083615835690109 0.07079498905095305 0.07071987131514974 0.07058075245219379 0.07031947009072516 0.06982284872876535 0.06887163716126071 0.06705113677297977
0.06362403834756694 0.06145406591643034 0.059459438038690075 0.05762486378154635 0.05593611023463456 0.054380034459880426 0.052944577341769196 0.051618730261184576
0.05039248351864177 0.04925676352474241 0.04820336408474241 0.04722487568083115 0.04631461550530364 0.04546656009768179 0.04467528175489319 0.043935889378050465
0.04324397405578629 0.04259555943090079 0.04198705672740203 0.041415224207104036 0.04087713076186889 0.040370123316312664 0.03989179770641529 0.03943997270456018
0.03901266687615491 0.03860807797288096 0.03822456459053084 0.03786062984321451 0.03751490682950434 0.037186145688772376 0.03687320206744663 0.03657502683451706
0.03629065690377768 0.036019207036401914 0.03575986251213733 0.0355118725704088 0.03527454453422095 0.03504723853985424 0.03482936280468482 0.03462036937317808
0.03441975028829438 0.03422703414167096 0.03404178296145014 0.0338635894013465 0.033692074198787926 0.033526883873656835 0.033367688642401104 0.033214180525161806
0.03306607162605253 0.03292309256897801 0.03278499107332333 0.032651530655519116 0.03252248944408056 0.03239765909701425 0.03227684381172248 0.032159859418468766
00000000: 8802 fd80 97b2 a63f d82d 43db 7fb0 ae3f
00000010: aa13 9f8c ccf9 b03f 0af6 1ad0 5da7 b13f
00000020: dadf ac61 3bf0 b13f 88fa db15 050f b23f
00000030: 59ca 2f22 181c b23f 48d2 81ce ab21 b23f
00000040: 759c fe54 0f24 b23f 83ad 5f58 1625 b23f
00000050: bd45 02ed 8725 b23f 5ff4 9a2c b925 b23f
00000060: 2c6c 809d ce25 b23f fbdf edfc d725 b23f
00000070: f351 1e1a dc25 b23f b7d8 4cea dd25 b23f
00000080: 9f68 bab7 de25 b23f 51e2 0413 df25 b23f
00000090: aac8 c13b df25 b23f 550f 034e df25 b23f
000000a0: 0ef8 3956 df25 b23f 0a2e f059 df25 b23f
000000b0: 4d5b 9f5b df25 b23f 2cd3 635c df25 b23f
000000c0: 00b5 bd5c df25 b23f b8fc e65c df25 b23f
000000d0: 64fe f95c df25 b23f 34c1 025d df25 b23f
000000e0: 1cd3 065d df25 b23f 3cac 085d df25 b23f
000000f0: a67d 095d df25 b23f 23d8 095d df25 b23f
00000100: 94f4 095d df25 b23f 74f8 095d df25 b23f
00000110: 68ef 095d df25 b23f e5df 095d df25 b23f
00000120: 17cf 095d df25 b23f 1db9 095d df25 b23f
00000130: d8a1 095d df25 b23f fe87 095d df25 b23f
00000140: 236e 095d df25 b23f 2958 095d df25 b23f
00000150: e540 095d df25 b23f 5528 095d df25 b23f
00000160: 2f0d 095d df25 b23f 0af2 085d df25 b23f
00000170: e4d6 085d df25 b23f 74ba 085d df25 b23f
00000180: b99c 085d df25 b23f 4880 085d df25 b23f
00000190: d863 085d df25 b23f 8743 085d df25 b23f
000001a0: 8024 085d df25 b23f 9901 085d df25 b23f
000001b0: 48e1 075d df25 b23f acbf 075d df25 b23f
000001c0: f1a1 075d df25 b23f 747c 075d df25 b23f
000001d0: 4258 075d df25 b23f 5b35 075d df25 b23f
000001e0: b20a 075d df25 b23f 80e6 065d df25 b23f
000001f0: b8bf 065d df25 b23f 1095 065d df25 b23f
00000200: 0d6b 065d df25 b23f 0941 065d df25 b23f
00000210: 1615 065d df25 b23f 9ce4 055d df25 b23f
00000220: c8b4 055d df25 b23f f384 055d df25 b23f
00000230: 8952 055d df25 b23f c420 055d df25 b23f
00000240: 1feb 045d df25 b23f 1fb6 045d df25 b23f
00000250: d47f 045d df25 b23f 0345 045d df25 b23f
00000260: 8c09 045d df25 b23f cacc 035d df25 b23f
00000270: 188e 035d df25 b23f 764d 035d df25 b23f
00000280: e30a 035d df25 b23f 60c6 025d df25 b23f
00000290: c17a 025d df25 b23f b731 025d df25 b23f
000002a0: cde4 015d df25 b23f 9896 015d df25 b23f
000002b0: 3743 015d df25 b23f 8bee 005d df25 b23f
000002c0: ff95 005d df25 b23f 9139 005d df25 b23f
000002d0: 7fdc ff5c df25 b23f 9b79 ff5c df25 b23f
000002e0: c614 ff5c df25 b23f 21aa fe5c df25 b23f
000002f0: e53c fe5c df25 b23f c9cb fd5c df25 b23f
00000300: 7257 fd5c df25 b23f 68d9 fc5c df25 b23f
00000310: 5f5b fc5c df25 b23f fed2 fb5c df25 b23f
00000320: bc46 fb5c df25 b23f b9b2 fa5c df25 b23f
00000330: 8a19 fa5c df25 b23f d57b f95c df25 b23f
00000340: 03d7 f85c df25 b23f 9026 f85c df25 b23f
00000350: 5b6e f75c df25 b23f ceab f65c df25 b23f
00000360: 16e4 f55c df25 b23f ca0e f55c df25 b23f
00000370: cd2f f45c df25 b23f e343 f35c df25 b23f
00000380: 564c f25c df25 b23f 9146 f15c df25 b23f
00000390: 592f f05c df25 b23f 8e0a ef5c df25 b23f
000003a0: 4fd4 ed5c df25 b23f ac8a ec5c df25 b23f
000003b0: 2c32 eb5c df25 b23f d1bf e95c df25 b23f
000003c0: 3236 e85c df25 b23f b892 e65c df25 b23f
000003d0: 37d0 e45c df25 b23f b1ee e25c df25 b23f
000003e0: 8eeb e05c df25 b23f 2ac6 de5c df25 b23f
000003f0: 1d76 dc5c df25 b23f 77f9 d95c df25 b23f
00000400: 664a d75c df25 b23f 0b65 d45c df25 b23f
00000410: 9443 d15c df25 b23f a9db cd5c df25 b23f
00000420: c428 ca5c df25 b23f 3421 c65c df25 b23f
00000430: 55b9 c15c df25 b23f 3be4 bc5c df25 b23f
00000440: 159c b75c df25 b23f bcc5 b15c df25 b23f
00000450: da56 ab5c df25 b23f 3936 a45c df25 b23f
00000460: b448 9c5c df25 b23f 7174 935c df25 b23f
00000470: e295 895c df25 b23f 347d 7e5c df25 b23f
00000480: beff 715c df25 b23f dddc 635c df25 b23f
00000490: c4ce 535c df25 b23f 317e 415c df25 b23f
000004a0: 3f88 2c5c df25 b23f 2467 145c df25 b23f
000004b0: 857c f85b df25 b23f 6b08 d85b df25 b23f
000004c0: fc1c b25b df25 b23f bb8b 855b df25 b23f
000004d0: c5dd 505b df25 b23f ed3b 125b df25 b23f
000004e0: 634e c75a df25 b23f a814 6d5a df25 b23f
000004f0: a3b7 ff59 df25 b23f 8339 7a59 df25 b23f
00000500: 6d15 d658 df25 b23f 16c2 0a58 df25 b23f
00000510: 66f4 0c57 df25 b23f 6798 cd55 df25 b23f
00000520: d66b 3854 df25 b23f 5bfa 3152 df25 b23f
00000530: c3c5 944f df25 b23f 4823 2d4c df25 b23f
00000540: 0641 b347 df25 b23f a369 c241 df25 b23f
00000550: b00c cc39 df25 b23f 0d7b 042f df25 b23f
00000560: ace7 4520 df25 b23f 9441 e40b df25 b23f
00000570: 9893 69ef de25 b23f 2425 2dc7 de25 b23f
00000580: 7857 af8d de25 b23f 46ec 953a de25 b23f
00000590: 5eb7 0cc1 dd25 b23f 5e4e 260d dd25 b23f
000005a0: 189b 92ff db25 b23f 965c 8866 da25 b23f
000005b0: 8712 eaf1 d725 b23f 0a7c 341f d425 b23f
000005c0: b04c 1c17 ce25 b23f 0c55 e971 c425 b23f
000005d0: cc1b b0ce b425 b23f 254a e218 9b25 b23f
000005e0: ef6d 3238 7025 b23f 20e2 88aa 2725 b23f
000005f0: ea96 0f13 ab24 b23f 5ead 85e4 d123 b23f
00000600: 1365 8487 5122 b23f 28cc b1d2 9e1f b23f
00000610: 5dd4 798e b21a b23f d35d 8287 9411 b23f
00000620: 89cc 4ff0 7400 b23f e2b8 cd03 e9df b13f
00000630: 9cc6 3a55 92a1 b13f 7e7d 9967 432a b13f
00000640: 4a37 f13b aa49 b03f b274 a246 e876 af3f
00000650: f721 a1ab 7771 ae3f f7a2 c192 0181 ad3f
00000660: e614 3f68 a8a3 ac3f 07ff 1e2b b3d7 ab3f
00000670: 05ec 5d38 8d1b ab3f 2069 aa2c c56d aa3f
00000680: 9e83 5a29 0bcd a93f 5222 e4b8 2e38 a93f
00000690: 4930 9a80 1cae a83f 25b3 36e1 db2d a83f
000006a0: a91c d89d 8cb6 a73f 3fc1 5c99 6447 a73f
000006b0: 1c59 27b4 addf a63f 6db1 ffcf c37e a63f
000006c0: 5129 a3fc 1224 a63f 54cc 6bcd 15cf a53f
000006d0: f5bc ffd6 537f a53f 6952 0d53 6034 a53f
000006e0: f996 8de7 d8ed a43f d612 c28e 64ab a43f
000006f0: e32e 0e9d b26c a43f f8a9 d7e1 7931 a43f
00000700: 91c4 b9e0 77f9 a33f b887 8220 70c4 a33f
00000710: 45ed a38d 2b92 a33f 2513 f7ed 7762 a33f
00000720: 54f2 e363 2735 a33f 88f4 31ff 0f0a a33f
00000730: b5fb f459 0be1 a23f 9e8a 3540 f6b9 a23f
00000740: 76aa 1a61 b094 a23f 0d97 7f08 1c71 a23f
00000750: 3b88 ffdf 1d4f a23f 3487 9eb6 9c2e a23f
00000760: aec1 4f4e 810f a23f 8e04 b02e b6f1 a13f
00000770: 4c8f 5f7c 27d5 a13f 376b 77d4 c2b9 a13f
00000780: 8340 a62b 779f a13f 531b 8eb0 3486 a13f
00000790: c5ae 08b1 ec6d a13f 7206 0282 9156 a13f
000007a0: 0deb a269 1640 a13f da5c 8c8b 6f2a a13f
000007b0: 8ba8 ecd6 9115 a13f e3ee 3cf6 7201 a13f
000007c0: 0a70 7b40 09ee a03f b7df bbab 4bdb a03f
000007d0: 804d ebc0 31c9 a03f 07db a890 b3b7 a03f
000007e0: 43fa 17a9 c9a6 a03f b8c7 930c 6d96 a03f
000007f0: 22cc 2d29 9786 a03f ef7e e4d0 4177 a03f

Vz_F f8 [401]
0.6155431027529801 0.8570406186991875 0.9556150778995232 0.9965906371806454 1.0137926238282802 1.0210609898418 1.0241475776570041 1.025464152224913
1.0260280899340302 1.0262706359927165 1.026375377991755 1.0264207940051762 1.0264405665123633 1.0264492099071987 1.026453003783132 1.0264546758928361
1.0264554159006423 1.0264557447555234 1.026455891504554 1.0264559572640053 1.0264559868548417 1.0264560002256218 1.0264560062928751 1.0264560090574548
1.026456010322221 1.0264560109030896 1.0264560111705379 1.026456011293817 1.0264560113510868 1.0264560113770926 1.0264560113886034 1.0264560113935772
1.0264560113951404 1.0264560113953536 1.0264560113948562 1.0264560113940036 1.0264560113930798 1.026456011391872 1.026456011390593 1.0264560113891719
1.0264560113877508 1.0264560113865429 1.0264560113852639 1.0264560113839138 1.0264560113824217 1.0264560113809296 1.0264560113794374 1.0264560113778742
1.02645601137624 1.0264560113746768 1.0264560113731136 1.0264560113713372 1.026456011369632 1.0264560113677135 1.0264560113659371 1.0264560113640897
1.0264560113624555 1.0264560113603949 1.0264560113584054 1.026456011356487 1.026456011354142 1.0264560113521526 1.026456011350021 1.0264560113476762
1.026456011345367 1.0264560113430576 1.0264560113406418 1.0264560113379773 1.0264560113353483 1.0264560113327192 1.0264560113299481 1.0264560113272125
1.0264560113242638 1.0264560113213506 1.0264560113183663 1.0264560113151333 1.0264560113118648 1.0264560113085253 1.0264560113050791 1.0264560113015264
1.0264560112978671 1.0264560112941012 1.0264560112899446 1.02645601128593 1.0264560112817023 1.0264560112774035 1.0264560112728205 1.0264560112681664
1.0264560112632992 1.0264560112582188 1.026456011253103 1.0264560112476673 1.026456011242125 1.026456011236263 1.026456011230259 1.0264560112240417
1.0264560112176468 1.026456011210719 1.0264560112037913 1.026456011196295 1.0264560111885856 1.02645601118045 1.02645601117203 1.0264560111633614
1.026456011154302 1.026456011144603 1.0264560111344778 1.0264560111237842 1.0264560111128063 1.0264560111010823 1.0264560110888254 1.026456011075858
1.0264560110622512 1.0264560110478627 1.026456011032515 1.0264560110164211 1.0264560109993681 1.0264560109812493 1.0264560109623133 1.0264560109419563
1.0264560109203202 1.0264560108972631 1.0264560108725007 1.026456010846033 1.0264560108177179 1.0264560107875198 1.026456010754977 1.0264560107199827
1.0264560106822174 1.0264560106414677 1.026456010597414 1.026456010549488 1.0264560104974407 1.0264560104407394 1.0264560103787446 1.0264560103107456
1.0264560102364229 1.0264560101542841 1.026456010063761 1.0264560099634679 1.0264560098519127 1.0264560097276743 1.0264560095887987 1.026456009432657
1.0264560092569042 1.0264560090579877 1.0264560088320707 1.0264560085743568 1.0264560082794105 1.0264560079398777 1.0264560075470541 1.0264560070903883
1.0264560065568062 1.0264560059296812 1.0264560051884075 1.0264560043070858 1.026456003252747 1.0264560019831492 1.0264560004442558 1.0264559985658295
1.0264559962561393 1.0264559933950679 1.0264559898237025 1.026455985329875 1.0264559796285155 1.0264559723333022 1.026455962916657 1.0264559506515525
1.0264559345273838 1.0264559131270445 1.0264558844444593 1.026455845613512 1.0264557925000162 1.026455719080488 1.0264556164905514 1.026455471549248
1.0264552644494174 1.0264549651030208 1.0264545272972114 1.0264538792480238 1.026452908158042 1.0264514346839348 1.0264491702286804 1.026445644649776
1.026440082398814 1.0264311876677823 1.026416766960807 1.0263930575012026 1.0263535164700954 1.0262866090542744 1.0261717128267378 1.0259714316710244
1.0256169787243152 1.0249800217191662 1.0238178265611708 1.0216654284998583 1.0176229598055997 1.0099394089629854 0.9952225985298568 0.967056457554456
0.914033597461632 0.8804605480947814 0.8496003679159969 0.8212164809972222 0.7950886807609692 0.7710136242972254 0.7488047372169859 0.7282916980416232
0.7093196402253099 0.6917481803878545 0.6754503551737301 0.6603115271324 0.6462283022161941 0.6331074875655673 0.6208651076697791 0.6094254891690909
0.598720418939287 0.5886883761819206 0.5792738366185191 0.5704266452173457 0.562101452905388 0.5542572122345035 0.5468567268255242 0.5398662494928175
0.5332551241780692 0.5269954671299004 0.5210618831203817 0.515431212858104 0.5100823081254902 0.504995831519004 0.5001540780031277 0.4955408157922925
0.49114114435584 0.48694136759035445 0.4829288804309684 0.47909206737442034 0.4754202115661421 0.4719034132599731 0.4685325166035348 0.4652990438217408
0.46219513598213524 0.45921349962052105 0.4563473585905342 0.45359041057388083 0.4509367877535908 0.44838102120975165 0.44591800864736797 0.4435429851105077
0.44125149637538996 0.43903937474992105 0.4369027170372597 0.4348378644468909 0.43284138426132657 0.4309100530866061 0.4290408415338831 0.4272309001938446
00000000: 0047 f372 87b2 e33f 0003 9572 e06c eb3f
00000010: 0093 6412 6694 ee3f 001a 460c 12e4 ef3f
00000020: c04b 449d 7e38 f03f 8078 690c 4456 f03f
00000030: 0008 0592 e862 f03f 006c 5019 4d68 f03f
00000040: 40b4 306e 9c6a f03f 00f1 26c2 9a6b f03f
00000050: c04e 9e96 086c f03f 40fc e235 386c f03f
00000060: 4055 87f1 4c6c f03f 40e7 b801 566c f03f
00000070: 8012 22fc 596c f03f 8093 fcbc 5b6c f03f
00000080: 8086 a183 5c6c f03f c042 e8db 5c6c f03f
00000090: 00c7 4c03 5d6c f03f 80bb f314 5d6c f03f
000000a0: 0033 e51c 5d6c f03f 4008 7c20 5d6c f03f
000000b0: 80f8 1c22 5d6c f03f 80f3 da22 5d6c f03f
000000c0: 80dd 3123 5d6c f03f 40c8 5923 5d6c f03f
000000d0: 4029 6c23 5d6c f03f 00a2 7423 5d6c f03f
000000e0: 8091 7823 5d6c f03f 005b 7a23 5d6c f03f
000000f0: 8025 7b23 5d6c f03f 007d 7b23 5d6c f03f
00000100: 8098 7b23 5d6c f03f 409c 7b23 5d6c f03f
00000110: 8093 7b23 5d6c f03f 8084 7b23 5d6c f03f
00000120: 4074 7b23 5d6c f03f 005f 7b23 5d6c f03f
00000130: 8048 7b23 5d6c f03f 802f 7b23 5d6c f03f
00000140: 8016 7b23 5d6c f03f 4001 7b23 5d6c f03f
00000150: c0ea 7a23 5d6c f03f 00d3 7a23 5d6c f03f
00000160: c0b8 7a23 5d6c f03f 809e 7a23 5d6c f03f
00000170: 4084 7a23 5d6c f03f c068 7a23 5d6c f03f
00000180: 004c 7a23 5d6c f03f 8030 7a23 5d6c f03f
00000190: 0015 7a23 5d6c f03f c0f5 7923 5d6c f03f
000001a0: c0d7 7923 5d6c f03f 00b6 7923 5d6c f03f
000001b0: c096 7923 5d6c f03f 4076 7923 5d6c f03f
000001c0: 8059 7923 5d6c f03f 4035 7923 5d6c f03f
000001d0: 4012 7923 5d6c f03f 80f0 7823 5d6c f03f
000001e0: 40c7 7823 5d6c f03f 40a4 7823 5d6c f03f
000001f0: c07e 7823 5d6c f03f 8055 7823 5d6c f03f
00000200: e02c 7823 5d6c f03f 4004 7823 5d6c f03f
00000210: c0d9 7723 5d6c f03f e0aa 7723 5d6c f03f
00000220: a07c 7723 5d6c f03f 604e 7723 5d6c f03f
00000230: a01d 7723 5d6c f03f 80ed 7623 5d6c f03f
00000240: a0b9 7623 5d6c f03f 6086 7623 5d6c f03f
00000250: e051 7623 5d6c f03f 0019 7623 5d6c f03f
00000260: 80df 7523 5d6c f03f c0a4 7523 5d6c f03f
00000270: 2068 7523 5d6c f03f a029 7523 5d6c f03f
00000280: 40e9 7423 5d6c f03f 00a7 7423 5d6c f03f
00000290: e05d 7423 5d6c f03f 4017 7423 5d6c f03f
000002a0: e0cc 7323 5d6c f03f 4081 7323 5d6c f03f
000002b0: a030 7323 5d6c f03f c0de 7223 5d6c f03f
000002c0: 2089 7223 5d6c f03f c02f 7223 5d6c f03f
000002d0: c0d5 7123 5d6c f03f 2076 7123 5d6c f03f
000002e0: a014 7123 5d6c f03f 80ad 7023 5d6c f03f
000002f0: e043 7023 5d6c f03f 80d6 6f23 5d6c f03f
00000300: 0066 6f23 5d6c f03f 20ec 6e23 5d6c f03f
00000310: 4072 6e23 5d6c f03f 60ee 6d23 5d6c f03f
00000320: c066 6d23 5d6c f03f a0d7 6c23 5d6c f03f
00000330: 8043 6c23 5d6c f03f 00ab 6b23 5d6c f03f
00000340: a00b 6b23 5d6c f03f 0061 6a23 5d6c f03f
00000350: e0ae 6923 5d6c f03f c0f2 6823 5d6c f03f
00000360: a031 6823 5d6c f03f 6063 6723 5d6c f03f
00000370: c08b 6623 5d6c f03f a0a7 6523 5d6c f03f
00000380: 40b8 6423 5d6c f03f 20bb 6323 5d6c f03f
00000390: 20ad 6223 5d6c f03f 0092 6123 5d6c f03f
000003a0: 0066 6023 5d6c f03f 4027 5f23 5d6c f03f
000003b0: 20da 5d23 5d6c f03f 0074 5c23 5d6c f03f
000003c0: 60f7 5a23 5d6c f03f c061 5923 5d6c f03f
000003d0: 20ae 5723 5d6c f03f 80dc 5523 5d6c f03f
000003e0: 60ea 5323 5d6c f03f 20d7 5123 5d6c f03f
000003f0: a09a 4f23 5d6c f03f 0033 4d23 5d6c f03f
00000400: a09a 4a23 5d6c f03f c0cd 4723 5d6c f03f
00000410: c0c6 4423 5d6c f03f a07b 4123 5d6c f03f
00000420: 00e8 3d23 5d6c f03f 8002 3a23 5d6c f03f
00000430: e0bf 3523 5d6c f03f a013 3123 5d6c f03f
00000440: 20f8 2b23 5d6c f03f 2053 2623 5d6c f03f
00000450: a01a 2023 5d6c f03f 4036 1923 5d6c f03f
00000460: c08b 1123 5d6c f03f 2002 0923 5d6c f03f
00000470: 0077 ff22 5d6c f03f 20bc f422 5d6c f03f
00000480: 40a8 e822 5d6c f03f e0fc da22 5d6c f03f
00000490: 8076 cb22 5d6c f03f c0c0 b922 5d6c f03f
000004a0: 007c a522 5d6c f03f e026 8e22 5d6c f03f
000004b0: 4028 7322 5d6c f03f 80c6 5322 5d6c f03f
000004c0: a01b 2f22 5d6c f03f 2003 0422 5d6c f03f
000004d0: 8012 d121 5d6c f03f 2082 9421 5d6c f03f
000004e0: 000e 4c21 5d6c f03f 00cf f420 5d6c f03f
000004f0: 800e 8b20 5d6c f03f e0f8 0920 5d6c f03f
00000500: 6040 6b1f 5d6c f03f e0a3 a61e 5d6c f03f
00000510: c037 b11d 5d6c f03f 8067 7c1c 5d6c f03f
00000520: 209c f41a 5d6c f03f 6049 ff18 5d6c f03f
00000530: 002e 7816 5d6c f03f 0054 2d13 5d6c f03f
00000540: a048 d90e 5d6c f03f e0a9 1a09 5d6c f03f
00000550: 809c 6701 5d6c f03f 402b fbf6 5c6c f03f
00000560: c03c b9e8 5c6c f03f c0e2 03d5 5c6c f03f
00000570: 80f5 79b9 5c6c f03f 20ab 9192 5c6c f03f
00000580: 60e0 f95a 5c6c f03f e0f2 9e0a 5c6c f03f
00000590: a029 1995 5b6c f03f c08f 23e7 5a6c f03f
000005a0: 20c4 76e2 596c f03f 8065 ee56 586c f03f
000005b0: 6037 12f7 556c f03f 6047 ae44 526c f03f
000005c0: a04d 936f 4c6c f03f 800a ea1b 436c f03f
000005d0: 809a e2fc 336c f03f 20f2 6c20 1b6c f03f
000005e0: 80fa 35aa f16b f03f a05f e381 ab6b f03f
000005f0: 00bd aa07 336b f03f 8084 1a05 616a f03f
00000600: 007e 5d59 ed68 f03f 2065 8573 5166 f03f
00000610: c045 22cd 8e61 f03f 80c5 2dd9 bd58 f03f
00000620: 6061 4003 2f48 f03f 6000 c739 b628 f03f
00000630: c0a0 1d10 ddd8 ef3f c09f 5262 20f2 ee3f
00000640: c05f 1163 c33f ed3f c087 6f99 bb2c ec3f
00000650: 00cd 5b1c ed2f eb3f 8037 1ac9 6747 ea3f
00000660: 8038 29d1 5d71 e93f 8010 a4c3 24ac e83f
00000670: 80fa 2d5a 35f6 e73f c02f 2164 2a4e e73f
00000680: c0b3 251a bfb2 e63f c0aa 7a14 cd22 e63f
00000690: 405e 3110 4a9d e53f 4093 c6a3 4521 e53f
000006a0: c094 f8f9 e6ad e43f 804c 3ea2 6a42 e43f
000006b0: 406a 9580 20de e33f c08f 2ae2 6980 e33f
000006c0: 4055 59b9 b728 e33f 0093 6701 89d6 e23f
000006d0: 408f f648 6989 e23f 4037 3f61 ef40 e23f
000006e0: 4068 a82f bcfc e13f 80d1 039f 79bc e13f
000006f0: 0006 aaad d97f e13f 8025 b995 9546 e13f
00000700: 809d d80c 6d10 e13f 40d2 0e99 25dd e03f
00000710: 0037 66f8 89ac e03f 8005 5299 697e e03f
00000720: 8059 f521 9852 e03f c0b1 9f04 ed28 e03f
00000730: c080 ff1f 4301 e03f c04e 6ad3 f0b6 df3f
00000740: 409d 2e44 db6e df3f 80af 3720 0c2a df3f
00000750: 80ac ef88 4ee8 de3f c05a 49c6 71a9 de3f
00000760: c02c 22e5 486d de3f 80a1 b45f aa33 de3f
00000770: 402f fbce 6ffc dd3f c0c3 04a4 75c7 dd3f
00000780: 8077 5ae8 9a94 dd3f 401e b004 c163 dd3f
00000790: 00ca 308d cb34 dd3f 006b cc12 a007 dd3f
000007a0: 00c2 fdf8 25dc dc3f c08c 8f4f 46b2 dc3f
000007b0: 00a0 f5af eb89 dc3f c0de da1d 0263 dc3f
000007c0: 4093 8fea 763d dc3f c042 0d9b 3819 dc3f
000007d0: 4059 4dd0 36f6 db3f 0029 b731 62d4 db3f
000007e0: 407f 7059 acb3 db3f 0093 61c2 0794 db3f
000007f0: 8053 c2b7 6775 db3f c015 0b46 c057 db3f
