onecap_model_with_structure_ambiguity/output/upper_triangular_four_ambiguous_parameters/Delta_10.0_distorted_0/logadjustment_1_boundary_0/zmax_5.0_zscale_2.0/delta_0.015/q_0.3_gamma_4.0_rho_1.0/model.npz (npz, 126264 bytes, 58 tensors)

clowerlim f8 []
0.0001
00000000: 2d43 1ceb e236 1a3f

zmin f8 []
-5.0
00000000: 0000 0000 0000 14c0

Delta f8 []
10.0
00000000: 0000 0000 0000 2440

s1_F f8 [401]
-0.724640446684136 -0.721042275830878 -0.7174440333380543 -0.7138457841408079 -0.7102475635501321 -0.7066493910176921 -0.703051277482531 -0.6994532293091327
-0.6958552503991695 -0.6922573433290157 -0.68865950996445 -0.6850617517932173 -0.681464070105005 -0.6778664660910405 -0.6742689408979422 -0.6706714956569496
-0.6670741315009504 -0.6634768495740005 -0.6598796510357773 -0.6562825370664128 -0.6526855088676891 -0.6490885676643178 -0.645491714705444 -0.6418949512652913
-0.6382982786444499 -0.634701698170092 -0.6311052111973228 -0.6275088191093032 -0.6239125233184255 -0.6203163252674907 -0.61672022642963 -0.6131242283103421
-0.6095283324468652 -0.6059325404105682 -0.6023368538069495 -0.5987412742775513 -0.5951458034996825 -0.5915504431886703 -0.5879551950987285 -0.5843600610229532
-0.5807650427961056 -0.5771701422949361 -0.5735753614398454 -0.5699807021957339 -0.566386166573769 -0.5627917566322923 -0.5591974744791057 -0.5556033222722866
-0.552009302222227 -0.5484154165929085 -0.5448216677037192 -0.5412280579311844 -0.5376345897110247 -0.5340412655401113 -0.5304480879781723 -0.5268550596494281
-0.5232621832462239 -0.5196694615296 -0.5160768973324455 -0.5124844935625574 -0.5088922532036809 -0.5053001793191576 -0.5017082750546931 -0.4981165436405697
-0.4945249883958908 -0.49093361272992625 -0.4873424201468127 -0.48375141424853546 -0.4801605987385605 -0.4765699774249997 -0.47297955422558413 -0.46938933317052733
-0.46579931840749356 -0.46220951420585915 -0.45861992496191273 -0.4550305552026387 -0.451441409591828 -0.44785249293452023 -0.4442638101835769 -0.44067536644512906
-0.4370871669847732 -0.4334992172338752 -0.429911522796884 -0.42632408945774375 -0.4227369231879302 -0.41915003015462005 -0.415563416728746 -0.41197708949333095
-0.4083910552530099 -0.4048053210442051 -0.40121989414496984 -0.3976347820857343 -0.3940499926608551 -0.39046553394031586 -0.38688141428315537 -0.3832976423501956
-0.3797142271186715 -0.37613117789695494 -0.372548504340748 -0.3689662164694799 -0.36538432468473536 -0.36180283978869154 -0.3582217730046627 -0.3546411359977671
-0.3510609408977436 -0.34748120032372504 -0.34390192740887177 -0.34032313582776297 -0.3367448398260765 -0.3331670542506645 -0.3295897945825874 -0.32601307697280013
-0.32243691827898147 -0.3188613361063987 -0.31528634885006623 -0.31171197574086656 -0.308138236895137 -0.3045651533666332 -0.3009927472037077 -0.29742104150945115
-0.2938500605072434 -0.29027982961071763 -0.28671037549924006 -0.2831417261991823 -0.2795739111716376 -0.27600696140686487 -0.272440909526355 -0.2688757898937732
-0.26531163873372293 -0.26174849426187663 -0.25818639682494493 -0.25462538905328397 -0.25106551602605925 -0.24750682545182295 -0.24394936786412721 -0.24039319683534371
-0.23683836920979812 -0.23328494535820749 -0.22973298945645415 -0.22618256979001772 -0.22263375908860536 -0.21908663489255195 -0.21554127995557354 -0.21199778268804134
-0.20845623764498616 -0.2049167460642637 -0.20137941646051696 -0.19784436528216387 -0.1943117176381701 -0.1907816081039423 -0.1872541816152581 -0.18372959446205914
-0.180208015393684 -0.1766896268504599 -0.17317462633805952 -0.1696632279621358 -0.16615566414572408 -0.1626521875523686 -0.1591530732437699 -0.1556586211029804
-0.1521691585602987 -0.14868504366323082 -0.14520666853977243 -0.14173446330999728 -0.13826890051138777 -0.1348105001129436 -0.13135983520469394 -0.12791753846582815
-0.12448430953023859 -0.12106092339151574 -0.1176482400151525 -0.11424721535955831 -0.11085891404936361 -0.10748452399990212 -0.10412537336352114 -0.10078295026620192
-0.09745892593576667 -0.09415518200918749 -0.09087384307146083 -0.08761731586013659 -0.08438833712986812 -0.08119003300212493 -0.07802599387088537 -0.07490037082152423
-0.07181800239599527 -0.06878458494713752 -0.06580690661272073 -0.06289317539217307 -0.06005348785782519 -0.05730050945007868 -0.05465047375844401 -0.05212466068722926
-0.049751583960052075 -0.047570200393322375 -0.04563451609879781 -0.04401992622138354 -0.04283132795347534 -0.042212331593938245 -0.04235403508918574 -0.04350271568640502
-0.04597366166311748 -0.049052769726656294 -0.053444247775810555 -0.05917067006374324 -0.06619236614240599 -0.07442825220356719 -0.0837767337441507 -0.09413086970809406
-0.10538724081825751 -0.1174502174628346 -0.13023348059151515 -0.14366010755392117 -0.15766199447513615 -0.17217902370993726 -0.18715817717669797 -0.20255268711243568
-0.21832126119303538 -0.234427392751086 -0.25083875479422707 -0.26752667144441394 -0.28446565866157447 -0.3016330259092391 -0.3190085309079765 -0.3365740803774949
-0.35431347048961825 -0.37221216155588277 -0.3902570822080909 -0.4084364589813562 -0.42673966778844313 -0.4451571042703162 -0.46368007043999765 -0.48230067540482774
-0.5010117482685629 -0.5198067615881157 -0.5386797639868073 -0.5576253207250077 -0.5766384611947343 -0.5957146324557627 -0.6148496580408123 -0.6340397013740454
-0.6532812332305901 -0.6725710027398231 -0.6919060115081208 -0.7112834904847768 -0.730700879249238 -0.7501558074364698 -0.7696460780552432 -0.789169652482748
-0.808724636948029 -0.8283092703378964 -0.8479219131828136 -0.867561037692651 -0.8872252187295407 -0.9069131256213484 -0.9266235147260548 -0.9463552226699783
00000000: 11c0 7b29 4130 e7bf d943 3740 c712 e7bf
00000010: 7eb6 7c30 4df5 e6bf 3cb6 281d d3d7 e6bf
00000020: 335e 3019 59ba e6bf 0419 052f df9c e6bf
00000030: 0c5a 8664 657f e6bf a8db 1ebd eb61 e6bf
00000040: bedb e63a 7244 e6bf 6972 40df f826 e6bf
00000050: eb0d 2cab 7f09 e6bf a127 769f 06ec e5bf
00000060: 6400 d0bc 8dce e5bf ca50 dd03 15b1 e5bf
00000070: dfaf 3b75 9c93 e5bf 9797 8611 2476 e5bf
00000080: e3bb 59d9 ab58 e5bf a759 52cd 333b e5bf
00000090: 67d3 0fee bb1d e5bf 595b 343c 4400 e5bf
000000a0: 6e1d 65b8 cce2 e4bf 5d6c 4a63 55c5 e4bf
000000b0: 88f6 8f3d dea7 e4bf b1dc e447 678a e4bf
000000c0: 4bdf fb82 f06c e4bf 0f66 8bef 794f e4bf
000000d0: 82af 4d8e 0332 e4bf 4cd5 0060 8d14 e4bf
000000e0: 8ef5 6665 17f7 e3bf 555c 469f a1d9 e3bf
000000f0: d380 690e 2cbc e3bf 0f4d 9fb3 b69e e3bf
00000100: cc07 bb8f 4181 e3bf aaa8 94a3 cc63 e3bf
00000110: 1dd8 08f0 5746 e3bf c832 f975 e328 e3bf
00000120: b93f 4c36 6f0b e3bf a7bf ed31 fbed e2bf
00000130: 7acb ce69 87d0 e2bf 29d4 e5de 13b3 e2bf
00000140: 9f04 2f92 a095 e2bf 254d ac84 2d78 e2bf
00000150: d39d 65b7 ba5a e2bf 7204 692b 483d e2bf
00000160: abea cae1 d51f e2bf f535 a6db 6302 e2bf
00000170: fe97 1c1a f2e4 e1bf 5fab 569e 80c7 e1bf
00000180: 5a3b 8469 0faa e1bf b470 dc7c 9e8c e1bf
00000190: a411 9ed9 2d6f e1bf b7be 0f81 bd51 e1bf
000001a0: 393b 8074 4d34 e1bf 03b2 46b5 dd16 e1bf
000001b0: 82f1 c244 6ef9 e0bf 42a5 5d24 ffdb e0bf
000001c0: bcd5 8855 90be e0bf 6afc bfd9 21a1 e0bf
000001d0: b772 88b2 b383 e0bf a6dd 71e1 4566 e0bf
000001e0: 6b52 1668 d848 e0bf c6d6 1a48 6b2b e0bf
000001f0: 64c2 2f83 fe0d e0bf 7419 2236 24e1 dfbf
00000200: b3c4 0d23 4ca6 dfbf 8da8 cbd0 746b dfbf
00000210: b6fa 1e43 9e30 dfbf 5bd6 e57d c8f5 debf
00000220: bd3b 1a85 f3ba debf e9ee d25c 1f80 debf
00000230: b0d5 4409 4c45 debf 22c1 c38e 790a debf
00000240: 2ccb c3f1 a7cf ddbf 7582 da36 d794 ddbf
00000250: 4c58 c062 075a ddbf e6aa 517a 381f ddbf
00000260: 6073 9082 6ae4 dcbf 547e a580 9da9 dcbf
00000270: 673a e279 d16e dcbf a037 c273 0634 dcbf
00000280: 69db ec73 3cf9 dbbf 281c 3780 73be dbbf
00000290: e583 a59e ab83 dbbf 83f3 6dd5 e448 dbbf
000002a0: 42d8 f92a 1f0e dbbf 9c6a e8a5 5ad3 dabf
000002b0: 1be5 104d 9798 dabf cbce 8427 d55d dabf
000002c0: 4c99 923c 1423 dabf d06c c893 54e8 d9bf
000002d0: d0dc f634 96ad d9bf 35dc 3328 d972 d9bf
000002e0: 17ea dd75 1d38 d9bf 1149 9f26 63fd d8bf
000002f0: 34b0 7143 aac2 d8bf aaca a1d5 f287 d8bf
00000300: 333d d3e6 3c4d d8bf 40b2 0481 8812 d8bf
00000310: 714d 94ae d5d7 d7bf 6e2d 447a 249d d7bf
00000320: aa7c 3fef 7462 d7bf ca82 1f19 c727 d7bf
00000330: 554a f103 1bed d6bf 054f 3bbc 70b2 d6bf
00000340: 57c3 034f c877 d6bf d35f d7c9 213d d6bf
00000350: 7928 d03a 7d02 d6bf 40f4 9cb0 dac7 d5bf
00000360: 9e95 893a 3a8d d5bf ea1e 87e8 9b52 d5bf
00000370: ecf6 34cb ff17 d5bf 0ea8 eaf3 65dd d4bf
00000380: 0000 c274 cea2 d4bf 4f4b a260 3968 d4bf
00000390: 0aec 4bcb a62d d4bf 3f07 65c9 16f3 d3bf
000003a0: 5226 8770 89b8 d3bf 9d7f 4dd7 fe7d d3bf
000003b0: 00ae 6415 7743 d3bf f438 9b43 f208 d3bf
000003c0: 4c99 f37b 70ce d2bf 7c74 b7d9 f193 d2bf
000003d0: 025c 8c79 7659 d2bf 7224 8a79 fe1e d2bf
000003e0: ed01 53f9 89e4 d1bf 0e7e 2d1a 19aa d1bf
000003f0: 2e86 20ff ab6f d1bf 43ea 11cd 4235 d1bf
00000400: 2902 e7aa ddfa d0bf c072 a8c1 7cc0 d0bf
00000410: 64a7 a83c 2086 d0bf b5c4 ad49 c84b d0bf
00000420: f70e 1f19 7511 d0bf 221a 6dbc 4dae cfbf
00000430: 3b9b 6d9e bb39 cfbf 425a 4b4b 34c5 cebf
00000440: d6d6 183d b850 cebf 0e38 7bf5 47dc cdbf
00000450: 688e 43fe e367 cdbf c830 16ea 8cf3 ccbf
00000460: 7fb3 2255 437f ccbf 8756 ede5 070b ccbf
00000470: 0670 2c4e db96 cbbf 931d bc4b be22 cbbf
00000480: ba8c aaa9 b1ae cabf 04d7 5f41 b63a cabf
00000490: c18a e4fb ccc6 c9bf ccd9 4ad3 f652 c9bf
000004a0: bf25 3ed4 34df c8bf 540b be1f 886b c8bf
000004b0: dcd3 09ed f1f7 c7bf 2fcd c28b 7384 c7bf
000004c0: 5fe5 4b66 0e11 c7bf dabd 6e04 c49d c6bf
000004d0: ee3a 4f0e 962a c6bf 7230 b74f 86b7 c5bf
000004e0: a288 c6bb 9644 c5bf 1a84 1471 c9d1 c4bf
000004f0: bbe7 51be 205f c4bf 1e27 7d27 9fec c3bf
00000500: 19f8 bc6b 477a c3bf 620d f88b 1c08 c3bf
00000510: 320c 45d2 2196 c2bf 68f7 50da 5a24 c2bf
00000520: 7109 e09a cbb2 c1bf 583d 9270 7841 c1bf
00000530: 6b26 1b2a 66d0 c0bf b6d4 2516 9a5f c0bf
00000540: 002a 4c26 34de bfbf 6745 ca42 d9fd bebf
00000550: b80a 4cef 311e bebf fadc a035 4e3f bdbf
00000560: 3de5 4ff2 3f61 bcbf 65dc 6713 1b84 bbbf
00000570: 79b5 47e1 f5a7 babf 6342 6353 e9cc b9bf
00000580: 79ef 9873 11f3 b8bf a077 7ad3 8d1a b8bf
00000590: 3fc3 0d18 8243 b7bf 23be 2ea2 166e b6bf
000005a0: 9ef8 225c 799a b5bf 825a 81b8 dec8 b4bf
000005b0: 3fd1 e9f3 82f9 b3bf 0800 23b3 ab2c b3bf
000005c0: 9b0a 8e23 aa62 b2bf ac1f d1d6 dd9b b1bf
000005d0: e2a7 c0af b8d8 b0bf 1e73 7363 c419 b0bf
000005e0: 045e b8ac 54bf aebf 3eb3 430c 7e56 adbf
000005f0: b0c0 019b 25fb abbf 68f9 ee61 15b0 aabf
00000600: cfb3 1024 0a79 a9bf 4f2f e80d 1f5b a8bf
00000610: 571e 6d44 685d a7bf 7481 fc9e c789 a6bf
00000620: e2dd 9be1 fced a5bf 8324 5ecf da9c a5bf
00000630: ba95 1f97 6daf a5bf 4912 52ea fc45 a6bf
00000640: 2413 a41a dc89 a7bf 8127 82d3 711d a9bf
00000650: 9c7d b660 0b5d abbf 14c4 9c39 9e4b aebf
00000660: f194 d39f fbf1 b0bf e8dd 1cdd ba0d b3bf
00000670: a6c9 985b 6472 b5bf 92b7 f0ee f518 b8bf
00000680: 54e7 ba80 a8fa babf da34 e9aa 3711 bebf
00000690: 330e fe9d 7dab c0bf 268b d753 7463 c2bf
000006a0: 43e2 0bab 442e c4bf 0a19 f255 f609 c6bf
000006b0: f291 1395 ccf4 c7bf d0b2 6e17 3fed c9bf
000006c0: 573b 6c7a f3f1 cbbf df83 9380 b701 cebf
000006d0: c146 1afe bd0d d0bf ef55 2a30 281f d1bf
000006e0: 0657 3273 af34 d2bf f21d 6b9b f44d d3bf
000006f0: d143 d9c1 a26a d4bf 76c4 f902 6e8a d5bf
00000700: 4040 1268 12ad d6bf 4295 43f5 52d2 d7bf
00000710: bd6e 47d7 f8f9 d8bf 036a 74ac d223 dabf
00000720: 47aa 43e5 b34f dbbf 9413 1b39 747d dcbf
00000730: 6b31 962c efac ddbf e3f4 eca6 03de debf
00000740: 5935 37ca 4908 e0bf 0c57 28ca 41a2 e0bf
00000750: 08e4 2a58 dd3c e1bf f4ee 7d0e 11d8 e1bf
00000760: 0b4f 8e80 d273 e2bf 5aad 0422 1810 e3bf
00000770: 0ebf a730 d9ac e3bf 578c b8a0 0d4a e4bf
00000780: 1f1c 7a0b aee7 e4bf c82c a09f b385 e5bf
00000790: 66a9 6a13 1824 e6bf 9523 3a98 d5c2 e6bf
000007a0: e415 71cf e661 e7bf f602 7bc0 4601 e8bf
000007b0: eabd d7cf f0a0 e8bf 3f17 0db7 e040 e9bf
000007c0: 0629 657d 12e1 e9bf 7b65 6271 8281 eabf
000007d0: 6bd2 d522 2d22 ebbf 708f 855d 0fc3 ebbf
000007e0: 8527 5424 2664 ecbf 296b dbac 6e05 edbf
000007f0: cf7e 6e5b e6a6 edbf fa85 78bf 8a48 eebf

d f8 [401]
0.07607142857142857 0.07607142857142857 0.07607142857142857 0.07607142857142857 0.07607142857142857 0.07607142857142857 0.07607142857142857 0.07607142857142857
0.07607142857142857 0.07607142857142857 0.07607142857142857 0.07607142857142857 0.07607142857142857 0.07607142857142857 0.07607142857142857 0.07607142857142857
0.07607142857142857 0.07607142857142857 0.07607142857142857 0.07607142857142857 0.07607142857142857 0.07607142857142857 0.07607142857142857 0.07607142857142857
0.07607142857142857 0.07607142857142857 0.07607142857142857 0.07607142857142857 0.07607142857142857 0.07607142857142857 0.07607142857142857 0.07607142857142857
0.07607142857142857 0.07607142857142857 0.07607142857142857 0.07607142857142857 0.07607142857142857 0.07607142857142857 0.07607142857142857 0.07607142857142857
0.07607142857142857 0.07607142857142857 0.07607142857142857 0.07607142857142857 0.07607142857142857 0.07607142857142857 0.07607142857142857 0.07607142857142857
0.07607142857142857 0.07607142857142857 0.07607142857142857 0.07607142857142857 0.07607142857142857 0.07607142857142857 0.07607142857142857 0.07607142857142857
0.07607142857142857 0.07607142857142857 0.07607142857142857 0.07607142857142857 0.07607142857142857 0.07607142857142857 0.07607142857142857 0.07607142857142857
0.07607142857142857 0.07607142857142857 0.07607142857142857 0.07607142857142857 0.07607142857142857 0.07607142857142857 0.07607142857142857 0.07607142857142857
0.07607142857142857 0.07607142857142857 0.07607142857142857 0.07607142857142857 0.07607142857142857 0.07607142857142857 0.07607142857142857 0.07607142857142857
0.07607142857142857 0.07607142857142857 0.07607142857142857 0.07607142857142857 0.07607142857142857 0.07607142857142857 0.07607142857142857 0.07607142857142857
0.07607142857142857 0.07607142857142857 0.07607142857142857 0.07607142857142857 0.07607142857142857 0.07607142857142857 0.07607142857142857 0.07607142857142857
0.07607142857142857 0.07607142857142857 0.07607142857142857 0.07607142857142857 0.07607142857142857 0.07607142857142857 0.07607142857142857 0.07607142857142857
0.07607142857142857 0.07607142857142857 0.07607142857142857 0.07607142857142857 0.07607142857142857 0.07607142857142857 0.07607142857142857 0.07607142857142857
0.07607142857142857 0.07607142857142857 0.07607142857142857 0.07607142857142857 0.07607142857142857 0.07607142857142857 0.07607142857142857 0.07607142857142857
0.07607142857142857 0.07607142857142857 0.07607142857142857 0.07607142857142857 0.07607142857142857 0.07607142857142857 0.07607142857142857 0.07607142857142857
0.07607142857142857 0.07607142857142857 0.07607142857142857 0.07607142857142857 0.07607142857142857 0.07607142857142857 0.07607142857142857 0.07607142857142857
0.07607142857142857 0.07607142857142857 0.07607142857142857 0.07607142857142857 0.07607142857142857 0.07607142857142857 0.07607142857142857 0.07607142857142857
0.07607142857142857 0.07607142857142857 0.07607142857142857 0.07607142857142857 0.07607142857142857 0.07607142857142857 0.07607142857142857 0.07607142857142857
0.07607142857142857 0.07607142857142857 0.07607142857142857 0.07607142857142857 0.07607142857142857 0.07607142857142857 0.07607142857142857 0.07607142857142857
0.07607142857142857 0.07607142857142857 0.07607142857142857 0.07607142857142857 0.07607142857142857 0.07607142857142857 0.07607142857142857 0.07607142857142857
0.07607142857142857 0.07607142857142857 0.07607142857142857 0.07607142857142857 0.07607142857142857 0.07607142857142857 0.07607142857142857 0.07607142857142857
0.07607142857142857 0.07607142857142857 0.07607142857142857 0.07607142857142857 0.07607142857142857 0.07607142857142857 0.07607142857142857 0.07607142857142857
0.07607142857142857 0.07607142857142857 0.07607142857142857 0.07607142857142857 0.07607142857142857 0.07607142857142857 0.07607142857142857 0.07607142857142857
0.07607142857142857 0.07607142857142857 0.07607142857142857 0.07607142857142857 0.07607142857142857 0.07607142857142857 0.07607142857142857 0.07607142857142857
0.07607142857142857 0.07607142857142857 0.07607142857142857 0.07607142857142857 0.07607142857142857 0.07607142857142857 0.07607142857142857 0.07607142857142857
0.07607142857142857 0.07607142857142857 0.07607142857142857 0.07607142857142857 0.07607142857142857 0.07607142857142857 0.07607142857142857 0.07607142857142857
0.07607142857142857 0.07607142857142857 0.07607142857142857 0.07607142857142857 0.07607142857142857 0.07607142857142857 0.07607142857142857 0.07607142857142857
0.07607142857142857 0.07607142857142857 0.07607142857142857 0.07607142857142857 0.07607142857142857 0.07607142857142857 0.07607142857142857 0.07607142857142857
0.07607142857142857 0.07607142857142857 0.07607142857142857 0.07607142857142857 0.07607142857142857 0.07607142857142857 0.07607142857142857 0.07607142857142857
0.07607142857142857 0.07607142857142857 0.07607142857142857 0.07607142857142857 0.07607142857142857 0.07607142857142857 0.07607142857142857 0.07607142857142857
0.07607142857142857 0.07607142857142857 0.07607142857142857 0.07607142857142857 0.07607142857142857 0.07607142857142857 0.07607142857142857 0.07607142857142857
00000000: 30d1 dfc9 6a79 b33f 30d1 dfc9 6a79 b33f
00000010: 30d1 dfc9 6a79 b33f 30d1 dfc9 6a79 b33f
00000020: 30d1 dfc9 6a79 b33f 30d1 dfc9 6a79 b33f
00000030: 30d1 dfc9 6a79 b33f 30d1 dfc9 6a79 b33f
00000040: 30d1 dfc9 6a79 b33f 30d1 dfc9 6a79 b33f
00000050: 30d1 dfc9 6a79 b33f 30d1 dfc9 6a79 b33f
00000060: 30d1 dfc9 6a79 b33f 30d1 dfc9 6a79 b33f
00000070: 30d1 dfc9 6a79 b33f 30d1 dfc9 6a79 b33f
00000080: 30d1 dfc9 6a79 b33f 30d1 dfc9 6a79 b33f
00000090: 30d1 dfc9 6a79 b33f 30d1 dfc9 6a79 b33f
000000a0: 30d1 dfc9 6a79 b33f 30d1 dfc9 6a79 b33f
000000b0: 30d1 dfc9 6a79 b33f 30d1 dfc9 6a79 b33f
000000c0: 30d1 dfc9 6a79 b33f 30d1 dfc9 6a79 b33f
000000d0: 30d1 dfc9 6a79 b33f 30d1 dfc9 6a79 b33f
000000e0: 30d1 dfc9 6a79 b33f 30d1 dfc9 6a79 b33f
000000f0: 30d1 dfc9 6a79 b33f 30d1 dfc9 6a79 b33f
00000100: 30d1 dfc9 6a79 b33f 30d1 dfc9 6a79 b33f
00000110: 30d1 dfc9 6a79 b33f 30d1 dfc9 6a79 b33f
00000120: 30d1 dfc9 6a79 b33f 30d1 dfc9 6a79 b33f
00000130: 30d1 dfc9 6a79 b33f 30d1 dfc9 6a79 b33f
00000140: 30d1 dfc9 6a79 b33f 30d1 dfc9 6a79 b33f
00000150: 30d1 dfc9 6a79 b33f 30d1 dfc9 6a79 b33f
00000160: 30d1 dfc9 6a79 b33f 30d1 dfc9 6a79 b33f
00000170: 30d1 dfc9 6a79 b33f 30d1 dfc9 6a79 b33f
00000180: 30d1 dfc9 6a79 b33f 30d1 dfc9 6a79 b33f
00000190: 30d1 dfc9 6a79 b33f 30d1 dfc9 6a79 b33f
000001a0: 30d1 dfc9 6a79 b33f 30d1 dfc9 6a79 b33f
000001b0: 30d1 dfc9 6a79 b33f 30d1 dfc9 6a79 b33f
000001c0: 30d1 dfc9 6a79 b33f 30d1 dfc9 6a79 b33f
000001d0: 30d1 dfc9 6a79 b33f 30d1 dfc9 6a79 b33f
000001e0: 30d1 dfc9 6a79 b33f 30d1 dfc9 6a79 b33f
000001f0: 30d1 dfc9 6a79 b33f 30d1 dfc9 6a79 b33f
00000200: 30d1 dfc9 6a79 b33f 30d1 dfc9 6a79 b33f
00000210: 30d1 dfc9 6a79 b33f 30d1 dfc9 6a79 b33f
00000220: 30d1 dfc9 6a79 b33f 30d1 dfc9 6a79 b33f
00000230: 30d1 dfc9 6a79 b33f 30d1 dfc9 6a79 b33f
00000240: 30d1 dfc9 6a79 b33f 30d1 dfc9 6a79 b33f
00000250: 30d1 dfc9 6a79 b33f 30d1 dfc9 6a79 b33f
00000260: 30d1 dfc9 6a79 b33f 30d1 dfc9 6a79 b33f
00000270: 30d1 dfc9 6a79 b33f 30d1 dfc9 6a79 b33f
00000280: 30d1 dfc9 6a79 b33f 30d1 dfc9 6a79 b33f
00000290: 30d1 dfc9 6a79 b33f 30d1 dfc9 6a79 b33f
000002a0: 30d1 dfc9 6a79 b33f 30d1 dfc9 6a79 b33f
000002b0: 30d1 dfc9 6a79 b33f 30d1 dfc9 6a79 b33f
000002c0: 30d1 dfc9 6a79 b33f 30d1 dfc9 6a79 b33f
000002d0: 30d1 dfc9 6a79 b33f 30d1 dfc9 6a79 b33f
000002e0: 30d1 dfc9 6a79 b33f 30d1 dfc9 6a79 b33f
000002f0: 30d1 dfc9 6a79 b33f 30d1 dfc9 6a79 b33f
00000300: 30d1 dfc9 6a79 b33f 30d1 dfc9 6a79 b33f
00000310: 30d1 dfc9 6a79 b33f 30d1 dfc9 6a79 b33f
00000320: 30d1 dfc9 6a79 b33f 30d1 dfc9 6a79 b33f
00000330: 30d1 dfc9 6a79 b33f 30d1 dfc9 6a79 b33f
00000340: 30d1 dfc9 6a79 b33f 30d1 dfc9 6a79 b33f
00000350: 30d1 dfc9 6a79 b33f 30d1 dfc9 6a79 b33f
00000360: 30d1 dfc9 6a79 b33f 30d1 dfc9 6a79 b33f
00000370: 30d1 dfc9 6a79 b33f 30d1 dfc9 6a79 b33f
00000380: 30d1 dfc9 6a79 b33f 30d1 dfc9 6a79 b33f
00000390: 30d1 dfc9 6a79 b33f 30d1 dfc9 6a79 b33f
000003a0: 30d1 dfc9 6a79 b33f 30d1 dfc9 6a79 b33f
000003b0: 30d1 dfc9 6a79 b33f 30d1 dfc9 6a79 b33f
000003c0: 30d1 dfc9 6a79 b33f 30d1 dfc9 6a79 b33f
000003d0: 30d1 dfc9 6a79 b33f 30d1 dfc9 6a79 b33f
000003e0: 30d1 dfc9 6a79 b33f 30d1 dfc9 6a79 b33f
000003f0: 30d1 dfc9 6a79 b33f 30d1 dfc9 6a79 b33f
00000400: 30d1 dfc9 6a79 b33f 30d1 dfc9 6a79 b33f
00000410: 30d1 dfc9 6a79 b33f 30d1 dfc9 6a79 b33f
00000420: 30d1 dfc9 6a79 b33f 30d1 dfc9 6a79 b33f
00000430: 30d1 dfc9 6a79 b33f 30d1 dfc9 6a79 b33f
00000440: 30d1 dfc9 6a79 b33f 30d1 dfc9 6a79 b33f
00000450: 30d1 dfc9 6a79 b33f 30d1 dfc9 6a79 b33f
00000460: 30d1 dfc9 6a79 b33f 30d1 dfc9 6a79 b33f
00000470: 30d1 dfc9 6a79 b33f 30d1 dfc9 6a79 b33f
00000480: 30d1 dfc9 6a79 b33f 30d1 dfc9 6a79 b33f
00000490: 30d1 dfc9 6a79 b33f 30d1 dfc9 6a79 b33f
000004a0: 30d1 dfc9 6a79 b33f 30d1 dfc9 6a79 b33f
000004b0: 30d1 dfc9 6a79 b33f 30d1 dfc9 6a79 b33f
000004c0: 30d1 dfc9 6a79 b33f 30d1 dfc9 6a79 b33f
000004d0: 30d1 dfc9 6a79 b33f 30d1 dfc9 6a79 b33f
000004e0: 30d1 dfc9 6a79 b33f 30d1 dfc9 6a79 b33f
000004f0: 30d1 dfc9 6a79 b33f 30d1 dfc9 6a79 b33f
00000500: 30d1 dfc9 6a79 b33f 30d1 dfc9 6a79 b33f
00000510: 30d1 dfc9 6a79 b33f 30d1 dfc9 6a79 b33f
00000520: 30d1 dfc9 6a79 b33f 30d1 dfc9 6a79 b33f
00000530: 30d1 dfc9 6a79 b33f 30d1 dfc9 6a79 b33f
00000540: 30d1 dfc9 6a79 b33f 30d1 dfc9 6a79 b33f
00000550: 30d1 dfc9 6a79 b33f 30d1 dfc9 6a79 b33f
00000560: 30d1 dfc9 6a79 b33f 30d1 dfc9 6a79 b33f
00000570: 30d1 dfc9 6a79 b33f 30d1 dfc9 6a79 b33f
00000580: 30d1 dfc9 6a79 b33f 30d1 dfc9 6a79 b33f
00000590: 30d1 dfc9 6a79 b33f 30d1 dfc9 6a79 b33f
000005a0: 30d1 dfc9 6a79 b33f 30d1 dfc9 6a79 b33f
000005b0: 30d1 dfc9 6a79 b33f 30d1 dfc9 6a79 b33f
000005c0: 30d1 dfc9 6a79 b33f 30d1 dfc9 6a79 b33f
000005d0: 30d1 dfc9 6a79 b33f 30d1 dfc9 6a79 b33f
000005e0: 30d1 dfc9 6a79 b33f 30d1 dfc9 6a79 b33f
000005f0: 30d1 dfc9 6a79 b33f 30d1 dfc9 6a79 b33f
00000600: 30d1 dfc9 6a79 b33f 30d1 dfc9 6a79 b33f
00000610: 30d1 dfc9 6a79 b33f 30d1 dfc9 6a79 b33f
00000620: 30d1 dfc9 6a79 b33f 30d1 dfc9 6a79 b33f
00000630: 30d1 dfc9 6a79 b33f 30d1 dfc9 6a79 b33f
00000640: 30d1 dfc9 6a79 b33f 30d1 dfc9 6a79 b33f
00000650: 30d1 dfc9 6a79 b33f 30d1 dfc9 6a79 b33f
00000660: 30d1 dfc9 6a79 b33f 30d1 dfc9 6a79 b33f
00000670: 30d1 dfc9 6a79 b33f 30d1 dfc9 6a79 b33f
00000680: 30d1 dfc9 6a79 b33f 30d1 dfc9 6a79 b33f
00000690: 30d1 dfc9 6a79 b33f 30d1 dfc9 6a79 b33f
000006a0: 30d1 dfc9 6a79 b33f 30d1 dfc9 6a79 b33f
000006b0: 30d1 dfc9 6a79 b33f 30d1 dfc9 6a79 b33f
000006c0: 30d1 dfc9 6a79 b33f 30d1 dfc9 6a79 b33f
000006d0: 30d1 dfc9 6a79 b33f 30d1 dfc9 6a79 b33f
000006e0: 30d1 dfc9 6a79 b33f 30d1 dfc9 6a79 b33f
000006f0: 30d1 dfc9 6a79 b33f 30d1 dfc9 6a79 b33f
00000700: 30d1 dfc9 6a79 b33f 30d1 dfc9 6a79 b33f
00000710: 30d1 dfc9 6a79 b33f 30d1 dfc9 6a79 b33f
00000720: 30d1 dfc9 6a79 b33f 30d1 dfc9 6a79 b33f
00000730: 30d1 dfc9 6a79 b33f 30d1 dfc9 6a79 b33f
00000740: 30d1 dfc9 6a79 b33f 30d1 dfc9 6a79 b33f
00000750: 30d1 dfc9 6a79 b33f 30d1 dfc9 6a79 b33f
00000760: 30d1 dfc9 6a79 b33f 30d1 dfc9 6a79 b33f
00000770: 30d1 dfc9 6a79 b33f 30d1 dfc9 6a79 b33f
00000780: 30d1 dfc9 6a79 b33f 30d1 dfc9 6a79 b33f
00000790: 30d1 dfc9 6a79 b33f 30d1 dfc9 6a79 b33f
000007a0: 30d1 dfc9 6a79 b33f 30d1 dfc9 6a79 b33f
000007b0: 30d1 dfc9 6a79 b33f 30d1 dfc9 6a79 b33f
000007c0: 30d1 dfc9 6a79 b33f 30d1 dfc9 6a79 b33f
000007d0: 30d1 dfc9 6a79 b33f 30d1 dfc9 6a79 b33f
000007e0: 30d1 dfc9 6a79 b33f 30d1 dfc9 6a79 b33f
000007f0: 30d1 dfc9 6a79 b33f 30d1 dfc9 6a79 b33f

zmax f8 []
5.0
00000000: 0000 0000 0000 1440

hz_F f8 [401]
0.09218136475457567 0.09217862435698788 0.09217586833169669 0.09217308799050287 0.09217027836363198 0.09216743647597221 0.09216456042263599 0.09216164887093503
0.0921587007919137 0.09215571531488476 0.09215269164827215 0.09214962903640442 0.09214652673583998 0.09214338400200753 0.0921402000817523 0.09213697420906956
0.0921337056024088 0.09213039346294694 0.09212703697352288 0.09212363529748473 0.09212018757801933 0.09211669293744956 0.09211315047647663 0.09210955927352323
0.09210591838396212 0.09210222683947769 0.09209848364723928 0.09209468778923074 0.09209083822140075 0.09208693387278567 0.09208297364479309 0.09207895641014095
0.0920748810121687 0.09207074626366152 0.0920665509460054 0.09206229380801594 0.09205797356507041 0.09205358889781269 0.0920491384510326 0.0920446208326464
0.09204003461219505 0.09203537831968683 0.0920306504441829 0.09202584943246543 0.09202097368750824 0.09201602156703483 0.0920109913817961 0.09200588139403189
0.09200068981567067 0.0919954148065936 0.09199005447274232 0.09198460686417181 0.09197906997297452 0.09197344173114476 0.09196772000840657 0.09196190260997245
0.0919559872738613 0.09194997166866195 0.0919438533907454 0.09193762996138534 0.09193129882413573 0.0919248573416253 0.09191830279238865 0.0919116323676744
0.09190484316774364 0.09189793219856787 0.09189089636775313 0.09188373248062712 0.09187643723603933 0.0918690072220785 0.09186143891125505 0.09185372865589927
0.09184587268294432 0.09183786708862861 0.0918297078327804 0.09182139073314376 0.09181291145897878 0.09180426552472623 0.09179544828294647 0.09178645491718032
0.09177728043433009 0.09176791965667304 0.0917583672132918 0.09174861753130711 0.09173866482634835 0.09172850309254861 0.09171812609209441 0.0917075273442173
0.0916967001133888 0.09168563739679644 0.09167433191128722 0.0916627760794613 0.09165096201488866 0.09163888150655412 0.09162652600210602 0.09161388659042519
0.09160095398283916 0.09158771849334435 0.09157417001743443 0.09156029800976674 0.09154609146013183 0.09153153886813702 0.09151662821598174 0.09150134693971973
0.09148568189837872 0.09146961934084819 0.091453144870953 0.09143624340980833 0.09141889915540065 0.09140109553973463 0.09138281518266206 0.09136403984225236
0.09134475036189575 0.09132492661307542 0.09130454743430279 0.0912835905651547 0.09126203257520607 0.0912398487878166 0.09121701319752458 0.09119349838126836
0.09116927540220698 0.09114431370589182 0.09111858100785022 0.09109204317182333 0.09106466407771191 0.09103640547831883 0.09100722684368918 0.09097708519161318
0.09094593490352242 0.09091372752332709 0.0908804115383033 0.09084593213950216 0.09081023095995165 0.09077324578766599 0.09073491025138918 0.09069515347544435
0.090653899700479 0.09061106786622279 0.09056657115155091 0.09052031646733594 0.09047220389577129 0.09042212607039352 0.0903699674891312 0.09031560375202959
0.09025890071434339 0.09019971354409562 0.09013788567185164 0.09007324761830839 0.09000561568382254 0.08993479048090106 0.089860555288602 0.08978267420381836
0.08970089006148341 0.08961492209059194 0.08952446326804121 0.08942917732695836 0.08932869536804586 0.08922261201569981 0.08911048104999236 0.08899181043556086
0.08886605665483849 0.08873261823881319 0.08859082837026423 0.08843994641528874 0.08827914821466382 0.08810751494021897 0.08792402029123468 0.08772751576990469
0.08751671373727084 0.08729016790682417 0.08704625088682959 0.08678312833293732 0.08649872922368565 0.08619071172535805 0.08585642407701273 0.08549285990909698
0.08509660742597751 0.0846637919540977 0.08419001151482502 0.08367026537071932 0.08309887597890815 0.0824694055569609 0.08177456964989854 0.08100615184889016
0.08015492637461664 0.07921059887937132 0.0781617808675777 0.07699601992842231 0.07569991676914657 0.07425937077043679 0.07266000758473588 0.07088785247240365
0.0689303151496101 0.06677753202639072 0.06442404252382966 0.06187060899068583 0.05912565060730162 0.056205170458354735 0.05312919808500296 0.04991179966722404
0.0465407954409959 0.044006372242582886 0.041630166240270584 0.039437652785042694 0.03743889334994621 0.035631814585573324 0.034006310843650904 0.032547863370425714
0.031240184233207475 0.03006690818823957 0.029012553182281457 0.028062987790954334 0.027205594879058347 0.026429262388680652 0.025724284670614498 0.025082224461368558
0.024495764023985296 0.023958560678654785 0.023465114080149282 0.023010648110152958 0.022591007805990833 0.022202570501607045 0.02184216979767915 0.02150703079972612
0.0211947150858239 0.020903073985024254 0.020630208906435823 0.02037443762582059 0.020134265594618367 0.01990836147949835 0.019695536265529816 0.01949472536355846
0.019304973253398926 0.019125420270843418 0.018955291210712655 0.018793885471428635 0.018640568511110962 0.018494764421803426 0.018355949459716192 0.01822364639439383
0.018097419561300784 0.017976870520129435 0.017861634235712444 0.017751375711177002 0.01764578701318094 0.017544584637953685 0.017447507174182295 0.017354313225099678
0.017264779557334426 0.017178699448622558 0.01709588121017611 0.017016146862896316 0.016939330949314952 0.016865279465435576 0.01679384889880959 0.016724905360852516
00000000: acea ebaa 3299 b73f 79e7 00b1 0499 b73f
00000010: d20c f773 d698 b73f 0b94 7dce a798 b73f
00000020: fe29 3cab 7898 b73f 25a3 6bfd 4898 b73f
00000030: 508d ddbc 1898 b73f 189a d8e3 e797 b73f
00000040: 3970 f16d b697 b73f 08bb 6a57 8497 b73f
00000050: ab21 de9c 5197 b73f 86c5 0c3b 1e97 b73f
00000060: 663a c52e ea96 b73f 1ad6 d474 b596 b73f
00000070: 6a7e ff09 8096 b73f 2bf8 faea 4996 b73f
00000080: 74f0 6b14 1396 b73f 9016 e482 db95 b73f
00000090: 19f0 e032 a395 b73f 7b94 ca20 6a95 b73f
000000a0: 41f0 f248 3095 b73f 44ff 94a7 f594 b73f
000000b0: 69f7 d338 ba94 b73f bd8f baf8 7d94 b73f
000000c0: 5227 3ae3 4094 b73f 8a11 2af4 0294 b73f
000000d0: 69ad 4627 c493 b73f dca8 3078 8493 b73f
000000e0: 9111 6ce2 4393 b73f 115e 5f61 0293 b73f
000000f0: 16a4 52f0 bf92 b73f ef6d 6e8a 7c92 b73f
00000100: 9bf8 ba2a 3892 b73f d8e8 1ecc f291 b73f
00000110: 4b5d 5e69 ac91 b73f dba4 19fd 6491 b73f
00000120: 614a cc81 1c91 b73f 21a8 cbf1 d290 b73f
00000130: 5aac 4547 8890 b73f 4fba 3f7c 3c90 b73f
00000140: 9303 958a ef8f b73f 4442 f56b a18f b73f
00000150: e82a e319 528f b73f 8bf5 b28d 018f b73f
00000160: 45af 88c0 af8e b73f 59a4 56ab 5c8e b73f
00000170: 6d7b db46 088e b73f 8184 a08b b28d b73f
00000180: 30be f771 5b8d b73f 12ed f9f1 028d b73f
00000190: 1f87 8403 a98c b73f 9c8f 379e 4d8c b73f
000001a0: cd4e 73b9 f08b b73f d9f8 554c 928b b73f
000001b0: 5f4a b94d 328b b73f 9c11 30b4 d08a b73f
000001c0: 7d3b 0376 6d8a b73f 1a5e 2f89 088a b73f
000001d0: 08a8 61e3 a189 b73f d9b5 f479 3989 b73f
000001e0: f6af ed41 cf88 b73f 5bc4 f82f 6388 b73f
000001f0: 9faa 6538 f587 b73f 8721 244f 8587 b73f
00000200: 22dd bf67 1387 b73f 56e5 5c75 9f86 b73f
00000210: 9e1a b36a 2986 b73f aae8 093a b185 b73f
00000220: 38a8 33d5 3685 b73f a2e9 882d ba84 b73f
00000230: dd28 e333 3b84 b73f 2abe 97d8 b983 b73f
00000240: a121 720b 3683 b73f 0f18 aebb af82 b73f
00000250: 356a f1d7 2682 b73f afa7 454e 9b81 b73f
00000260: 931d 110c 0d81 b73f 32df 0ffe 7b80 b73f
00000270: 9602 4c10 e87f b73f 02c7 152e 517f b73f
00000280: 6834 fb41 b77e b73f 6553 bf35 1a7e b73f
00000290: 21c1 50f2 797d b73f 8e0b c05f d67c b73f
000002a0: 1437 3565 2f7c b73f 75be e4e8 847b b73f
000002b0: 4915 04d0 d67a b73f 6a8d bdfe 247a b73f
000002c0: 1f5c 2358 6f79 b73f eed4 21be b578 b73f
000002d0: 850e 7111 f877 b73f 7298 8531 3677 b73f
000002e0: 013a 80fc 6f76 b73f e3d7 1c4f a575 b73f
000002f0: 1c09 a004 d674 b73f 9cec c3f6 0174 b73f
00000300: 8681 a3fd 2873 b73f 38e8 a4ef 4a72 b73f
00000310: 021b 62a1 6771 b73f d15f 90e5 7e70 b73f
00000320: 31dc e58c 906f b73f 5fbf fd65 9c6e b73f
00000330: 3953 3a3d a26d b73f 4463 a5dc a16c b73f
00000340: a248 ce0b 9b6b b73f d081 a58f 8d6a b73f
00000350: bf4b 562a 7969 b73f ac3d 1d9b 5d68 b73f
00000360: 35d8 1b9e 3a67 b73f 4067 29ec 0f66 b73f
00000370: fc3d a03a dd64 b73f 6e25 273b a263 b73f
00000380: 4b33 779b 5e62 b73f c6dd 1c05 1261 b73f
00000390: 5dd7 341d bc5f b73f fa87 2384 5c5e b73f
000003a0: 42e9 46d5 f25c b73f 74ba a2a6 7e5b b73f
000003b0: d5ac 8588 ff59 b73f c2c6 2705 7558 b73f
000003c0: 98a3 40a0 de56 b73f a04a 95d6 3b55 b73f
000003d0: aa94 7c1d 8c53 b73f 0b4b 59e2 ce51 b73f
000003e0: acf5 088a 0350 b73f a157 4670 294e b73f
000003f0: cd48 fee6 3f4c b73f b058 9535 464a b73f
00000400: cf61 1d98 3b48 b73f 6b5b 783e 1f46 b73f
00000410: c16e 674b f043 b73f 3588 83d3 ad41 b73f
00000420: af7d 1ddc 563f b73f f081 025a ea3c b73f
00000430: 3b9d 2230 673a b73f 122e 152e cc37 b73f
00000440: 79ea 770e 1835 b73f bb1c 2475 4932 b73f
00000450: c3ee 34ed 5e2f b73f 98cc d9e6 562c b73f
00000460: f2eb edb4 2f29 b73f 04a0 4e8a e725 b73f
00000470: f209 e876 7c22 b73f 5df7 6e64 ec1e b73f
00000480: 38b3 bd12 351b b73f 28cc c713 5417 b73f
00000490: 3758 17c7 4613 b73f 81e0 c354 0a0f b73f
000004a0: 3480 d1a7 9b0a b73f 5a59 e367 f705 b73f
000004b0: dd39 2af2 1901 b73f 30ec 7351 fffb b63f
000004c0: 2875 3c35 a3f6 b63f 9ed8 9ce7 00f1 b63f
000004d0: e19d ed41 13eb b63f bb6e ed9f d4e4 b63f
000004e0: fe39 33d1 3ede b63f 00cf ab08 4bd7 b63f
000004f0: f42d d7c9 f1cf b63f 9bbc 6ed3 2ac8 b63f
00000500: 8098 0e07 edbf b63f 7995 6c4d 2eb7 b63f
00000510: d969 9376 e3ad b63f 107f 8315 00a4 b63f
00000520: 0c2f 8056 7699 b63f e937 33cf 368e b63f
00000530: 8706 af47 3082 b63f a1e9 307b 4f75 b63f
00000540: 75df 5acf 7e67 b63f 9612 6c00 a658 b63f
00000550: 4760 ccc0 a948 b63f 67d7 084a 6b37 b63f
00000560: 424a 29dd c724 b63f 0652 1430 9810 b63f
00000570: 5df1 8fc5 affa b53f 73e0 592d dce2 b53f
00000580: db26 e529 e4c8 b53f 7a23 99b9 86ac b53f
00000590: 3c25 1b02 7a8d b53f a135 6a1d 6a6b b53f
000005a0: ddec a9ca f745 b53f 37a7 c907 b71c b53f
000005b0: 1c71 4a9e 2def b43f 393e f7b4 d1bc b43f
000005c0: 916b 6483 0885 b43f 28f8 ae53 2547 b43f
000005d0: d594 9f14 6902 b43f e0c5 83db 02b6 b33f
000005e0: 215a d5da 1161 b33f aa6c e180 a902 b33f
000005f0: 9fb5 4da4 d899 b23f 3c7a 0dd0 b425 b23f
00000600: ae42 45c9 6aa5 b13f 6a33 2914 5518 b13f
00000610: 4449 b713 187e b03f ccae 6524 81ad af3f
00000620: 3719 6d9f b745 ae3f b32f f891 ecc6 ac3f
00000630: 13c0 7910 c033 ab3f a1ad 8216 0a8e a93f
00000640: 74a3 b2f4 31d4 a73f f4ea 31d3 0088 a63f
00000650: cdd9 0e95 8c50 a53f a9b1 e209 2c31 a43f
00000660: b0a9 12cd 302b a33f 5431 af4c 553e a23f
00000670: efb7 dc71 4669 a13f 6218 7611 1daa a03f
00000680: b51a 6946 6dfd 9f3f a9f8 700d dcc9 9e3f
00000690: 5e8d 5d7c 77b5 9d3f 2e29 293b 8bbc 9c3f
000006a0: f659 1891 c8db 9b3f d096 77c6 4510 9b3f
000006b0: 013e 7e85 7757 9a3f a50c 1797 27af 993f
000006c0: f283 7ee5 6a15 993f c7d4 4bca 9788 983f
000006d0: 9fdb 4826 3d07 983f 9e19 5f74 1a90 973f
000006e0: 1276 d7de 1822 973f 2a22 c448 45bc 963f
000006f0: bb9f d133 cb5d 963f 15f1 ac67 f005 963f
00000700: 160d 9140 11b4 953f 492f 9b8c 9d67 953f
00000710: f74b 40e2 1520 953f 41f2 1b5d 09dd 943f
00000720: 780d 08b1 139e 943f 7ab4 e285 db62 943f
00000730: 8bef 8c10 112b 943f 0221 86df 6cf6 933f
00000740: 3311 18d3 aec4 933f a394 573a 9d95 933f
00000750: 303c 580f 0469 933f 72b4 db4d b43e 933f
00000760: 6249 8960 8316 933f c100 5ba1 4af0 923f
00000770: 604e 77ea e6cb 923f ef74 1c35 38a9 923f
00000780: 6f90 a144 2188 923f a59f df5b 8768 923f
00000790: aafd 94fb 514a 923f 9bd6 8da8 6a2d 923f
000007a0: 3401 89b8 bc11 923f 96b8 f724 35f7 913f
000007b0: dcdf d662 c2dd 913f 7241 fc3e 54c5 913f
000007c0: 451d 49be dbad 913f 9351 4701 4b97 913f
000007d0: d9a9 c62a 9581 913f 5fcb 1e49 ae6c 913f
000007e0: 1512 c641 8b58 913f bcc0 f7be 2145 913f
000007f0: d26a 2d1f 6832 913f 8dd7 3666 5520 913f

Vz_F f8 [401]
1.355862496064546 1.3558200975980128 1.3557774573451553 1.3557344408852146 1.35569097132759 1.3556470026423995 1.3556025053578935 1.3555574588551877
1.3555118472146432 1.3554656569652934 1.3554188758601526 1.3553714922077376 1.3553234945057824 1.355274871234542 1.3552256107414706 1.355175701175213
1.355125130443895 1.355073886188407 1.3550219557659204 1.3549693262320517 1.3549159843304892 1.3548619164821218 1.354807108773315 1.3547515469457494
1.354695216384485 1.3546381021080833 1.3545801887558184 1.3545214605773026 1.3544619014193415 1.3544014947123628 1.3543402234593316 1.3542780702193369
1.3542150170969336 1.3541510457239525 1.3540861372464263 1.354020272306471 1.353953431028856 1.3538855930009674 1.353816737255471 1.3537468422545373
1.3536758858666076 1.3536038453484878 1.353530697323464 1.3534564177606967 1.3533809819515596 1.3533043644873288 1.353226539232537 1.353147479301171
1.3530671570288177 1.352985543945806 1.3529026107479325 1.352818327266334 1.352732662435372 1.3526455842595908 1.3525570597801106 1.352467055039952
1.3523755350425404 1.3522824637171027 1.3521878038755375 1.3520915171678638 1.3519935640416492 1.3518939036924138 1.351792494014603 1.351689291552205
1.35158425144148 1.3514773273598735 1.3513684714629548 1.3512576343238791 1.3511447648684083 1.3510298103086527 1.3509127160685352 1.3507934257125953
1.3506718808652707 1.3505480211289367 1.350421783995479 1.3502931047585065 1.3501619164143364 1.3500281495639754 1.349891732303874 1.3497525901154717
1.349610645747319 1.3494658190915132 1.3493180270511118 1.3491671834044894 1.3490131986579001 1.3488559798906863 1.3486954305935939 1.3485314504984558
1.3483639353955468 1.3481927769398183 1.3480178624488914 1.3478390746879043 1.3476562916407886 1.3474693862696085 1.3472782262553906 1.347082673728437
1.3468825849776778 1.3466778101446764 1.3464681928960687 1.3462535700780265 1.346033771344466 1.3458086187653606 1.3455779264055323 1.3453414998800284
1.345099135876353 1.3448506216421663 1.3445957344449155 1.3443342409894043 1.3440658967924435 1.3437904455198435 1.3435076182720707 1.3432171328163989
1.3429186927685066 1.3426119867070696 1.3422966872289877 1.3419724499288321 1.3416389122993166 1.3412956925521513 1.3409423883399896 1.340578575382878
1.3402038059802024 1.3398176074042922 1.3394194801611548 1.3390088961066127 1.3385852964032097 1.338148089303779 1.3376966477431296 1.3372303067156466
1.3367483604269026 1.3362500591813387 1.3357346059922293 1.3352011528748164 1.334648796795861 1.334076575233425 1.333483461314806 1.3328683584764889
1.3322300945964471 1.3315674155387214 1.3308789780374397 1.330163341850401 1.3294189610844853 1.3286441746035749 1.327837195400292 1.32699609880234
1.3261188093694543 1.3252030863122854 1.3242465072436715 1.3232464500395125 1.3222000725636107 1.3211042899628822 1.3199557492072245 1.318750800486832
1.3174854650343448 1.3161553988596353 1.314755851809366 1.3132816212808862 1.3117269997941605 1.3100857155205858 1.308350864702561 1.3065148347422095
1.3045692165271205 1.302504704340528 1.300310981421191 1.2979765889421557 1.2954887758021272 1.292833326215188 1.2899943616179854 1.2869541128568684
1.283692658035278 1.2801876207176122 1.27641382247198 1.272342882968509 1.2679427600923887 1.2631772218169601 1.2580052410306664 1.2523803042423864
1.2462496253514388 1.2395532567729006 1.2322230926433875 1.2241817633140784 1.2153414278408192 1.2056024831207068 1.1948522266312978 1.1829635369883107
1.1697936761826888 1.1551833736915462 1.138956430721425 1.1209201879569441 1.100867336258684 1.0785797158097132 1.0538349317661044 1.0264167718769102
0.9961304437039864 0.9628233412565557 0.9264109803804033 0.8869051558670904 0.8444361263103239 0.7992514858012534 0.7516611243478977 0.7018826689339086
0.6497276785390582 0.6105159752308076 0.5737521526694067 0.5398303565149298 0.5089062543355283 0.4809477679992291 0.4557985464743375 0.433233960715107
0.41300200956223776 0.3948494957268345 0.3785368863326788 0.36384554495771937 0.3505802637288724 0.3385691207988728 0.3276619537807335 0.3177282243046342
0.30865471492107943 0.30034329392142567 0.29270886190108314 0.28567752443922956 0.27918499741639735 0.27317523221897844 0.267599239431604 0.26241408686395573
0.25758204811063834 0.25306987969132777 0.2488482072762821 0.2448910040844332 0.24117514698671627 0.23768003806262428 0.2343872812918235 0.23128040572578001
0.22834462789264265 0.22556664737049203 0.2229344704577585 0.22043725769352207 0.21806519166924332 0.2158093621398116 0.21366166592573066 0.21161471948543564
0.20966178237063815 0.2077966900531969 0.20601379483753846 0.20430791377000546 0.20267428261435683 0.20110851510008132 0.19960656676339283 0.19816470279851117
0.1967794694173186 0.19544766828573756 0.19416633366233782 0.1929327119171731 0.1917442431505556 0.1905985446668801 0.18949339609207527 0.1884267259491068
00000000: c085 67df 9cb1 f53f 8016 276a 70b1 f53f
00000010: 4039 ffb3 43b1 f53f 009b da98 16b1 f53f
00000020: 005a 1504 e9b0 f53f 0050 54e9 bab0 f53f
00000030: 8034 ae40 8cb0 f53f 401c 9a04 5db0 f53f
00000040: 000a d230 2db0 f53f 0046 b8c1 fcaf f53f
00000050: 0035 03b4 cbaf f53f 4068 8f04 9aaf f53f
00000060: c071 46b0 67af f53f 00b0 10b4 34af f53f
00000070: 4061 cd0c 01af f53f 401a 4eb7 ccae f53f
00000080: 80e8 53b0 97ae f53f 407c 8df4 61ae f53f
00000090: 8006 9680 2bae f53f 40ff f350 f4ad f53f
000000a0: 006f 1862 bcad f53f 802f 5eb0 83ad f53f
000000b0: 801d 0938 4aad f53f 0066 45f5 0fad f53f
000000c0: 40b4 26e4 d4ac f53f 0084 a700 99ac f53f
000000d0: 8040 a846 5cac f53f 008e eeb1 1eac f53f
000000e0: 8062 243e e0ab f53f 0017 d7e6 a0ab f53f
000000f0: 80a4 76a7 60ab f53f 4083 547b 1fab f53f
00000100: 40ef a25d ddaa f53f 40a8 7349 9aaa f53f
00000110: c00b b739 56aa f53f 40d6 3a29 11aa f53f
00000120: 0037 a912 cba9 f53f 806f 87f0 83a9 f53f
00000130: 80a2 34bd 3ba9 f53f 80be e872 f2a8 f53f
00000140: 00e5 b20b a8a8 f53f 802f 7881 5ca8 f53f
00000150: 802e f2cd 0fa8 f53f 007f adea c1a7 f53f
00000160: 402a 08d1 72a7 f53f 401d 307a 22a7 f53f
00000170: 0054 21df d0a6 f53f c036 a4f8 7da6 f53f
00000180: 00b0 4bbf 29a6 f53f 0054 732b d4a5 f53f
00000190: c05d 3d35 7da5 f53f 009d 90d4 24a5 f53f
000001a0: 4041 1601 cba4 f53f 8094 37b2 6fa4 f53f
000001b0: 00ac 1bdf 12a4 f53f 4006 a57e b4a3 f53f
000001c0: 00b1 6e87 54a3 f53f 80e8 c9ef f2a2 f53f
000001d0: c020 bbad 8fa2 f53f c0f5 f6b6 2aa2 f53f
000001e0: c061 df00 c4a1 f53f c054 8080 5ba1 f53f
000001f0: 0056 8c2a f1a0 f53f 401f 59f3 84a0 f53f
00000200: 40ad dbce 16a0 f53f 00bd a4b0 a69f f53f
00000210: 6076 dc8b 349f f53f 2043 3e53 c09e f53f
00000220: c057 14f9 499e f53f e025 336f d19d f53f
00000230: 003d f4a6 569d f53f 0066 3191 d99c f53f
00000240: 2017 3f1e 5a9c f53f 20d2 e63d d89b f53f
00000250: a010 61df 539b f53f c03b 4ff1 cc9a f53f
00000260: 40de b461 439a f53f 20e8 f01d b799 f53f
00000270: c02c b612 2899 f53f c0cb 032c 9698 f53f
00000280: 4017 1d55 0198 f53f 2016 8178 6997 f53f
00000290: 8067 e17f ce96 f53f 80f0 1854 3096 f53f
000002a0: 80ba 21dd 8e95 f53f 0050 0a02 ea94 f53f
000002b0: 40a0 eaa8 4194 f53f 004b d8b6 9593 f53f
000002c0: 6013 da0f e692 f53f 208f da96 3292 f53f
000002d0: e044 9a2d 7b91 f53f 20e3 a0b4 bf90 f53f
000002e0: 8088 2d0b 0090 f53f 003a 260f 3c8f f53f
000002f0: a013 069d 738e f53f 00c0 ca8f a68d f53f
00000300: 407f e0c0 d48c f53f e01f 0d08 fe8b f53f
00000310: 407c 593b 228b f53f e0bb f92e 418a f53f
00000320: c0c6 33b5 5a89 f53f c05a 449e 6e88 f53f
00000330: a019 42b8 7c87 f53f 20fb fece 8486 f53f
00000340: 0078 e7ab 8685 f53f 8055 df15 8284 f53f
00000350: 2083 1cd1 7683 f53f 6014 ff9e 6482 f53f
00000360: 8047 e63d 4b81 f53f c0f5 0269 2a80 f53f
00000370: 807c 26d8 017f f53f 20f9 8d3f d17d f53f
00000380: 800b aa4f 987c f53f c0fd e1b4 567b f53f
00000390: a0d7 5217 0c7a f53f c03c 891a b878 f53f
000003a0: 80dd 355d 5a77 f53f 406f dc78 f275 f53f
000003b0: a0d8 7b01 8074 f53f c0cd 2f85 0273 f53f
000003c0: 208e ca8b 7971 f53f a080 6696 e46f f53f
000003d0: 00ae ee1e 436e f53f a04b 9d97 946c f53f
000003e0: 0055 6f6a d86a f53f e03b 8cf8 0d69 f53f
000003f0: c068 a099 3467 f53f 2005 299b 4b65 f53f
00000400: 203e b03f 5263 f53f 0064 f7bd 4761 f53f
00000410: 00f4 0d40 2b5f f53f 80dc 52e2 fb5c f53f
00000420: c024 5eb2 b85a f53f c0cb cfad 6058 f53f
00000430: e0a9 01c1 f255 f53f c079 98c5 6d53 f53f
00000440: a09e f080 d050 f53f 6087 62a2 194e f53f
00000450: e0ac 59c1 474b f53f 605e 395b 5948 f53f
00000460: 80a4 08d1 4c45 f53f a017 df64 2042 f53f
00000470: 8081 0a37 d23e f53f 0069 e442 603b f53f
00000480: e0a2 4d5b c837 f53f 0050 c426 0834 f53f
00000490: c042 071b 1d30 f53f 207c 3778 042c f53f
000004a0: 60df 6643 bb27 f53f 20ef 7f40 3e23 f53f
000004b0: 0032 70eb 891e f53f e0a2 7a70 9a19 f53f
000004c0: 2072 94a3 6b14 f53f 40e5 a8f6 f80e f53f
000004d0: 00ef 9b6e 3d09 f53f a06d dd96 3303 f53f
000004e0: 8056 5673 d5fc f43f 00e2 7170 1cf6 f43f
000004f0: 0074 f950 01ef f43f 604e 6f19 7ce7 f43f
00000500: 20a3 85f8 83df f43f a075 402c 0fd7 f43f
00000510: c056 3de3 12ce f43f e0ae 8719 83c4 f43f
00000520: c07b 4670 52ba f43f c05e 74ff 71af f43f
00000530: 40c7 b220 d1a3 f43f 60c4 2232 5d97 f43f
00000540: 8007 0650 018a f43f 809e bb03 a67b f43f
00000550: 40df 7ae6 306c f43f a05e fa35 845b f43f
00000560: a0bf fc58 7e49 f43f 8018 8c51 f935 f43f
00000570: e0c5 861a ca20 f43f 6002 0eee bf09 f43f
00000580: 4096 7872 a3f0 f33f a0d6 b7cb 35d5 f33f
00000590: 2078 c48f 2fb7 f33f 80b2 dc9d 3f96 f33f
000005a0: e0cd 60da 0972 f33f 60ad 4fd4 254a f33f
000005b0: 80f2 4e5e 1d1e f33f c09a 7b2c 6bed f23f
000005c0: 305b e492 79b7 f23f d035 ae8f a17b f23f
000005d0: 5047 d860 2a39 f23f 5038 cb01 4aef f13f
000005e0: 7073 6711 279d f13f d081 d8cd dc41 f13f
000005f0: c015 7504 82dc f03f 806f 34fe 336c f03f
00000600: 6046 c8f3 4ce0 ef3f 20b7 50e5 72cf ee3f
00000610: c073 eca3 28a5 ed3f 404b e3eb 8661 ec3f
00000620: 600a 42e9 9e05 eb3f 2077 19da 7793 e93f
00000630: 40f6 57a1 9b0d e83f 2069 96a4 d275 e63f
00000640: 4033 54b3 91ca e43f e0a8 69cc 5889 e33f
00000650: c030 7779 2d5c e23f 20d4 d34f 4a46 e13f
00000660: 003b e3c4 f548 e03f 4004 a925 d9c7 de3f
00000670: c0fb aaaa cd2b dd3f 806d 32ef 1aba db3f
00000680: 4022 10fb 9f6e da3f 4049 bfd1 3645 d93f
00000690: c039 c8c6 f239 d83f 80e0 18d3 3e49 d73f
000006a0: 00ab d533 e86f d63f 8010 51d1 1dab d53f
000006b0: 006e e8d7 69f8 d43f 40e4 19c3 a855 d43f
000006c0: 40e7 95b4 ffc0 d33f c0c9 3d14 d338 d33f
000006d0: 8054 47f3 bdbb d23f 80cc 2a62 8a48 d23f
000006e0: 40fc 5bc0 2ade d13f 404b 1df8 b37b d13f
000006f0: 00c4 728f 5820 d13f 00c9 4574 64cb d03f
00000700: 4000 2b6a 397c d03f 401f 3802 4c32 d03f
00000710: 00be f50f 42da cf3f 8049 d0a2 9658 cf3f
00000720: 803d 75c4 d3de ce3f 800c 32ab 4c6c ce3f
00000730: 0095 df05 6700 ce3f 801f 66a9 989a cd3f
00000740: 8012 8292 653a cd3f 0027 c32e 5edf cc3f
00000750: 0032 e2e1 1d89 cc3f 808a 4ebe 4937 cc3f
00000760: 80c4 4e69 8fe9 cb3f 80d2 4724 a49f cb3f
00000770: 80aa c7f5 4359 cb3f 8065 c5ed 3016 cb3f
00000780: 0061 4081 32d6 ca3f 806d fff9 1499 ca3f
00000790: 0011 adf7 a85e ca3f 8063 faff c226 ca3f
000007a0: 80d2 c81b 3bf1 c93f 00a7 a67f ecbd c93f
000007b0: 0066 283e b58c c93f 80de de02 765d c93f
000007c0: 80f7 d5d4 1130 c93f 00f0 aedf 6d04 c93f
000007d0: 0030 8842 71da c83f 00a5 01e4 04b2 c83f
000007e0: 8092 c34a 138b c83f 8035 017a 8865 c83f
000007f0: 0000 83d1 5141 c83f 0067 d2f0 5d1e c83f
