onecap_model_with_structure_ambiguity/output/upper_triangular_two_ambiguous_parameters/Delta_10.0_distorted_0/logadjustment_1_boundary_0/zmax_5.0_zscale_2.0/delta_0.02/q_0.2_gamma_9.0_rho_1.0/model.npz (npz, 126264 bytes, 58 tensors)

clowerlim f8 []
00000000: 2d43 1ceb e236 1a3f
0.0001

zmin f8 []
00000000: 0000 0000 0000 14c0
-5.0

Delta f8 []
00000000: 0000 0000 0000 2440
10.0

s1_F f8 [401]
00000000: 4572 27d1 1a33 e9bf cdd1 4b67 d912 e9bf
00000010: 6cd9 6ffd 97f2 e8bf 4879 9393 56d2 e8bf
00000020: 09cc b629 15b2 e8bf eed2 d9bf d391 e8bf
00000030: 2a8f fc55 9271 e8bf 1508 1fec 5051 e8bf
00000040: a521 4182 0f31 e8bf 7fe6 6218 ce10 e8bf
00000050: 2873 84ae 8cf0 e7bf 54a4 a544 4bd0 e7bf
00000060: 5b93 c6da 09b0 e7bf 4a35 e770 c88f e7bf
00000070: de80 0707 876f e7bf 3480 279d 454f e7bf
00000080: 3e3a 4733 042f e7bf 3994 66c9 c20e e7bf
00000090: 8bac 855f 81ee e6bf 006d a4f5 3fce e6bf
000000a0: c8d6 c28b fead e6bf a7fd e021 bd8d e6bf
000000b0: 6dd1 feb7 7b6d e6bf e45f 1c4e 3a4d e6bf
000000c0: ac97 39e4 f82c e6bf 5074 567a b70c e6bf
000000d0: 58ff 7210 76ec e5bf 253b 8fa6 34cc e5bf
000000e0: 6a36 ab3c f3ab e5bf 33d5 c6d2 b18b e5bf
000000f0: 2822 e268 706b e5bf 2312 fdfe 2e4b e5bf
00000100: faac 1795 ed2a e5bf 51fa 312b ac0a e5bf
00000110: 0df7 4bc1 6aea e4bf 8799 6557 29ca e4bf
00000120: 58e9 7eed e7a9 e4bf 7ce3 9783 a689 e4bf
00000130: 9487 b019 6569 e4bf 6eda c8af 2349 e4bf
00000140: d7dc e045 e228 e4bf 2f84 f8db a008 e4bf
00000150: a2c8 0f72 5fe8 e3bf 15cd 2608 1ec8 e3bf
00000160: a071 3d9e dca7 e3bf 2ec1 5334 9b87 e3bf
00000170: d7b8 69ca 5967 e3bf ed50 7f60 1847 e3bf
00000180: 7290 94f6 d626 e3bf dc7b a98c 9506 e3bf
00000190: 7a11 be22 54e6 e2bf b649 d2b8 12c6 e2bf
000001a0: 7a2f e64e d1a5 e2bf 89ac f9e4 8f85 e2bf
000001b0: d5d9 0c7b 4e65 e2bf 49b3 1f11 0d45 e2bf
000001c0: e22c 32a7 cb24 e2bf be45 443d 8a04 e2bf
000001d0: 290b 56d3 48e4 e1bf b96b 6769 07c4 e1bf
000001e0: d176 78ff c5a3 e1bf 7927 8995 8483 e1bf
000001f0: 2271 992b 4363 e1bf 7063 a9c1 0143 e1bf
00000200: c3ef b857 c022 e1bf 2c28 c8ed 7e02 e1bf
00000210: d000 d783 3de2 e0bf ab7f e519 fcc1 e0bf
00000220: 8696 f3af baa1 e0bf fa57 0146 7981 e0bf
00000230: a4ae 0edc 3761 e0bf c1a8 1b72 f640 e0bf
00000240: 5947 2808 b520 e0bf 4181 349e 7300 e0bf
00000250: 6bb8 8068 64c0 dfbf 769b 9794 e17f dfbf
00000260: e8c3 adc0 5e3f dfbf e425 c3ec dbfe debf
00000270: 25d0 d718 59be debf 27af eb44 d67d debf
00000280: 3cc1 fe70 533d debf 3d0d 119d d0fc ddbf
00000290: cf99 22c9 4dbc ddbf 2361 33f5 ca7b ddbf
000002a0: 9452 4321 483b ddbf 067e 524d c5fa dcbf
000002b0: 35d1 6079 42ba dcbf ea6c 6ea5 bf79 dcbf
000002c0: 9637 7bd1 3c39 dcbf 3a32 87fd b9f8 dbbf
000002d0: 825f 9229 37b8 dbbf 09a7 9c55 b477 dbbf
000002e0: 3c2f a681 3137 dbbf 62ed aead aef6 dabf
000002f0: 54db b6d9 2bb6 dabf 5eec bd05 a975 dabf
00000300: 4a31 c431 2635 dabf 7f9d c95d a3f4 d9bf
00000310: 3c34 ce89 20b4 d9bf adfc d1b5 9d73 d9bf
00000320: 4feb d4e1 1a33 d9bf 6f02 d70d 98f2 d8bf
00000330: c73e d839 15b2 d8bf b89e d865 9271 d8bf
00000340: 8727 d891 0f31 d8bf bcdc d6bd 8cf0 d7bf
00000350: 2bb1 d4e9 09b0 d7bf b9aa d115 876f d7bf
00000360: 84c2 cd41 042f d7bf e301 c96d 81ee d6bf
00000370: 016c c399 fead d6bf 6bec bcc5 7b6d d6bf
00000380: 338a b5f1 f82c d6bf a741 ad1d 76ec d5bf
00000390: e61a a449 f3ab d5bf 7113 9a75 706b d5bf
000003a0: 8f2d 8fa1 ed2a d5bf 7361 83cd 6aea d4bf
000003b0: b6a1 76f9 e7a9 d4bf 6806 6925 6569 d4bf
000003c0: a282 5a51 e228 d4bf f51c 4b7d 5fe8 d3bf
000003d0: f7c3 3aa9 dca7 d3bf 7f84 29d5 5967 d3bf
000003e0: 2156 1701 d726 d3bf bb3f 042d 54e6 d2bf
000003f0: 5b3e f058 d1a5 d2bf 894e db84 4e65 d2bf
00000400: a266 c5b0 cb24 d2bf 9f8f aedc 48e4 d1bf
00000410: 84c9 9608 c6a3 d1bf b418 7e34 4363 d1bf
00000420: db75 6460 c022 d1bf 9bdb 498c 3de2 d0bf
00000430: 264b 2eb8 baa1 d0bf 66c1 11e4 3761 d0bf
00000440: 1d45 f40f b520 d0bf 07aa ab77 64c0 cfbf
00000450: cad5 6ccf 5e3f cfbf 4012 2c27 59be cebf
00000460: 215b e97e 533d cebf 10af a4d6 4dbc cdbf
00000470: e015 5e2e 483b cdbf 9a83 1586 42ba ccbf
00000480: 0a05 cbdd 3c39 ccbf 188f 7e35 37b8 cbbf
00000490: da1f 308d 3137 cbbf fdc1 dfe4 2bb6 cabf
000004a0: 8882 8d3c 2635 cabf 8651 3994 20b4 c9bf
000004b0: 9550 e3eb 1a33 c9bf 6f76 8b43 15b2 c8bf
000004c0: f5e4 319b 0f31 c8bf 32ad d6f2 09b0 c7bf
000004d0: 8500 7a4a 042f c7bf 5d05 1ca2 fead c6bf
000004e0: d412 bdf9 f82c c6bf 7e81 5d51 f3ab c5bf
000004f0: b7e9 fda8 ed2a c5bf 621f 9f00 e8a9 c4bf
00000500: d53e 4258 e228 c4bf 4df3 e8af dca7 c3bf
00000510: b296 9507 d726 c3bf 389e 4b5f d1a5 c2bf
00000520: e70a 10b7 cb24 c2bf 853e ea0e c6a3 c1bf
00000530: 4af3 e466 c022 c1bf 232e 10bf baa1 c0bf
00000540: 55c3 8317 b520 c0bf 3af4 c6e0 5e3f bfbf
00000550: 6663 ca93 533d bebf 6d55 b548 483b bdbf
00000560: 9d60 8100 3d39 bcbf b779 adbc 3137 bbbf
00000570: b32a 897f 2635 babf b5f5 aa4c 1b33 b9bf
00000580: 7572 ad29 1031 b8bf 2de2 5d1f 052f b7bf
00000590: 04a5 a23b fa2c b6bf 37a1 8c94 ef2a b5bf
000005a0: 14ea 504d e528 b4bf 502f 609e db26 b3bf
000005b0: 2655 9ae2 d224 b2bf 828b e3ac cb22 b1bf
000005c0: 52d3 75eb c620 b0bf 8dce 5443 8c3d aebf
000005d0: 3c7d a68c 9739 acbf 3799 29ba b735 aabf
000005e0: b838 44db f931 a8bf 86e6 001a 732e a6bf
000005f0: 2bd4 f982 452b a4bf 9f40 5531 a728 a2bf
00000600: af1f 8362 ec26 a0bf ba38 09ac 274d 9cbf
00000610: c435 040a a250 98bf 1af0 266b 095a 94bf
00000620: 7052 3978 ee6a 90bf 5dfc 6bf6 7605 89bf
00000630: 8e7f fb3b ef31 81bf 86d3 3f14 0237 72bf
00000640: 0000 0000 0000 0080 947d 3007 f2d4 75bf
00000650: 6fb5 2394 2260 87bf 7c0b bdff 5cae 92bf
00000660: fe76 e5ae 436b 9abf 3762 04e1 ea6f a1bf
00000670: 1fa0 6ad8 d501 a6bf d6e4 00b0 b6e6 aabf
00000680: 4475 1866 d00c b0bf 286c 9468 c9ca b2bf
00000690: bc59 7bcc cbaa b5bf 9749 72f3 6eaa b8bf
000006a0: fa98 3b46 64c7 bbbf 06e5 5a4e 7cff bebf
000006b0: 3db5 e0c5 5428 c1bf a4e1 a7ce 80dc c2bf
000006c0: 720a b29a 5e9b c4bf 2a43 929c 1b64 c6bf
000006d0: ca4f 61a9 f535 c8bf df1c 5516 3a10 cabf
000006e0: d254 89be 44f2 cbbf 7f44 19ff 7edb cdbf
000006f0: 8493 66b3 5ecb cfbf c922 1b9c b2e0 d0bf
00000700: ee6b f93c 8fde d1bf f83a 5508 10df d2bf
00000710: 43a7 9335 04e2 d3bf b97c d104 3fe7 d4bf
00000720: 73c7 ff63 97ee d5bf 9cf2 859b e7f7 d6bf
00000730: 8b39 0d02 0d03 d8bf 16c4 05b7 e70f d9bf
00000740: 8579 6d63 5a1e dabf 1c30 5d00 4a2e dbbf
00000750: 72c5 e2a2 9d3f dcbf 342f b34c 3e52 ddbf
00000760: 4a6b 45c1 1666 debf 5449 ef5e 137b dfbf
00000770: 76a7 d1fd 9048 e0bf 200b 7ce2 18d4 e0bf
00000780: b711 9491 1960 e1bf 1f71 60cf 8bec e1bf
00000790: 16f0 5ee4 6879 e2bf 5a31 6a92 aa06 e3bf
000007a0: ce2f dc0a 4b94 e3bf 66ec 94e5 4422 e4bf
000007b0: 9439 cf18 93b0 e4bf b8b7 aff1 303f e5bf
000007c0: e6e7 7b0d 1ace e5bf fa69 6953 4a5d e6bf
000007d0: 33ea f6ee bdec e6bf f23f c14a 717c e7bf
000007e0: 7bd7 c90b 610c e8bf cae7 220d 8a9c e8bf
000007f0: 5db9 f85b e92c e9bf d711 ef33 7cbd e9bf
-0.7874883732834596 -0.7835509316924402 -0.7796134900989222 -0.7756760485024552 -0.7717386069037967 -0.7678011653029821 -0.7638637237000456 -0.7599262820951959
-0.7559888404876359 -0.7520513988776684 -0.7481139572661037 -0.7441765156519389 -0.7402390740358941 -0.7363016324176581 -0.7323641907969678 -0.7284267491741105
-0.7244893075492838 -0.7205518659217268 -0.7166144242923037 -0.7126769826603834 -0.7087395410259996 -0.704802099389714 -0.7008646577510668 -0.6969272161104496
-0.6929897744673688 -0.6890523328216975 -0.6851148911737068 -0.6811774495234643 -0.6772400078713876 -0.6733025662166824 -0.6693651245596515 -0.665427682899978
-0.6614902412378847 -0.6575527995735887 -0.6536153579070018 -0.6496779162378495 -0.645740474566348 -0.6418030328924114 -0.6378655912160291 -0.6339281495373379
-0.6299907078563604 -0.6260532661727946 -0.622115824486418 -0.6181783827982225 -0.6142409411073011 -0.6103034994139642 -0.6063660577181292 -0.6024286160195779
-0.5984911743185093 -0.5945537326150503 -0.5906162909091528 -0.5866788492006012 -0.5827414074897057 -0.5788039657758343 -0.5748665240596958 -0.5709290823411745
-0.5669916406199287 -0.5630541988959334 -0.5591167571695667 -0.5551793154403334 -0.551241873708671 -0.5473044319744381 -0.543366990237278 -0.539429548497635
-0.5354921067550936 -0.5315546650101672 -0.5276172232625189 -0.5236797815123188 -0.5197423397591627 -0.5158048980035794 -0.511867456244961 -0.5079300144837121
-0.5039925727198621 -0.5000551309531504 -0.49611768918373994 -0.4921802474113329 -0.4882428056362742 -0.4843053638583952 -0.4803679220779052 -0.4764304802945269
-0.47249303850823643 -0.4685555967191311 -0.46461815492730535 -0.4606807131326766 -0.45674327133500836 -0.4528058295345264 -0.4488683877309712 -0.44493094592480864
-0.4409935041156755 -0.43705606230358607 -0.4331186204885783 -0.42918117867030553 -0.4252437368493138 -0.4213062950254508 -0.41736885319862904 -0.413431411368668
-0.4094939695358063 -0.4055565276998649 -0.4016190858608899 -0.39768164401898326 -0.3937442021739814 -0.38980676032591693 -0.38586931847474343 -0.3819318766204378
-0.377994434763075 -0.3740569929027051 -0.370119551039141 -0.36618210917246646 -0.36224466730258364 -0.3583072254296253 -0.3543697835536364 -0.3504323416743264
-0.34649489979179576 -0.34255745790599196 -0.3386200160170304 -0.3346825741248756 -0.33074513222956 -0.3268076903309726 -0.3228702484289231 -0.31893280652375333
-0.31499536461528 -0.3110579227035964 -0.30712048078845505 -0.30318303887003845 -0.2992455969482269 -0.29530815502311797 -0.29137071309466983 -0.2874332711628332
-0.2834958292274711 -0.279558387288711 -0.27562094534655324 -0.27168350340106007 -0.26774606145212737 -0.2638086194996789 -0.25987117754373157 -0.2559337355842416
-0.251996293621305 -0.24805885165490357 -0.24412140968494916 -0.24018396771147543 -0.23624652573445196 -0.23230908375386905 -0.2283716417697823 -0.2244341997821067
-0.2204967577909332 -0.21655931579618293 -0.2126218737978423 -0.2086844317959872 -0.20474698979071015 -0.2008095477818978 -0.196872105769789 -0.19293466375431786
-0.1889972217357251 -0.18505977971413184 -0.18112233768988886 -0.17718489566326925 -0.1732474536348919 -0.16931001160538622 -0.16537256957583477 -0.16143512754774308
-0.1574976855231315 -0.15356024350503575 -0.1496228014977326 -0.14568535950751182 -0.14174791754347568 -0.13781047561905183 -0.1338730337537533 -0.12993559197671897
-0.12599815033129383 -0.12206070888255818 -0.11812326772850454 -0.1141858270178397 -0.11024838697756185 -0.1063109479559675 -0.10237351049105818 -0.09843607541821238
-0.09449864404218451 -0.09056121841229788 -0.08662380176487622 -0.08268639923756359 -0.07874901902770431 -0.07481167427630209 -0.07087438614174299 -0.06693718882483604
-0.06300013779202843 -0.059063323229932775 -0.05512689201281737 -0.051191083407319864 -0.04725628663628484 -0.043323132442719944 -0.039392635572689315 -0.03546640851220783
-0.03154696180860072 -0.02763807284855411 -0.02374509035239726 -0.019874713101430165 -0.016032911384473214 -0.012217454333493355 -0.008396023767488516 -0.004446991082649348
-0.0 -0.005330033704950127 -0.011413831849916815 -0.018243268116985942 -0.02579980616552912 -0.034056987731848336 -0.042982752483396995 -0.052541455254365196
-0.06269552700583342 -0.07340678027360126 -0.08463739149315236 -0.09635060733334054 -0.10851122584026376 -0.12108590043034803 -0.13404330884933727 -0.1473542222081622
-0.16099150231828535 -0.17493004937252837 -0.1891467167903314 -0.2036202057881615 -0.21833094886338827 -0.2332609887694481 -0.24839385757254828 -0.2637144588921215
-0.2792089553310565 -0.2948646623016624 -0.3106699488840727 -0.3266141459516337 -0.34268746152439816 -0.3588809031278204 -0.37518620682103493 -0.39159577248853006
-0.4081026049588206 -0.4247002605013692 -0.4413827982599151 -0.45814473619678897 -0.47498101114404234 -0.49188694258659393 -0.5088581998254387 -0.5258907722021355
-0.5429809420898469 -0.5601252603842432 -0.5773205242508108 -0.5945637569107405 -0.6118521892653861 -0.6291832431810576 -0.6465545162734991 -0.6639637680470889
-0.681408907257034 -0.698887980378742 -0.7163991610789878 -0.7339407405906953 -0.7515111189120341 -0.7691087967461894 -0.7867323681182757 -0.8043805136044807

d f8 [401]
00000000: 1743 3a6f 31a4 b33f 1743 3a6f 31a4 b33f
00000010: 1743 3a6f 31a4 b33f 1743 3a6f 31a4 b33f
00000020: 1743 3a6f 31a4 b33f 1743 3a6f 31a4 b33f
00000030: 1743 3a6f 31a4 b33f 1743 3a6f 31a4 b33f
00000040: 1743 3a6f 31a4 b33f 1743 3a6f 31a4 b33f
00000050: 1743 3a6f 31a4 b33f 1743 3a6f 31a4 b33f
00000060: 1743 3a6f 31a4 b33f 1743 3a6f 31a4 b33f
00000070: 1743 3a6f 31a4 b33f 1743 3a6f 31a4 b33f
00000080: 1743 3a6f 31a4 b33f 1743 3a6f 31a4 b33f
00000090: 1743 3a6f 31a4 b33f 1743 3a6f 31a4 b33f
000000a0: 1743 3a6f 31a4 b33f 1743 3a6f 31a4 b33f
000000b0: 1743 3a6f 31a4 b33f 1743 3a6f 31a4 b33f
000000c0: 1743 3a6f 31a4 b33f 1743 3a6f 31a4 b33f
000000d0: 1743 3a6f 31a4 b33f 1743 3a6f 31a4 b33f
000000e0: 1743 3a6f 31a4 b33f 1743 3a6f 31a4 b33f
000000f0: 1743 3a6f 31a4 b33f 1743 3a6f 31a4 b33f
00000100: 1743 3a6f 31a4 b33f 1743 3a6f 31a4 b33f
00000110: 1743 3a6f 31a4 b33f 1743 3a6f 31a4 b33f
00000120: 1743 3a6f 31a4 b33f 1743 3a6f 31a4 b33f
00000130: 1743 3a6f 31a4 b33f 1743 3a6f 31a4 b33f
00000140: 1743 3a6f 31a4 b33f 1743 3a6f 31a4 b33f
00000150: 1743 3a6f 31a4 b33f 1743 3a6f 31a4 b33f
00000160: 1743 3a6f 31a4 b33f 1743 3a6f 31a4 b33f
00000170: 1743 3a6f 31a4 b33f 1743 3a6f 31a4 b33f
00000180: 1743 3a6f 31a4 b33f 1743 3a6f 31a4 b33f
00000190: 1743 3a6f 31a4 b33f 1743 3a6f 31a4 b33f
000001a0: 1743 3a6f 31a4 b33f 1743 3a6f 31a4 b33f
000001b0: 1743 3a6f 31a4 b33f 1743 3a6f 31a4 b33f
000001c0: 1743 3a6f 31a4 b33f 1743 3a6f 31a4 b33f
000001d0: 1743 3a6f 31a4 b33f 1743 3a6f 31a4 b33f
000001e0: 1743 3a6f 31a4 b33f 1743 3a6f 31a4 b33f
000001f0: 1743 3a6f 31a4 b33f 1743 3a6f 31a4 b33f
00000200: 1743 3a6f 31a4 b33f 1743 3a6f 31a4 b33f
00000210: 1743 3a6f 31a4 b33f 1743 3a6f 31a4 b33f
00000220: 1743 3a6f 31a4 b33f 1743 3a6f 31a4 b33f
00000230: 1743 3a6f 31a4 b33f 1743 3a6f 31a4 b33f
00000240: 1743 3a6f 31a4 b33f 1743 3a6f 31a4 b33f
00000250: 1743 3a6f 31a4 b33f 1743 3a6f 31a4 b33f
00000260: 1743 3a6f 31a4 b33f 1743 3a6f 31a4 b33f
00000270: 1743 3a6f 31a4 b33f 1743 3a6f 31a4 b33f
00000280: 1743 3a6f 31a4 b33f 1743 3a6f 31a4 b33f
00000290: 1743 3a6f 31a4 b33f 1743 3a6f 31a4 b33f
000002a0: 1743 3a6f 31a4 b33f 1743 3a6f 31a4 b33f
000002b0: 1743 3a6f 31a4 b33f 1743 3a6f 31a4 b33f
000002c0: 1743 3a6f 31a4 b33f 1743 3a6f 31a4 b33f
000002d0: 1743 3a6f 31a4 b33f 1743 3a6f 31a4 b33f
000002e0: 1743 3a6f 31a4 b33f 1743 3a6f 31a4 b33f
000002f0: 1743 3a6f 31a4 b33f 1743 3a6f 31a4 b33f
00000300: 1743 3a6f 31a4 b33f 1743 3a6f 31a4 b33f
00000310: 1743 3a6f 31a4 b33f 1743 3a6f 31a4 b33f
00000320: 1743 3a6f 31a4 b33f 1743 3a6f 31a4 b33f
00000330: 1743 3a6f 31a4 b33f 1743 3a6f 31a4 b33f
00000340: 1743 3a6f 31a4 b33f 1743 3a6f 31a4 b33f
00000350: 1743 3a6f 31a4 b33f 1743 3a6f 31a4 b33f
00000360: 1743 3a6f 31a4 b33f 1743 3a6f 31a4 b33f
00000370: 1743 3a6f 31a4 b33f 1743 3a6f 31a4 b33f
00000380: 1743 3a6f 31a4 b33f 1743 3a6f 31a4 b33f
00000390: 1743 3a6f 31a4 b33f 1743 3a6f 31a4 b33f
000003a0: 1743 3a6f 31a4 b33f 1743 3a6f 31a4 b33f
000003b0: 1743 3a6f 31a4 b33f 1743 3a6f 31a4 b33f
000003c0: 1743 3a6f 31a4 b33f 1743 3a6f 31a4 b33f
000003d0: 1743 3a6f 31a4 b33f 1743 3a6f 31a4 b33f
000003e0: 1743 3a6f 31a4 b33f 1743 3a6f 31a4 b33f
000003f0: 1743 3a6f 31a4 b33f 1743 3a6f 31a4 b33f
00000400: 1743 3a6f 31a4 b33f 1743 3a6f 31a4 b33f
00000410: 1743 3a6f 31a4 b33f 1743 3a6f 31a4 b33f
00000420: 1743 3a6f 31a4 b33f 1743 3a6f 31a4 b33f
00000430: 1743 3a6f 31a4 b33f 1743 3a6f 31a4 b33f
00000440: 1743 3a6f 31a4 b33f 1743 3a6f 31a4 b33f
00000450: 1743 3a6f 31a4 b33f 1743 3a6f 31a4 b33f
00000460: 1743 3a6f 31a4 b33f 1743 3a6f 31a4 b33f
00000470: 1743 3a6f 31a4 b33f 1743 3a6f 31a4 b33f
00000480: 1743 3a6f 31a4 b33f 1743 3a6f 31a4 b33f
00000490: 1743 3a6f 31a4 b33f 1743 3a6f 31a4 b33f
000004a0: 1743 3a6f 31a4 b33f 1743 3a6f 31a4 b33f
000004b0: 1743 3a6f 31a4 b33f 1743 3a6f 31a4 b33f
000004c0: 1743 3a6f 31a4 b33f 1743 3a6f 31a4 b33f
000004d0: 1743 3a6f 31a4 b33f 1743 3a6f 31a4 b33f
000004e0: 1743 3a6f 31a4 b33f 1743 3a6f 31a4 b33f
000004f0: 1743 3a6f 31a4 b33f 1743 3a6f 31a4 b33f
00000500: 1743 3a6f 31a4 b33f 1743 3a6f 31a4 b33f
00000510: 1743 3a6f 31a4 b33f 1743 3a6f 31a4 b33f
00000520: 1743 3a6f 31a4 b33f 1743 3a6f 31a4 b33f
00000530: 1743 3a6f 31a4 b33f 1743 3a6f 31a4 b33f
00000540: 1743 3a6f 31a4 b33f 1743 3a6f 31a4 b33f
00000550: 1743 3a6f 31a4 b33f 1743 3a6f 31a4 b33f
00000560: 1743 3a6f 31a4 b33f 1743 3a6f 31a4 b33f
00000570: 1743 3a6f 31a4 b33f 1743 3a6f 31a4 b33f
00000580: 1743 3a6f 31a4 b33f 1743 3a6f 31a4 b33f
00000590: 1743 3a6f 31a4 b33f 1743 3a6f 31a4 b33f
000005a0: 1743 3a6f 31a4 b33f 1743 3a6f 31a4 b33f
000005b0: 1743 3a6f 31a4 b33f 1743 3a6f 31a4 b33f
000005c0: 1743 3a6f 31a4 b33f 1743 3a6f 31a4 b33f
000005d0: 1743 3a6f 31a4 b33f 1743 3a6f 31a4 b33f
000005e0: 1743 3a6f 31a4 b33f 1743 3a6f 31a4 b33f
000005f0: 1743 3a6f 31a4 b33f 1743 3a6f 31a4 b33f
00000600: 1743 3a6f 31a4 b33f 1743 3a6f 31a4 b33f
00000610: 1743 3a6f 31a4 b33f 1743 3a6f 31a4 b33f
00000620: 1743 3a6f 31a4 b33f 1743 3a6f 31a4 b33f
00000630: 1743 3a6f 31a4 b33f 1743 3a6f 31a4 b33f
00000640: 1743 3a6f 31a4 b33f 1743 3a6f 31a4 b33f
00000650: 1743 3a6f 31a4 b33f 1743 3a6f 31a4 b33f
00000660: 1743 3a6f 31a4 b33f 1743 3a6f 31a4 b33f
00000670: 1743 3a6f 31a4 b33f 1743 3a6f 31a4 b33f
00000680: 1743 3a6f 31a4 b33f 1743 3a6f 31a4 b33f
00000690: 1743 3a6f 31a4 b33f 1743 3a6f 31a4 b33f
000006a0: 1743 3a6f 31a4 b33f 1743 3a6f 31a4 b33f
000006b0: 1743 3a6f 31a4 b33f 1743 3a6f 31a4 b33f
000006c0: 1743 3a6f 31a4 b33f 1743 3a6f 31a4 b33f
000006d0: 1743 3a6f 31a4 b33f 1743 3a6f 31a4 b33f
000006e0: 1743 3a6f 31a4 b33f 1743 3a6f 31a4 b33f
000006f0: 1743 3a6f 31a4 b33f 1743 3a6f 31a4 b33f
00000700: 1743 3a6f 31a4 b33f 1743 3a6f 31a4 b33f
00000710: 1743 3a6f 31a4 b33f 1743 3a6f 31a4 b33f
00000720: 1743 3a6f 31a4 b33f 1743 3a6f 31a4 b33f
00000730: 1743 3a6f 31a4 b33f 1743 3a6f 31a4 b33f
00000740: 1743 3a6f 31a4 b33f 1743 3a6f 31a4 b33f
00000750: 1743 3a6f 31a4 b33f 1743 3a6f 31a4 b33f
00000760: 1743 3a6f 31a4 b33f 1743 3a6f 31a4 b33f
00000770: 1743 3a6f 31a4 b33f 1743 3a6f 31a4 b33f
00000780: 1743 3a6f 31a4 b33f 1743 3a6f 31a4 b33f
00000790: 1743 3a6f 31a4 b33f 1743 3a6f 31a4 b33f
000007a0: 1743 3a6f 31a4 b33f 1743 3a6f 31a4 b33f
000007b0: 1743 3a6f 31a4 b33f 1743 3a6f 31a4 b33f
000007c0: 1743 3a6f 31a4 b33f 1743 3a6f 31a4 b33f
000007d0: 1743 3a6f 31a4 b33f 1743 3a6f 31a4 b33f
000007e0: 1743 3a6f 31a4 b33f 1743 3a6f 31a4 b33f
000007f0: 1743 3a6f 31a4 b33f 1743 3a6f 31a4 b33f
0.07672413793103448 0.07672413793103448 0.07672413793103448 0.07672413793103448 0.07672413793103448 0.07672413793103448 0.07672413793103448 0.07672413793103448
0.07672413793103448 0.07672413793103448 0.07672413793103448 0.07672413793103448 0.07672413793103448 0.07672413793103448 0.07672413793103448 0.07672413793103448
0.07672413793103448 0.07672413793103448 0.07672413793103448 0.07672413793103448 0.07672413793103448 0.07672413793103448 0.07672413793103448 0.07672413793103448
0.07672413793103448 0.07672413793103448 0.07672413793103448 0.07672413793103448 0.07672413793103448 0.07672413793103448 0.07672413793103448 0.07672413793103448
0.07672413793103448 0.07672413793103448 0.07672413793103448 0.07672413793103448 0.07672413793103448 0.07672413793103448 0.07672413793103448 0.07672413793103448
0.07672413793103448 0.07672413793103448 0.07672413793103448 0.07672413793103448 0.07672413793103448 0.07672413793103448 0.07672413793103448 0.07672413793103448
0.07672413793103448 0.07672413793103448 0.07672413793103448 0.07672413793103448 0.07672413793103448 0.07672413793103448 0.07672413793103448 0.07672413793103448
0.07672413793103448 0.07672413793103448 0.07672413793103448 0.07672413793103448 0.07672413793103448 0.07672413793103448 0.07672413793103448 0.07672413793103448
0.07672413793103448 0.07672413793103448 0.07672413793103448 0.07672413793103448 0.07672413793103448 0.07672413793103448 0.07672413793103448 0.07672413793103448
0.07672413793103448 0.07672413793103448 0.07672413793103448 0.07672413793103448 0.07672413793103448 0.07672413793103448 0.07672413793103448 0.07672413793103448
0.07672413793103448 0.07672413793103448 0.07672413793103448 0.07672413793103448 0.07672413793103448 0.07672413793103448 0.07672413793103448 0.07672413793103448
0.07672413793103448 0.07672413793103448 0.07672413793103448 0.07672413793103448 0.07672413793103448 0.07672413793103448 0.07672413793103448 0.07672413793103448
0.07672413793103448 0.07672413793103448 0.07672413793103448 0.07672413793103448 0.07672413793103448 0.07672413793103448 0.07672413793103448 0.07672413793103448
0.07672413793103448 0.07672413793103448 0.07672413793103448 0.07672413793103448 0.07672413793103448 0.07672413793103448 0.07672413793103448 0.07672413793103448
0.07672413793103448 0.07672413793103448 0.07672413793103448 0.07672413793103448 0.07672413793103448 0.07672413793103448 0.07672413793103448 0.07672413793103448
0.07672413793103448 0.07672413793103448 0.07672413793103448 0.07672413793103448 0.07672413793103448 0.07672413793103448 0.07672413793103448 0.07672413793103448
0.07672413793103448 0.07672413793103448 0.07672413793103448 0.07672413793103448 0.07672413793103448 0.07672413793103448 0.07672413793103448 0.07672413793103448
0.07672413793103448 0.07672413793103448 0.07672413793103448 0.07672413793103448 0.07672413793103448 0.07672413793103448 0.07672413793103448 0.07672413793103448
0.07672413793103448 0.07672413793103448 0.07672413793103448 0.07672413793103448 0.07672413793103448 0.07672413793103448 0.07672413793103448 0.07672413793103448
0.07672413793103448 0.07672413793103448 0.07672413793103448 0.07672413793103448 0.07672413793103448 0.07672413793103448 0.07672413793103448 0.07672413793103448
0.07672413793103448 0.07672413793103448 0.07672413793103448 0.07672413793103448 0.07672413793103448 0.07672413793103448 0.07672413793103448 0.07672413793103448
0.07672413793103448 0.07672413793103448 0.07672413793103448 0.07672413793103448 0.07672413793103448 0.07672413793103448 0.07672413793103448 0.07672413793103448
0.07672413793103448 0.07672413793103448 0.07672413793103448 0.07672413793103448 0.07672413793103448 0.07672413793103448 0.07672413793103448 0.07672413793103448
0.07672413793103448 0.07672413793103448 0.07672413793103448 0.07672413793103448 0.07672413793103448 0.07672413793103448 0.07672413793103448 0.07672413793103448
0.07672413793103448 0.07672413793103448 0.07672413793103448 0.07672413793103448 0.07672413793103448 0.07672413793103448 0.07672413793103448 0.07672413793103448
0.07672413793103448 0.07672413793103448 0.07672413793103448 0.07672413793103448 0.07672413793103448 0.07672413793103448 0.07672413793103448 0.07672413793103448
0.07672413793103448 0.07672413793103448 0.07672413793103448 0.07672413793103448 0.07672413793103448 0.07672413793103448 0.07672413793103448 0.07672413793103448
0.07672413793103448 0.07672413793103448 0.07672413793103448 0.07672413793103448 0.07672413793103448 0.07672413793103448 0.07672413793103448 0.07672413793103448
0.07672413793103448 0.07672413793103448 0.07672413793103448 0.07672413793103448 0.07672413793103448 0.07672413793103448 0.07672413793103448 0.07672413793103448
0.07672413793103448 0.07672413793103448 0.07672413793103448 0.07672413793103448 0.07672413793103448 0.07672413793103448 0.07672413793103448 0.07672413793103448
0.07672413793103448 0.07672413793103448 0.07672413793103448 0.07672413793103448 0.07672413793103448 0.07672413793103448 0.07672413793103448 0.07672413793103448
0.07672413793103448 0.07672413793103448 0.07672413793103448 0.07672413793103448 0.07672413793103448 0.07672413793103448 0.07672413793103448 0.07672413793103448

zmax f8 []
00000000: 0000 0000 0000 1440
5.0

hz_F f8 [401]
00000000: 940d 89ad 2416 b43f 8d34 6aad 2416 b43f
00000010: c553 4bad 2416 b43f 2978 2cad 2416 b43f
00000020: be8b 0dad 2416 b43f 3b8d eeac 2416 b43f
00000030: 537b cfac 2416 b43f 914f b0ac 2416 b43f
00000040: 3a21 91ac 2416 b43f 40e7 71ac 2416 b43f
00000050: 1389 52ac 2416 b43f 7124 33ac 2416 b43f
00000060: 5da3 13ac 2416 b43f e60e f4ab 2416 b43f
00000070: cd6e d4ab 2416 b43f 05ba b4ab 2416 b43f
00000080: 17ea 94ab 2416 b43f 4816 75ab 2416 b43f
00000090: 7323 55ab 2416 b43f fc24 35ab 2416 b43f
000000a0: 9819 15ab 2416 b43f 2def f4aa 2416 b43f
000000b0: f4b3 d4aa 2416 b43f 005b b4aa 2416 b43f
000000c0: d4f3 93aa 2416 b43f 5082 73aa 2416 b43f
000000d0: 68fd 52aa 2416 b43f 8762 32aa 2416 b43f
000000e0: 73a3 11aa 2416 b43f 08da f0a9 2416 b43f
000000f0: effb cfa9 2416 b43f 7d13 afa9 2416 b43f
00000100: f318 8ea9 2416 b43f 8f04 6da9 2416 b43f
00000110: e5d8 4ba9 2416 b43f 049f 2aa9 2416 b43f
00000120: 284f 09a9 2416 b43f e9eb e7a8 2416 b43f
00000130: 4675 c6a8 2416 b43f 13e6 a4a8 2416 b43f
00000140: 053d 83a8 2416 b43f 7584 61a8 2416 b43f
00000150: 23c4 3fa8 2416 b43f ddd7 1da8 2416 b43f
00000160: f5df fba7 2416 b43f c8d0 d9a7 2416 b43f
00000170: edac b7a7 2416 b43f 247c 95a7 2416 b43f
00000180: ac36 73a7 2416 b43f 5ad7 50a7 2416 b43f
00000190: 785f 2ea7 2416 b43f c8d6 0ba7 2416 b43f
000001a0: 0231 e9a6 2416 b43f 1186 c6a6 2416 b43f
000001b0: 29ba a3a6 2416 b43f 2bd1 80a6 2416 b43f
000001c0: 04d8 5da6 2416 b43f 5acf 3aa6 2416 b43f
000001d0: aaa7 17a6 2416 b43f 5874 f4a5 2416 b43f
000001e0: 4a23 d1a5 2416 b43f adb9 ada5 2416 b43f
000001f0: b845 8aa5 2416 b43f adb4 66a5 2416 b43f
00000200: 5b17 43a5 2416 b43f c757 1fa5 2416 b43f
00000210: 8483 fba4 2416 b43f d092 d7a4 2416 b43f
00000220: 7b96 b3a4 2416 b43f 3e77 8fa4 2416 b43f
00000230: f44e 6ba4 2416 b43f 860b 47a4 2416 b43f
00000240: 01ab 22a4 2416 b43f 6438 fea3 2416 b43f
00000250: ebab d9a3 2416 b43f 8612 b5a3 2416 b43f
00000260: 0b5c 90a3 2416 b43f 958f 6ba3 2416 b43f
00000270: cfa2 46a3 2416 b43f 00a2 21a3 2416 b43f
00000280: cc8d fca2 2416 b43f 0961 d7a2 2416 b43f
00000290: 8a16 b2a2 2416 b43f 8cb1 8ca2 2416 b43f
000002a0: 0a3d 67a2 2416 b43f 63ad 41a2 2416 b43f
000002b0: de0e 1ca2 2416 b43f 9149 f6a1 2416 b43f
000002c0: f06e d0a1 2416 b43f b07d aaa1 2416 b43f
000002d0: 3a73 84a1 2416 b43f 0361 5ea1 2416 b43f
000002e0: f529 38a1 2416 b43f 2bd5 11a1 2416 b43f
000002f0: 8766 eba0 2416 b43f 15e7 c4a0 2416 b43f
00000300: 4249 9ea0 2416 b43f 1a96 77a0 2416 b43f
00000310: 63ca 50a0 2416 b43f a6df 29a0 2416 b43f
00000320: 49de 02a0 2416 b43f b7c3 db9f 2416 b43f
00000330: e191 b49f 2416 b43f 6b49 8d9f 2416 b43f
00000340: 2be5 659f 2416 b43f 3e61 3e9f 2416 b43f
00000350: fec7 169f 2416 b43f 9813 ef9e 2416 b43f
00000360: 3849 c79e 2416 b43f d25f 9f9e 2416 b43f
00000370: 8553 779e 2416 b43f c435 4f9e 2416 b43f
00000380: 73ff 269e 2416 b43f 29b3 fe9d 2416 b43f
00000390: 7e48 d69d 2416 b43f bec0 ad9d 2416 b43f
000003a0: ac18 859d 2416 b43f bf56 5c9d 2416 b43f
000003b0: 4087 339d 2416 b43f 9e91 0a9d 2416 b43f
000003c0: 7c81 e19c 2416 b43f 194f b89c 2416 b43f
000003d0: 420b 8f9c 2416 b43f c0a7 659c 2416 b43f
000003e0: 532c 3c9c 2416 b43f 9590 129c 2416 b43f
000003f0: 76d6 e89b 2416 b43f 8c00 bf9b 2416 b43f
00000400: 8a18 959b 2416 b43f 7113 6b9b 2416 b43f
00000410: f8ef 409b 2416 b43f a7a7 169b 2416 b43f
00000420: 9b41 ec9a 2416 b43f ffc2 c19a 2416 b43f
00000430: 3e29 979a 2416 b43f ed76 6c9a 2416 b43f
00000440: 5ba2 419a 2416 b43f 86ab 169a 2416 b43f
00000450: e798 eb99 2416 b43f f765 c099 2416 b43f
00000460: 0114 9599 2416 b43f 5fa2 6999 2416 b43f
00000470: f409 3e99 2416 b43f 3951 1299 2416 b43f
00000480: 306d e698 2416 b43f aa63 ba98 2416 b43f
00000490: 0134 8e98 2416 b43f dfd3 6198 2416 b43f
000004a0: 5536 3598 2416 b43f 7164 0898 2416 b43f
000004b0: d23f db97 2416 b43f 0dcb ad97 2416 b43f
000004c0: 86e4 7f97 2416 b43f 4476 5197 2416 b43f
000004d0: ec4b 2297 2416 b43f 4f36 f296 2416 b43f
000004e0: 1fd5 c096 2416 b43f b6bd 8d96 2416 b43f
000004f0: b13d 5896 2416 b43f 6756 1f96 2416 b43f
00000500: 4aa6 e195 2416 b43f f312 9d95 2416 b43f
00000510: f68e 4e95 2416 b43f f881 f194 2416 b43f
00000520: 1713 7f94 2416 b43f ecdf ec93 2416 b43f
00000530: fe4f 2b93 2416 b43f 6566 2292 2416 b43f
00000540: 5741 ad90 2416 b43f d29b 928e 2416 b43f
00000550: cb19 798b 2416 b43f e110 d486 2416 b43f
00000560: ce6a c47f 2416 b43f bce0 e574 2416 b43f
00000570: dbb8 fa63 2416 b43f 8648 6049 2416 b43f
00000580: b8d8 241f 2416 b43f c375 7cdb 2316 b43f
00000590: 8186 206e 2316 b43f 9aaf cebb 2216 b43f
000005a0: 40e4 7e96 2116 b43f 33a2 d0af 1f16 b43f
000005b0: 29c3 3081 1c16 b43f 9028 9621 1716 b43f
000005c0: 0d37 fff9 0d16 b43f 4708 623d fe15 b43f
000005d0: 7936 69f1 e215 b43f 9688 3c29 b315 b43f
000005e0: 160f a1bf 5e15 b43f 1132 bc3c c814 b43f
000005f0: 91dd f35c b913 b43f 7fcd 7c53 cd11 b43f
00000600: 05df d94f 470e b43f 5481 42f5 c207 b43f
00000610: f5b2 7aa7 9bfb b33f 7a20 f519 c9e4 b33f
00000620: 3f82 b23d beb9 b33f cd5e 7f58 9f68 b33f
00000630: 5380 2a16 40d1 b23f 8a9d c308 0dbe b13f
00000640: 8266 5e53 50c5 af3f d743 9615 4176 ad3f
00000650: a4a3 0994 8573 ab3f b88c 9e4f 82b2 a93f
00000660: 7572 fbbf d829 a83f 9bd9 bc5f 66d1 a63f
00000670: 45da 4272 30a2 a53f 3c0a d821 4696 a43f
00000680: 1a2a 234c 9fa8 a33f 8476 21ca fbd4 a23f
00000690: 7c18 d63c c517 a23f b996 bf44 f46d a13f
000006a0: aff5 f85b f9d4 a03f b5d8 3b2b a94a a03f
000006b0: c8c3 7007 589a 9f3f c140 b32d e0b5 9e3f
000006c0: 4bba 0309 3ce5 9d3f 0ba4 05c0 1e26 9d3f
000006d0: a5c4 96ae 8d76 9c3f c68a 9e67 d3d4 9b3f
000006e0: 6e8d 54f0 743f 9b3f afb4 9acf 28b5 9a3f
000006f0: 219b d69d cf34 9a3f 4aa9 bed0 6dbd 993f
00000700: 4b1c 0f8b 264e 993f 0be5 6642 37e6 983f
00000710: f1be f515 f484 983f 65eb 7fb7 c429 983f
00000720: 5a99 cccd 21d4 973f fa3c 19bc 9283 973f
00000730: 5c83 d5bd ab37 973f 17aa e648 0cf0 963f
00000740: 3d1f 1bab 5dac 963f 5b5b 70d9 516c 963f
00000750: cdcb 6769 a22f 963f 95d1 f7ad 0ff6 953f
00000760: cab1 b9f2 5fbf 953f efc9 d6d0 5e8b 953f
00000770: b5fe f299 dc59 953f 65ea ead5 ad2a 953f
00000780: f494 bcd0 aafd 943f 20d0 5a36 afd2 943f
00000790: 4fad 83ba 99a9 943f aa6e fbca 4b82 943f
000007a0: aa85 cb4a a95c 943f 1246 5855 9838 943f
000007b0: fc67 4b08 0116 943f 8f21 7653 cdf4 933f
000007c0: 03c9 eccd e8d4 933f d7ae b78f 40b6 933f
000007d0: a26e 8b0f c398 933f b372 0e04 607c 933f
000007e0: 2229 4048 0861 933f f947 a6c2 ad46 933f
000007f0: fd7a ee4e 432d 933f c353 bea9 bc14 933f
0.07846287953093728 0.0784628795028814 0.07846287947479798 0.07846287944673293 0.07846287941860816 0.07846287939041911 0.07846287936216116 0.07846287933381137
0.0784628793054524 0.07846287927705209 0.07846287924852317 0.07846287921997132 0.0784628791913184 0.07846287916259662 0.0784628791338335 0.0784628791049969
0.07846287907606385 0.07846287904711702 0.07846287901805997 0.07846287898896159 0.0784628789598173 0.07846287893056277 0.07846287890124853 0.07846287887182868
0.07846287884235831 0.07846287881285119 0.07846287878327518 0.07846287875362111 0.07846287872383843 0.07846287869401902 0.07846287866412614 0.0784628786341965
0.07846287860420258 0.07846287857411681 0.07846287854394836 0.0784628785137294 0.07846287848343236 0.07846287845306645 0.07846287842263164 0.07846287839210957
0.07846287836149564 0.07846287833082662 0.07846287830013003 0.0784628782692773 0.07846287823838323 0.0784628782074065 0.07846287817635629 0.07846287814526015
0.07846287811409053 0.07846287808282906 0.07846287805148033 0.0784628780200719 0.07846287798856014 0.07846287795703001 0.07846287792538277 0.0784628778936322
0.07846287786182421 0.07846287782996111 0.0784628777979878 0.07846287776597316 0.07846287773385288 0.07846287770164535 0.07846287766940108 0.07846287763705347
0.07846287760466224 0.0784628775721493 0.07846287753956288 0.07846287750687542 0.07846287747414664 0.07846287744129385 0.0784628774084089 0.07846287737542754
0.07846287734234282 0.07846287730919382 0.07846287727595296 0.07846287724266618 0.07846287720927607 0.07846287717580787 0.07846287714222487 0.0784628771085707
0.07846287707484761 0.07846287704103728 0.07846287700712132 0.07846287697311122 0.078462876939046 0.07846287690488433 0.07846287687066986 0.0784628768363176
0.07846287680188957 0.07846287676738117 0.07846287673278321 0.0784628766981577 0.07846287666340131 0.07846287662853928 0.0784628765935854 0.07846287655857183
0.07846287652345033 0.07846287648825304 0.0784628764529685 0.07846287641757374 0.0784628763820986 0.07846287634653391 0.07846287631088657 0.07846287627515884
0.07846287623933239 0.0784628762033934 0.07846287616737865 0.07846287613126746 0.07846287609507818 0.07846287605877869 0.0784628760223552 0.0784628759858697
0.07846287594929695 0.07846287591264613 0.07846287587588738 0.07846287583902531 0.07846287580204842 0.07846287576497966 0.0784628757278627 0.07846287569061025
0.07846287565326365 0.07846287561579536 0.07846287557826506 0.07846287554062226 0.07846287550289448 0.07846287546505189 0.07846287542710137 0.07846287538905211
0.07846287535093857 0.07846287531272168 0.07846287527439688 0.07846287523594118 0.07846287519737986 0.07846287515873128 0.07846287511998626 0.07846287508115397
0.0784628750422 0.0784628750031243 0.07846287496394987 0.07846287492466063 0.07846287488526117 0.0784628748457492 0.07846287480609943 0.07846287476633486
0.07846287472641644 0.07846287468636484 0.07846287464617775 0.07846287460581845 0.078462874565241 0.07846287452447755 0.07846287448342018 0.07846287444207807
0.07846287440033181 0.07846287435810334 0.07846287431520665 0.07846287427147412 0.0784628742265636 0.0784628741800962 0.07846287413143817 0.07846287407968476
0.0784628740235799 0.07846287396121081 0.0784628738898013 0.07846287380517214 0.07846287370109582 0.07846287356812781 0.07846287339208399 0.07846287315114749
0.07846287281177432 0.07846287232187812 0.07846287160018688 0.078462870518766 0.07846286887471907 0.07846286634401428 0.07846286240485105 0.07846285621079305
0.07846284637784862 0.07846283062504882 0.07846280516289462 0.0784627636446075 0.07846269535265638 0.07846258203847682 0.07846239236893084 0.07846207208618439
0.07846152642670408 0.0784605884419146 0.07845896142790733 0.07845611340283862 0.07845108202405657 0.07844211085120657 0.07842596549368454 0.07839663780469229
0.07834287356842758 0.07824343192851774 0.07805798376893931 0.07770974048355753 0.07705296522409187 0.07581516180595856 0.07350540677225696 0.06930619682281339
0.06205225961384732 0.05754283321869707 0.053615736313822354 0.05019004079738337 0.04719426482708836 0.044566344439249415 0.04225303072728485 0.04020899928220387
0.03839586071406505 0.03678118555465651 0.03533760421400786 0.03404200877393521 0.03287486312590759 0.0318196168208699 0.030862212614184675 0.02999067572528769
0.029194772768216287 0.02846572920808303 0.027795995503485788 0.027179053496761772 0.026609255951496484 0.026081693335687713 0.02559208298557814 0.02513667666031808
0.024712183225144718 0.024315703800060578 0.02394467720063082 0.023596833896572095 0.023270157037722818 0.02296284936010993 0.0226733049979687 0.022400085401082927
0.02214189869735538 0.02189758195535361 0.021666085895002674 0.02144646167103444 0.02123784941652377 0.021039468285104886 0.020850607773126046 0.020670620137688184
0.020498913755678097 0.020334947292852346 0.020178224572118094 0.020028290046737375 0.01988472479832174 0.01974714299109876 0.019615188723811613 0.019488533228952994
0.01936687237611868 0.01924992444212034 0.019137428115625917 0.019029140708527858 0.01892483654959521 0.018824305539574458 0.018727351849174834 0.01863379274398703

Vz_F f8 [401]
00000000: 000e 6729 3f4c f23f c039 4929 3f4c f23f
00000010: 005e 2b29 3f4c f23f 4087 0d29 3f4c f23f
00000020: 40a0 ef28 3f4c f23f c0a7 d128 3f4c f23f
00000030: 809c b328 3f4c f23f 4078 9528 3f4c f23f
00000040: 8051 7728 3f4c f23f 801f 5928 3f4c f23f
00000050: 80ca 3a28 3f4c f23f 406f 1c28 3f4c f23f
00000060: 80f8 fd27 3f4c f23f 006f df27 3f4c f23f
00000070: 40da c027 3f4c f23f 8031 a227 3f4c f23f
00000080: 806e 8327 3f4c f23f c0a7 6427 3f4c f23f
00000090: 00c3 4527 3f4c f23f 00d3 2627 3f4c f23f
000000a0: 80d6 0727 3f4c f23f 00bc e826 3f4c f23f
000000b0: 4091 c926 3f4c f23f c049 aa26 3f4c f23f
000000c0: 80f4 8a26 3f4c f23f 4095 6b26 3f4c f23f
000000d0: 4023 4c26 3f4c f23f 009c 2c26 3f4c f23f
000000e0: c0f1 0c26 3f4c f23f 803d ed25 3f4c f23f
000000f0: 4075 cd25 3f4c f23f 00a3 ad25 3f4c f23f
00000100: 40bf 8d25 3f4c f23f 80c2 6d25 3f4c f23f
00000110: 40af 4d25 3f4c f23f 408e 2d25 3f4c f23f
00000120: 0058 0d25 3f4c f23f 000f ed24 3f4c f23f
00000130: 40b3 cc24 3f4c f23f c03f ac24 3f4c f23f
00000140: 40b3 8b24 3f4c f23f c017 6b24 3f4c f23f
00000150: c074 4a24 3f4c f23f 40a7 2924 3f4c f23f
00000160: 80ce 0824 3f4c f23f 40df e723 3f4c f23f
00000170: 00dc c623 3f4c f23f 40cc a523 3f4c f23f
00000180: 80a8 8423 3f4c f23f c06b 6323 3f4c f23f
00000190: 4017 4223 3f4c f23f 80b2 2023 3f4c f23f
000001a0: a031 ff22 3f4c f23f c0ab dd22 3f4c f23f
000001b0: 0006 bc22 3f4c f23f 2044 9a22 3f4c f23f
000001c0: a072 7822 3f4c f23f 2092 5622 3f4c f23f
000001d0: a093 3422 3f4c f23f e089 1222 3f4c f23f
000001e0: 6063 f021 3f4c f23f 2025 ce21 3f4c f23f
000001f0: e0dc ab21 3f4c f23f 8078 8921 3f4c f23f
00000200: 4008 6721 3f4c f23f e076 4421 3f4c f23f
00000210: 80d1 2121 3f4c f23f a010 ff20 3f4c f23f
00000220: 8044 dc20 3f4c f23f a056 b920 3f4c f23f
00000230: 0060 9620 3f4c f23f 204f 7320 3f4c f23f
00000240: 2022 5020 3f4c f23f a0e3 2c20 3f4c f23f
00000250: 208c 0920 3f4c f23f 2028 e61f 3f4c f23f
00000260: 00a8 c21f 3f4c f23f a012 9f1f 3f4c f23f
00000270: 005e 7b1f 3f4c f23f 0096 571f 3f4c f23f
00000280: 40bb 331f 3f4c f23f c0c8 0f1f 3f4c f23f
00000290: 80b9 eb1e 3f4c f23f a090 c71e 3f4c f23f
000002a0: c058 a31e 3f4c f23f a006 7f1e 3f4c f23f
000002b0: 20a6 5a1e 3f4c f23f 2020 361e 3f4c f23f
000002c0: 8085 111e 3f4c f23f 00d5 ec1d 3f4c f23f
000002d0: 200c c81d 3f4c f23f c03b a31d 3f4c f23f
000002e0: c047 7e1d 3f4c f23f 0037 591d 3f4c f23f
000002f0: 400d 341d 3f4c f23f 40d3 0e1d 3f4c f23f
00000300: e07b e91c 3f4c f23f e00f c41c 3f4c f23f
00000310: 208c 9e1c 3f4c f23f 60ea 781c 3f4c f23f
00000320: c032 531c 3f4c f23f c062 2d1c 3f4c f23f
00000330: 407c 071c 3f4c f23f e07f e11b 3f4c f23f
00000340: a068 bb1b 3f4c f23f c032 951b 3f4c f23f
00000350: 40e8 6e1b 3f4c f23f 8083 481b 3f4c f23f
00000360: 8009 221b 3f4c f23f 8071 fb1a 3f4c f23f
00000370: c0b7 d41a 3f4c f23f 20ed ad1a 3f4c f23f
00000380: c00a 871a 3f4c f23f 2013 601a 3f4c f23f
00000390: 20fe 381a 3f4c f23f 00cd 111a 3f4c f23f
000003a0: a07c ea19 3f4c f23f 4013 c319 3f4c f23f
000003b0: c09c 9b19 3f4c f23f 6001 7419 3f4c f23f
000003c0: 604c 4c19 3f4c f23f 4076 2419 3f4c f23f
000003d0: 408f fc18 3f4c f23f a089 d418 3f4c f23f
000003e0: e06c ac18 3f4c f23f e030 8418 3f4c f23f
000003f0: 80d7 5b18 3f4c f23f 4063 3318 3f4c f23f
00000400: 80dd 0a18 3f4c f23f a03b e217 3f4c f23f
00000410: 607c b917 3f4c f23f 8099 9017 3f4c f23f
00000420: e099 6717 3f4c f23f 8082 3e17 3f4c f23f
00000430: e050 1517 3f4c f23f 8007 ec16 3f4c f23f
00000440: 009d c216 3f4c f23f 6011 9916 3f4c f23f
00000450: e06a 6f16 3f4c f23f 20a5 4516 3f4c f23f
00000460: 60c1 1b16 3f4c f23f 00bf f115 3f4c f23f
00000470: 2097 c715 3f4c f23f 0050 9d15 3f4c f23f
00000480: 00df 7215 3f4c f23f c049 4815 3f4c f23f
00000490: a08f 1d15 3f4c f23f a0a6 f214 3f4c f23f
000004a0: 4082 c714 3f4c f23f 402b 9c14 3f4c f23f
000004b0: 4084 7014 3f4c f23f c08f 4414 3f4c f23f
000004c0: 402d 1814 3f4c f23f 8047 eb13 3f4c f23f
000004d0: e0ab bd13 3f4c f23f c02c 8f13 3f4c f23f
000004e0: 006d 5f13 3f4c f23f 8005 2e13 3f4c f23f
000004f0: c049 fa12 3f4c f23f 8043 c312 3f4c f23f
00000500: e09c 8712 3f4c f23f 404d 4512 3f4c f23f
00000510: 0061 f911 3f4c f23f a066 9f11 3f4c f23f
00000520: 20bf 3011 3f4c f23f e05f a310 3f4c f23f
00000530: 4034 e80f 3f4c f23f 200a e80e 3f4c f23f
00000540: 8037 7f0d 3f4c f23f 805b 760b 3f4c f23f
00000550: 800d 7708 3f4c f23f 4048 f903 3f4c f23f
00000560: 6053 25fd 3e4c f23f e0ab a2f2 3e4c f23f
00000570: 008a 46e2 3e4c f23f a0fe 8cc8 3e4c f23f
00000580: c092 b69f 3e4c f23f 0024 4a5e 3e4c f23f
00000590: 20b0 8af4 3d4c f23f 404c 1c48 3d4c f23f
000005a0: a00d 7c2c 3c4c f23f 0004 e055 3a4c f23f
000005b0: 80ae 2642 374c f23f 00ee f80f 324c f23f
000005c0: c0d5 c535 294c f23f 8014 31fe 194c f23f
000005d0: 6004 fa98 ff4b f23f c0a9 bb64 d14b f23f
000005e0: c0e5 b7c4 7f4b f23f 101b 313a ee4a f23f
000005f0: f0b9 474c e849 f23f 50c6 5082 0c48 f23f
00000600: 5018 fa47 a444 f23f a0db 0905 573e f23f
00000610: c0df 1475 9632 f23f 20c2 5cd6 841c f23f
00000620: 808a 83d7 e5f2 f13f d052 0bb6 74a4 f13f
00000630: 2098 ab18 1512 f13f 7035 ac7a f807 f03f
00000640: 40e3 68d4 8c78 ec3f a081 7730 023d ea3f
00000650: 20e3 fc0a 464b e83f 003b af90 1699 e63f
00000660: 600b 866d 641d e53f 60b4 fce0 51d0 e33f
00000670: 808b de2e 1fab e23f a0c9 0aba 0da8 e13f
00000680: 805a 92e9 3fc2 e03f 8002 940a 33eb df3f
00000690: c0f9 8e03 457d de3f 4054 8334 da34 dd3f
000006a0: 008f c1dc fe0c dc3f c020 09fb 8001 db3f
000006b0: 409e 9858 d00e da3f 405d bbe1 e331 d93f
000006c0: 005e c083 2368 d83f 402d 35d7 55af d73f
000006d0: 0004 edf2 9005 d73f 4081 a6db 2d69 d63f
000006e0: 8081 5a1a bed8 d53f 80ab 2917 0353 d53f
000006f0: 40d0 16e8 e6d6 d43f 8013 4651 7663 d43f
00000700: 40d9 8ec0 dbf7 d33f 0027 2318 5b93 d33f
00000710: 007d 3124 4e35 d33f 4045 079e 21dd d23f
00000720: 0085 9ba4 528a d23f 8083 c896 6c3c d23f
00000730: 008c 053f 07f3 d13f 00da 5343 c5ad d13f
00000740: 0072 67ce 526c d13f c008 fd68 642e d13f
00000750: 006e dbfb b5f3 d03f c003 44f4 09bc d03f
00000760: 0088 a085 2887 d03f 407a 1604 df54 d03f
00000770: 00d8 5d54 ff24 d03f 00e1 98db beee cf3f
00000780: 0031 06d8 b197 cf3f 80b9 1f5c 9144 cf3f
00000790: 0085 5b02 1df5 ce3f 0051 22ab 19a9 ce3f
000007a0: 00fc d7f7 5060 ce3f 80d4 0cd5 901a ce3f
000007b0: 8006 e511 abd7 cd3f 0055 0a03 7597 cd3f
000007c0: 008e b82f c759 cd3f 00f3 a607 7d1e cd3f
000007d0: 806f bca0 74e5 cc3f 0029 a27b 8eae cc3f
000007e0: 807f 644e ad79 cc3f 0047 71d4 b546 cc3f
000007f0: 8053 55a3 8e15 cc3f 00ab b103 20e6 cb3f
1.143614923218479 1.1436149227844083 1.1436149223499115 1.1436149219156988 1.1436149214805624 1.1436149210444313 1.1436149206072344 1.1436149201686163
1.1436149197298562 1.1436149192904566 1.1436149188490674 1.143614918407323 1.1436149179640154 1.143614917519642 1.143614917074629 1.1436149166284792
1.1436149161808373 1.1436149157329822 1.1436149152834219 1.143614914833222 1.1436149143823116 1.1436149139296958 1.1436149134761564 1.1436149130209827
1.1436149125650275 1.1436149121085037 1.1436149116509142 1.1436149111921168 1.1436149107313298 1.1436149102699744 1.1436149098074821 1.1436149093444214
1.143614908880366 1.1436149084148894 1.143614907948134 1.1436149074805968 1.1436149070118518 1.143614906542041 1.1436149060711642 1.1436149055989375
1.1436149051252897 1.1436149046507893 1.1436149041758625 1.14361490369852 1.1436149032205378 1.1436149027412768 1.1436149022608788 1.1436149017797703
1.143614901297525 1.1436149008138585 1.143614900328842 1.1436148998429019 1.143614899355363 1.1436148988675399 1.1436148983779049 1.1436148978866711
1.1436148973945492 1.1436148969015747 1.1436148964068948 1.1436148959115755 1.143614895414622 1.1436148949163183 1.1436148944174462 1.1436148939169755
1.1436148934158297 1.143614892912801 1.1436148924086353 1.1436148919029065 1.1436148913965383 1.1436148908882515 1.1436148903794674 1.1436148898691911
1.1436148893573161 1.1436148888444464 1.1436148883301556 1.1436148878151542 1.143614887298554 1.143614886780746 1.1436148862611617 1.143614885740476
1.1436148852187245 1.143614884695623 1.143614884170887 1.1436148836446947 1.1436148831176496 1.1436148825891124 1.143614882059758 1.143614881528272
1.1436148809956137 1.143614880461712 1.1436148799264245 1.1436148793907108 1.143614878852972 1.143614878313599 1.143614877772805 1.1436148772310872
1.1436148766876997 1.1436148761431397 1.1436148755972297 1.1436148750496145 1.1436148745007557 1.1436148739505114 1.1436148733989882 1.1436148728462214
1.143614872291927 1.1436148717358918 1.1436148711786842 1.1436148706199845 1.1436148700600768 1.1436148694984638 1.1436148689349324 1.1436148683704417
1.143614867804601 1.1436148672375523 1.143614866668834 1.1436148660985168 1.1436148655264233 1.1436148649529088 1.1436148643786481 1.1436148638022914
1.143614863224478 1.1436148626447817 1.1436148620641262 1.1436148614817299 1.143614860898019 1.1436148603125318 1.1436148597253748 1.1436148591366901
1.1436148585470107 1.1436148579557326 1.1436148573627847 1.1436148567678117 1.1436148561712045 1.1436148555732473 1.143614854973798 1.1436148543729985
1.1436148537703161 1.1436148531657508 1.143614852559658 1.1436148519517886 1.143614851342214 1.1436148507308985 1.1436148501174515 1.143614849502228
1.1436148488846243 1.14361484826496 1.1436148476431995 1.1436148470187746 1.1436148463909745 1.1436148457602968 1.1436148451250716 1.143614844485441
1.1436148438395577 1.1436148431862136 1.1436148425225312 1.1436148418459169 1.1436148411510771 1.14361484043215 1.14361483967933 1.1436148388786194
1.1436148380105848 1.1436148370456323 1.1436148359408094 1.1436148346314567 1.1436148330212248 1.1436148309639904 1.1436148282403025 1.1436148245126176
1.1436148192619555 1.143614811682454 1.1436148005167013 1.1436147837853383 1.1436147583492229 1.1436147191950496 1.143614658249703 1.1436145624174188
1.143614410285565 1.1436141665637933 1.1436137726223095 1.1436131302659902 1.1436120736769695 1.1436103205198833 1.143607386019454 1.1436024307175785
1.143593988466236 1.143579476295855 1.1435543037080365 1.143510240067016 1.1434323963461424 1.1432935975187242 1.1430438022322242 1.1425900545549617
1.1417582332228626 1.1402197071854303 1.1373505185601829 1.1319626210717004 1.121801225520045 1.1026503668883159 1.0669146503146365 1.0019459525968522
0.8897155903460785 0.8199473330133067 0.7591886725050223 0.7061875177258514 0.6598379267819432 0.6191796678809958 0.5833888926903086 0.5517643579135445
0.5237121164271485 0.4987304309179663 0.4763958487273179 0.4563508522817905 0.4382931857892203 0.42196678652954844 0.40715416576356134 0.39367005390291254
0.3813561236033536 0.3700766183507831 0.3597147342989615 0.35016962480769465 0.34135391782367464 0.3331916547965008 0.3256165758605256 0.31857068955314816
0.31200307659618787 0.3058688865390735 0.3001284936380699 0.2947467845197771 0.2896925551886653 0.28493799900939365 0.2804582705923053 0.2762311131949957
0.27223653942726855 0.2684565568234909 0.26487493129181416 0.26147698263235597 0.25824940728682577 0.25518012427520276 0.25225814093516874 0.24947343561667168
0.24681685493522565 0.24428002355803002 0.2418552648078176 0.23953553062586508 0.23731433965437532 0.23518572237813729 0.23314417241822483 0.23118460319953016
0.22930230932352913 0.22749293206825172 0.22575242851678112 0.22407704388417216 0.22246328666460258 0.2209079062764019 0.21940787291773844 0.21796035938617564
