onecap_model_with_structure_ambiguity/output/upper_triangular_four_ambiguous_parameters/Delta_10.0_distorted_0/logadjustment_1_boundary_0/zmax_5.0_zscale_2.0/delta_0.02/q_0.1_gamma_1.0_rho_1.0/model.npz (npz, 126264 bytes, 58 tensors)

clowerlim f8 []
0	0x3f1a36e2eb1c432d	0.0001

zmin f8 []
0	0xc014000000000000	-5.0

Delta f8 []
0	0x4024000000000000	10.0

s1_F f8 [401]
0	0xbfd776fc2cdbe339	-0.36663727169757326
1	0xbfd75937b0969bce	-0.36482040638878466
2	0xbfd73b732aea0b4d	-0.36300353232234245
3	0xbfd71daec1e2799d	-0.361186684933182
4	0xbfd6ffea8192ee4f	-0.35936987546640337
5	0xbfd6e2266e1aa368	-0.35755310776089866
6	0xbfd6c4628928b6d6	-0.3557363833850621
7	0xbfd6a69ed3ad9cef	-0.3539197032136618
8	0xbfd688db4e60a938	-0.35210306791363477
9	0xbfd66b17f9e95f69	-0.35028647809439534
10	0xbfd64d54d6ec654c	-0.348469934354928
11	0xbfd62f91e60f6f54	-0.34665343729806364
12	0xbfd611cf27faad6a	-0.3448369875356635
13	0xbfd5f40c9d593811	-0.3430205856901703
14	0xbfd5d64a46d934fa	-0.341204232395128
15	0xbfd5b888252c0809	-0.3393879282958783
16	0xbfd59ac639065c7d	-0.3375716740496911
17	0xbfd57d0483204410	-0.33575547032620623
18	0xbfd55f43043540e5	-0.3339393178075752
19	0xbfd54181bd0463da	-0.3321232171888916
20	0xbfd523c0ae506176	-0.3303071691784888
21	0xbfd505ffd8dfa7a8	-0.32849117449824883
22	0xbfd4e83f3d7c72da	-0.32667523388390196
23	0xbfd4ca7edcf4e17f	-0.32485934808530453
24	0xbfd4acbeb81b26d3	-0.3230435178671602
25	0xbfd48efecfc57cb7	-0.32122774400881887
26	0xbfd4713f24ce6077	-0.31941202730514057
27	0xbfd4537fb8149818	-0.3175963685665706
28	0xbfd435c08a7b58b4	-0.31578076861968474
29	0xbfd418019cea676e	-0.3139652283076576
30	0xbfd3fa42f04e2b98	-0.31214974849052046
31	0xbfd3dc848597d133	-0.31033433004565153
32	0xbfd3bec65dbd7527	-0.3085189738684044
33	0xbfd3a10879ba2d7f	-0.30670368087222494
34	0xbfd3834ada8e489c	-0.3048884519895496
35	0xbfd3658d813f552a	-0.30307328817191836
36	0xbfd347d06ed85e0a	-0.30125819039082613
37	0xbfd32a13a469f57a	-0.2994431596378814
38	0xbfd30c57230a7718	-0.29762819692574416
39	0xbfd2ee9aebd61d55	-0.295813303288431
40	0xbfd2d0deffef2fb4	-0.2939984797819719
41	0xbfd2b323607e31a8	-0.2921837274850767
42	0xbfd295680eb201e3	-0.29036904749957965
43	0xbfd277ad0bc014bd	-0.28855444095126953
44	0xbfd259f258e4a4f0	-0.2867399089905822
45	0xbfd23c37f762d44b	-0.2849254527930653
46	0xbfd21e7de884ec90	-0.28311107356029996
47	0xbfd200c42d9c8c68	-0.28129677252053975
48	0xbfd1e30ac802e1a6	-0.27948255092953855
49	0xbfd1c551b918dac8	-0.2776684100712541
50	0xbfd1a799024765f5	-0.2758543512587431
51	0xbfd189e0a4ffaef5	-0.27404037583504187
52	0xbfd16c28a2bb5024	-0.27222648517386205
53	0xbfd14e70fcfca3d8	-0.2704126806807472
54	0xbfd130b9b54efb75	-0.26859896379385556
55	0xbfd11302cd46e179	-0.2667853359848987
56	0xbfd0f54c46826efb	-0.2649717987603563
57	0xbfd0d79622a98b1b	-0.263158353662378
58	0xbfd0b9e0636e334f	-0.26134500226981044
59	0xbfd09c2b0a8cd95f	-0.2595317461995332
60	0xbfd07e7619cca979	-0.2577185871074544
61	0xbfd060c192ffe181	-0.2559055266897517
62	0xbfd0430d780430d8	-0.2540925666842333
63	0xbfd02559cac3108d	-0.2522797088715912
64	0xbfd007a68d322276	-0.25046695507675254
65	0xbfcfd3e782a72800	-0.24865430717028403
66	0xbfcf9882d26d1888	-0.2468417670699561
67	0xbfcf5d1f0def1acd	-0.2450293367421267
68	0xbfcf21bc3981db74	-0.24321701820346286
69	0xbfcee65a59968f42	-0.24140481352253046
70	0xbfceaaf972bbe4d7	-0.23959272482151192
71	0xbfce6f99899f0ea0	-0.23778075427809586
72	0xbfce343aa30cb10f	-0.23596890412716973
73	0xbfcdf8dcc3f20ad6	-0.23415717666292463
74	0xbfcdbd7ff15e0740	-0.2323455742408047
75	0xbfcd8224308265cc	-0.23053409927960755
76	0xbfcd46c986b4f1c9	-0.22872275426369829
77	0xbfcd0b6ff970ca2e	-0.22691154174533906
78	0xbfccd0178e57a66f	-0.22510046434699713
79	0xbfcc94c04b3341a0	-0.22328952476392505
80	0xbfcc596a35f6c059	-0.22147872576670372
81	0xbfcc1e1554c03182	-0.21966807020397644
82	0xbfcbe2c1adda1abd	-0.21785756100526568
83	0xbfcba76f47bd2298	-0.21604720118400134
84	0xbfcb6c1e2911b54a	-0.21423699384051026
85	0xbfcb30ce58b1db00	-0.21242694216535796
86	0xbfcaf57fddab0be1	-0.21061704944267404
87	0xbfcaba32bf40279f	-0.20880731905373026
88	0xbfca7ee704eb7299	-0.20699775448055815
89	0xbfca439cb660c78c	-0.20518835930994006
90	0xbfca0853db8fd074	-0.20337913723745127
91	0xbfc9cd0c7ca64caa	-0.2015700920715962
92	0xbfc991c6a212a087	-0.19976122773846702
93	0xbfc9568254864946	-0.19795254828620495
94	0xbfc91b3f9cf8aa85	-0.1961440578900985
95	0xbfc8dffe84a9d168	-0.19433576085760795
96	0xbfc8a4bf152578de	-0.19252766163385265
97	0xbfc86981584615f6	-0.19071976480715563
98	0xbfc82e4558383a28	-0.18891207511519892
99	0xbfc7f30b1f7df2de	-0.18710459745115932
100	0xbfc7b7d2b8f26fc4	-0.1852973368703471
101	0xbfc77c9c2fcdd045	-0.1834902985971231
102	0xbfc741678fa92894	-0.18168348803221035
103	0xbfc70634e482c7bd	-0.179876910760468
104	0xbfc6cb043ac29ade	-0.1780705725588722
105	0xbfc68fd59f3eecfe	-0.17626447940515527
106	0xbfc654a91f4156db	-0.17445863748678545
107	0xbfc6197ec88bfdcf	-0.1726530532105088
108	0xbfc5de56a95f1fb3	-0.17084773321243815
109	0xbfc5a330d07ed6e9	-0.1690426843685409
110	0xbfc5680d4d395fae	-0.16723791380604552
111	0xbfc52cec2f6d8cb3	-0.16543342891518406
112	0xbfc4f1cd8791c2eb	-0.16362923736189514
113	0xbfc4b6b166bb2fcb	-0.1618253471009424
114	0xbfc47b97dea5af9a	-0.16002176639028393
115	0xbfc4408101bbe86b	-0.15821850380581579
116	0xbfc4056ce320200a	-0.15641556825744402
117	0xbfc3ca5b96b569fc	-0.15461296900578236
118	0xbfc38f4d312992f3	-0.1528107156801962
119	0xbfc35441c7ff95ee	-0.1510088182978246
120	0xbfc31939719ac3d8	-0.14920728728387078
121	0xbfc2de34454aa0fd	-0.14740613349318457
122	0xbfc2a3325b5795cd	-0.14560536823334616
123	0xbfc26833cd1066ad	-0.14380500328916437
124	0xbfc22d38b4d8a57e	-0.14200505094894916
125	0xbfc1f2412e3817bd	-0.1402055240325221
126	0xbfc1b74d55eb271b	-0.1384064359211202
127	0xbfc17c5d49f492cb	-0.13660780058957864
128	0xbfc1417129b0476f	-0.13480963264060672
129	0xbfc1068915e7a924	-0.13301194734169386
130	0xbfc0cba530e75163	-0.1312147606646575
131	0xbfc090c59e966d3c	-0.12941808932814947
132	0xbfc055ea848fe1a5	-0.1276219508433886
133	0xbfc01b140a3d6816	-0.12582636356347682
134	0xbfbfc084b1e96b61	-0.12403134673642803
135	0xbfbf4aeb382e1336	-0.12223692056256827
136	0xbfbed55c02666f11	-0.12044310625645617
137	0xbfbe5fd770551aef	-0.11864992611399904
138	0xbfbdea5de6b183fc	-0.11685740358508662
139	0xbfbd74efcf7ea5f2	-0.11506556335248044
140	0xbfbcff8d9a693ef2	-0.11327443141749052
141	0xbfbc8a37bd2e6fb8	-0.11148403519331296
142	0xbfbc14eeb40b83e0	-0.10969440360669536
143	0xbfbb9fb3023803d0	-0.10790556720895883
144	0xbfbb2a85326b4922	-0.10611755829748806
145	0xbfbab565d76ec71c	-0.104330411048775
146	0xbfba40558cbeae5b	-0.10254416166451945
147	0xbfb9cb54f73a9eec	-0.10075884853233291
148	0xbfb95664c5e86641	-0.09897451240285539
149	0xbfb8e185b2cb19cd	-0.09719119658539128
150	0xbfb86cb883d13249	-0.09540894716446603
151	0xbfb7f7fe0bdcd2ad	-0.09362781324018483
152	0xbfb783572be9b34f	-0.09184784719554993
153	0xbfb70ec4d454fa0b	-0.09006910499463332
154	0xbfb69a48064bdaad	-0.08829164651602169
155	0xbfb625e1d566bee2	-0.08651553592676067
156	0xbfb5b1936977c616	-0.08474084210299568
157	0xbfb53d5e0094a6a8	-0.08296763910461868
158	0xbfb4c942f165825d	-0.0811960067126249
159	0xbfb45543adc40894	-0.07942603103950524
160	0xbfb3e161c5b8b358	-0.0776578052252267
161	0xbfb36d9eeae66ba9	-0.0758914302336239
162	0xbfb2f9fcf478b7e7	-0.07412701576751567
163	0xbfb2867de3ac7edd	-0.07236468132441183
164	0xbfb21323e9110013	-0.07060455741975628
165	0xbfb19ff16aa55119	-0.06884678701073134
166	0xbfb12ce90aff10e2	-0.06709152716127023
167	0xbfb0ba0db1b1c92e	-0.0653389509987263
168	0xbfb04762953c0cbd	-0.06358925002500633
169	0xbfafa9d68da1c807	-0.06184263686090224
170	0xbfaec55780d50671	-0.0600993485227378
171	0xbfade150eb60adea	-0.058359650356887574
172	0xbfacfdccd0c08e7a	-0.05662384079212486
173	0xbfac1ad68238d8cf	-0.054892257114646285
174	0xbfab387adb7f22f1	-0.05316528252985176
175	0xbfaa56c88d618503	-0.051443354853072186
176	0xbfa975d07a410f08	-0.04972697727546743
177	0xbfa895a62966898b	-0.04801673179032936
178	0xbfa7b66057d2fef7	-0.04631329605171957
179	0xbfa6d819af57d00b	-0.04461746468942359
180	0xbfa5faf1afb14460	-0.042930176445800994
181	0xbfa51f0dd95b5e68	-0.041252548964334335
182	0xbfa4449b2f47957d	-0.039585923692167825
183	0xbfa36bd02c001116	-0.0379319242202049
184	0xbfa294ef50d152f1	-0.036292532554090935
185	0xbfa1c04a831fa23d	-0.03467018938664921
186	0xbfa0ee477e111f21	-0.03306792653944358
187	0xbfa01f65b60e2beb	-0.03148954245906296
188	0xbf9ea88c50fc5062	-0.029939835017174572
189	0xbf9d1b6b65a39a42	-0.028424909666592287
190	0xbf9b9975539ec2eb	-0.026952584484834324
191	0xbf9a254ce87639ed	-0.02553291481813773
192	0xbf98c25779d01bc7	-0.02417885476100048
193	0xbf9774f23cc46501	-0.022907052000936016
194	0xbf9642aceec019fd	-0.021738721916358717
195	0xbf95327f6af4e88e	-0.020700446036450652
196	0xbf944ce4a777a538	-0.01982457420482328
197	0xbf939bb7c5d3f2b0	-0.019148704003770944
198	0xbf9329a7f52841ea	-0.018713592851840412
199	0xbf930127bbe3bed4	-0.01855909427916809
200	0xbf932af4bda110df	-0.018718551706357608
201	0xbf93a659a0977c35	-0.01918926279710949
202	0xbf947838a779801e	-0.019989857885207234
203	0xbf959d1ccdc639e3	-0.02110714918085844
204	0xbf970e683fd700de	-0.022515896698451658
205	0xbf98c3b841f80446	-0.02418411162034697
206	0xbf9ab4289d202d92	-0.02607787570017945
207	0xbf9cd73408ae9b74	-0.028164685277853832
208	0xbf9f252d69397652	-0.030415257975951633
209	0xbfa0cbb633dd9a01	-0.032804197150472454
210	0xbfa214260cad4553	-0.03530997185465403
211	0xbfa369898b27c77f	-0.03791456054376762
212	0xbfa4c9e9b7971e13	-0.04060297361462175
213	0xbfa633a51598b593	-0.043362769018453616
214	0xbfa7a560e3ec1484	-0.04618361265424034
215	0xbfa91dfc73aba202	-0.04905690109245954
216	0xbfaa9c869e178872	-0.051975447462397364
217	0xbfac20352314fa8d	-0.054933224232162826
218	0xbfada85da7573845	-0.057925154378253775
219	0xbfaf3470095f346b	-0.06094694246676443
220	0xbfb061f8e643f0bf	-0.06399493810380628
221	0xbfb12b3d31cad4b8	-0.067066025406194
222	0xbfb1f5d8171cc6ae	-0.07015753330486049
223	0xbfb2c1a302db86bc	-0.07326716251148019
224	0xbfb38e7c9e121793	-0.0763929258265235
225	0xbfb45c47fbcfc02b	-0.07953309915296873
226	0xbfb52aebebc58d7c	-0.08268618112702159
227	0xbfb5fa526ac8d9ba	-0.08585085970921727
228	0xbfb6ca682b939b2d	-0.08902598441964633
229	0xbfb79b1c3340e088	-0.0922105431681094
230	0xbfb86c5f85eb98ba	-0.09540364284075312
231	0xbfb93e24e08b4014	-0.09860449296979851
232	0xbfba10607dbaaf0e	-0.10181239194451683
233	0xbfbae307e386a82a	-0.10502671532472677
234	0xbfbbb611b8bcd731	-0.10824690590092413
235	0xbfbc8975a07c1858	-0.11147246521076803
236	0xbfbd5d2c1b00d39a	-0.11470294627436176
237	0xbfbe312e6ad71f63	-0.11793794735342326
238	0xbfbf05767dc17ab3	-0.12117710657319485
239	0xbfbfd9fed8c1e76a	-0.1244200972741091
240	0xbfc057614365d43f	-0.1276666239824937
241	0xbfc0c1de84dc4115	-0.1309164189083353
242	0xbfc12c7526963a14	-0.13416923889276744
243	0xbfc197234d907cb7	-0.13742486274074903
244	0xbfc201e748edfded	-0.14068308888452866
245	0xbfc26cbf8d8fe3be	-0.1439437333317794
246	0xbfc2d7aab234b55b	-0.14720662785968383
247	0xbfc342a76c0c76da	-0.15047161842169637
248	0xbfc3adb48bb25d67	-0.15373856373910685
249	0xbfc418d0fa7ebb5b	-0.1570073340530723
250	0xbfc483fbb825f508	-0.16027781001677277
251	0xbfc4ef33d89ab9a6	-0.16354988170992363
252	0xbfc55a78822b2139	-0.16682344776041605
253	0xbfc5c5c8ebd18c0f	-0.17009841456010164
254	0xbfc631245bb2ee12	-0.17337469556319768
255	0xbfc69c8a25c53461	-0.17665221065763873

d f8 [401]
0	0x3fb3a4316f3a4317	0.07672413793103448
1	0x3fb3a4316f3a4317	0.07672413793103448
2	0x3fb3a4316f3a4317	0.07672413793103448
3	0x3fb3a4316f3a4317	0.07672413793103448
4	0x3fb3a4316f3a4317	0.07672413793103448
5	0x3fb3a4316f3a4317	0.07672413793103448
6	0x3fb3a4316f3a4317	0.07672413793103448
7	0x3fb3a4316f3a4317	0.07672413793103448
8	0x3fb3a4316f3a4317	0.07672413793103448
9	0x3fb3a4316f3a4317	0.07672413793103448
10	0x3fb3a4316f3a4317	0.07672413793103448
11	0x3fb3a4316f3a4317	0.07672413793103448
12	0x3fb3a4316f3a4317	0.07672413793103448
13	0x3fb3a4316f3a4317	0.07672413793103448
14	0x3fb3a4316f3a4317	0.07672413793103448
15	0x3fb3a4316f3a4317	0.07672413793103448
16	0x3fb3a4316f3a4317	0.07672413793103448
17	0x3fb3a4316f3a4317	0.07672413793103448
18	0x3fb3a4316f3a4317	0.07672413793103448
19	0x3fb3a4316f3a4317	0.07672413793103448
20	0x3fb3a4316f3a4317	0.07672413793103448
21	0x3fb3a4316f3a4317	0.07672413793103448
22	0x3fb3a4316f3a4317	0.07672413793103448
23	0x3fb3a4316f3a4317	0.07672413793103448
24	0x3fb3a4316f3a4317	0.07672413793103448
25	0x3fb3a4316f3a4317	0.07672413793103448
26	0x3fb3a4316f3a4317	0.07672413793103448
27	0x3fb3a4316f3a4317	0.07672413793103448
28	0x3fb3a4316f3a4317	0.07672413793103448
29	0x3fb3a4316f3a4317	0.07672413793103448
30	0x3fb3a4316f3a4317	0.07672413793103448
31	0x3fb3a4316f3a4317	0.07672413793103448
32	0x3fb3a4316f3a4317	0.07672413793103448
33	0x3fb3a4316f3a4317	0.07672413793103448
34	0x3fb3a4316f3a4317	0.07672413793103448
35	0x3fb3a4316f3a4317	0.07672413793103448
36	0x3fb3a4316f3a4317	0.07672413793103448
37	0x3fb3a4316f3a4317	0.07672413793103448
38	0x3fb3a4316f3a4317	0.07672413793103448
39	0x3fb3a4316f3a4317	0.07672413793103448
40	0x3fb3a4316f3a4317	0.07672413793103448
41	0x3fb3a4316f3a4317	0.07672413793103448
42	0x3fb3a4316f3a4317	0.07672413793103448
43	0x3fb3a4316f3a4317	0.07672413793103448
44	0x3fb3a4316f3a4317	0.07672413793103448
45	0x3fb3a4316f3a4317	0.07672413793103448
46	0x3fb3a4316f3a4317	0.07672413793103448
47	0x3fb3a4316f3a4317	0.07672413793103448
48	0x3fb3a4316f3a4317	0.07672413793103448
49	0x3fb3a4316f3a4317	0.07672413793103448
50	0x3fb3a4316f3a4317	0.07672413793103448
51	0x3fb3a4316f3a4317	0.07672413793103448
52	0x3fb3a4316f3a4317	0.07672413793103448
53	0x3fb3a4316f3a4317	0.07672413793103448
54	0x3fb3a4316f3a4317	0.07672413793103448
55	0x3fb3a4316f3a4317	0.07672413793103448
56	0x3fb3a4316f3a4317	0.07672413793103448
57	0x3fb3a4316f3a4317	0.07672413793103448
58	0x3fb3a4316f3a4317	0.07672413793103448
59	0x3fb3a4316f3a4317	0.07672413793103448
60	0x3fb3a4316f3a4317	0.07672413793103448
61	0x3fb3a4316f3a4317	0.07672413793103448
62	0x3fb3a4316f3a4317	0.07672413793103448
63	0x3fb3a4316f3a4317	0.07672413793103448
64	0x3fb3a4316f3a4317	0.07672413793103448
65	0x3fb3a4316f3a4317	0.07672413793103448
66	0x3fb3a4316f3a4317	0.07672413793103448
67	0x3fb3a4316f3a4317	0.07672413793103448
68	0x3fb3a4316f3a4317	0.07672413793103448
69	0x3fb3a4316f3a4317	0.07672413793103448
70	0x3fb3a4316f3a4317	0.07672413793103448
71	0x3fb3a4316f3a4317	0.07672413793103448
72	0x3fb3a4316f3a4317	0.07672413793103448
73	0x3fb3a4316f3a4317	0.07672413793103448
74	0x3fb3a4316f3a4317	0.07672413793103448
75	0x3fb3a4316f3a4317	0.07672413793103448
76	0x3fb3a4316f3a4317	0.07672413793103448
77	0x3fb3a4316f3a4317	0.07672413793103448
78	0x3fb3a4316f3a4317	0.07672413793103448
79	0x3fb3a4316f3a4317	0.07672413793103448
80	0x3fb3a4316f3a4317	0.07672413793103448
81	0x3fb3a4316f3a4317	0.07672413793103448
82	0x3fb3a4316f3a4317	0.07672413793103448
83	0x3fb3a4316f3a4317	0.07672413793103448
84	0x3fb3a4316f3a4317	0.07672413793103448
85	0x3fb3a4316f3a4317	0.07672413793103448
86	0x3fb3a4316f3a4317	0.07672413793103448
87	0x3fb3a4316f3a4317	0.07672413793103448
88	0x3fb3a4316f3a4317	0.07672413793103448
89	0x3fb3a4316f3a4317	0.07672413793103448
90	0x3fb3a4316f3a4317	0.07672413793103448
91	0x3fb3a4316f3a4317	0.07672413793103448
92	0x3fb3a4316f3a4317	0.07672413793103448
93	0x3fb3a4316f3a4317	0.07672413793103448
94	0x3fb3a4316f3a4317	0.07672413793103448
95	0x3fb3a4316f3a4317	0.07672413793103448
96	0x3fb3a4316f3a4317	0.07672413793103448
97	0x3fb3a4316f3a4317	0.07672413793103448
98	0x3fb3a4316f3a4317	0.07672413793103448
99	0x3fb3a4316f3a4317	0.07672413793103448
100	0x3fb3a4316f3a4317	0.07672413793103448
101	0x3fb3a4316f3a4317	0.07672413793103448
102	0x3fb3a4316f3a4317	0.07672413793103448
103	0x3fb3a4316f3a4317	0.07672413793103448
104	0x3fb3a4316f3a4317	0.07672413793103448
105	0x3fb3a4316f3a4317	0.07672413793103448
106	0x3fb3a4316f3a4317	0.07672413793103448
107	0x3fb3a4316f3a4317	0.07672413793103448
108	0x3fb3a4316f3a4317	0.07672413793103448
109	0x3fb3a4316f3a4317	0.07672413793103448
110	0x3fb3a4316f3a4317	0.07672413793103448
111	0x3fb3a4316f3a4317	0.07672413793103448
112	0x3fb3a4316f3a4317	0.07672413793103448
113	0x3fb3a4316f3a4317	0.07672413793103448
114	0x3fb3a4316f3a4317	0.07672413793103448
115	0x3fb3a4316f3a4317	0.07672413793103448
116	0x3fb3a4316f3a4317	0.07672413793103448
117	0x3fb3a4316f3a4317	0.07672413793103448
118	0x3fb3a4316f3a4317	0.07672413793103448
119	0x3fb3a4316f3a4317	0.07672413793103448
120	0x3fb3a4316f3a4317	0.07672413793103448
121	0x3fb3a4316f3a4317	0.07672413793103448
122	0x3fb3a4316f3a4317	0.07672413793103448
123	0x3fb3a4316f3a4317	0.07672413793103448
124	0x3fb3a4316f3a4317	0.07672413793103448
125	0x3fb3a4316f3a4317	0.07672413793103448
126	0x3fb3a4316f3a4317	0.07672413793103448
127	0x3fb3a4316f3a4317	0.07672413793103448
128	0x3fb3a4316f3a4317	0.07672413793103448
129	0x3fb3a4316f3a4317	0.07672413793103448
130	0x3fb3a4316f3a4317	0.07672413793103448
131	0x3fb3a4316f3a4317	0.07672413793103448
132	0x3fb3a4316f3a4317	0.07672413793103448
133	0x3fb3a4316f3a4317	0.07672413793103448
134	0x3fb3a4316f3a4317	0.07672413793103448
135	0x3fb3a4316f3a4317	0.07672413793103448
136	0x3fb3a4316f3a4317	0.07672413793103448
137	0x3fb3a4316f3a4317	0.07672413793103448
138	0x3fb3a4316f3a4317	0.07672413793103448
139	0x3fb3a4316f3a4317	0.07672413793103448
140	0x3fb3a4316f3a4317	0.07672413793103448
141	0x3fb3a4316f3a4317	0.07672413793103448
142	0x3fb3a4316f3a4317	0.07672413793103448
143	0x3fb3a4316f3a4317	0.07672413793103448
144	0x3fb3a4316f3a4317	0.07672413793103448
145	0x3fb3a4316f3a4317	0.07672413793103448
146	0x3fb3a4316f3a4317	0.07672413793103448
147	0x3fb3a4316f3a4317	0.07672413793103448
148	0x3fb3a4316f3a4317	0.07672413793103448
149	0x3fb3a4316f3a4317	0.07672413793103448
150	0x3fb3a4316f3a4317	0.07672413793103448
151	0x3fb3a4316f3a4317	0.07672413793103448
152	0x3fb3a4316f3a4317	0.07672413793103448
153	0x3fb3a4316f3a4317	0.07672413793103448
154	0x3fb3a4316f3a4317	0.07672413793103448
155	0x3fb3a4316f3a4317	0.07672413793103448
156	0x3fb3a4316f3a4317	0.07672413793103448
157	0x3fb3a4316f3a4317	0.07672413793103448
158	0x3fb3a4316f3a4317	0.07672413793103448
159	0x3fb3a4316f3a4317	0.07672413793103448
160	0x3fb3a4316f3a4317	0.07672413793103448
161	0x3fb3a4316f3a4317	0.07672413793103448
162	0x3fb3a4316f3a4317	0.07672413793103448
163	0x3fb3a4316f3a4317	0.07672413793103448
164	0x3fb3a4316f3a4317	0.07672413793103448
165	0x3fb3a4316f3a4317	0.07672413793103448
166	0x3fb3a4316f3a4317	0.07672413793103448
167	0x3fb3a4316f3a4317	0.07672413793103448
168	0x3fb3a4316f3a4317	0.07672413793103448
169	0x3fb3a4316f3a4317	0.07672413793103448
170	0x3fb3a4316f3a4317	0.07672413793103448
171	0x3fb3a4316f3a4317	0.07672413793103448
172	0x3fb3a4316f3a4317	0.07672413793103448
173	0x3fb3a4316f3a4317	0.07672413793103448
174	0x3fb3a4316f3a4317	0.07672413793103448
175	0x3fb3a4316f3a4317	0.07672413793103448
176	0x3fb3a4316f3a4317	0.07672413793103448
177	0x3fb3a4316f3a4317	0.07672413793103448
178	0x3fb3a4316f3a4317	0.07672413793103448
179	0x3fb3a4316f3a4317	0.07672413793103448
180	0x3fb3a4316f3a4317	0.07672413793103448
181	0x3fb3a4316f3a4317	0.07672413793103448
182	0x3fb3a4316f3a4317	0.07672413793103448
183	0x3fb3a4316f3a4317	0.07672413793103448
184	0x3fb3a4316f3a4317	0.07672413793103448
185	0x3fb3a4316f3a4317	0.07672413793103448
186	0x3fb3a4316f3a4317	0.07672413793103448
187	0x3fb3a4316f3a4317	0.07672413793103448
188	0x3fb3a4316f3a4317	0.07672413793103448
189	0x3fb3a4316f3a4317	0.07672413793103448
190	0x3fb3a4316f3a4317	0.07672413793103448
191	0x3fb3a4316f3a4317	0.07672413793103448
192	0x3fb3a4316f3a4317	0.07672413793103448
193	0x3fb3a4316f3a4317	0.07672413793103448
194	0x3fb3a4316f3a4317	0.07672413793103448
195	0x3fb3a4316f3a4317	0.07672413793103448
196	0x3fb3a4316f3a4317	0.07672413793103448
197	0x3fb3a4316f3a4317	0.07672413793103448
198	0x3fb3a4316f3a4317	0.07672413793103448
199	0x3fb3a4316f3a4317	0.07672413793103448
200	0x3fb3a4316f3a4317	0.07672413793103448
201	0x3fb3a4316f3a4317	0.07672413793103448
202	0x3fb3a4316f3a4317	0.07672413793103448
203	0x3fb3a4316f3a4317	0.07672413793103448
204	0x3fb3a4316f3a4317	0.07672413793103448
205	0x3fb3a4316f3a4317	0.07672413793103448
206	0x3fb3a4316f3a4317	0.07672413793103448
207	0x3fb3a4316f3a4317	0.07672413793103448
208	0x3fb3a4316f3a4317	0.07672413793103448
209	0x3fb3a4316f3a4317	0.07672413793103448
210	0x3fb3a4316f3a4317	0.07672413793103448
211	0x3fb3a4316f3a4317	0.07672413793103448
212	0x3fb3a4316f3a4317	0.07672413793103448
213	0x3fb3a4316f3a4317	0.07672413793103448
214	0x3fb3a4316f3a4317	0.07672413793103448
215	0x3fb3a4316f3a4317	0.07672413793103448
216	0x3fb3a4316f3a4317	0.07672413793103448
217	0x3fb3a4316f3a4317	0.07672413793103448
218	0x3fb3a4316f3a4317	0.07672413793103448
219	0x3fb3a4316f3a4317	0.07672413793103448
220	0x3fb3a4316f3a4317	0.07672413793103448
221	0x3fb3a4316f3a4317	0.07672413793103448
222	0x3fb3a4316f3a4317	0.07672413793103448
223	0x3fb3a4316f3a4317	0.07672413793103448
224	0x3fb3a4316f3a4317	0.07672413793103448
225	0x3fb3a4316f3a4317	0.07672413793103448
226	0x3fb3a4316f3a4317	0.07672413793103448
227	0x3fb3a4316f3a4317	0.07672413793103448
228	0x3fb3a4316f3a4317	0.07672413793103448
229	0x3fb3a4316f3a4317	0.07672413793103448
230	0x3fb3a4316f3a4317	0.07672413793103448
231	0x3fb3a4316f3a4317	0.07672413793103448
232	0x3fb3a4316f3a4317	0.07672413793103448
233	0x3fb3a4316f3a4317	0.07672413793103448
234	0x3fb3a4316f3a4317	0.07672413793103448
235	0x3fb3a4316f3a4317	0.07672413793103448
236	0x3fb3a4316f3a4317	0.07672413793103448
237	0x3fb3a4316f3a4317	0.07672413793103448
238	0x3fb3a4316f3a4317	0.07672413793103448
239	0x3fb3a4316f3a4317	0.07672413793103448
240	0x3fb3a4316f3a4317	0.07672413793103448
241	0x3fb3a4316f3a4317	0.07672413793103448
242	0x3fb3a4316f3a4317	0.07672413793103448
243	0x3fb3a4316f3a4317	0.07672413793103448
244	0x3fb3a4316f3a4317	0.07672413793103448
245	0x3fb3a4316f3a4317	0.07672413793103448
246	0x3fb3a4316f3a4317	0.07672413793103448
247	0x3fb3a4316f3a4317	0.07672413793103448
248	0x3fb3a4316f3a4317	0.07672413793103448
249	0x3fb3a4316f3a4317	0.07672413793103448
250	0x3fb3a4316f3a4317	0.07672413793103448
251	0x3fb3a4316f3a4317	0.07672413793103448
252	0x3fb3a4316f3a4317	0.07672413793103448
253	0x3fb3a4316f3a4317	0.07672413793103448
254	0x3fb3a4316f3a4317	0.07672413793103448
255	0x3fb3a4316f3a4317	0.07672413793103448

zmax f8 []
0	0x4014000000000000	5.0

hz_F f8 [401]
0	0x3faa7e0c4bdd79c5	0.05174292017067076
1	0x3faa7dc87f5d874c	0.0517408996081615
2	0x3faa7d84211ead5a	0.0517388620786174
3	0x3faa7d3f01d8ab43	0.051736802077661646
4	0x3faa7cf9106cc269	0.05173471761225274
5	0x3faa7cb244f77e4f	0.05173260776404886
6	0x3faa7c6a9a60d7af	0.051730471940046534
7	0x3faa7c220c5f6e7a	0.05172830964121729
8	0x3faa7bd896daab46	0.05172612039071693
9	0x3faa7b8e35b94974	0.0517239037113936
10	0x3faa7b42e4d160fb	0.05172165911852918
11	0x3faa7af69fe32370	0.05171938611744664
12	0x3faa7aa962968d45	0.05171708420246061
13	0x3faa7a5b287a4581	0.051714752856365294
14	0x3faa7a0bed02d039	0.05171239155006941
15	0x3faa79bbab89ab0c	0.05170999974219201
16	0x3faa796a5f4c9592	0.05170757687873641
17	0x3faa7918036cb834	0.051705122392704445
18	0x3faa78c492eddfa9	0.0517026357037474
19	0x3faa787008b5982c	0.05170011621775958
20	0x3faa781a5f8a4dd9	0.05169756332648107
21	0x3faa77c392126548	0.0516949764070867
22	0x3faa776b9ad34db2	0.0516923548217635
23	0x3faa771274308dec	0.05168969791727904
24	0x3faa76b8186aa041	0.05168700502446245
25	0x3faa765c819e1bd8	0.051684275457823226
26	0x3faa75ffa9c272da	0.051681508514979504
27	0x3faa75a18aa8f130	0.05167870347620107
28	0x3faa75421dfb8640	0.05167585960385823
29	0x3faa74e15d3b8c1f	0.05167297614186616
30	0x3faa747f41c09913	0.05167005231514756
31	0x3faa741bc4b730c0	0.05166708732903791
32	0x3faa73b6df1f5cce	0.0516640803686471
33	0x3faa735089cb6c53	0.05166103059828999
34	0x3faa72e8bd5e5b53	0.051657937160760746
35	0x3faa727f724a7ae7	0.05165479917672205
36	0x3faa7214a0cfc413	0.051651615743942746
37	0x3faa71a840fa622b	0.0516483859366342
38	0x3faa713a4aa0e179	0.05164510880462365
39	0x3faa70cab5628efd	0.051641783372614804
40	0x3faa705978a5a5c2	0.05163840863935888
41	0x3faa6fe68b956b6b	0.05163498357679582
42	0x3faa6f71e520532f	0.05163150712920694
43	0x3faa6efb7bf5e7fb	0.05162797821226658
44	0x3faa6e834684b2ab	0.051624395712086844
45	0x3faa6e093af8257a	0.05162075848427157
46	0x3faa6d8d4f36442e	0.05161706535285081
47	0x3faa6d0f78dd555a	0.051613315109231464
48	0x3faa6c8fad416a3c	0.051609506511074404
49	0x3faa6c0de169dd91	0.051605638281155504
50	0x3faa6b8a0a0ea675	0.05160170910614862
51	0x3faa6b041b959400	0.051597717635367246
52	0x3faa6a7c0a0f83b5	0.05159366247949696
53	0x3faa69f1c9354a61	0.051589542209190105
54	0x3faa69654c64a9e9	0.05158535535368342
55	0x3faa68d6869d1890	0.05158110039933306
56	0x3faa68456a7c4a2b	0.051576775788039285
57	0x3faa67b1ea3abbf1	0.05157237991567588
58	0x3faa671bf7a81074	0.05156791113043449
59	0x3faa66838427247e	0.05156336773104274
60	0x3faa65e880aa253f	0.0515587479649846
61	0x3faa654addae633f	0.0515540500266014
62	0x3faa64aa8b37edb9	0.05154927205509403
63	0x3faa640778cd0ef3	0.051544412132470095
64	0x3faa636195718fb5	0.051539468281390034
65	0x3faa62b8cfa1c470	0.05153443846291672
66	0x3faa620d154d549e	0.051529320574141155
67	0x3faa615e53d1e314	0.05152411244575297
68	0x3faa60ac77f5556c	0.05151881183943882
69	0x3faa5ff76ddff0b6	0.05151341644520484
70	0x3faa5f3f211628aa	0.05150792387856147
71	0x3faa5e837c721833	0.05150233167755438
72	0x3faa5dc46a1cce07	0.051496637299717256
73	0x3faa5d01d3871d2f	0.051490838118804276
74	0x3faa5c3ba16234a3	0.05148493142142143
75	0x3faa5b71bb97d361	0.051478914403481076
76	0x3faa5aa4094218ff	0.051472784166479706
77	0x3faa59d270a2ed7e	0.05146653771358965
78	0x3faa58fcd71b0d60	0.05146017194558783
79	0x3faa582321208dfc	0.05145368365654332
80	0x3faa57453234fcfd	0.05144706952932585
81	0x3faa5662ecdaf6dd	0.051440326130870885
82	0x3faa557c328b3c1e	0.05143344990721509
83	0x3faa5490e3a92ca8	0.05142643717825851
84	0x3faa53a0df76c47e	0.051419284132301776
85	0x3faa52ac0407dbb3	0.05141198682024797
86	0x3faa51b22e34d44e	0.051404541149545055
87	0x3faa50b3398c8796	0.05139694287778622
88	0x3faa4faf00458767	0.05138918760600469
89	0x3faa4ea55b2e7976	0.05138127077155989
90	0x3faa4d96219daf62	0.0513731876406769
91	0x3faa4c81295feabf	0.0513649333006092
92	0x3faa4b6646a600e4	0.051356502651289465
93	0x3faa4a454bf1bb80	0.051347890396633566
94	0x3faa491e0a016bb0	0.05133909103525214
95	0x3faa47f04fba8a10	0.05133009885073048
96	0x3faa46bbea1302c8	0.05132090790130445
97	0x3faa4580a3f959a1	0.051311512009010636
98	0x3faa443e463b3d52	0.051301904748124585
99	0x3faa42f4976ad7ab	0.051292079433025016
100	0x3faa41a35bc2731e	0.051282029105300206
101	0x3faa404a55068162	0.05127174652011736
102	0x3faa3ee94265d723	0.051261224131776716
103	0x3faa3d7fe057f608	0.051250454078381635
104	0x3faa3c0de87971f7	0.051239428165647576
105	0x3faa3a9311660799	0.05122813784966169
106	0x3faa390f0e90762b	0.0512165742186251
107	0x3faa37819017d308	0.05120472797344716
108	0x3faa35ea429a314b	0.051192589407124865
109	0x3faa3448cf048cde	0.05118014838287775
110	0x3faa329cda5f6fd7	0.051167394310794805
111	0x3faa30e6059885e1	0.05115431612308519
112	0x3faa2f23ed48798b	0.051140902247641305
113	0x3faa2d562975423a	0.05112714057998287
114	0x3faa2b7c4d500c28	0.05111301845320099
115	0x3faa2995e6ef1502	0.05109852260606297
116	0x3faa27a27f028383	0.051083639148834535
117	0x3faa25a198846b50	0.05106835352690686
118	0x3faa2392b0631dfe	0.05105265048183226
119	0x3faa21753d25aed5	0.05103651400972146
120	0x3faa1f48ae8a0a3b	0.05101992731671997
121	0x3faa1d0c6d1c2b3a	0.05100287277135469
122	0x3faa1abfd9c5ca46	0.050985331853457924
123	0x3faa18624d5610df	0.050967285099462016
124	0x3faa15f3180077b8	0.05094871204367685
125	0x3faa137180d236b5	0.050929591155278876
126	0x3faa10dcc51d79f6	0.05090989977064801
127	0x3faa0e3417d94c6e	0.050889614020570004
128	0x3faa0b76a0f58ff7	0.050868708752005824
129	0x3faa08a37ca1ada7	0.05084715744382189
130	0x3faa05b9ba8502f3	0.05082493211603447
131	0x3faa02b85ce7b6f5	0.05080200323196308
132	0x3fa9ff9e57ca9286	0.05077833959265825
133	0x3fa9fc6a8fec43d7	0.05075390822288
134	0x3fa9f91bd9ba8b1e	0.05072867424794068
135	0x3fa9f5b0f82d2f6d	0.05070260076044417
136	0x3fa9f2289b88e9b1	0.05067564867609365
137	0x3fa9ee816007cc76	0.050647776577442835
138	0x3fa9eab9cc64d32c	0.05061894054452973
139	0x3fa9e6d05047a9e3	0.05058909397105873
140	0x3fa9e2c3428db619	0.05055818736478219
141	0x3fa9de90df6cd26d	0.0505261681304646
142	0x3fa9da37466c1c8d	0.05049298033377978
143	0x3fa9d5b4782e89de	0.050458564444187934
144	0x3fa9d106540a88e8	0.05042285705464328
145	0x3fa9cc2a95699f04	0.050385790575829176
146	0x3fa9c71ed0ea187d	0.0503472929022317
147	0x3fa9c1e0713c62ca	0.050307287047137786
148	0x3fa9bc6cb3b4e343	0.0502656907432937
149	0x3fa9b6c0a48a4258	0.0502224160055717
150	0x3fa9b0d91ab73c87	0.05017736865158278
151	0x3fa9aab2b375e0ea	0.050130447775645084
152	0x3fa9a449cd492dd8	0.05008154517107827
153	0x3fa99d9a82886db9	0.05003054469508634
154	0x3fa996a0a35e6069	0.0499773215698845
155	0x3fa98f57af2c8a71	0.049921741612952604
156	0x3fa987bacd411a30	0.04986366038842893
157	0x3fa97fc4c4cbc379	0.04980292227072076
158	0x3fa9776ff3fb96ad	0.04973935941033623
159	0x3fa96eb6462d53c6	0.04967279059079703
160	0x3fa96591290e9baf	0.04960301996407367
161	0x3fa95bf980978edc	0.0495298356507001
162	0x3fa951e799b86498	0.04945300818889925
163	0x3fa947531b952de1	0.04937228881552947
164	0x3fa93c32f725834d	0.049287407559637765
165	0x3fa9307d550976dd	0.04919807112740469
166	0x3fa9242781609cf2	0.04910396055520917
167	0x3fa91725d56b31b0	0.04900472860535687
168	0x3fa9096b9eb8d896	0.04889999687695583
169	0x3fa8faeb03a42f96	0.04878935260248267
170	0x3fa8eb94e4d73151	0.04867234509910879
171	0x3fa8db58bb929b80	0.048548481843048386
172	0x3fa8ca2474734c0d	0.04841722413552683
173	0x3fa8b7e44675708e	0.04827798233120105
174	0x3fa8a48286000bec	0.0481301106047097
175	0x3fa88fe773d76174	0.04797290124014611
176	0x3fa879f907f5e599	0.04780557844328399
177	0x3fa8629ab87fc2c7	0.04762729170022833
178	0x3fa849ad3d556d2c	0.047437108742736406
179	0x3fa82f0e51420f57	0.04723400823516382
180	0x3fa812987273e322	0.04701687237861153
181	0x3fa7f422a4ef36d4	0.04678447974548097
182	0x3fa7d3803b219597	0.04653549882713575
183	0x3fa7b080aad00def	0.046268483019982536
184	0x3fa78aef778ffbf3	0.04598186811926288
185	0x3fa76294401fd0bf	0.04567397387282445
186	0x3fa7373301b55b62	0.04534301181654744
187	0x3fa7088cac2bba7f	0.04498710252470505
188	0x3fa6d6602c5b0f3e	0.044604306616319964
189	0x3fa6a06c1f0e0218	0.04419267539106303
190	0x3fa666716e81d272	0.043750328769338945
191	0x3fa628372be610b8	0.04327557001946175
192	0x3fa5e58ffff04986	0.042767047874934724
193	0x3fa59e61844f64e8	0.042223975564135874
194	0x3fa552ada3438bd6	0.0416464101597495
195	0x3fa5029d94931e3d	0.04103558005004657
196	0x3fa4ae8d0b9803eb	0.04039421812559126
197	0x3fa457129d3611f5	0.03972681206781551
198	0x3fa3fd00b492b79e	0.03903963283788346
199	0x3fa3a159c96da705	0.03834038337556759
200	0x3fa345349a9221ca	0.037637370937833106
201	0x3fa2f01de5953450	0.03698819568180822
202	0x3fa29e954569e47c	0.036366142962784814
203	0x3fa251741e5d9898	0.03577769156145044
204	0x3fa20944ca16dacc	0.035226964634991725
205	0x3fa1c647332668cc	0.034715867036724996
206	0x3fa1887e8b37d8ad	0.03424449395599658
207	0x3fa14fc2069bc430	0.03381162958783823
208	0x3fa11bcc75d30a45	0.03341521204267343
209	0x3fa0ec48d2a72354	0.03305270739981006
210	0x3fa0c0db65346c33	0.03272138224038947
211	0x3fa09927ed0c2756	0.032418487249812486
212	0x3fa074d57ade552d	0.032141371964068056
213	0x3fa05390a23fa69a	0.03188755016874474
214	0x3fa0350c8c43ed56	0.031654731867059624
215	0x3fa0190350b5070d	0.031440833665795954
216	0x3f9ffe6bbaf2eea8	0.03124397591157782
217	0x3f9fced739033cc3	0.031062472204948188
218	0x3f9fa2e3efa4ce1d	0.03089481496972556
219	0x3f9f7a379f5a7cb1	0.030739659405864376
220	0x3f9f5481de14fd0c	0.030595807246979453
221	0x3f9f317b0afacada	0.030462191147942665
222	0x3f9f10e3549c23bb	0.03033786014478655
223	0x3f9ef281d508f42c	0.03022196638834289
224	0x3f9ed623c4b74a0d	0.030113753205862227
225	0x3f9ebb9bc3adc024	0.0300125444586571
226	0x3f9ea2c1379440f5	0.02991773511627201
227	0x3f9e8b6fbce894e6	0.029828782944737585
228	0x3f9e7586a970545b	0.02974520119831357
229	0x3f9e60e89e05ed68	0.029666552205055124
230	0x3f9e4d7b25f7082c	0.029592441742131978
231	0x3f9e3b26625023a7	0.02952251410536957
232	0x3f9e29d4bf99243b	0.029456447786547307
233	0x3f9e1972b4b0f9e3	0.0293939516816354
234	0x3f9e09ee899d9dac	0.029334761762042014
235	0x3f9dfb38254ab24f	0.029278638149366206
236	0x3f9ded40e15252e1	0.02922536254171149
237	0x3f9ddffb6308ebe7	0.029174735946280974
238	0x3f9dd35b791fc382	0.029126576679064715
239	0x3f9dc755fd482afb	0.029080718597508142
240	0x3f9dbbe0b955a993	0.02903700953667394
241	0x3f9db0f24f6e6037	0.028995309923260684
242	0x3f9da68224e868c3	0.028955491545368483
243	0x3f9d9c884f7f6f27	0.028917436458740255
244	0x3f9d92fd84991618	0.02888103601278233
245	0x3f9d89db0a588df9	0.028846189981903667
246	0x3f9d811aaa49b73d	0.028812805789520047
247	0x3f9d78b6a573c5a2	0.028780797813799837
248	0x3f9d70a9a9a90d1f	0.02875008676552426
249	0x3f9d68eec7ef8b0d	0.028720599129779468
250	0x3f9d61816be1d90a	0.028692266664131195
251	0x3f9d5a5d53ec8d8a	0.028665025946919033
252	0x3f9d537e8a4f7169	0.028638817970077755
253	0x3f9d4ce15eccd2a0	0.028613587771547544
254	0x3f9d468260f41fad	0.02858928410299171
255	0x3f9d405e5af6f204	0.02856585912899058

Vz_F f8 [401]
0	0x3fe75de7e801a280	0.730213120591614
1	0x3fe75da658a72ec0	0.7301818591599485
2	0x3fe75d643c5de840	0.7301503352202943
3	0x3fe75d21656d4340	0.7301184636108715
4	0x3fe75cddc3473b40	0.730086213496044
5	0x3fe75c994e4b0b80	0.7300535706675504
6	0x3fe75c54018bbc80	0.7300205259506498
7	0x3fe75c0dd8e42b00	0.7299870716245493
8	0x3fe75bc6d05e6000	0.7299532003116838
9	0x3fe75b7ee403bd00	0.7299189046297272
10	0x3fe75b360fcd8cc0	0.7298841770792919
11	0x3fe75aec4f9fecc0	0.7298490100069088
12	0x3fe75aa19f479200	0.729813395588792
13	0x3fe75a55fa78b240	0.7297773258229157
14	0x3fe75a095cce3d40	0.7297407925233657
15	0x3fe759bbc1c900c0	0.7297037873140866
16	0x3fe7596d24cef700	0.7296663016238369
17	0x3fe7591d812a74c0	0.7296283266802206
18	0x3fe758ccd2096b40	0.7295898535042866
19	0x3fe7587b127c8b00	0.729550872904241
20	0x3fe758283d766b80	0.7295113754693006
21	0x3fe757d44dcaab80	0.7294713515633333
22	0x3fe7577f3e2d0b00	0.7294307913183218
23	0x3fe7572909308040	0.7293896846276837
24	0x3fe756d1a9461d40	0.729348021138243
25	0x3fe7567918bc4040	0.7293057902443323
26	0x3fe7561f51bd5c80	0.7292629810789464
27	0x3fe755c44e4f0180	0.7292195825066727
28	0x3fe755680850af00	0.7291755831151647
29	0x3fe7550a797aa680	0.7291309712065441
30	0x3fe754ab9b5cc6c0	0.7290857347890878
31	0x3fe7544b675d4800	0.729039861568026
32	0x3fe753e9d6b76080	0.7289933389356662
33	0x3fe75386e27a0e80	0.7289461539625819
34	0x3fe7532283868d40	0.7288982933863863
35	0x3fe752bcb28f0880	0.7288497436022823
36	0x3fe752556814fd80	0.7288004906512668
37	0x3fe751ec9c67d1c0	0.7287505202098643
38	0x3fe7518247a31100	0.7286998175773363
39	0x3fe7511661acdac0	0.7286483676642419
40	0x3fe750a8e2341f00	0.7285961549796127
41	0x3fe75039c0aecac0	0.7285431636176654
42	0x3fe74fc8f457fac0	0.7284893772446921
43	0x3fe74f56742df740	0.7284347790843881
44	0x3fe74ee236f02c00	0.7283793519030723
45	0x3fe74e6c331d2540	0.72832307799505
46	0x3fe74df45ef04bc0	0.7282659391661284
47	0x3fe74d7ab05fa980	0.7282079167173805
48	0x3fe74cff1d198680	0.7281489914277728
49	0x3fe74c819a81fcc0	0.7280891435365433
50	0x3fe74c021db061c0	0.7280283527243725
51	0x3fe74b809b6c9980	0.7279665980939143
52	0x3fe74afd082c6480	0.7279038581501851
53	0x3fe74a77581062c0	0.7278401107788213
54	0x3fe749ef7ee12340	0.7277753332246917
55	0x3fe74965700c0680	0.7277095020692315
56	0x3fe748d91e9fe500	0.7276425932060704
57	0x3fe7484a7d49b840	0.7275745818167323
58	0x3fe747b97e511580	0.72750544234502
59	0x3fe74726139463c0	0.7274351484694463
60	0x3fe746902e851300	0.7273636730757005
61	0x3fe745f7c0239280	0.7272909882272671
62	0x3fe7455cb8fb1140	0.7272170651345178
63	0x3fe744bf091d2080	0.7271418741229496
64	0x3fe7441ea01d1f40	0.7270653845998609
65	0x3fe7437b6d0b7140	0.7269875650195345
66	0x3fe742d55e707280	0.7269083828465028
67	0x3fe7422c62474cc0	0.7268278045179599
68	0x3fe7418065f86f40	0.7267457954035095
69	0x3fe740d15653dd40	0.7266623197637401
70	0x3fe7401f1f8b3180	0.7265773407066689
71	0x3fe73f69ad2b4e00	0.7264908201418052
72	0x3fe73eb0ea15e140	0.7264027187330058
73	0x3fe73df4c07a7380	0.7263129958479198
74	0x3fe73d3519cf3d00	0.7262216095058704
75	0x3fe73c71dec99c00	0.7261285163230013
76	0x3fe73baaf7562a80	0.7260336714546867
77	0x3fe73ae04a906ec0	0.7259370285350641
78	0x3fe73a11beba3300	0.7258385396140454
79	0x3fe7393f39325a00	0.7257381550905961
80	0x3fe738689e6b5200	0.7256358236432447
81	0x3fe7378dd1e10340	0.7255314921568257
82	0x3fe736aeb60e4180	0.7254251056456695
83	0x3fe735cb2c61a8c0	0.7253166071725659
84	0x3fe734e31531ff80	0.7252059377642439
85	0x3fe733f64fb1e280	0.7250930363216668
86	0x3fe73304b9e2e340	0.7249778395263107
87	0x3fe7320e3087ec40	0.7248602817411509
88	0x3fe731128f16ff00	0.7247402949069226
89	0x3fe73011afaa1380	0.7246178084320576
90	0x3fe72f0b6aef3b00	0.7244927490772568
91	0x3fe72dff9817f5c0	0.7243650408342361
92	0x3fe72cee0cc77200	0.7242346047965498
93	0x3fe72bd69d000e40	0.7241013590250489
94	0x3fe72ab91b0f9900	0.7239652184041745
95	0x3fe72995577aa580	0.7238260944915709
96	0x3fe7286b20e697c0	0.7236838953583558
97	0x3fe7273a44029240	0.7235385254212545
98	0x3fe726028b6ee040	0.723389885263721
99	0x3fe724c3bfa32780	0.7232378714481769
100	0x3fe7237da6d2fd80	0.7230823763165262
101	0x3fe7223004d0eb80	0.7229232877792668
102	0x3fe720da9aefb6c0	0.7227604890919892
103	0x3fe71f7d27e1c780	0.7225938586181968
104	0x3fe71e176796bb40	0.7224232695788046
105	0x3fe71ca91316bbc0	0.7222485897854014
106	0x3fe71b31e05bac40	0.7220696813577732
107	0x3fe719b18227e5c0	0.7218864004236636
108	0x3fe71827a7da5e00	0.7216985967997402
109	0x3fe71693fd402900	0.7215061136533052
110	0x3fe714f62a62d080	0.721308787140984
111	0x3fe7134dd353b380	0.7211064460258143
112	0x3fe7119a97f3cf00	0.7208989112682218
113	0x3fe70fdc13b81580	0.7206859955919498
114	0x3fe70e11dd6985c0	0.7204675030190444
115	0x3fe70c3b86e15840	0.7202432283763827
116	0x3fe70a589cc05240	0.7200129567668867
117	0x3fe70868a6216dc0	0.7197764630067738
118	0x3fe7066b2446fee0	0.7195335110227141
119	0x3fe7045f92423d00	0.719283853208168
120	0x3fe70245649495e0	0.7190272297345324
121	0x3fe7001c08ca5900	0.7187633678138639
122	0x3fe6fde2e50e1be0	0.7184919809086487
123	0x3fe6fb9957b466a0	0.7182127678854222
124	0x3fe6f93eb6bed5c0	0.7179254121062328
125	0x3fe6f6d24f561d80	0.7176295804537602
126	0x3fe6f453653a28c0	0.7173249222844547
127	0x3fe6f1c132274ce0	0.7170110683022379
128	0x3fe6ef1ae52ff020	0.7166876293481472
129	0x3fe6ec5fa2095880	0.7163541950965424
130	0x3fe6e98e804ab000	0.716010332650967
131	0x3fe6e6a68a9cf4e0	0.7156555850303015
132	0x3fe6e3a6bdda7c40	0.7152894695353851
133	0x3fe6e08e081c7d60	0.7149114759849162
134	0x3fe6dd5b47b52fc0	0.7145210648100075
135	0x3fe6da0d4a146d40	0.7141176649924219
136	0x3fe6d6a2ca9515a0	0.7137006718336814
137	0x3fe6d31a7130cee0	0.7132694445376409
138	0x3fe6cf72d117e100	0.7128233035901133
139	0x3fe6cbaa672a56e0	0.7123615279149043
140	0x3fe6c7bf984f85e0	0.7118833517853851
141	0x3fe6c3b0afa88c40	0.7113879614665919
142	0x3fe6bf7bdc9a4420	0.7108744915623255
143	0x3fe6bb1f30aa8400	0.7103420210370359
144	0x3fe6b6989d2c1ac0	0.7097895688792377
145	0x3fe6b1e5f0b4a160	0.7092160893708233
146	0x3fe6ad04d4566ac0	0.7086204669206708
147	0x3fe6a7f2c8985f20	0.7080015104174642
148	0x3fe6a2ad2224d280	0.7073579470512215
149	0x3fe69d31062791c0	0.7066884155470277
150	0x3fe6977b66528340	0.7059914587481231
151	0x3fe69188fc7f1840	0.7052655154773291
152	0x3fe68b5645e1dce0	0.7045089115989889
153	0x3fe684df7dc3f3a0	0.7037198501926589
154	0x3fe67e2097b4fea0	0.7028964007403893
155	0x3fe6771539265440	0.7020364872174767
156	0x3fe66fb8b25e83a0	0.701137874963127
157	0x3fe66805f6b22f80	0.7001981561929682
158	0x3fe65ff793ecfe40	0.6992147339987653
159	0x3fe65787a8d2eea0	0.6981848046629757
160	0x3fe64eafda9f5d00	0.6971053380938486
161	0x3fe6456949644980	0.695973056166892
162	0x3fe63bac83288da0	0.694784408730289
163	0x3fe6317175a073e0	0.693535547008306
164	0x3fe626af5e57d600	0.6922222941054201
165	0x3fe61b5cb920a520	0.6908401122829311
166	0x3fe60f6f2c945fa0	0.6893840666480067
167	0x3fe602db74725340	0.6878487848613091
168	0x3fe5f59549a028c0	0.6862284124374796
169	0x3fe5e78f478e1600	0.6845165631827399
170	0x3fe5d8bacebcf120	0.6827062642910597
171	0x3fe5c907e422a7c0	0.6807898956078517
172	0x3fe5b8650d2a54a0	0.6787591225753609
173	0x3fe5a6bf2811ed80	0.6766048224084642
174	0x3fe594014071d140	0.6743170031245782
175	0x3fe580145fcde020	0.6718847151923946
176	0x3fe56adf5a2fc1a0	0.6692959557968159
177	0x3fe5544696fcae40	0.6665375660863404
178	0x3fe53c2bd686d820	0.6635951223349856
179	0x3fe5226df54ee360	0.6604528227972928
180	0x3fe506e8ae954e00	0.6570933732822937
181	0x3fe4e97460d5c8c0	0.6534978762922705
182	0x3fe4c9e5d82eeae0	0.6496457311944503
183	0x3fe4a80e24bc9000	0.645514556647413
184	0x3fe483ba85c6a020	0.6410801518259213
185	0x3fe45cb476a902e0	0.6363165204603227
186	0x3fe432c1efe8ede0	0.6311959920635068
187	0x3fe405a5f67e2ec0	0.6256894888224096
188	0x3fe3d5219d5f4e00	0.619767005317442
189	0x3fe3a0f5aa1a17c0	0.613398391943285
190	0x3fe368e51c37f5a0	0.6065545607704514
191	0x3fe32cb8e6329cc0	0.5992092605637467
192	0x3fe2ec45300b6340	0.5913415850037396
193	0x3fe2a770729d8720	0.5829393614369316
194	0x3fe25e3c87f8cb20	0.574003472871798
195	0x3fe210d14b72b7a0	0.5645529244991287
196	0x3fe1bf8769312e20	0.554629998639431
197	0x3fe16af07d21cfc0	0.5443041271196236
198	0x3fe113d7ff9ce9a0	0.5336723320427161
199	0x3fe0bb37df644140	0.5228537905805197
200	0x3fe0621da6d9f9a0	0.5119770296876602
201	0x3fe00fd640e4c420	0.5019332187131376
202	0x3fdf81fdc4854040	0.49230903808075155
203	0x3fdeecd3830186c0	0.4832047252040006
204	0x3fde61394d6bbc40	0.47468407211903596
205	0x3fdddfaac03f15c0	0.46677655004563334
206	0x3fdd682e08d22d80	0.4594836317198414
207	0x3fdcfa7441846580	0.45278650663529874
208	0x3fdc95f79d147fc0	0.4466532739625073
209	0x3fdc3a13ac9c9e40	0.4410447297727593
210	0x3fdbe6170f0a4100	0.43591858357196145
211	0x3fdb994f5b394680	0.43123229893271997
212	0x3fdb5310922ebc40	0.42694486880913374
213	0x3fdb12b95d8ab6c0	0.42301782736727134
214	0x3fdad7b5229a67c0	0.41941574458325803
215	0x3fdaa17caee194c0	0.4161063869308457
216	0x3fda6f960887b2c0	0.41306067307486316
217	0x3fda4193c02538c0	0.41025251163672394
218	0x3fda17140108c780	0.4076585779285935
219	0x3fd9efbf86a1a8c0	0.40525806567769607
220	0x3fd9cb488eab9440	0.40303243572845204
221	0x3fd9a969d5d20940	0.40096517449287106
222	0x3fd989e5a623fa80	0.3990415689913007
223	0x3fd96c84fab06f80	0.39724850159995384
224	0x3fd95116b932cdc0	0.39557426534448936
225	0x3fd9376f0146e180	0.3940083992452159
226	0x3fd91f668fd29000	0.39254154248396844
227	0x3fd908da34f18800	0.3911653058077036
228	0x3fd8f3aa5a8c9900	0.3898721584577203
229	0x3fd8dfba99ca4e40	0.3886553289278005
230	0x3fd8ccf15d9e35c0	0.3875087179411274
231	0x3fd8bb3790e08d00	0.3864268221679623
232	0x3fd8aa78567e9b40	0.38540466734632517
233	0x3fd89aa0ca7d0780	0.38443774961717025
234	0x3fd88b9fcaab4740	0.3835219840230941
235	0x3fd87d65c60b1640	0.382653659249943
236	0x3fd86fe4920f0d80	0.3818293978076426
237	0x3fd8630f44efc940	0.38104612094970847
238	0x3fd856da1470f3c0	0.38030101772511316
239	0x3fd84b3a38852340	0.3795915176347542
240	0x3fd84025d1532380	0.3789152664363016
241	0x3fd83593d02fa380	0.37827010470078193
242	0x3fd82b7be32d4040	0.377654048778826
243	0x3fd821d662f0f740	0.3770652738784186
244	0x3fd8189c4283ff40	0.3765020989958323
245	0x3fd80fc700e58780	0.37596297347601393
246	0x3fd807509c268d40	0.37544646500665024
247	0x3fd7ff3385e15300	0.37495124887691134
248	0x3fd7f76a98e38840	0.3744760983519235
249	0x3fd7eff10fe7e840	0.37401987603482567
250	0x3fd7e8c27d400e80	0.37358152610270423
251	0x3fd7e1dac3537180	0.37316006731796136
252	0x3fd7db360ddbbb00	0.37275458672858974
253	0x3fd7d4d0cbc97d80	0.372364233980953
254	0x3fd7cea7a9bf11c0	0.37198821617883127
255	0x3fd7c8b78d115100	0.3716257932294553
