onecap_model_with_structure_ambiguity/output/lower_triangular_four_ambiguous_parameters/Delta_10.0_distorted_0/logadjustment_1_boundary_1/zmax_5.0_zscale_2.0/delta_0.015/q_0.05_gamma_3.0_rho_1.0/model.npz (npz, 126264 bytes, 58 tensors)

clowerlim f8 []
00000000: 2d43 1ceb e236 1a3f
0.0001

zmin f8 []
00000000: 0000 0000 0000 14c0
-5.0

Delta f8 []
00000000: 0000 0000 0000 2440
10.0

s1_F f8 [401]
00000000: 1342 f758 938b e1bf 719f 276d 3a47 e0bf
00000010: 775f 06b0 88e1 dfbf 64db e060 8d96 dfbf
00000020: 1dd9 ac25 7664 dfbf 9253 a8d5 0f39 dfbf
00000030: a109 f653 7e0f dfbf 02f2 772a 6ee6 debf
00000040: 334c bbeb 81bd debf a662 a9bf 9f94 debf
00000050: 13b7 c078 c06b debf 54ae eb16 e242 debf
00000060: 447e 250b 041a debf 4f3f 932d 26f1 ddbf
00000070: 26a5 4d73 48c8 ddbf 3699 96d9 6a9f ddbf
00000080: 8588 0060 8d76 ddbf 37f3 c706 b04d ddbf
00000090: 70c1 5bce d224 ddbf 5a4c 3bb7 f5fb dcbf
000000a0: 1fb5 ecc1 18d3 dcbf 942f faee 3baa dcbf
000000b0: a648 f13e 5f81 dcbf acc7 62b2 8258 dcbf
000000c0: 24a7 e249 a62f dcbf b630 0806 ca06 dcbf
000000d0: a810 6ee7 eddd dbbf 3c6a b2ee 11b5 dbbf
000000e0: ccf5 761c 368c dbbf 2918 6171 5a63 dbbf
000000f0: 4e00 1aee 7e3a dbbf 94be 4e93 a311 dbbf
00000100: 8666 b061 c8e8 dabf 8d29 f459 edbf dabf
00000110: 937a d37c 1297 dabf ec29 0ccb 376e dabf
00000120: 4484 6045 5d45 dabf 3581 97ec 821c dabf
00000130: 2ed8 7cc1 a8f3 d9bf 1a2e e1c4 ceca d9bf
00000140: 7b3c 9af7 f4a1 d9bf aef4 825a 1b79 d9bf
00000150: 56ad 7bee 4150 d9bf 2d4a 6ab4 6827 d9bf
00000160: 3c6c 3aad 8ffe d8bf 8f9d ddd9 b6d5 d8bf
00000170: b381 4b3b deac d8bf 9a09 82d2 0584 d8bf
00000180: f2a4 85a0 2d5b d8bf 147a 61a6 5532 d8bf
00000190: 2798 27e5 7d09 d8bf 5b40 f15d a6e0 d7bf
000001a0: b40e df11 cfb7 d7bf ea47 1902 f88e d7bf
000001b0: 9415 d02f 2166 d7bf 1dc9 3b9c 4a3d d7bf
000001c0: 3225 9d48 7414 d7bf 33a6 3d36 9eeb d6bf
000001d0: 86d1 6f66 c8c2 d6bf 4c83 8fda f299 d6bf
000001e0: 1a43 0294 1d71 d6bf 4199 3794 4848 d6bf
000001f0: 556d a9dc 731f d6bf 9261 dc6e 9ff6 d5bf
00000200: bb37 604c cbcd d5bf e436 d076 f7a4 d5bf
00000210: d698 d3ef 237c d5bf 30f8 1db9 5053 d5bf
00000220: 05c8 6fd4 7d2a d5bf 78ce 9643 ab01 d5bf
00000230: 13a2 6e08 d9d8 d4bf 9435 e124 07b0 d4bf
00000240: c15e e79a 3587 d4bf 776c 896c 645e d4bf
00000250: 11be df9b 9335 d4bf 8567 132b c30c d4bf
00000260: 72d7 5e1c f3e3 d3bf ba88 0e72 23bb d3bf
00000270: 7bbb 812e 5492 d3bf 9836 2b54 8569 d3bf
00000280: 1515 92e5 b640 d3bf 7199 52e5 e817 d3bf
00000290: d70f 1f56 1bef d2bf 84bb c03a 4ec6 d2bf
000002a0: 44c8 1896 819d d2bf be56 216b b574 d2bf
000002b0: a186 eebc e94b d2bf f99b af8e 1e23 d2bf
000002c0: 1a2c b0e3 53fa d1bf 745c 59bf 89d1 d1bf
000002d0: 9033 3325 c0a8 d1bf 55f9 e518 f77f d1bf
000002e0: 2daf 3b9e 2e57 d1bf 6199 21b9 662e d1bf
000002f0: 39dd a96d 9f05 d1bf 9c39 0dc0 d8dc d0bf
00000300: 04d5 acb4 12b4 d0bf 082b 1450 4d8b d0bf
00000310: 930e fb96 8862 d0bf e1d2 478e c439 d0bf
00000320: b88b 113b 0111 d0bf b9f1 4445 7dd0 cfbf
00000330: a71c f594 f97e cfbf c151 a470 772d cfbf
00000340: 67d8 39e4 f6db cebf 8f9c 19fc 778a cebf
00000350: 249f 2ac5 fa38 cebf a8da dd4c 7fe7 cdbf
00000360: 3391 35a1 0596 cdbf 800d cdd0 8d44 cdbf
00000370: adf2 e0ea 17f3 ccbf b00c 58ff a3a1 ccbf
00000380: e5b7 cc1e 3250 ccbf 25f4 965a c2fe cbbf
00000390: b515 d7c4 54ad cbbf cf45 8170 e95b cbbf
000003a0: f7c1 6971 800a cbbf f4f9 51dc 19b9 cabf
000003b0: c8a7 f6c6 b567 cabf eeda 1e48 5416 cabf
000003c0: 932d ac77 f5c4 c9bf 4e19 ac6e 9973 c9bf
000003d0: f6a9 6a47 4022 c9bf 138f 861d ead0 c8bf
000003e0: 19bc 060e 977f c8bf 7ab6 7137 472e c8bf
000003f0: 2cb1 e6b9 fadc c7bf 28b9 38b7 b18b c7bf
00000400: 4501 0c53 6c3a c7bf bb9f f5b2 2ae9 c6bf
00000410: 36ed 9dfe ec97 c6bf 66c4 e55f b346 c6bf
00000420: 34f0 0e03 7ef5 c5bf 871e e816 4da4 c5bf
00000430: 70ab fccc 2053 c5bf 5faf c859 f901 c5bf
00000440: ffc4 f1f4 d6b0 c4bf 8007 85d9 b95f c4bf
00000450: 70d3 3a46 a20e c4bf 1ef8 c07d 90bd c3bf
00000460: 400e 0cc7 846c c3bf ebbe b06d 7f1b c3bf
00000470: a4ed 45c2 80ca c2bf 26cf d01a 8979 c2bf
00000480: e319 3cd3 9828 c2bf fab1 db4d b0d7 c1bf
00000490: d453 fef3 cf86 c1bf 9704 8f36 f835 c1bf
000004a0: 6d56 c88e 29e5 c0bf 1ec6 fb7e 6494 c0bf
000004b0: 1aef 6f93 a943 c0bf cf46 b1c6 f2e5 bfbf
000004c0: 0509 d923 a944 bfbf a084 389f 77a3 bebf
000004d0: 88ad e0b6 5f02 bebf 52d4 2509 6361 bdbf
000004e0: 21ed 1858 83c0 bcbf 16eb 758d c21f bcbf
000004f0: f66b 19bf 227f bbbf dc65 1334 a6de babf
00000500: ef65 706a 4f3e babf 9be7 d71d 219e b9bf
00000510: f628 244f 1efe b8bf d124 1f4d 4a5e b8bf
00000520: ec20 99be a8be b7bf 0444 18ae 3d1f b7bf
00000530: b319 6e97 0d80 b6bf 20a7 9077 1de1 b5bf
00000540: a9b0 29df 7242 b5bf 7a04 6908 14a4 b4bf
00000550: 83b2 c7f0 0706 b4bf a606 9477 5668 b3bf
00000560: 4e47 5382 08cb b2bf c77e 4a28 282e b2bf
00000570: b20e d7e6 c091 b1bf 8100 b1e0 dff5 b0bf
00000580: 49c7 c32a 945a b0bf ba29 1354 de7f afbf
00000590: c0ff 9f0d 0a4c aebf 990d 2c76 da19 adbf
000005a0: 08ba ca86 86e9 abbf bf1f 8bf7 4ebb aabf
000005b0: 69c1 b56a 808f a9bf cc9e 472a 7666 a8bf
000005c0: 78fc b0a2 9d40 a7bf 2ccf e4d2 7a1e a6bf
000005d0: 4ebb 1afa ad00 a5bf f221 2fdf fae7 a3bf
000005e0: 388a e022 52d5 a2bf cc9c dd20 ddc9 a1bf
000005f0: f6b0 ffe8 0cc7 a0bf e14d b476 599d 9fbf
00000600: a61d db04 f0c5 9dbf d5dc 3670 650d 9cbf
00000610: e3a2 cff7 817a 9abf 1902 7db9 6d15 99bf
00000620: e461 60bb a7e7 97bf e60d cb39 b0fb 96bf
00000630: 119c 0d86 405c 96bf 6162 7513 0413 96bf
00000640: da60 c43e 0527 96bf 31e5 5c8c 6999 96bf
00000650: 27ea 778f c769 97bf f653 40ac 1c92 98bf
00000660: 24c9 7550 7e09 9abf 3205 77ae a9c5 9bbf
00000670: 566d 20ef 53bc 9dbf c190 e4ce 01e4 9fbf
00000680: 0d2b 1faf 361a a1bf 4802 ad3c 4e53 a2bf
00000690: 891a 209b 659a a3bf bba7 e5be 21ed a4bf
000006a0: 0dea 7f3f 9849 a6bf 1403 7095 3aae a7bf
000006b0: 722c 963c c419 a9bf 01ca 18f8 2b8b aabf
000006c0: 42c6 e5f3 9701 acbf 4f26 e953 547c adbf
000006d0: 3f90 32bd cbfa aebf ad91 deb8 403e b0bf
000006e0: 879a 6954 8600 b1bf ac92 7e6f 0ac4 b1bf
000006f0: af21 9273 a788 b2bf b3ce 4f49 3d4e b3bf
00000700: 3b99 b667 b014 b4bf a6ac a411 e9db b4bf
00000710: 30bc 08b8 d2a3 b5bf f39b 2279 5b6c b6bf
00000720: ce3c ecb6 7335 b7bf 34f6 0ec0 0dff b7bf
00000730: a17e c787 1dc9 b8bf 68ef de69 9893 b9bf
00000740: bcfe 76f8 745e babf a78c ddd1 aa29 bbbf
00000750: 26ad f77c 32f5 bbbf 4c8f 1c4b 05c1 bcbf
00000760: 8c9f 713e 1d8d bdbf e129 06f4 7459 bebf
00000770: d2c6 1091 0726 bfbf 4e50 cdb2 d0f2 bfbf
00000780: 71a3 4830 e65f c0bf ff78 df7f 7bc6 c0bf
00000790: 9856 a7a4 262d c1bf 11f1 5820 e693 c1bf
000007a0: 6da4 ee95 b8fa c1bf ed11 28c6 9c61 c2bf
000007b0: bc70 7a8c 91c8 c2bf 6994 5edc 952f c3bf
000007c0: 20f4 efbe a896 c3bf dfe9 d150 c9fd c3bf
000007d0: d2f6 51c0 f664 c4bf a83a bf4b 30cc c4bf
000007e0: df5a f03f 7533 c5bf 511b f2f6 c49a c5bf
000007f0: f2aa d9d6 1e02 c6bf 4c56 b650 8269 c6bf
-0.5482880342115685 -0.508694852059291 -0.49814049901896545 -0.49356398068214546 -0.49050668410508697 -0.48785777916901296 -0.4853206462795701 -0.4828143515331079
-0.48031662007014403 -0.4778212901779092 -0.47532665054574 -0.47283222425787597 -0.4703378781177643 -0.46784357500745427 -0.46534930477226266 -0.46285506485800754
-0.46036085486606054 -0.4578666750165214 -0.4553725257128667 -0.4528784074183868 -0.4503843206210422 -0.4478902658236106 -0.44539624354104956 -0.4429022543000609
-0.44040829863898723 -0.43791437710821 -0.4354204902704262 -0.4329266387009374 -0.43043282298807806 -0.42793904373354735 -0.42544530155283133 -0.42295159707553265
-0.42045793094585127 -0.4179643038229635 -0.4154707163815285 -0.4129771693120847 -0.41048366332148967 -0.40799019913358175 -0.40549677748947743 -0.4030033991482199
-0.4005100648873349 -0.3980167755033318 -0.395523531812349 -0.39303033465071985 -0.3905371848756578 -0.38804408336587753 -0.385551031022284 -0.38305802876870987
-0.3805650775526167 -0.3780721783458898 -0.37557933214555067 -0.37308653997479774 -0.370593802883586 -0.36810112194973377 -0.3656084982797776 -0.3631159330099239
-0.3606234273070924 -0.3581309823699456 -0.3556385994300161 -0.35314627975281065 -0.3506540246390145 -0.34816183542570306 -0.3456697134876852 -0.34317766023880225
-0.34068567713336123 -0.3381937656675815 -0.33570192738114935 -0.33321016385878277 -0.3307184767319316 -0.3282268676805198 -0.3257353384347265 -0.323243890776973
-0.3207525265438385 -0.3182612476281927 -0.3157700559813473 -0.3132789536153882 -0.31078794260553544 -0.30829702509266677 -0.3058062032859465 -0.3033154794655757
-0.30082485598571057 -0.29833433527746595 -0.2958439198521296 -0.29335361230453594 -0.29086341531649773 -0.28837333166061885 -0.28588336420407684 -0.28339351591279144
-0.28090378985570086 -0.2784141892092926 -0.2759247172623924 -0.27343537742117024 -0.2709461732144856 -0.2684571082994776 -0.26596818646744996 -0.26347941165013267
-0.26099078792624675 -0.2585023195285179 -0.2560140108509838 -0.25352586645685277 -0.25103789108669217 -0.2485500896672315 -0.24606246732057466 -0.24357502937404088
-0.24108778137059803 -0.2386007290799381 -0.2361138785101896 -0.2336272359204561 -0.23114080783410315 -0.22865460105286317 -0.22616862267195384 -0.22368288009611126
-0.22119738105669665 -0.21871213363002187 -0.21622714625679654 -0.21374242776305016 -0.21125798738241006 -0.20877383477996114 -0.20628998007788213 -0.20380643388281022
-0.20132320731532313 -0.19884031204146385 -0.19635776030675317 -0.1938755649726934 -0.19139373955610564 -0.18891229827152128 -0.1864312560768523 -0.1839506287228201
-0.18147043280624522 -0.17899068582778263 -0.17651140625444278 -0.17403261358734595 -0.17155432843526486 -0.16907657259456618 -0.1665993691361467 -0.16412274250012168
-0.16164671859909416 -0.15917132493092012 -0.15669659070195108 -0.15422254696199017 -0.151749226752246 -0.14927666526772695 -0.14680490003580104 -0.1443339711128086
-0.14186392130086664 -0.13939479638737834 -0.13692664540999877 -0.1344595209502912 -0.13199347945981135 -0.12952858162275133 -0.12706489276012506 -0.12460248328104771
-0.12214142918768196 -0.119681812641391 -0.11722372259889913 -0.11476725552877667 -0.11231251622023254 -0.10985961869839075 -0.10740868726263372 -0.10495985766774346
-0.10251327847108603 -0.10006911257360544 -0.09762753898772644 -0.09518875487187307 -0.09275297787928921 -0.09032044887887031 -0.08789143511794499 -0.08546623391216857
-0.08304517696677984 -0.0806286354573035 -0.07821702602786655 -0.07581081790342611 -0.07341054136057076 -0.07101679786364477 -0.06863027225250098 -0.06625174747114394
-0.06388212245999826 -0.06152243400864017 -0.05917388359375719 -0.05683787052660278 -0.05451603312882375 -0.052210300176340756 -0.049922955537911325 -0.04765671983824191
-0.04541485415438101 -0.04320129227053679 -0.04102080991775968 -0.038879241699365866 -0.036783758885821916 -0.03474322344009692 -0.032768634264216986 -0.030873678083549797
-0.02907538442266646 -0.027394852613466043 -0.025857954740703525 -0.024495806165989096 -0.023344631969026156 -0.022444489982047865 -0.02183628862567494 -0.021556914985327306
-0.021633226352691583 -0.022069596473760448 -0.022864454394929148 -0.023994873059638842 -0.02542683950509529 -0.027121211312764966 -0.029038726301320615 -0.031143215420471607
-0.0334031189700764 -0.035791821390834644 -0.03828732985134759 -0.040871672203891284 -0.043530233146118126 -0.04625113557995611 -0.0490247081716796 -0.051843046221979
-0.054699657938624316 -0.05758918308545146 -0.06050717052974663 -0.06344990266240443 -0.0664142566762199 -0.06939759466201662 -0.0723976761966074 -0.07541258849942771
-0.07844069034635918 -0.08148056679481161 -0.0845309924413733 -0.0875909014454093 -0.09065936294449559 -0.09373556078841078 -0.0968187767498372 -0.09990837654816931
-0.10300379816089394 -0.10610454200427687 -0.10921016264881142 -0.1123202618005596 -0.11543448233135062 -0.11855250318163925 -0.12167403499259002 -0.12479881634982457
-0.12792661054234203 -0.1310572027568426 -0.13419039764146556 -0.13732601718391682 -0.14046389885814695 -0.14360389400111676 -0.14674586638728282 -0.1498896909735408
-0.1530352527915122 -0.15618244596755823 -0.15933117285378856 -0.16248134325583874 -0.16563287374511668 -0.16878568704506816 -0.17193971148238735 -0.17509488049533883

d f8 [401]
00000000: 30d1 dfc9 6a79 b33f 30d1 dfc9 6a79 b33f
00000010: 30d1 dfc9 6a79 b33f 30d1 dfc9 6a79 b33f
00000020: 30d1 dfc9 6a79 b33f 30d1 dfc9 6a79 b33f
00000030: 30d1 dfc9 6a79 b33f 30d1 dfc9 6a79 b33f
00000040: 30d1 dfc9 6a79 b33f 30d1 dfc9 6a79 b33f
00000050: 30d1 dfc9 6a79 b33f 30d1 dfc9 6a79 b33f
00000060: 30d1 dfc9 6a79 b33f 30d1 dfc9 6a79 b33f
00000070: 30d1 dfc9 6a79 b33f 30d1 dfc9 6a79 b33f
00000080: 30d1 dfc9 6a79 b33f 30d1 dfc9 6a79 b33f
00000090: 30d1 dfc9 6a79 b33f 30d1 dfc9 6a79 b33f
000000a0: 30d1 dfc9 6a79 b33f 30d1 dfc9 6a79 b33f
000000b0: 30d1 dfc9 6a79 b33f 30d1 dfc9 6a79 b33f
000000c0: 30d1 dfc9 6a79 b33f 30d1 dfc9 6a79 b33f
000000d0: 30d1 dfc9 6a79 b33f 30d1 dfc9 6a79 b33f
000000e0: 30d1 dfc9 6a79 b33f 30d1 dfc9 6a79 b33f
000000f0: 30d1 dfc9 6a79 b33f 30d1 dfc9 6a79 b33f
00000100: 30d1 dfc9 6a79 b33f 30d1 dfc9 6a79 b33f
00000110: 30d1 dfc9 6a79 b33f 30d1 dfc9 6a79 b33f
00000120: 30d1 dfc9 6a79 b33f 30d1 dfc9 6a79 b33f
00000130: 30d1 dfc9 6a79 b33f 30d1 dfc9 6a79 b33f
00000140: 30d1 dfc9 6a79 b33f 30d1 dfc9 6a79 b33f
00000150: 30d1 dfc9 6a79 b33f 30d1 dfc9 6a79 b33f
00000160: 30d1 dfc9 6a79 b33f 30d1 dfc9 6a79 b33f
00000170: 30d1 dfc9 6a79 b33f 30d1 dfc9 6a79 b33f
00000180: 30d1 dfc9 6a79 b33f 30d1 dfc9 6a79 b33f
00000190: 30d1 dfc9 6a79 b33f 30d1 dfc9 6a79 b33f
000001a0: 30d1 dfc9 6a79 b33f 30d1 dfc9 6a79 b33f
000001b0: 30d1 dfc9 6a79 b33f 30d1 dfc9 6a79 b33f
000001c0: 30d1 dfc9 6a79 b33f 30d1 dfc9 6a79 b33f
000001d0: 30d1 dfc9 6a79 b33f 30d1 dfc9 6a79 b33f
000001e0: 30d1 dfc9 6a79 b33f 30d1 dfc9 6a79 b33f
000001f0: 30d1 dfc9 6a79 b33f 30d1 dfc9 6a79 b33f
00000200: 30d1 dfc9 6a79 b33f 30d1 dfc9 6a79 b33f
00000210: 30d1 dfc9 6a79 b33f 30d1 dfc9 6a79 b33f
00000220: 30d1 dfc9 6a79 b33f 30d1 dfc9 6a79 b33f
00000230: 30d1 dfc9 6a79 b33f 30d1 dfc9 6a79 b33f
00000240: 30d1 dfc9 6a79 b33f 30d1 dfc9 6a79 b33f
00000250: 30d1 dfc9 6a79 b33f 30d1 dfc9 6a79 b33f
00000260: 30d1 dfc9 6a79 b33f 30d1 dfc9 6a79 b33f
00000270: 30d1 dfc9 6a79 b33f 30d1 dfc9 6a79 b33f
00000280: 30d1 dfc9 6a79 b33f 30d1 dfc9 6a79 b33f
00000290: 30d1 dfc9 6a79 b33f 30d1 dfc9 6a79 b33f
000002a0: 30d1 dfc9 6a79 b33f 30d1 dfc9 6a79 b33f
000002b0: 30d1 dfc9 6a79 b33f 30d1 dfc9 6a79 b33f
000002c0: 30d1 dfc9 6a79 b33f 30d1 dfc9 6a79 b33f
000002d0: 30d1 dfc9 6a79 b33f 30d1 dfc9 6a79 b33f
000002e0: 30d1 dfc9 6a79 b33f 30d1 dfc9 6a79 b33f
000002f0: 30d1 dfc9 6a79 b33f 30d1 dfc9 6a79 b33f
00000300: 30d1 dfc9 6a79 b33f 30d1 dfc9 6a79 b33f
00000310: 30d1 dfc9 6a79 b33f 30d1 dfc9 6a79 b33f
00000320: 30d1 dfc9 6a79 b33f 30d1 dfc9 6a79 b33f
00000330: 30d1 dfc9 6a79 b33f 30d1 dfc9 6a79 b33f
00000340: 30d1 dfc9 6a79 b33f 30d1 dfc9 6a79 b33f
00000350: 30d1 dfc9 6a79 b33f 30d1 dfc9 6a79 b33f
00000360: 30d1 dfc9 6a79 b33f 30d1 dfc9 6a79 b33f
00000370: 30d1 dfc9 6a79 b33f 30d1 dfc9 6a79 b33f
00000380: 30d1 dfc9 6a79 b33f 30d1 dfc9 6a79 b33f
00000390: 30d1 dfc9 6a79 b33f 30d1 dfc9 6a79 b33f
000003a0: 30d1 dfc9 6a79 b33f 30d1 dfc9 6a79 b33f
000003b0: 30d1 dfc9 6a79 b33f 30d1 dfc9 6a79 b33f
000003c0: 30d1 dfc9 6a79 b33f 30d1 dfc9 6a79 b33f
000003d0: 30d1 dfc9 6a79 b33f 30d1 dfc9 6a79 b33f
000003e0: 30d1 dfc9 6a79 b33f 30d1 dfc9 6a79 b33f
000003f0: 30d1 dfc9 6a79 b33f 30d1 dfc9 6a79 b33f
00000400: 30d1 dfc9 6a79 b33f 30d1 dfc9 6a79 b33f
00000410: 30d1 dfc9 6a79 b33f 30d1 dfc9 6a79 b33f
00000420: 30d1 dfc9 6a79 b33f 30d1 dfc9 6a79 b33f
00000430: 30d1 dfc9 6a79 b33f 30d1 dfc9 6a79 b33f
00000440: 30d1 dfc9 6a79 b33f 30d1 dfc9 6a79 b33f
00000450: 30d1 dfc9 6a79 b33f 30d1 dfc9 6a79 b33f
00000460: 30d1 dfc9 6a79 b33f 30d1 dfc9 6a79 b33f
00000470: 30d1 dfc9 6a79 b33f 30d1 dfc9 6a79 b33f
00000480: 30d1 dfc9 6a79 b33f 30d1 dfc9 6a79 b33f
00000490: 30d1 dfc9 6a79 b33f 30d1 dfc9 6a79 b33f
000004a0: 30d1 dfc9 6a79 b33f 30d1 dfc9 6a79 b33f
000004b0: 30d1 dfc9 6a79 b33f 30d1 dfc9 6a79 b33f
000004c0: 30d1 dfc9 6a79 b33f 30d1 dfc9 6a79 b33f
000004d0: 30d1 dfc9 6a79 b33f 30d1 dfc9 6a79 b33f
000004e0: 30d1 dfc9 6a79 b33f 30d1 dfc9 6a79 b33f
000004f0: 30d1 dfc9 6a79 b33f 30d1 dfc9 6a79 b33f
00000500: 30d1 dfc9 6a79 b33f 30d1 dfc9 6a79 b33f
00000510: 30d1 dfc9 6a79 b33f 30d1 dfc9 6a79 b33f
00000520: 30d1 dfc9 6a79 b33f 30d1 dfc9 6a79 b33f
00000530: 30d1 dfc9 6a79 b33f 30d1 dfc9 6a79 b33f
00000540: 30d1 dfc9 6a79 b33f 30d1 dfc9 6a79 b33f
00000550: 30d1 dfc9 6a79 b33f 30d1 dfc9 6a79 b33f
00000560: 30d1 dfc9 6a79 b33f 30d1 dfc9 6a79 b33f
00000570: 30d1 dfc9 6a79 b33f 30d1 dfc9 6a79 b33f
00000580: 30d1 dfc9 6a79 b33f 30d1 dfc9 6a79 b33f
00000590: 30d1 dfc9 6a79 b33f 30d1 dfc9 6a79 b33f
000005a0: 30d1 dfc9 6a79 b33f 30d1 dfc9 6a79 b33f
000005b0: 30d1 dfc9 6a79 b33f 30d1 dfc9 6a79 b33f
000005c0: 30d1 dfc9 6a79 b33f 30d1 dfc9 6a79 b33f
000005d0: 30d1 dfc9 6a79 b33f 30d1 dfc9 6a79 b33f
000005e0: 30d1 dfc9 6a79 b33f 30d1 dfc9 6a79 b33f
000005f0: 30d1 dfc9 6a79 b33f 30d1 dfc9 6a79 b33f
00000600: 30d1 dfc9 6a79 b33f 30d1 dfc9 6a79 b33f
00000610: 30d1 dfc9 6a79 b33f 30d1 dfc9 6a79 b33f
00000620: 30d1 dfc9 6a79 b33f 30d1 dfc9 6a79 b33f
00000630: 30d1 dfc9 6a79 b33f 30d1 dfc9 6a79 b33f
00000640: 30d1 dfc9 6a79 b33f 30d1 dfc9 6a79 b33f
00000650: 30d1 dfc9 6a79 b33f 30d1 dfc9 6a79 b33f
00000660: 30d1 dfc9 6a79 b33f 30d1 dfc9 6a79 b33f
00000670: 30d1 dfc9 6a79 b33f 30d1 dfc9 6a79 b33f
00000680: 30d1 dfc9 6a79 b33f 30d1 dfc9 6a79 b33f
00000690: 30d1 dfc9 6a79 b33f 30d1 dfc9 6a79 b33f
000006a0: 30d1 dfc9 6a79 b33f 30d1 dfc9 6a79 b33f
000006b0: 30d1 dfc9 6a79 b33f 30d1 dfc9 6a79 b33f
000006c0: 30d1 dfc9 6a79 b33f 30d1 dfc9 6a79 b33f
000006d0: 30d1 dfc9 6a79 b33f 30d1 dfc9 6a79 b33f
000006e0: 30d1 dfc9 6a79 b33f 30d1 dfc9 6a79 b33f
000006f0: 30d1 dfc9 6a79 b33f 30d1 dfc9 6a79 b33f
00000700: 30d1 dfc9 6a79 b33f 30d1 dfc9 6a79 b33f
00000710: 30d1 dfc9 6a79 b33f 30d1 dfc9 6a79 b33f
00000720: 30d1 dfc9 6a79 b33f 30d1 dfc9 6a79 b33f
00000730: 30d1 dfc9 6a79 b33f 30d1 dfc9 6a79 b33f
00000740: 30d1 dfc9 6a79 b33f 30d1 dfc9 6a79 b33f
00000750: 30d1 dfc9 6a79 b33f 30d1 dfc9 6a79 b33f
00000760: 30d1 dfc9 6a79 b33f 30d1 dfc9 6a79 b33f
00000770: 30d1 dfc9 6a79 b33f 30d1 dfc9 6a79 b33f
00000780: 30d1 dfc9 6a79 b33f 30d1 dfc9 6a79 b33f
00000790: 30d1 dfc9 6a79 b33f 30d1 dfc9 6a79 b33f
000007a0: 30d1 dfc9 6a79 b33f 30d1 dfc9 6a79 b33f
000007b0: 30d1 dfc9 6a79 b33f 30d1 dfc9 6a79 b33f
000007c0: 30d1 dfc9 6a79 b33f 30d1 dfc9 6a79 b33f
000007d0: 30d1 dfc9 6a79 b33f 30d1 dfc9 6a79 b33f
000007e0: 30d1 dfc9 6a79 b33f 30d1 dfc9 6a79 b33f
000007f0: 30d1 dfc9 6a79 b33f 30d1 dfc9 6a79 b33f
0.07607142857142857 0.07607142857142857 0.07607142857142857 0.07607142857142857 0.07607142857142857 0.07607142857142857 0.07607142857142857 0.07607142857142857
0.07607142857142857 0.07607142857142857 0.07607142857142857 0.07607142857142857 0.07607142857142857 0.07607142857142857 0.07607142857142857 0.07607142857142857
0.07607142857142857 0.07607142857142857 0.07607142857142857 0.07607142857142857 0.07607142857142857 0.07607142857142857 0.07607142857142857 0.07607142857142857
0.07607142857142857 0.07607142857142857 0.07607142857142857 0.07607142857142857 0.07607142857142857 0.07607142857142857 0.07607142857142857 0.07607142857142857
0.07607142857142857 0.07607142857142857 0.07607142857142857 0.07607142857142857 0.07607142857142857 0.07607142857142857 0.07607142857142857 0.07607142857142857
0.07607142857142857 0.07607142857142857 0.07607142857142857 0.07607142857142857 0.07607142857142857 0.07607142857142857 0.07607142857142857 0.07607142857142857
0.07607142857142857 0.07607142857142857 0.07607142857142857 0.07607142857142857 0.07607142857142857 0.07607142857142857 0.07607142857142857 0.07607142857142857
0.07607142857142857 0.07607142857142857 0.07607142857142857 0.07607142857142857 0.07607142857142857 0.07607142857142857 0.07607142857142857 0.07607142857142857
0.07607142857142857 0.07607142857142857 0.07607142857142857 0.07607142857142857 0.07607142857142857 0.07607142857142857 0.07607142857142857 0.07607142857142857
0.07607142857142857 0.07607142857142857 0.07607142857142857 0.07607142857142857 0.07607142857142857 0.07607142857142857 0.07607142857142857 0.07607142857142857
0.07607142857142857 0.07607142857142857 0.07607142857142857 0.07607142857142857 0.07607142857142857 0.07607142857142857 0.07607142857142857 0.07607142857142857
0.07607142857142857 0.07607142857142857 0.07607142857142857 0.07607142857142857 0.07607142857142857 0.07607142857142857 0.07607142857142857 0.07607142857142857
0.07607142857142857 0.07607142857142857 0.07607142857142857 0.07607142857142857 0.07607142857142857 0.07607142857142857 0.07607142857142857 0.07607142857142857
0.07607142857142857 0.07607142857142857 0.07607142857142857 0.07607142857142857 0.07607142857142857 0.07607142857142857 0.07607142857142857 0.07607142857142857
0.07607142857142857 0.07607142857142857 0.07607142857142857 0.07607142857142857 0.07607142857142857 0.07607142857142857 0.07607142857142857 0.07607142857142857
0.07607142857142857 0.07607142857142857 0.07607142857142857 0.07607142857142857 0.07607142857142857 0.07607142857142857 0.07607142857142857 0.07607142857142857
0.07607142857142857 0.07607142857142857 0.07607142857142857 0.07607142857142857 0.07607142857142857 0.07607142857142857 0.07607142857142857 0.07607142857142857
0.07607142857142857 0.07607142857142857 0.07607142857142857 0.07607142857142857 0.07607142857142857 0.07607142857142857 0.07607142857142857 0.07607142857142857
0.07607142857142857 0.07607142857142857 0.07607142857142857 0.07607142857142857 0.07607142857142857 0.07607142857142857 0.07607142857142857 0.07607142857142857
0.07607142857142857 0.07607142857142857 0.07607142857142857 0.07607142857142857 0.07607142857142857 0.07607142857142857 0.07607142857142857 0.07607142857142857
0.07607142857142857 0.07607142857142857 0.07607142857142857 0.07607142857142857 0.07607142857142857 0.07607142857142857 0.07607142857142857 0.07607142857142857
0.07607142857142857 0.07607142857142857 0.07607142857142857 0.07607142857142857 0.07607142857142857 0.07607142857142857 0.07607142857142857 0.07607142857142857
0.07607142857142857 0.07607142857142857 0.07607142857142857 0.07607142857142857 0.07607142857142857 0.07607142857142857 0.07607142857142857 0.07607142857142857
0.07607142857142857 0.07607142857142857 0.07607142857142857 0.07607142857142857 0.07607142857142857 0.07607142857142857 0.07607142857142857 0.07607142857142857
0.07607142857142857 0.07607142857142857 0.07607142857142857 0.07607142857142857 0.07607142857142857 0.07607142857142857 0.07607142857142857 0.07607142857142857
0.07607142857142857 0.07607142857142857 0.07607142857142857 0.07607142857142857 0.07607142857142857 0.07607142857142857 0.07607142857142857 0.07607142857142857
0.07607142857142857 0.07607142857142857 0.07607142857142857 0.07607142857142857 0.07607142857142857 0.07607142857142857 0.07607142857142857 0.07607142857142857
0.07607142857142857 0.07607142857142857 0.07607142857142857 0.07607142857142857 0.07607142857142857 0.07607142857142857 0.07607142857142857 0.07607142857142857
0.07607142857142857 0.07607142857142857 0.07607142857142857 0.07607142857142857 0.07607142857142857 0.07607142857142857 0.07607142857142857 0.07607142857142857
0.07607142857142857 0.07607142857142857 0.07607142857142857 0.07607142857142857 0.07607142857142857 0.07607142857142857 0.07607142857142857 0.07607142857142857
0.07607142857142857 0.07607142857142857 0.07607142857142857 0.07607142857142857 0.07607142857142857 0.07607142857142857 0.07607142857142857 0.07607142857142857
0.07607142857142857 0.07607142857142857 0.07607142857142857 0.07607142857142857 0.07607142857142857 0.07607142857142857 0.07607142857142857 0.07607142857142857

zmax f8 []
00000000: 0000 0000 0000 1440
5.0

hz_F f8 [401]
00000000: 5a03 4569 aad3 9d3f e75b d7b5 15f6 a23f
00000010: cfe1 34c8 5f11 a43f 180d 43a4 1f5f a43f
00000020: 3644 5b6d 7d74 a43f c8ca 4173 537a a43f
00000030: fd7d 5ffe dd7b a43f 45c3 5726 377c a43f
00000040: 6cc6 3dfb 3a7c a43f fc31 6db3 267c a43f
00000050: 9b34 7365 0b7c a43f 42d0 56da ed7b a43f
00000060: aa78 9e69 cf7b a43f a3d9 2373 b07b a43f
00000070: a1e6 e010 917b a43f 03b3 0049 717b a43f
00000080: e512 061c 517b a43f a747 cf88 307b a43f
00000090: 938b ba8d 0f7b a43f e871 f928 ee7a a43f
000000a0: 35a6 a858 cc7a a43f fa85 d61a aa7a a43f
000000b0: 2ece 846d 877a a43f a4c4 a84e 647a a43f
000000c0: 7b27 2bbc 407a a43f 47c0 e7b3 1c7a a43f
000000d0: 7c0c ad33 f879 a43f 59e2 3b39 d379 a43f
000000e0: 91fa 46c2 ad79 a43f 898a 72cc 8779 a43f
000000f0: abcb 5355 6179 a43f 4793 705a 3a79 a43f
00000100: aacb 3ed9 1279 a43f 03ff 23cf ea78 a43f
00000110: 2fc8 7439 c278 a43f 8456 7415 9978 a43f
00000120: 18e8 5360 6f78 a43f ea15 3217 4578 a43f
00000130: d565 1a37 1a78 a43f 8c95 04bd ee77 a43f
00000140: f1f4 d3a5 c277 a43f e6c9 56ee 9577 a43f
00000150: 2c94 4593 6877 a43f 735f 4291 3a77 a43f
00000160: 36fa d7e4 0b77 a43f 3c37 798a dc76 a43f
00000170: 841e 807e ac76 a43f 3611 2dbd 7b76 a43f
00000180: 48f2 a542 4a76 a43f a938 f50a 1876 a43f
00000190: a50f 0912 e575 a43f e42d b253 b175 a43f
000001a0: 440c a3cb 7c75 a43f 96a7 6e75 4775 a43f
000001b0: 2d75 874c 1175 a43f a53e 3e4c da74 a43f
000001c0: f2e5 c06f a274 a43f 4b28 19b2 6974 a43f
000001d0: 0447 2b0e 3074 a43f 9bb1 b47e f573 a43f
000001e0: 9194 4afe b973 a43f 5462 5887 7d73 a43f
000001f0: ab38 1e14 4073 a43f 0f4c af9e 0173 a43f
00000200: 522e f020 c272 a43f 000d 9594 8172 a43f
00000210: fed0 1ff3 3f72 a43f df35 de35 fd71 a43f
00000220: 57bb e755 b971 a43f 2986 1b4c 7471 a43f
00000230: ab31 1e11 2e71 a43f 7c68 579d e670 a43f
00000240: ea87 efe8 9d70 a43f f706 cdeb 5370 a43f
00000250: 8dd1 919d 0870 a43f 746e 98f5 bb6f a43f
00000260: 1317 f1ea 6d6f a43f 7d9d 5e74 1e6f a43f
00000270: 082f 5388 cd6e a43f ccef ec1c 7b6e a43f
00000280: ee60 f227 276e a43f 1da8 ce9e d16d a43f
00000290: 0a96 8d76 7a6d a43f bd78 d7a3 216d a43f
000002a0: 25d5 ec1a c76c a43f 01af a1cf 6a6c a43f
000002b0: a4cf 58b5 0c6c a43f 9297 febe ac6b a43f
000002c0: e2a7 03df 4a6b a43f fe39 5707 e76a a43f
000002d0: 5c23 6129 816a a43f 1091 fb35 196a a43f
000002e0: 8156 6c1d af69 a43f 74ea 5dcf 4269 a43f
000002f0: 1c03 d83a d468 a43f 3eb8 374e 6368 a43f
00000300: cf40 27f7 ef67 a43f fd1e 9522 7a67 a43f
00000310: 0eea aabc 0167 a43f 8b65 c3b0 8666 a43f
00000320: 672a 60e9 0866 a43f 3288 1e50 8865 a43f
00000330: 5bdf abcd 0465 a43f a42d b949 7e64 a43f
00000340: 7bd8 edaa f463 a43f bea4 d9d6 6763 a43f
00000350: 3dde e5b1 d762 a43f 4770 451f 4462 a43f
00000360: 4d09 e400 ad61 a43f 4634 5437 1261 a43f
00000370: 6f24 bca1 7360 a43f 0a58 c11d d15f a43f
00000380: e4dc 7287 2a5f a43f e904 32b9 7f5e a43f
00000390: deb1 998b d05d a43f f6bb 63d5 1c5d a43f
000003a0: cfa3 4c6b 645c a43f ec42 f51f a75b a43f
000003b0: 6238 c2c3 e45a a43f 002d b924 1d5a a43f
000003c0: 6c64 5b0e 5059 a43f 49c5 7d49 7d58 a43f
000003d0: 0bb8 1d9c a457 a43f 03ed 32c9 c556 a43f
000003e0: 9094 7d90 e055 a43f e7c8 50ae f454 a43f
000003f0: 33ea 58db 0154 a43f 2a46 5dcc 0753 a43f
00000400: 6309 fd31 0652 a43f 6aaf 66b8 fc50 a43f
00000410: 5d95 0907 eb4f a43f df2c 41c0 d04e a43f
00000420: 2a26 f980 ad4d a43f 24d8 49e0 804c a43f
00000430: 5741 0c6f 4a4b a43f 9ec1 64b7 094a a43f
00000440: 1e9b 433c be48 a43f b235 da78 6747 a43f
00000450: 841a 04e0 0446 a43f c83d a2db 9544 a43f
00000460: 5e38 e7cb 1943 a43f 38f0 9206 9041 a43f
00000470: 7bd1 1bd6 f73f a43f 7aa4 c378 503e a43f
00000480: 69d4 951f 993c a43f 058c 4ced d03a a43f
00000490: c4fb 19f5 f638 a43f 7798 5239 0a37 a43f
000004a0: 5ba6 f4a9 0935 a43f aa4b 0923 f432 a43f
000004b0: 8768 da6a c830 a43f 0a47 f82f 852e a43f
000004c0: c23b 0907 292c a43f 20ba 5c68 b229 a43f
000004d0: 9d74 3aad 1f27 a43f a901 e50c 6f24 a43f
000004e0: 9991 4699 9e21 a43f 4fb0 3c3b ac1e a43f
000004f0: 36d4 76ae 951b a43f bb6a d97c 5818 a43f
00000500: 497a 55f9 f114 a43f a26b 223a 5f11 a43f
00000510: 9d1d 4512 9d0d a43f 015e 4c0a a809 a43f
00000520: 3ed1 2758 7c05 a43f f547 fad5 1501 a43f
00000530: 2b6d c4f7 6ffc a33f 8921 c0bf 85f7 a33f
00000540: 407c 3fb1 51f2 a33f 6de9 dcc1 cdec a33f
00000550: cad5 c348 f3e6 a33f eff1 d2eb bae0 a33f
00000560: 4753 538a 1cda a33f e9b7 f924 0fd3 a33f
00000570: bf54 e3c2 88cb a33f ae92 3d53 7ec3 a33f
00000580: 4aee 4a8b e3ba a33f 35ce 80c0 aab1 a33f
00000590: 8ff5 8ebe c4a7 a33f 612c 4799 209d a33f
000005a0: 33cd 9b7a ab91 a33f 9e79 526d 5085 a33f
000005b0: 8634 a825 f877 a33f 4ad1 17ca 8869 a33f
000005c0: 8e4b dfbf e559 a33f 341a f880 ef48 a33f
000005d0: 4710 3b84 8336 a33f 83dc ae44 7c22 a33f
000005e0: 755d e37a b10c a33f c5d5 07a3 f8f4 a23f
000005f0: 327f 19f4 25db a23f 4a84 39f7 0dbf a23f
00000600: a04f 20f7 87a0 a23f d078 3780 717f a23f
00000610: 11bf 5a15 b35b a23f 87ef c0fe 4535 a23f
00000620: a92d 8996 3a0c a23f 0e0a a5a4 bde0 a13f
00000630: 3680 8f64 1ab3 a13f 2e7c 5841 b683 a13f
00000640: 2e0b 5106 0453 a13f 2dfe cdd4 c626 a13f
00000650: 6f5e 1b9d 8cfb a03f 4ac9 9282 d9d1 a03f
00000660: fabe 8c84 0faa a03f 340a 8088 6d84 a03f
00000670: 6101 7f5a 1361 a03f ee39 3e10 0840 a03f
00000680: 32a9 7dc6 4021 a03f 3ce3 ec92 a604 a03f
00000690: f67a bf78 36d4 9f3f 72e3 776f f9a2 9f3f
000006a0: 3ee7 e130 4f75 9f3f eb4e 0460 f14a 9f3f
000006b0: d293 e527 9c23 9f3f f921 666e 0fff 9e3f
000006c0: 17a4 b872 0fdd 9e3f fa9b 6609 65bd 9e3f
000006d0: e749 2699 dd9f 9e3f 2e10 def0 4a84 9e3f
000006e0: bc09 5607 836a 9e3f bc10 90af 5f52 9e3f
000006f0: dbb6 e848 be3b 9e3f 93b1 836f 7f26 9e3f
00000700: 3dac c0af 8612 9e3f c3dd 453e baff 9d3f
00000710: cfaf 66b5 02ee 9d3f e73a 2cd8 4add 9d3f
00000720: 2a2e f45a 7fcd 9d3f 40eb 6ab1 8ebe 9d3f
00000730: fcb0 89e1 68b0 9d3f f803 355b ffa2 9d3f
00000740: ef03 13d4 4496 9d3f 3cc3 3227 2d8a 9d3f
00000750: 628b 2238 ad7e 9d3f f290 19d9 ba73 9d3f
00000760: 60b2 e0b3 4c69 9d3f f12c 2e35 5a5f 9d3f
00000770: 8dfa 2e7a db55 9d3f 0c75 0040 c94c 9d3f
00000780: 40ce e2d4 1c44 9d3f f193 f30a d03b 9d3f
00000790: fe75 442c dd33 9d3f 1d00 28f0 3e2c 9d3f
000007a0: 9eed 9171 f024 9d3f 05e4 6c26 ed1d 9d3f
000007b0: 0fee cad7 3017 9d3f 3ff4 d89a b710 9d3f
000007c0: c94e 80ca 7d0a 9d3f d1e5 a301 8004 9d3f
000007d0: 9184 e815 bbfe 9c3f 99ab f912 2cf9 9c3f
000007e0: b72e 3e36 d0f3 9c3f 4efc f0ea a4ee 9c3f
000007f0: 7cf2 93c6 a7e9 9c3f 58bf b385 d6e4 9c3f
0.029127752947945985 0.037033728072564824 0.039195054234770425 0.03978823547506688 0.03995124778669672 0.03999577314325148 0.04000753145350797 0.04001018851329844
0.04001030270491132 0.04000969829812459 0.04000888455775816 0.040008004095768004 0.04000709690375122 0.04000617414014875 0.0400052388290082 0.04000429168841004
0.04000333277784821 0.04000236196556211 0.040001379061570884 0.04000038385558807 0.03999937612782071 0.0399983556519707 0.03999732219599782 0.03999627552219323
0.03999521538715008 0.039994141541570154 0.03999305373010828 0.039991951691210566 0.039990835156904166 0.03998970385261653 0.03998855749696103 0.03998739580155202
0.03998621847076518 0.03998502520152949 0.03998381568307285 0.03998258959670145 0.03998134661556224 0.03998008640432345 0.0399788086189791 0.039977512906527485
0.03997619890467686 0.03997486624156803 0.03997351453544015 0.03997214339432178 0.039970752415673536 0.03996934118604975 0.0399679092807306 0.039966456263331215
0.03996498168541912 0.03996348508609177 0.03996196599157934 0.03996042391471713 0.03995885835458826 0.03995726879595833 0.03995565470880034 0.03995401554777559
0.039952350751672486 0.03995065974284325 0.0399489419265944 0.0399471966905793 0.03994542340414243 0.03994362141765309 0.03994179006177608 0.03993992864675288
0.03993803646161766 0.03993611277339859 0.03993415682626454 0.039932167840657 0.03993014501235475 0.039928087511509176 0.039925994481652204 0.03992386503860332
0.03992169826939558 0.03991949323109439 0.03991724894959523 0.0399149644183269 0.039912638596929416 0.03991027040984372 0.03990785874483832 0.03990540245146654
0.03990290033942921 0.03990035117688271 0.039897753688631424 0.039895106554227656 0.039892408406027514 0.03988965782704491 0.039886853348803514 0.03988399344898065
0.03988107654897967 0.039878101011357345 0.03987506513710201 0.03987196716278352 0.039868805257509805 0.03986557751973843 0.03986228197391581 0.03985891656689987
0.03985547916420417 0.03985196754598339 0.039848379402844455 0.0398447123313402 0.039840963829267655 0.039837131290611075 0.03983321200024533 0.03982920312827368
0.03982510172402073 0.03982090470965137 0.039816608873419736 0.03981221086243685 0.03980770717500324 0.03980309415246856 0.03979836797049862 0.03979352462981474
0.03978855994631106 0.039783469540461365 0.039778248826084925 0.03977289299825053 0.039767397020404986 0.03976175561058945 0.03975596322662579 0.039750014050321525
0.039743901970447165 0.03973762056456082 0.039731163079395136 0.03972452240983595 0.039717691076284756 0.03971066120029026 0.039703424478336656 0.03969597215349226
0.03968829498491535 0.03968038321485674 0.03967222653299516 0.039663814037874216 0.0396551341951404 0.039646174792253214 0.0396369228893742 0.03962736476603655
0.03961748586316659 0.039607270719993606 0.03959670290537523 0.03958576494289506 0.03957443822911054 0.03956270294426684 0.03955053795462767 0.03953792070553504
0.039524827104209966 0.03951123139110994 0.03949710599862713 0.039482421395676086 0.03946714591650099 0.039451245571988494 0.03943468384132225 0.03941742144173872
0.039399416073699026 0.03938062213852711 0.03936099042514594 0.03934046776203399 0.03931899663010369 0.0392965147314902 0.039272954508682664 0.03924824260748979
0.039222299276606316 0.03919503769539935 0.03916636322042708 0.039136172539823384 0.03910435272328748 0.0390707801535796 0.03903531932356893 0.038997821480793844
0.03895812309905766 0.038916044154080655 0.03887138617748638 0.038823930060491445 0.03877343357604573 0.03871962858543993 0.0386622178936391 0.038600871716686455
0.03853522372579883 0.03846486663715291 0.03838934732582821 0.03830816145963279 0.038220747677679155 0.03812648138522266 0.03802466830902866 0.03791453806835195
0.03779523818197737 0.03766582917528574 0.03752528180260178 0.037372477897798205 0.03720621705150055 0.03702523222083757 0.03682821850520525 0.03661388056639987
0.03638100520780019 0.036128565694285464 0.03585586200403957 0.03556269392762972 0.035249548793753256 0.03491776118109523 0.03456957318826463 0.034208007313502584
0.033836484690729626 0.033498967625743205 0.03316916864212948 0.03285102576173189 0.03254745953597467 0.03226034442197481 0.031990628048790944 0.03173852155952149
0.031503700475541754 0.03128548186800237 0.03108296501147386 0.03089513533447836 0.030720937117144624 0.030559321866419003 0.030409278807741753 0.030269852746217272
0.030140153290776874 0.030019358347683302 0.029906713936336173 0.02980153174532079 0.029703185389289052 0.029611106005191998 0.029524777603163393 0.0294437324345594
0.02936754653653061 0.029295835543477155 0.029228250810476027 0.029164475864542985 0.029104223181134405 0.02904723127242481 0.028993262067545253 0.028942098562087154
0.02889354271315264 0.028847413556550836 0.0288035455238388 0.028761786938404428 0.028721998671402793 0.028684052940246955 0.028647832233895932 0.02861322835098172
0.02858014153816968 0.028548479717660006 0.028518157793874004 0.028489097030615185 0.028461224490894936 0.02843447253255606 0.028408778353634697 0.028384083582057903
0.02836033390492679 0.028337478733169 0.028315470897841314 0.028294266374739505 0.028273824034427544 0.02825410541504097 0.028235074515566158 0.02821669760754672

Vz_F f8 [401]
00000000: 0050 a4e7 a482 df3f 403e f122 1008 e43f
00000010: 009f f08e 5733 e53f 00da 0ed9 7a85 e53f
00000020: 00a2 0f5d 0d9c e53f c004 a4b6 37a2 e53f
00000030: 8041 a886 d8a3 e53f 4051 e0b6 36a4 e53f
00000040: c0af 23c3 3aa4 e53f c0b2 4856 25a4 e53f
00000050: c002 c67d 08a4 e53f c07e c747 e9a3 e53f
00000060: c052 371f c9a3 e53f 4024 5869 a8a3 e53f
00000070: 403e 9b41 87a3 e53f c0d4 84ae 65a3 e53f
00000080: 401e 9fb0 43a3 e53f 8001 b846 21a3 e53f
00000090: 4024 166f fea2 e53f 0000 d127 dba2 e53f
000000a0: 80f8 e96e b7a2 e53f c054 5342 93a2 e53f
000000b0: c004 f29f 6ea2 e53f 40cd 9d85 49a2 e53f
000000c0: 4036 21f1 23a2 e53f 0018 39e0 fda1 e53f
000000d0: 803e 9450 d7a1 e53f 4009 d33f b0a1 e53f
000000e0: 40ee 86ab 88a1 e53f 800e 3291 60a1 e53f
000000f0: 80b6 46ee 37a1 e53f 40f0 26c0 0ea1 e53f
00000100: c0f4 2304 e5a0 e53f 40b0 7db7 baa0 e53f
00000110: 002b 62d7 8fa0 e53f 0006 ed60 64a0 e53f
00000120: c0ed 2651 38a0 e53f 40dc 04a5 0ba0 e53f
00000130: c0a4 6759 de9f e53f 8034 1b6b b09f e53f
00000140: c0e3 d5d6 819f e53f c0d0 3799 529f e53f
00000150: 0019 caae 229f e53f 8021 fe13 f29e e53f
00000160: 40c2 2cc5 c09e e53f 007d 95be 8e9e e53f
00000170: 80a2 5dfc 5b9e e53f 006a 8f7a 289e e53f
00000180: c00d 1935 f49d e53f c0cf cb27 bf9d e53f
00000190: 800d 5b4e 899d e53f 4006 5ba4 529d e53f
000001a0: 8006 4025 1b9d e53f c017 5dcc e29c e53f
000001b0: 00e6 e294 a99c e53f 008b de79 6f9c e53f
000001c0: 8040 3876 349c e53f 4011 b284 f89b e53f
000001d0: 806e e69f bb9b e53f c0c6 46c2 7d9b e53f
000001e0: c0ff 19e6 3e9b e53f 40ea 7a05 ff9a e53f
000001f0: 4090 561a be9a e53f 8089 6a1e 7c9a e53f
00000200: 4029 430b 399a e53f 40a3 39da f499 e53f
00000210: 4010 7284 af99 e53f c069 d902 6999 e53f
00000220: c05d 234e 2199 e53f 0011 c85e d898 e53f
00000230: 00d1 012d 8e98 e53f 008a cab0 4298 e53f
00000240: 4048 d9e1 f597 e53f 8079 9fb7 a797 e53f
00000250: 0022 4629 5897 e53f 40d9 aa2d 0797 e53f
00000260: c0b7 5cbb b496 e53f 4010 99c8 6096 e53f
00000270: 8003 484b 0b96 e53f c0ea f838 b495 e53f
00000280: 008a de86 5b95 e53f c021 cb29 0195 e53f
00000290: 003c 2c16 a594 e53f 4042 0640 4794 e53f
000002a0: 40f9 ef9a e793 e53f c084 0d1a 8693 e53f
000002b0: 006a 0bb0 2293 e53f 8016 194f bd92 e53f
000002c0: 403c e3e8 5592 e53f c0d7 8d6e ec91 e53f
000002d0: 40dd add0 8091 e53f c099 42ff 1291 e53f
000002e0: 00a1 aee9 a290 e53f 4065 b07e 3090 e53f
000002f0: 8068 5aac bb8f e53f 00ed 0a60 448f e53f
00000300: 803b 6386 ca8e e53f c04f 3e0b 4e8e e53f
00000310: 401d a7d9 ce8d e53f 4017 cedb 4c8d e53f
00000320: 8044 fefa c78c e53f c07f 911f 408c e53f
00000330: c029 e430 b58b e53f c001 4815 278b e53f
00000340: 0031 f6b1 958a e53f c077 00eb 008a e53f
00000350: 407e 41a3 6889 e53f 8007 4cbc cc88 e53f
00000360: 4021 5916 2d88 e53f c03a 3590 8987 e53f
00000370: 00db 2b07 e286 e53f 401d f256 3686 e53f
00000380: 80bb 8f59 8685 e53f 8072 46e7 d184 e53f
00000390: 80e8 77d6 1884 e53f 8093 89fb 5a83 e53f
000003a0: 40d2 c628 9882 e53f c0e6 402e d081 e53f
000003b0: 408c acd9 0281 e53f 8045 3df6 2f80 e53f
000003c0: 00d1 7d4c 577f e53f a0ef 25a2 787e e53f
000003d0: 40d4 ecb9 937d e53f e04d 5853 a87c e53f
000003e0: 8030 882a b67b e53f a0b8 fdf7 bc7a e53f
000003f0: 80a6 5e70 bc79 e53f e060 3344 b478 e53f
00000400: 601d a01f a477 e53f 2038 18aa 8b76 e53f
00000410: 2059 0b86 6a75 e53f e0dd 8b50 4074 e53f
00000420: 80d4 eda0 0c73 e53f c0c4 5d08 cf71 e53f
00000430: 8098 6e11 8770 e53f e0b6 9d3f 346f e53f
00000440: 0053 cc0e d66d e53f c0da acf2 6b6c e53f
00000450: 406c 2356 f56a e53f a0d3 979a 7169 e53f
00000460: 009f 3717 e067 e53f e0b1 2618 4066 e53f
00000470: e05e 9cdd 9064 e53f c0f7 ea9a d162 e53f
00000480: 2088 6f75 0161 e53f a0fa 6683 1f5f e53f
00000490: 40d5 a5ca 2a5d e53f e02d 2f3f 225b e53f
000004a0: c0f5 a6c1 0459 e53f a0a0 9b1d d156 e53f
000004b0: a020 a207 8654 e53f 6002 3f1b 2252 e53f
000004c0: 806c 96d8 a34f e53f 2028 dca1 094d e53f
000004d0: 40df 7bb8 514a e53f c08e f039 7a47 e53f
000004e0: c02f 411c 8144 e53f c0f3 162a 6441 e53f
000004f0: 4024 60fe 203e e53f 4087 70ff b43a e53f
00000500: c07a 8e59 1d37 e53f e04e d9f8 5633 e53f
00000510: 20d4 7282 5e2f e53f 40df d24c 302b e53f
00000520: e046 2857 c826 e53f e099 a63f 2222 e53f
00000530: 607e 9b38 391d e53f a0d0 21fc 0718 e53f
00000540: a0ef 42be 8812 e53f 40d5 501d b50c e53f
00000550: 6038 3d10 8606 e53f 8035 abd2 f3ff e43f
00000560: 00e3 72ce f5f8 e43f 60de 4782 82f1 e43f
00000570: 40ca 2f65 8fe9 e43f 2095 73c6 10e1 e43f
00000580: 4058 b9a9 f9d7 e43f c0c9 fe9e 3bce e43f
00000590: 203b 4296 c6c3 e43f 4036 d0ae 88b8 e43f
000005a0: 407e 6f02 6eac e43f 4096 116d 609f e43f
000005b0: c0f4 5652 4791 e43f 007c 3763 0782 e43f
000005c0: a0fa 9f67 8271 e43f 2030 0b12 975f e43f
000005d0: 60eb 4ce6 204c e43f a01d 4a41 f836 e43f
000005e0: 60f3 9095 f21f e43f 6080 00f9 e206 e43f
000005f0: a0f1 ea29 9beb e33f 4045 693d edcd e33f
00000600: a00f ff31 aead e33f c07f 48a2 b98a e33f
00000610: 4046 bbbd f664 e33f 4061 7c6b 5e3c e33f
00000620: 20bd f1f1 0111 e33f e094 1ba0 10e3 e23f
00000630: e015 84f0 d9b2 e23f 20d8 a807 c980 e23f
00000640: 00df 8e2b 574d e23f 8081 3bc0 9a1e e23f
00000650: e0a6 c1ec eff0 e13f a088 ca49 e2c4 e13f
00000660: a0c7 ae5e d99a e13f 800e b59d 1773 e13f
00000670: 208a 629e be4d e13f 80b2 cadc d52a e13f
00000680: c080 5bd8 510a e13f 800a a85b 1aec e03f
00000690: 40f1 ce78 0fd0 e03f a043 ce38 0db6 e03f
000006a0: 407d 3a2f ee9d e03f c006 3d31 8d87 e03f
000006b0: c0b6 486a c672 e03f 40dc 2ffe 775f e03f
000006c0: a049 d95c 824d e03f 203d f461 c83c e03f
000006d0: e077 4c53 2f2d e03f 6098 9cca 9e1e e03f
000006e0: 204e 9693 0011 e03f 80c5 eb83 4004 e03f
000006f0: 4031 3ea2 98f0 df3f c036 f3cc 26da df3f
00000700: 0087 3a79 0dc5 df3f 4025 0467 31b1 df3f
00000710: 8083 90de 799e df3f 0010 0870 d08c df3f
00000720: 00eb f9b8 207c df3f c035 832f 586c df3f
00000730: 00ea c2f2 655d df3f 00c7 30a0 3a4f df3f
00000740: 801f 692d c841 df3f 00cf 00c6 0135 df3f
00000750: 00b8 f9ac db28 df3f 8023 7721 4b1d df3f
00000760: 00da 5846 4612 df3f c095 6c0c c407 df3f
00000770: c097 ec1e bcfd de3f 0085 0ad2 26f4 de3f
00000780: 40fa 4b13 fdea de3f 804c 855b 38e2 de3f
00000790: c033 44a2 d2d9 de3f 00e8 8152 c6d1 de3f
000007a0: 8066 7840 0eca de3f c0f7 7aa0 a5c2 de3f
000007b0: c0ce b5fe 87bb de3f 40a7 bb37 b1b4 de3f
000007c0: 0051 cb71 1dae de3f 0091 b916 c9a7 de3f
000007d0: 0011 6ece b0a1 de3f 00d5 e379 d19b de3f
000007e0: c0cb 9f2e 2896 de3f 0030 9132 b290 de3f
000007f0: c00c 51f8 6c8b de3f a05f b71b 5686 de3f
0.4923488866927528 0.6259842569797414 0.6625173370166237 0.6725439299978575 0.6752993409727992 0.6760519568635104 0.6762507085823444 0.6762956210900839
0.6762975512806335 0.6762873349412857 0.676273580218627 0.6762586976946849 0.676243363350828 0.6762277657991334 0.6762119561553348 0.6761959465572076
0.6761797380103829 0.6761633282877 0.6761467141778965 0.6761298921264824 0.6761128584182785 0.6760956092281489 0.6760781406338978 0.6760604486175126
0.6760425290646666 0.6760243777614505 0.6760059903917437 0.6759873625344781 0.6759684896600859 0.6759493671274441 0.6759299901802507 0.6759103539438982
0.6758904534214238 0.6758702834899921 0.6758498388965961 0.6758291142543271 0.6758081040383601 0.6757868025805536 0.6757652040661455 0.6757433025283177
0.6757210918432222 0.6756985657252912 0.6756757177215889 0.6756525412065884 0.6756290293761325 0.6756051752417136 0.6755809716242567 0.675556411147511
0.6755314862315842 0.6755061890858016 0.6754805117019913 0.6754544458455669 0.675427983049488 0.6754011146047034 0.6753738315521218 0.6753461246738368
0.675317984483641 0.6752894012175048 0.6752603648232736 0.6752308649504002 0.6752008909388607 0.6751704318078922 0.6751394762436647 0.6751080125871312
0.6750760288207758 0.6750435125551135 0.6750104510142663 0.67497683102129 0.6749426389823654 0.6749078608704906 0.6748724822087127 0.6748364880516533
0.6747998629673546 0.6747625910173127 0.6747246557361564 0.6746860401097265 0.6746467265527301 0.6746066968849007 0.6745659323060949 0.6745244133702144
0.6744821199575313 0.674439031246088 0.6743951256811442 0.6743503809430607 0.6743047739144359 0.6742582806438335 0.6742108763094734 0.6741625351794056
0.6741132305704767 0.6740629348048444 0.67401161916397 0.6739592538404438 0.6739058078865412 0.6738512491603288 0.6737955442688559 0.6737386585076877
0.6736805557974179 0.6736211986158125 0.6735605479270035 0.6734985631053192 0.6734352018558099 0.6733704201287694 0.6733041720302069 0.6732364097261367
0.6731670833410419 0.6730961408500136 0.6730235279646379 0.6729491880107474 0.6728730617988177 0.6727950874863708 0.6727152004303605 0.6726333330306389
0.6725494145629085 0.6724633709996652 0.6723751248203058 0.6722845948066691 0.6721916958254681 0.6720963385953027 0.6719984294362646 0.671897870002951
0.6717945569967299 0.6716883818585195 0.671579230437267 0.6714669826346231 0.6713515120222979 0.6712326854301587 0.6711103625031711 0.6709843952221739
0.670854627388433 0.6707208940658838 0.6705830209782881 0.6704408238574011 0.6702941077370639 0.6701426661876653 0.6699862804860146 0.6698247187138939
0.6696577347780419 0.6694850673437358 0.6693064386739778 0.6691215533634143 0.6689300969564727 0.6687317344381505 0.6685261085831051 0.668312838148033
0.6680915158906409 0.6678617063951897 0.6676229436840586 0.6673747285907972 0.6671165258664402 0.6668477609901124 0.6665678166473477 0.6662760288382508
0.6659716825701167 0.665654007084644 0.6653221705628098 0.6649752742418613 0.6646123458717668 0.6642323324264154 0.6638340919754526 0.6634163846067409
0.6629778622771809 0.662517057450227 0.6620323703597286 0.6615220547164213 0.6609842016498213 0.6604167216472057 0.6598173242200112 0.6591834949927211
0.6585124698681177 0.6578012058804816 0.6570463483019573 0.656244193518134 0.6553906471445714 0.6544811768098491 0.6535107590010014 0.6524738193517443
0.6513641657754832 0.6501749139190949 0.6488984045734902 0.6475261129687127 0.6460485503739122 0.6444551592109704 0.6427342041203232 0.6408726632906792
0.6388561271595172 0.6366687157074047 0.6342930315071094 0.6317101741014319 0.6288998528685674 0.6258406508750447 0.6225105112749141 0.618887538856292
0.6149512268534529 0.6106842202752816 0.6060746865934519 0.6011192416508848 0.5958261228060202 0.5902178885559373 0.584332437284214 0.5782208585358184
0.5719409800285291 0.566235900358194 0.5606612800740685 0.5552836838944764 0.5501524781486644 0.5452993469447875 0.5407403081374618 0.5364789306964468
0.5325097299319381 0.5288211622394812 0.525398002580495 0.5222231015669543 0.5192786142760397 0.5165468179404442 0.514010627351773 0.511653896769424
0.5094615758373955 0.507419768635291 0.5055157305648628 0.5037378270396964 0.502075470214951 0.5005190445501029 0.4990598282245351 0.497689914843118
0.4964021381257311 0.49519000110793243 0.49404761061492053 0.4929696172769127 0.49195116104208125 0.490987821959461 0.49007557589689554 0.48921075481040077
0.4883900111640216 0.4876102861046405 0.4868687810147776 0.48616293209175154 0.48549038762885743 0.4848489877061546 0.48423674602451783 0.48365183364701636
0.4830925644345463 0.4825573819882223 0.4820448479302364 0.4815536313759594 0.48108249946526627 0.48063030883701785 0.4801959979442749 0.4797785801189214
0.47937713730540565 0.4789908143923327 0.4786188140790415 0.47826039222066186 0.4779148536028366 0.47758154810139786 0.47725986718814895 0.4769492407481213
