onecap_model_with_structure_ambiguity/output/upper_triangular_two_ambiguous_parameters/Delta_10.0_distorted_0/logadjustment_1_boundary_1/zmax_5.0_zscale_2.0/delta_0.02/q_0.2_gamma_8.0_rho_1.0/model.npz (npz, 126264 bytes, 58 tensors)

clowerlim f8 []
0	0x3f1a36e2eb1c432d	0.0001

zmin f8 []
0	0xc014000000000000	-5.0

Delta f8 []
0	0x4024000000000000	10.0

s1_F f8 [401]
0	0xbff8f0527fe1d70c	-1.5586724276922181
1	0xbff1672e018bf17c	-1.087690359155288
2	0xbfedbc30b4841519	-0.9292224431707466
3	0xbfeb64b9a1c70af5	-0.8560455474583636
4	0xbfea23a106c084d1	-0.8168492442966003
5	0xbfe9666a495eeb47	-0.7937518532774924
6	0xbfe8edb636433175	-0.7790175494970258
7	0xbfe89a84cf770feb	-0.7688621570637201
8	0xbfe85c84d7fd4990	-0.761293813566498
9	0xbfe82abae78580e4	-0.7552160760788209
10	0xbfe80011655068d2	-0.7500082949439053
11	0xbfe7d99a32ad20b6	-0.7453127851267911
12	0xbfe7b59fcb276208	-0.7409209220741682
13	0xbfe79320d40d2a73	-0.7367099897031281
14	0xbfe77184f5ad2ec7	-0.7326073454255145
15	0xbfe750718c57449d	-0.7285697690041563
16	0xbfe72fb06eab579e	-0.7245714341649891
17	0xbfe70f211f39a6ba	-0.7205968484751886
18	0xbfe6eeb00e96ed6c	-0.7166366848900174
19	0xbfe6ce516bb0f239	-0.7126853087752983
20	0xbfe6adfe0ce443e6	-0.7087393047132735
21	0xbfe68db1971065fa	-0.7047965956182332
22	0xbfe66d6961d2cc84	-0.7008559141744546
23	0xbfe64d23ccafc5b8	-0.6969164846215596
24	0xbfe62cdfd7e24b65	-0.6929778305514956
25	0xbfe60c9ce5d4e4ca	-0.6890396584414245
26	0xbfe5ec5a952005cd	-0.685101786861361
27	0xbfe5cc18a95c5c97	-0.6811641033008468
28	0xbfe5abd6fcf56404	-0.6772265377613853
29	0xbfe58b9578764e55	-0.6732890465522795
30	0xbfe56b540d2eb3b8	-0.669351602312978
31	0xbfe54b12b1e40289	-0.6654141878535295
32	0xbfe52ad160c50df6	-0.6614767923387592
33	0xbfe50a9016240067	-0.6575394089159204
34	0xbfe4ea4ecfab55a8	-0.653602033237509
35	0xbfe4ca0d8bdea962	-0.6496646625358091
36	0xbfe4a9cc49cb054a	-0.645727295043039
37	0xbfe4898b08d4bc55	-0.6417899296265072
38	0xbfe46949c897b06d	-0.6378525655577626
39	0xbfe4490888d35418	-0.6339152023671231
40	0xbfe428c7495ddbaf	-0.6299778397504862
41	0xbfe408860a1c1b37	-0.626040477510151
42	0xbfe3e844cafc6ecb	-0.6221031155177682
43	0xbfe3c8038bf3436a	-0.6181657536891241
44	0xbfe3a7c24cf904af	-0.6142283919690693
45	0xbfe387810e08ae47	-0.6102910303211012
46	0xbfe3673fcf1efdba	-0.6063536687215028
47	0xbfe346fe9039be6a	-0.6024163071542266
48	0xbfe326bd51577ff8	-0.5984789456088029
49	0xbfe3067c12774eb3	-0.5945415840783056
50	0xbfe2e63ad3987493	-0.5906042225575611
51	0xbfe2c5f994ba93df	-0.5866668610439055
52	0xbfe2a5b855dd5a10	-0.5827294995349934
53	0xbfe2857717009499	-0.578792138029388
54	0xbfe26535d82420c8	-0.5748547765261032
55	0xbfe244f49947e28f	-0.5709174150243416
56	0xbfe224b35a6bd193	-0.5669800535238657
57	0xbfe204721b8fe1aa	-0.5630426920243299
58	0xbfe1e430dcb405de	-0.5591053305253657
59	0xbfe1c3ef9dd844af	-0.5551679690271579
60	0xbfe1a3ae5efc9171	-0.5512306075293464
61	0xbfe1836d2020eae6	-0.5472932460318958
62	0xbfe1632be1454ae7	-0.5433558845346312
63	0xbfe142eaa269b432	-0.5394185230376307
64	0xbfe122a9638e2e57	-0.5354811615411091
65	0xbfe1026824b2aa9d	-0.5315438000446481
66	0xbfe0e226e5d733cc	-0.5276064385485539
67	0xbfe0c1e5a6fbc0c7	-0.5236690770525677
68	0xbfe0a1a4682056e2	-0.5197317155568408
69	0xbfe081632944f37b	-0.5157943540612985
70	0xbfe06121ea699dd8	-0.5118569925661474
71	0xbfe040e0ab8e497e	-0.5079196310710328
72	0xbfe0209f6cb2fe37	-0.5039822695761761
73	0xbfe0005e2dd7b870	-0.5000449080814757
74	0xbfdfc039ddf8f671	-0.49610754658701867
75	0xbfdf7fb760428918	-0.49217018509274757
76	0xbfdf3f34e28c27e3	-0.488232823598649
77	0xbfdefeb264d5d8cc	-0.4842954621048079
78	0xbfdebe2fe71f96db	-0.48035810061115364
79	0xbfde7dad6969709c	-0.47642073911789296
80	0xbfde3d2aebb34be6	-0.4724833776246541
81	0xbfddfca86dfd3932	-0.46854601613167113
82	0xbfddbc25f047359c	-0.464608654638903
83	0xbfdd7ba3729138be	-0.46067129314623034
84	0xbfdd3b20f4db4ed3	-0.456733931653827
85	0xbfdcfa9e77257503	-0.4527965701616525
86	0xbfdcba1bf96fb28e	-0.4488592086698099
87	0xbfdc79997bb9f539	-0.4449218471780401
88	0xbfdc3916fe044b8f	-0.44098448568654985
89	0xbfdbf894804ea910	-0.43704712419516145
90	0xbfdbb81202991a3a	-0.43310976270405244
91	0xbfdb778f84e399b6	-0.4291724012131469
92	0xbfdb370d072e2940	-0.42523503972246957
93	0xbfdaf68a8978c204	-0.4212976782319233
94	0xbfdab6080bc36d78	-0.41736031674164265
95	0xbfda75858e0e29d5	-0.4134229552516023
96	0xbfda35031058f494	-0.4094855937617663
97	0xbfd9f48092a3d104	-0.40554823227218173
98	0xbfd9b3fe14eebd6d	-0.40161087078282415
99	0xbfd9737b9739b8fe	-0.39767350929368195
100	0xbfd932f91984be29	-0.3937361478046762
101	0xbfd8f2769bcfdcd8	-0.38979878631603304
102	0xbfd8b1f41e1b05e8	-0.3858614248275374
103	0xbfd87171a0664139	-0.3819240633393011
104	0xbfd830ef22b18891	-0.3779867018512358
105	0xbfd7f06ca4fce828	-0.374049340363515
106	0xbfd7afea27484dbd	-0.3701119788758794
107	0xbfd76f67a993ce57	-0.3661746173886277
108	0xbfd72ee52bdf58b1	-0.3622372559015146
109	0xbfd6ee62ae2af4f9	-0.3582998944146563
110	0xbfd6ade03076a761	-0.35436253292811243
111	0xbfd66d5db2c26cd5	-0.3504251714418392
112	0xbfd62cdb350e3ee2	-0.346487809955745
113	0xbfd5ec58b75a21c0	-0.3425504484698898
114	0xbfd5abd639a61b8a	-0.3386130869843603
115	0xbfd56b53bbf223d8	-0.3346757254990371
116	0xbfd52ad13e3e460a	-0.33073836401408185
117	0xbfd4ea4ec08a7871	-0.3268010025293569
118	0xbfd4a9cc42d6bd9c	-0.3228636410448986
119	0xbfd46949c52320fe	-0.3189262795608697
120	0xbfd428c7476f9912	-0.3149889180771349
121	0xbfd3e844c9bc244f	-0.3110515565936724
122	0xbfd3a7c24c08cb34	-0.3071141951106029
123	0xbfd3673fce558ac2	-0.30317683362788383
124	0xbfd326bd50a26891	-0.2992394721455947
125	0xbfd2e63ad2ef618b	-0.29530211066369166
126	0xbfd2a5b8553c75af	-0.29136474918217464
127	0xbfd26535d789af69	-0.28742738770119175
128	0xbfd224b359d7111e	-0.283490026220777
129	0xbfd1e430dc24974a	-0.2795526647408805
130	0xbfd1a3ae5e724da7	-0.2756153032616688
131	0xbfd1632be0c03921	-0.27167794178321186
132	0xbfd122a9630e5623	-0.26774058030545883
133	0xbfd0e226e55cb712	-0.2638032188286711
134	0xbfd0a1a467ab5a31	-0.2598658573528239
135	0xbfd06121e9fa4ec8	-0.2559284958781345
136	0xbfd0209f6c499f73	-0.25199113440475357
137	0xbfcfc039dd32b2d1	-0.24805377293286893
138	0xbfcf3f34e1d32156	-0.24411641146276492
139	0xbfcebe2fe674b22b	-0.2401790499947237
140	0xbfce3d2aeb178f4f	-0.23624168852904368
141	0xbfcdbc25efbc129f	-0.23230432706636336
142	0xbfcd3b20f4626c78	-0.2283669656070264
143	0xbfccba1bf90b0e2d	-0.22442960415183802
144	0xbfcc3916fdb66ad2	-0.22049224270161588
145	0xbfcbb8120265184f	-0.21655488125742514
146	0xbfcb370d0717d5a7	-0.21261751982062302
147	0xbfcab6080bcf86aa	-0.20868015839282822
148	0xbfca3503108d5837	-0.20474279697617856
149	0xbfc9b3fe1552c826	-0.2008054355733872
150	0xbfc932f91a21a273	-0.19686807418772254
151	0xbfc8b1f41efc5408	-0.19293071282359642
152	0xbfc830ef23e5e4db	-0.18899335148652238
153	0xbfc7afea28e243e7	-0.18505599018365546
154	0xbfc72ee52df6918e	-0.18111862892432068
155	0xbfc6ade033296268	-0.1771812677204878
156	0xbfc62cdb388362ac	-0.17324390658793243
157	0xbfc5abd63e0fec88	-0.16930654554730418
158	0xbfc52ad143ddf28d	-0.16536918462579245
159	0xbfc4a9cc4a014de1	-0.16143182385950097
160	0xbfc428c750946969	-0.157494463296483
161	0xbfc3a7c257ba8ea5	-0.15355710300092543
162	0xbfc326bd5fa338f7	-0.14961974305919742
163	0xbfc2a5b8688e82fc	-0.14568238358790342
164	0xbfc224b372d379a4	-0.14174502474538742
165	0xbfc1a3ae7ee8e18f	-0.13780766674768727
166	0xbfc122a98d717fd1	-0.13387030989087959
167	0xbfc0a1a49f4da363	-0.12993295458297913
168	0xbfc0209fb5b3e58b	-0.12599560138896168
169	0xbfbf3f35a4a8feae	-0.12205825109503607
170	0xbfbe3d2bef17d22d	-0.11812090480072675
171	0xbfbd3b2251577c76	-0.11418356405146021
172	0xbfbc3918d4c7c943	-0.11024623102983803
173	0xbfbb370f86b6b853	-0.10630890883359827
174	0xbfba35067a1d5bf6	-0.10237160188022174
175	0xbfb932fdca2a91a6	-0.09843431649875942
176	0xbfb830f59dfe444c	-0.09449706179863532
177	0xbfb72eee2e2825e4	-0.09055985094905555
178	0xbfb62ce7ccc5e6c8	-0.08662270306913478
179	0xbfb52ae2f1893121	-0.08268564602730467
180	0xbfb428e04b8fd4ec	-0.07874872059604215
181	0xbfb326e0dbe944ee	-0.0748119866268728
182	0xbfb224e61d064544	-0.07087553223234005
183	0xbfb122f23d536ec5	-0.0669394874307115
184	0xbfb02108761f5a82	-0.06300404437875254
185	0xbfae3e5b17d509f2	-0.059069487246706034
186	0xbfac3ad1150a35fc	-0.055136236017556656
187	0xbfaa3787ab7b107a	-0.051204909975724314
188	0xbfa8349d5b54a329	-0.04727641811252276
189	0xbfa6323e90384f0e	-0.04335208425996316
190	0xbfa430ab2c1c5b30	-0.039433812269797364
191	0xbfa2303d3b58d1a5	-0.03552428578805981
192	0xbfa0316f9aee4710	-0.03162716642613195
193	0xbf9c69c192d0ace2	-0.027747177682766806
194	0xbf987690472fd6ec	-0.02388978418817704
195	0xbf948a8cd62c274c	-0.02005977685170217
196	0xbf90a5b9cf1fc34f	-0.01625719381985685
197	0xbf89885471720917	-0.01246705981452982
198	0xbf81af38163b360b	-0.008634985140271409
199	0xbf72e18728235edd	-0.004609611469468891
200	0x8000000000000000	-0.0
201	0xbf76d55f8270208a	-0.005574582180095553
202	0xbf888c34517b978d	-0.01198616861024584
203	0xbf93adc0a2f127db	-0.019217500634375866
204	0xbf9be4a276f0405b	-0.027239359387806732
205	0xbfa2706f630f1dd3	-0.036014061777276084
206	0xbfa74b957874117a	-0.04549853415849987
207	0xbfac7dbdff1dbc95	-0.05564683665476725
208	0xbfb1006286c1e5f5	-0.06641212263084369
209	0xbfb3e74c60824f7c	-0.07774808269669892
210	0xbfb6f0ad878a862b	-0.08960995253666997
211	0xbfba19bbedcd71ba	-0.1019551711628485
212	0xbfbd5fd906e3fb08	-0.11474377077318476
213	0xbfc0604a7ee92a58	-0.12793856808487436
214	0xbfc21cd7c52faa2a	-0.1415052140067286
215	0xbfc3e48b926d4719	-0.15541214608907053
216	0xbfc5b6739464bcc5	-0.1696304773881591
217	0xbfc791b2a8745368	-0.18413384652435671
218	0xbfc9757f6c77ab0a	-0.19889824672949202
219	0xbfcb6122bd47f7c6	-0.2139018463348618
220	0xbfcd53f63503ccc5	-0.22912480915656466
221	0xbfcf4d62b4fdc322	-0.2445491203066235
222	0xbfd0a66f8155bd7f	-0.2601584208523135
223	0xbfd1a8f73dde0b97	-0.27593785325751113
224	0xbfd2ae0ff1a3f3f4	-0.29187391851138433
225	0xbfd3b5862445c016	-0.30795434515221254
226	0xbfd4bf2b0353be05	-0.32416796994127167
227	0xbfd5cad3ee2010be	-0.34050462965411643
228	0xbfd6d85a0cbfe117	-0.3569550632960427
229	0xbfd7e799f1679109	-0.3735108239618659
230	0xbfd8f87343449ff3	-0.39016419953486475
231	0xbfda0ac871fb0fe5	-0.4069081414311298
232	0xbfdb1e7e70f39f6e	-0.42373620062288964
233	0xbfdc337c79b62439	-0.440642470225217
234	0xbfdd49abd4990d5d	-0.45762153398046285
235	0xbfde60f7a71e58af	-0.4746684200303077
236	0xbfdf794cc765c563	-0.49177855942169496
237	0xbfe0494cca1538b7	-0.5089477488452506
238	0xbfe0d666e8683033	-0.5261721171568808
239	0xbfe163ed4289070c	-0.5434480952755805
240	0xbfe1f1d8eff5e6fe	-0.5607723891000373
241	0xbfe280238eb5aeb4	-0.578141955118062
242	0xbfe30ec7378aa22d	-0.5955539784236571
243	0xbfe39dbe734cd1b3	-0.6130058528856835
244	0xbfe42d04314cbf04	-0.6304951632391469
245	0xbfe4bc93bea2aec9	-0.648019668898507
246	0xbfe54c68be51bb5f	-0.6655772893117095
247	0xbfe5dc7f2228a8db	-0.6831660906948643
248	0xbfe66cd3244d0b8f	-0.7007842740061835
249	0xbfe6fd61415f16e0	-0.7184301640306465
250	0xbfe78e263326b1db	-0.7361021994634557
251	0xbfe81f1eebbc1bf0	-0.7537989238925302
252	0xbfe8b048911f7254	-0.7715189775877414
253	0xbfe941a0793485a6	-0.7892610900200239
254	0xbfe9d3242618d390	-0.8070240730363469
255	0xbfea64d142caf296	-0.8248068146272824

d f8 [401]
0	0x3fb3a4316f3a4317	0.07672413793103448
1	0x3fb3a4316f3a4317	0.07672413793103448
2	0x3fb3a4316f3a4317	0.07672413793103448
3	0x3fb3a4316f3a4317	0.07672413793103448
4	0x3fb3a4316f3a4317	0.07672413793103448
5	0x3fb3a4316f3a4317	0.07672413793103448
6	0x3fb3a4316f3a4317	0.07672413793103448
7	0x3fb3a4316f3a4317	0.07672413793103448
8	0x3fb3a4316f3a4317	0.07672413793103448
9	0x3fb3a4316f3a4317	0.07672413793103448
10	0x3fb3a4316f3a4317	0.07672413793103448
11	0x3fb3a4316f3a4317	0.07672413793103448
12	0x3fb3a4316f3a4317	0.07672413793103448
13	0x3fb3a4316f3a4317	0.07672413793103448
14	0x3fb3a4316f3a4317	0.07672413793103448
15	0x3fb3a4316f3a4317	0.07672413793103448
16	0x3fb3a4316f3a4317	0.07672413793103448
17	0x3fb3a4316f3a4317	0.07672413793103448
18	0x3fb3a4316f3a4317	0.07672413793103448
19	0x3fb3a4316f3a4317	0.07672413793103448
20	0x3fb3a4316f3a4317	0.07672413793103448
21	0x3fb3a4316f3a4317	0.07672413793103448
22	0x3fb3a4316f3a4317	0.07672413793103448
23	0x3fb3a4316f3a4317	0.07672413793103448
24	0x3fb3a4316f3a4317	0.07672413793103448
25	0x3fb3a4316f3a4317	0.07672413793103448
26	0x3fb3a4316f3a4317	0.07672413793103448
27	0x3fb3a4316f3a4317	0.07672413793103448
28	0x3fb3a4316f3a4317	0.07672413793103448
29	0x3fb3a4316f3a4317	0.07672413793103448
30	0x3fb3a4316f3a4317	0.07672413793103448
31	0x3fb3a4316f3a4317	0.07672413793103448
32	0x3fb3a4316f3a4317	0.07672413793103448
33	0x3fb3a4316f3a4317	0.07672413793103448
34	0x3fb3a4316f3a4317	0.07672413793103448
35	0x3fb3a4316f3a4317	0.07672413793103448
36	0x3fb3a4316f3a4317	0.07672413793103448
37	0x3fb3a4316f3a4317	0.07672413793103448
38	0x3fb3a4316f3a4317	0.07672413793103448
39	0x3fb3a4316f3a4317	0.07672413793103448
40	0x3fb3a4316f3a4317	0.07672413793103448
41	0x3fb3a4316f3a4317	0.07672413793103448
42	0x3fb3a4316f3a4317	0.07672413793103448
43	0x3fb3a4316f3a4317	0.07672413793103448
44	0x3fb3a4316f3a4317	0.07672413793103448
45	0x3fb3a4316f3a4317	0.07672413793103448
46	0x3fb3a4316f3a4317	0.07672413793103448
47	0x3fb3a4316f3a4317	0.07672413793103448
48	0x3fb3a4316f3a4317	0.07672413793103448
49	0x3fb3a4316f3a4317	0.07672413793103448
50	0x3fb3a4316f3a4317	0.07672413793103448
51	0x3fb3a4316f3a4317	0.07672413793103448
52	0x3fb3a4316f3a4317	0.07672413793103448
53	0x3fb3a4316f3a4317	0.07672413793103448
54	0x3fb3a4316f3a4317	0.07672413793103448
55	0x3fb3a4316f3a4317	0.07672413793103448
56	0x3fb3a4316f3a4317	0.07672413793103448
57	0x3fb3a4316f3a4317	0.07672413793103448
58	0x3fb3a4316f3a4317	0.07672413793103448
59	0x3fb3a4316f3a4317	0.07672413793103448
60	0x3fb3a4316f3a4317	0.07672413793103448
61	0x3fb3a4316f3a4317	0.07672413793103448
62	0x3fb3a4316f3a4317	0.07672413793103448
63	0x3fb3a4316f3a4317	0.07672413793103448
64	0x3fb3a4316f3a4317	0.07672413793103448
65	0x3fb3a4316f3a4317	0.07672413793103448
66	0x3fb3a4316f3a4317	0.07672413793103448
67	0x3fb3a4316f3a4317	0.07672413793103448
68	0x3fb3a4316f3a4317	0.07672413793103448
69	0x3fb3a4316f3a4317	0.07672413793103448
70	0x3fb3a4316f3a4317	0.07672413793103448
71	0x3fb3a4316f3a4317	0.07672413793103448
72	0x3fb3a4316f3a4317	0.07672413793103448
73	0x3fb3a4316f3a4317	0.07672413793103448
74	0x3fb3a4316f3a4317	0.07672413793103448
75	0x3fb3a4316f3a4317	0.07672413793103448
76	0x3fb3a4316f3a4317	0.07672413793103448
77	0x3fb3a4316f3a4317	0.07672413793103448
78	0x3fb3a4316f3a4317	0.07672413793103448
79	0x3fb3a4316f3a4317	0.07672413793103448
80	0x3fb3a4316f3a4317	0.07672413793103448
81	0x3fb3a4316f3a4317	0.07672413793103448
82	0x3fb3a4316f3a4317	0.07672413793103448
83	0x3fb3a4316f3a4317	0.07672413793103448
84	0x3fb3a4316f3a4317	0.07672413793103448
85	0x3fb3a4316f3a4317	0.07672413793103448
86	0x3fb3a4316f3a4317	0.07672413793103448
87	0x3fb3a4316f3a4317	0.07672413793103448
88	0x3fb3a4316f3a4317	0.07672413793103448
89	0x3fb3a4316f3a4317	0.07672413793103448
90	0x3fb3a4316f3a4317	0.07672413793103448
91	0x3fb3a4316f3a4317	0.07672413793103448
92	0x3fb3a4316f3a4317	0.07672413793103448
93	0x3fb3a4316f3a4317	0.07672413793103448
94	0x3fb3a4316f3a4317	0.07672413793103448
95	0x3fb3a4316f3a4317	0.07672413793103448
96	0x3fb3a4316f3a4317	0.07672413793103448
97	0x3fb3a4316f3a4317	0.07672413793103448
98	0x3fb3a4316f3a4317	0.07672413793103448
99	0x3fb3a4316f3a4317	0.07672413793103448
100	0x3fb3a4316f3a4317	0.07672413793103448
101	0x3fb3a4316f3a4317	0.07672413793103448
102	0x3fb3a4316f3a4317	0.07672413793103448
103	0x3fb3a4316f3a4317	0.07672413793103448
104	0x3fb3a4316f3a4317	0.07672413793103448
105	0x3fb3a4316f3a4317	0.07672413793103448
106	0x3fb3a4316f3a4317	0.07672413793103448
107	0x3fb3a4316f3a4317	0.07672413793103448
108	0x3fb3a4316f3a4317	0.07672413793103448
109	0x3fb3a4316f3a4317	0.07672413793103448
110	0x3fb3a4316f3a4317	0.07672413793103448
111	0x3fb3a4316f3a4317	0.07672413793103448
112	0x3fb3a4316f3a4317	0.07672413793103448
113	0x3fb3a4316f3a4317	0.07672413793103448
114	0x3fb3a4316f3a4317	0.07672413793103448
115	0x3fb3a4316f3a4317	0.07672413793103448
116	0x3fb3a4316f3a4317	0.07672413793103448
117	0x3fb3a4316f3a4317	0.07672413793103448
118	0x3fb3a4316f3a4317	0.07672413793103448
119	0x3fb3a4316f3a4317	0.07672413793103448
120	0x3fb3a4316f3a4317	0.07672413793103448
121	0x3fb3a4316f3a4317	0.07672413793103448
122	0x3fb3a4316f3a4317	0.07672413793103448
123	0x3fb3a4316f3a4317	0.07672413793103448
124	0x3fb3a4316f3a4317	0.07672413793103448
125	0x3fb3a4316f3a4317	0.07672413793103448
126	0x3fb3a4316f3a4317	0.07672413793103448
127	0x3fb3a4316f3a4317	0.07672413793103448
128	0x3fb3a4316f3a4317	0.07672413793103448
129	0x3fb3a4316f3a4317	0.07672413793103448
130	0x3fb3a4316f3a4317	0.07672413793103448
131	0x3fb3a4316f3a4317	0.07672413793103448
132	0x3fb3a4316f3a4317	0.07672413793103448
133	0x3fb3a4316f3a4317	0.07672413793103448
134	0x3fb3a4316f3a4317	0.07672413793103448
135	0x3fb3a4316f3a4317	0.07672413793103448
136	0x3fb3a4316f3a4317	0.07672413793103448
137	0x3fb3a4316f3a4317	0.07672413793103448
138	0x3fb3a4316f3a4317	0.07672413793103448
139	0x3fb3a4316f3a4317	0.07672413793103448
140	0x3fb3a4316f3a4317	0.07672413793103448
141	0x3fb3a4316f3a4317	0.07672413793103448
142	0x3fb3a4316f3a4317	0.07672413793103448
143	0x3fb3a4316f3a4317	0.07672413793103448
144	0x3fb3a4316f3a4317	0.07672413793103448
145	0x3fb3a4316f3a4317	0.07672413793103448
146	0x3fb3a4316f3a4317	0.07672413793103448
147	0x3fb3a4316f3a4317	0.07672413793103448
148	0x3fb3a4316f3a4317	0.07672413793103448
149	0x3fb3a4316f3a4317	0.07672413793103448
150	0x3fb3a4316f3a4317	0.07672413793103448
151	0x3fb3a4316f3a4317	0.07672413793103448
152	0x3fb3a4316f3a4317	0.07672413793103448
153	0x3fb3a4316f3a4317	0.07672413793103448
154	0x3fb3a4316f3a4317	0.07672413793103448
155	0x3fb3a4316f3a4317	0.07672413793103448
156	0x3fb3a4316f3a4317	0.07672413793103448
157	0x3fb3a4316f3a4317	0.07672413793103448
158	0x3fb3a4316f3a4317	0.07672413793103448
159	0x3fb3a4316f3a4317	0.07672413793103448
160	0x3fb3a4316f3a4317	0.07672413793103448
161	0x3fb3a4316f3a4317	0.07672413793103448
162	0x3fb3a4316f3a4317	0.07672413793103448
163	0x3fb3a4316f3a4317	0.07672413793103448
164	0x3fb3a4316f3a4317	0.07672413793103448
165	0x3fb3a4316f3a4317	0.07672413793103448
166	0x3fb3a4316f3a4317	0.07672413793103448
167	0x3fb3a4316f3a4317	0.07672413793103448
168	0x3fb3a4316f3a4317	0.07672413793103448
169	0x3fb3a4316f3a4317	0.07672413793103448
170	0x3fb3a4316f3a4317	0.07672413793103448
171	0x3fb3a4316f3a4317	0.07672413793103448
172	0x3fb3a4316f3a4317	0.07672413793103448
173	0x3fb3a4316f3a4317	0.07672413793103448
174	0x3fb3a4316f3a4317	0.07672413793103448
175	0x3fb3a4316f3a4317	0.07672413793103448
176	0x3fb3a4316f3a4317	0.07672413793103448
177	0x3fb3a4316f3a4317	0.07672413793103448
178	0x3fb3a4316f3a4317	0.07672413793103448
179	0x3fb3a4316f3a4317	0.07672413793103448
180	0x3fb3a4316f3a4317	0.07672413793103448
181	0x3fb3a4316f3a4317	0.07672413793103448
182	0x3fb3a4316f3a4317	0.07672413793103448
183	0x3fb3a4316f3a4317	0.07672413793103448
184	0x3fb3a4316f3a4317	0.07672413793103448
185	0x3fb3a4316f3a4317	0.07672413793103448
186	0x3fb3a4316f3a4317	0.07672413793103448
187	0x3fb3a4316f3a4317	0.07672413793103448
188	0x3fb3a4316f3a4317	0.07672413793103448
189	0x3fb3a4316f3a4317	0.07672413793103448
190	0x3fb3a4316f3a4317	0.07672413793103448
191	0x3fb3a4316f3a4317	0.07672413793103448
192	0x3fb3a4316f3a4317	0.07672413793103448
193	0x3fb3a4316f3a4317	0.07672413793103448
194	0x3fb3a4316f3a4317	0.07672413793103448
195	0x3fb3a4316f3a4317	0.07672413793103448
196	0x3fb3a4316f3a4317	0.07672413793103448
197	0x3fb3a4316f3a4317	0.07672413793103448
198	0x3fb3a4316f3a4317	0.07672413793103448
199	0x3fb3a4316f3a4317	0.07672413793103448
200	0x3fb3a4316f3a4317	0.07672413793103448
201	0x3fb3a4316f3a4317	0.07672413793103448
202	0x3fb3a4316f3a4317	0.07672413793103448
203	0x3fb3a4316f3a4317	0.07672413793103448
204	0x3fb3a4316f3a4317	0.07672413793103448
205	0x3fb3a4316f3a4317	0.07672413793103448
206	0x3fb3a4316f3a4317	0.07672413793103448
207	0x3fb3a4316f3a4317	0.07672413793103448
208	0x3fb3a4316f3a4317	0.07672413793103448
209	0x3fb3a4316f3a4317	0.07672413793103448
210	0x3fb3a4316f3a4317	0.07672413793103448
211	0x3fb3a4316f3a4317	0.07672413793103448
212	0x3fb3a4316f3a4317	0.07672413793103448
213	0x3fb3a4316f3a4317	0.07672413793103448
214	0x3fb3a4316f3a4317	0.07672413793103448
215	0x3fb3a4316f3a4317	0.07672413793103448
216	0x3fb3a4316f3a4317	0.07672413793103448
217	0x3fb3a4316f3a4317	0.07672413793103448
218	0x3fb3a4316f3a4317	0.07672413793103448
219	0x3fb3a4316f3a4317	0.07672413793103448
220	0x3fb3a4316f3a4317	0.07672413793103448
221	0x3fb3a4316f3a4317	0.07672413793103448
222	0x3fb3a4316f3a4317	0.07672413793103448
223	0x3fb3a4316f3a4317	0.07672413793103448
224	0x3fb3a4316f3a4317	0.07672413793103448
225	0x3fb3a4316f3a4317	0.07672413793103448
226	0x3fb3a4316f3a4317	0.07672413793103448
227	0x3fb3a4316f3a4317	0.07672413793103448
228	0x3fb3a4316f3a4317	0.07672413793103448
229	0x3fb3a4316f3a4317	0.07672413793103448
230	0x3fb3a4316f3a4317	0.07672413793103448
231	0x3fb3a4316f3a4317	0.07672413793103448
232	0x3fb3a4316f3a4317	0.07672413793103448
233	0x3fb3a4316f3a4317	0.07672413793103448
234	0x3fb3a4316f3a4317	0.07672413793103448
235	0x3fb3a4316f3a4317	0.07672413793103448
236	0x3fb3a4316f3a4317	0.07672413793103448
237	0x3fb3a4316f3a4317	0.07672413793103448
238	0x3fb3a4316f3a4317	0.07672413793103448
239	0x3fb3a4316f3a4317	0.07672413793103448
240	0x3fb3a4316f3a4317	0.07672413793103448
241	0x3fb3a4316f3a4317	0.07672413793103448
242	0x3fb3a4316f3a4317	0.07672413793103448
243	0x3fb3a4316f3a4317	0.07672413793103448
244	0x3fb3a4316f3a4317	0.07672413793103448
245	0x3fb3a4316f3a4317	0.07672413793103448
246	0x3fb3a4316f3a4317	0.07672413793103448
247	0x3fb3a4316f3a4317	0.07672413793103448
248	0x3fb3a4316f3a4317	0.07672413793103448
249	0x3fb3a4316f3a4317	0.07672413793103448
250	0x3fb3a4316f3a4317	0.07672413793103448
251	0x3fb3a4316f3a4317	0.07672413793103448
252	0x3fb3a4316f3a4317	0.07672413793103448
253	0x3fb3a4316f3a4317	0.07672413793103448
254	0x3fb3a4316f3a4317	0.07672413793103448
255	0x3fb3a4316f3a4317	0.07672413793103448

zmax f8 []
0	0x4014000000000000	5.0

hz_F f8 [401]
0	0x3fa3c6cb91383079	0.03862606189440582
1	0x3facb4d165fc52d1	0.05606703157369498
2	0x3fb0ca7939b8126e	0.06558950099140201
3	0x3fb22a8fec087630	0.07096194756055563
4	0x3fb2f518d30504f5	0.074052382963618
5	0x3fb36b0ff6d710c6	0.07585239197129842
6	0x3fb3b05d267733d4	0.07690984906294257
7	0x3fb3d956766e1cf1	0.07753506080017637
8	0x3fb3f1aff906aa1a	0.07790660695778975
9	0x3fb4003897287ac2	0.07812837305435053
10	0x3fb408ee1229ea58	0.07826126044702997
11	0x3fb40e2af0ff92fa	0.07834118255375336
12	0x3fb4115438e8c62e	0.07838941945444652
13	0x3fb4133e57f622fd	0.07841863296028957
14	0x3fb414682e3c74dc	0.0784363854295011
15	0x3fb4151dc7949871	0.07844720957345587
16	0x3fb4158ce0716eed	0.07845383147781222
17	0x3fb415d11210f1e4	0.07845789614743343
18	0x3fb415fb11dd3fe0	0.07846039949549732
19	0x3fb4161505e9433f	0.07846194643321967
20	0x3fb416251d64e3f7	0.07846290557507972
21	0x3fb4162f20313ec7	0.07846350227304831
22	0x3fb416355ff0b20a	0.07846387474337049
23	0x3fb4163949eaf48e	0.07846410803445478
24	0x3fb4163bbf9faa26	0.07846425464928383
25	0x3fb4163d4cb8483a	0.07846434710543884
26	0x3fb4163e47fcafb1	0.07846440560814362
27	0x3fb4163ee7865f9c	0.07846444275344172
28	0x3fb4163f4d2b7d18	0.0784644664195081
29	0x3fb4163f8e276ae5	0.07846448154979731
30	0x3fb4163fb7d82bb1	0.07846449125660972
31	0x3fb4163fd2af408d	0.07846449750582192
32	0x3fb4163fe406721e	0.078464501543245
33	0x3fb4163fef44c52b	0.0784645041610658
34	0x3fb4163ff695d17b	0.07846450586459312
35	0x3fb4163ffb5d39b8	0.07846450697727547
36	0x3fb4163ffe7f6369	0.07846450770683834
37	0x3fb41640008f74c0	0.07846450818711315
38	0x3fb4164001ec966e	0.07846450850464645
39	0x3fb4164002d47a80	0.07846450871555
40	0x3fb41640036f4c4a	0.0784645088563575
41	0x3fb4164003d74f0f	0.07846450895095479
42	0x3fb41640041da77b	0.07846450901493356
43	0x3fb41640044da5d4	0.07846450905858343
44	0x3fb41640046ebd74	0.07846450908868069
45	0x3fb416400485e46c	0.07846450910973751
46	0x3fb41640049657ff	0.07846450912470003
47	0x3fb4164004a24d15	0.07846450913557519
48	0x3fb4164004ab3607	0.07846450914367874
49	0x3fb4164004b20918	0.07846450914988556
50	0x3fb4164004b7806d	0.07846450915485699
51	0x3fb4164004bbfb0a	0.07846450915893058
52	0x3fb4164004bfce40	0.07846450916240943
53	0x3fb4164004c32e6a	0.07846450916547956
54	0x3fb4164004c63fb8	0.07846450916826953
55	0x3fb4164004c91fe8	0.07846450917088499
56	0x3fb4164004cbd75f	0.07846450917335578
57	0x3fb4164004ce730b	0.07846450917572782
58	0x3fb4164004d10125	0.07846450917805166
59	0x3fb4164004d379ea	0.07846450918029971
60	0x3fb4164004d5eb93	0.0784645091825225
61	0x3fb4164004d8576b	0.07846450918472463
62	0x3fb4164004dac48e	0.07846450918693135
63	0x3fb4164004dd2fc0	0.07846450918913117
64	0x3fb4164004df8ff6	0.07846450919129197
65	0x3fb4164004e1f6a2	0.07846450919347572
66	0x3fb4164004e456d8	0.07846450919563652
67	0x3fb4164004e6bb94	0.07846450919781339
68	0x3fb4164004e91e5f	0.07846450919998336
69	0x3fb4164004eb8275	0.07846450920215793
70	0x3fb4164004eddeca	0.07846450920430495
71	0x3fb4164004f042e0	0.07846450920647952
72	0x3fb4164004f2a506	0.0784645092086472
73	0x3fb4164004f509c2	0.07846450921082407
74	0x3fb4164004f76d33	0.07846450921299634
75	0x3fb4164004f9d1ef	0.07846450921517321
76	0x3fb4164004fc389b	0.07846450921735697
77	0x3fb4164004fe9d57	0.07846450921953384
78	0x3fb416400501035e	0.0784645092217153
79	0x3fb41640050360fd	0.0784645092238669
80	0x3fb416400505c7aa	0.07846450922605067
81	0x3fb4164005082c66	0.07846450922822754
82	0x3fb41640050a9121	0.07846450923040439
83	0x3fb41640050cfbae	0.07846450923260193
84	0x3fb41640050f63a6	0.07846450923479029
85	0x3fb416400511caf7	0.07846450923697633
86	0x3fb4164005142c78	0.07846450923914172
87	0x3fb4164005169514	0.07846450924133236
88	0x3fb416400518fa76	0.07846450924351153
89	0x3fb41640051b65a8	0.07846450924571136
90	0x3fb41640051dcd9f	0.0784645092478997
91	0x3fb416400520363c	0.07846450925009035
92	0x3fb4164005229e33	0.0784645092522787
93	0x3fb4164005250ab0	0.07846450925448312
94	0x3fb4164005277498	0.07846450925667836
95	0x3fb416400529dd35	0.07846450925886901
96	0x3fb41640052c4677	0.07846450926106195
97	0x3fb41640052eadc8	0.078464509263248
98	0x3fb4164005311474	0.07846450926543175
99	0x3fb4164005337b21	0.07846450926761551
100	0x3fb416400535e653	0.07846450926981534
101	0x3fb416400538491f	0.07846450927198532
102	0x3fb41640053aafcb	0.07846450927416908
103	0x3fb41640053d13e1	0.07846450927634364
104	0x3fb41640053f7a8d	0.0784645092785274
105	0x3fb416400541d978	0.0784645092806836
106	0x3fb4164005444024	0.07846450928286736
107	0x3fb4164005469c79	0.07846450928501437
108	0x3fb416400548fd54	0.07846450928717746
109	0x3fb41640054b5b99	0.07846450928933137
110	0x3fb41640054db368	0.07846450929146231
111	0x3fb4164005500756	0.07846450929357948
112	0x3fb4164005525d34	0.07846450929570353
113	0x3fb416400554b122	0.0784645092978207
114	0x3fb416400556fd4e	0.0784645092999103
115	0x3fb416400559497a	0.07846450930199991
116	0x3fb41640055b8aa9	0.07846450930405048
117	0x3fb41640055dc9e8	0.07846450930609417
118	0x3fb41640056004a1	0.07846450930812178
119	0x3fb4164005622f31	0.07846450931009198
120	0x3fb41640056452a5	0.07846450931203693
121	0x3fb4164005667048	0.0784645093139612
122	0x3fb4164005687f0d	0.07846450931583267
123	0x3fb41640056a818a	0.0784645093176605
124	0x3fb41640056c7149	0.07846450931942174
125	0x3fb41640056e50df	0.07846450932112557
126	0x3fb4164005701fa7	0.0784645093227697
127	0x3fb416400571d15a	0.07846450932431051
128	0x3fb4164005736215	0.07846450932573419
129	0x3fb416400574d470	0.07846450932704996
130	0x3fb416400576198d	0.07846450932820499
131	0x3fb41640057729a9	0.07846450932917172
132	0x3fb41640057806b6	0.07846450932995705
133	0x3fb4164005789823	0.0784645093304737
134	0x3fb416400578dca6	0.07846450933071711
135	0x3fb416400578bda0	0.07846450933060689
136	0x3fb41640057828f7	0.07846450933007874
137	0x3fb416400577080d	0.07846450932905231
138	0x3fb41640057539ea	0.07846450932741048
139	0x3fb4164005729ba8	0.07846450932502924
140	0x3fb41640056f067f	0.07846450932177083
141	0x3fb41640056a301a	0.07846450931737117
142	0x3fb416400563e60f	0.07846450931165115
143	0x3fb41640055bc430	0.07846450930425486
144	0x3fb4164005515de6	0.07846450929479651
145	0x3fb41640054424ff	0.07846450928277092
146	0x3fb41640053361ec	0.07846450926752596
147	0x3fb41640051e3319	0.07846450924826022
148	0x3fb4164005036ca0	0.07846450922390824
149	0x3fb4164004e18ab2	0.07846450919309225
150	0x3fb4164004b6ab22	0.07846450915409922
151	0x3fb4164004803f33	0.07846450910460305
152	0x3fb41640043afea4	0.07846450904161856
153	0x3fb4164003e29266	0.07846450896119847
154	0x3fb4164003713592	0.07846450885809578
155	0x3fb4164002df509c	0.07846450872540561
156	0x3fb416400222adb2	0.07846450855384182
157	0x3fb41640012d9d01	0.07846450833095632
158	0x3fb4163fffeda878	0.07846450803995875
159	0x3fb4163ffe49b435	0.07846450765801267
160	0x3fb4163ffc1f78ce	0.07846450715394157
161	0x3fb4163ff93ff20f	0.07846450648498425
162	0x3fb4163ff56a25ac	0.07846450559204382
163	0x3fb4163ff043dbd8	0.07846450439306751
164	0x3fb4163fe94efe2e	0.07846450277337944
165	0x3fb4163fdfda4eb8	0.0784645005717789
166	0x3fb4163fd2eb3bbc	0.07846449756037449
167	0x3fb4163fc11d374d	0.07846449341488189
168	0x3fb4163fa871cb07	0.07846448767103818
169	0x3fb4163f86098de6	0.07846447965999168
170	0x3fb4163f55ba3ad1	0.07846446841197553
171	0x3fb4163f116fbb6e	0.07846445251173659
172	0x3fb4163eb03c6a9e	0.07846442988049282
173	0x3fb4163e24ec7f25	0.0784643974443467
174	0x3fb4163d5bd8c0ef	0.07846435062743116
175	0x3fb4163c378c91dc	0.07846428257159438
176	0x3fb4163a8b943e59	0.07846418292705816
177	0x3fb4163814628992	0.07846403596571452
178	0x3fb416346a95ccfb	0.0784638176171945
179	0x3fb4162eeed51cc9	0.0784634907805525
180	0x3fb41626a9bd1ff4	0.07846299785626326
181	0x3fb4161a186b73ed	0.07846224876580239
182	0x3fb41606d95ba56c	0.07846110159484504
183	0x3fb415e9251b3a27	0.07845933109204194
184	0x3fb415baf080bb2c	0.07845657703067549
185	0x3fb415727e743254	0.07845225894215818
186	0x3fb414fffed024da	0.07844543429395703
187	0x3fb4144991ebd943	0.07843456089526506
188	0x3fb413248ef8ff76	0.07841709604781308
189	0x3fb4114a17eb66c5	0.07838881572697705
190	0x3fb40e4394d77a92	0.07834265121298703
191	0x3fb409492f4d7061	0.0782666912541017
192	0x3fb40108160f8750	0.07814074076261801
193	0x3fb3f33f120fe35f	0.07793039504021014
194	0x3fb3dc1465f5142c	0.07757689942543838
195	0x3fb3b4f78cfafb11	0.07698008720306528
196	0x3fb372d0e0ec17da	0.07597070208802795
197	0x3fb303472826a841	0.07426876764535086
198	0x3fb2494476bfca2b	0.07143047236585491
199	0x3fb11a2fae0b3580	0.06680582045665595
200	0x3fae7ff204b7f004	0.05956989581679298
201	0x3fac20779516d8b7	0.05493520445763649
202	0x3faa172c6ec3f12c	0.05095805027119335
203	0x3fa8567bf0971db2	0.047534821623738024
204	0x3fa6d2ced147c390	0.04457708649341108
205	0x3fa58263423e733a	0.04201040443078914
206	0x3fa45d150bb00fda	0.039772660900808623
207	0x3fa35c21d7b77e81	0.03781228788625147
208	0x3fa279f06a90920d	0.03608657170142147
209	0x3fa1b1ddf34901a3	0.0345601424674016
210	0x3fa100127f001037	0.033203676226577654
211	0x3fa0615c711edaab	0.03199280625215314
212	0x3f9fa624ac0c5f44	0.030907223702427503
213	0x3f9ea5f463feec42	0.029929941752680607
214	0x3f9dbe6ad44cc18a	0.029046696861031708
215	0x3f9cec60ef5ec4ef	0.028245462999341105
216	0x3f9c2d2b62daa213	0.027516057880946642
217	0x3f9b7e8528d94454	0.026849823587614743
218	0x3f9ade7e1ec40bc8	0.026239367130084706
219	0x3f9a4b6cd83795f9	0.025678349205824322
220	0x3f99c3e30baa5444	0.025161311709400516
221	0x3f9946a416e5a0e1	0.024683536431809542
222	0x3f98d29d33824167	0.024240928906296057
223	0x3f9866df088b6a09	0.023829922577400384
224	0x3f980298571b63a2	0.023447399441326795
225	0x3f97a5118d083c98	0.023090624077721417
226	0x3f974da9133ab295	0.02275718860498673
227	0x3f96fbd035a32701	0.022444966577302775
228	0x3f96af08895edcc9	0.022152074226792693
229	0x3f9666e1bae65940	0.02187683776136251
230	0x3f9622f7b24ff44a	0.021617765672989266
231	0x3f95e2f0ff0bee1a	0.021373525206383893
232	0x3f95a67d7f30fefe	0.021142922294756332
233	0x3f956d5538978cab	0.020924884394741976
234	0x3f9537375bc040bb	0.020718445754085418
235	0x3f9503e969eaf823	0.020522734727585267
236	0x3f94d33678e70904	0.02033696282320198
237	0x3f94a4ee9014082e	0.020160415214384546
238	0x3f9478e61acc1223	0.019992442498749107
239	0x3f944ef56d10ba5c	0.01983245351964978
240	0x3f9426f857d50d9c	0.019679909096579004
241	0x3f9400cdcaac954f	0.019534316535233128
242	0x3f93dc5780ff408c	0.019395224808079578
243	0x3f93b979b92ca87b	0.019262220313216432
244	0x3f93981af446f05c	0.019134923133364942
245	0x3f937823bd405482	0.01901298372839167
246	0x3f93597e76922162	0.018896080004681244
247	0x3f933c172d87adcb	0.018783914712839505
248	0x3f931fdb72763e26	0.018676213132094464
249	0x3f9304ba3544dd69	0.018572721005708646
250	0x3f92eaa3a5bc8659	0.018473202696560474
251	0x3f92d189172b7bd9	0.01837743953626245
252	0x3f92b95ce6f6e4b5	0.018285228344869526
253	0x3f92a21265c24cd8	0.018196380101085236
254	0x3f928b9dc2e0fae8	0.01811071874567008
255	0x3f9275f3f9ce61f9	0.018028080102881792

Vz_F f8 [401]
0	0x3fe0df6d1c811e00	0.5272737080312595
1	0x3fe981f5be294380	0.7971142496190708
2	0x3fee38df919cd980	0.944442543411057
3	0x3ff070e60d64f2c0	1.0275631449905376
4	0x3ff134beccbe2f00	1.0753772733468736
5	0x3ff1a6d0b41727c0	1.1032263788970198
6	0x3ff1e9d40a396c80	1.1195869826686078
7	0x3ff21172f961dc00	1.129260038518396
8	0x3ff228fea42a6100	1.1350084698406704
9	0x3ff2370c658ec500	1.1384395567986871
10	0x3ff23f784159f8c0	1.1404955437460984
11	0x3ff24488d8f54bc0	1.1417320704392608
12	0x3ff2479767813140	1.1424783747816747
13	0x3ff2497157403700	1.1429303558574588
14	0x3ff24a9157b87140	1.1432050158101248
15	0x3ff24b40f1e4af40	1.1433724831540104
16	0x3ff24bac5f94e1c0	1.143474934926516
17	0x3ff24bee50b80a00	1.1435378220636494
18	0x3ff24c16ed789440	1.1435765529834185
19	0x3ff24c30061e4080	1.1436004866591531
20	0x3ff24c3f95914780	1.14361532616428
21	0x3ff24c4943bcad00	1.1436245580651416
22	0x3ff24c4f4ea87180	1.1436303207948129
23	0x3ff24c53178c5a00	1.1436339301923226
24	0x3ff24c557875c200	1.143636198565332
25	0x3ff24c56f8717840	1.1436376290144068
26	0x3ff24c57eb69c0c0	1.1436385341476552
27	0x3ff24c5885aec400	1.143639108846628
28	0x3ff24c58e7f89c80	1.1436394749996737
29	0x3ff24c5926cf3040	1.1436397090901806
30	0x3ff24c594f1f8180	1.1436398592705643
31	0x3ff24c596913b0c0	1.143639955956175
32	0x3ff24c5979d84b00	1.1436400184217632
33	0x3ff24c5984b791c0	1.143640058923765
34	0x3ff24c598bcac400	1.1436400852801398
35	0x3ff24c599069c600	1.1436401024951692
36	0x3ff24c5993717280	1.143640113782709
37	0x3ff24c59957013c0	1.1436401212133518
38	0x3ff24c5996c1ae00	1.1436401261261153
39	0x3ff24c5997a1e9c0	1.1436401293891407
40	0x3ff24c5998379ec0	1.1436401315676648
41	0x3ff24c59989c3240	1.1436401330312407
42	0x3ff24c5998e03800	1.1436401340210978
43	0x3ff24c59990ea0a0	1.143640134696433
44	0x3ff24c59992ea080	1.1436401351620873
45	0x3ff24c59994503c0	1.1436401354878711
46	0x3ff24c599954ec40	1.143640135719366
47	0x3ff24c5999607c40	1.1436401358876225
48	0x3ff24c59996919e0	1.1436401360129977
49	0x3ff24c59996fb340	1.1436401361090276
50	0x3ff24c599974fc60	1.1436401361859438
51	0x3ff24c5999795120	1.143640136248969
52	0x3ff24c59997d0400	1.1436401363027926
53	0x3ff24c59998047a0	1.1436401363502924
54	0x3ff24c5999833f00	1.1436401363934579
55	0x3ff24c59998606e0	1.1436401364339233
56	0x3ff24c599988a760	1.1436401364721505
57	0x3ff24c59998b2d00	1.14364013650885
58	0x3ff24c59998da580	1.1436401365448035
59	0x3ff24c5999900960	1.1436401365795845
60	0x3ff24c5999926660	1.1436401366139748
61	0x3ff24c599994bdc0	1.1436401366480453
62	0x3ff24c5999971660	1.143640136682187
63	0x3ff24c5999996d20	1.1436401367162219
64	0x3ff24c59999bb940	1.143640136749653
65	0x3ff24c59999e0ba0	1.1436401367834392
66	0x3ff24c5999a057c0	1.1436401368168703
67	0x3ff24c5999a2a840	1.14364013685055
68	0x3ff24c5999a4f6e0	1.1436401368841231
69	0x3ff24c5999a746c0	1.1436401369177673
70	0x3ff24c5999a98f20	1.1436401369509852
71	0x3ff24c5999abdf00	1.1436401369846294
72	0x3ff24c5999ae2d00	1.143640137018167
73	0x3ff24c5999b07d80	1.1436401370518468
74	0x3ff24c5999b2ccc0	1.1436401370854554
75	0x3ff24c5999b51d40	1.1436401371191351
76	0x3ff24c5999b76fa0	1.1436401371529215
77	0x3ff24c5999b9c020	1.1436401371866012
78	0x3ff24c5999bc11e0	1.143640137220352
79	0x3ff24c5999be5b80	1.1436401372536409
80	0x3ff24c5999c0ade0	1.1436401372874272
81	0x3ff24c5999c2fe60	1.143640137321107
82	0x3ff24c5999c54ee0	1.1436401373547866
83	0x3ff24c5999c7a500	1.1436401373887861
84	0x3ff24c5999c9f8a0	1.1436401374226435
85	0x3ff24c5999cc4ba0	1.1436401374564653
86	0x3ff24c5999ce9900	1.1436401374899674
87	0x3ff24c5999d0ed40	1.1436401375238603
88	0x3ff24c5999d33e60	1.1436401375575755
89	0x3ff24c5999d59520	1.1436401375916105
90	0x3ff24c5999d7e8c0	1.143640137625468
91	0x3ff24c5999da3d00	1.1436401376593608
92	0x3ff24c5999dc90a0	1.1436401376932182
93	0x3ff24c5999dee8a0	1.1436401377273242
94	0x3ff24c5999e13e20	1.1436401377612881
95	0x3ff24c5999e39260	1.143640137795181
96	0x3ff24c5999e5e740	1.1436401378291094
97	0x3ff24c5999e83a40	1.1436401378629313
98	0x3ff24c5999ea8ca0	1.1436401378967176
99	0x3ff24c5999ecdf00	1.143640137930504
100	0x3ff24c5999ef35c0	1.143640137964539
101	0x3ff24c5999f18460	1.143640137998112
102	0x3ff24c5999f3d6c0	1.1436401380318983
103	0x3ff24c5999f626a0	1.1436401380655425
104	0x3ff24c5999f87900	1.1436401380993289
105	0x3ff24c5999fac3e0	1.1436401381326888
106	0x3ff24c5999fd1640	1.1436401381664751
107	0x3ff24c5999ff5ea0	1.143640138199693
108	0x3ff24c599a01ab60	1.1436401382331596
109	0x3ff24c599a03f5a0	1.143640138266484
110	0x3ff24c599a0639a0	1.1436401382994532
111	0x3ff24c599a0879e0	1.1436401383322092
112	0x3ff24c599a0abc00	1.1436401383650718
113	0x3ff24c599a0cfc40	1.1436401383978279
114	0x3ff24c599a0f3500	1.1436401384301575
115	0x3ff24c599a116dc0	1.1436401384624872
116	0x3ff24c599a139be0	1.143640138494213
117	0x3ff24c599a15c820	1.1436401385258321
118	0x3ff24c599a17f000	1.1436401385572026
119	0x3ff24c599a1a0840	1.1436401385876849
120	0x3ff24c599a1c19a0	1.1436401386177764
121	0x3ff24c599a1e2560	1.143640138647548
122	0x3ff24c599a2022c0	1.1436401386765027
123	0x3ff24c599a221440	1.1436401387047823
124	0x3ff24c599a23f3a0	1.1436401387320316
125	0x3ff24c599a25c360	1.1436401387583928
126	0x3ff24c599a2782e0	1.1436401387838302
127	0x3ff24c599a292640	1.143640138807669
128	0x3ff24c599a2aa9c0	1.1436401388296957
129	0x3ff24c599a2c0fe0	1.1436401388500528
130	0x3ff24c599a2d4a40	1.143640138867923
131	0x3ff24c599a2e5160	1.1436401388828799
132	0x3ff24c599a2f2720	1.1436401388950301
133	0x3ff24c599a2fb3c0	1.1436401389030237
134	0x3ff24c599a2ff600	1.1436401389067896
135	0x3ff24c599a2fd800	1.1436401389050843
136	0x3ff24c599a2f4840	1.143640138896913
137	0x3ff24c599a2e30e0	1.1436401388810324
138	0x3ff24c599a2c7200	1.1436401388556305
139	0x3ff24c599a29e9e0	1.143640138818789
140	0x3ff24c599a267300	1.143640138768376
141	0x3ff24c599a21c580	1.143640138700306
142	0x3ff24c599a1bb0a0	1.1436401386118078
143	0x3ff24c599a13d380	1.143640138497375
144	0x3ff24c599a09c520	1.1436401383510386
145	0x3ff24c5999fcfc00	1.143640138164983
146	0x3ff24c5999ecc6a0	1.1436401379291183
147	0x3ff24c5999d84ae0	1.1436401376310457
148	0x3ff24c5999be66c0	1.1436401372542804
149	0x3ff24c59999da340	1.1436401367775062
150	0x3ff24c5999742e20	1.14364013617422
151	0x3ff24c59993f8e40	1.1436401354084325
152	0x3ff24c5998fc9720	1.1436401344339586
153	0x3ff24c5998a71660	1.1436401331897272
154	0x3ff24c59983977e0	1.1436401315945588
155	0x3ff24c5997ac6440	1.1436401295416232
156	0x3ff24c5996f5fc00	1.1436401268872487
157	0x3ff24c5996090300	1.1436401234388427
158	0x3ff24c5994d39f40	1.1436401189366308
159	0x3ff24c59933d8920	1.1436401130272955
160	0x3ff24c5991259b00	1.143640105228485
161	0x3ff24c598e5e5e20	1.143640094878613
162	0x3ff24c598aa8fd80	1.143640081063353
163	0x3ff24c5985ae3c00	1.1436400625132137
164	0x3ff24c597ef42d20	1.1436400374539701
165	0x3ff24c5975cf6d40	1.1436400033915817
166	0x3ff24c59694db0e0	1.1436399568001931
167	0x3ff24c5958163040	1.1436398926625913
168	0x3ff24c59403b5040	1.143639803795864
169	0x3ff24c591ef5f0c0	1.1436396798517734
170	0x3ff24c58f03f0280	1.1436395058264281
171	0x3ff24c58ae35d1c0	1.14363925982353
172	0x3ff24c5850383360	1.1436389096808952
173	0x3ff24c57c981f9a0	1.143638407840264
174	0x3ff24c5707121080	1.1436376835054318
175	0x3ff24c55ec6cdb80	1.143636630569489
176	0x3ff24c544e966ee0	1.1436350889043112
177	0x3ff24c51ec3c9c80	1.1436328151701503
178	0x3ff24c4e6167b0c0	1.143629436958733
179	0x3ff24c491401d040	1.1436243802572932
180	0x3ff24c4114d2f600	1.143616753906258
181	0x3ff24c34edbf5380	1.143605164242416
182	0x3ff24c2251631880	1.1435874156173043
183	0x3ff24c05983e3c70	1.1435600230213616
184	0x3ff24bd8ea3e6c70	1.1435174131536563
185	0x3ff24b92dc9f65b0	1.1434506052085958
186	0x3ff24b2424e939a0	1.1433450166547132
187	0x3ff24a73be2d2bf0	1.1431767872588772
188	0x3ff24958683d6b40	1.142906577288798
189	0x3ff2478d9c240170	1.1424690341228505
190	0x3ff244a0ac810080	1.1417547930177818
191	0x3ff23fd05c3f4fc0	1.1405795672808239
192	0x3ff237d50a5e1040	1.1386309056261013
193	0x3ff22a808f5ff9f0	1.135376510675652
194	0x3ff21419bb00a000	1.129907350996291
195	0x3ff1ee4786f91cd0	1.1206736824404295
196	0x3ff1ae50126eddf0	1.1050568313638642
197	0x3ff14275405f3e40	1.078725100949569
198	0x3ff08e9705f7a310	1.034811995801821
199	0x3feed308c0df7d60	0.9632610098887362
200	0x3feb3ded1156ab60	0.8513093317645648
201	0x3fe8f28207d14860	0.7796030190168146
202	0x3fe6fa6db4a810a0	0.7180698898742044
203	0x3fe5488e44da1d00	0.665106901623318
204	0x3fe3d1ae6b78dee0	0.6193458651605077
205	0x3fe28c5ed578a780	0.5796350640641634
206	0x3fe170c01e458200	0.5450134841194654
207	0x3fe078491399d4c0	0.5146832831220749
208	0x3fdf3b1f9b72c1c0	0.48798360996718415
209	0x3fddb83159357680	0.464367234342582
210	0x3fdc6058769cd4c0	0.4433804663015728
211	0x3fdb2d67ba0f75c0	0.42464631242713935
212	0x3fda1a393dcb4080	0.40785056147161214
213	0x3fd9227eaf3f0d40	0.3927303992642983
214	0x3fd8429a74899900	0.37906514530767765
215	0x3fd77780269bcf00	0.3666687371289612
216	0x3fd6be9b03a88400	0.35538363797428474
217	0x3fd615b9358a3a80	0.34507589558135265
218	0x3fd57afafbcf5680	0.33563112822353247
219	0x3fd4ecc4f6741a00	0.3269512564442323
220	0x3fd469b4f4644d40	0.31895183435809216
221	0x3fd3f098c81dc080	0.31155986349677534
222	0x3fd38066be122600	0.30471199571238117
223	0x3fd3183764a7d5c0	0.2983530505146881
224	0x3fd2b74065dc0900	0.29243478724687577
225	0x3fd25cd03f5c4300	0.2869148844484215
226	0x3fd2084ab0177f40	0.2817560882231085
227	0x3fd1b925ba5aca80	0.2769254989499714
228	0x3fd16ee71ff36480	0.2723939716357293
229	0x3fd1292242ea8a00	0.2681356099584775
230	0x3fd0e776597dc040	0.2641273378312725
231	0x3fd0a98ce7346d80	0.26034853533356994
232	0x3fd06f186f8e6280	0.256780728284447
233	0x3fd037d358dbfc40	0.25340732267062904
234	0x3fd0037ef7805640	0.2502133767132797
235	0x3fcfa3c57674b900	0.24718540462476568
236	0x3fcf4596f257da80	0.24431120713389376
237	0x3fceec159c791280	0.24157972469597055
238	0x3fce96ed2c610980	0.23898090998597965
239	0x3fce45d0e8d10200	0.23650561683645321
240	0x3fcdf87ad773f600	0.23414550323643368
241	0x3fcdaeab06773f80	0.23189294639314184
242	0x3fcd6826ec6a4a80	0.22974096816740897
243	0x3fcd24b8db550480	0.22768316945624534
244	0x3fcce42f846c3e00	0.2257136723132902
245	0x3fcca65d8a2d7d00	0.22382706877667857
246	0x3fcc6b191f002980	0.22201837552740855
247	0x3fcc323baebf6200	0.2202829936275208
248	0x3fcbfba191ca5b80	0.21861667269396534
249	0x3fcbc729c86bc400	0.21701547895602857
250	0x3fcb94b5bd91d200	0.2154757667191376
251	0x3fcb64290ff47b00	0.21399415282299827
252	0x3fcb356960e6a400	0.21256749373904427
253	0x3fcb085e28276600	0.2111928649963346
254	0x3fcadcf08c204a80	0.20986754266830943
255	0x3fcab30b3e0f7780	0.2085889866856938
